ddpg/model_params/sysbench_ddpg_96_55_critic.pth (torch, 424930 bytes, 17 tensors)

state_input.weight f4 [128, 65]
000000 f7 ae 02 b7 40 0c c7 32 4d 89 34 34 24 b8 5d 35
       -7.789341e-06 2.317222e-08 1.6813756e-07 8.2596875e-07
000010 83 64 e5 35 ae 62 05 35 00 ab ba 30 a4 a9 fe 35
       1.7091082e-06 4.968996e-07 1.3581882e-09 1.8973847e-06
000020 0c 50 9c b5 ec fa 09 33 47 03 77 34 b9 dd c2 35
       -1.1646202e-06 3.212601e-08 2.300486e-07 1.4518656e-06
000030 81 f1 5d b6 00 95 ec 33 2c 7e a5 b5 27 fd 83 36
       -3.307214e-06 1.1016709e-07 -1.2330179e-06 3.933575e-06
000040 fc d7 f4 35 22 0c e6 33 0e b3 1a 33 a6 13 7a b4
       1.8242276e-06 1.07124166e-07 3.601877e-08 -2.3290212e-07
000050 38 de 20 b5 b8 de f9 b4 b4 af ee 34 1c a5 a7 b4
       -5.9928016e-07 -4.6541913e-07 4.4458795e-07 -3.1226307e-07
000060 f6 0c 5f b5 82 f1 7b b5 22 80 5f b6 c6 b4 f1 b5
       -8.3092834e-07 -9.3856227e-07 -3.3304173e-06 -1.8008511e-06
000070 0e 29 c1 b4 52 7b 88 b4 1c b6 8b 34 c0 47 8a b5
       -3.5978923e-07 -2.54217e-07 2.602327e-07 -1.0302683e-06
000080 0f fa 27 b6 39 1f 25 b4 33 40 e3 34 1a 2e 43 b4
       -2.5030492e-06 -1.5378181e-07 4.2328756e-07 -1.8177562e-07
000090 14 91 ab 35 7d 29 60 34 9e b5 71 34 d1 6a d7 b4
       1.2782716e-06 2.0876719e-07 2.2510946e-07 -4.012459e-07
0000a0 4f ef 87 35 c5 66 b6 35 c8 85 97 b3 0a 61 34 b6
       1.0127932e-06 1.3589967e-06 -7.05582e-08 -2.6878574e-06
0000b0 f4 ef aa b4 53 7a 9b b5 5a 35 35 b6 ac 15 53 34
       -3.1839556e-07 -1.1584001e-06 -2.7002156e-06 1.965879e-07
0000c0 96 55 26 b6 a6 57 16 b6 48 c8 bf b2 02 09 ec b5
       -2.4785745e-06 -2.240276e-06 -2.2326404e-08 -1.7585992e-06
0000d0 17 2a df b5 b6 a1 88 b3 55 6b 7f b5 21 b1 84 35
       -1.6627044e-06 -6.3624086e-08 -9.515109e-07 9.886318e-07
0000e0 bd a8 8a b5 f4 93 a7 b5 b0 80 d0 b4 4c 14 02 b5
       -1.033091e-06 -1.248553e-06 -3.8836652e-07 -4.845831e-07
0000f0 68 9e 82 b4 b2 0d 8e b6 58 3d f2 b5 8a 8b 5e b6
       -2.4329643e-07 -4.233524e-06 -1.8048258e-06 -3.31618e-06
000100 0d e1 03 b5 8e e3 30 b5 92 eb 04 34 83 12 fc 35
       -4.9128795e-07 -6.5896245e-07 1.2379158e-07 1.8780851e-06
000110 e0 e2 16 b6 9a 06 0e b5 f8 74 a7 b5 8a 94 f0 b5
       -2.24838e-06 -5.290873e-07 -1.2476512e-06 -1.7924624e-06
000120 0b 64 8d 35 9d ae e5 b3 e6 44 90 36 41 1f e6 b4
       1.0534435e-06 -1.06954055e-07 4.2995553e-06 -4.286358e-07
000130 39 6f 30 36 3b 5d 89 35 9f ac 1f b5 5d 5c 80 b4
       2.6290784e-06 1.0234429e-06 -5.948331e-07 -2.390906e-07
000140 02 8e a1 b4 0d 76 40 35 9c c1 4e 33 ad 07 14 37
       -3.009191e-07 7.169736e-07 4.81392e-08 8.823275e-06
000150 e9 14 3c b5 ab bb 55 36 7d 5e 92 b3 60 4c ba 36
       -7.0065886e-07 3.184871e-06 -6.815842e-08 5.552123e-06
000160 48 88 da 34 aa 85 e4 35 59 36 8a 36 fb 55 4e b6
       4.0704822e-07 1.7026225e-06 4.1190474e-06 -3.074644e-06
000170 7a d3 4f b4 7a 92 87 b3 27 a9 5a 34 c4 b1 fb 34
       -1.9355312e-07 -6.313071e-08 2.036437e-07 4.6881735e-07
000180 be 29 93 34 ce 93 20 36 cd ce 28 36 7a 13 2f 35
       2.7411255e-07 2.3927892e-06 2.5154325e-06 6.522092e-07
000190 02 91 08 b6 4e b7 54 b6 80 b3 49 35 ad 79 47 b6
       -2.0349985e-06 -3.169716e-06 7.513954e-07 -2.9724135e-06
0001a0 21 91 72 b6 2d 34 66 32 b4 60 73 b5 cc cd 6b b5
       -3.6145286e-06 1.3399625e-08 -9.0665276e-07 -8.7843796e-07
0001b0 55 8a ac b4 b9 95 b5 b5 3a 56 b1 36 59 c9 28 b4
       -3.2138146e-07 -1.3529126e-06 5.285049e-06 -1.5719469e-07
0001c0 8c c1 af b3 94 6a 01 35 d2 9b ce b6 1d cc 08 b6
       -8.1842785e-08 4.8211336e-07 -6.1574183e-06 -2.0384389e-06
0001d0 85 0d 35 35 4a 0e 2b 34 82 d8 e3 b5 8c 55 1b b5
       6.744743e-07 1.5930814e-07 -1.697583e-06 -5.7866487e-07
0001e0 71 15 85 33 73 cd a0 35 c6 b5 43 b4 2c b0 ee b5
       6.197195e-08 1.1980723e-06 -1.8226919e-07 -1.7783655e-06
0001f0 80 81 1c b5 56 37 9a 35 4e 03 a2 b4 f6 9b 0a 36
       -5.8302976e-07 1.1489999e-06 -3.0177256e-07 2.0654384e-06
000200 b7 82 1e b4 6a dd 87 33 a8 b0 f8 32 ab de ff b6
       -1.476245e-07 6.3267024e-08 2.8951334e-08 -7.625514e-06
000210 af cc 37 b6 40 50 9d 30 2c 2e 1a 34 8b 88 9e 34
       -2.7388267e-06 1.1446062e-09 1.4359165e-07 2.9529141e-07
000220 c6 52 14 b4 93 62 fc b5 20 11 53 b1 35 c0 4b 36
       -1.3813687e-07 -1.8804152e-06 -3.0714276e-09 3.0361236e-06
000230 fb f3 3e 35 78 62 c8 32 e7 52 85 b2 77 7c 4e 35
       7.1135554e-07 2.3327843e-08 -1.5520937e-08 7.69221e-07
000240 d9 25 ad b4 9c 37 ce b4 40 81 b2 34 bc f1 b3 b2
       -3.22513e-07 -3.841095e-07 3.3249125e-07 -2.094827e-08
000250 6a e5 bb b5 00 70 14 af 3a 48 df 34 10 ba 28 36
       -1.3999354e-06 -1.3500312e-10 4.1589539e-07 2.5142253e-06
000260 16 62 aa b4 75 af 3d 35 7a 81 92 35 96 84 7e b5
       -3.1736334e-07 7.066331e-07 1.091553e-06 -9.481531e-07
000270 9a 8c 05 b5 f5 17 af b3 b4 96 b9 33 11 3f 32 b4
       -4.9750963e-07 -8.15343e-08 8.6421466e-08 -1.6600485e-07
000280 88 6e af b2 ce 4e 18 b4 2c f0 1e b6 70 9e c8 34
       -2.0422945e-08 -1.4184772e-07 -2.3683633e-06 3.7368181e-07
000290 fa d3 c9 36 42 90 14 b6 72 c2 0a b4 9f 51 22 b5
       6.014944e-06 -2.2137688e-06 -1.292299e-07 -6.046848e-07
0002a0 4a 1b 64 34 16 f3 bb 35 99 36 ba b4 f8 03 7f b5
       2.1244082e-07 1.4003333e-06 -3.4684925e-07 -9.500068e-07
0002b0 e7 c3 27 36 6f 4a 39 35 cb ef 1d 36 c6 5a 1c b3
       2.499897e-06 6.9026186e-07 2.35344e-06 -3.640414e-08
0002c0 fe e8 03 34 b5 69 55 b6 90 f6 fa b2 66 08 f9 35
       1.2285088e-07 -3.1801003e-06 -2.9215954e-08 1.855439e-06
0002d0 0e c9 c8 35 cc ac dc b5 52 3e d7 31 d6 21 af 34
       1.4959676e-06 -1.6441568e-06 6.2644085e-09 3.262091e-07
0002e0 b3 0f 10 37 d4 b1 ec b3 80 91 08 b4 91 00 fe b4
       8.586724e-06 -1.1021953e-07 -1.271892e-07 -4.73116e-07
0002f0 e0 c1 46 35 e8 e1 25 36 f8 ea 00 35 79 56 b7 b5
       7.4042873e-07 2.471841e-06 4.802564e-07 -1.3659729e-06
000300 4e 94 22 b2 a0 63 92 34 20 fa b1 b4 52 3d 1a 35
       -9.463362e-09 2.7267106e-07 -3.315081e-07 5.7458703e-07
000310 3b a3 39 b5 52 25 a9 35 58 2c 05 b6 57 81 16 35
       -6.91554e-07 1.2602343e-06 -1.9844356e-06 5.606757e-07
000320 80 a2 74 b2 a5 d8 a3 31 8d 5d 1b 36 3f a3 29 34
       -1.42396175e-08 4.768554e-09 2.3151254e-06 1.579874e-07
000330 70 e5 0d b6 b1 67 c5 36 e0 6b d4 b3 09 9b 16 36
       -2.1144187e-06 5.883129e-06 -9.8916416e-08 2.2441984e-06
000340 7e 73 04 36 85 7b a0 b5 3e a8 3f 36 ea 46 5f 36
       1.9736758e-06 -1.1956878e-06 2.8559148e-06 3.3270867e-06
000350 e4 de 81 34 31 a1 95 b3 53 f3 eb 34 e4 df 23 b6
       2.4190297e-07 -6.967674e-08 4.3949203e-07 -2.4419214e-06
000360 52 61 06 35 ff 70 b9 b5 8c d4 94 b4 3a 51 a8 35
       5.006051e-07 -1.381646e-06 -2.7721796e-07 1.2540615e-06
000370 a2 da 98 34 d0 32 ad 34 2c 0a 7f 32 de 26 bf b6
       2.8471283e-07 3.2260732e-07 1.4845266e-08 -5.6967683e-06
000380 34 eb dc b5 08 af 2e 33 f8 d0 ed b4 d2 3a 32 b4
       -1.645973e-06 4.0671722e-08 -4.4296735e-07 -1.659894e-07
000390 8f 1b 16 36 9e 3d 53 b5 90 9a 92 35 28 2b 85 35
       2.2367783e-06 -7.869329e-07 1.0922831e-06 9.921832e-07
0003a0 3a 85 3f b5 84 a9 70 b4 c0 89 0e 36 82 c4 4e b6
       -7.1346915e-07 -2.2413411e-07 2.123983e-06 -3.0810775e-06
0003b0 94 7c 4c b6 76 fd b4 36 2b 3e 87 b6 98 ca b4 32
       -3.0470883e-06 5.3939248e-06 -4.030551e-06 2.1046887e-08
0003c0 60 87 2c b4 81 32 3a 34 2a 12 3c 35 db 3e af b3
       -1.6067997e-07 1.7340973e-07 7.006189e-07 -8.160506e-08
0003d0 51 05 01 b4 a1 0a b5 b3 62 b8 ca 36 03 4f aa b5
       -1.2015995e-07 -8.430403e-08 6.041534e-06 -1.2688982e-06
0003e0 99 d0 21 b5 99 0a cb 36 80 b7 37 32 90 e3 b0 35
       -6.0280723e-07 6.051105e-06 1.0693725e-08 1.3179251e-06
0003f0 90 77 2b 36 aa b3 af b5 af 5b 8f b5 73 04 86 35
       2.555058e-06 -1.3090805e-06 -1.0681014e-06 9.985073e-07

state_input.bias f4 [128]
000000 8c 53 9c 37 a1 07 a0 ba f3 6a 21 35 fa 23 22 b6
       1.8635554e-05 -0.0012209305 6.0132805e-07 -2.4160822e-06
000010 1c 95 cc 3b 59 9d 03 35 18 e4 c6 b6 7f ee 05 b5
       0.006243361 4.9030274e-07 -5.9274134e-06 -4.989342e-07
000020 68 42 df b7 5f 84 74 3b b7 12 65 b6 5a c3 0a b7
       -2.6614594e-05 0.0037310345 -3.4134553e-06 -8.270925e-06
000030 96 f0 de ba e6 5d 8a 3a 62 d1 f9 35 9b 6c 8f 3b
       -0.0017008956 0.0010556548 1.8612884e-06 0.0043769605
000040 d7 f5 5d b6 62 d1 d2 37 88 6a 69 ba 40 b8 98 39
       -3.3074664e-06 2.5131452e-05 -0.0008904119 0.00029128976
000050 57 7b 00 b7 56 6a 37 35 05 60 29 bb 20 de ac bb
       -7.658112e-06 6.832755e-07 -0.0025844586 -0.005275503
000060 40 ea 55 35 9a df a8 39 ee 2e 19 39 a0 cb 05 39
       7.968956e-07 0.00032210053 0.000146087 0.00012759725
000070 12 1a 6b 37 08 c2 94 b1 7d a1 ce b7 9c 9f 56 39
       1.40131615e-05 -4.3294257e-09 -2.4632312e-05 0.0002046809
000080 fb 64 ce 36 c9 79 09 bb 49 96 71 34 5c 35 c9 37
       6.151034e-06 -0.002097713 2.2499547e-07 2.3985915e-05
000090 61 c1 70 b8 f1 3d eb 3a d0 21 b8 39 ec 45 97 b6
       -5.7400557e-05 0.0017947537 0.00035120407 -4.5082907e-06
0000a0 8e 58 83 3a b9 a4 d7 3a 61 e4 af b6 2a 59 62 b7
       0.0010020898 0.001645229 -5.241993e-06 -1.349141e-05
0000b0 2e 49 e5 ba d5 8a 80 b6 61 3b 6e b7 c1 22 a4 b6
       -0.0017493123 -3.8308594e-06 -1.4199731e-05 -4.8916268e-06
0000c0 fe af 52 b7 93 1e 14 b7 43 f0 17 3b 7a 49 df 36
       -1.2557952e-05 -8.828606e-06 0.0023183979 6.6544717e-06
0000d0 d5 a5 88 bb 00 b3 72 37 3a d6 08 b8 50 c9 21 b5
       -0.0041701593 1.4466001e-05 -3.262444e-05 -6.027012e-07
0000e0 f7 35 18 3b 9d 8c f0 37 5f 62 54 37 2b b0 fc b5
       0.0023225525 2.8675708e-05 1.26590885e-05 -1.8826735e-06
0000f0 69 2d 2a b7 a6 46 ab 37 cd 45 26 ba 5e c1 a8 36
       -1.01433625e-05 2.0417687e-05 -0.00063427986 5.029301e-06
000100 82 78 3b 39 d7 9a 5f 38 cb a4 7c b8 b6 eb 0f 37
       0.00017878602 5.331155e-05 -6.0234957e-05 8.578345e-06
000110 56 73 72 39 07 18 47 b7 12 d1 b8 ba fa 84 a0 35
       0.00023121884 -1.1866919e-05 -0.0014100394 1.195963e-06
000120 18 6b a5 3b 7f c7 06 b7 60 a9 2b b5 d5 0c cf b6
       0.005048167 -8.033471e-06 -6.394894e-07 -6.1705746e-06
000130 2c 00 ad 37 e8 d2 1a b6 9f 26 30 b6 5e 22 46 b6
       2.0623287e-05 -2.3070552e-06 -2.6248524e-06 -2.9524303e-06
000140 69 d8 13 bb 4c 87 a4 b8 c4 92 4d b5 78 b6 97 bb
       -0.002255941 -7.8453304e-05 -7.6582023e-07 -0.0046299063
000150 ff 65 0b ba ad 9b 4b 3b ae c0 09 b7 75 d4 c7 bb
       -0.0005317628 0.0031068132 -8.210698e-06 -0.006098325
000160 06 cc 4c b8 fa 53 97 b8 c8 9b 6e b4 40 00 da b3
       -4.88274e-05 -7.215883e-05 -2.222215e-07 -1.01514615e-07
000170 ab a4 53 bb 27 90 81 ba 4c 03 1e ba fc 55 df 34
       -0.0032294195 -0.000988488 -0.0006027713 4.159955e-07
000180 a9 6e 65 37 01 f9 82 3b 8a ba 84 b8 e0 61 93 30
       1.3675229e-05 0.0039969687 -6.328996e-05 1.0723475e-09
000190 0a 0a 01 b7 2e 09 c0 ba 16 44 d8 37 c8 8d 96 36
       -7.691337e-06 -0.0014651173 2.5780912e-05 4.486854e-06
0001a0 af 93 ab b6 c0 9f 76 3b 16 90 30 b6 8c 7d 50 36
       -5.1133898e-06 0.003763184 -2.6309913e-06 3.1067493e-06
0001b0 46 ef 93 b6 f5 be 28 b6 6e 95 85 3a 11 7f 72 3a
       -4.4087965e-06 -2.5145102e-06 0.0010191628 0.0009250502
0001c0 82 ab b6 3b 8d 5d 8f b8 c9 cf 1d b8 69 84 ff 36
       0.0055746445 -6.8361966e-05 -3.7625232e-05 7.615007e-06
0001d0 42 6b ad ba 23 79 5f 39 14 43 80 39 f7 a3 74 38
       -0.0013230818 0.00021312064 0.0002446404 5.8326837e-05
0001e0 46 e1 af b5 19 a2 be 3a 6b 3c bc 3a a9 c6 38 3b
       -1.3104079e-06 0.0014544158 0.0014361268 0.0028194583
0001f0 e4 80 b1 b4 18 62 66 b7 72 5a 0b b6 66 cc 9a b4
       -3.30626e-07 -1.37319075e-05 -2.076526e-06 -2.8833455e-07

action_input.weight f4 [128, 96]
000000 ba 35 24 bd 75 24 99 3c 3f 5a 07 3c ae 1f d6 3c
       -0.0400903 0.018694142 0.008261262 0.026138153
000010 08 e1 86 3d ee 65 0e bc e0 c7 be 3a 9e 7d db bc
       0.0658589 -0.008691294 0.0014555417 -0.026793297
000020 80 b8 3c 3c 94 b0 79 3d 35 c5 94 bd 12 be 44 bd
       0.011518598 0.060959414 -0.07264177 -0.048032828
000030 24 f6 78 bb af f8 49 bd a4 3c aa 3a 44 c8 0d bd
       -0.0037988508 -0.04930943 0.0012988043 -0.034614816
000040 63 b1 14 3c 96 29 e9 bc fc f0 0a bd e3 02 2a bd
       0.009075495 -0.028462213 -0.033921227 -0.04150666
000050 01 55 21 bd c4 f7 03 bc 74 75 a5 3c 3a 81 8e 3d
       -0.039387707 -0.008054677 0.020197608 0.06958242
000060 79 0e d9 3c 9e 6e 00 3c 75 31 34 bd 02 4b 4c 3d
       0.026496159 0.007838873 -0.04399248 0.04987622
000070 34 5e 6b 3d f4 f8 0d 3d 4f 32 c7 bb 1b af 95 bc
       0.057462886 0.03466125 -0.0060789953 -0.018271973
000080 d7 cc 84 3d 0c d9 d8 bc 3d 66 83 bd 85 b7 1e 3d
       0.064843826 -0.026470684 -0.06415985 0.038749237
000090 f3 eb 5e bd 16 28 92 3c f4 f4 f1 bc 72 0d 2f bd
       -0.054424237 0.01784138 -0.029535748 -0.04273743
0000a0 e4 b3 77 3c bb ed b1 bc 50 f6 ca 3b 35 df 6e 3d
       0.015118573 -0.021719804 0.0061939135 0.058318336
0000b0 7a 01 81 3c 4a 68 43 bd 06 5e f9 bc 92 94 cd 3c
       0.015747774 -0.04770688 -0.030440342 0.025095258
0000c0 ee e9 1b bd dd 28 67 3d ea b5 88 3c a4 e7 c5 bb
       -0.03806489 0.056435455 0.016688306 -0.0060395766
0000d0 05 00 98 bd 64 ba 13 3c da ad 07 bb 25 3c 2a bd
       -0.07421879 0.009016607 -0.002070299 -0.041561265
0000e0 bd 23 63 3d 23 1b 33 bd 7c 21 46 3c 14 e0 aa bd
       0.055454005 -0.04372705 0.012092944 -0.08343521
0000f0 64 97 74 3d 1b 86 92 bc 68 db 2d bc f9 ec 57 bd
       0.05971469 -0.017886212 -0.010611393 -0.05271623
000100 43 3b b4 bd 58 7d c2 3d 95 02 96 3c 6a af 15 3d
       -0.08800366 0.09496564 0.018311778 0.03654424
000110 44 23 5e bc c6 e7 83 bd bb 32 b0 bc 33 51 42 3c
       -0.013558213 -0.06440692 -0.021508565 0.01186018
000120 78 9a 94 bc 05 75 4a 3d 8d 39 68 3d 58 d2 05 3d
       -0.018140063 0.049428005 0.05669551 0.032671303
000130 86 c5 ed bc 6f 67 5c bc ff 8d 12 3c f7 96 83 bc
       -0.02902485 -0.013452395 0.008944987 -0.016063197
000140 01 30 1f 3c 1b b7 a9 bc 0c 5c 4f bc 6d 3e a5 3c
       0.009716035 -0.020717194 -0.012656223 0.020171368
000150 eb 45 8b bd de 1d 23 bd 3d 39 6a 3d 1e 97 9e 3d
       -0.06800445 -0.039823405 0.057183493 0.07743667
000160 0a f1 a4 bc c3 27 e9 bc bb 70 68 3c 19 29 ad bc
       -0.020134468 -0.028461343 0.014187033 -0.021137761
000170 38 b8 dc 3c 47 11 8e 3d 20 c5 40 3d 42 79 f3 ba
       0.026943311 0.06936889 0.047062993 -0.0018575566
000180 5a 3f 89 3c 81 be a2 3c 9e 2c 1c 3c ff bf 31 3d
       0.016753841 0.01986623 0.009532122 0.043395992
000190 dd d0 96 3c 2b 47 8d bb 23 e6 7a 3c ee 2f a7 3a
       0.01841014 -0.0043114624 0.015313658 0.0012755373
0001a0 cc 20 12 3c 24 a4 be 3c db 20 6e 3b 1a 13 65 bc
       0.008918952 0.023271628 0.0036335501 -0.013981605
0001b0 1a 41 76 3c eb 63 95 3c 3f 0f c9 3c 3b c6 72 3c
       0.01503017 0.018236121 0.024543403 0.01481777
0001c0 41 90 77 3c 7d 64 97 bb d0 6b d8 bb ea c8 37 3c
       0.015110076 -0.0046201334 -0.006604649 0.011217335
0001d0 9a e9 bb bc a5 d5 b7 3c 0c 36 18 3b d8 e4 fe 3c
       -0.022938538 0.02244074 0.0023225574 0.03111498
0001e0 df 0d 96 bb e4 3d ef ba a7 f8 88 bc 98 ad e4 3c
       -0.0045792903 -0.0018252698 -0.01672013 0.027914807
0001f0 0a 23 2f 3d 39 f6 16 3c 62 88 a2 3c 0b 3a 3b 3c
       0.042758025 0.0092139775 0.019840423 0.011427413
000200 9c 60 56 3c 62 4a 7f bc 13 d9 0c bb 04 da af 3c
       0.013084557 -0.015581699 -0.002149169 0.021466263
000210 b4 e8 27 3b 8e 92 9b 3c 62 3d c6 3b 58 cd 17 bc
       0.002562088 0.018990781 0.006049798 -0.009265266
000220 a7 ae 81 bc 79 2b 66 3b 93 2e 49 bc 7e c7 8a 3c
       -0.015830351 0.0035121127 -0.012279171 0.016940828
000230 84 69 52 3c 59 dd b0 3b 8f 9b 14 bb b6 6d fc 3c
       0.01284254 0.0053974804 -0.0022675728 0.030814033
000240 af 81 2a bb 36 50 3b 3d 38 a1 ed 3c 37 24 42 bb
       -0.002601724 0.045730792 0.02900754 -0.0029623637
000250 ed e0 2e bc 7e ef 38 bc ec b4 3b 3b 32 ce 08 39
       -0.010673744 -0.011287568 0.0028641773 0.00013046784
000260 e6 bc 39 3d a9 4f c9 bb 9f d3 a8 3c 17 fd 14 3b
       0.045346163 -0.0061435294 0.020608721 0.002273386
000270 23 4f 32 3c e0 75 a0 3c 43 95 39 bc 41 2e 8f 3c
       0.0108831255 0.019587457 -0.011327091 0.01747811
000280 d3 00 aa bc 08 fe 12 3d 39 10 e2 3a e9 1c ba 3c
       -0.020752346 0.035886794 0.0017247266 0.022718864
000290 55 cf 91 3c af 92 00 bb e4 07 0e 3a 26 f8 0e 3b
       0.017799059 -0.001961868 0.0005418046 0.0021815388
0002a0 0f 21 31 bc 28 ac 05 3d 33 bb 82 3c 2e f3 d9 3c
       -0.010811104 0.032634884 0.015958404 0.026605215
0002b0 3d 74 7f bc 82 d4 a7 bb 0e b0 0b 3c 5f 71 88 bb
       -0.015591678 -0.0051217685 0.008525861 -0.0041639055
0002c0 95 17 33 3a 02 c3 cc 3b 0a 91 84 bb e8 c1 be 3b
       0.0006831822 0.0062488327 -0.0040456103 0.0058214553
0002d0 28 47 c3 bc ce 9f eb bb bb 6d 00 3d b5 e9 43 3d
       -0.02383764 -0.007190681 0.031354647 0.047830302
0002e0 6f a5 71 3c 6d c5 22 3c 56 2a a1 3c 5c e6 48 3c
       0.014748915 0.009934765 0.019673508 0.012261953
0002f0 c2 f8 a0 3c b4 f1 19 3d 53 1d a7 3c 8d 61 b3 3c
       0.019649867 0.03758402 0.020399725 0.021897102
000300 f4 26 4b bb 53 41 cb 3b 04 ac ed bb 19 f1 7e bc
       -0.003099856 0.0062028556 -0.007253172 -0.015560412
000310 71 70 52 bd 5f 9c 6e bb 8c ac 1c ba 05 54 02 3d
       -0.051376764 -0.0036409122 -0.0005976639 0.03181841
000320 eb 3a 0b bb 34 24 45 bd 2b 64 4e 3d 14 5b 18 3d
       -0.0021244835 -0.04813023 0.050388496 0.037196234
000330 c4 30 e7 bb 00 98 8a 3c ea ee 2e 3b 3f 12 8e 3c
       -0.007055374 0.016918182 0.0026692697 0.017342685
000340 cc 7f b3 3b 2e fd f2 3b 21 6c 9a 3c 75 51 f2 3c
       0.005477881 0.0074154353 0.018850388 0.029579857
000350 a9 5a 75 3d e9 83 d8 3a de 30 29 3c 17 1a 1e bd
       0.059900913 0.0016518804 0.010326592 -0.0385991
000360 b7 6f a9 bb f9 3c e2 3c 2e 08 d5 3c b1 27 67 bb
       -0.005170788 0.027616965 0.026004877 -0.003527146
000370 33 da 87 bc 7a 90 b4 bb 1c 49 f9 3a 94 d3 c5 3c
       -0.016583538 -0.005510387 0.0019018981 0.02414874
000380 c4 c8 0e bd a5 54 26 3c fe 67 b8 3c b6 78 a1 bc
       -0.034859434 0.010152017 0.022510525 -0.01971088
000390 98 0e f3 3c e0 3c 40 3c fa 48 93 3b c3 8d 2d 3d
       0.029670045 0.011733264 0.0044947835 0.042371523
0003a0 a3 97 b6 3b 05 52 d4 3c f8 17 8e b9 e7 7c f0 bb
       0.0055722757 0.025918016 -0.0002710221 -0.0073391083
0003b0 4a bc 00 bc bb 36 cf 3c 0f 1f 38 bb 98 83 fe bb
       -0.007857392 0.025294652 -0.0028094684 -0.007767152
0003c0 0e 1c b8 bb 5a 7a 15 bd 56 2d 83 bc e3 f6 15 3c
       -0.0056185788 -0.036493637 -0.016012829 0.009153101
0003d0 db 27 56 3d c3 05 cf 3c 40 df e8 3c eb 39 b6 3b
       0.052284103 0.025271302 0.028426766 0.0055611036
0003e0 e9 f8 d1 bc 7f 49 2b 3d bf d3 77 bc de 6c 2c 3d
       -0.025631385 0.04181814 -0.015126168 0.04209601
0003f0 b4 1b 94 bc 91 ea 5b 3c 9a e0 c0 3c b5 06 33 3d
       -0.018079616 0.013422624 0.023544598 0.04370757

action_input.bias f4 [128]
000000 3b fb 4a 3d 62 7a 49 3d 21 61 ff 3c 6d fa 66 bd
       0.049556 0.04918898 0.031174244 -0.05639117
000010 f0 47 39 3d e0 8c 08 bd de bb 5e 3c 6e f4 c6 bb
       0.04523462 -0.033337474 0.013594596 -0.0060716188
000020 22 90 87 ba 53 e5 8b bd 2e df 6d 3d 23 7f c0 3c
       -0.0010342638 -0.068308495 0.05807417 0.023498124
000030 61 a0 e7 3d d0 a5 98 bd 9b 49 5f 3d 32 6e 1d 3c
       0.11309887 -0.07453501 0.054513555 0.009608792
000040 a2 7f aa bd 12 c5 8a 3d 17 20 07 3c bd 44 aa bc
       -0.08325125 0.067758694 0.008247397 -0.02078473
000050 50 7d 89 bd 16 00 13 bd a3 51 a9 bc ca 79 ca bb
       -0.067133546 -0.035888754 -0.02066881 -0.006179069
000060 2f 55 2d 3d 91 fc 20 3d d6 73 ce 3c be 64 4e bb
       0.042317566 0.039303366 0.02520172 -0.0031493152
000070 b0 29 b9 3d e7 9e 88 bd f4 85 19 bd da 81 c1 bb
       0.090411544 -0.06670933 -0.037481263 -0.005905372
000080 1c 04 0a bd 2d 78 dc bd 28 da 1e 3d c6 ad 21 3c
       -0.033695325 -0.10765109 0.03878227 0.009868091
000090 8d a9 56 bd 27 10 5a 3d 19 d7 27 3d 1d 7b ce 3b
       -0.05240779 0.05323806 0.040976617 0.0063012973
0000a0 59 a1 15 3c 4f a2 81 39 bd 44 34 3c 85 95 27 bd
       0.009132707 0.00024725727 0.011002717 -0.040914077
0000b0 4d 3c 29 3d 6c ad b1 bc 41 94 90 bd 82 11 1d bd
       0.041317273 -0.02168914 -0.07059527 -0.038346775
0000c0 47 81 01 bd b5 e0 3d bc 9c e6 ee bd fd e3 29 bd
       -0.03161743 -0.011589219 -0.11665079 -0.041477192
0000d0 45 77 09 bd a1 d6 3b bc b1 34 47 3d 7e 99 ae bd
       -0.03356101 -0.011464746 0.048634235 -0.0852537
0000e0 96 78 7c 3d 0f 21 0c bd 20 36 87 bd d5 26 5a 3d
       0.061638437 -0.034211215 -0.066021204 0.05325969
0000f0 1c de 6a bb 21 67 6f bd ab 28 9d bc 34 0c 35 bd
       -0.0035837954 -0.05844796 -0.019184431 -0.04420109
000100 ef c2 af 3d f7 eb ea 3b 47 ec 20 bc e4 b3 bb bc
       0.085821025 0.0071692425 -0.009821958 -0.022912927
000110 ed dc 2a bd dd b4 78 3d 04 36 44 bd b7 65 d4 bd
       -0.041714597 0.06071936 -0.047903076 -0.10370963
000120 1f 0e a2 3c 45 93 b1 3d 47 df 27 3d 48 d3 67 bc
       0.019782124 0.086706676 0.04098442 -0.0141494945
000130 fd ae df 3d c8 94 26 bd 1b e3 45 bd 63 7e 7c 3d
       0.10922048 -0.040669233 -0.048312288 0.06164397
000140 f7 19 e1 bc 40 20 85 3d 54 30 13 3d e0 8a 73 3d
       -0.027478201 0.06500292 0.03593476 0.059458613
000150 4d db 7e bd e9 e5 c7 bd f2 e5 13 3d 76 36 90 3d
       -0.06222086 -0.09760649 0.036107965 0.070416376
000160 0e 5d ab bd 9b fe b4 3d 13 80 a4 bd 24 58 8c 3d
       -0.08367358 0.08837625 -0.08032241 0.06852749
000170 27 9d a3 3d 11 29 42 bd 0c 5f 9b 3d 1f f2 7f bc
       0.07988959 -0.047402445 0.07586488 -0.015621691
000180 ac 29 02 bc f2 10 f8 3c 03 6a 95 bd 74 79 63 bd
       -0.007944506 0.030281518 -0.07295611 -0.05553575
000190 5d 89 d1 3c ed 91 a9 3b b4 48 9c 3d fc 21 ce bd
       0.025578195 0.0051748664 0.076310545 -0.10065076
0001a0 14 a8 24 3d f5 a6 72 bc 89 b6 2a 3d 36 1d 51 bd
       0.040199354 -0.0148103135 0.041677985 -0.05105325
0001b0 dd 58 f4 3c 15 fb 11 bd e2 a1 c5 3d b2 70 8b 3d
       0.02982753 -0.03563984 0.09650017 0.06808604
0001c0 0b 78 df 3d d4 32 4a bd 1a e2 b2 bd 8b b3 94 3d
       0.10911568 -0.04936488 -0.08734532 0.072608076
0001d0 c4 c9 77 bd 0b d5 6e 3c 49 da af 3d 29 ca 55 bd
       -0.060495153 0.014577161 0.085865565 -0.052194748
0001e0 33 a2 fd 3c 11 5a b4 3d ce 25 d0 bd c5 31 fc bc
       0.030961132 0.08806241 -0.10163461 -0.03078545
0001f0 e3 7b 5b 3d 6a ee b0 bc 4b f2 a3 3d 8b 44 cf 3d
       0.053584944 -0.02159806 0.08005198 0.101204954

layers.0.weight f4 [256, 256]
000000 21 58 fc ba 30 5e 2d bb ee 5f 29 bc 8b ff 39 bb
       -0.0019252339 -0.0026453845 -0.010337813 -0.0028381075
000010 50 02 f4 3b 70 9c c7 3b da 63 0f 3c 33 6d fe bb
       0.0074465647 0.006091647 0.008751834 -0.0077644824
000020 7c 21 90 3c 37 c1 23 3c 57 f3 99 bc 6c 12 0c bc
       0.017594092 0.0099947965 -0.018792791 -0.008549314
000030 03 dd e6 bc 91 15 84 3c f9 7c ea bb 9c da c2 bb
       -0.028181558 0.016123565 -0.007156011 -0.0059464704
000040 41 33 93 bc 34 35 00 bb e8 3f af 3b ed d0 98 bc
       -0.017968776 -0.0019562962 0.0053481944 -0.018654311
000050 97 9d 3d 3b c8 01 08 bc ea 26 7a bc 9d 32 16 bc
       0.0028933042 -0.008301206 -0.015268067 -0.009167341
000060 0f d5 86 3c cb f9 a4 bb 5b fb 0f bc 6a b4 3d bb
       0.016459016 -0.0050346605 -0.008787955 -0.0028946646
000070 2a 8f c0 bc b3 a8 8e 3b a8 63 ee 3b 6c c2 a0 3c
       -0.023505766 0.0043536066 0.0072750635 0.019623958
000080 f0 3e 44 3c 66 7f 91 3b fe a7 0a bb b5 26 9e 3a
       0.011977896 0.004440236 -0.002115726 0.0012065979
000090 64 c2 b7 b9 76 08 17 3d ee e7 a5 3b fb c6 0e 3c
       -0.00035049312 0.036873303 0.0050630486 0.008714433
0000a0 78 fb b8 3b ea ad a8 bc c8 9b 8e bc b7 ed 5b 3a
       0.005645212 -0.020590741 -0.017408267 0.0008389609
0000b0 56 8e 32 ba 37 7b 0a 3c 3e 35 91 3c 80 69 96 bc
       -0.0006811371 0.008452228 0.017725583 -0.018360853
0000c0 41 bc 0f 3c 7e b7 6a 3c da 8b 25 bc 7f c0 59 bc
       0.008772911 0.0143259745 -0.010104144 -0.013290524
0000d0 88 44 cc bc 13 8c 60 3c d8 a4 b0 bc 42 fa 6b bc
       -0.024935022 0.013705271 -0.021562979 -0.014402928
0000e0 b8 7a 8f bc 2f dc 24 3b cd 8f b8 ba cf 42 af 3c
       -0.017514572 0.0025155654 -0.0014080942 0.021394162
0000f0 77 5b ba bc 13 b8 b0 bc 1d 33 dd bb a1 92 e7 3a
       -0.022748692 -0.021572148 -0.006750478 0.00176676
000100 1c 01 5f bc cd d8 5a ba 3f 12 a1 bc d7 2d ae 3c
       -0.013611104 -0.0008348346 -0.01966202 0.021262093
000110 ff 09 c4 bc 76 af fd ba a5 19 a5 b7 74 7f 34 bc
       -0.023930548 -0.001935466 -1.9681474e-05 -0.011016715
000120 8e 8e 7c 3c e8 5b 2b 3c f2 2e a2 bc 9f ed 63 3b
       0.015414847 0.010458924 -0.019797776 0.0034779084
000130 62 ff f4 ba 31 6d e1 3a 41 1e 2d bb d9 8f 0c bc
       -0.0018691833 0.0017198679 -0.0026415738 -0.008579218
000140 9d b9 aa 3c 74 76 1f bc d0 c4 59 3c b0 82 2d bc
       0.02084046 -0.009732831 0.013291553 -0.01059024
000150 28 10 c6 3a dd 25 81 bc 2d e0 36 3c 37 44 bd bb
       0.0015111016 -0.015765125 0.011161846 -0.005775954
000160 22 77 a8 3c c1 b1 70 bb 89 39 c9 3b 13 c2 52 bc
       0.02056462 -0.0036727043 0.006140892 -0.012863654
000170 4b fc b3 bb 62 fd fe ba a0 ab 5e 3c d9 c6 35 3c
       -0.005492722 -0.0019454176 0.013590723 0.011094772
000180 33 5c 88 bb 26 73 d9 3a 80 e0 53 bb b0 35 96 3b
       -0.0041613816 0.0016590103 -0.0032329857 0.004584037
000190 45 35 e2 3b fa a0 f3 bb 1d 6d 0d 3c e6 01 74 bc
       0.006903323 -0.0074349614 0.008631972 -0.014893031
0001a0 41 63 b7 bb 1a d8 bc 3c bb b2 b8 3b 2a ca 59 3a
       -0.005596549 0.023052264 0.0056365407 0.0008308018
0001b0 ed 77 a1 3c 25 9c 4b 3c f6 90 48 3c 72 21 2e bb
       0.019710505 0.0124273645 0.012241593 -0.0026570228
0001c0 bf 56 e2 bb a8 58 d4 bb 26 1b d9 ba c1 c2 1e bb
       -0.0069073136 -0.006480295 -0.0016563877 -0.002422497
0001d0 cc 75 c4 3a 44 05 8f bc f3 9a 1f 3c 55 45 6d 3b
       0.001498872 -0.017458566 0.009741533 0.0036204655
0001e0 a9 08 d8 bc dd 0e 21 3c 58 86 65 3b 4f 4c 96 3c
       -0.026371317 0.009830204 0.0035022702 0.018346934
0001f0 6c 84 96 bc ce a4 6e bc fa da d8 bc 6a 87 5a b8
       -0.01837369 -0.01456566 -0.026471604 -5.2101364e-05
000200 b9 3d 1c 3b dd 74 6b bc 89 08 ad bc 1f 97 4e 3c
       0.00238405 -0.014371124 -0.021122234 0.012609272
000210 70 97 a2 bb 0d 09 f0 bc 81 a6 d6 bb 94 48 1b bc
       -0.0049619004 -0.02930119 -0.0065506105 -0.009477753
000220 c5 70 84 3c 1f 9a e1 3c 40 93 fb ba f1 59 a9 bc
       0.016167054 0.027539311 -0.0019193664 -0.02067277
000230 25 0a 8b 3c 7a bf 2b 3d 0a ff 02 bc 7d 2f 2e 3d
       0.01697261 0.041930653 -0.007995376 0.042525757
000240 05 06 53 bb 3d b0 3a 3c b5 15 e7 3a b6 05 b8 bc
       -0.0032199633 0.011394558 0.001763037 -0.02246366
000250 19 1c ea 3c a6 72 5d bc aa 93 57 bc f0 ca 19 bc
       0.028577851 -0.013516104 -0.013157764 -0.009386763
000260 4d 45 07 bd 49 bc 9d 3c 94 f4 22 3b e1 2e 77 bb
       -0.033025075 0.01925482 0.0024865018 -0.003771715
000270 90 63 cf 3c 61 be f4 3c 56 fe 59 3c bb e6 02 bc
       0.02531603 0.029875936 0.013305267 -0.007989581
000280 98 66 8f 3c 67 3e 18 bd 14 c7 87 3c 40 66 73 bc
       0.017504975 -0.037168887 0.01657442 -0.014855921
000290 48 24 5f bc cd 1b 3c 3b a5 eb 42 3c 07 90 29 bd
       -0.01361949 0.0028703094 0.011897002 -0.04139712
0002a0 79 f5 63 3c e5 b5 e5 bc db 99 c6 bc 7e 9a 94 bb
       0.013913506 -0.028040836 -0.024243286 -0.0045350185
0002b0 33 fb 64 bb 23 13 28 3d 07 51 c8 3c cc 1d ac 3c
       -0.0034939765 0.041033875 0.0244527 0.021010302
0002c0 6e 4f 70 3c 42 a5 34 3c b6 c9 16 bb 00 a4 5a bc
       0.014667375 0.011025729 -0.0023008413 -0.013344765
0002d0 d0 73 7c 3b 0f 96 3b 3d 0c 6c b0 3c e4 ca ad bc
       0.0038521178 0.045797404 0.021535896 -0.02121491
0002e0 f0 fd 02 bd 14 8b 13 3d 72 62 11 bc 91 cb bd bb
       -0.031980455 0.036021307 -0.008873569 -0.0057920893
0002f0 62 a9 e2 3c 5b 4b c2 bc ef 21 c9 bb 8f 23 c4 bb
       0.027668659 -0.023717573 -0.0061380784 -0.005985684
000300 64 89 4a bb d4 43 8d bc fe 82 a3 bc 7f b7 29 3d
       -0.0030904645 -0.017244257 -0.019959923 0.04143476
000310 a9 58 2e bc 7a c2 f4 3c 2e 44 16 3a df a8 6a bc
       -0.010641255 0.02987789 0.00057322055 -0.014322489
000320 3d b2 ab 3c 36 c0 08 3d c5 a4 64 bc bc bb e6 3b
       0.020959014 0.03338643 -0.0139553 0.0070414227
000330 b3 ae 31 39 cb e2 f7 3c c8 69 e3 b7 fb 0a 92 39
       0.00016945116 0.03025951 -2.7109767e-05 0.0002785547
000340 58 73 09 3d 2d 87 c1 3c 93 6b 08 3c 6e bc cf bc
       0.033557266 0.023624027 0.008326429 -0.025358405
000350 cf 24 c6 b9 36 20 9e 3c 24 d6 75 3c c7 2a dd 3c
       -0.00037792927 0.019302469 0.015004668 0.026997937
000360 94 4a 07 bc 6b 95 d4 3c 45 7a ab 3c ca b1 34 bc
       -0.008257527 0.025950154 0.020932326 -0.011028716
000370 18 bf 85 b9 f5 81 01 bb 94 d2 36 bc c0 a8 ad 3c
       -0.00025510113 -0.0019761298 -0.011158604 0.02119863
000380 96 7a 6a 3c 0e e6 0e 3c 37 4f 25 3d 85 93 b9 bc
       0.014311453 0.0087218415 0.04035875 -0.02265335
000390 b5 f7 5c 3c 9a bc 47 3c e2 c9 84 3a a9 0d 25 bc
       0.013486792 0.012190962 0.0010130967 -0.010074058
0003a0 28 b4 a2 ba 43 cf bd bc 8d 6c 74 3c a9 9f e9 bb
       -0.001241331 -0.02317012 0.014918459 -0.0071296287
0003b0 8d 05 60 3c b9 7f b0 bc f3 0d 0a bc 3f 55 2f 3d
       0.013673198 -0.021545278 -0.008426177 0.042805906
0003c0 0d b1 05 3d 78 96 58 3c 00 8b 9d 3a 1d c3 14 3d
       0.032639552 0.013219468 0.0012019575 0.036318887
0003d0 7c 90 a8 3c f0 fc ef 3c dc fb 55 bb 89 60 c2 3b
       0.020576708 0.029295415 -0.003265134 0.005931918
0003e0 78 3a 18 3c 73 a8 9d 3c 69 c6 ba 3c 7d 4f 8c bc
       0.009291284 0.019245362 0.022799687 -0.017127747
0003f0 be 92 2a bc ca a9 c1 bb 99 b8 d1 bc e8 6f a2 3c
       -0.010410963 -0.005910133 -0.025600718 0.019828752

layers.0.bias f4 [256]
000000 94 bd be bd 3f 9d 3b bd 33 56 a2 3b ff 0c 9c 3d
       -0.09313503 -0.04580426 0.0049541234 0.07619666
000010 4d f2 cb bd bf 89 80 3d 79 ce 8f 3d 24 64 ac bd
       -0.099583246 0.06276273 0.070218034 -0.08417538
000020 e1 42 91 bd 70 81 09 3c 0b 38 a2 bd a2 20 86 3d
       -0.07092834 0.008392677 -0.079208456 0.06549193
000030 67 ec 68 3d d3 48 77 bc eb d4 93 bc 10 ee 9f bd
       0.056866076 -0.015093046 -0.018045863 -0.07809079
000040 da 27 e3 3c 7c 44 4c bd f1 49 bf bc 81 a4 87 bd
       0.027728964 -0.04987 -0.023350688 -0.066231735
000050 13 d0 41 bd e2 b7 be 3d 15 9a bc bb 43 98 56 bc
       -0.047317576 0.093124166 -0.0057556727 -0.013097825
000060 f8 48 fc 3c 25 04 66 3c 6c cf 6d bd 87 a8 42 bd
       0.030796513 0.014039074 -0.05805914 -0.047524
000070 e1 fc cc bd a4 91 98 3d 46 8e 16 bd 90 c6 4b 3d
       -0.1000917 0.07449654 -0.036756776 0.04974991
000080 fe 56 44 3d 42 95 c8 3d ec 99 82 bd 7e 0c c0 3a
       0.047934525 0.09794094 -0.063770145 0.001465216
000090 b9 50 ca bc 0b f3 86 3d f0 af 06 bd d2 b9 a0 3d
       -0.024696695 0.065893255 -0.03288263 0.078479424
0000a0 04 ed c6 bc 2e c8 89 3d 76 e5 c8 bd a0 4c 9f 3c
       -0.02428294 0.06727634 -0.09809391 0.019445717
0000b0 93 ec 3d bd 44 fd c3 3c 97 1c cc 3d b0 c6 94 bd
       -0.046368193 0.023924477 0.099663906 -0.07264459
0000c0 a9 46 af 3d 5d d1 ae 3d 96 61 cc 3d f1 6b ff 3b
       0.08558399 0.085360266 0.099795505 0.00779485
0000d0 5c 1e 7a bd fc 36 97 bd 34 8c 6f bd 98 1a 15 3a
       -0.06106411 -0.07383534 -0.058483317 0.00056878617
0000e0 55 e4 47 bd d3 b4 c2 3d 95 74 d0 3c 4d 2a 9b 3d
       -0.04880174 0.09507146 0.025446216 0.075764276
0000f0 e4 71 c1 bd 2e e9 10 bc 52 94 2d bd de 95 dd ba
       -0.09445551 -0.008844657 -0.042377777 -0.0016905626
000100 62 fe a1 bd aa 83 97 3d 1c 47 25 bd 53 2a 5b 3b
       -0.07909848 0.0739816 -0.04035102 0.0033441975
000110 8e 82 d4 3b 95 be 66 3d 48 eb 4f 3d 14 6b e2 3c
       0.00648529 0.056334097 0.05076149 0.02763895
000120 53 df 06 bd 84 81 00 3d e0 d1 a2 bd c9 43 cb bd
       -0.032927822 0.031373516 -0.07950187 -0.09925038
000130 a3 ec 89 bc fa 19 b3 3d b9 75 5d 3b 27 fc fb bc
       -0.01683647 0.08745189 0.0033792092 -0.030759884
000140 46 87 59 bd 6d 58 0b 3d 58 58 c2 3d 06 9c b1 3c
       -0.053107522 0.034019876 0.094895065 0.021680843
000150 44 04 03 3d e5 67 86 3d bb 5c 16 bd 54 53 54 3d
       0.03198649 0.06562785 -0.03670953 0.05183728
000160 27 2d c8 bc 8f 6d 57 bd ba ef dc bc 01 0c 96 bd
       -0.024435593 -0.052594718 -0.02696978 -0.07326508
000170 7c 14 79 bd d4 19 89 bd 22 29 be bd 96 89 b9 bd
       -0.06081055 -0.066943794 -0.09285189 -0.090594456
000180 ac 76 7a bc e7 d7 db bb 79 3c 46 3d 1c 5e 62 bd
       -0.015287083 -0.006709087 0.048397515 -0.05526553
000190 59 53 2a 3d 5e db 2d 3d 1c 05 88 bd 83 05 85 bd
       0.041583393 0.042445533 -0.066415995 -0.06495192
0001a0 1c 5c 40 3d 40 57 91 bc 51 8e 02 3c b2 12 47 3d
       0.046962842 -0.0177418 0.007968501 0.048601814
0001b0 c2 02 31 bd d6 93 02 bc dd 52 42 3d f6 23 83 3c
       -0.04321552 -0.007969817 0.047442306 0.016008358
0001c0 24 92 7f bd f2 90 2a 3d 32 b6 56 bd 8f 79 6b 3d
       -0.06239523 0.041642137 -0.05241985 0.057488974
0001d0 61 cd c2 bb b8 df 9d bd ea b2 dc 3b b7 d0 4b bc
       -0.005944893 -0.077086866 0.0067351954 -0.012439898
0001e0 63 de 79 bd 3f 16 0c bb 09 99 ee bc 47 4d 7c 3c
       -0.0610031 -0.0021375564 -0.029125707 0.015399284
0001f0 fd de aa bd 01 d7 c5 bd 79 7e ad bd 7c 53 62 3d
       -0.08343313 -0.09660149 -0.08471388 0.0552554
000200 e9 fd 34 3d 94 d3 9d 3d 24 06 eb bd 52 86 8e bd
       0.04418746 0.07706371 -0.114757806 -0.06959213
000210 0b 81 8a bd 0c 07 2d bd dd 3d c3 3c 4a bb 55 bd
       -0.06762894 -0.04224305 0.02383321 -0.052180566
000220 9d 38 87 3d 41 82 58 3c a4 12 b7 3b 82 1c da 3d
       0.06602595 0.013214649 0.005586939 0.10649969
000230 e4 3d 34 bd 82 a5 65 bd e2 f6 3b 3d ad 42 9b bd
       -0.044004336 -0.056066044 0.045889743 -0.07581077
000240 08 b0 09 3d 02 1a 88 bd 5d 63 b0 3a e4 02 33 bd
       0.033615142 -0.066455856 0.0013457347 -0.04370393
000250 ef c8 7f 3d 66 3e aa b7 ee 1b 02 bd cc 47 61 bd
       0.062447485 -2.0294636e-05 -0.031764917 -0.05500011
000260 b5 8a f4 39 ac 36 c4 3c ff e4 d3 bd 15 1a 26 bd
       0.0004664265 0.02395185 -0.10346412 -0.040552218
000270 18 68 a2 3d 8d ce bb bb 40 ff 83 bd ba 7e 87 3d
       0.079300106 -0.00573141 -0.064451694 0.06615968
000280 75 f8 60 3d d5 b2 af bc f6 92 6b bd f8 54 1e bd
       0.054924447 -0.021447578 -0.0575132 -0.03865525
000290 82 be bc 3d 34 8a a9 bd 94 5e 38 3c 3e 11 8f 3c
       0.09216024 -0.08278313 0.011253018 0.017464276
0002a0 ee f5 bf bd cb 50 81 bd 06 bf 6c 3d 1e 83 85 3d
       -0.09373079 -0.06314238 0.05779936 0.06519149
0002b0 f5 5d 39 bd 46 bd 49 bc 8c 5f 8f 3c 4a 6f 83 bd
       -0.04525562 -0.012313193 0.017501615 -0.06417711
0002c0 43 fa 0b 3d 8e 10 40 bd 91 3f dd 3d f4 33 aa 3c
       0.034174215 -0.046890788 0.1080314 0.020776726
0002d0 0c 63 a5 bc ad ed 35 3d 4b 28 22 3c 69 99 80 bd
       -0.02018883 0.04441612 0.009897302 -0.06279261
0002e0 01 a3 7a bd 77 7c ee bc ff 43 1a 3c 4f 97 8b 3d
       -0.06119061 -0.029112084 0.009415626 0.06815969
0002f0 7e 4e 36 3c ac 7a f1 3d 54 5a 61 3d c3 38 81 bd
       0.011127112 0.11790976 0.055017784 -0.063096546
000300 f6 ed 8e 3d 61 d3 81 3d 30 20 46 3d 5b 86 ae 3d
       0.06978981 0.063391455 0.04837054 0.0852172
000310 a9 c7 32 bb e1 01 03 3d 7c 9d 68 bd 86 22 8a 3d
       -0.0027279651 0.031984214 -0.056790814 0.06744866
000320 92 44 4b bd 51 ee 02 3d f9 86 ba 3c 52 51 13 bd
       -0.04962594 0.031965557 0.022769438 -0.035966225
000330 f2 10 19 3d cc b2 9c bc a4 a8 05 3c 4d c2 9a 3b
       0.037369676 -0.019128226 0.008157883 0.0047228695
000340 05 72 34 bd 10 aa 11 bd 10 c4 98 bd 11 08 d1 3d
       -0.04405405 -0.035562575 -0.07459271 0.10206617
000350 2e e7 d8 bc 68 db 20 bd 61 3b dc 3d bf c9 07 3d
       -0.026477423 -0.039271742 0.10753513 0.033151384
000360 fc 34 79 bd da fb 97 bd 7a 63 c3 bc 32 6a 31 3b
       -0.060841545 -0.07421084 -0.023851145 0.0027071354
000370 6a d9 4a 3d a5 ce a7 3d 9a 1c af 3d 3e 75 4f 3d
       0.04952375 0.08193711 0.08550377 0.05064892
000380 e8 e5 0c 3d 53 1d 97 bd ef 1a b6 3c 50 29 59 3d
       0.034398943 -0.0737864 0.02222964 0.053017914
000390 3b 61 cd bb 87 36 06 3b da 40 08 3a 16 73 be 3d
       -0.0062676943 0.0020479278 0.0005197652 0.09299295
0003a0 7b c1 c6 3d cf 14 76 bd df f5 a6 3b f2 ca aa bd
       0.09704872 -0.06007844 0.005095228 -0.0833949
0003b0 06 e4 60 3d 41 50 ce bc a2 74 47 3d 91 a6 bc bd
       0.05490496 -0.025184752 0.048695214 -0.092114575
0003c0 5a ca 80 3d 6a 3b a9 bd 6c d9 74 bc 65 17 98 3b
       0.062885955 -0.082632855 -0.014944416 0.0046414607
0003d0 5b bf 6d bd be c7 9b bd df fa df 3c 40 16 97 bd
       -0.05804382 -0.07606457 0.027341304 -0.07377291
0003e0 de a5 e7 bc 32 02 39 3d 55 8e 8c 3c 50 15 de 3c
       -0.028277334 0.04516811 0.017157713 0.027109772
0003f0 cb 46 24 bc e1 6c 5e bd bf ba c8 3a 06 42 7f 3c
       -0.010026644 -0.054303054 0.0015314444 0.015579706

layers.3.weight f4 [256]
000000 27 49 7e 3f 00 c5 7e 3f e8 60 7d 3f 7c bc 7f 3f
       0.9933037 0.9951935 0.9897599 0.9989698
000010 32 7c 79 3f a9 0a 88 3f 4e b2 81 3f de c8 7c 3f
       0.9745513 1.0628253 1.0132539 0.98744
000020 f8 9b 7c 3f 72 b8 80 3f c6 31 7a 3f 13 3d 7a 3f
       0.9867549 1.0056288 0.977322 0.9774944
000030 db 66 7b 3f 6a 69 7d 3f f9 2f 85 3f b1 51 7f 3f
       0.9820382 0.98988974 1.0405265 0.99734026
000040 59 03 80 3f df ae 7b 3f 77 db 7d 3f a7 5b 83 3f
       1.0001022 0.9831371 0.99163 1.0262345
000050 4a 30 89 3f d9 83 7e 3f 53 8c 7b 3f 6b 4b 7d 3f
       1.0717862 0.99419934 0.9826099 0.98943204
000060 07 a3 81 3f dd 02 81 3f 54 96 79 3f 87 ba 80 3f
       1.0127877 1.0078999 0.9749501 1.0056924
000070 d0 f7 79 3f b8 df 7e 3f 84 6d 7b 3f 26 60 81 3f
       0.97643757 0.9956012 0.9821398 1.0107467
000080 b3 0d 7b 3f 3a 2c 7d 3f 4b 8e 83 3f 0e 3b 7e 3f
       0.9806778 0.9889561 1.0277799 0.9930886
000090 0f bc 82 3f 5a 09 7f 3f 2c 29 7a 3f c1 9f 80 3f
       1.0213641 0.99623644 0.97719073 1.0048753
0000a0 cb c4 85 3f 0a 85 81 3f fa 57 83 3f 0e 42 82 3f
       1.0450681 1.0118725 1.0261223 1.0176408
0000b0 4c e9 7a 3f 28 84 83 3f 91 93 80 3f 63 2a 7b 3f
       0.9801223 1.0274706 1.0045034 0.9811155
0000c0 c0 c5 83 3f 2d 6f 7e 3f f1 bf 80 3f b1 8f 7c 3f
       1.0294724 0.9938839 1.0058576 0.98656756
0000d0 21 8a 7b 3f 9d 8e 80 3f a1 de 7d 3f 80 62 82 3f
       0.98257643 1.0043522 0.9916783 1.018631
0000e0 e4 59 7b 3f dd 6c 85 3f 06 82 84 3f 3e e9 7e 3f
       0.9818404 1.0423847 1.035218 0.9957465
0000f0 70 b8 7f 3f 5f 67 7b 3f 61 df 7c 3f e5 80 84 3f
       0.99890804 0.98204607 0.9877835 1.0351835
000100 d0 c8 7d 3f ee 16 7e 3f e0 3f 7c 3f 3b f8 82 3f
       0.9913454 0.9925374 0.98534966 1.0232004
000110 b7 14 83 3f 88 ab 7e 3f 55 06 85 3f 3d 68 7e 3f
       1.0240697 0.99480486 1.0392557 0.99377805
000120 1e d4 7e 3f 77 68 81 3f dc aa 7e 3f f6 93 7c 3f
       0.99542415 1.0110005 0.9947946 0.9866327
000130 5b 2d 7e 3f 58 36 7d 3f 55 6a 7c 3f f4 46 7f 3f
       0.99287957 0.98911047 0.9859975 0.9971764
000140 d0 2e 81 3f c0 de 7f 3f 13 af 79 3f 40 c6 7c 3f
       1.0092411 0.99949265 0.9753277 0.98740005
000150 b1 d8 7c 3f c8 03 82 3f c7 e1 86 3f 10 06 7f 3f
       0.98768145 1.0157404 1.0537652 0.99618626
000160 2b 7d 7e 3f b4 c9 82 3f 87 61 7b 3f f7 b6 7c 3f
       0.9940974 1.0217805 0.9819569 0.9871668
000170 5c df 7e 3f 80 b3 79 3f 08 da 80 3f 9d 14 81 3f
       0.9955957 0.9753952 1.0066538 1.0084416
000180 13 fa 74 3f 70 db 78 3f 22 e1 7a 3f 13 86 82 3f
       0.9569408 0.97209835 0.97999775 1.0197166
000190 de 42 7a 3f 6d 05 84 3f 26 23 78 3f e2 7b 83 3f
       0.9775828 1.0314156 0.9692863 1.0272181
0001a0 01 0b 7c 3f e7 28 80 3f a9 8a 85 3f b7 bd 7e 3f
       0.9845429 1.0012482 1.0432941 0.9950823
0001b0 88 67 7f 3f c8 28 82 3f c0 6c 82 3f e8 48 86 3f
       0.9976735 1.0168695 1.0189438 1.0490999
0001c0 c4 ee 82 3f 85 5a 7c 3f 72 40 7b 3f 24 5e 84 3f
       1.0229115 0.9857562 0.9814521 1.034123
0001d0 41 b0 7d 3f 30 07 81 3f 71 1e 7a 3f 23 2e 82 3f
       0.9909707 1.0080318 0.977027 1.017033
0001e0 8f e8 7c 3f bf 17 7d 3f 9d 11 88 3f e2 d8 85 3f
       0.98792356 0.9886436 1.0630375 1.0456812
0001f0 49 3e 82 3f 5d 94 7b 3f 89 9e 7d 3f c8 16 80 3f
       1.0175258 0.9827326 0.9907003 1.0006952
000200 00 6e 82 3f ce e3 81 3f 85 f7 78 3f af 0b 82 3f
       1.0189819 1.0147645 0.97252685 1.0159816
000210 63 aa 79 3f 1e 17 82 3f 0f 2d 87 3f a8 9e 77 3f
       0.97525615 1.0163305 1.0560626 0.96726465
000220 44 ef 81 3f ae fb 80 3f d1 a2 78 3f 95 02 81 3f
       1.0151143 1.0076807 0.9712344 1.0078913
000230 5a d3 81 3f 15 90 82 3f 12 b3 7b 3f 83 a2 7c 3f
       1.0142624 1.020022 0.98320115 0.98685473
000240 68 16 84 3f 45 0a 83 3f 83 56 81 3f 7d 4e 7c 3f
       1.0319338 1.0237509 1.0104526 0.98557264
000250 a0 e9 78 3f 92 c1 77 3f 49 1c 82 3f 8e 1c 7c 3f
       0.97231483 0.9677974 1.0164882 0.9848107
000260 df e6 80 3f f4 fa 7e 3f 0b ca 81 3f 56 17 7f 3f
       1.0070456 0.99601674 1.0139784 0.9964498
000270 e8 2d 84 3f f4 6b 83 3f d5 0c 7b 3f ed 5b 7d 3f
       1.032651 1.026732 0.98066455 0.9896839
000280 80 0b 82 3f eb 7f 7f 3f 39 1b 7e 3f 70 1e 7e 3f
       1.015976 0.9980456 0.9926029 0.99265194
000290 b3 9f 83 3f ff e0 7c 3f df d3 80 3f f8 49 86 3f
       1.0283111 0.98780817 1.0064658 1.0491323
0002a0 97 b7 7e 3f c3 bf 85 3f 10 31 7c 3f fb cd 7e 3f
       0.99498886 1.0449146 0.98512363 0.9953305
0002b0 47 d8 7a 3f 98 43 7d 3f 43 70 7e 3f 1d ec 78 3f
       0.97986263 0.98931265 0.9939005 0.9723528
0002c0 65 2b 89 3f 81 96 7f 3f 73 82 7f 3f 19 18 7b 3f
       1.0716368 0.99839026 0.99808425 0.98083645
0002d0 0e 53 7c 3f 81 b5 75 3f d1 c9 81 3f 7c 4e 7c 3f
       0.9856423 0.9598008 1.0139714 0.9855726
0002e0 39 03 81 3f 11 7e 80 3f a9 6b 80 3f 3b 9c 80 3f
       1.0079108 1.0038472 1.0032855 1.0047678
0002f0 25 f0 7b 3f 6a f1 80 3f fc a5 7f 3f a2 c1 86 3f
       0.98413306 1.0073674 0.9986265 1.0527842
000300 e6 d0 7c 3f 97 dd 78 3f 5c 98 7e 3f 31 2c 7e 3f
       0.98756254 0.9721312 0.9945123 0.9928618
000310 1b 1e 83 3f a0 6f 81 3f 07 dd 7b 3f 33 ad 7a 3f
       1.0243562 1.011219 0.98384136 0.9792053
000320 69 86 76 3f dd e4 7e 3f 97 6d 7c 3f 5f 70 7a 3f
       0.96298844 0.9956797 0.9860472 0.97827715
000330 67 4e 7d 3f 54 49 7d 3f 86 31 80 3f 65 5e 7f 3f
       0.9894776 0.98940015 1.0015113 0.9975341
000340 f3 67 81 3f c9 57 83 3f 6a 20 7e 3f 0c 92 7b 3f
       1.0109848 1.0261165 0.9926821 0.98269725
000350 f3 65 7e 3f 89 79 7e 3f de 14 78 3f c4 9b 87 3f
       0.9937431 0.994042 0.9690684 1.0594411
000360 ce 5a 80 3f 2b 00 7e 3f e3 11 7c 3f 52 31 7a 3f
       1.0027711 0.99219006 0.9846479 0.97731507
000370 0f f7 81 3f be bf 85 3f c6 9a 85 3f e0 76 80 3f
       1.0153521 1.044914 1.0437858 1.0036278
000380 47 d1 83 3f 03 7a 7c 3f 28 99 7c 3f ea 1c 7e 3f
       1.0298241 0.98623675 0.986712 0.9926287
000390 a8 b7 7d 3f 28 9c 80 3f f2 5a 7b 3f 88 be 7d 3f
       0.9910836 1.0047655 0.98185647 0.9911885
0003a0 8d d5 85 3f 23 33 81 3f e8 d7 85 3f fb 98 81 3f
       1.0455796 1.0093731 1.0456514 1.0124811
0003b0 ed 82 7c 3f 5a 9a 7c 3f e4 ed 80 3f cf ba 7f 3f
       0.98637277 0.9867302 1.0072598 0.9989442
0003c0 13 93 77 3f b9 26 7a 3f 3b bf 84 3f 59 d6 7d 3f
       0.9670879 0.97715336 1.0370859 0.99155194
0003d0 ff 86 7f 3f 06 90 82 3f 7c 72 82 3f 91 90 7d 3f
       0.9981536 1.0200202 1.0191188 0.99048716
0003e0 f9 e5 82 3f 76 4a 82 3f 18 86 7b 3f a2 be 7d 3f
       1.0226432 1.0178974 0.98251486 0.9911901
0003f0 ae cc 80 3f 72 0d 7a 3f 5f f1 7e 3f 86 79 83 3f
       1.0062463 0.97676766 0.99587053 1.0271461

layers.3.bias f4 [256]
000000 41 a8 18 3d b3 e0 a4 bd c1 2a 73 3d 6f 9d a0 3d
       0.037269834 -0.080506705 0.059366945 0.07842528
000010 d0 a4 06 3c 2e 3c bb bd 16 17 a6 3d 31 2c d4 3c
       0.008218005 -0.09142338 0.08109872 0.025899978
000020 d1 7b c5 3d 57 51 81 bd 18 33 80 bd f8 26 65 bd
       0.09642757 -0.063143425 -0.06259745 -0.055945367
000030 09 de 9d bd c5 ed 37 bd bc d4 c9 bd 90 d8 c7 3d
       -0.077083655 -0.04490449 -0.09855029 0.09758103
000040 a5 7d a9 3d 5e 2d 9a bd cb 26 88 bd 20 4c ca bd
       0.08275918 -0.07528184 -0.06648024 -0.09877801
000050 a7 86 da bd 57 87 9a 3d 44 c9 a8 bc 59 56 2d 3d
       -0.10670214 0.07545345 -0.020603783 0.042318676
000060 16 b4 9f bd 87 7c 94 3d 06 81 64 3d 3d 68 a9 3d
       -0.077980205 0.07250314 0.05578711 0.08271835
000070 50 40 16 3d 07 0b c9 bd ec 05 a1 bd 9d 65 b4 bd
       0.036682427 -0.098165564 -0.07862458 -0.08808444
000080 d7 d8 85 3d 1e b0 76 3d 07 eb aa bd fe b0 8d bd
       0.065354995 0.060226552 -0.08345609 -0.06918524
000090 4d 14 ba bd 97 f1 86 3d 90 d1 92 bd d2 60 ad bd
       -0.09085903 0.06589048 -0.07168877 -0.08465733
0000a0 26 74 ba bd 88 29 c5 bd 68 8d cc bd f4 32 95 3d
       -0.09104185 -0.09627062 -0.099879086 0.07285109
0000b0 03 f5 0c 3c 1d e7 cc bd fc ae ba 3d bd b4 92 3d
       0.008603337 -0.10005019 0.09115407 0.07163379
0000c0 b8 94 b0 bd 12 0a 82 3d a7 7e 92 3d 71 be 50 bd
       -0.08622116 0.06349577 0.07153063 -0.05096287
0000d0 81 b5 7a bc 45 0c 86 bd 99 6e 48 3d 19 a4 a8 bd
       -0.015302063 -0.06545309 0.0489336 -0.08234424
0000e0 bd b3 8d 3d 19 1c be bd ac 40 b8 bd 13 f8 7f bd
       0.06919048 -0.09282703 -0.0899671 -0.06249244
0000f0 3a 0b a4 3d fc c5 b3 bc 22 75 7a bd 26 31 c5 bd
       0.08009954 -0.021944992 -0.061146863 -0.09628515
000100 f1 1b 11 3c 4d 2f 9a 3d d8 86 85 3d d5 f7 b0 bd
       0.008856759 0.07528553 0.0651986 -0.0864102
000110 a4 13 a6 bd 73 86 9c bd 4e 7e ac bd e9 01 93 3d
       -0.08109215 -0.07642832 -0.08422528 0.07178099
000120 b7 94 ae 3d e1 73 db bd db 4b 8f 3d 1e 09 85 3d
       0.08524459 -0.107154615 0.0699689 0.064958796
000130 ac b4 9a 3d 0f 95 43 bd b8 c7 59 bd 2d da be 3d
       0.07553992 -0.047749575 -0.053168982 0.093189575
000140 4e 8a b6 3d ae 82 b0 3d 31 98 8e 3d ee 1c fb 3b
       0.08913098 0.08618675 0.06962622 0.007663361
000150 4e 33 8e bc a3 53 b3 3d 29 34 ab bd d8 6c 8e 3d
       -0.017358448 0.08756187 -0.08359558 0.06954354
000160 11 e1 98 3d 2b 8e 9d bd ce d8 6a bd d5 65 ee bc
       0.07464803 -0.07693132 -0.057335667 -0.029101292
000170 10 51 87 bd 89 0e 7e bd 65 52 a4 3d cc 36 aa bd
       -0.06607258 -0.06202558 0.08023528 -0.08311233
000180 3c 2f 82 bd 67 1e 72 3d db 76 94 bd 88 cb 9b 3d
       -0.063566655 0.059111025 -0.072492324 0.0760718
000190 11 bd 87 3d ac 43 d9 bd 0c 57 08 3d 8f 6e b6 bd
       0.066278584 -0.106086105 0.03328614 -0.08907806
0001a0 65 2f 56 bd 8b bc a2 bd 2d 1a bc bd cb d3 9c bc
       -0.052291293 -0.07946118 -0.0918468 -0.01914396
0001b0 9c fb 9c 3d 1c 05 98 bd 81 4e b2 bd f3 74 c5 bd
       0.07665178 -0.074228495 -0.0870638 -0.09641447
0001c0 61 9e 86 bd 15 0c 9b 3d 6b 75 2e 3d c9 51 b6 bd
       -0.06573177 0.07570664 0.042592447 -0.08902318
0001d0 0a f0 aa 3d da 7f ba bd 48 e0 e0 3c 37 8a bf bd
       0.08346565 -0.09106417 0.027450696 -0.09352534
0001e0 5f 05 5c 3d 5f 03 6e 3d e9 4d b4 bd 23 07 b0 bd
       0.05371606 0.058108684 -0.08803923 -0.08595111
0001f0 90 04 a5 bd 05 2f 7f bd 82 63 a1 3d 73 5b b8 bd
       -0.08057511 -0.0623007 0.07880308 -0.090018176
000200 87 f2 b0 bd ff f3 99 3d 74 93 7e 3d 4a 67 ae 3d
       -0.086400084 0.07517242 0.06215234 0.085157946
000210 e0 b6 87 3d 60 98 ac bd 4a e8 ba bd bf 37 30 bb
       0.066266775 -0.08427501 -0.09126337 -0.0026888696
000220 58 02 9c 3d ab 1b c3 3d 63 04 50 bd 20 9f 9d 3d
       0.076176345 0.095267616 -0.050785434 0.07696366
000230 84 6b b8 3d 43 1c b6 bd 38 32 70 bd f3 09 52 3d
       0.09004882 -0.08892109 -0.058641642 0.05127902
000240 e3 bd a7 3d e5 1c ba bd 44 19 af 3d 61 22 96 bd
       0.08190515 -0.090875424 0.08549741 -0.07330776
000250 c9 47 91 3d 40 80 84 3d 66 d2 ba bd 05 35 68 bd
       0.0709377 0.06469774 -0.091221616 -0.05669119
000260 71 f7 a2 3d 7c c1 49 3d 1a 3e c1 bd 7f b7 96 bd
       0.07957352 0.049256787 -0.09435673 -0.07359218
000270 bd 8b b5 bd 01 a4 af 3d 60 79 94 3c 9e af 59 3d
       -0.088645436 0.08576203 0.018124282 0.053145997
000280 0d b5 b9 bd d5 15 8e 3d 4f 76 9c 3d e0 2b cf 3c
       -0.09067736 0.06937758 0.07639753 0.025289476
000290 82 72 a6 bd f4 e8 6e bd 70 7d c5 bd 90 ae c3 bd
       -0.081273094 -0.05832763 -0.09643066 -0.095547795
0002a0 df c4 63 3d a7 34 a2 bd ef bb 82 3d 90 52 a8 bd
       0.055607673 -0.07920199 0.06383502 -0.082188725
0002b0 37 f4 81 3d d7 17 b0 3c b1 c2 b7 ba fc 24 9f 3c
       0.063454084 0.021495743 -0.0014019815 0.019426815
0002c0 f3 3c c3 bd 2c 65 c5 3d fb 4b 8c 3d b7 95 59 bd
       -0.095331095 0.09638438 0.068504296 -0.053121295
0002d0 b9 73 9a 3d 00 d5 cd 3b 5b e9 af 3d d1 04 9c bd
       0.075416036 0.006281495 0.08589431 -0.07618106
0002e0 b7 0a bb bd d7 66 bf 3d da 8d a6 bd 6e b4 92 bd
       -0.09132903 0.09345787 -0.08132525 -0.071633205
0002f0 fc 8d a1 3d 00 96 af 3d 4d 65 ae 3d 48 4f c8 bd
       0.078884095 0.08573532 0.08515415 -0.09780747
000300 dc 6e 2f bd 63 44 cc 3b d5 18 9b 3d 2b e6 9f bd
       -0.042830333 0.0062337383 0.07573096 -0.07807573
000310 93 23 9c bd 59 12 b3 bd 02 a0 57 3d b9 99 f7 3c
       -0.07623973 -0.08743734 0.05264283 0.030224668
000320 c1 46 51 bd 1e ee 94 3d 71 84 77 3d 65 9a 49 3d
       -0.051092867 0.0727198 0.06042904 0.049219508
000330 6e b3 1d 3d 02 2c 86 bd 81 75 bf 3d 4a b7 41 bd
       0.038501196 -0.065513626 0.09348584 -0.04729394
000340 79 23 b6 bd 79 b9 af bd 53 4c b3 3d 22 24 2a bd
       -0.088934846 -0.08580298 0.08754792 -0.041538365
000350 f7 33 9f 3d ef 20 53 bd c1 07 83 bd 49 83 ab bd
       0.077735834 -0.05154508 -0.06397963 -0.0837465
000360 38 37 a1 3d 0d 88 a6 3d 90 f9 1b 3a 62 45 7a bd
       0.0787186 0.081314184 0.00059499685 -0.061101325
000370 4c fb 9c 3d d8 ce a6 bd 83 ed c3 bd 81 71 a9 bd
       0.076651186 -0.08144921 -0.09566786 -0.08273602
000380 c0 17 c9 bd 7e 18 a3 3d d0 e8 8b bd 7f c0 97 bd
       -0.09818983 0.07963656 -0.06831515 -0.074097626
000390 6f 7c 8d 3d 12 a7 8d 3d 6b 86 92 bd ed 47 ad 3d
       0.069084994 0.06916632 -0.071545444 0.084609844
0003a0 80 c2 c0 bd 30 6d c1 bd d4 d4 b0 bd 21 fa c0 bd
       -0.09412098 -0.09444654 -0.08634344 -0.09422708
0003b0 99 77 81 bd 17 33 91 3d 4b fc ab bd 0e 59 a7 bd
       -0.063216396 0.07089823 -0.083977304 -0.08171283
0003c0 89 e9 e2 bc f4 f5 7e 3d 11 20 bf bd 83 e1 87 3d
       -0.027699249 0.062246278 -0.09332288 0.0663481
0003d0 85 e2 92 bd 2f 73 b1 bd 5e 4e 9b 3d 02 77 92 3d
       -0.071721114 -0.08664548 0.07583307 0.07151605
0003e0 b0 85 a6 bd 19 e2 be bd 99 2e b4 3d 86 93 eb 3c
       -0.081309676 -0.093204685 0.0879795 0.028756868
0003f0 09 c8 9d bd c9 8f a7 3d 6f 91 67 3d a7 cf b9 bd
       -0.07704169 0.08181722 0.05653518 -0.0907281
