ddpg/model_params/sysbench_ddpg_18_45_critic.pth (torch, 384994 bytes, 17 tensors)

state_input.weight f4 [128, 65]
00000000: 000a ef37 c65e 85b8 e46d f3b8 93a3 8e38
00000010: 046b 29b9 e41b 9bb7 e4bc 55b7 4726 7337
00000020: 71ca b4b8 01e2 fbb6 951d c438 60b4 21b8
00000030: 9042 17b8 7e29 8938 d97b 95b7 16bb 70b7
00000040: 0a5a 83b8 8510 4e39 c9ee fd37 30af abb8
00000050: 9c00 3139 a625 afb6 ae70 8138 927e 65b8
00000060: fcba 11b7 977b 0135 5f67 6a38 f774 23b8
00000070: 9682 c8b7 5795 8338 34c6 ceb9 8a6e aeb6
00000080: b8a8 bf38 9cd7 99b7 9050 7db8 dfc0 efb5
00000090: c78d ecb7 4047 35b9 00b2 2737 2048 6d36
000000a0: 148c 0038 8e21 f2b7 4ede 8ab7 836d 53b9
000000b0: d4fb af37 0b1d 4a38 1fd7 d2b8 37db e038
000000c0: 7e74 c738 dc4c 2139 ddf5 c2b6 9a50 2d35
000000d0: b207 6db8 7232 2eb8 e143 e138 a836 3935
000000e0: 2554 98b7 42b3 f938 d882 8938 432a 9138
000000f0: 001f 4ab9 ac71 8537 646d c938 0544 3a36
00000100: 659d 8eb8 f173 75b7 d32c 5eb9 3ba1 61b7
00000110: 1b10 0db7 0d57 a638 aa22 1737 0835 8938
00000120: 8852 1b37 269b a437 e623 5eb9 376a 5e39
00000130: 460a 9eb6 9a73 0f37 7805 d0b9 002a 2137
00000140: cc36 37b5 3f54 cf39 e26a 5535 f387 2439
00000150: f564 c539 7b97 d437 aedb c8b8 6692 b2b9
00000160: a6c8 1037 4747 3a38 c6b6 c4b7 3f7f 9a37
00000170: 1825 f437 00b4 3736 6ffb 1bb8 10c4 86b9
00000180: 174e f938 81c2 9d37 852a 0db8 81d3 52b9
00000190: 90d6 9637 aece 5436 2402 db36 d275 8ab8
000001a0: f966 fd38 1630 8c37 8b9b 1f38 7eeb cc39
000001b0: fe9e 8638 6cd3 8cb8 41fe acb8 214e b037
000001c0: 2ccc 3138 f0bf 00b8 19be 5538 14ed de37
000001d0: 2cae 7938 9ebe e138 7fa9 5f36 f083 c535
000001e0: fe77 dbb8 6aa7 a4b7 e125 f9b8 9b3e 7838
000001f0: 1f65 5538 9b1c 14b8 7170 8e38 f983 7e38
00000200: 66bc de38 5ab1 4339 7888 9bb7 be43 75b7
00000210: 67d3 eb36 b088 9cb6 b9f7 bb38 9885 7d37
00000220: 519c 64b8 2e7a eab6 d7b3 eb37 f79f b036
00000230: cf88 8039 69cf a038 e095 1539 1bf5 9437
00000240: c3e0 1639 d50e 4f37 8063 8738 495d 4e39
00000250: c069 2fb8 24e3 3837 c9ec 14b8 82df b8b8
00000260: 61ff 1e39 78d3 7f39 dc88 51b8 a67c 4cb7
00000270: d70d b539 1f46 54b7 ab77 8138 74af 06b9
00000280: 0bb3 da38 ae1e 8138 cca1 0537 906a 7fb7
00000290: be20 4d39 dbd7 f238 004b efb8 3228 de38
000002a0: 70a5 fdb8 b0f2 1db4 8575 1538 e29a fbb8
000002b0: e80f 9b36 fc0e 2939 6f4d fdb8 9062 f538
000002c0: 72d6 ebb6 2af4 db37 808c 1bb8 662c e5b8
000002d0: 35ad 91b7 8d79 ae38 2779 8cb7 313b 3d38
000002e0: 2668 07b9 2850 1236 4422 b938 63d1 de36
000002f0: ec48 f738 ada9 0fb8 0911 b138 c033 a1b7
00000300: e5ce de38 4ece 2936 f281 5d38 870f e138
00000310: 0c12 e638 fc82 b438 aab3 af38 91e1 1439
00000320: 2c3d 9837 65de ce39 84ac 0d39 5b44 91b6
00000330: 4496 b7b6 e565 9038 dcb8 38b7 f687 b837
00000340: 1237 b638 4929 7db8 2141 c639 40e2 52b7
00000350: 5831 5b37 4ea3 1f38 8f1b b738 de03 a139
00000360: e280 d1b7 72bc 18b9 b7e4 2939 2d99 33b9
00000370: 9fc5 f8b8 9904 fbb8 5ac8 3db8 8ed7 b8b7
00000380: f07c 07b9 ae55 e338 ff89 4eb8 a07d 56b9
00000390: 2ace ebb8 1046 8237 f40c c2b5 df6f ed37
000003a0: cc4f 1838 3fc0 acb9 490f b137 5ad7 2138
000003b0: 404a eb38 cfe5 a0b8 18a8 5ab9 be0a 8038
000003c0: 9798 75b7 9caa efb7 8da6 88b7 d5d1 0cb8
000003d0: ac99 b1b9 defc 8838 7808 1d37 0f45 5239
000003e0: d63f 9cb7 b5da 9ab8 baab 4bb9 5ef3 fa38
000003f0: 4087 25b7 008b 5138 b19f 1ab9 f9c6 52b9
2.8495677e-05 -6.359587e-05 -0.00011607612 6.801556e-05 -0.00016156962 -1.8490427e-05 -1.2739769e-05 1.4492841e-05
-8.6207765e-05 -7.5066932e-06 9.3515184e-05 -3.855338e-05 -3.6063197e-05 6.5403976e-05 -1.7819855e-05 -1.4348674e-05
-6.263338e-05 0.00019651845 3.0271143e-05 -8.1865466e-05 0.00016880262 -5.2197893e-06 6.1721876e-05 -5.4715732e-05
-8.686209e-06 4.823609e-07 5.588622e-05 -3.897116e-05 -2.3902667e-05 6.2743835e-05 -0.00039439055 -5.1984725e-06
9.139016e-05 -1.8339422e-05 -6.039493e-05 -1.786302e-06 -2.8199413e-05 -0.00017288048 9.9954195e-06 3.5357734e-06
3.0648036e-05 -2.8864273e-05 -1.65544e-05 -0.00020163324 2.0978892e-05 4.81876e-05 -0.0001005365 0.00010721984
9.510758e-05 0.00015382789 -5.810273e-06 6.4564813e-07 -5.651237e-05 -4.1531814e-05 0.000107414795 6.8997406e-07
-1.8158995e-05 0.000119066346 6.5570406e-05 6.922011e-05 -0.0001927577 1.5907768e-05 9.6048025e-05 2.7755752e-06
-6.800405e-05 -1.4630133e-05 -0.00021188268 -1.34485845e-05 -8.408005e-06 7.931711e-05 9.008372e-06 6.542547e-05
9.257936e-06 1.962257e-05 -0.00021184943 0.00021211138 -4.709963e-06 8.55038e-06 -0.00039676926 9.606127e-06
-6.825255e-07 0.00039544885 7.950422e-07 0.00015690904 0.00037649987 2.5342908e-05 -9.577662e-05 -0.0003405988
8.629786e-06 4.4412238e-05 -2.3450131e-05 1.8417484e-05 2.910434e-05 2.7373899e-06 -3.7189046e-05 -0.0002570455
0.000118877906 1.8806431e-05 -3.365662e-05 -0.00020105952 1.7981307e-05 3.1710765e-06 6.526958e-06 -6.6022985e-05
0.0001208316 1.6711692e-05 3.8053415e-05 0.00039085367 6.4192325e-05 -6.7151006e-05 -8.2489576e-05 2.1017217e-05
4.239024e-05 -3.0696334e-05 5.09602e-05 2.657486e-05 5.9528436e-05 0.00010764341 3.332825e-06 1.4716043e-06
-0.00010465084 -1.9628282e-05 -0.00011880301 5.9186114e-05 5.0877334e-05 -3.531259e-05 6.7920315e-05 6.068123e-05
0.00010620877 0.00018662718 -1.8540988e-05 -1.461891e-05 7.0281562e-06 -4.665075e-06 8.962997e-05 1.511108e-05
-5.4505017e-05 -6.987967e-06 2.8097927e-05 5.263831e-06 0.00024515993 7.668028e-05 0.0001426558 1.7757111e-05
0.00014388845 1.2341615e-05 6.455835e-05 0.00019680442 -4.182174e-05 1.102014e-05 -3.5506473e-05 -8.815435e-05
0.0001516319 0.00024397473 -4.9956943e-05 -1.21883695e-05 0.00034533322 -1.2652511e-05 6.173489e-05 -0.00012844597
0.000104283994 6.156914e-05 7.965089e-06 -1.5223995e-05 0.00019562521 0.000115796654 -0.00011410378 0.00010593272
-0.00012094795 -1.4710054e-07 3.5633817e-05 -0.00011997462 4.6212117e-06 0.00016122678 -0.00012078403 0.00011700869
-7.0285105e-06 2.6220532e-05 -3.708573e-05 -0.00010927841 -1.7366003e-05 8.319607e-05 -1.6745716e-05 4.5116238e-05
-0.00012913402 2.1802352e-06 8.82787e-05 6.6404914e-06 0.000117914606 -3.425188e-05 8.443191e-05 -1.9216794e-05
0.00010624322 2.5303048e-06 5.2811527e-05 0.00010731728 0.00010970616 8.6074666e-05 8.378115e-05 0.0001419841
1.8148297e-05 0.0003945708 0.00013511075 -4.3292944e-06 -5.471318e-06 6.8854344e-05 -1.1010296e-05 2.1997821e-05
8.688694e-05 -6.035835e-05 0.00037814028 -1.2569653e-05 1.3064906e-05 3.8060643e-05 8.731253e-05 0.00030711194
-2.4974757e-05 -0.00014566051 0.00016202299 -0.00017127833 -0.00011862371 -0.00011969469 -4.5247703e-05 -2.2034885e-05
-0.00012921146 0.000108401626 -4.9242746e-05 -0.0002045543 -0.00011244074 1.5529833e-05 -1.4457896e-06 2.8304696e-05
3.631394e-05 -0.0003294963 2.1107162e-05 3.8585953e-05 0.00011219503 -7.6722e-05 -0.0002085272 6.1055165e-05
-1.4638666e-05 -2.8570466e-05 -1.629002e-05 -3.3574022e-05 -0.00033874565 6.5320855e-05 9.359901e-06 0.00020052887
-1.8626375e-05 -7.3840296e-05 -0.00019423562 0.000119662596 -9.866257e-06 4.9958937e-05 -0.00014746074 -0.00020101284

state_input.bias f4 [128]
00000000: d5c8 3b39 dc30 d6bc 0c6e 75b9 4a6a 36ba
00000010: b299 f938 65ec e5bc 594b 563a e222 6cb9
00000020: 6f7f 463a 3653 273c e5e2 39b9 b9d9 75ba
00000030: f8a9 683c 832c 073d 590f 0cbc e111 8137
00000040: 860e 5939 e69c e0b9 938b 0bbd 8c7f df38
00000050: c0d7 093d b06f 52bb ac63 9ab9 3f51 91bc
00000060: 3437 02b7 6439 c6bb 65b4 5b39 9d97 ad39
00000070: 8f30 093c 1684 f038 9751 c339 1819 d0bb
00000080: 3412 9339 e1ef bbbb 7b27 9c3c 0f67 f53c
00000090: 04ae c738 8b94 3abc 937d 74ba 0991 88bc
000000a0: 9dc9 82b9 11bc 9eb9 783a 3cba 4cbd abb6
000000b0: f3f7 143a 3b08 fab8 4647 3e3a 8586 253a
000000c0: b80b 1636 b0a2 ac39 ce3a 4a3c 6406 7639
000000d0: 9548 2338 0e1d 323a 05d2 27b9 d81a 6a39
000000e0: 62b5 65bc b942 8c3b ced0 eabb e4f8 e83c
000000f0: 9bff 92bc d74c 3f3c df1f 0939 9532 58bc
00000100: 3af6 c237 f12b 053d 8580 fd38 da83 c03c
00000110: 7b5a 343a 6471 0538 3cc2 10b9 8a37 8ab8
00000120: 9a4c 363b 87bc b839 7dee 603a 4716 7b3c
00000130: f535 d5bc 93d7 9039 932a d0b9 4744 a8bb
00000140: a91c 733b 3b0a 753a b904 603a 68d8 4db8
00000150: 9fe3 893c 17bf fd3c d253 02bd 5ba4 923c
00000160: a845 7b3c 92f7 45ba 1864 053c 15ba 7637
00000170: 96af ddb9 4303 8739 758d 01bd 2793 173b
00000180: b136 16b9 c672 c4b8 8701 b6bc b4b7 4aba
00000190: a6d9 3e3a 3807 7b38 d676 5db9 830c 86bc
000001a0: f05a e2b7 b48e f6b9 88e8 66ba 7233 c6b9
000001b0: ebf9 b2bc 3df9 cfb9 7e7b 61bb 54f9 993c
000001c0: 8c7e 8fb9 6870 6c37 0e17 2139 d7ba fb3b
000001d0: 72a9 ee3c b049 693a a8c8 f53b f083 eb3b
000001e0: 0866 2f38 f4f7 63ba a4d7 5c39 ffd6 f33b
000001f0: 0bbd 73bc 742b af38 a83a b43c 387c 9db7
0.00017908525 -0.026146345 -0.00023406016 -0.00069585873 0.00011901873 -0.028066823 0.000817468 -0.00022519709
0.00075720897 0.01021271 -0.000177275 -0.00093784515 0.01420068 0.033001434 -0.008548581 1.5386324e-05
0.00020700143 -0.00042841508 -0.034068655 0.00010657226 0.03365302 -0.0032110028 -0.0002944743 -0.017738936
-7.761457e-06 -0.006049322 0.0002095267 0.00033110092 0.008373394 0.00011468695 0.00037254088 -0.0063506477
0.00028051587 -0.005735383 0.019061795 0.029956369 9.5214724e-05 -0.0113879545 -0.00093265733 -0.01667072
-0.00024945746 -0.0003027623 -0.00071803434 -5.118234e-06 0.0005682699 -0.00011922462 0.00072585454 0.00063142955
2.2358563e-06 0.00032927608 0.012343122 0.00023462769 3.8929826e-05 0.00067944906 -0.000160046 0.00022325979
-0.014020296 0.004280415 -0.0071660047 0.028438993 -0.017944148 0.011676035 0.00013077211 -0.013195653
2.324126e-05 0.03251261 0.00012087919 0.023500372 0.0006879938 3.1815274e-05 -0.00013805268 -6.590698e-05
0.0027816654 0.0003523568 0.00085804594 0.015325136 -0.026026705 0.00027626436 -0.00039704572 -0.0051350924
0.003709594 0.0009347533 0.00085456256 -4.9077353e-05 0.016832171 0.030974908 -0.03181822 0.017900636
0.015336432 -0.00075518445 0.00814154 1.4706068e-05 -0.00042283227 0.00025751637 -0.031629045 0.002312848
-0.00014325489 -9.3673865e-05 -0.022217525 -0.00077330624 0.0007280357 5.9849786e-05 -0.00021120472 -0.016363388
-2.6983646e-05 -0.00047027098 -0.00088084536 -0.00037803833 -0.021847686 -0.00039667814 -0.0034405882 0.018795647
-0.0002736937 1.4092868e-05 0.00015362745 0.007682185 0.029133532 0.0008899225 0.0075007267 0.007187359
4.1818275e-05 -0.00086963107 0.00021061167 0.007441401 -0.014876614 8.352744e-05 0.022000626 -1.8773702e-05

action_input.weight f4 [128, 18]
00000000: 9c9a be3c f813 bcbc b93c 15bc f32e f8bc
00000010: 2292 b03c 6c9c 66bc ee35 c73c 2725 f0bb
00000020: e4a4 42bd ebb9 88ba d97f aa3b 6cd0 56bd
00000030: 348f 1a3d a785 35bc e1c0 123d d69c 7c3c
00000040: 102a edbc eb3a c23b 0e42 96bc 2f47 e13b
00000050: 3302 8b3c da05 b53b c809 14bd 317c 573c
00000060: 8183 18bd 21bc bd3b a05c 093d 6c3f 683b
00000070: 5870 46bb 496d 443d 35d5 2abd d896 4ebc
00000080: 1a4c 10bd ce57 88bc 8eb5 723c 31a6 aaba
00000090: 7005 b43c a6d4 f23a 0cd5 453c 00f4 9ebc
000000a0: 398e 473d d92a 2b3c a221 1d3d f9eb ce3b
000000b0: fe13 8abc f1f3 4e3c eab5 bdbc 964b 8bbd
000000c0: 9dab 1d3d a831 043c 2564 143d 82e1 3c3b
000000d0: 4e3d 9dbc 53e2 ec3b beaf 87bc 4e3c 4abc
000000e0: 1bd8 85bc 1805 8f3b dfbe 47bd a32f e5ba
000000f0: f9e7 2cbd c418 70bb 1dfe 0e3d 8271 86bc
00000100: 7249 9fbc bc8e 2c3d 7d53 f8bc cb02 fabb
00000110: 1858 98bc 3edc 94bc 3b09 8d3c 24ca eeba
00000120: 1643 b3bc d84b d63a 8ff8 963c 5ef8 023d
00000130: 5afd 1abd 7ee3 a23c a0e0 91bc 2fee 643b
00000140: 5c61 1d3d 8043 0cbc b68d 023b 69c0 593d
00000150: 4d78 e9bc bae4 c83b f9a2 28bd 40eb 77bc
00000160: ee94 c43c b6bf 33bb 9e69 9abc ea66 68bc
00000170: 80c9 f53a 87cd 103d f71c 53bd 5ba7 a8bc
00000180: a6ea 32bd dc7f 1abc 61c8 b23c 9a4b 6bbc
00000190: 7aaa 1ebd 7a77 363d 01b4 33bd d8b8 0bbc
000001a0: 7c53 19bd 4f3b 3abc 0980 e53c b96b dabc
000001b0: 9134 d33c fc21 263c d797 0dbd 1dcc 4abc
000001c0: 3b19 093d bb72 133b 0582 163d 6c2f 923c
000001d0: baa6 4bbd 9dae b03b 90fc 0d3c 49f9 72bd
000001e0: e5c4 303d 6234 273c f63f 0d3d d246 26bc
000001f0: a968 a7bc 71f4 523c 9717 013d c88b a03c
00000200: 5844 fdbc 923f 8ebc 0a8c d73c 7b92 9dbc
00000210: e33c 7a3c 9206 db3b 214f 0fbd d07a fa3b
00000220: 71d7 ab3a 79db 32bd 1794 1a3d 5a0a 3f3c
00000230: 02b5 173d 13b3 233c 46d5 4fbc 2c7c bcbc
00000240: 2d7b ad3c 11ba 5ebc 9f78 b1bb 0654 9dbc
00000250: 6251 263d 25f0 febb 4906 0e3d 6cd5 733b
00000260: 60fc e5bc b80e b0ba 1ab6 8f3c 7759 3ebd
00000270: 5fca 613d 7a2b 85ba dd08 253d 4055 ec3b
00000280: fcde 27bd 2619 d03b 6650 a03c b7db d5bb
00000290: 3843 9bbb fc70 41bc d202 3c3d 35a0 23bb
000002a0: 67fc cf3c 904b 753c 53de 87bc adb1 b7bb
000002b0: ef7c 363c bd41 35bd 5b81 023d 3b96 79bb
000002c0: e411 823d 7d69 c1ba 55c5 c4bc 934d 263c
000002d0: 56af c93c 16a1 133c 093e db3b 075b 8abb
000002e0: 6b1f de3c 32e7 98bb 140f 1b3d f206 37bb
000002f0: fbac e9bc 27b7 84ba 26cd dcba f802 30bd
00000300: 1663 1d3d 14e2 ad3c 72f7 283d df78 b03c
00000310: 04b4 b1bc 9a64 683c be66 f03b 59b6 2bbc
00000320: 4423 09bc 5278 88bb e0bb 483c c63f 133c
00000330: d037 3b3c 6042 d5bc 0d21 0fbc 10ff 7dbc
00000340: 462e 46bb 27cd 27bd 1718 cb3c 9777 d03b
00000350: 2b60 8b3c 9bf9 cdbb 32b1 323b 72d8 033d
00000360: 7d93 d8bc d61e 053c 67bd 17bc 905e 3439
00000370: f650 63bc 0bc9 c83b 9c38 83bc 0c30 d73b
00000380: 4f27 61bb d620 ca3b 9867 d53b 0791 3d3b
00000390: 516b c0bb 3a91 7eb9 249a 91bc 5c2d 273c
000003a0: fc47 5ebc 3deb 4f3b b1d6 b8bc 7577 59bc
000003b0: b2df a33c 99a5 e83c 936d bfbc 08f7 823c
000003c0: 66d9 febc 0f8b b6bc 3a55 263d 06f7 6f3c
000003d0: 8f6c 8fbc 3373 623d f2de 0ebd cd2d c3bc
000003e0: 3bce 11bd eff0 c3bc 3b83 e43c c6c3 6cbb
000003f0: 09f6 cdbc cd2b 553b f8de 753c 42b2 c73c
0.023267083 -0.02295874 -0.009108716 -0.030295825 0.021554057 -0.01407538 0.024317708 -0.0073286477
-0.047520533 -0.0010431384 0.005203229 -0.05244486 0.037734225 -0.0110792285 0.035828475 0.015418252
-0.028950721 0.0059274337 -0.018342044 0.006874941 0.016968822 0.005524379 -0.03614214 0.013152168
-0.037234787 0.005790249 0.0335356 0.0035438193 -0.0030279364 0.047955785 -0.041707236 -0.012609206
-0.035228826 -0.016643431 0.014813794 -0.00130195 0.021975249 0.0018526509 0.01207472 -0.019403458
0.04871962 0.010447227 0.038362153 0.006314751 -0.016855236 0.012631402 -0.023158032 -0.06801526
0.03849374 0.00806848 0.036228318 0.0028820937 -0.019194271 0.0072291284 -0.016563293 -0.012343479
-0.016338399 0.004364621 -0.048766013 -0.001748551 -0.042213414 -0.0036635855 0.03491031 -0.016411547
-0.019444201 0.04212831 -0.030313248 -0.0076297275 -0.018596694 -0.018171426 0.017216315 -0.0018218202
-0.021882575 0.0016349507 0.018429069 0.031975143 -0.03783927 0.019883867 -0.017807305 0.0034932008
0.038422927 -0.008561015 0.0019920892 0.053162012 -0.028499747 0.006130782 -0.041171048 -0.015131772
0.023996796 -0.00274275 -0.01884919 -0.014184693 0.0018752068 0.035352256 -0.051541295 -0.020587614
-0.04368081 -0.009429898 0.021824064 -0.014361287 -0.038736798 0.044547535 -0.043872837 -0.008527957
-0.037433133 -0.011366679 0.028015153 -0.026662694 0.025781902 0.010139938 -0.034568634 -0.012377766
0.033471327 0.0022498805 0.03674509 0.017844878 -0.04971955 0.0053919093 0.008666173 -0.059319768
0.043156523 0.01020536 0.034484826 -0.010148721 -0.020435648 0.012875662 0.031516638 0.019597903
-0.030916378 -0.017364297 0.026311893 -0.019234886 0.015273306 0.006684133 -0.034987573 0.007644035
0.0013110471 -0.043666337 0.037738886 0.011660183 0.037037857 0.009991425 -0.012685126 -0.023008429
0.021176899 -0.013594166 -0.0054159905 -0.019205105 0.040604956 -0.0077800923 0.034673963 0.0037206067
-0.028074443 -0.0013432121 0.017542887 -0.04647204 0.055124637 -0.0010160052 0.040291656 0.007212311
-0.04098414 0.006350654 0.019569587 -0.006526436 -0.0047382377 -0.011806723 0.045901127 -0.0024967317
0.02538891 0.014971629 -0.016585505 -0.0056058974 0.011138185 -0.044252146 0.031861644 -0.003808393
0.063510686 -0.0014756169 -0.024019876 0.010150331 0.02461974 0.009010574 0.006690745 -0.004222277
0.02711459 -0.0046662325 0.037856176 -0.0027927724 -0.028524866 -0.0010125384 -0.0016845807 -0.04297158
0.038424574 0.021225967 0.041251607 0.02154201 -0.021692283 0.0141841415 0.0073364666 -0.010480487
-0.008370224 -0.004164734 0.012251824 0.008987373 0.011426881 -0.026032627 -0.008735907 -0.015502706
-0.0030239983 -0.040967133 0.02479176 0.0063619125 0.01701363 -0.006285859 0.0027266261 0.03218884
-0.026437515 0.008125028 -0.009261466 0.00017201365 -0.013874283 0.006127482 -0.016018204 0.006567007
-0.0034355705 0.006168465 0.0065125935 0.0028925554 -0.005872168 -0.00024277429 -0.017773695 0.010203686
-0.013566967 0.0031725906 -0.02256331 -0.01327311 0.020004127 0.028399276 -0.023367679 0.015986934
-0.031109523 -0.022283105 0.040608622 0.014646297 -0.01750782 0.055285644 -0.034880586 -0.02382555
-0.035597067 -0.023918597 0.027894607 -0.0036127432 -0.025141733 0.0032527328 0.015006773 0.024376992

action_input.bias f4 [128]
00000000: f687 913c 6776 c1bb 1e18 c9bb f03b 9bbc
00000010: 3f54 85bc 7189 853d aa18 653d b126 c73d
00000020: 9f48 54bd 9c71 85bb 19d4 b5bd 95a7 57bd
00000030: b49f 583d d63c c6bd 047f a43d a9f1 4bbd
00000040: cc10 88bd f26a b43c 7f6c 673d 7ee2 ab3d
00000050: ba49 b83c 3e11 623c 5c05 4ebb ef7d 043c
00000060: e19c 263d 434a a1bd 47a9 3dbd e2eb 95bd
00000070: 82e8 b13c 493e 5b3c 6a38 c03d 670c 333d
00000080: 2826 1c3d e5bd fbbb 2146 bbbd 8bae 903d
00000090: d608 a43d 071e 1ebd 926a b9bd 05f9 4d3d
000000a0: 32e7 213c 94fa b1bd 5c14 cc3d 2cb6 f23c
000000b0: 998c 083d e080 81bd 52b4 ed3b 550e dfbc
000000c0: 5522 603c c4b3 2abb e569 9bbd 3229 f23c
000000d0: 68fb abbd e901 81bd 8d96 8dbb 7811 423d
000000e0: cf82 b2bc 5da4 873d 758c 62bd 111d bd3c
000000f0: 5c9a 48bd d32a aabd 0b85 23bd a8f5 7e3d
00000100: 2c23 a0bd a643 9b3d 85cf a3bd d785 b13d
00000110: a4a1 bc3d 4d66 863d 4638 b2bd 6c6a 8b3c
00000120: b34e d8bc e1e1 81bc fcfd 853d f86e b83d
00000130: 7d75 54bd 916e 023c a087 7abd 80f2 abbd
00000140: 0293 673a ecf1 883d 4791 5bbb 57a4 133d
00000150: 3d16 13bc 3743 70bd 88c2 853d 458e bf3d
00000160: 2fac 9f3c cd8a b13d a425 a5bd f36e 7fbc
00000170: 6bf9 873d d62b c6bc 246f 91bd 900a 9ebd
00000180: 116e aabd ab25 8bbc 1c1c 3bbd d958 30bd
00000190: 5158 a63d 79e6 3b3d e434 fdba ee70 073d
000001a0: eb4e 903d 3efc c53b c818 52bd 0d8d bcbd
000001b0: d5e0 793b 263c 7b3d 6d2b 9c3d b438 90bd
000001c0: 77bd 89bc 0c0d b7bd 168a 233d 9787 d8bc
000001d0: 0bd9 33bc 5728 a0bc bf05 9b3d c069 c3bc
000001e0: f73b 7d3d cc1e a33d 026d b33d 2c44 223d
000001f0: 955a 85bd 81f3 743d b151 01bd a1ac 993c
0.017765027 -0.0059040072 -0.006136908 -0.018949479 -0.016275523 0.065203555 0.055931725 0.09724177
-0.05182707 -0.004072381 -0.08878345 -0.052650053 0.05288668 -0.09679572 0.08032039 -0.049791012
-0.06643829 0.022023652 0.056499954 0.08392809 0.022496093 0.013798056 -0.00314363 0.0080866655
0.040676955 -0.078754924 -0.046304014 -0.07320382 0.021717314 0.013381549 0.0938576 0.043713
0.038122326 -0.0076825493 -0.091442354 0.070645414 0.08009498 -0.038602855 -0.0905353 0.05028631
0.009881781 -0.08690372 0.09964821 0.029627882 0.03333721 -0.06323409 0.007254162 -0.027228514
0.01368006 -0.002604709 -0.07588557 0.02956066 -0.08397561 -0.062991925 -0.0043209256 0.04737994
-0.02179089 0.06623147 -0.05530973 0.023085149 -0.048975334 -0.08308949 -0.0399218 0.062245995
-0.078192085 0.07581262 -0.079985656 0.08668106 0.09210518 0.06562481 -0.087021396 0.01701852
-0.026404714 -0.015854778 0.06542584 0.090055406 -0.051869858 0.007960931 -0.0611645 -0.083958626
0.00088338566 0.06686768 -0.003350334 0.0360454 -0.00897747 -0.05865785 0.065312445 0.09353308
0.019491283 0.08669052 -0.0806382 -0.015590417 0.066393696 -0.024190824 -0.071012765 -0.077168584
-0.08321775 -0.016985735 -0.045681104 -0.04305348 0.08122314 0.045874093 -0.0019318131 0.033066683
0.070463024 0.0060420325 -0.051293164 -0.09206591 0.0038128395 0.06133666 0.0762547 -0.07042065
-0.016813977 -0.08938035 0.03992661 -0.026431842 -0.01097704 -0.019550486 0.07569455 -0.023854136
0.061824765 0.079648584 0.08761026 0.039615795 -0.06511418 0.059802536 -0.031572048 0.018759074

layers.0.weight f4 [256, 256]
00000000: 479f 5e3c 0868 89bc 0490 cdbb c4cb 893b
00000010: 79c2 8dba de45 b3bc b83b a6bc 023f aa3b
00000020: f31d bd3c e359 e63b c49a 62bc 6c26 603a
00000030: 769c 04bc 5eaa e23b 4c3d b9ba b113 81bc
00000040: 8eb5 5a3c cf0f 7b3b 61f0 f8bb dcb7 a1bc
00000050: 5bc8 45bc 572f dcbb 04ef 01ba 3424 0dbc
00000060: 422c d23b d7e2 523c 8615 e2bc 79da 8c3b
00000070: f19c 9aba 7faf 21bc f28a 1dbc d131 26bc
00000080: 2d50 5bbc 5367 3cbb 4f4c 33bb 6840 c4bc
00000090: dddb 2fba 543b e53b f0de acbb e1b1 60bc
000000a0: 0154 a63b 2238 7f3c 858e 10bc 876d c3bb
000000b0: e6d4 353a 56e9 f2bc a83e 37bb b98b 41bc
000000c0: eec5 7f3b 7e6b 7abc 07ec 9bbb 64ce 95ba
000000d0: 0d59 e3bb 403f 7bbb 8e9f b9bb da8f a6bb
000000e0: 6795 b43b fd2d 39bc 73a8 37bb d0a9 3ebc
000000f0: fdd5 05bc 6c20 633c f1ad 523b e1f3 b33c
00000100: a7c9 2dbc 4b2b 51bc b59d b7ba 637a 223c
00000110: aa31 873b 569b f23c 983b 043a 2b13 9d3b
00000120: 74d8 af3b 3155 8ebc a4d0 403c afc9 78bc
00000130: 282e 123c 76a6 7b3b 18ca 0b3c 8c05 8db9
00000140: 043d 2e3c c31e 563c bdeb d93c 094c 013c
00000150: bdaa 16bc 199c 90bc 7162 acbb a99b 523c
00000160: 3552 08bc 4289 48bc 0e18 ac3b c834 babb
00000170: 3934 afbb 3fd2 98bb 1abf 65bc a06a a33c
00000180: 5410 0d3c 4b37 cf3b b8cf 31bc 67fa 1ebb
00000190: 05fb ce3b acb8 85bb 3191 143c d719 9fbc
000001a0: 28ab 523c 5367 fcba 0da0 15bc f324 9abb
000001b0: d9e2 793c de0c 3abb 3b24 7fbc 9b07 08bb
000001c0: 1fd1 6a3b 5551 70ba 9d5c 7dbc 5b52 c3bc
000001d0: b989 e8bb 52e5 1ebb 561d 70ba 8822 2339
000001e0: 39ac 9bbc 582f 9b3b c19a f63b ec5d 083c
000001f0: b593 1d3b 8066 c1bc 568c c9ba f41f 35bc
00000200: 8ef1 83bc 3850 b43c 900a 33bd d4eb 1a3d
00000210: 8fe9 383d 5901 d13b 1edc 8dbc 94c0 f2bb
00000220: 80b9 ffbc 7f12 8f3a 91c3 88bb e9af 13bc
00000230: c187 a03b 4e1b 963c c93b da3a 140b 06bc
00000240: 2c1a 893c 630d 9bbc eb58 af3c 6521 643c
00000250: 82c8 01bd 394c 29bc 9efa 8bbc 0509 dabc
00000260: b191 d33c 7445 353c 3553 ac3b 9807 3f3c
00000270: 96d9 1e3c 224c 043d 3217 9a3b 0a30 923c
00000280: 38ef 5abc 9f7f 2f3c c873 dfbb 2394 8b3c
00000290: 68bf 27bb b089 3f3c abf2 103c 5893 bfbb
000002a0: e261 883c 5c7d 20bc ac5d f23c 0c23 afbc
000002b0: 42b8 903c 7266 40bc 7b93 cc3c a71b 413c
000002c0: 1444 20bc 0bcf debc 8975 81bc 170b 373c
000002d0: 47e4 fdbc 5c76 083c 35a5 01bd 7901 623c
000002e0: 05b2 963c 179a 45bc c2e8 f9bc 3bf3 553c
000002f0: 84b6 593c dfad 213d b922 e0bb ee8d 57bc
00000300: c50e ad3c 182e 253a 10ff b73a 192f dcbc
00000310: 19f2 523b ba48 ea3c c613 d53b ce05 eeba
00000320: d1db e8bc 4d12 a2bc bd0d 8bbc c6d8 393c
00000330: ae0d 03bd b11b dfbc f72b b2bc f2ab 883c
00000340: abe2 2bbc fcc8 3bbd 3f26 5b3c 8ccc da3c
00000350: d99d 893c ac0e b4bc 3310 983c 6d96 e43b
00000360: 8461 a1bc fd70 01bb 0caa d3b9 700b db3c
00000370: 0455 e53c 3402 c13b c3d3 8c3c d1a6 8e3c
00000380: c3ee a5bc b9b9 8ebb b623 abbb 8f61 f3bc
00000390: 6f85 f53c a085 7e3c 816d 1b3a 184d 883c
000003a0: 2bab f4ba e09d af3c 8921 0ebd de30 4a3c
000003b0: cfc7 243d 8e5a 053d ff4c 063d 2d2c 3bbc
000003c0: 1528 153d 55e5 a3bb 9bf5 6f3c 6dda 3ebc
000003d0: 4d88 77bc 77ea ab3c 0c0e 0d3d dcaa 873c
000003e0: 2b06 2d3b c398 8c3c 8a35 7ebc ff8b 953c
000003f0: 2379 9e3c e934 69bc 9599 85bc cfeb 113d
0.013587779 -0.016773239 -0.0062732715 0.004205199 -0.0010815404 -0.021883901 -0.020292148 0.0051954994
0.02308557 0.0070297583 -0.013830844 0.0008550647 -0.008093944 0.006917282 -0.0014132648 -0.01575646
0.01334895 0.0038308983 -0.007597015 -0.019740991 -0.012071694 -0.0067195105 -0.00049565756 -0.0086145885
0.0064139673 0.012871466 -0.027598154 0.004298505 -0.001179604 -0.009868502 -0.009615647 -0.010143713
-0.013385815 -0.002874811 -0.0027358716 -0.023956493 -0.00067084824 0.006995598 -0.0052755997 -0.013714285
0.005075932 0.015577348 -0.008823042 -0.0059639844 0.00069363264 -0.029652279 -0.002796093 -0.011813098
0.0039027887 -0.015284417 -0.0047583613 -0.0011429307 -0.006938106 -0.003833726 -0.0056647724 -0.0050830664
0.005510974 -0.011302468 -0.0028023988 -0.011637166 -0.008168695 0.01386271 0.0032147134 0.021966876
-0.01060716 -0.0127666695 -0.0014008792 0.009916875 0.0041257935 0.029615086 0.00050442806 0.0047935448
0.0053663794 -0.017374607 0.011768494 -0.015184804 0.008922137 0.003839878 0.00853207 -0.00026897748
0.010634664 0.013068858 0.026601667 0.007891663 -0.009195981 -0.017652558 -0.0052607586 0.012854495
-0.008320381 -0.012239756 0.005251891 -0.0056825615 -0.0053468016 -0.004663735 -0.014022613 0.019948304
0.00860985 0.00632373 -0.010852747 -0.0024258138 0.006316545 -0.0040808525 0.009067819 -0.019421501
0.01285819 -0.0019256867 -0.009132397 -0.0047041117 0.015251839 -0.0028389017 -0.015572603 -0.0020756486
0.0035830212 -0.0009167393 -0.015463975 -0.023842981 -0.007096496 -0.0024245572 -0.0009159645 0.00015557755
-0.01900302 0.0047358684 0.0075257723 0.008323174 0.002404434 -0.023608446 -0.0015376906 -0.0110549815
-0.016106393 0.022010908 -0.043711245 0.03782256 0.045144614 0.0063783345 -0.017316874 -0.007408211
-0.031216383 0.0010915546 -0.004173704 -0.009014108 0.0048989956 0.018323567 0.0016649897 -0.008181352
0.016736113 -0.018927282 0.021404704 0.0139239775 -0.03168536 -0.010333114 -0.017087277 -0.026615629
0.025826307 0.011063922 0.0052589425 0.011659525 0.009695431 0.03229917 0.004702472 0.017845172
-0.013362698 0.01071158 -0.006819222 0.01703841 -0.0025596265 0.011690542 0.008846919 -0.005846422
0.016648237 -0.009795513 0.029585682 -0.021379016 0.017665986 -0.011743175 0.024972668 0.011786378
-0.009781856 -0.027198335 -0.015803115 0.011172078 -0.03099264 0.008329 -0.031651694 0.013794296
0.018395433 -0.012060664 -0.030506495 0.013058479 0.013288144 0.039472457 -0.0068400768 -0.013156397
0.021125207 0.0006301119 0.0014037807 -0.026877927 0.0032187758 0.028599132 0.0065026013 -0.0018159689
-0.02842513 -0.019784117 -0.016974324 0.011343187 -0.031995468 -0.027234884 -0.02174948 0.016683552
-0.010491054 -0.04584597 0.013375818 0.026708864 0.0167989 -0.021979652 0.018562412 0.00697594
-0.01969982 -0.0019751184 -0.0004037175 0.026738852 0.02799464 0.005890155 0.01719082 0.017413529
-0.020255452 -0.004355636 -0.005222763 -0.029709606 0.029970853 0.015534788 0.0005929098 0.016638324
-0.0018666735 0.021437585 -0.03469995 0.012340752 0.040229615 0.032557063 0.032788273 -0.011424107
0.03641518 -0.0050017037 0.014645959 -0.011648756 -0.01510818 0.020985825 0.034437224 0.016560964
0.0026401381 0.017162686 -0.015515694 0.018255232 0.019344872 -0.014233806 -0.016308585 0.035625275

layers.0.bias f4 [256]
00000000: 9d71 4abd c386 723d 3b3b 433c 2525 5c3d
00000010: 8b1b b2bc 6fbd 743d e2fb bf3c 7660 b6bd
00000020: 1dfa b43d 487c bbbd 6183 1c3d a038 0dbd
00000030: 77bc 86bc 90c2 acbd 185a 0bbd 9b75 70bc
00000040: ed0a 92bd 3a76 7d3d f397 20bd 57f0 7f3d
00000050: 8cf0 993d 065d b7bd b4d5 fc3a 2d40 e43b
00000060: 31bc 0bbd 4016 bcbd 9c40 003d 8c0c d43c
00000070: 1eb0 243d 6198 b73c 670d 4abd bd0b 1cbd
00000080: bde1 a7bd 7569 55bd 92e7 07bd 70e2 3a3c
00000090: 0abd 04bc 8736 3f3d 7b9a 983b a040 98bd
000000a0: ac32 96bd c51a bd3d 806f 283c 5697 103b
000000b0: 2791 59bd 7dc5 58bd fa17 7dbd b828 59bd
000000c0: 1d8c 9c3c 26ff 67bd 3494 abbb 9bed 70bd
000000d0: d380 96bc c1e0 e4bc b2da 8cbc 7a53 143d
000000e0: 0908 60bc e83f 30bd 6f99 7fbd e057 29bc
000000f0: 1374 1f3d 027d d23d 296c c1bd 05b9 d53c
00000100: 1d75 3e3c dd67 343c e554 ba3c 20da b73d
00000110: b3bf 853d 3ea3 503c b33a 8e3b 903b 49bc
00000120: 77a0 d9bd ac18 373d e64d 62ba 3ad6 c4bd
00000130: 3223 613d 87a7 003d 59f3 ec3c 94eb bcbb
00000140: fd27 aebd 9908 62bc 34fb 91bc 4078 de3d
00000150: 3046 25bd d900 abbd 26bd 833b 2796 99bc
00000160: 36dd e6bc 9b73 d73c 2e00 b63c af23 a23d
00000170: 6465 853d 8d40 e63c c30d 643d 035d a5bc
00000180: d5bf 27bd 4c76 6bbd 6772 53bc c52a 90bd
00000190: 06a7 d23d 5ba2 c7bd 8e66 a4bd f214 04bc
000001a0: 3a22 10bd c605 5ebb cdda 153d 735c 613d
000001b0: a8b0 543d 7a47 a2bc 2f71 37bc eab7 bcbc
000001c0: ec3e 843c 2382 0a3c cc09 0cbd 011d 463c
000001d0: 6180 98bc 7040 173d fffd a73d d244 2d3d
000001e0: 45f5 8b3d 0a73 bfbc 427f 9c3d eef0 70bd
000001f0: 7263 673d b422 d3bc 1b15 7bbb b2d2 9fbd
00000200: 365d 03bc 44b7 2abd 7816 553d 9717 5b3d
00000210: 283d 92bd d1c5 933c 448f 973c 6732 56bc
00000220: cd01 d2bb 84ba cf3d 8002 85bd 7022 aabd
00000230: 1676 7fbd 0fa2 cabd 0a2c 5d3c f892 8fbd
00000240: 7143 123a add2 44bc bc56 af3d b883 ae3d
00000250: b577 633d 1344 0e3d e49d aa3d 8640 35bd
00000260: 96e0 683a ec23 c03d 7c75 aebd 6966 2c3d
00000270: 7e9a 0a3d b928 f7bc fdd0 f3bc d9b1 c33c
00000280: 2644 a03d 5308 7bbd 0322 963d e811 343d
00000290: fcf9 103d 0406 713d ea12 1d3d afa4 8ebd
000002a0: c018 943b e029 adbd af10 473d fcd8 8abd
000002b0: e59d bfbc 6812 993c c517 aebd 09af 96bd
000002c0: 8618 873d a65a f0bb 5a4c 72bd 665d 1f3d
000002d0: 3229 e53c 3ce9 b73d d08c 0dbd fef3 b9bd
000002e0: 61a2 3bbd 9936 883d 25bd 9bbb dd2e 0dbc
000002f0: ca0d 903d 3baa 623d 4433 103c 2234 59bd
00000300: ad8b a3bd e84b 7c3d 8321 ac3d 8940 7ebd
00000310: 0678 c2bd 7f7d 22bd 20c3 2cbd b237 54bd
00000320: 4d78 c6bc c88b ddbd 435a 963d c19e a3bd
00000330: 939e a2bd 77bf 673d 9e06 053d 436e 253d
00000340: 65ba bcbd 35cc 9ebd 41c2 a33c 76a8 33bd
00000350: 742f 9f3d ed26 d23b 68b6 f7bc de14 95bd
00000360: 3a2b 753c 074b cb3d f15c a13c d9e8 873d
00000370: 3427 f1bd e497 9f3d cc15 b7bd 306e 65bc
00000380: 18bb 9d3d 33b7 813c b792 c4bd 24f0 f93b
00000390: 7151 48bc 4cf7 193d dcb6 6e3b 1429 523b
000003a0: 673f 643d f37a d4bc f23f 14bb 9c70 3a3d
000003b0: e2f5 bcbd 8d0a c73d 9699 d9bd aa54 4c3d
000003c0: 8033 cbbd eede c4bb 5e49 c3bd 84e2 63bd
000003d0: 8c29 8e3d dc10 2d3d 4ccf ae3d 4f95 ddbc
000003e0: 9202 863c 58a9 a63d 2448 983d a069 a7bc
000003f0: f3ad aebd 2a43 7bbd 0149 3fbd 741d 62bd
-0.049424756 0.05921055 0.011915977 0.05374636 -0.02174165 0.05975097 0.023435537 -0.08905117
0.08836768 -0.09154564 0.03821123 -0.03447783 -0.016447289 -0.08435547 -0.034021467 -0.014676477
-0.0713099 0.061880328 -0.03920741 0.062485065 0.07516584 -0.0895329 0.0019289763 0.006965658
-0.03411502 -0.09183931 0.031311616 0.025884889 0.04020702 0.022411527 -0.049329188 -0.038097132
-0.08197353 -0.052102525 -0.033179827 0.011406526 -0.008101711 0.04668286 0.0046570874 -0.07434201
-0.07333884 0.092336215 0.01028049 0.002206286 -0.053116944 -0.052922715 -0.061790444 -0.053017348
0.01910978 -0.056639813 -0.005236173 -0.05882035 -0.018371975 -0.027939202 -0.017194126 0.036212422
-0.013673791 -0.043029696 -0.062402185 -0.010335892 0.038929056 0.102777496 -0.09444458 0.0260892
0.011624602 0.011011091 0.022745559 0.08977151 0.06530704 0.0127342325 0.0043404936 -0.012282267
-0.10626309 0.044701263 -0.00086328236 -0.09611173 0.054965205 0.031409767 0.028924631 -0.005765388
-0.08503721 -0.013795995 -0.017819978 0.108627796 -0.04035014 -0.08349771 0.004020351 -0.018748356
-0.028181653 0.026300242 0.022216883 0.07916962 0.06513479 0.028106952 0.055677187 -0.020185953
-0.04095443 -0.057485864 -0.012905694 -0.07039408 0.102857634 -0.09747764 -0.08027373 -0.008061634
-0.03518889 -0.0033877953 0.036585618 0.055019807 0.051926285 -0.019809473 -0.011196419 -0.023036916
0.016143285 0.008453879 -0.03418903 0.012091876 -0.018615903 0.036926687 0.08202743 0.04230196
0.06833891 -0.023370285 0.0764146 -0.05882352 0.056491323 -0.025773384 -0.003831214 -0.07803859
-0.008017829 -0.041678682 0.05202338 0.053489294 -0.07140571 0.018038662 0.018500932 -0.01307354
-0.006408906 0.10142997 -0.064946175 -0.0830735 -0.062368475 -0.098941915 0.013499269 -0.07010454
0.00055795076 -0.01201312 0.08561465 0.08521217 0.055534083 0.03473289 0.083308965 -0.044250987
0.00088835636 0.093818516 -0.08518502 0.042089853 0.03383874 -0.030170785 -0.02976274 0.023888515
0.07825498 -0.061287235 0.07330706 0.04396239 0.035394654 0.058843628 0.038348116 -0.06965005
0.004519552 -0.08455253 0.048599895 -0.06779668 -0.02339072 0.018685535 -0.085006274 -0.07357604
0.06596474 -0.007335025 -0.059154846 0.03890743 0.027973745 0.08980033 -0.034558117 -0.09079741
-0.045809153 0.06651039 -0.0047527724 -0.00861713 0.0703388 0.055338126 0.008801285 -0.053028233
-0.079856254 0.061595827 0.08404829 -0.062073264 -0.09495549 -0.039670464 -0.042178273 -0.051810928
-0.024227286 -0.10817677 0.07341435 -0.07989264 -0.07940402 0.05657908 0.032477014 0.040388357
-0.092152394 -0.07753793 0.019990088 -0.04386183 0.07772723 0.0064133317 -0.030238345 -0.07279371
0.014963919 0.0992642 0.019697638 0.06636209 -0.117750555 0.07792643 -0.08939704 -0.0140033215
0.07701701 0.015834427 -0.09598296 0.007627504 -0.012226448 0.037589356 0.003642491 0.0032067942
0.055724528 -0.025937533 -0.0022621122 0.04551755 -0.09226586 0.09718809 -0.10624997 0.04988543
-0.09921932 -0.0060080206 -0.09535478 -0.055635944 0.06941518 0.042252406 0.085356325 -0.027048735
0.016358647 0.081377685 0.07435635 -0.020436108 -0.08529272 -0.06134335 -0.04670048 -0.05520387

layers.3.weight f4 [256]
00000000: ef82 7c3f ade7 813f e08a 803f 5981 823f
00000010: 0121 7e3f 18ba 7d3f 7433 7f3f 49f3 7d3f
00000020: 5c95 7c3f 800d 7d3f b1ee 7f3f c8f0 7f3f
00000030: 1dd0 7f3f 9431 7d3f 0a1e 7d3f 435b 803f
00000040: de9c 7e3f 70d8 813f f194 823f 06c2 7f3f
00000050: a806 803f 4f6e 7f3f 4efa 7e3f 60c5 7f3f
00000060: 0ed2 803f 96ce 813f 8e46 803f 283f 813f
00000070: 7abe 7d3f b457 7e3f 8f7a 803f bf9b 7e3f
00000080: f459 813f 9b08 7f3f e27d 7c3f b6cd 7f3f
00000090: 5056 803f 51be 7f3f f931 813f f20a 7f3f
000000a0: f436 7f3f 345f 813f feac 7f3f 9307 823f
000000b0: 0818 813f aac1 7a3f edc2 7e3f 9d29 7c3f
000000c0: b2cb 803f 37bf 7d3f 4749 7f3f 2979 803f
000000d0: e3a1 813f 7303 813f 203c 803f d62d 7f3f
000000e0: 6de7 7d3f 5c3b 803f 230e 7f3f 0447 823f
000000f0: 9de1 7f3f 0342 803f 60a7 803f ce5b 7e3f
00000100: e847 803f 5a37 7e3f f212 7e3f fa57 803f
00000110: e000 803f 7392 803f ca9e 7e3f fc91 7c3f
00000120: bd5f 7c3f 134f 7c3f 9e1e 7d3f 5b43 7e3f
00000130: 3116 803f dade 7c3f 8c33 7b3f a694 803f
00000140: b944 813f 38e1 7e3f 5153 803f 252e 803f
00000150: 2765 7d3f bbe4 803f 49e2 7e3f 8a60 7f3f
00000160: 2693 823f 31db 7e3f d1ac 7d3f b70a 803f
00000170: 96b0 7b3f 4c13 823f fb83 813f 5968 7e3f
00000180: 7131 803f abd0 7e3f bad6 793f 738b 803f
00000190: cfd9 7f3f bb2c 7d3f 926b 813f 9c43 7d3f
000001a0: 4c94 7e3f 5106 7b3f ea7c 7b3f f422 7f3f
000001b0: d8f9 813f 0b7f 7f3f 9882 813f 4b1e 803f
000001c0: ce18 7e3f 3fc3 823f d7ce 7c3f bb16 7e3f
000001d0: 4c81 803f b10a 803f 52d8 7d3f 33d1 803f
000001e0: 9046 813f 29d5 7f3f df7a 7f3f 331f 7f3f
000001f0: d426 7f3f 2cf8 7e3f c0ca 7c3f 3e7c 813f
00000200: 55d2 803f a358 803f 0c19 813f e9ae 7e3f
00000210: 2d14 803f 464d 7b3f 1b17 803f 787a 823f
00000220: 52ab 7e3f 7fbe 7d3f 3e16 803f 8355 813f
00000230: 63c3 7e3f b1f6 7d3f ac7c 7e3f 02f2 813f
00000240: bc86 823f eff6 7d3f e892 7d3f 5692 803f
00000250: 6e37 7d3f 4528 7d3f 9554 803f 6389 803f
00000260: 6160 7f3f 9218 823f 9230 813f 5cb4 803f
00000270: 5330 803f 3e21 7e3f 7bf6 7d3f 232a 7d3f
00000280: bc50 803f 06b6 803f b523 813f 73ad 803f
00000290: 505e 803f 5702 7f3f 9c90 803f 6da9 7a3f
000002a0: d527 813f 9f2b 7e3f c30a 803f fe41 803f
000002b0: d5e1 7e3f 6426 803f 55e4 803f be3d 803f
000002c0: 2c41 813f 3895 7d3f e7e0 7f3f 0e0a 7d3f
000002d0: 0abc 7d3f a4ce 803f 51d6 7e3f 2f3d 803f
000002e0: ce06 803f 1134 803f 89ba 803f 1c05 833f
000002f0: 9d20 803f d533 823f f3ca 7c3f 1f2f 803f
00000300: a48b 813f dfb8 7b3f 2fdd 823f baea 7e3f
00000310: b260 813f 91b7 803f 6d8d 7f3f dce1 7e3f
00000320: d3dd 7f3f 5112 803f 3fb8 813f fc8d 803f
00000330: 7531 813f 8157 7d3f cd73 803f 192c 7d3f
00000340: 6e99 823f b900 7e3f 5260 803f 3eaa 7f3f
00000350: c7de 813f a43c 7f3f 71f7 7e3f 2886 823f
00000360: 74fc 803f 1bc3 813f c770 7f3f 6ad3 7c3f
00000370: cd08 7e3f dd84 803f 020c 7e3f 12ba 7e3f
00000380: 2736 803f 4b58 823f bbdd 813f 3525 7f3f
00000390: 42ca 803f 05d4 7b3f 3d61 803f b59d 7c3f
000003a0: 8470 803f 533c 813f 6a50 803f 178e 803f
000003b0: 6ea9 7f3f 049e 7c3f f2be 7f3f 3f67 803f
000003c0: 0617 7e3f 2080 803f 2ade 7e3f 8df4 7b3f
000003d0: 5f45 7f3f bbfa 7e3f 14d9 7e3f 17d4 803f
000003e0: c78b 7c3f 59d6 7f3f a2ec 823f b351 803f
000003f0: 52d5 803f e025 803f 5b86 7e3f 572a 7d3f
0.9863729 1.0148827 1.0042381 1.0195724 0.9926911 0.9911208 0.99687886 0.9919935
0.98665404 0.98848724 0.9997359 0.9997678 0.9992693 0.98903775 0.9887396 1.0027851
0.9945811 1.0144176 1.0201703 0.9990543 1.0002031 0.9977769 0.99600685 0.99910545
1.0064104 1.014117 1.0021532 1.0097399 0.9911877 0.99352574 1.0037402 0.994564
1.0105577 0.99622506 0.9862958 0.99923265 1.002634 0.99899775 1.0093375 0.99626076
0.99693227 1.0107179 0.9987334 1.0158561 1.0085459 0.9795176 0.99516183 0.98500997
1.0062163 0.99119896 0.9972119 1.0036975 1.0127529 1.0079178 1.0018349 0.99679315
0.9918125 1.0018115 0.99630946 1.0177922 0.99953634 1.0020145 1.0051079 0.9935883
1.0021944 0.9930321 0.9924766 1.0026848 1.0000267 1.0044693 0.9946104 0.98660254
0.98583585 0.9855816 0.98874843 0.99321526 1.0006772 0.98777544 0.9812553 1.0045364
1.0099097 0.99562407 1.0025426 1.0014082 0.9898247 1.0069803 0.99564034 0.9975668
1.0201156 0.9955321 0.9909182 1.000327 0.98316324 1.0162139 1.0118402 0.9937797
1.0015088 0.9953715 0.9759327 1.0042557 0.99941725 0.9889638 1.0110953 0.9893129
0.99445033 0.98056513 0.9823748 0.9966271 1.0154371 0.9980323 1.0117979 1.0009245
0.992566 1.0215834 0.9875311 0.99253434 1.0039458 1.0003263 0.99158204 1.0063843
1.0099659 0.9993463 0.9979686 0.9965698 0.9966862 0.9959743 0.9874687 1.0116041
1.0064188 1.002705 1.0085769 0.9948564 1.0006157 0.98164785 1.0007051 1.0193624
0.99480164 0.991188 1.0006788 1.0104221 0.99516886 0.99204546 0.99408984 1.015198
1.0197368 0.99204916 0.99052286 1.0044658 0.98912704 0.9888957 1.0025812 1.0041927
0.9975644 1.0163748 1.0092947 1.0055041 1.0014747 0.99269474 0.99204224 0.9889242
1.0024638 1.0055549 1.0089022 1.0052933 1.0028782 0.99612945 1.0044131 0.97914773
1.0090281 0.9928531 1.0003284 1.0020139 0.9956334 1.0011716 1.0069681 1.0018842
1.0098014 0.99055815 0.9995255 0.9884347 0.9911505 1.0063062 0.9954577 1.0018672
1.0002077 1.001589 1.0056926 1.0235934 1.0009953 1.0172068 0.98747176 1.001438
1.012074 0.98328966 1.022375 0.99576914 1.0107634 1.005602 0.99825174 0.99563384
0.9994785 1.000559 1.0134352 1.004333 1.0093218 0.98961645 1.003534 0.9889541
1.0203073 0.9921985 1.0029395 0.99869144 1.0146111 0.99701905 0.99596316 1.0197191
1.0077043 1.0137666 0.9978146 0.9876009 0.9923218 1.0040547 0.9923707 0.9950267
1.0016526 1.0183195 1.0145792 0.9966615 1.0061724 0.9837039 1.0029675 0.9867814
1.0034337 1.0096534 1.002454 1.0043362 0.99867904 0.9867861 0.99900734 1.0031508
0.9925388 1.0039101 0.99557745 0.9842003 0.99715227 0.99601334 0.99549985 1.0064725
0.98650783 0.99936444 1.0228465 1.0024933 1.00651 1.0011559 0.9942376 0.9889273

layers.3.bias f4 [256]
00000000: 4d2e 8dba ac9d 5c3c 977a c3ba faa7 22bc
00000010: bdb9 a7bb 9e6d 6bbb aadc fc3b a87a 993a
00000020: ab23 1cbb 86b3 ac3b c63a 93bb cf0f 4ebc
00000030: 657d 683c 3a36 90bb e0e7 f13b cb39 133b
00000040: 23d9 7ebb 92db a0bc b330 503c 338e 84bb
00000050: ba46 e13b 0c61 2abb 5f4d 78bb acd0 c5ba
00000060: b4b0 d3bb cf51 44bc 6b5f 5cba a654 bcbc
00000070: a03a bb3b 778a 833b 7d80 ebbb 3007 27bc
00000080: a822 543b d665 95bc 1ed6 423c 98fa de3a
00000090: e626 2ebc 8919 72bc 113b 423c b8a5 5fbb
000000a0: f394 32bb 91f4 88bc 2b87 0e3b 8542 b73b
000000b0: d5d1 47bc a909 a5ba 0095 4dbb 8ae1 073b
000000c0: 5f15 813c c2c1 4dbc cd3b b83b 3281 5bbc
000000d0: b418 413b a448 47ba 34bf 1039 573e 033c
000000e0: 0483 1bba 1ffe d73b 7da3 733b f877 8c3c
000000f0: 01ba 243c de77 e33a 3d75 803b 4cce 8a3b
00000100: 8a51 933c fa76 b53b ef2d b13b 5517 f339
00000110: 1d67 5eba bbc4 5ebc a051 bcbb 1a45 5bbb
00000120: 6448 0dbb 5510 40bc fadc 683c a8f7 433b
00000130: 642d 4f3c 501a b1bb 1514 b83a 70e6 20bc
00000140: 110e 96bc f630 7fbc b494 923c a82a 7f3c
00000150: 9a99 d63b 6d89 4039 f37d ec3b 4e0e 323b
00000160: 2b5d 62bc f98b 22bc bdb1 1e3b 3740 4c3c
00000170: d679 b83b 4caa 853c fa24 89bb a269 0abb
00000180: 3a36 ad3b 5f1e 023c 2f6e d5bb 9d3f 473c
00000190: 39fe 41bb 07b7 30bb da46 8dbb 6aa1 2fbb
000001a0: e438 b2bb 3ba7 50bc a3b4 aeba 45a9 80bb
000001b0: b493 4cbb aaa4 84ba 2c6c 4f3b 9b3c d3bb
000001c0: 1d84 5dbb 0a28 9f3c be31 883b 22cc 0d3c
000001d0: 0417 60bc c7b3 2d3b e2a4 8fbb 8d50 6cbc
000001e0: 6aac 423c 06b6 033a ea3d 41bc fee7 caba
000001f0: 1cd5 133c 2105 09bc c803 ccbc cd02 2cbc
00000200: c8d9 ffb9 ad97 95bb 26ec a5bb cfc4 55bc
00000210: a8cb e938 1f00 093b 8550 3bbc 818b 8a3c
00000220: 172f 10bc 7170 a4b9 7e14 423c 67b8 553b
00000230: 075d c4bb dd70 45ba d8c5 da3a eaa9 183c
00000240: b7f9 c63b 8af8 91bb 5523 6f3c 1d0b ffbb
00000250: 8092 0f3c bd5f 803b 3f12 b13b fd6c 2ebc
00000260: 56f5 b03c 763e be3b 1790 1d3c 7cc1 313c
00000270: 54a1 c93b e455 303b 81d5 133c 53d4 47bc
00000280: bf50 4a3c 397b 6fbc a9a9 43bc fa11 70bc
00000290: 7234 013b 14e8 cdbb 42b2 1f3b a7db a5ba
000002a0: 75c6 b2bb 9266 e638 0056 5bba 55cb c6bb
000002b0: 24d9 883b f852 083c 0f5e d0ba 53b8 873a
000002c0: df5f 013c 4558 353b f820 453a 8662 343c
000002d0: d9b1 49bb 34f3 113c 649a 63bb 879f d63a
000002e0: 72fc 27bc 4e0c d13b c910 90bb 6011 7d3b
000002f0: ba7f c5bb 47e2 8fbb b98b a33a 5475 38ba
00000300: 0025 5b3a 8342 e339 3b99 eabb 3345 463c
00000310: dc26 ec39 1bff 9b3c 5b7e 39bb 6847 af3b
00000320: 6ccd 093b 00fd 08bc e29b f939 38cb fd3b
00000330: 31c7 6f3c 0ca8 f73a 19fd 603c 7673 f6ba
00000340: d9d8 93bb ca92 30bb 22dd 93bb 6ba4 4d3c
00000350: 1115 6cbc b1b6 98bb 9a8f 90bb 0638 80bc
00000360: 1638 1b3c 98cc be3b 0494 9e3a a7d7 7b3c
00000370: 3184 0b3c 17ba 05bc 5a8f ac3b e755 7d3b
00000380: 9dee 18bc ecb4 65b9 29ab 323c 6af9 873c
00000390: f1fe 50bc d74b 1dbb e848 933c a439 cf3b
000003a0: 7f86 3c3c ea84 48bc 4085 da3b c112 bbbb
000003b0: 6b99 ddbb ce1a 123c 06cc 013c b3bc 1dbc
000003c0: d2e8 863b e9ce 40bc 74af 2d3c 7261 463c
000003d0: 7c97 25bc d822 ff3b 7c12 c83a fd4e 04bc
000003e0: 8cac 48bc 9df6 603b 16c7 3cbc 190f 8abc
000003f0: 2ee6 86bc 4aaf bfbc 4fc4 823c 8d87 2bbb
-0.0010771245 0.013465326 -0.0014913854 -0.009927744 -0.0051185773 -0.0035923491 0.007716735 0.0011709528
-0.002382497 0.0052704243 -0.0044930903 -0.012577011 0.014190053 -0.0044009956 0.007382378 0.0022464867
-0.0038886748 -0.01963595 0.012706923 -0.004045272 0.0068748863 -0.0025997786 -0.0037887914 -0.0015092096
-0.0064602736 -0.011982395 -0.00084065524 -0.022989582 0.0057137758 0.004014309 -0.007186948 -0.010194585
0.003236929 -0.018237036 0.01189187 0.0017011939 -0.010629391 -0.014776596 0.011854903 -0.0034125876
-0.0027249425 -0.01671818 0.0021748047 0.0055926465 -0.012196024 -0.001259138 -0.0031369328 0.0020733797
0.01575726 -0.0125584025 0.005622363 -0.013397502 0.0029464187 -0.0007602072 0.00013804139 0.008010468
-0.00059323036 0.006591573 0.0037176304 0.01714705 0.010054112 0.0017354449 0.003920226 0.0042360183
0.017983217 0.0055378648 0.005407087 0.00046365955 -0.0008483993 -0.013596709 -0.005747035 -0.0033457936
-0.002155804 -0.011722644 0.014212841 0.0029902253 0.012645099 -0.005404748 0.0014044071 -0.009820566
-0.018317254 -0.015575638 0.017893173 0.015574135 0.0065490725 0.00018361742 0.0072171628 0.002716917
-0.013816158 -0.009921067 0.0024214827 0.012466482 0.0056297584 0.016316555 -0.004185316 -0.002112009
0.0052860053 0.007941811 -0.006513379 0.012161163 -0.0029600991 -0.0026964562 -0.0043114247 -0.002679909
-0.005438911 -0.012735183 -0.001332898 -0.0039264285 -0.0031215968 -0.0010119874 0.0031650169 -0.0064464337
-0.003380067 0.019428272 0.0041563204 0.008654626 -0.013677362 0.002650486 -0.0043836692 -0.014423502
0.011881927 0.0005024377 -0.011794547 -0.0015480516 0.009022977 -0.008363039 -0.024904147 -0.010498715
-0.0004879965 -0.0045652003 -0.0050635515 -0.013047411 0.0001114824 0.0020904613 -0.011432772 0.016912224
-0.00880029 -0.00031364293 0.011845706 0.0032611133 -0.005992535 -0.00075317716 0.0016691042 0.009317854
0.006072249 -0.004454677 0.014595826 -0.007783307 0.008762956 0.003917663 0.0054037864 -0.010646102
0.02160136 0.005805786 0.009616873 0.010849353 0.006153265 0.0026906664 0.009023071 -0.012196618
0.012348353 -0.014616781 -0.011942306 -0.014652723 0.0019715098 -0.0062837694 0.0024367725 -0.0012653962
-0.005455787 0.0001098636 -0.0008367002 -0.0060667195 0.004176276 0.008320563 -0.0015897172 0.0010354616
0.007896393 0.002767102 0.00075198663 0.011009818 -0.0030776171 0.008908082 -0.0034729475 0.0016374447
-0.010253059 0.0063796407 -0.004396532 0.0038615093 -0.006027189 -0.004390988 0.0012477554 -0.0007036526
0.00083597004 0.0004334637 -0.00715938 0.012101459 0.0004504238 0.019042542 -0.0028304073 0.0053490885
0.0021026982 -0.008361101 0.00047609123 0.007745173 0.014634893 0.0018894686 0.013732218 -0.0018802721
-0.0045119342 -0.0026942962 -0.004512445 0.012551407 -0.0144093195 -0.0046604504 -0.00441165 -0.015651714
0.009473821 0.0058227293 0.0012098555 0.01537124 0.008515404 -0.008162043 0.0052661123 0.0038655938
-0.009334234 -0.0002190654 0.010905066 0.016598422 -0.012756095 -0.0024001503 0.0179791 0.00632401
0.011506676 -0.01223872 0.0066687167 -0.0057090227 -0.0067626736 0.008917524 0.007922178 -0.009627509
0.00411711 -0.011768081 0.010600913 0.012108194 -0.0101069175 0.007786136 0.0015264298 -0.008075473
-0.01224817 0.003432668 -0.011522075 -0.016852902 -0.01646718 -0.023399014 0.015962748 -0.0026173324
