ddpg/model_params/sysbench_ddpg_49_35_actor.pth (torch, 158647 bytes, 20 tensors)

layers.0.weight f4 [128, 65]
-0.0028781127 0.024826711 0.01753599 0.040750936 0.0038595789 -0.00012493164 0.0064389026 0.0015986343
0.007507913 -0.0060475487 0.012674896 0.014101261 0.0010532995 0.026992861 0.0036950244 0.001378179
0.016863538 -0.00073298387 0.02620548 -0.00690064 0.026498312 0.018601852 0.018073436 0.020250468
-3.5431112e-05 0.006073173 3.6562917e-05 0.0060244338 3.169659e-05 -5.394446e-05 -0.00012005679 -2.808719e-05
9.436846e-06 0.017007215 0.0004500417 -0.000298505 1.2203017e-05 0.005214487 0.013101605 -8.542219e-05
0.00012192251 -0.00521726 0.00231381 0.0013948039 -0.0087169865 -6.0695e-05 -0.00011944214 -7.3549936e-06
-0.0001651312 -2.4836656e-05 -0.0002925937 3.2260286e-06 -3.36993e-05 0.017466784 3.3076125e-05 0.027367184
0.013456604 0.0031036516 -3.5597056e-06 0.01767301 0.028987432 0.00012570161 1.8081828e-06 -2.725501e-05
0.007881798 0.0028520392 -0.009258129 -0.005689981 -0.012551941 -0.010156388 0.003511412 -0.012405437
0.021627251 -0.022748278 0.007963129 -0.004153595 -0.023639243 -0.0045168125 -0.013001349 -0.0036278954
0.00023772505 -0.016128538 0.0033816919 -0.014065756 0.009803851 -0.012472711 -0.013566304 -0.013693969
-0.012039622 -5.9339698e-05 -0.0028006053 0.00011551753 -0.0030748853 -6.451806e-05 0.00020227995 -1.8760626e-05
5.2195835e-05 -1.5761543e-07 -0.012394342 -0.0051523233 -0.00046554118 5.2596602e-05 -0.0024191937 -0.012519497
3.7168145e-05 -0.00019557224 0.028387606 -0.005348062 -0.00068367686 0.0017898505 -0.00021097521 3.7941236e-06
0.00022244654 0.00047950423 0.00046935346 0.0003674224 4.6850953e-05 0.00021196798 -0.0019099605 -4.84271e-05
-0.013592424 -0.011151162 -0.0023311754 0.0061737294 -0.014940189 -0.0048147226 -0.0007096036 -6.91081e-05
-0.00011520608 -0.0011283965 0.0031071098 -0.024864458 -0.02064189 -0.016143857 0.00053922995 -0.0029078585
-0.0013072032 -0.005350671 -0.019516025 0.0040463605 -0.01292944 -0.003253597 -0.00016433088 -0.0054308325
-0.00082323916 -9.055589e-05 -0.024872048 -0.0013338813 0.0072968034 0.003577416 -0.023225531 -0.011267949
-0.01048443 -0.012831865 0.0002090211 -0.0027489723 -0.00016256644 -0.002808254 -3.211938e-05 -9.7287975e-06
-8.809578e-08 3.2341668e-06 -0.00012141514 -0.010461238 -0.0019490418 -0.00010120137 0.00017579531 0.001068348
-0.0037584817 7.77784e-05 -6.882702e-05 0.0020160254 -0.00047357104 0.00029996812 0.013508734 -6.239843e-05
-2.090197e-05 -6.1271985e-06 -7.075254e-06 -7.3357587e-06 -0.00018129821 2.8074097e-05 -9.757118e-05 -0.022427758
6.8036825e-05 -0.023457132 -0.010644284 -0.0016926877 -0.0006650228 -0.010953972 -0.025546115 -0.00015175325
-4.2339383e-05 1.7791464e-05 -0.01024116 0.0017024633 -0.014215401 -0.029533785 -0.009365681 -0.0044452273
-0.013275296 0.0056530028 0.00041243766 0.011840213 0.003990284 -0.005844627 -0.0070910268 -0.0010734667
-0.008922689 0.002232641 1.38941905e-05 -0.010528117 -0.005802219 -0.015741741 0.009775411 -0.011472171
-0.0061362246 -0.0061312504 -0.0074614766 -4.8890284e-05 -0.001789866 -0.00034775212 -0.000972314 -7.025825e-06
6.4891246e-06 -0.00015041055 0.00043144554 -6.8216475e-05 -0.004224849 -0.003976535 -0.0009795098 -0.0001441391
-0.0049388353 -0.005874817 -4.287186e-05 -0.0006247076 -0.0084222825 -0.0009836309 -0.0032474052 0.018817987
1.3171294e-05 3.736422e-05 9.036855e-05 0.00013763382 -6.28376e-05 9.214862e-05 1.5334026e-05 -4.0730876e-05
-0.023716677 3.2378764e-05 -0.011283759 -0.0080339145 -0.0029635464 -0.010723163 -0.005535583 -0.013643974
00000000: b89e 3cbb 6361 cb3c a3a7 8f3c 74ea 263d
00000010: fdf0 7c3b 1500 03b9 6efd d23b 4489 d13a
00000020: f004 f63b 842a c6bb 5eaa 4f3c fa08 673c
00000030: de0e 8a3a 2220 dd3c 3928 723b 03a4 b43a
00000040: 6725 8a3c b725 40ba e0ac d63c c41e e2bb
00000050: fd12 d93c e962 983c be0e 943c 4fe4 a53c
00000060: de9b 14b8 7801 c73b 225b 1938 9d68 c53b
00000070: f4f1 0438 6c42 62b8 00c7 fbb8 c89c ebb7
00000080: f252 1e37 b752 8b3c 93f3 eb39 aa80 9cb9
00000090: 8fbb 4c37 4ade aa3b 1da8 563c b024 b3b8
000000a0: a6b0 ff38 8df5 aabb 4aa3 173b dad1 b63a
000000b0: b1d1 0ebc c392 7eb8 037d fab8 eaca f6b6
000000c0: 1227 2db9 5058 d0b7 4367 99b9 c07e 5836
000000d0: 5958 0db8 8016 8f3c 38bb 0a38 2531 e03c
000000e0: 1779 5c3c a266 4b3b 47e3 6eb6 fdc6 903c
000000f0: 0d77 ed3c c5ce 0339 b0b0 f235 b0a1 e4b7
00000100: a822 013c 47e9 3a3b 68af 17bc 0573 babb
00000110: a8a6 4dbc fb66 26bc b81f 663b 2d40 4bbc
00000120: a22b b13c 995a babc c977 023c e11a 88bb
00000130: 16a7 c1bc c501 94bb 9c03 55bc fcc1 6dbb
00000140: d545 7939 ff1f 84bc 609f 5d3b 0f74 66bc
00000150: 55a0 203c 575a 4cbc 3445 5ebc ab5c 60bc
00000160: d641 45bc 84e3 78b8 5c8a 37bb 0042 f238
00000170: 0484 49bb df4d 87b8 1c1b 5439 2360 9db7
00000180: daec 5a38 003d 29b4 a311 4bbc d2d4 a8bb
00000190: e113 f4b9 2c9b 5c38 568b 1ebb 941e 4dbc
000001a0: fee4 1b38 8612 4db9 208d e83c cc3e afbb
000001b0: c738 33ba 6b99 ea3a 3a39 5db9 8c9e 7e36
000001c0: 8a40 6939 f865 fb39 8e13 f639 9aa2 c039
000001d0: d481 4438 b943 5e39 a457 faba 341e 4bb8
000001e0: c2b2 5ebc 5db3 36bc a2c6 18bb ff4c ca3b
000001f0: b2c7 74bc d2c4 9dbb b104 3aba 21ee 90b8
00000200: cb9a f1b8 b4e6 93ba a7a0 4b3b 8cb0 cbbc
00000210: 2e19 a9bc 1f40 84bc 1c5b 0d3a c591 3ebb
00000220: 7656 abba ae54 afbb 12e0 9fbc 5597 843b
00000230: 00d6 53bc 4d3a 55bb 3c50 2cb9 20f5 b1bb
00000240: a5ce 57ba d3e8 bdb8 77c0 cbbc a1d5 aeba
00000250: 061a ef3b 1573 6a3b 7843 bebc 349d 38bc
00000260: e3c6 2bbc be3c 52bc ad2c 5b39 1a28 34bb
00000270: 9976 2ab9 af0a 38bb ecb7 06b8 de38 23b7
00000280: 2b2f bdb3 900a 5936 42a0 feb8 9d65 2bbc
00000290: fe76 ffba 123c d4b8 b255 3839 cf07 8c3a
000002a0: dc50 76bb f61c a338 3a57 90b8 4b1f 043b
000002b0: a149 f8b9 0a45 9d39 bd53 5d3c e7db 82b8
000002c0: a456 afb7 3c98 cdb6 f867 edb6 b025 f6b6
000002d0: de1a 3eb9 aa80 eb37 219f ccb8 6bba b7bc
000002e0: feae 8e38 2c29 c0bc 5d65 2ebc 2ddd ddba
000002f0: ed54 2eba 4a78 33bc 1646 d1bc f41f 1fb9
00000300: 9195 31b8 e13e 9537 8aca 27bc 3025 df3a
00000310: b7e7 68bc d6f0 f1bc 8372 19bc 45a9 91bb
00000320: a180 59bc d33c b93b 723c d839 74fd 413c
00000330: eec0 823b 4984 bfbb d85b e8bb 91b3 8cba
00000340: 7830 12bc 8051 123b 181b 6937 207e 2cbc
00000350: 8a20 bebb d3f4 80bc 0c29 203c c6f5 3bbc
00000360: 6212 c9bb a8e8 c8bb 677f f4bb 8b0f 4db8
00000370: f099 eaba 8052 b6b9 e3e2 7eba 61bf ebb6
00000380: 28bd d936 86b7 1db9 a433 e239 710f 8fb8
00000390: 9a70 8abb 984d 82bb e562 80ba 0c24 17b9
000003a0: f4d5 a1bb 8981 c0bb 4fd1 33b8 6bc3 23ba
000003b0: 9dfd 09bc 2ded 80ba 6bd2 54bb 2e28 9a3c
000003c0: 47fa 5c37 87b7 1c38 3f84 bd38 cc51 1039
000003d0: aec7 83b8 ea3f c138 92a1 8037 72d6 2ab8
000003e0: 7a49 c2bc 6fce 0738 84df 38bc aea0 03bc
000003f0: 0f38 42bb 35b0 2fbc d663 b5bb fa8a 5fbc

layers.0.bias f4 [128]
2.057982e-05 -0.00039041406 -0.00039385082 -0.00039249737 0.00057459483 0.0006431803 -0.0012760812 -0.00080461864
0.0055278344 -0.00025430505 -0.021850972 0.00019455419 -0.006869617 -0.00034123834 0.00027969244 0.020356199
2.3912078e-05 0.00093786285 0.0008890272 1.7427552e-05 -0.032021895 -0.00091275317 -0.009750101 0.0060553965
-0.0036620584 -0.03208405 -0.017852608 4.3307013e-05 0.020158919 -4.0871964e-05 0.0050516725 -0.00013158533
0.00073589914 -0.0003931141 0.00034549314 -0.00081615825 0.00024825914 0.03293279 -0.00044967962 -3.873218e-05
-0.001831793 -0.010484057 -0.019398201 0.0007408501 0.031488676 -8.259172e-05 0.0182864 0.0040164334
0.0042455597 -0.0003694956 0.008696564 0.017626455 0.021619834 0.00016537328 0.0004551452 0.016795913
0.0008479199 0.032085333 -0.00048796437 0.00010287133 -0.00012388418 -0.004441747 0.020390991 0.031399827
0.00015730294 -0.00055564434 5.0696126e-05 8.28641e-05 -0.00093796244 0.0007898796 -0.022800898 0.008433938
-5.456342e-05 -0.033721786 0.034032602 0.00013212804 -0.013366515 -0.03137715 3.4921784e-05 -0.021059796
-0.00056947453 0.016154319 -0.022585887 -0.00023178905 -0.00982845 -0.02197271 -0.006036169 0.021123897
-0.00013060842 0.00039527426 -1.8025621e-06 8.341769e-05 5.7911937e-05 -0.00019730962 0.011234622 0.0001696149
0.00037619186 -0.025336744 0.00026901576 -0.00055535417 -0.030441556 0.021993555 -0.00017417302 -0.0009313478
-0.00032755025 4.293919e-07 0.00034119564 -0.0066033667 -0.00063629757 -0.00039019238 -0.008808831 -0.0113540385
1.5122896e-07 0.020599874 0.00023687501 0.00077833136 0.0011119484 6.8730617e-07 0.00015062164 -0.019211283
-8.277483e-05 0.010363832 -0.00016859011 -0.00038091198 0.009829637 -5.671787e-05 0.00245399 -0.007742724
00000000: d4a2 ac37 7db0 ccb9 c37d ceb9 1bc8 cdb9
00000010: 68a0 163a 199b 283a 2e42 a7ba 0bed 52ba
00000020: d622 b53b 3f54 85b9 cf00 b3bc 3e01 4c39
00000030: 861a e1bb 3ce8 b2b9 afa3 9239 0bc2 a63c
00000040: cc96 c837 e9da 753a 9b0d 693a 6231 9237
00000050: 6429 03bd d445 6fba e3be 1fbc 596c c63b
00000060: 25ff 6fbb 916a 03bd a23f 92bc 8da4 3538
00000070: 5124 a53c f06d 2bb8 8088 a53b 2bfa 09b9
00000080: 5be9 403a e21a ceb9 4e23 b539 74f3 55ba
00000090: c728 8239 89e4 063d fac2 ebb9 5d74 22b8
000000a0: c618 f0ba 52c5 2bbc fae8 9ebc 9c35 423a
000000b0: 45fa 003d 1835 adb8 5ccd 953c 499c 833b
000000c0: 561e 8b3b dcb8 c1b9 087c 0e3c 5b65 903c
000000d0: 141c b13c 0d68 2d39 8ea0 ee39 9597 893c
000000e0: f146 5e3a e96b 033d 78d5 ffb9 a0bc d738
000000f0: e8e6 01b9 138c 91bb 020b a73c 1b9d 003d
00000100: b0f1 2439 a9a8 11ba 8da2 5438 53c7 ad38
00000110: 98e1 75ba ec0f 4f3a f3c8 babc 802e 0a3c
00000120: 07db 64b8 db1f 0abd c565 0b3d da8b 0a39
00000130: 3aff 5abc 5485 00bd fb78 1238 9885 acbc
00000140: ca48 15ba 1056 843c 0a06 b9bc 660c 73b9
00000150: 8207 21bc 1d00 b4bc 0ecb c5bb 060c ad3c
00000160: eef3 08b9 d03c cf39 90ef f1b5 88f0 ae38
00000170: 78e6 7238 e6e4 4eb9 6c11 383c a7da 3139
00000180: 9e3b c539 018f cfbc af0a 8d39 3095 11ba
00000190: 9260 f9bc d42b b43c 37a2 36b9 b125 74ba
000001a0: 0dbb abb9 2c87 e634 81e2 b239 0e61 d8bb
000001b0: 35cd 26ba bc92 ccb9 ea52 10bc 4a06 3abc
000001c0: 8061 2234 11c1 a83c a761 7839 ef08 4c3a
000001d0: ccbe 913a 527f 3835 30f0 1d39 fb60 9dbc
000001e0: 6697 adb8 10cd 293c 90c7 30b9 24b5 c7b9
000001f0: 7c0c 213c 59e4 6db8 1fd3 203b adb6 fdbb

layers.2.weight f4 [128]
0.9813459 0.98290604 0.96182615 0.98481804 0.98775035 0.95710826 0.95852923 0.978119
0.9788611 0.96910053 0.9657083 0.96056175 0.96189386 0.9553747 0.9827258 0.98410183
0.9725955 0.9725945 0.97315514 0.9804422 0.9726184 0.977867 0.9693128 0.9601228
0.97946733 0.97466683 0.9815394 0.97968066 0.9931682 1.0022713 0.97652423 0.9832933
0.96252376 0.981621 0.9790777 0.9795592 0.95255166 0.97201777 0.96933484 0.9751798
0.98855287 0.97230905 0.983481 0.994602 0.94631517 0.98599625 0.9747568 0.987473
0.97630847 0.97766554 0.974501 0.9767584 0.97580475 0.978487 0.9779325 0.99189657
0.97554964 0.97942036 0.95642525 0.96810806 0.98036265 1.0078557 0.9481876 0.9669443
0.9776953 0.9751605 0.9767342 0.97718203 0.9517083 0.9856691 0.9790826 1.0004618
0.99294513 0.95355237 0.9718734 0.9608595 0.98160386 0.97844464 0.9598839 0.9629845
0.9699999 0.97143066 0.96695524 0.9664342 0.9768742 0.9693407 0.9817007 0.97014344
0.9811989 0.96941376 0.9759581 0.98006636 0.9788244 0.96881926 0.9820722 0.9895283
0.96297425 0.9755758 0.9721922 0.9693112 0.96879774 0.9951462 0.97544444 0.972098
0.9618552 0.9625222 0.9748993 1.0004332 0.9822468 0.9737874 0.998136 0.98609096
0.965898 0.9730761 0.9892332 0.96908206 0.97636676 0.99382657 0.97176486 0.9735093
0.97852725 0.9668347 0.9685128 0.9853793 0.9591009 0.98023784 0.9740774 0.9751236
00000000: 7c39 7b3f bb9f 7b3f 3d3a 763f 091d 7c3f
00000010: 35dd 7c3f 0c05 753f 2c62 753f 0266 7a3f
00000020: a496 7a3f f916 783f a938 773f 60e7 753f
00000030: ad3e 763f 7093 743f eb93 7b3f 19ee 7b3f
00000040: 05fc 783f f4fb 783f b220 793f 43fe 7a3f
00000050: 85fd 783f 7e55 7a3f e224 783f 9cca 753f
00000060: 5fbe 7a3f c483 793f 2b46 7b3f 5acc 7a3f
00000070: 4540 7e3f 6d4a 803f 7efd 793f 1cb9 7b3f
00000080: f567 763f 844b 7b3f d6a4 7a3f 64c4 7a3f
00000090: 6dda 733f 28d6 783f 5426 783f 62a5 793f
000000a0: cd11 7d3f 3fe9 783f 69c5 7b3f 3d9e 7e3f
000000b0: b641 723f 406a 7c3f a989 793f 08cb 7c3f
000000c0: 5aef 793f 4a48 7a3f e678 793f d70c 7a3f
000000d0: 57ce 793f 207e 7a3f c959 7a3f efec 7d3f
000000e0: 9fbd 793f 4bbb 7a3f 49d8 743f eed5 773f
000000f0: 0cf9 7a3f 6a01 813f 6cbc 723f a989 773f
00000100: 3d4a 7a3f 1ea4 793f 410b 7a3f 9a28 7a3f
00000110: 28a3 733f cf54 7c3f 28a5 7a3f 220f 803f
00000120: a731 7e3f 021c 743f b2cc 783f e3fa 753f
00000130: 644a 7b3f 597b 7a3f f4ba 753f 2786 763f
00000140: ea51 783f aeaf 783f 618a 773f 3b68 773f
00000150: 6d14 7a3f b626 783f bd50 7b3f 525b 783f
00000160: da2f 7b3f 802b 783f 64d8 793f a1e5 7a3f
00000170: 3c94 7a3f 8a04 783f 1569 7b3f ba51 7d3f
00000180: 7b85 763f 56bf 793f 97e1 783f c724 783f
00000190: 2103 783f e7c1 7e3f bab6 793f 6adb 783f
000001a0: 243c 763f db67 763f 0093 793f 320e 803f
000001b0: 8774 7b3f 224a 793f d785 7f3f 7570 7c3f
000001c0: 1745 773f 841b 793f 633e 7d3f c315 783f
000001d0: 2cf3 793f 6b6b 7e3f 95c5 783f e837 793f
000001e0: c380 7a3f 7b82 773f 74f0 773f d141 7c3f
000001f0: a387 753f def0 7a3f 235d 793f b3a1 793f

layers.2.bias f4 [128]
-0.021859286 0.045870673 0.008995532 -0.013972429 0.036934834 0.012952525 0.014299223 -0.01488581
-0.006810495 0.011807898 0.035973184 0.014268345 0.0021810294 0.015677627 -0.042832527 -0.01717613
-0.01584043 0.022771193 0.019545747 -0.016153168 0.036753383 0.0016685608 -0.010593686 0.028192021
-0.015205856 0.00977926 -0.011402875 -0.03626922 0.0439314 0.007923663 -0.025590656 -0.01289819
0.019204903 -0.025054865 0.025022231 0.00753675 0.011934753 -0.023122754 0.011535879 -0.004297541
0.020612683 -0.020999355 -0.0142051205 0.012769531 -0.0028409797 -0.016929416 0.016731732 0.033933654
-0.011900429 0.025564808 -0.032308344 -0.00050170603 -0.0025088128 -0.014477811 -0.030910734 -0.03622643
0.011353085 -0.01850043 -0.02376779 0.012779591 -0.018741375 -0.02015395 0.017380085 -0.010791702
0.041529693 -0.014159466 -0.014835176 0.02416221 0.025997015 -0.01831068 -0.021581415 -0.0021158992
-0.03358073 0.012422925 -0.03075399 0.03785593 -0.026175302 -0.039503995 -0.022597723 0.018892273
0.00324538 0.020608446 0.027593093 -0.017468495 -0.01583757 -0.012824238 0.017993249 -0.022093058
0.026235338 0.03884742 0.0043298053 -0.032401986 -0.019821452 -0.026824875 0.023108473 -0.0025559708
0.022579826 -0.03507675 -0.009845903 0.04787214 0.037606824 0.041930478 -0.03985296 0.0091817975
-0.013104168 -0.0020302027 -0.014039921 -0.017246803 -0.015767742 0.026767502 0.0019789923 0.0009518448
0.0015926801 -0.032875344 0.033828683 -0.033740062 0.04498052 0.034392394 0.03024547 -0.03796485
-0.016969915 0.031224191 0.007210153 -0.018802773 0.043720927 -0.009205645 0.016453102 -0.0072794715
00000000: 3f12 b3bc e3e2 3b3d ff61 133c 9dec 64bc
00000010: fb48 173d d436 543c 4a47 6a3c 9de3 73bc
00000020: 932a dfbb ea75 413c 9e58 133d c7c5 693c
00000030: 9aef 0e3b 5e6e 803c 2971 2fbd f5b4 8cbc
00000040: cac3 81bc a78a ba3c 671e a03c a653 84bc
00000050: b78a 163d 9cb3 da3a 2491 2dbc f4f2 e63c
00000060: fc21 79bc 3039 203c 20d3 3abc 098f 14bd
00000070: 69f1 333d 40d2 013c 7fa3 d1bc ee52 53bc
00000080: 9a53 9d3c dc3f cdbc 6cfb cc3c d7f6 f63b
00000090: fb89 433c ee6b bdbc fc00 3d3c 63d2 8cbb
000000a0: eedb a83c d706 acbc 98bc 68bc 4c37 513c
000000b0: bb2f 3abb 8faf 8abc fc10 893c 04fe 0a3d
000000c0: 04fa 42bc 4a6d d13c c155 04bd ec84 03ba
000000d0: e56a 24bb 5734 6dbc 8238 fdbc 2a62 14bd
000000e0: 4a02 3a3c 378e 97bc abb4 c2bc 7d61 513c
000000f0: 8387 99bc e619 a5bc ae60 8e3c aecf 30bc
00000100: 0a1b 2a3d 1bfd 67bc 3d0f 73bc d4ef c53c
00000110: b1f7 d43c 4700 96bc 82cb b0bc e6aa 0abb
00000120: f38b 09bd 8689 4b3c cbef fbbc d20e 1b3d
00000130: 966d d6bc f1ce 21bd dc1e b9bc f8c3 9a3c
00000140: 71b0 543b 0bd3 a83c e90a e23c 171a 8fbc
00000150: cbbd 81bc c11c 52bc 9466 933c 80fc b4bc
00000160: 7eeb d63c 791e 1f3d 0ae1 8d3b f2b7 04bd
00000170: 9960 a2bc d7bf dbbc fb4d bd3c 1382 27bb
00000180: 54f9 b83c a3ac 0fbd b650 21bc 9415 443d
00000190: 9d09 1a3d 4bbf 2b3d db3c 23bd 406f 163c
000001a0: ddb2 56bc 260d 05bb b207 66bc 2b49 8dbc
000001b0: 5a2b 81bc 8547 db3c fbb1 013b 3985 793a
000001c0: 7ac1 d03a 4ca8 06bd f28f 0a3d 0533 0abd
000001d0: 7e3d 383d 0adf 0c3d 59c5 f73c 0881 1bbd
000001e0: 7e04 8bbc e0c9 ff3c 2643 ec3b 4608 9abc
000001f0: b714 333d 46d3 16bc a8c8 863c a288 eebb

layers.2.running_mean f4 [128]
3.524908e+10 4.8143233e+10 -1.2891607e+10 8.5505965e+08 3.6764148e+10 8.485037e+10 5.9557376e+10 3.3837791e+10
1.7934574e+10 -1.3854134e+09 -4.599131e+09 1.7563617e+10 1.8797618e+09 -1.8364655e+09 -6.50584e+09 1.5956384e+09
-2.767017e+09 -7.4617636e+09 4.155349e+10 -1.5937265e+09 6.905436e+10 4.536254e+10 -6.469913e+09 7.035167e+10
2.078021e+10 5.3525082e+10 3.4919053e+08 2.7390173e+10 3.5871433e+10 -8.602552e+09 -1.4415763e+09 9.799601e+08
4.558857e+10 -1.5745302e+09 3.894684e+10 4.0296923e+10 6.9998895e+10 2.1324673e+10 2.0212615e+10 5.220096e+10
3.3216905e+10 -2.3813274e+10 -1.557299e+09 5.078772e+10 -3.9022246e+09 1.891853e+09 4.8264925e+10 3.607368e+10
-5.3910825e+09 5.105136e+10 5.0614584e+09 4.220464e+10 2.8893018e+10 2.4680628e+10 -2.962209e+09 -6.878238e+09
6.3290982e+10 -1.9037786e+09 -1.2452047e+10 -9.554269e+09 -1.282552e+09 2.0734253e+10 -3.893705e+09 -9.149937e+09
2.2428156e+10 -4.095541e+09 2.8938813e+10 -1.1042094e+10 -2.8036278e+09 4.739933e+09 3.343944e+10 3.643632e+10
2.3428401e+10 6.8279087e+10 -2.4491953e+09 9.3694026e+10 -1.3570674e+10 2.4057262e+10 5.655958e+10 4.3532505e+10
3.668879e+10 2.3958622e+10 7.88447e+10 -5.42508e+09 3.1214858e+10 -2.3042504e+09 2.1848146e+10 -2.2910326e+09
5.2782e+10 7.450607e+10 4.6071366e+10 -1.9860658e+09 2.4393284e+10 5.607688e+10 5.899759e+10 -6.4333527e+09
8.6762504e+10 -1.4309746e+10 1.1181734e+10 6.894387e+10 6.1794054e+10 3.2267504e+10 8.471726e+08 4.0372904e+10
-2.8283092e+09 7.662375e+09 -5.5482117e+09 2.7862277e+09 -2.3425357e+09 3.3337108e+10 2.5663572e+10 2.4476238e+10
1.0398384e+10 -3.1452506e+09 8.019476e+10 -2.8864466e+09 7.403615e+10 4.9985503e+10 3.1888744e+10 -2.6017385e+09
-2.8578104e+09 6.3060255e+10 1.1914586e+09 -1.6867067e+09 -6.064158e+09 2.3536538e+09 5.5230554e+10 -4.360019e+09
00000000: 2450 0351 f758 3351 9419 40d0 b3dc 4b4e
00000010: 06f5 0851 cf0b 9e51 57de 5d51 771c fc50
00000020: 7c9f 8550 7627 a5ce 9610 89cf f1db 8250
00000030: c715 e04e 7bec dace 9fe3 c1cf 0537 be4e
00000040: 54ed 24cf bd60 decf 7fcc 1a51 acfc bdce
00000050: af9f 8051 17fd 2851 85d1 c0cf 4a0a 8351
00000060: 1bd3 9a50 7f65 4751 cc81 a64d 9c12 cc50
00000070: aaa1 0551 2230 00d0 6bd9 abce 05a4 694e
00000080: a6d4 2951 d9b2 bbce 9a16 1151 241e 1651
00000090: 1362 8251 96e1 9e50 8198 9650 b776 4251
000000a0: 387c f750 376c b1d0 fea4 b9ce f232 3d51
000000b0: 3997 68cf c686 e14e 05cd 3351 8b62 0651
000000c0: b2aa a0cf 5f2e 3e51 ddd7 964f 7b39 1d51
000000d0: 0f45 d750 90e2 b750 b98f 30cf cbfc cccf
000000e0: fcc6 6b51 b6f2 e2ce ca8c 39d0 a55e 0ed0
000000f0: 62e4 98ce 737b 9a50 3915 68cf 3d58 08d0
00000100: 501a a750 ff1c 74cf 689c d750 3f8a 24d0
00000110: f71b 27cf d242 8d4f ac24 f950 62bc 0751
00000120: 218e ae50 035c 7e51 c1fb 11cf cb84 ae51
00000130: 0338 4ad0 963d b350 6bb3 5251 d52b 2251
00000140: 28ad 0851 7281 b250 15dc 9251 13ae a1cf
00000150: 9e91 e850 1258 09cf 08c8 a250 628e 08cf
00000160: d6a0 4451 43c7 8a51 14a1 2b51 ebc1 ecce
00000170: 7fbe b550 15e7 5051 7cc8 5b51 96ba bfcf
00000180: 969b a151 593b 55d0 ee9e 2650 006b 8051
00000190: 6733 6651 6169 f050 50fb 494e 9a66 1651
000001a0: 9394 28cf 485b e44f 7f59 a5cf 7612 264f
000001b0: 42a0 0bcf 7d61 f850 6135 bf50 b85c b650
000001c0: b0f2 1a50 b778 3bcf d75f 9551 ae0b 2ccf
000001d0: 30e7 8951 e435 3a51 f496 ed50 6113 1bcf
000001e0: ba56 2acf f2ea 6a51 6e08 8e4e 3412 c9ce
000001f0: dbb9 b4cf e849 0c4f f6bf 4d51 4ef0 81cf

layers.2.running_var f4 [128]
5.6326225e+20 5.088561e+20 2.8035273e+19 3.0956108e+20 4.9383606e+20 8.273271e+20 5.8176423e+20 6.854417e+20
3.9327814e+20 5.0868147e+20 2.0067576e+19 4.3237857e+20 4.3006164e+20 7.188651e+19 7.2242305e+20 2.5085057e+20
5.4394424e+20 5.711168e+19 4.1074546e+20 2.0175774e+20 1.1111596e+21 5.6777964e+20 2.266305e+19 8.525232e+20
4.4934518e+20 8.619802e+20 3.2756777e+20 2.7765256e+20 2.9579364e+20 4.382102e+19 3.034831e+20 2.4800692e+20
5.4374224e+20 4.5062715e+20 3.6392114e+20 5.6487186e+20 9.7321796e+20 1.3448174e+21 4.3950467e+20 7.495784e+20
3.807373e+20 2.2819474e+20 1.21625724e+20 6.0755586e+20 2.9202962e+20 3.0938857e+20 5.0854207e+20 1.9632987e+20
2.5309206e+20 3.9426017e+20 8.0592746e+20 6.159342e+20 7.53975e+20 6.108288e+20 2.9312509e+20 3.637125e+19
5.3815514e+20 1.12763414e+20 1.1628502e+19 1.7420029e+20 1.22964085e+20 3.8484803e+20 3.9874452e+20 4.0685157e+20
1.8197769e+20 1.2132381e+20 5.5179207e+20 3.5921924e+19 2.9714341e+19 5.608809e+20 4.6608924e+20 1.6560622e+20
4.0709342e+20 6.449258e+20 6.330834e+20 7.8049654e+20 1.8611343e+19 3.4886976e+20 5.264221e+20 5.1521715e+20
3.999119e+20 5.3486582e+20 1.1644899e+21 4.071427e+20 6.219762e+20 1.4135553e+20 3.780162e+20 4.502942e+20
7.8577856e+20 8.7502154e+20 6.7940896e+20 6.682945e+20 4.943836e+20 3.894092e+20 8.471145e+20 1.5894181e+20
1.772559e+21 1.2591505e+20 1.621842e+21 6.21199e+20 9.373135e+20 3.0671653e+20 6.851733e+20 3.3895825e+20
9.493324e+19 1.0998742e+21 1.2233059e+20 1.1196588e+20 1.5678323e+20 5.3849734e+20 2.1722641e+20 4.3817558e+20
3.854148e+20 3.5662345e+20 8.6713785e+20 4.6432682e+20 6.1218366e+20 6.746703e+20 6.5250586e+20 3.47949e+20
7.432259e+19 7.889889e+20 1.5686277e+20 1.44680794e+20 1.5817319e+19 3.593224e+20 9.251759e+20 2.2549873e+20
00000000: ac46 f461 60ae dc61 a688 c25f 2f40 8661
00000010: d12a d661 e165 3362 ce4c fc61 a8a1 1462
00000020: a58e aa61 fd9a dc61 2d3f 8b5f aa83 bb61
00000030: 6f82 ba61 0c68 7960 89a6 1c62 0494 5961
00000040: f1e5 eb61 5d25 4660 e821 b261 38ff 2e61
00000050: c0f1 7062 343c f661 aa41 9d5f 8bdc 3862
00000060: 56df c261 83e9 3a62 540f 8e61 41d3 7061
00000070: b147 8061 e208 1860 649d 8361 991c 5761
00000080: 84cf eb61 aa6d c361 5dd3 9d61 60f9 f461
00000090: 7308 5362 2ece 9162 d29a be61 f689 2262
000000a0: 551e a561 69ed 4561 acfc d260 20be 0362
000000b0: 9a4b 7d61 082d 8661 838b dc61 fd49 2a61
000000c0: ba85 5b61 acfb aa61 f6c1 2e62 378f 0562
000000d0: 057e 2362 cf73 0462 d83e 7e61 5260 fc5f
000000e0: 3963 e961 049d c360 bd60 215f 3c18 1761
000000f0: 064f d560 b7e6 a661 89ed ac61 9971 b061
00000100: 2ad7 1d61 9876 d260 3a4d ef61 2842 f95f
00000110: 462f ce5f 4a3e f361 4d22 ca61 f8a3 0f61
00000120: 738c b061 93d8 0b62 3047 0962 433e 2962
00000130: 6324 815f 534c 9761 984c e461 9870 df61
00000140: 246f ad61 09f6 e761 2d82 7c62 ec91 b061
00000150: 9dde 0662 7736 f560 3bf0 a361 b348 c361
00000160: 7963 2a62 74bd 3d62 c652 1362 cce9 1062
00000170: 9b67 d661 1be1 a861 4db0 3762 2cdc 0961
00000180: 652e c062 846d da60 29d7 af62 79b3 0662
00000190: 5a3f 4b62 6004 8561 c292 1462 edff 9261
000001a0: d4ae a460 487f 6e62 b235 d460 d73a c260
000001b0: dffc 0761 3789 e961 f469 3c61 4307 be61
000001c0: a325 a761 28a9 9a61 d207 3c62 a25e c961
000001d0: 05bf 0462 ba4b 1262 5a7d 0d62 19e6 9661
000001e0: dced 8060 af15 2b62 880e 0861 2efb fa60
000001f0: 6882 5b5f cdd4 9b61 949d 4862 c796 4361

layers.3.weight f4 [128, 128]
0.009721665 0.0010285992 0.0037382692 -0.012206394 -0.012157395 0.007474628 -0.009856034 0.0033158376
0.012746643 -0.0051663723 -0.0002837621 0.0010173667 -0.0027599502 -0.0049644653 -0.0015254916 -0.005832137
0.0071845376 0.009277245 -0.014479802 -0.0011417702 -0.009904574 0.0026794137 0.0075134602 -0.000396951
0.005950744 -0.004835556 -0.005848744 -0.0026342813 -0.017817292 0.020325134 0.004918901 -0.004693831
-0.0038493916 0.008797052 -0.022036966 -0.0054092873 -0.0166255 -0.0018138146 -0.011437537 -0.002436722
-0.0164527 0.017298749 -0.014795935 -0.02737946 -0.015245958 -0.009557537 -0.006118593 -0.0055133565
-0.0032650628 -0.03088567 0.0013514111 -0.01402893 0.007468806 0.003672235 -0.003495145 0.00982955
-0.021498535 -0.006639053 0.010095718 0.00011017901 -0.018543188 0.026056241 0.0019161521 0.021353187
-0.019723102 0.0042811073 0.006825075 -0.01028192 0.0071434844 -0.0068756337 -0.0035040288 -0.017880114
0.018835759 -0.0100158565 0.007016679 -0.011673067 0.010083238 0.0117556695 -0.007595996 -0.03244662
0.002673506 0.004685901 -0.011014068 0.016207665 0.0015129155 0.0098794075 0.0040194215 0.0068615833
-0.0074166665 -0.0075914464 0.010266295 0.015350271 0.014296264 -0.0005526093 -0.019847892 -0.0026834544
-0.01489078 0.03088459 0.0061229477 -0.02027162 -0.007859266 -0.037613593 0.016661135 -0.023776622
-8.1572856e-05 0.00587591 -0.007860816 0.025185212 -0.0062398654 -0.011918118 -0.00880791 0.00034452742
0.004758953 0.0135265 -0.019202048 0.0167029 -0.020483475 -0.024915496 -0.012623199 0.00393404
0.00316273 -0.01064556 0.0005908376 -0.005629909 0.0011173513 0.0045162635 -0.011202548 -0.011284853
0.0144112855 -0.015842156 -0.00396821 -0.0087433485 -0.015542106 -0.008657211 -0.00010769302 0.0077103977
0.03655612 -0.008873142 0.0006746267 0.002333146 -0.003291006 0.000667281 0.007199582 -0.007085486
-0.002286841 -0.0010378624 -0.017697604 -0.016009152 -0.01074664 0.03155754 0.014948832 0.017304892
-0.0036782722 -0.0009440363 -0.006592201 0.008085125 -0.034093123 0.040946852 0.0040704673 -0.01077256
0.008572969 0.004127802 -0.029104043 0.0038975186 0.0034994027 -0.006255807 -0.026637306 0.007363177
-0.013792144 0.0140958885 -0.010337177 -0.018841578 0.0063144714 -0.012637729 -0.0064945156 0.00069189863
-0.009646594 -0.014871336 0.0033565003 0.002991355 0.01382838 0.023601927 0.0042310567 0.040469613
-0.008830085 1.2888777e-05 -0.00021400725 -0.016753402 -0.008022459 0.04550496 -0.0048548533 0.010489703
-0.009305513 -0.0043734536 0.0083207665 -0.008007953 0.008586076 -0.0026980515 -0.011665392 -0.018056601
0.041448794 0.0042281514 0.0035472016 0.0022267143 0.038729828 0.0006049121 0.005003913 -0.007426912
0.011700711 -0.006693658 -0.002000194 0.008705089 0.0057435594 0.0020768375 0.004371874 0.016440148
-0.012168692 -0.004190546 0.010454636 0.0071685137 0.027229385 0.005343852 -0.00045016973 -0.031503223
-0.0012667985 0.014005082 -0.00818233 -0.01696369 -0.013249936 -0.009838216 0.0069689215 -0.021359602
-0.003680666 -5.020472e-05 -0.0067889853 0.027265575 -0.0040277904 -0.021274133 -0.02344918 0.028630503
-0.0030906391 0.0032205104 -0.0145745715 -0.0023193557 -0.0027465217 -0.025563614 -0.029306727 0.008290455
-0.009558797 -0.0014735512 0.0022945001 -0.011117302 0.0020041242 -0.010856567 -0.001142425 -0.009755703
00000000: 9e47 1f3c 10d2 863a c0fd 743b 54fd 47bc
00000010: cf2f 47bc b9ed f43b 347b 21bc 864e 593b
00000020: 4cd7 503c ac4a a9bb e8c5 94b9 2959 853a
00000030: 48e0 34bb f4ac a2bb 01f3 c7ba 831b bfbb
00000040: 456c eb3b 96ff 173c b13c 6dbc 73a7 95ba
00000050: cb46 22bc 1a99 2f3b 7933 f63b dd1d d0b9
00000060: 75fe c23b 9573 9ebb d2a6 bfbb e8a3 2cbb
00000070: 92f5 91bc e580 a63c bb2e a13b b5ce 99bb
00000080: 1346 7cbb 8321 103c de86 b4bc 6440 b1bb
00000090: 3332 88bc 85bd edba 8264 3bbc 69b1 1fbb
000000a0: d0c7 86bc 1bb6 8d3c a66a 72bc e44a e0bc
000000b0: 2fca 79bc 3797 1cbc 7a7e c8bb 63a9 b4bb
000000c0: aafa 55bb f203 fdbc d521 b13a 99d9 65bc
000000d0: e3bc f43b e1a9 703b cd0e 65bb 1f0c 213c
000000e0: b21d b0bc 6a8c d9bb 8368 253c e80f e738
000000f0: e2e7 97bc e673 d53c 6527 fb3a e1ec ae3c
00000100: 5892 a1bc 8848 8c3b e1a4 df3b 8075 28bc
00000110: e413 ea3b ff4c e1bb d9a3 65bb 5179 92bc
00000120: 734d 9a3c 8c19 24bc 2bec e53b 6440 3fbc
00000130: 2a34 253c da9a 403c d5e7 f8bb bfe6 04bd
00000140: fd35 2f3b 308c 993b 5974 34bc f0c5 843c
00000150: 054d c63a 3ddd 213c 5ab5 833b 22d7 e03b
00000160: 8207 f3bb abc1 f8bb f633 283c b47f 7b3c
00000170: e13a 6a3c fbdc 10ba 0c98 a2bc e5dc 2fbb
00000180: 75f8 73bc ae01 fd3c 02a3 c83b ab10 a6bc
00000190: 27c4 00bc b610 1abd ef7c 883c 31c7 c2bc
000001a0: 1812 abb8 b58a c03b a7ca 00bc 3851 ce3c
000001b0: c977 ccbb 3644 43bc 0d4f 10bc b0a1 b439
000001c0: fef0 9b3b 419e 5d3c 9d4d 9dbc 85d4 883c
000001d0: f6cc a7bc 951b ccbc 89d1 4ebc 1fe9 803b
000001e0: ce45 4f3b b76a 2ebc 71e2 1a3a 1a7b b8bb
000001f0: 1774 923a 2afd 933b e48a 37bc 1be4 38bc
00000200: 501d 6c3c 69c7 81bc c207 82bb 4340 0fbc
00000210: 51a4 7ebc fad6 0dbc 40d9 e1b8 81a7 fc3b
00000220: dfbb 153d a860 11bc 6ed9 303a b2e7 183b
00000230: ebad 57bb 78ec 2e3a 79ea eb3b 5d2d e8bb
00000240: d3de 15bb e208 88ba 91fa 90bc a025 83bc
00000250: ad12 30bc 7b42 013d f2eb 743c fdc2 8d3c
00000260: 2b0f 71bb 3479 77ba 6403 d8bb 7977 043c
00000270: 3ba5 0bbd e3b7 273d 8e61 853b 647f 30bc
00000280: a375 0c3c 8342 873b 9a6b eebc 836d 7f3b
00000290: 3c56 653b 83fd ccbb 7b36 dabc ce46 f13b
000002a0: 72f8 61bc 71f2 663c 435d 29bc a759 9abc
000002b0: a0e9 ce3b 7a0e 4fbc f2cf d4bb 8860 353a
000002c0: bf0c 1ebc e7a6 73bc bbf8 5b3b 9c0a 443b
000002d0: 6e90 623c d458 c13c ada4 8a3b 77c3 253d
000002e0: 10ac 10bc e03c 5837 2267 60b9 6e3e 89bc
000002f0: a270 03bc 6963 3a3d 7615 9fbb 01dd 2b3c
00000300: 2776 18bc 304f 8fbb d353 083c ca33 03bc
00000310: 9dac 0c3c cbd1 30bb 3320 3fbc 70eb 93bc
00000320: 36c6 293d 4e8c 8a3b 2b78 683b 11ee 113b
00000330: 2ba3 1e3d f792 1e3a ddf7 a33b 745d f3bb
00000340: 57b4 3f3c 7956 dbbb b015 03bb ca9f 0e3c
00000350: 7834 bc3b 8d1b 083b f041 8f3b 7dad 863c
00000360: 325f 47bc d950 89bb ec49 2b3c dae5 ea3b
00000370: 2910 df3c 7b1b af3b c204 ecb9 8609 01bd
00000380: b40a a6ba 9275 653c 2e0f 06bc 70f7 8abc
00000390: 4216 59bc 7830 21bc 8d5b e43b 55fa aebc
000003a0: 5437 71bb e892 52b8 2376 debb 0e5c df3c
000003b0: 8efb 83bb 1747 aebc 7f18 c0bc 848a ea3c
000003c0: 528c 4abb 330f 533b 2fca 6ebc 5500 18bb
000003d0: fdfe 33bb c96a d1bc a914 f0bc b0d4 073c
000003e0: 809c 1cbc 2c24 c1ba 535f 163b 5825 36bc
000003f0: a057 033b bedf 31bc 6cbd 95ba 62d6 1fbc

layers.3.bias f4 [128]
0.0014494637 0.009140052 0.009949951 0.025053238 -0.03179739 0.00019314435 0.08959255 0.053226307
-0.002370935 -0.04771097 -0.081319705 0.036304913 -0.06951436 -0.047085695 0.08711538 0.089554
-0.07159902 0.07630827 -0.002370046 0.06948273 -0.053976256 0.02484985 -0.0880246 -0.06787565
-0.018796742 -0.023152811 0.02580436 0.05963408 0.019464085 -0.018119521 0.0513666 0.057752334
-0.08266509 0.005296946 -0.034089148 0.030070445 -0.028357184 0.064962946 0.06007818 -0.07191376
0.045058604 0.054878432 0.072139025 -0.010512664 0.037333664 0.032645397 -0.056491688 -0.0624485
-0.07011077 0.069243185 -0.02362592 0.042979535 -0.05704636 -0.08892834 0.029790567 -0.039752778
0.075143605 0.013451577 -0.06704811 -0.042436738 -0.047104593 0.07589537 0.03263917 0.016835636
-0.0815384 -0.006128533 -0.0057112733 -0.091083035 -0.058215357 0.07361788 -0.09995915 -0.048850555
0.044755265 0.018661002 -0.042417996 -0.0013476725 -0.010530588 0.00253439 -0.03365245 -0.060955353
-0.021935308 -0.09020424 -0.026763707 0.05762277 -0.078482315 0.05197375 -0.060682215 0.025886223
-0.042535555 0.07904988 0.089732975 0.007843076 0.0042064665 -0.055143736 0.018053949 0.037757654
0.033312075 0.047343243 -0.045516714 -0.0065963636 0.013988695 0.022167284 0.04318055 0.07501253
-0.0060359603 0.08205658 0.09713827 0.0389667 -0.071043156 0.06280668 0.06414978 -0.014717218
0.019452455 0.033667944 -0.078891076 0.041072972 0.089791805 -0.026109597 -0.06008205 -0.087824225
-0.04885237 0.026701968 -0.008389093 0.008587853 0.039125685 -0.048333496 0.028127715 -0.09418822
00000000: eefb bd3a 28c0 153c 1f05 233c 733c cd3c
00000010: fb3d 02bd cb86 4a39 4d7c b73d d403 5a3d
00000020: b061 1bbb 946c 43bd f28a a6bd 76b4 143d
00000030: 8b5d 8ebd eedc 40bd 8c69 b23d 1668 b73d
00000040: 82a2 92bd 8347 9c3d c652 1bbb f64c 8e3d
00000050: 3516 5dbd ea91 cb3c 3e46 b4bd 6402 8bbd
00000060: a0fb 99bc f7aa bdbc aa63 d33c dd42 743d
00000070: 2573 9f3c 646f 94bc c965 523d b68d 6c3d
00000080: 514c a9bd 0192 ad3b 10a1 0bbd 4b56 f63c
00000090: 534d e8bc 4b0b 853d 8a14 763d 8547 93bd
000000a0: 5f8f 383d 35c8 603d a0bd 933d 4f3d 2cbc
000000b0: 2feb 183d 2eb7 053d d463 67bd 00ca 7fbd
000000c0: 3c96 8fbd 5fcf 8d3d 258b c1bc 4f0b 303d
000000d0: 72a9 69bd 1020 b6bd 590b f43c cfd3 22bd
000000e0: e4e4 993d 0164 5c3c 8550 89bd 25d2 2dbd
000000f0: bff0 40bd 086f 9b3d a6b0 053d e3ea 893c
00000100: 9bfd a6bd dcd1 c8bb a225 bbbb be89 babd
00000110: 3a73 6ebd f9c4 963d 62b7 ccbd 8517 48bd
00000120: 4c51 373d f5de 983c 7ebe 2dbd 63a4 b0ba
00000130: 7d88 2cbc 0218 263b 27d7 09bd 52ac 79bd
00000140: adb1 b3bc 00bd b8bd 903f dbbc db05 6c3d
00000150: 56bb a0bd 6de2 543d ea8d 78bd 580f d43c
00000160: c339 2ebd e7e4 a13d ecc5 b73d 3f80 003c
00000170: 66d6 893b 66de 61bd e0e5 933c c5a7 1a3d
00000180: 3e72 083d fdea 413d bc6f 3abd 4f26 d8bb
00000190: d730 653c 2a98 b53c 17de 303d 2ba0 993d
000001a0: 4ec9 c5bb 480d a83d 6ef0 c63d 8c9b 1f3d
000001b0: 137f 91bd caa0 803d f660 833d 7c20 71bc
000001c0: c15a 9f3c 66e7 093d a591 a1bd 223c 283d
000001d0: c4e4 b73d cbe3 d5bc 9818 76bd 30dd b3bd
000001e0: 6c19 48bd 16be da3c 6872 09bc 11b4 0c3c
000001f0: 4142 203d 58f9 45bd 186c e63c c1e5 c0bd

layers.6.weight f4 [128]
0.97106504 0.9972521 0.96978456 0.97795916 0.95288926 0.9849947 0.96569645 0.9822159
0.9915862 0.97876525 0.961976 0.96600276 0.97697365 0.9677876 0.966284 0.9717972
0.96768475 0.97751564 0.9890577 0.9899209 0.9658021 0.98280287 0.9767224 0.96538275
0.987314 0.9656706 0.9900718 0.9670438 0.9828307 0.9613529 0.9723158 0.969034
0.97556823 0.9915946 0.96908855 1.003013 0.97729737 0.97268647 1.001493 0.9760884
0.9706787 0.9716027 0.9724683 0.96485007 0.961971 0.96825665 0.97581255 0.98572415
0.95811325 0.9698508 0.971858 0.9853971 0.9526686 0.97260565 0.96848744 0.95003384
0.9693522 0.9609701 0.9688433 0.9681766 0.96302927 0.9573181 0.9900795 0.970689
0.9885642 0.98174727 0.9995157 0.9729423 1.0078213 0.9789672 0.9880067 0.997026
0.97886527 0.9851083 0.977299 0.9643456 0.98845005 0.9699552 0.95396495 0.9733959
0.9641356 0.98119193 0.98210627 0.98277295 0.96780425 0.98122233 0.9848232 0.9762067
0.97995853 0.98100686 0.9751408 0.98388016 0.97993135 0.9849502 0.9618503 0.9800198
0.9693513 0.9824747 0.96460384 0.98934346 0.96391135 0.98008096 0.9768894 0.9547026
0.9738706 0.98310053 0.9576783 0.96548927 0.99232215 0.94861645 0.9730741 0.97819006
0.980328 0.9778279 0.97597635 0.97256607 0.97716886 0.97249305 0.97382796 0.9820681
0.9763251 0.9556406 0.9870847 0.9818644 0.98083436 0.983624 0.99952644 0.9892279
00000000: b897 783f ea4b 7f3f cd43 783f 885b 7a3f
00000010: 8df0 733f 9d28 7c3f e237 773f 8072 7b3f
00000020: 98d8 7d3f 5c90 7a3f 0f44 763f f54b 773f
00000030: f21a 7a3f eec0 773f 635e 773f b4c7 783f
00000040: 30ba 773f 773e 7a3f e332 7d3f 756b 7d3f
00000050: ce3e 773f f898 7b3f 7b0a 7a3f 5323 773f
00000060: 9cc0 7c3f 3036 773f 5875 7d3f 2f90 773f
00000070: cb9a 7b3f 391b 763f b0e9 783f 9d12 783f
00000080: d7be 793f 25d9 7d3f 3016 783f bb62 803f
00000090: 2930 7a3f fb01 793f ec30 803f eee0 793f
000000a0: 667e 783f f4ba 783f aff3 783f 6a00 773f
000000b0: bb43 763f abdf 773f dace 793f 6b58 7c3f
000000c0: e946 753f 2448 783f b0cb 783f fc42 7c3f
000000d0: 17e2 733f affc 783f cbee 773f 6b35 733f
000000e0: 7727 783f 2302 763f 1d06 783f 6cda 773f
000000f0: 1689 763f cd12 753f da75 7d3f 137f 783f
00000100: 8b12 7d3f ca53 7b3f 43e0 7f3f bf12 793f
00000110: 4a00 813f 989d 7a3f 02ee 7c3f 193d 7f3f
00000120: ea96 7a3f 0f30 7c3f 4430 7a3f 5adf 763f
00000130: 100b 7d3f fc4e 783f 0c37 743f 7930 793f
00000140: 97d1 763f 652f 7b3f 516b 7b3f 0297 7b3f
00000150: 05c2 773f 6331 7b3f 601d 7c3f afe8 793f
00000160: 90de 7a3f 4423 7b3f d4a2 793f 92df 7b3f
00000170: c8dc 7a3f b225 7c3f d23b 763f 94e2 7a3f
00000180: 6827 783f 7683 7b3f 47f0 763f 9d45 7d3f
00000190: e5c2 763f 96e6 7a3f 6c15 7a3f 6467 743f
000001a0: 954f 793f 7aac 7b3f 682a 753f 4e2a 773f
000001b0: d308 7e3f 87d8 723f 621b 793f aa6a 7a3f
000001c0: c7f6 7a3f ee52 7a3f 96d9 793f 17fa 783f
000001d0: bd27 7a3f 4ef5 783f ca4c 793f d168 7b3f
000001e0: 71f0 793f dda4 743f 95b1 7c3f 775b 7b3f
000001f0: f617 7b3f c8ce 7b3f f7e0 7f3f 0a3e 7d3f

layers.6.bias f4 [128]
0.02033368 0.01953156 0.017117133 0.010360412 0.02005627 -0.020392023 0.032663897 0.023407808
-0.025052967 0.013326506 -0.028572297 0.00019510463 0.009615637 -0.021385543 -0.033258907 0.021478366
-0.03354013 0.019779785 0.008045007 -0.023952268 -0.047499247 -0.012015577 -0.044689182 -0.009286287
0.0130966855 0.033908546 0.013107461 -0.02311593 -0.017406417 0.02741639 0.030508354 0.02194057
0.015750185 -0.0011808292 0.03096452 0.007585031 -0.019666929 0.027871683 -0.01228317 -0.05673575
-0.021232007 -0.028014824 0.009649301 -0.018375328 -0.016548693 -0.012886162 -0.027553791 -0.023208082
0.035077963 -0.02962369 0.029092405 -0.0046518673 -0.027795892 -0.036906525 -0.029155523 -0.025004538
0.030207919 -0.01935824 -0.034666467 0.035726216 -0.058221903 -0.009342098 0.021434734 -0.017593717
0.0004982861 -0.021732856 -0.019702109 -0.023561634 0.018888174 0.00022719137 -0.013687141 0.017739773
0.029845297 0.012631075 0.027746513 0.030836383 -0.025039777 0.021004198 0.0066334875 0.024541361
0.0021430408 -0.004304913 -0.006090224 0.012275102 -0.023701917 0.017360149 -0.014203103 -0.02364638
0.015088253 -0.018055521 0.019886434 0.019198366 0.020841744 -0.014082843 -0.023149712 0.014350068
-0.0027951775 0.011161443 -0.009592004 -0.014204313 0.02537395 -0.007459689 -0.0030958038 0.0032824702
0.014425374 0.005382818 -0.006907774 -0.041031886 -0.011617402 -0.017237265 -0.061249312 -0.027120078
-0.026405571 0.0113943955 -0.023794506 0.0106245745 -0.011589219 -0.03758733 0.04005034 0.013416411
0.019294107 0.0008449443 -0.016979588 0.023718724 0.010496733 -0.015873771 0.010513454 0.00227773
00000000: d192 a63c a600 a03c 3b39 8c3c b8be 293c
00000010: 0c4d a43c 2c0d a7bc 94ca 053d bbc1 bf3c
00000020: e13b cdbc 6b57 5a3c 7310 eabc 0095 4c39
00000030: e88a 1d3c bc30 afbc 7e3a 08bd 66f3 af3c
00000040: 6061 09bd 3709 a23c 34cf 033c 8c37 c4bc
00000050: 928e 42bd fcdc 44bc 010c 37bd 8325 18bc
00000060: 7b93 563c b0e3 0a3d adc0 563c 9e5d bdbc
00000070: e797 8ebc 5698 e03c a8ec f93c b6bc b33c
00000080: 8806 813c 0ec6 9aba 4ea9 fd3c da8b f83b
00000090: 8a1c a1bc 2853 e43c 593f 49bc bf63 68bd
000000a0: bfee adbc 587f e5bc 1a18 1e3c db87 96bc
000000b0: 2091 87bc 7b20 53bc 7db8 e1bc e01e bebc
000000c0: e9ad 0f3d 61ad f2bc 3253 ee3c b16e 98bb
000000d0: 36b4 e3bc 4c2b 17bd 90d7 eebc 51d6 ccbc
000000e0: 9976 f73c 2c95 9ebc 6dfe 0dbd a755 123d
000000f0: 177a 6ebd 990f 19bc e597 af3c b320 90bc
00000100: 6a9f 023a 1a09 b2bc 5166 a1bc 5404 c1bc
00000110: 5fbb 9a3c 383a 6e39 0840 60bc 0053 913c
00000120: 207e f43c 92f2 4e3c a84c e33c 959c fc3c
00000130: 3820 cdbc ff10 ac3c ba5d d93b f70a c93c
00000140: 4272 0c3b 3a10 8dbb 8090 c7bb 821d 493c
00000150: 862a c2bc df36 8e3c 22b4 68bc 0eb6 c1bc
00000160: b834 773c 2ce9 93bc e0e8 a23c e445 9d3c
00000170: 4ebc aa3c babb 66bc 77a4 bdbc 8c1c 6b3c
00000180: 4c2f 37bb 7cde 363c c827 1dbc 35b9 68bc
00000190: 08dd cf3c 6870 f4bb f8e2 4abb b61e 573b
000001a0: 6758 6c3c 5a62 b03b 9c5a e2bb 0d11 28bd
000001b0: ea56 3ebc 2a35 8dbc 8fe0 7abd ed2a debc
000001c0: 7f50 d8bc 8faf 3a3c b2ec c2bc b212 2e3c
000001d0: b5e0 3dbc 2cf5 19bd d30b 243d 82d0 5b3c
000001e0: ad0e 9e3c 417f 5d3a c718 8bbc c54d c23c
000001f0: 7dfa 2b3c b609 82bc 9f40 2c3c f845 153b

layers.6.running_mean f4 [128]
-0.040793277 0.0016050597 0.062333986 0.081385694 -0.05431859 -0.031995747 0.10400787 0.08462616
-0.08202017 0.019786963 -0.13279428 0.09283025 -0.08611069 -0.09659445 0.12758723 0.10198054
-0.07562905 0.09381 -0.039688703 -0.0067284247 -0.07621457 0.023922814 -0.043481585 -0.13479161
0.02106414 -0.1416049 0.031150531 0.081789955 0.0454017 0.02998251 0.08216595 0.035864603
-0.06411837 0.019831099 -0.047324825 0.06438343 -0.032308757 0.13356242 0.010898083 -0.031946886
-0.014425946 -0.021448601 0.059065346 0.008212722 0.031454004 -0.020489536 -0.1144424 -0.069713555
-0.021961004 0.05973048 0.02022293 0.0047607264 0.100901514 -0.13451584 0.008948454 -0.009876337
0.06547937 -0.00327106 -0.14731948 0.033582546 -0.06878476 0.016394794 0.01059961 0.029380403
-0.0029755896 -0.094583005 -0.10428136 -0.08129306 -0.052316025 0.081717566 -0.1983884 -0.053403493
-0.009812556 0.019345323 0.03188406 0.0098215 -0.043098226 0.11009297 -0.10773459 0.086199395
-0.12931165 -0.09347935 -0.1066385 0.04920378 -0.118263036 0.1546309 -0.037357524 0.035154313
-0.017111722 0.040887646 0.116723664 0.122356504 0.06748823 -0.059941776 0.11174978 0.053393666
-0.022837019 0.027304122 -0.16532987 0.03227668 0.111120395 0.062010985 0.034171104 0.052648637
-0.050570793 0.1498948 0.061280914 -0.06153353 -0.0600159 -0.0028748065 0.055040613 -0.062454935
0.024722043 0.103716314 -0.08863009 0.051621027 -0.009702663 -0.03133391 -0.013039056 -0.11287403
-0.017498162 0.11073083 -0.0903245 0.12090683 -0.01270569 -0.036174588 0.04139021 -0.11309385
00000000: da16 27bd de60 d23a ec51 7f3d 8bad a63d
00000010: 2b7d 5ebd f90d 03bd 1402 d53d 7b50 ad3d
00000020: 31fa a7bd 4518 a23c 39fb 07be c91d be3d
00000030: cd5a b0bd 50d3 c5bd 3aa6 023e 2cdb d03d
00000040: 67e3 9abd 751f c03d 9f90 22bd 1e7a dcbb
00000050: 6216 9cbd c7f9 c33c bf19 32bd d006 0abe
00000060: b48e ac3c e000 11be 662f ff3c 7e81 a73d
00000070: 22f7 393d e19d f53c 9f46 a83d c3e6 123d
00000080: 7e50 83bd d474 a23c add7 41bd 76db 833d
00000090: 3056 04bd 96c4 083e e08d 323c bdda 02bd
000000a0: ce5a 6cbc fab4 afbc 81ee 713d a78e 063c
000000b0: ead5 003d acd9 a7bc c760 eabd fbc5 8ebd
000000c0: 90e7 b3bc f3a7 743d 8faa a53c deff 9b3b
000000d0: 74a5 ce3d 85be 09be 899c 123c 5cd0 21bc
000000e0: 0c1a 863d 485f 56bb ebda 16be da8d 093d
000000f0: 06df 8cbd 604e 863c fda9 2d3c 2caf f03c
00000100: 1c02 43bb bcb4 c1bd 7791 d5bd fa7c a6bd
00000110: 5449 56bd 8a5b a73d 5426 4bbe 9fbd 5abd
00000120: d8c4 20bc 157a 9e3c dc98 023d 5bea 203c
00000130: c487 30bd 6c78 e13d f4a3 dcbd 4f89 b03d
00000140: 466a 04be 1a72 bfbd 4965 dabd e789 493d
00000150: e433 f2bd 9057 1e3e 3404 19bd f8fd 0f3d
00000160: e22d 8cbc ce79 273d d10c ef3d 0c96 fa3d
00000170: 4537 8a3d 8285 75bd 12dd e43d 51b3 5a3d
00000180: b314 bbbc e5ac df3c 3c4c 29be 8d34 043d
00000190: 1793 e33d 3bff 7d3d 00f7 0b3d 19a6 573d
000001a0: 5223 4fbd 067e 193e b201 7b3d 950a 7cbd
000001b0: 3bd3 75bd 4067 3cbb 4472 613d bfd0 7fbd
000001c0: e285 ca3c 3869 d43d b183 b5bd 9270 533d
000001d0: ebf7 1ebc fc57 00bd c4a1 55bc 802a e7bd
000001e0: 4e58 8fbc d8c6 e23d 0dfc b8bd 009e f73d
000001f0: 872b 50bc ce2b 14bd c888 293d c09d e7bd

layers.6.running_var f4 [128]
0.21833275 0.34860864 0.20641547 0.302863 0.28545833 0.38160142 0.11872302 0.3644477
0.27039132 0.26321983 0.23002668 0.30662024 0.18825044 0.29640645 0.18618119 0.1897958
0.10908286 0.25726756 0.25641915 0.17632969 0.108738646 0.23581742 0.1986279 0.2517637
0.3055148 0.21028396 0.20574437 0.17946903 0.20266555 0.14136581 0.09434559 0.25478032
0.33361965 0.27876604 0.10918282 0.22781256 0.25330853 0.2106269 0.30518275 0.14766473
0.21561007 0.18813415 0.20342658 0.14020742 0.3119734 0.13169502 0.15970033 0.214438
0.14733653 0.1615637 0.24009034 0.22880858 0.32710034 0.148911 0.12171527 0.3491685
0.09082333 0.13261275 0.17794101 0.23303166 0.12888868 0.20523274 0.30743068 0.20176055
0.2649898 0.2150216 0.24665283 0.11764077 0.35614657 0.160099 0.2687472 0.3233354
0.27770215 0.36569384 0.25719208 0.17343254 0.2792081 0.12429423 0.19493188 0.178822
0.3388157 0.2768968 0.23411751 0.274715 0.1362252 0.21333958 0.18114837 0.18255107
0.20833111 0.23710416 0.17020375 0.25968185 0.17993961 0.30817 0.33640593 0.2087862
0.13472617 0.2802323 0.26229736 0.22805166 0.18200307 0.35272563 0.20846742 0.23355785
0.28302866 0.19781412 0.26149455 0.2050202 0.27816725 0.24315685 0.15332828 0.27187672
0.18025164 0.23491876 0.24703671 0.24043365 0.15154663 0.27146456 0.12764223 0.25991443
0.22615226 0.18317237 0.27381045 0.21922456 0.30408126 0.17157164 0.2474754 0.31601986
00000000: 9f92 5f3e d57c b23e 945e 533e dc10 9b3e
00000010: 9827 923e 4361 c33e 0e25 f33d e498 ba3e
00000020: bb70 8a3e c0c4 863e 1d8c 6b3e 54fd 9c3e
00000030: b9c4 403e 96c2 973e 48a6 3e3e d559 423e
00000040: d666 df3d 93b8 833e 5f49 833e c58f 343e
00000050: 5eb2 de3d 1f7a 713e 1d65 4b3e 2ce7 803e
00000060: 706c 9c3e ae54 573e a7ae 523e bbc6 373e
00000070: 8f87 4f3e 33c2 103e 4338 c13d 9172 823e
00000080: 32d0 aa3e 6cba 8e3e 3e9b df3d b247 693e
00000090: a8b1 813e 94ae 573e ea40 9c3e 6c35 173e
000000a0: e3c8 5c3e 3da6 403e 0f4f 503e 8992 0f3e
000000b0: faba 9f3e 0fdb 063e 7c88 233e a395 5b3e
000000c0: 63df 163e f470 253e 3eda 753e cc4c 6a3e
000000d0: b279 a73e 207c 183e db45 f93d 37c6 b23e
000000e0: 9501 ba3d a3cb 073e 2b36 363e da9f 6e3e
000000f0: 65fb 033e 8828 523e 8e67 9d3e 519a 4e3e
00000100: beac 873e 9f2e 5c3e 8f92 7c3e a5ed f03d
00000110: d858 b63e fef0 233e 3c99 893e 388c a53e
00000120: fa2e 8e3e 393c bb3e aeae 833e 4d98 313e
00000130: 5df4 8e3e f98d fe3d 399c 473e 1d1d 373e
00000140: 4079 ad3e 6bc5 8d3e 80bc 6f3e 72a7 8c3e
00000150: 9e7e 0b3e b175 5a3e f57e 393e abee 3a3e
00000160: c054 553e 6fcb 723e e449 2e3e 05f5 843e
00000170: 1742 383e 75c8 9d3e 663d ac3e 0dcc 553e
00000180: a8f5 093e 9c7a 8f3e d74b 863e 6086 693e
00000190: 035f 3a3e 7498 b43e 7c78 553e ca29 6f3e
000001a0: 22e9 903e c98f 4a3e 9de2 853e d1f0 513e
000001b0: f06b 8e3e 1cfe 783e 1702 1d3e 6d33 8b3e
000001c0: e393 383e 8b8e 703e 31f7 7c3e 3d34 763e
000001d0: 0a2f 1b3e 67fd 8a3e a5b4 023e 8113 853e
000001e0: 7594 673e 8a91 3b3e e230 8c3e 677c 603e
000001f0: 8ab0 9b3e 7ab0 2f3e 316a 7d3e 5bcd a13e
