ddpg/model_params/tpcc_ddpg_7_30_critic.pth (torch, 379178 bytes, 17 tensors)

state_input.weight f4 [128, 65]
000000 96 5e 8b 38 51 39 6d 39 5d e6 0f b9 32 4c 84 b8
       6.6456545e-05 0.00022623433 -0.0001372336 -6.308443e-05
000010 16 d7 1a 38 94 d2 a0 39 a8 90 1a 38 61 15 99 b9
       3.6916776e-05 0.0003067447 3.6851183e-05 -0.00029198363
000020 4c 81 99 3a fe fc 28 39 a4 3e 87 37 a6 65 83 b7
       0.0011711507 0.00016115975 1.6122423e-05 -1.566375e-05
000030 2d ba 02 39 eb 8e 42 39 c7 9c 90 b8 0e 25 28 38
       0.00012467122 0.00018554523 -6.895657e-05 4.008883e-05
000040 3d 99 de b8 32 5b 9e 37 86 8d 1a b9 ef 15 6e 39
       -0.00010614328 1.8877534e-05 -0.00014739306 0.0002270562
000050 ec 78 cb b9 85 44 b7 39 4e b7 8e b6 3c 89 9c b9
       -0.0003880927 0.0003495553 -4.2532693e-06 -0.00029856886
000060 c9 4c dc 37 95 bf 8b b7 f4 1d ed b8 a3 3d 7a b8
       2.62618e-05 -1.6659304e-05 -0.0001130662 -5.966205e-05
000070 aa 05 9c b5 51 75 6b ba bc 41 11 b8 60 cf f9 b8
       -1.1624554e-06 -0.000898202 -3.4631914e-05 -0.00011911872
000080 e3 7e 1a 38 6e 20 75 b8 8d b7 34 b9 79 5f 78 b7
       3.6834634e-05 -5.8442754e-05 -0.00017234516 -1.4804181e-05
000090 00 88 93 b7 c9 dc 95 b9 11 21 e2 39 bf 98 29 ba
       -1.7587095e-05 -0.00028583992 0.00043130715 -0.00064695993
0000a0 23 80 cf ba bf 24 1c ba eb 79 dc b9 c8 97 bf 37
       -0.0015831034 -0.00059564033 -0.00042052506 2.2839653e-05
0000b0 2e 50 7c b9 a8 7d 9e b9 c0 d1 16 39 ea 4c 1f 3a
       -0.00024062462 -0.0003022973 0.00014383253 0.000607683
0000c0 40 da 2a 39 c1 6a 24 ba 00 6a 8c b8 92 33 29 3a
       0.00016293768 -0.0006272011 -6.695464e-05 0.0006454523
0000d0 22 a1 88 38 d6 7f d3 b9 ee e9 85 36 fc 43 7f 39
       6.514999e-05 -0.000403403 3.990942e-06 0.00024344021
0000e0 80 97 56 b9 a1 93 b9 37 21 99 29 b9 6a 5f 3c 38
       -0.00020465069 2.2122464e-05 -0.00016174141 4.4911554e-05
0000f0 a5 57 13 39 ea 7b b8 37 00 99 72 b8 fc 48 98 b7
       0.00014051663 2.1992211e-05 -5.783979e-05 -1.8153798e-05
000100 5c b2 d6 b6 60 79 7c b9 d1 ce 0f 3a 49 59 9f 39
       -6.3984608e-06 -0.00024077808 0.0005485835 0.00030393366
000110 84 5c 29 3a 69 1b 82 b8 8a 63 0b ba f4 63 ee b8
       0.0006460624 -6.2039886e-05 -0.00053172617 -0.00011367342
000120 52 ce 8e b9 c7 a0 57 37 25 05 ce 39 b5 29 5d b9
       -0.0002723807 1.28524325e-05 0.00039295215 -0.0002109174
000130 22 d7 e5 b8 29 96 5c b8 79 9e 5f ba e2 45 e5 38
       -0.000109596425 -5.2591935e-05 -0.0008530389 0.000109325876
000140 bd 9b 9f 39 83 2b 03 3a d0 76 bb b6 94 80 9c 39
       0.00030442877 0.0005003737 -5.586866e-06 0.00029850437
000150 f6 61 8d ba b8 ca b8 b8 fe 4a bf b7 8c ba 25 b7
       -0.0010786641 -8.811563e-05 -2.2803895e-05 -9.8782e-06
000160 76 7d 29 3a 23 72 13 3a 74 c9 ba b7 ec 93 1c b9
       0.00064655335 0.00056246127 -2.2266737e-05 -0.00014932425
000170 b3 10 f3 35 10 ac 8c 36 eb f8 10 39 c0 85 41 36
       1.8109771e-06 4.192356e-06 0.0001382564 2.8837094e-06
000180 df 34 88 39 51 7c 0c 39 de 5f 87 38 7a e2 6d b9
       0.00025979333 0.00013397752 6.455158e-05 -0.0002268645
000190 37 52 21 b8 ce 93 35 38 fb 90 e7 39 e1 22 2d b9
       -3.846196e-05 4.3291417e-05 0.00044167772 -0.00016511559
0001a0 d4 af be 37 91 0c 4e b8 63 9f 12 b9 3c e5 e1 b9
       2.2731641e-05 -4.912593e-05 -0.00013983021 -0.00043086137
0001b0 f4 df 4a 39 ce c4 c9 3a 8e a9 29 38 ef 97 27 ba
       0.0001934765 0.0015393735 4.045065e-05 -0.00063931843
0001c0 f9 e2 9a b9 39 67 26 ba 89 f0 8a b9 8a 63 8c b8
       -0.00029542277 -0.0006347779 -0.00026500624 -6.694261e-05
0001d0 c4 d6 29 38 68 75 86 b9 13 05 9d 39 d3 6f 7f b8
       4.0492756e-05 -0.00025645946 0.00029949154 -6.0900882e-05
0001e0 3d cf 9e ba 39 89 fb b7 d4 87 95 39 4f 51 78 b8
       -0.0012116205 -2.9985431e-05 0.00028520694 -5.9203532e-05
0001f0 d0 d4 a1 b9 7a 36 99 39 52 57 e7 38 14 94 09 ba
       -0.0003086687 0.00029223022 0.00011031203 -0.00052482006
000200 00 8b 69 b8 74 aa 0a 3a fc fb 95 39 ac 5e 1c 39
       -5.5680983e-05 0.0005289682 0.00028607238 0.00014912587
000210 c2 c1 55 38 1e 18 d7 b8 98 4a cb b7 b6 a5 2f 39
       5.096361e-05 -0.00010256491 -2.4234221e-05 0.00016751033
000220 00 7b 4a b2 9e 1f 09 ba 76 ae 1b 39 03 71 9e b9
       -1.17859145e-08 -0.00052308466 0.00014846944 -0.0003022031
000230 c5 ba d1 37 fd 04 a1 39 a8 a2 94 3a 1c 5a 99 37
       2.5001713e-05 0.0003071203 0.0011339979 1.8280982e-05
000240 9f 5f 56 b8 1a 1e 1f 38 96 fe c0 b8 b2 eb 1c 3a
       -5.111063e-05 3.793659e-05 -9.202694e-05 0.0005986049
000250 67 b9 02 3a 58 ad a4 35 1d d3 1c b9 68 03 52 36
       0.00049867335 1.2269402e-06 -0.00014955965 3.1294421e-06
000260 9a 44 89 b9 db b8 28 38 b4 ff 74 36 2b a3 23 3a
       -0.00026181788 4.022648e-05 3.6507672e-06 0.00062422705
000270 ee 7b 32 b9 cc fd 8e b8 ae 50 0d ba e0 de e7 36
       -0.0001702157 -6.818361e-05 -0.00053907454 6.9102825e-06
000280 96 ea 8d 39 ec fd 0a 3a af 96 3e b9 8c 5f ef b8
       0.00027068396 0.00053021195 -0.00018175946 -0.00011414205
000290 57 97 6e 39 18 71 00 39 5e 4a e1 38 6e 6a 6e b8
       0.00022753827 0.00012249162 0.00010742688 -5.6842742e-05
0002a0 48 d9 1d 38 06 66 0f b8 c1 0d a8 39 23 6c ea b8
       3.7634076e-05 -3.4188874e-05 0.00032053704 -0.000111781315
0002b0 f3 15 1d b9 3f 30 2f 39 08 c8 fb 38 08 04 2a 37
       -0.00014980863 0.00016707274 0.000120058714 1.0133728e-05
0002c0 d2 12 b9 39 65 03 ee 37 1e ef c0 b7 84 1e 89 38
       0.00035299972 2.8373392e-05 -2.2999531e-05 6.538353e-05
0002d0 58 e6 30 b9 c9 61 c9 39 f5 db 28 3a e0 93 cb 37
       -0.00016870478 0.00038410563 0.00064414676 2.4268345e-05
0002e0 5f bb 28 3a e2 8d 29 ba 4c a1 6d 39 f4 67 84 38
       0.0006436612 -0.00064679806 0.00022662169 6.313613e-05
0002f0 71 70 c1 3a 66 59 07 39 39 f2 1c 39 0b f0 a9 b7
       0.0014758242 0.00012907907 0.00014967554 -2.0258149e-05
000300 df 14 2e 39 41 31 84 b8 e3 45 60 b9 c3 a8 97 39
       0.00016601708 -6.303425e-05 -0.0002138834 0.00028926702
000310 79 28 1c ba 7a a5 0b b9 8e ff cd b8 6f bb cb b8
       -0.00059569586 -0.00013317718 -9.8227625e-05 -9.7147065e-05
000320 5c 61 20 35 e3 12 b9 b7 39 66 93 b9 e0 c0 e5 b6
       5.974632e-07 -2.2062513e-05 -0.00028114187 -6.8471854e-06
000330 84 83 1a b8 cb 2d 08 3a ce a2 10 3a b7 a9 0e b9
       -3.6838945e-05 0.0005194812 0.0005517424 -0.00013605399
000340 f0 56 e2 b5 37 7b 6e b9 58 97 a4 b8 8a 65 8c b8
       -1.6863614e-06 -0.0002274335 -7.8483194e-05 -6.694633e-05
000350 8a 53 24 b8 a7 4e 11 ba 1b b4 8b 38 de b9 60 b9
       -3.917845e-05 -0.0005543031 6.661584e-05 -0.00021431546
000360 24 b6 c3 39 ff 73 21 38 82 1d b3 b6 97 a3 e5 39
       0.00037329004 3.849342e-05 -5.338051e-06 0.00043800168
000370 2c 1c 6f 38 30 95 90 b7 dc aa b1 37 ed e5 89 39
       5.7008278e-05 -1.7235609e-05 2.1179607e-05 0.00026301984
000380 2d 9a e7 b8 a6 c8 79 38 94 93 8c 38 5c 54 01 35
       -0.00011043656 5.9553095e-05 6.703209e-05 4.8179004e-07
000390 42 cb 91 39 45 92 18 b9 8f 1c 15 ba d1 8c 29 3a
       0.00027807994 -0.00014550339 -0.00056881545 0.00064678217
0003a0 10 cc 4a 38 a2 97 f9 39 ee 2e 88 b7 b0 a1 54 b6
       4.83506e-05 0.00047605956 -1.6234317e-05 -3.1684576e-06
0003b0 ac e2 7b 38 c4 a1 66 b9 02 65 19 b9 0c d4 d2 ba
       6.0054168e-05 -0.00021994772 -0.00014628845 -0.0016084923
0003c0 75 dd 73 38 98 e8 5c 38 30 a3 19 b9 e0 7d 16 39
       5.8141963e-05 5.2668707e-05 -0.00014652009 0.00014352007
0003d0 fe 1f 1d 39 35 81 09 b8 77 2c 84 b9 1a 5f 15 38
       0.00014984605 -3.278368e-05 -0.0002521013 3.561294e-05
0003e0 aa c2 7b 39 eb 55 37 39 6a ae 9c 39 f1 58 f7 38
       0.00024009743 0.00017484247 0.00029884587 0.000117944444
0003f0 fe e5 1c ba f0 49 1c 38 5c 8f d2 b8 3e 83 28 3a
       -0.0005985199 3.7262158e-05 -0.00010040283 0.0006428248

state_input.bias f4 [128]
000000 37 e2 45 bd 67 c5 11 bd 02 e7 64 ba b6 dd 88 3c
       -0.04831144 -0.03558865 -0.00087319326 0.016707283
000010 e1 af 96 3b a6 94 0e 3a 2d 52 da b8 ce cc 4f 39
       0.004598603 0.00054390205 -0.000104103565 0.00019817354
000020 cc 23 05 bd 89 c9 40 bd 5c 00 46 3b ff 9d a5 bc
       -0.03250484 -0.0470672 0.0030212617 -0.02021694
000030 84 9e 85 3b ca 15 3c 3c f2 8f bc 37 f4 79 cf 3c
       0.0040777344 0.011479804 2.2478376e-05 0.025326706
000040 d0 9f 16 bc 42 e6 f0 bc 27 23 88 3a 9f b6 49 bd
       -0.009193376 -0.02940667 0.0010386453 -0.049246427
000050 df da 2f bb a0 fc 8f b7 b2 18 d0 3a c4 43 e2 37
       -0.0026833338 -1.7164566e-05 0.00158765 2.6972855e-05
000060 98 0b 43 bd 2c 24 95 38 50 57 50 3c 2b 5d b4 3a
       -0.04761848 7.111611e-05 0.012716129 0.0013760676
000070 68 d1 8b 3c 3e c8 96 bc 9c 52 37 3d dd cb 65 3a
       0.017067626 -0.01840603 0.044756517 0.0008766035
000080 08 73 87 3c 46 79 8a bc 2e 6c 26 bd 22 7e 22 bd
       0.016534343 -0.01690353 -0.040630512 -0.03967107
000090 f3 c0 21 3d 05 b5 e2 b8 5b c9 20 bb 34 04 91 3c
       0.03949065 -0.00010810237 -0.002453408 0.0177022
0000a0 60 40 d3 3c dd d6 80 b9 62 58 4a 3d bd 02 95 39
       0.025787532 -0.00024574148 0.049400695 0.00028421535
0000b0 e9 3b c4 3c d3 d5 fa bc a6 a8 87 3a 54 e9 c8 ba
       0.023954349 -0.030619537 0.0010349944 -0.0015328326
0000c0 21 d5 e7 3c 80 36 24 37 d4 63 ac 3a 53 57 18 3d
       0.02829987 9.787851e-06 0.001315231 0.037192654
0000d0 ae f5 52 3b 0e 76 24 bd 4c f1 02 bd 3b 5b c8 bc
       0.0032189894 -0.04015165 -0.0319684 -0.024457565
0000e0 37 19 79 b9 05 cf e6 3b 72 5d 49 b9 f3 f5 da bb
       -0.00023755884 0.0070437216 -0.00019203665 -0.0066821515
0000f0 28 cf aa b8 83 1a e2 bc 3a 32 8a 39 4a 44 94 3c
       -8.1448175e-05 -0.027600532 0.00026358833 0.018098969
000100 72 6b b4 37 32 a4 2a 3d 06 b7 3a bd c6 5f 2d bd
       2.1507705e-05 0.041660495 -0.0455847 -0.042327665
000110 08 c1 be 3c 26 8a 25 bd ed 99 f4 bb af 43 a9 bc
       0.023285404 -0.04041495 -0.0074646384 -0.020662157
000120 2c 3c 30 3d 4c 0b d4 bc 1f 7a 34 bd 1a 5f 9a bc
       0.043026134 -0.025884293 -0.044061776 -0.018844176
000130 68 ff 28 b7 f0 ed 2d b9 b4 06 98 3a de 6b b8 b9
       -1.0073047e-05 -0.00016587204 0.0011598677 -0.00035175582
000140 53 b7 a0 bc 8b b6 c7 ba 11 e3 44 b9 d1 ac 28 3a
       -0.019618666 -0.0015236897 -0.00018776605 0.0006434443
000150 bb 53 94 3a e0 32 36 3a 3c 77 90 bb 83 0e 2e bd
       0.0011316458 0.000695033 -0.004408745 -0.04249431
000160 ab 77 b0 3c 04 b2 10 3d 55 dd 26 bd 69 a0 ec 3c
       0.021541437 0.03532602 -0.040738422 0.028885083
000170 ac 5c 70 b9 fd 04 f8 bb 38 c3 cc b8 71 7b 06 39
       -0.00022922707 -0.007568954 -9.76384e-05 0.00012825221
000180 f1 97 2d bd ea d5 12 ba c3 6c 87 39 44 2a 29 3d
       -0.04238123 -0.00056013337 0.0002583024 0.041300073
000190 28 ca e1 b9 6b eb 2d bc 7c 19 89 b9 af 5b 91 3c
       -0.00043065962 -0.01061521 -0.00026149664 0.017743913
0001a0 91 dd 12 3c 37 fc 27 39 27 6b d2 ba 56 05 47 3d
       0.008963958 0.00016020318 -0.0016053662 0.048589073
0001b0 80 84 a3 ba b5 c8 00 bc a4 7b 16 b6 22 63 90 ba
       -0.0012475401 -0.007860352 -2.242371e-06 -0.0011015872
0001c0 df 23 d1 3c 3a 52 8f bb b0 d6 01 3d 8e 54 f0 3b
       0.0255298 -0.004373816 0.031698883 0.0073342985
0001d0 16 ef 68 3c 96 ff a7 b9 8d ff d7 bc 74 7a 85 b8
       0.014217159 -0.00032043149 -0.026366973 -6.364743e-05
0001e0 84 c7 f3 3b c8 9d 71 bc 2a f7 8c bc e3 ec b8 bb
       0.0074395556 -0.014747091 -0.0172077 -0.0056434735
0001f0 b0 67 02 3d 6e 4b 1f bd 59 95 c4 bc d6 d2 35 3a
       0.031837165 -0.038890295 -0.023996996 0.0006936019

action_input.weight f4 [128, 7]
000000 b4 58 57 bd bc 08 0d bd 6b dd 8e bc ba ee e2 3c
       -0.05257483 -0.034432158 -0.017439565 0.027701724
000010 6e 43 2f bc be 6b 9d bc 2c b0 0d bd d0 03 5d bd
       -0.010697229 -0.019216415 -0.03459184 -0.053958714
000020 b6 a6 07 bd 1d 2e 18 bc 8f db 08 3d 29 ad 3b bc
       -0.033117972 -0.009288338 0.033412512 -0.011454859
000030 45 41 08 3c c4 5d 6c bc c1 92 22 bb 7a 83 5e bc
       0.008316343 -0.014426652 -0.002480671 -0.013581151
000040 91 7d 2f bc f7 95 bd 3c d5 47 37 3b 7e e4 91 ba
       -0.01071109 0.023142798 0.00279664 -0.0011130718
000050 19 b4 a9 3b ed 2d 21 bd 4e d0 15 bd 31 be c5 bc
       0.00517894 -0.03935044 -0.036575608 -0.024138542
000060 5f a7 89 3c bd 60 d8 bc f5 6f fa bc 9f 3e 0f bd
       0.016803442 -0.026413316 -0.030570963 -0.03497183
000070 6a d9 5f 3d 2e 19 04 3d 98 d6 e4 3c 30 f5 f6 bc
       0.0546507 0.032250576 0.027934358 -0.030146211
000080 f4 14 96 3c 43 8e 5a 3c 25 68 ed 3c 67 49 34 bc
       0.018320538 0.013339582 0.028980324 -0.011003829
000090 db eb 9a 3c b8 1f 1f 3b 68 01 30 3c cb f3 aa bc
       0.018911293 0.002428038 0.010742523 -0.020868203
0000a0 c4 a3 ac 3c 3c 55 99 bb 7c 9f 38 3d 1f a7 af 3b
       0.021074183 -0.00467935 0.04507397 0.0053604986
0000b0 2e 9e da 3c b2 53 0e bd d1 27 2d ba 0c e3 48 3c
       0.026686754 -0.034747787 -0.00066053594 0.012261163
0000c0 72 91 be 3c 4b ac 47 3d 7c e0 11 3d f1 b4 4e 3c
       0.023262713 0.048748296 0.035614476 0.012616382
0000d0 f9 d8 8a bc 2a ff a0 3c 3d e3 cf 3b d1 83 21 3d
       -0.016949164 0.019652922 0.0063442276 0.03943235
0000e0 8f 31 60 3d 27 82 ac 3c 77 a6 19 3c cb 4a ea bc
       0.054734763 0.021058155 0.009378067 -0.028600117
0000f0 6c 92 ef 3b e6 bd 84 3c cc fa ea 3c b6 a3 05 bd
       0.007311156 0.016203832 0.028684042 -0.03262683
000100 e8 cf a2 3b a6 34 e1 3b 60 2d e8 3c 7f a5 9c 3c
       0.004968632 0.0068727313 0.028341949 0.019121883
000110 c4 aa e8 bc e0 1d 0a bc 42 c1 5c bd 27 b9 64 bc
       -0.02840174 -0.008429974 -0.053895243 -0.013960159
000120 12 1c 49 bc 4a 71 21 3d 06 f7 7a bc 43 b3 ff bb
       -0.012274759 0.03941468 -0.015317684 -0.007803352
000130 f6 7a 2b bd 07 d7 54 3d 32 89 86 3c 9c 00 67 3b
       -0.04186531 0.05196288 0.016422842 0.0035248166
000140 dc 30 3b bd b5 e2 72 3c f4 10 1a 3c 17 8f 0e 3d
       -0.045700893 0.014824559 0.009403456 0.03480443
000150 38 f1 08 3d 91 97 51 3d 76 20 03 3d 7b ac ec bc
       0.03343317 0.051169936 0.03201338 -0.028890839
000160 f4 aa e4 3c 75 79 93 3c 3e 56 11 3d 88 fb 4e bd
       0.027913548 0.018002251 0.035482638 -0.050532848
000170 e1 57 c7 bc 1b 64 88 bc db db e5 3c fb 20 b0 bc
       -0.024333896 -0.016649297 0.028058937 -0.021500101
000180 9f e6 c3 bb b8 43 c6 bc 36 c3 57 bd 67 a5 22 bd
       -0.00597842 -0.024202213 -0.052676402 -0.03970852
000190 3a 4c 08 bd 22 54 14 3d 2b c6 1c bc 98 73 b0 bb
       -0.03327582 0.036213048 -0.009568731 -0.0053848736
0001a0 5c d1 08 bd 8c df fd 3c 2b 2a 19 3c 98 e1 04 3c
       -0.033402786 0.030990385 0.0093484325 0.008110426
0001b0 41 04 5e bc 09 e3 38 3c d9 c1 9f 3b 84 25 43 3b
       -0.013550819 0.011284598 0.0048754034 0.0029777
0001c0 2e 27 34 3d c0 62 8b 3c 59 6e 76 3c fa cc b0 bc
       0.043982677 0.017014861 0.015040957 -0.021582115
0001d0 fb 22 40 bb db 54 a6 ba f4 d0 b2 3c 7f 04 69 3d
       -0.0029317725 -0.0012690084 0.021828152 0.056889053
0001e0 e4 4a 42 3d 75 bf 86 3c b1 3e ab bc 9e 26 e0 3a
       0.047434703 0.016448716 -0.020903917 0.0017101353
0001f0 9a 94 db 3a a0 85 be 3c ac d3 59 3d 55 f5 4b 3d
       0.0016752661 0.023257077 0.05318038 0.049794514
000200 99 3d 20 3d 83 0f 09 bd 66 5f 1c 3d ad ea 89 bb
       0.039121244 -0.03346206 0.038176917 -0.0042088837
000210 90 4d 2c 3d ae d4 fa 39 16 39 12 bb c8 d1 ad 3c
       0.042066157 0.00047842175 -0.0022311858 0.021218196
000220 87 98 d7 3b 0d 1f 94 bb 3e 5a 9b 3b c2 d9 8f 3c
       0.006579462 -0.004520303 0.0047409823 0.01755989
000230 5e 42 8c bc 1d a3 c5 3b 24 e3 19 bc df 71 11 3b
       -0.01712149 0.0060314075 -0.009392533 0.0022193117
000240 c2 1c e8 ba ba 51 6e bc 5d bd c8 bc 3f 87 de bc
       -0.0017708766 -0.014545852 -0.024504358 -0.0271641
000250 55 3f 17 bd 2a b3 ca bc f5 c7 62 3c 8b d2 13 bc
       -0.036925633 -0.024743635 0.013841619 -0.009022365
000260 44 8c 3b bc 4c 95 0a bb cc e1 77 bc c2 5f 65 bc
       -0.011447016 -0.0021146117 -0.015129518 -0.013999881
000270 a2 bf 95 bb c9 af 53 bc 55 40 43 bc 92 2d a4 bc
       -0.0045699636 -0.012920328 -0.011917193 -0.02004126
000280 e9 b4 03 bb ff 5c 26 3d ce 77 72 bc 52 60 b8 bb
       -0.0020096845 0.04061603 -0.0147990715 -0.0056267167
000290 39 30 c8 bb 60 0b dd bb d7 b6 f3 3c 3d a7 2b 3c
       -0.006109264 -0.006745741 0.02975027 0.010476884
0002a0 6f d3 b5 3c 92 87 7a 3a 50 68 74 3c 0d fa 48 bd
       0.022195546 0.0009556945 0.014917448 -0.049066592
0002b0 33 26 43 3b 70 b0 61 3c a2 0d 1c 3d 83 1a c8 bc
       0.0029777407 0.013774976 0.03809894 -0.024426704
0002c0 d5 e1 b5 bc 8d e1 57 bc e6 92 ac 3c d2 fd a4 bc
       -0.022202412 -0.013176334 0.02106614 -0.020140562
0002d0 cb ba cb bb 2c bd b1 bc e2 b3 4f 3d 5f f0 05 3d
       -0.006217336 -0.02169665 0.05070866 0.03269994
0002e0 1d 1b 84 3c 24 e7 dc bb 67 e0 b0 3b e2 5f cf 3c
       0.01612621 -0.0067414213 0.0053978446 0.025314275
0002f0 b9 e2 a7 3c 56 08 77 3d c5 ef fc 3c 31 f8 d3 3c
       0.020493852 0.060310684 0.03087605 0.025875183
000300 dc e1 29 bd 29 b9 fe 3c c0 7b 4f 3c 3c 1e ac 3c
       -0.041475162 0.03109415 0.012663782 0.02101051
000310 06 d8 01 3d 96 cc 89 3c 01 ca 02 3d a9 57 3c bd
       0.031700157 0.016821187 0.031930927 -0.045982037
000320 d2 c8 e7 3b 48 16 dc bb 0f d4 bc 3c 3b 46 39 bd
       0.0070735 -0.0067165233 0.023050336 -0.045232993
000330 ea 6d 59 bd 6b 2a fa bc 43 0d ae 3c 67 2f ac bc
       -0.053083338 -0.030537805 0.021246558 -0.021018697
000340 4a 48 2d bd c7 23 2d bd 9b be 3f bd 63 0b 9b bc
       -0.04230527 -0.042270448 -0.046812635 -0.018926328
000350 e7 8d f5 3a 01 02 64 3c 96 72 c9 3c e2 27 35 bc
       0.0018734307 0.013916493 0.024590772 -0.011056872
000360 e9 f9 2e bd be 55 62 3d 59 2d 67 3d 36 3d d9 3c
       -0.0427188 0.05525755 0.05643973 0.026518445
000370 10 b2 27 bd 0e 76 f8 3c 06 46 98 ba 56 61 0d 3d
       -0.040941298 0.03032973 -0.0011617548 0.034516655
000380 e7 7c 93 bc a1 bf 97 bc b6 cf cb bc ab 09 af 3c
       -0.018003894 -0.018523993 -0.024879318 0.021366915
000390 e4 e8 42 3b a9 01 74 bc 36 ab b7 bb 5d de 45 bd
       0.0029740864 -0.014892974 -0.0056051267 -0.048307765
0003a0 10 28 08 bd a0 dc 0c bd 21 15 64 3c 7f 3b 85 bc
       -0.03324133 -0.034390092 0.013921053 -0.016263722
0003b0 0e 7b a4 bb 9c d5 68 bd fc 36 30 bd be ba f1 bc
       -0.005019552 -0.05684434 -0.043021187 -0.02950799
0003c0 dc c2 3e bd 41 d8 f7 3c 58 a2 ca bc 53 65 0d bc
       -0.04657255 0.030254485 -0.024735615 -0.008630115
0003d0 26 7b 0b bd 59 c9 19 3d 9f a2 cd 3c 72 76 34 3c
       -0.03405299 0.037545536 0.025101958 0.011014568
0003e0 88 9f 68 bc 1c 61 4b bb f9 3c 97 bb ae 15 b5 3b
       -0.014198191 -0.0031033223 -0.004615423 0.005526266
0003f0 65 ac a3 3d 41 9f 07 3d 7b 5e b4 3b b4 e8 06 bd
       0.07991866 0.03311086 0.005504427 -0.032936767

action_input.bias f4 [128]
000000 db 4b 70 3c 28 b8 b4 3c 8b 9e a4 3d 1b 45 3a bc
       0.014666523 0.022060469 0.08038052 -0.011369015
000010 8a 67 d9 3b 34 5d 0f bd 47 1f af bd 93 d5 33 bd
       0.0066346573 -0.035000995 -0.085508876 -0.043904852
000020 5e cd 32 3d 14 b7 3e bd 46 16 80 3d f4 d8 33 bc
       0.043652885 -0.046561316 0.06254248 -0.010977019
000030 8b 0d 8c 3d 2a 05 9c 3d f2 6f 88 bd 2a 6f 4b 3d
       0.068385206 0.076181725 -0.06661977 0.04966656
000040 a1 a7 a4 bd e0 7a 86 3d 18 2b 10 bd b9 96 c1 bd
       -0.08039785 0.06566405 -0.035197347 -0.09452576
000050 7a 01 5a bd ac ea 73 bd 3a 01 e0 bc 90 53 01 3d
       -0.053224064 -0.059549972 -0.027344335 0.031573832
000060 0e 82 ae bb 53 9c 40 3d 56 15 ae bd 91 6b 51 3d
       -0.0053255623 0.047024082 -0.08500163 0.051127974
000070 7e a8 6c bd 3c 6d ec bc cf b0 bd bd 71 c1 53 3d
       -0.057777874 -0.02886068 -0.09262239 0.051698152
000080 1e 02 6d 3d e6 d7 d4 bd 8d a1 20 bd b5 0d d7 bd
       0.057863347 -0.10392742 -0.039216567 -0.10500661
000090 9b ee 66 bc 61 1d 8f 3c 93 3a b4 3d 1d f4 ce bc
       -0.014094974 0.017470064 0.08800235 -0.025262887
0000a0 f2 e1 e2 ba c2 37 ba bc e0 5c b0 bb 8d f2 8d 3d
       -0.0017309769 -0.022731666 -0.0053821653 0.069310285
0000b0 cc 0d 87 3d 7f e5 86 bc 4e 40 b7 bd cd 09 9c bd
       0.065944284 -0.016466854 -0.08947812 -0.07619057
0000c0 be 58 d9 bc d7 87 80 bd 38 55 87 3d 34 7a 91 3d
       -0.026531573 -0.062759094 0.06608051 0.071033865
0000d0 03 7d 0f bb 33 55 a0 bc 91 1b 2c bd 2c 70 e7 3c
       -0.002189458 -0.019571876 -0.042018477 0.02825173
0000e0 fe 8c 3f bd 8c ec 44 3d 36 64 c6 3d bd 01 96 bd
       -0.04676532 0.04807715 0.096870825 -0.0732455
0000f0 d2 39 ab 3a 38 65 b2 3b 9e 4e 70 3d 90 0f 93 bd
       0.0013063496 0.005444195 0.058668725 -0.07180703
000100 e8 f7 29 3d cf 3d 80 bd 31 a3 05 3d ce d9 4e bd
       0.041496187 -0.06261789 0.032626335 -0.050500683
000110 7f 68 85 3d ee 20 a7 3c 5d 35 46 bd 6e ad 41 bd
       0.06514072 0.020401444 -0.048390735 -0.047284536
000120 bb c6 ac bd af a9 df bd d8 5e c2 3c 96 0b 0e 3d
       -0.08436342 -0.109210365 0.023726866 0.034679018
000130 d1 a7 3f bd 6a 2d 81 bd 20 ea a6 3d 4a 56 16 bd
       -0.0467909 -0.0630749 0.081501245 -0.036703385
000140 c0 5a 66 3d fa f7 3c 3a 5e e5 62 bd 44 8c 76 bd
       0.05623889 0.0007208582 -0.055394523 -0.06019236
000150 99 6b 86 bd f1 7f 93 3d bd 16 35 3d ef 07 3a bd
       -0.065634914 0.07202137 0.044211138 -0.045417722
000160 10 49 c4 bd 0b 51 fa 3b 09 74 2f 3b bb d5 fd bc
       -0.09584248 0.0076390556 0.0026772043 -0.030985704
000170 2d f4 80 3b 35 d3 80 3c 2f af ac 3d 0b a9 9f 3b
       0.003935358 0.015725711 0.08431851 0.0048724464
000180 33 55 6d bd cb b8 88 bc 6d bf 9d 3d 96 ba b4 3d
       -0.05794258 -0.016689679 0.07702527 0.08824651
000190 5d 33 08 3d e8 a0 0c bd 9b 3c fe bb d7 90 9b 3c
       0.03325211 -0.03433314 -0.0077586896 0.018989963
0001a0 04 fb 69 bd 75 42 32 bb bd d8 34 bd b4 0f 8c 3d
       -0.057124153 -0.0027200256 -0.04415201 0.06838933
0001b0 d9 09 68 3c ca 7b f1 3b 60 6f 7d bc 0d f6 96 3d
       0.014162504 0.007369493 -0.015468448 0.07371149
0001c0 aa 9c a3 3d 01 ca 6d bc 2b df d1 bc 0d 1c a4 bd
       0.07988866 -0.0145134935 -0.02561911 -0.08013163
0001d0 d7 ec 8b 3c 09 2c 8b 3d 0b 14 07 bd 16 29 c4 bd
       0.017080707 0.067955084 -0.0329781 -0.09578149
0001e0 60 ae b4 3d 3d 9a 72 bd d0 b0 00 bc 3f cc 81 bc
       0.08822322 -0.059229124 -0.007854655 -0.015844462
0001f0 46 2d 47 3d 76 36 3f bd 2a 5e 9c 3d b4 9b 37 bd
       0.04862716 -0.046682797 0.07635148 -0.044826224

layers.0.weight f4 [256, 256]
000000 a0 11 a2 bb af ce dc 3b 09 d8 57 3c 40 0e 9e bc
       -0.0049459487 0.006738506 0.013174065 -0.019293904
000010 6a c8 0b bd 50 3d ef b7 a4 04 6b bc 7d 9a 8f 3c
       -0.034126677 -2.8519571e-05 -0.014344368 0.01752972
000020 12 78 c7 3b 2a 56 7f 3b 4e 25 20 bc 9b cc 67 bc
       0.0060873115 0.003896127 -0.009774519 -0.014147903
000030 b2 1a 81 bc f5 15 0b bc 65 22 6e bc 62 3a 5d 3c
       -0.0157598 -0.008489122 -0.0145345675 0.013502689
000040 82 fe c3 38 a7 86 d3 3c 16 6a ca bc 9e 06 cf 3c
       9.34573e-05 0.025821043 -0.024708789 0.02527171
000050 93 fb 63 bc f4 ab e9 bc 5b f1 17 3c ed 9b 30 3b
       -0.01391496 -0.028524376 0.009273852 0.0026948408
000060 9c 27 a4 bc 46 ae a7 3c db 52 df bb ee 41 d7 bb
       -0.020038418 0.020468842 -0.006815297 -0.0065691387
000070 f9 74 aa 3c 4a 3e a3 3c 2c d8 7b 3c 1e 3e 42 bc
       0.02080773 0.019927163 0.015371364 -0.01185563
000080 91 2d 21 ba 16 9a b4 3a 89 8c cc bc 81 f2 8b bb
       -0.00061484525 0.0013778831 -0.024969356 -0.004270852
000090 8d d2 36 bb f4 87 8e 3c 3e 53 a6 3b 54 0a de ba
       -0.0027896494 0.017398812 0.005075841 -0.0016940334
0000a0 ed 9e 62 bb 91 09 b7 bb 96 1d cd bc 95 db 09 bc
       -0.003457959 -0.005585857 -0.025038522 -0.008414169
0000b0 30 7e 2c 3c ac f9 0c bc a8 57 47 3a 2a 30 a4 3c
       0.010528132 -0.008604448 0.00076043094 0.020042498
0000c0 5e 62 aa 3b 20 3c 23 ba c3 d0 af bb 01 90 08 3c
       0.0051997146 -0.0006226916 -0.0053654625 0.008335114
0000d0 3b f4 37 bc 9b 78 7e 3c 36 a6 ca 3c c6 85 7f 3b
       -0.011227663 0.015531684 0.024737459 0.0038989647
0000e0 0b e3 3c 3c 73 58 c2 bb 5f e9 b5 3c 70 e6 16 3c
       0.011528741 -0.005930954 0.022206007 0.009210214
0000f0 31 66 ad bc 13 5c 06 3a 19 7e 0e 3d 70 aa cd bc
       -0.021166893 0.00051254145 0.034788225 -0.025105685
000100 c6 8c ca 3b 59 88 4e 3c 24 74 d1 39 a2 41 d2 ba
       0.0061813323 0.01260575 0.00039950118 -0.0016041289
000110 ad 9d 51 3c b2 7d 4b bc 45 da 1b bc 84 ff 33 bc
       0.0127939405 -0.012420105 -0.009512489 -0.010986213
000120 db d1 b1 bb d6 a9 0d 3c 2e fa 30 3c 4a 79 b5 bb
       -0.005426628 0.008646449 0.010801835 -0.0055381404
000130 c4 23 cc bc c6 5b 4d bc 75 3d 0e 3c 15 a0 a9 3b
       -0.024919398 -0.0125340875 0.008681645 0.005176554
000140 b5 c8 26 bc 74 c9 50 3c ba fb a9 3a 1b 8a 36 bc
       -0.010179688 0.012743343 0.0012968697 -0.011141325
000150 32 14 d9 bc 64 fc 80 bb 9c 52 6b bb 12 fe 4d 3b
       -0.026498888 -0.0039363373 -0.0035907393 0.0031431955
000160 83 db 24 3c 22 cc 2a 3c be 07 a2 bc 14 8d f1 3b
       0.010062101 0.010424646 -0.019779082 0.007371554
000170 98 6f 8c 3b d2 9c 0d 3c 9a de cb ba c0 f1 a4 39
       0.004285764 0.008643346 -0.0015554011 0.00031460635
000180 43 69 66 3b a4 e7 b7 3a 01 1c 77 3c 69 b1 e8 bb
       0.0035157956 0.0014030826 0.01508236 -0.007101227
000190 27 ea ec b9 32 a9 bd 3c 15 85 4a bc f6 5a 47 bb
       -0.00045187885 0.023151968 -0.012360831 -0.0030419207
0001a0 64 24 46 ba 2d 72 a3 39 c7 c9 c6 bb 00 83 a9 3b
       -0.0007558523 0.0003117485 -0.006066534 0.005173087
0001b0 aa ea 38 bb 27 8f 84 bc 5a 82 1c 3b 11 d5 96 3b
       -0.0028216043 -0.016181542 0.0023881407 0.004603036
0001c0 fc 6e 10 bc 6d d5 18 3c 73 8d 11 3c 31 86 62 3b
       -0.008815523 0.009328228 0.008883822 0.0034564848
0001d0 a4 b0 b2 bb a1 fc b3 bc 2c 09 80 bb 88 a8 ef ba
       -0.005453186 -0.021971049 -0.0039073434 -0.0018284479
0001e0 3f ff ce 3a b8 a3 63 bc 74 e2 e9 3b 95 f0 a3 bc
       0.0015792622 -0.013894014 0.007137591 -0.02001218
0001f0 9b ff 14 bc e3 ff d2 3b e8 c1 43 3b ba 58 37 bc
       -0.009094144 0.0064391955 0.0029870216 -0.011190588
000200 6d 3d 34 3c d9 20 b2 3c 70 10 b9 bc 07 c9 7a 3c
       0.011000973 0.021744179 -0.022590846 0.015306718
000210 d6 ec f8 bc b8 8b f8 3b 4a 39 fb 3c c6 a6 4f bc
       -0.03038637 0.007585015 0.030666966 -0.012674039
000220 d6 f5 d6 bc ff 67 f5 38 a3 2e 84 3b d4 d3 98 bc
       -0.02624027 0.00011701881 0.00403388 -0.018655695
000230 fa 56 fd bc f7 c1 d0 3b 0b 41 8a 3c 34 30 19 bb
       -0.030925263 0.0063707787 0.016876718 -0.0023374679
000240 48 32 38 3c 80 5c 0c bd 7c 35 29 bc b8 07 59 3c
       0.011242457 -0.034267902 -0.010327693 0.013246469
000250 0c 19 34 ba 51 ab 23 3c fe f3 75 3c dd 15 84 bc
       -0.00068701874 0.0099895755 0.015011786 -0.016123706
000260 51 ed 2c 3c 68 3d 05 3c cf 72 3d 3c a8 be f7 ba
       0.0105546275 0.008132316 0.011563017 -0.0018901424
000270 cc 4b 5c 3c ed c2 5a 3c 4d 12 48 3b e4 1f cb bc
       0.013445806 0.013352138 0.0030528486 -0.02479548
000280 12 ed 29 bc ad 2d 91 3b 26 9d e2 3b 62 fd 85 3b
       -0.010371463 0.004430494 0.006915706 0.0040890435
000290 2e a6 07 bd 84 d1 85 bb 3e 91 d2 bb 3d 3e 8d 3c
       -0.033117466 -0.004083814 -0.0064260056 0.017241592
0002a0 a8 ea af bc 8e c3 90 bc 6b 9d 62 bc da c7 05 3c
       -0.021474198 -0.017671373 -0.013831477 0.008165324
0002b0 ad 90 b5 bc b9 3c a9 bc 51 a8 7c 3b cc 30 d9 3c
       -0.022163713 -0.020658838 0.0038552473 0.026512526
0002c0 19 d9 f7 3c e1 87 a5 ba 89 98 ac bc 0b 12 88 bc
       0.030254887 -0.0012628996 -0.021068828 -0.016610166
0002d0 20 a1 2d bc 5a 26 9b bc ad 96 f6 3b 7e 78 bd bc
       -0.010597497 -0.018939186 0.007525286 -0.023128744
0002e0 05 3d e1 3c f2 11 97 3b 62 48 63 bc e4 86 90 3a
       0.027494917 0.0046102935 -0.013872238 0.0011026529
0002f0 2b 5d 97 3b d4 62 60 bc ff f0 53 bc e7 c2 33 3c
       0.004619261 -0.013695437 -0.012935876 0.010971761
000300 c9 9f 07 bd 8a a1 8d bc 5a b0 d1 bc 93 28 9e 3b
       -0.033111367 -0.017288942 -0.025596786 0.004826614
000310 19 d1 80 bc 26 fb 0f bd 6d 8e 9d 3c 46 91 fe bb
       -0.015724706 -0.035151623 0.019232953 -0.007768783
000320 cf 18 9d 3c 11 7d bb 3c e2 2f 07 38 4b e1 82 3c
       0.019176869 0.022886785 3.2231103e-05 0.015976569
000330 a0 9f a6 bc 20 1a 8f 3c a2 e0 bf bc 04 db c2 3c
       -0.020339787 0.017468512 -0.023422543 0.023786075
000340 a0 59 33 bc b9 e3 f1 3b 22 d1 c3 3c a9 99 0a bc
       -0.010946661 0.007381883 0.023903433 -0.008459487
000350 31 9f 70 bc 7e 93 76 3c 81 f3 bf 3a a3 ea aa bb
       -0.014686392 0.015049813 0.0014644713 -0.005215959
000360 2c 35 41 3c 43 c3 b9 3c 9f 29 a5 bc 91 6d 01 bd
       0.011792462 0.022676116 -0.020161448 -0.03159863
000370 d6 34 3f 3d b2 6d 0a 3b 11 d4 24 bb 0c 47 c8 bc
       0.046681248 0.0021122512 -0.0025150815 -0.02444794
000380 c0 d4 05 ba 14 c2 7b bc c3 bf 7a ba c2 db 42 bc
       -0.00051052496 -0.015366096 -0.0009565318 -0.011893215
000390 e5 84 07 3b c6 d7 9a 3c 5b 4a 1a bc 22 0e 9f bb
       0.0020678577 0.018901717 -0.009417142 -0.0048539797
0003a0 5d f8 36 bb 5b c3 36 bc 4d c6 0b 3c 82 41 58 bc
       -0.0027919032 -0.011154975 0.008531165 -0.013199212
0003b0 30 5f 18 3c 60 47 13 bd 34 39 53 3a b9 6b 3b bc
       0.009300038 -0.03595674 0.0008057535 -0.011439257
0003c0 07 9b 97 bc d8 9c bb 3c ab 67 a2 3c 3e b2 d6 3c
       -0.01850654 0.022901937 0.019824823 0.02620804
0003d0 3a 51 b1 3b d5 62 cd bc 7d 42 b2 bc a2 1c 99 3b
       0.0054112943 -0.02507154 -0.02176022 0.0046726028
0003e0 12 67 6c ba 4d d8 09 3b 5f 90 98 3c 93 9f bf 3c
       -0.0009018044 0.0021033466 0.018623529 0.02339152
0003f0 b7 f2 80 3b ec 94 8d 3c 9b f8 03 bd 64 85 b4 3c
       0.003935184 0.017282926 -0.03221951 0.022036262

layers.0.bias f4 [256]
000000 de 22 83 3d 25 d4 b1 3d d9 ff b6 3d 6c 78 e7 bc
       0.06403135 0.086830415 0.08935518 -0.028255664
000010 6e 7e 4c bc 93 5d 86 bd 54 b7 2c bd be 26 7d bd
       -0.012481315 -0.065608166 -0.042167023 -0.061804526
000020 ee 0e 68 3d 57 59 0f 3d 85 02 47 3d 28 a6 88 bd
       0.056654863 0.03499731 0.048586387 -0.06672317
000030 22 a5 24 3d f1 de 6f 3d 5a 55 91 bd 41 c1 50 bd
       0.040196545 0.058562223 -0.07096358 -0.05096555
000040 83 b4 9b bd 32 69 39 3d ca c9 4c 3d 25 46 e5 bc
       -0.07602789 0.045266338 0.04999713 -0.02798755
000050 a4 75 85 3d 8a a2 8a 3d 91 84 02 bd 95 2e 99 bd
       0.06516579 0.06769283 -0.031864706 -0.07479588
000060 e4 e4 0a 3d 93 c8 74 bd 39 0e b7 bd e0 0d 46 bd
       0.033909693 -0.059761595 -0.0893826 -0.048353076
000070 75 ca 89 3c 82 28 b5 bd 86 95 b1 bc 1e 07 62 3d
       0.016820172 -0.08845617 -0.021677744 0.05518257
000080 7a 22 f7 3b 5f dc bc 3d ee 7e 80 bd f8 f2 94 bd
       0.0075419517 0.0922172 -0.0627421 -0.07272905
000090 0c 60 a1 3d f3 0d 53 bd 05 ac a8 bd b1 16 17 3d
       0.078796476 -0.051526975 -0.08235935 0.036886875
0000a0 e2 78 a8 bd 5f 62 af bd 39 a5 f8 3b d4 59 23 3d
       -0.082261816 -0.08563685 0.0075880555 0.03988059
0000b0 77 c5 84 3d ac 7e b6 3d 9a 61 bf 3d d5 9d 9d 3c
       0.06482976 0.089108795 0.09344788 0.0192403
0000c0 09 ca 8b bd 34 f3 99 3d 63 b7 fe bb 14 cf 34 3d
       -0.068256445 0.075170904 -0.0077733262 0.044142798
0000d0 8e 34 39 3d 24 04 96 3b bc 59 b9 bd 9c 29 22 3d
       0.045216136 0.0045781303 -0.090503186 0.039590463
0000e0 b5 c4 6e 3d d0 79 82 bd a5 78 d0 3d 9d af 3f bd
       0.058293063 -0.0637089 0.10179261 -0.046798337
0000f0 7c ae 97 bd 56 7e 17 bd 79 71 3b bd 28 e3 1b 3d
       -0.07406327 -0.036985718 -0.045762513 0.03805843
000100 ce 7a b2 3d 9e 8c 42 bd 7b 4f aa 3d 51 d4 23 3d
       0.087148294 -0.047497384 0.08315941 0.039997403
000110 34 b5 8a 3d 73 64 b2 3d 4e 11 a3 3d cd d5 b0 3d
       0.06772843 0.087105654 0.07962285 0.08634529
000120 4e bc 4f bc a6 80 86 bd f1 8c 1b 3d ed 40 42 3d
       -0.012679173 -0.065675065 0.03797621 0.0474252
000130 e7 49 85 3d 8a fe 14 bd 74 5c 6b 3d ee 40 31 bd
       0.065082364 -0.03637556 0.057461217 -0.043274812
000140 33 c1 d8 bd 42 18 ae bd 62 d7 a9 bd b0 66 93 3d
       -0.10583725 -0.085007206 -0.08293034 0.071973205
000150 79 42 c1 3d 52 b0 9d 3d c5 09 21 3d f8 e1 7c bd
       0.09436507 0.07699646 0.039315958 -0.061738938
000160 7c 8d 8b 3d ec a8 05 bd 6c c3 8e 3a 12 54 35 bd
       0.068140954 -0.0326318 0.001089198 -0.04426963
000170 e9 94 de 3c ff d4 0e 3d fd d0 4d bd b5 65 d3 bc
       0.027170615 0.034871098 -0.050248135 -0.025805334
000180 c9 96 c7 bd 05 22 78 bc b9 f2 ad 3d 22 62 b7 3d
       -0.09745557 -0.01514483 0.08493561 0.08954264
000190 43 80 30 bd 8c 63 72 3b 8e d6 a3 3b c3 9f 74 bd
       -0.04309107 0.0036985604 0.004999942 -0.059722673
0001a0 98 a2 d5 bd 9b 74 34 bd 73 01 04 3d 61 42 cf 3d
       -0.10431403 -0.044056516 0.032227945 0.10120083
0001b0 d8 15 10 3d 21 4e b0 bd 04 a1 96 3c 5f 08 dd bc
       0.03517708 -0.08608652 0.018387325 -0.02698153
0001c0 f7 c2 0e bd c5 97 bb bd 5f 8f a0 3d 5e f1 34 bd
       -0.0348539 -0.09159807 0.07839846 -0.0441755
0001d0 64 bb 96 bd ad b6 de 3c 9f e5 13 3d b7 2d 29 3c
       -0.07359961 0.027186716 0.036107656 0.010325841
0001e0 79 35 b4 3c 29 d4 cb bd bd b7 8b 3d 42 2f ab 3d
       0.021998154 -0.09952576 0.06822155 0.08358623
0001f0 b8 3b db 3c 1b 00 17 3c 13 e6 1c bd 1a 62 f5 3c
       0.026761875 0.009216334 -0.038305353 0.029954005
000200 cc af 8d bd af 22 56 bd bc b0 38 3d eb 13 d9 bb
       -0.06918296 -0.05227917 0.045090422 -0.006624689
000210 92 7a da bd 8d 2d 0d 3c bf 45 c0 3d ce bb 44 3d
       -0.1066791 0.008616817 0.09388303 0.048030667
000220 4f df 94 bd 2e fe 82 3c 45 b7 8c 3d 06 e5 39 bc
       -0.07269155 0.015990343 0.068708934 -0.011346107
000230 73 37 9a 3d a7 d5 89 3d bc b0 00 3d 2b 99 d4 3c
       0.07530107 0.06730204 0.031418547 0.025951942
000240 e2 a2 9f 3d 25 3a 6b bc 21 4f 33 3c 6a 1d 8a bb
       0.07794739 -0.014357124 0.010944159 -0.004214932
000250 33 95 2d bd 8c cc f9 bb 5b a5 99 3d e7 13 59 3d
       -0.042378616 -0.007623261 0.07502242 0.052997496
000260 95 03 95 3d 8f af 74 3d 58 ce 51 bb 28 ac 17 3d
       0.07276074 0.05973774 -0.003201386 0.037029415
000270 43 69 15 3d 38 db cf bd 3c 07 97 3b 34 6b 8a 3d
       0.03647734 -0.101492345 0.0046090167 0.067587286
000280 51 0c 8d bb 9a d4 b9 bd d2 8e 82 bd 2b a8 ab 3d
       -0.0043044467 -0.09073754 -0.06374897 0.08381685
000290 e1 68 5f bd 1b a4 97 3d 81 72 0d 3d 4f e0 6d 3c
       -0.05454338 0.074043475 0.034533028 0.014518811
0002a0 23 a0 16 bc 72 e7 bc bc 1a 9e 34 bd 6a de 8f 3d
       -0.009193453 -0.02305958 -0.04409609 0.07024844
0002b0 f4 28 16 bd cb ce 82 3b 4a a9 b3 bd af 38 b2 bd
       -0.03666015 0.003991937 -0.08772524 -0.08702218
0002c0 2a 6e c7 3d 15 34 4e 3d 6f 7f 79 3d d4 1d 01 3d
       0.09737809 0.050342638 0.060912546 0.031522587
0002d0 a1 9f 5a 3d d0 52 88 3d e8 a4 4a 3d 80 ec b9 3c
       0.05337489 0.0665642 0.049473673 0.02269578
0002e0 2a 1c 7a 3c d0 78 01 3c 33 c0 b2 bd 7c 4d ec 3b
       0.015265504 0.007902339 -0.08728065 0.0072113853
0002f0 98 8d 68 3d f6 20 5a bc 66 e1 fb 3c 99 c7 6b 3d
       0.05677566 -0.013313523 0.030747127 0.057563398
000300 7a 0c 67 bd 97 87 d2 bb 69 fc 38 3c d0 89 90 ba
       -0.056408383 -0.006424855 0.011290648 -0.00110274
000310 66 d3 a1 bd 4b d4 86 bd b9 a1 50 bd 48 eb 34 3b
       -0.07901649 -0.065834604 -0.05093548 0.002760606
000320 8c ea 56 3d be 85 47 3a cc 48 d5 3d c4 24 7f bc
       0.052469775 0.00076111767 0.104142755 -0.01557273
000330 46 be 8e 3d 31 74 b2 3d 8c f8 94 3d fa 1e 98 3c
       0.069698855 0.08713568 0.07273969 0.018569458
000340 4d 33 4e 3d 27 3f 94 3d ef 44 3c bb 94 01 88 3d
       0.050341893 0.07238608 -0.002872761 0.06640926
000350 ce d3 f1 bc e2 9e f3 bb b7 c1 8b 3d 91 20 15 3d
       -0.029519942 -0.007434712 0.068240575 0.03640801
000360 5b c6 93 3d 02 39 a6 bd 98 d6 b4 3d 9d b7 7e bc
       0.07215568 -0.08116342 0.08829993 -0.0155467065
000370 05 bc 1b bc 1c f0 b9 3c d6 38 bd 3d e1 e4 39 3d
       -0.009505277 0.0226975 0.09239356 0.04538429
000380 8c e2 3b bd c8 a5 91 3d e5 d3 3e bd 55 8d ad 3d
       -0.04587035 0.071116984 -0.046588797 0.084742226
000390 d8 74 e6 3b 2f c9 64 3d 99 aa ab 3b 5c 9e a0 bc
       0.007032972 0.055855926 0.0052388427 -0.019606762
0003a0 82 1c a8 bd 67 93 2d bd 4e a4 cf 3c 07 90 ab 3d
       -0.082085624 -0.042376902 0.025346901 0.083770804
0003b0 71 dd 4d bd 00 3e 30 3d 55 c0 93 3d 16 92 9d 3d
       -0.05026001 0.043027878 0.07214419 0.07693879
0003c0 4f 60 ba bd ea d0 9d bc f4 1c 9f bd fa 14 94 bc
       -0.09100401 -0.019264657 -0.07769194 -0.018076409
0003d0 98 54 03 3d 8d d2 c5 3d 00 16 94 3d 62 ad b7 3d
       0.032063097 0.096593 0.07230759 0.08968617
0003e0 e3 e6 51 3d 52 02 0e bd 28 4f 9d 3d 05 af 77 bd
       0.05124558 -0.03467018 0.076811135 -0.060469646
0003f0 51 9f b7 3b 53 3d b6 3c 6f dd 88 bd 14 f6 94 bb
       0.005603709 0.022246039 -0.0668286 -0.0045459364

layers.3.weight f4 [256]
000000 5e f3 7d 3f 38 72 80 3f a9 bc 80 3f 4e 10 7d 3f
       0.99199474 1.0034857 1.0057575 0.98853004
000010 20 9a 7e 3f 77 ab 80 3f 7c a5 7f 3f 76 c3 80 3f
       0.99453926 1.0052327 0.99861884 1.005965
000020 f8 fb 7b 3f d8 da 80 3f 67 fe 81 3f e4 80 82 3f
       0.9843135 1.0066786 1.0155762 1.0195584
000030 53 95 80 3f de 90 7f 3f 5b a3 7f 3f 9d c1 7e 3f
       1.004557 0.99830425 0.99858636 0.9951418
000040 6a 5a 7e 3f 0f f3 80 3f fc d2 7d 3f 2b fc 7d 3f
       0.9935671 1.0074176 0.9915006 0.992129
000050 86 cc 7e 3f 63 aa 81 3f d7 b2 81 3f 7f 4a 7b 3f
       0.9953083 1.0130123 1.0132703 0.98160547
000060 37 f4 80 3f 3d 09 80 3f 27 44 82 3f af 74 80 3f
       1.0074528 1.0002819 1.0177048 1.0035609
000070 4a b9 7e 3f 6a 7c 7f 3f d7 40 80 3f 99 3d 81 3f
       0.9950148 0.99799216 1.0019788 1.0096923
000080 53 c5 7e 3f af 82 7d 3f 8b b6 7f 3f 8a 87 7d 3f
       0.9951984 0.9902753 0.99887913 0.9903494
000090 f9 5d 7e 3f 24 95 7e 3f ae 2d 7c 3f 42 e1 7f 3f
       0.9936214 0.9944632 0.985072 0.9995309
0000a0 51 54 80 3f a0 68 7f 3f d4 23 81 3f da 76 80 3f
       1.0025731 0.9976902 1.0089059 1.0036271
0000b0 7a 14 81 3f 67 b8 80 3f 1c 4f 7f 3f 6d 1d 7d 3f
       1.0084374 1.0056275 0.99730086 0.98873025
0000c0 20 fc 7e 3f 43 1b 7f 3f 45 62 7e 3f 53 a3 80 3f
       0.9960346 0.99650973 0.993687 1.0049843
0000d0 d4 2e 7e 3f c8 0c 80 3f 03 03 7e 3f f0 3a 7d 3f
       0.99290204 1.00039 0.99223346 0.98918056
0000e0 ad 90 7f 3f 88 fd 7e 3f af b1 7f 3f 0a 7e 80 3f
       0.9983013 0.9960561 0.998805 1.0038464
0000f0 b6 1b 80 3f 19 dd 7f 3f 1f 87 7f 3f 54 bf 80 3f
       1.0008457 0.99946743 0.99815553 1.0058389
000100 11 40 7e 3f 02 88 81 3f cc 8b 7e 3f ac f1 80 3f
       0.9931651 1.0119631 0.99432063 1.0073752
000110 d0 fd 7c 3f 5b ef 7d 3f 7d 30 81 3f 17 6b 7e 3f
       0.9882479 0.9919335 1.0092922 0.99382156
000120 b7 5a 7e 3f 3f e8 81 3f f2 0c 81 3f a8 a5 7c 3f
       0.9935717 1.0149001 1.0082076 0.9869027
000130 50 68 7e 3f 4c c7 80 3f 36 a5 7f 3f 02 c7 7e 3f
       0.9937792 1.006082 0.99861467 0.9952241
000140 26 0d 81 3f a5 e9 7d 3f ae 4f 7e 3f bb e9 81 3f
       1.0082138 0.9918464 0.9934033 1.0149454
000150 f9 08 81 3f 0f 73 80 3f 8e 33 80 3f 21 90 7f 3f
       1.0080863 1.0035113 1.0015733 0.998293
000160 8c 8b 7f 3f 42 27 80 3f 30 53 7f 3f 2b 71 80 3f
       0.99822307 1.001198 0.9973631 1.0034536
000170 1b 4d 81 3f e6 8e 7e 3f 0a e9 80 3f 7a 29 81 3f
       1.0101656 0.99436796 1.0071118 1.0090783
000180 19 3d 7f 3f 0c 67 7b 3f 28 0c 7d 3f b8 fc 7d 3f
       0.997026 0.9820411 0.98846674 0.99213743
000190 c2 6c 81 3f 19 0a 81 3f 57 3a 81 3f 9e 8d 7d 3f
       1.0111315 1.0081207 1.0095929 0.99044216
0001a0 06 95 80 3f 5d ef 81 3f 7a 21 7e 3f e4 b5 80 3f
       1.0045478 1.0151173 0.9926983 1.0055509
0001b0 72 ea 7f 3f 0f ea 7f 3f ad c9 7c 3f 95 5c 80 3f
       0.9996711 0.9996652 0.9874523 1.0028254
0001c0 d3 dc 7f 3f b7 de 80 3f 29 68 80 3f 45 f4 7f 3f
       0.99946326 1.0067967 1.0031787 0.999821
0001d0 23 0b 81 3f c9 79 7c 3f ae 3f 80 3f 4e 1c 7f 3f
       1.0081524 0.9862333 1.0019433 0.99652565
0001e0 4e 08 80 3f a9 b4 7f 3f 84 e9 81 3f 4e 86 7f 3f
       1.0002534 0.9988504 1.0149388 0.9981431
0001f0 bd 3b 7e 3f 54 95 81 3f 9e bc 80 3f 55 7a 83 3f
       0.99309903 1.0123696 1.0057561 1.0271708
000200 f4 44 7f 3f 4a 0d 7d 3f 25 f9 81 3f c8 8b 80 3f
       0.9971459 0.988484 1.0154158 1.0042658
000210 ce 03 7e 3f 0e a7 82 3f 2e ba 7e 3f 8c f1 7e 3f
       0.99224555 1.0207231 0.9950284 0.9958732
000220 85 6f 80 3f 65 96 80 3f 18 32 80 3f e3 7b 80 3f
       1.0034033 1.0045897 1.0015287 1.0037807
000230 07 02 7f 3f bf 7e 7e 3f 36 3b 7c 3f d1 2e 7e 3f
       0.9961247 0.9941215 0.9852785 0.99290186
000240 ed cd 81 3f 33 5e 80 3f 5a 72 7f 3f df 03 7e 3f
       1.0140969 1.0028747 0.9978386 0.99224657
000250 d8 94 7d 3f d6 17 7e 3f b6 7f 80 3f da 2a 7d 3f
       0.9905524 0.9925512 1.0038974 0.9889351
000260 64 45 7d 3f c4 79 7f 3f d5 04 7f 3f f0 00 7f 3f
       0.98934007 0.99795175 0.9961675 0.99610806
000270 e2 ca 80 3f 9b e6 7f 3f 91 0d 80 3f d8 27 7f 3f
       1.0061915 0.9996125 1.000414 0.9967017
000280 98 94 7d 3f e9 24 80 3f 6c fd 7e 3f 74 45 7e 3f
       0.9905486 1.0011264 0.9960544 0.9932473
000290 b9 d4 7e 3f 6d 30 80 3f 04 00 80 3f 77 dd 80 3f
       0.9954334 1.0014778 1.0000005 1.0067586
0002a0 97 cf 7f 3f c2 ef 7f 3f 6f 13 7e 3f 68 02 80 3f
       0.9992613 0.99975216 0.99248403 1.0000734
0002b0 33 96 7d 3f c9 89 7f 3f eb d5 7f 3f da 9e 7e 3f
       0.9905731 0.9981962 0.9993579 0.9946114
0002c0 62 de 7d 3f b6 1f 81 3f db 95 7e 3f 6a 4f 80 3f
       0.99167454 1.0087802 0.9944741 1.0024235
0002d0 af 13 7e 3f ec c3 7e 3f f4 f6 80 3f f7 3c 80 3f
       0.99248785 0.99517703 1.0075364 1.0018605
0002e0 81 9c 80 3f 67 00 81 3f 9b 80 7e 3f 80 a8 80 3f
       1.0047761 1.0078248 0.99414986 1.0051422
0002f0 2e 7e 7f 3f b4 b9 81 3f 34 63 7e 3f 1b 70 81 3f
       0.9980191 1.0134797 0.9937012 1.0112337
000300 3f 2a 80 3f 72 45 81 3f bb 5e 7e 3f 8b ba 80 3f
       1.0012892 1.0099318 0.993633 1.0056928
000310 37 5c 7f 3f 5c 42 7d 3f 18 92 7c 3f 69 6b 7d 3f
       0.99750084 0.9892938 0.9866042 0.9899202
000320 dd 1a 81 3f 35 83 7f 3f 0f 54 80 3f 03 d3 7d 3f
       1.0086323 0.9980958 1.0025653 0.99150103
000330 b0 5e 80 3f b0 a7 81 3f ab 9a 80 3f bc e9 80 3f
       1.0028896 1.0129299 1.0047201 1.007133
000340 8f b9 7d 3f 59 63 7e 3f 42 99 80 3f f3 5b 7f 3f
       0.99111265 0.9937034 1.004677 0.9974968
000350 e7 47 81 3f 8e 8e 81 3f 1b 5a 80 3f 6e 75 81 3f
       1.0100068 1.0121629 1.0027498 1.0113962
000360 73 98 7e 3f a5 4b 7e 3f fe 38 80 3f 90 a3 7e 3f
       0.9945137 0.99334174 1.0017393 0.99468327
000370 83 ab 7f 3f 55 f5 7b 3f d3 45 80 3f 2f 72 80 3f
       0.9987108 0.9842122 1.0021309 1.0034846
000380 35 a7 7c 3f d9 0c 81 3f 82 fd 80 3f 0d 44 7d 3f
       0.9869264 1.0082046 1.0077364 0.9893196
000390 6a 5d 7f 3f 97 eb 7e 3f 59 2d 7e 3f da 2f 7f 3f
       0.99751914 0.9957823 0.99287945 0.9968239
0003a0 da 9c 7d 3f 23 7e 7f 3f 27 d9 80 3f 3c c7 7c 3f
       0.9906746 0.99801844 1.006627 0.9874151
0003b0 19 dc 7f 3f ab 4f 80 3f 26 d3 7c 3f 1b 9a 7f 3f
       0.9994522 1.0024313 0.98759687 0.9984452
0003c0 5f 48 7f 3f 90 10 7f 3f 81 20 80 3f 5a b3 7d 3f
       0.99719805 0.9963465 1.000992 0.99101794
0003d0 77 ea 81 3f ad 09 81 3f 40 d9 81 3f 19 5d 7d 3f
       1.0149678 1.0081078 1.0144424 0.9897018
0003e0 ff d4 80 3f 45 7c 80 3f d6 b7 7c 3f df 6b 7f 3f
       1.0065001 1.0037924 0.9871801 0.99773973
0003f0 05 0e 7e 3f 9b 85 80 3f 96 66 7c 3f 65 de 7f 3f
       0.9924014 1.0040773 0.98594034 0.9994872

layers.3.bias f4 [256]
000000 1c 25 0a 3b 3e 73 5d 3b 05 67 c9 3b c6 5e 75 bc
       0.0021079248 0.0033790614 0.006146314 -0.014976209
000010 07 72 04 3c 81 75 7b bc f1 67 3a bc 8a 6f f8 3a
       0.008083827 -0.015347839 -0.011377321 0.001895414
000020 3f 06 f4 bb 32 20 c8 ba b8 f3 2a 3b 52 40 78 3c
       -0.0074470337 -0.0015268384 0.002608521 0.015152054
000030 e1 9c 13 bc f8 1d c0 bb 22 ff 9f 3c 52 9b 32 3c
       -0.009009571 -0.0058629476 0.019530836 0.010901289
000040 a2 f4 00 3c 07 2d e2 ba 05 a1 70 bc e6 2a a9 3c
       0.007870825 -0.0017255851 -0.014686828 0.020650338
000050 bc ed b7 3b 02 0d 27 3c cd 05 1e bb 5e 59 c6 ba
       0.005613057 0.010195972 -0.0024112344 -0.0015132835
000060 0d a8 8d bc 1f ab 43 bb b0 c2 a3 3c 2f 42 ca 3b
       -0.017292047 -0.0029856635 0.019990295 0.0061724405
000070 db 9f 03 bc 05 88 a7 bb 68 73 f1 bb a6 6d ec 3b
       -0.008033718 -0.0051126503 -0.007368494 0.0072152195
000080 dd bb e2 3a 3f b0 8a 3c aa 62 23 bc 9c 69 0e bc
       0.0017298419 0.016929744 -0.009972254 -0.008692171
000090 63 9d 94 bc 80 6b cd 3b c5 3e e1 ba 9f 3d 57 3c
       -0.018141454 0.0062689185 -0.0017184844 0.01313725
0000a0 65 f0 ac bc 2a 76 c2 3b a6 2d b3 ba fc 06 5e bc
       -0.021110723 0.0059344964 -0.001367022 -0.01355147
0000b0 12 25 13 3c de 93 09 3b 00 97 a0 3a 2e 66 70 3c
       0.008981006 0.0020992677 0.0012252033 0.014672799
0000c0 28 24 20 bc 1a 49 ea 3a 3d 98 aa bc db 7f c2 bb
       -0.009774245 0.0017874569 -0.020824546 -0.0059356517
0000d0 0c ea c0 ba 85 b5 97 3b a7 5b 81 3c 6f 90 e7 3b
       -0.0014718189 0.004629793 0.015790774 0.0070667784
0000e0 ff 2e 10 3c 02 0e 43 3c 92 ca 9b bc 47 c5 74 bc
       0.008800267 0.011905195 -0.019017491 -0.014939613
0000f0 05 96 79 bc ce e6 36 bc 43 ce a4 bc d5 a2 ab 3a
       -0.015233521 -0.011163427 -0.020117885 0.0013094792
000100 62 94 03 bc b6 25 40 bc 2e c2 d6 3b 43 7e 76 bb
       -0.008030983 -0.011727741 0.0065539097 -0.003761188
000110 32 ae 2b 3c 7f 4f 88 bc ff 2a 58 bb 63 9c 37 3c
       0.010478543 -0.01663947 -0.0032984612 0.011206719
000120 3c 48 08 bc 87 ce c1 3c 94 97 52 bc 18 dd c3 ba
       -0.008318003 0.02365805 -0.012853522 -0.001494321
000130 ff e3 e2 3b 62 79 10 3c 36 95 ab bb 4c 93 83 3c
       0.006924152 0.008818002 -0.005236293 0.016061448
000140 b0 33 66 3c 7b 9d 31 3b f3 30 b2 bc 47 dc 7c 3b
       0.014050409 0.0027101922 -0.021751856 0.0038583444
000150 fb 8a 46 3c 67 b7 96 3c a2 db c9 3a d5 df 9a 3c
       0.012118096 0.018398 0.0015400539 0.01890556
000160 18 94 df 3b af 42 f3 3b 99 b1 93 bc f0 f2 43 3c
       0.006823074 0.007423721 -0.018029021 0.011959776
000170 05 65 55 3c ae 36 aa 3c ff 85 03 3c ee 96 ce bb
       0.013024573 0.020778026 0.008027553 -0.0063046133
000180 e8 1f 09 bc 2b 88 bf bb 85 65 9b bb f3 67 70 3b
       -0.008369423 -0.00584509 -0.0047423267 0.0036683052
000190 78 26 9f bc b0 a7 8b 3c 3e da 20 3c b7 23 00 3c
       -0.019427523 0.017047733 0.009817658 0.007821015
0001a0 56 e5 45 3c ad 1e 9f 3c 4e a4 24 b9 01 d1 a6 3a
       0.012078604 0.019423807 -0.00015701467 0.0012727083
0001b0 30 51 34 3c 01 2d c1 bb 0a 17 f3 3b 34 78 71 bc
       0.011005685 -0.0058952575 0.007418518 -0.014738131
0001c0 7b db 21 bc 28 61 22 3c 70 c6 06 bc 96 e0 0d bc
       -0.009878988 0.009910859 -0.008226022 -0.0086595025
0001d0 67 ce 11 bc 33 0c 97 3c 34 fc b8 3a 55 3c 56 bc
       -0.008899308 0.018438434 0.0014113248 -0.013075908
0001e0 1c a9 4e 3a 31 d0 66 3c c8 36 f7 bb 96 bc f2 bb
       0.00078834756 0.014087723 -0.007544372 -0.007407735
0001f0 7c 85 5e 3a 4f ad 8e bb 9a 34 49 bc b4 ff af bc
       0.00084885187 -0.004354156 -0.012280608 -0.021484233
000200 f1 5a 35 bb 55 c3 2c bc 6d a0 80 bc e9 da 69 bc
       -0.0027672614 -0.010544618 -0.015701497 -0.014273384
000210 42 25 a4 3c 5a 43 9d bc cc f1 c3 bb 73 12 09 3c
       0.020037297 -0.019197155 -0.005979752 0.008366215
000220 b9 15 12 3b 90 e5 ca 3c db 62 e6 3b 6d 92 b7 bc
       0.002229078 0.024767667 0.0070308275 -0.022408688
000230 6c 03 83 3b 2b da b5 3a 64 7b c4 ba 22 e5 91 3b
       0.0039982107 0.0013874223 -0.0014990387 0.0044523636
000240 02 38 81 3a 66 15 84 bc 47 44 82 3c 43 c6 d3 bb
       0.000985861 -0.016123485 0.015901698 -0.0064628436
000250 42 32 cb 3b 12 94 ac ba e9 b8 9b bb 94 9a ad 3b
       0.0062010596 -0.0013166687 -0.0047522676 0.005297968
000260 6d 03 4e bc 78 a6 b0 3b 32 51 3f 3c 4b 7a 42 bc
       -0.012574059 0.0053909384 0.011677073 -0.011869977
000270 b3 1c eb 3b 89 e4 30 3c 61 40 69 bc 2f b8 86 bc
       0.007175052 0.0107966745 -0.0142365405 -0.016445247
000280 97 9a 0f 3c fa 91 09 bc 9f 78 5f bc e5 69 d7 bb
       0.008764884 -0.00839662 -0.013639598 -0.006573903
000290 35 6d 77 3b 93 f5 0c bc 3e 18 81 bc 2f 88 90 bc
       0.0037754301 -0.008603471 -0.01575863 -0.017643062
0002a0 fc c4 19 bc e1 e6 91 3c 41 a9 c0 3b bd 0e 85 bc
       -0.009385344 0.017810287 0.0058795516 -0.01624238
0002b0 b5 1f 5b bc 33 90 28 bc 9c cf cf bb 26 10 ee 3a
       -0.013374259 -0.010288286 -0.0063418876 0.0018162772
0002c0 17 bb 3b 3c 38 85 be 3b 9c ec 78 bc 8f 92 9c 3a
       0.01145818 0.0058142208 -0.015193131 0.0011945533
0002d0 30 13 68 3c 31 5a a4 3c 2f 2a 41 bb db 9e 45 bb
       0.014164731 0.020062538 -0.0029474606 -0.00301545
0002e0 e6 1a a0 bc 4b 53 f0 bb d0 c3 03 bc 7a e8 f6 bb
       -0.019544076 -0.007334148 -0.008042291 -0.0075350376
0002f0 bb 9c 5e bb d3 32 e8 bb b6 0a 1b bc 4b 82 c3 bb
       -0.003396793 -0.007086137 -0.009463003 -0.00596646
000300 86 ee 1f bc f7 f4 60 3c 9b 65 3e 3a c1 f8 5f bc
       -0.009761458 0.013730279 0.0007263065 -0.013670147
000310 93 8a c8 bc ec 46 9e 3b 8f 74 30 bc 9c 3f 72 bc
       -0.02448014 0.004830232 -0.010769977 -0.0147856735
000320 ee 4a 1f bc d0 9b 7e 3c 85 8c 42 3c 53 20 7d bb
       -0.0097224545 0.015540078 0.011874323 -0.0038624003
000330 98 c8 12 3c 16 07 b2 3c c1 d9 75 bb 64 ff 3e 3c
       0.008958958 0.021731894 -0.0037513825 0.01165757
000340 2f 30 1e bc 34 aa fa 3b 5d e6 26 3c 9a 5e 7c bc
       -0.009655043 0.0076496843 0.010186759 -0.015403414
000350 9e b9 24 3c 59 a7 4c 3b 41 9c 65 bc ec f2 26 bc
       0.01005402 0.0031227677 -0.014014305 -0.010189753
000360 0f de 90 ba f5 0d 4a 3b 1a 6e 9b ba 90 9d f1 bb
       -0.0011052507 0.0030831073 -0.0011858374 -0.0073735192
000370 78 7b 31 bc 93 ce dd 3b d3 ac 73 3c 87 57 f6 bb
       -0.01083266 0.0067690103 0.0148727475 -0.0075177583
000380 96 21 84 bb ed 14 02 3c b7 99 bc 3b f4 fb 5e bc
       -0.004032324 0.007939559 0.005755629 -0.013609875
000390 a6 d8 8b 3a 66 d5 47 bc 5b 2d 81 3c 87 4f 55 bc
       0.0010669425 -0.012196874 0.015768697 -0.013019449
0003a0 0d d8 c7 bb 9a d4 97 bc 32 6a f2 bb be 5d b3 3b
       -0.0060987533 -0.018533994 -0.0073979134 0.0054738214
0003b0 20 2c 34 39 ef 2f 1b 3c a2 4a be 38 3e c8 af 3b
       0.00017182576 0.0094718775 9.0738075e-05 0.005364447
0003c0 9e cc 09 3c f6 77 b9 bb ce 04 33 bc 05 83 a2 3b
       0.008410601 -0.0056600524 -0.0109264385 0.0049594664
0003d0 2c 03 6a 3b dd f5 f4 3b 84 b7 1e 3b ba 7c a3 bc
       0.0035707457 0.0074755982 0.002421827 -0.019956935
0003e0 26 85 a1 ba b1 b6 25 bb 72 eb 26 bc 59 6d 03 bc
       -0.0012323007 -0.0025285895 -0.0101879705 -0.008021676
0003f0 d0 3a 9c 3b 15 5a fa bb 13 7e 9d bb 54 b1 43 39
       0.004767753 -0.007640133 -0.004806289 0.00018662709
