ddpg/model_params/tpcc_ddpg_7_20_critic.pth (torch, 379178 bytes, 17 tensors)

state_input.weight f4 [128, 65]
0	0xbbbf1393	-0.005831191
1	0x3a4b515d	0.00077559595
2	0x3a4527ad	0.0007520866
3	0x3bed0764	0.007233547
4	0xbb1fb875	-0.002437142
5	0xb9f5accc	-0.00046858785
6	0xbab16316	-0.0013533558
7	0x3b87cbd1	0.00414417
8	0xbab29dc4	-0.001362734
9	0xbac25339	-0.0014825828
10	0x3c04c20f	0.008102908
11	0xbafdaeac	-0.0019354424
12	0x3ac93d26	0.0015353307
13	0x3c30f236	0.010799935
14	0xbad80aaf	-0.0016482676
15	0xba8e6b2a	-0.0010865678
16	0xbb9bef80	-0.0047587752
17	0xbc127b47	-0.008940524
18	0x386fa870	5.713891e-05
19	0x38a7dc83	8.004254e-05
20	0xba674170	-0.00088217016
21	0x3ad9014e	0.0016556175
22	0x3b8be6ff	0.0042694802
23	0xbaaf65f9	-0.0013381831
24	0xbad184ca	-0.0015985009
25	0x3a4787e0	0.00076114945
26	0x3ad93530	0.0016571637
27	0x3ad64bca	0.0016349491
28	0xbc3f9cf1	-0.011695133
29	0x39a835dc	0.00032083585
30	0x39e2321a	0.00043143408
31	0x3aa130a2	0.0012297819
32	0x3a183d9a	0.0005807519
33	0xbaca3ca7	-0.0015429453
34	0xba6ef265	-0.0009115099
35	0x3a2ad35d	0.0006516481
36	0xbbc1a292	-0.0059092725
37	0x3a5d14cd	0.00084335805
38	0xbb840ad4	-0.004029611
39	0xbada458d	-0.0016652808
40	0xb8e0bc9e	-0.00010716285
41	0xbad9fb86	-0.0016630746
42	0xb8f4aacf	-0.00011666642
43	0x3a3e098c	0.00072493474
44	0xbbcfc100	-0.006340146
45	0x3a87e0c6	0.001036667
46	0x3ad5b779	0.001630529
47	0x3b46779a	0.003028369
48	0x3abc141b	0.0014349254
49	0x3ad628e7	0.0016339094
50	0xb9649c35	-0.00021801966
51	0x3ac6d3d4	0.0015169331
52	0x3a51a11e	0.00079967256
53	0x39887aa4	0.00026031316
54	0xbabe3508	-0.0014511654
55	0xbbb29d97	-0.005450915
56	0xb7f83169	-2.9586912e-05
57	0x3b8809ef	0.004151575
58	0xba6f02d7	-0.00091175496
59	0xbada57fa	-0.0016658299
60	0x3a244d4d	0.0006267622
61	0x3ac8329b	0.0015273871
62	0x3b9b6d5b	0.004743261
63	0xba6a3d68	-0.0008935542
64	0xb6f80343	-7.3913557e-06
65	0xba462878	-0.0007559131
66	0x3ad5023c	0.0016251276
67	0xba9ff2fc	-0.0012203152
68	0xb9c37264	-0.00037278526
69	0x3c2f8b23	0.010714325
70	0xbab01ea3	-0.0013436865
71	0x39186030	0.00014531682
72	0xbb14cfc0	-0.0022706836
73	0x3ad4fbe6	0.0016249388
74	0x3ba51d5f	0.0050389017
75	0xbbe2b3d1	-0.0069184084
76	0xb95cf89d	-0.0002107345
77	0x39e0685a	0.00042802357
78	0x3b59caeb	0.003323252
79	0x387fb470	6.0964783e-05
80	0xbaec31bc	-0.0018020193
81	0x3ad7ecff	0.0016473829
82	0xb9ffccc4	-0.00048789952
83	0xb7f2eae0	-2.895802e-05
84	0x3c938f92	0.018012796
85	0xbad867b4	-0.0016510398
86	0x3ab98efe	0.0014156995
87	0x3ac71018	0.0015187291
88	0x38546690	5.0640258e-05
89	0x3a99724c	0.0011707037
90	0xba966742	-0.0011474865
91	0x3a056584	0.00050886744
92	0xba9dde9c	-0.0012044492
93	0xba9599d3	-0.0011413641
94	0x3aea7f40	0.0017890707
95	0xb8c03720	-9.165541e-05
96	0x3b96bccc	0.004600143
97	0xbb347954	-0.0027538138
98	0xba6799a0	-0.00088348426
99	0xb9246d14	-0.00015680894
100	0x3ad6a08d	0.0016374752
101	0xba5748f1	-0.0008212468
102	0x3c43409e	0.011917261
103	0x3b42e54a	0.0029738718
104	0xba973db9	-0.001153878
105	0xb989993c	-0.00026244845
106	0xb9e1bf2c	-0.00043057778
107	0xbb3962b4	-0.0028287591
108	0xba127099	-0.00055862364
109	0xbba73ab8	-0.0051034354
110	0x3a6a6914	0.00089420495
111	0x3a0d1525	0.0005381874
112	0xba80fc4d	-0.0009840816
113	0xbab913b2	-0.001412025
114	0xb9787290	-0.00023693801
115	0x3aa64134	0.0012684227
116	0x3ad5eb93	0.0016320817
117	0xb9fed810	-0.00048607634
118	0x3c888d71	0.016669007
119	0x39cbb52a	0.00038854155
120	0x3a6739f4	0.00088205864
121	0xbbb84bfe	-0.0056242933
122	0x392aced5	0.00016289514
123	0x394c99ab	0.00019512202
124	0xb8e4cb37	-0.00010909739
125	0xb9195035	-0.00014621096
126	0x3a24080a	0.00062573014
127	0xbab9799b	-0.0014150621
128	0x391f2a3c	0.00015179155
129	0x3ad59923	0.0016296249
130	0xbb9c4870	-0.0047693774
131	0xbabce09d	-0.0014410202
132	0x3ba9242d	0.005161783
133	0xb8ce7812	-9.84521e-05
134	0xbba167c1	-0.0049256985
135	0xba150301	-0.00056843465
136	0xbb003646	-0.00195636
137	0x3b90cacd	0.004418707
138	0xba78f9e4	-0.0009497686
139	0xbb35d27e	-0.0027743871
140	0x3a26d859	0.0006364636
141	0x3a8e65be	0.0010864062
142	0xbc3e7362	-0.011624189
143	0xb884f854	-6.340505e-05
144	0x3a9b0df0	0.0011829715
145	0x3abe1e5a	0.0014504895
146	0x390c787e	0.00013396327
147	0x3b2dc848	0.0026517082
148	0xbaa06677	-0.0012237568
149	0x3b4b8b93	0.0031058535
150	0xbac3b2cc	-0.0014930605
151	0xb811ef9c	-3.4793848e-05
152	0xba81dc1a	-0.0009907514
153	0xb92a330c	-0.0001623148
154	0xbac0bd0a	-0.0014704776
155	0xb9392eee	-0.00017660458
156	0xbb938c55	-0.004502813
157	0xbb110102	-0.0022125845
158	0xba90080b	-0.0010988725
159	0xbbbe9b72	-0.0058168704
160	0xba22c856	-0.0006209662
161	0x3a8af1a5	0.001060058
162	0xba5efac0	-0.00085059926
163	0x36c97a20	6.004484e-06
164	0xbbaa8a69	-0.005204488
165	0x3ad3d81e	0.001616243
166	0x393e1e38	0.0001813107
167	0xbc292c53	-0.010325509
168	0xb76d5185	-1.4145281e-05
169	0xbad48b26	-0.0016215786
170	0x3aa42cef	0.0012525598
171	0x3a5762ae	0.00082163035
172	0xbbeadf06	-0.0071676997
173	0xb8ea100c	-0.000111609785
174	0xb907fc42	-0.00012968577
175	0x3a75f09e	0.0009381863
176	0xba91e912	-0.0011132082
177	0xbac5e2ce	-0.00150975
178	0x3bc2c8bd	0.00594434
179	0xb929f9e2	-0.00016210185
180	0xbad57f86	-0.0016288615
181	0x3ad67f8a	0.0016364914
182	0x39b6f1e3	0.00034893965
183	0x39cda682	0.00039224705
184	0xb8fd4cc0	-0.00012078276
185	0x3bcd33f0	0.006262295
186	0xbaae4647	-0.0013296091
187	0x38d54cbc	0.00010170924
188	0xba2b4e5f	-0.00065348105
189	0x3b6981a1	0.0035630243
190	0x3ada0490	0.001663344
191	0xbbad8fbe	-0.0052966764
192	0xba7499c2	-0.0009330773
193	0xbae28f34	-0.001728511
194	0x3ac865c9	0.0015289123
195	0xbace5a0a	-0.0015743386
196	0xbbe0dc39	-0.00686219
197	0x3811905a	3.4705132e-05
198	0xbacd04a9	-0.0015641648
199	0x39e42d2a	0.000435212
200	0xba8b6252	-0.001063416
201	0x3ac68655	0.0015146235
202	0x3c0e5f77	0.008689753
203	0xb89d1cb2	-7.491688e-05
204	0x39b7e166	0.00035072415
205	0xbab70fe9	-0.0013966534
206	0x3c194f7a	0.009357328
207	0xbac844bc	-0.0015279274
208	0x3ada3dec	0.0016650534
209	0x388ce2d6	6.717972e-05
210	0xbac2a8cc	-0.0014851331
211	0xbacb49aa	-0.0015509624
212	0xbad073a1	-0.0015903601
213	0xbaca8b72	-0.0015452935
214	0xbb43ec5a	-0.0029895515
215	0xba4a2958	-0.0007711849
216	0x3b7c94bf	0.0038540808
217	0x3a0b317f	0.00053098047
218	0x3b036193	0.0020047172
219	0xbc1681ef	-0.009186252
220	0xba9cd81a	-0.0011966259
221	0xbaad9641	-0.0013243632
222	0xb9f9e6d8	-0.00047664973
223	0x3b50b96d	0.0031848804
224	0x3a15079d	0.00056850334
225	0xb71576e0	-8.90877e-06
226	0x38f413c7	0.000116385105
227	0xb9e5d1c2	-0.00043834565
228	0xbca63712	-0.020289931
229	0x3a2805c2	0.00064095494
230	0x3a5612fb	0.00081662805
231	0xbb14ff4d	-0.002273518
232	0xba9fd0b3	-0.0012192935
233	0x3aa69ab7	0.0012710904
234	0xb9198458	-0.00014640519
235	0xbb93830a	-0.004501705
236	0x3a249d82	0.0006279574
237	0xbace5819	-0.0015742808
238	0x3ad30456	0.0016099315
239	0xb9255462	-0.00015767061
240	0xb994fe84	-0.0002841839
241	0xbb118a06	-0.0022207513
242	0xbb680c20	-0.0035407618
243	0x3c62af41	0.013835729
244	0x3aa93111	0.00129083
245	0xbaa2a6fa	-0.0012409382
246	0x3acf9374	0.0015836791
247	0x3acf3384	0.00158082
248	0xba0645ae	-0.00051220774
249	0x3a5d79f5	0.0008448654
250	0xba59b574	-0.00083049317
251	0x3a8c7c28	0.0010718154
252	0xbba46a16	-0.0050175292
253	0x3a16d95a	0.0005754434
254	0xba8c365a	-0.001069735
255	0x3b1330a3	0.002245941

state_input.bias f4 [128]
0	0xbcc36f40	-0.02385676
1	0xbd992efd	-0.074796654
2	0xbd8a7753	-0.067610405
3	0x3dc4d415	0.09610764
4	0xbd00d249	-0.031450544
5	0x3d96ebdf	0.073692076
6	0xbd90a544	-0.07062772
7	0xbd973193	-0.073825024
8	0x3d778ec0	0.06043887
9	0xbcb16d86	-0.02165867
10	0x3c4205b4	0.01184218
11	0x3d165fd5	0.036712486
12	0xbbd20cb1	-0.0064102043
13	0xbc5aeafa	-0.013361687
14	0x3c3d2ac3	0.01154584
15	0xbda7b331	-0.08188475
16	0xbda18ccb	-0.07888182
17	0x3a59cb90	0.0008308226
18	0x3d7f2c42	0.062298067
19	0xbd937213	-0.07199492
20	0xbcd7d200	-0.026345253
21	0xbd3a9165	-0.045548815
22	0x3d248669	0.040167246
23	0x3d29fa32	0.04149837
24	0x3c8cdcef	0.017195193
25	0xbd8fd3e7	-0.07022839
26	0x3cb55ba2	0.02213842
27	0xbd90de52	-0.07073654
28	0x3c915e79	0.017745243
29	0xbd932ded	-0.07186494
30	0x3c6571f2	0.014004217
31	0x3d354cc6	0.04426267
32	0x3d55eb69	0.052226458
33	0x3dc0a2b3	0.094060324
34	0xbc65bf6e	-0.014022691
35	0xbd48d496	-0.049030863
36	0xbd88469f	-0.06654095
37	0xbd9dcb03	-0.07704737
38	0xbc536073	-0.012901413
39	0x3d997ce6	0.074945256
40	0x3daa7e5a	0.08324881
41	0xbdc73f94	-0.097289234
42	0x3d8baafd	0.06819723
43	0xbd85f029	-0.065399475
44	0x3d8867df	0.06660437
45	0x3c9f1316	0.01941828
46	0x3dc99475	0.09842769
47	0xbdb7dc6a	-0.089775875
48	0xbc2a434c	-0.010392021
49	0x3d98eb78	0.07466787
50	0xbb8369b9	-0.004010406
51	0xbd67c4da	-0.056584217
52	0x3d8f8793	0.070082806
53	0xbd757eea	-0.059935488
54	0x3b4fa923	0.0031686507
55	0x3cf7d38a	0.030252237
56	0x3c06550d	0.008198989
57	0xbd622153	-0.05520756
58	0x3b75315d	0.0037413456
59	0xbbca998a	-0.006182854
60	0x3dbf5c0a	0.09343727
61	0xbdb55f3c	-0.08856055
62	0xbdac0d84	-0.084010154
63	0xbd0ef5b0	-0.034902275
64	0xbc2a304d	-0.010387492
65	0x3dac676a	0.08418162
66	0x3d536222	0.05160726
67	0xbd0a0657	-0.033697452
68	0x3d8a9c01	0.06768037
69	0xbd683f51	-0.05670101
70	0x3d535d09	0.051602397
71	0x3d9863ab	0.07440885
72	0x3d69f5bc	0.057119116
73	0x3d34cabf	0.044138666
74	0x3dc7d760	0.097578764
75	0x3c088a12	0.0083337
76	0xbc60462f	-0.013688608
77	0xbd3da8bd	-0.0463035
78	0x3c9e3746	0.019313466
79	0xbd87b2cb	-0.06625899
80	0xbca8703a	-0.020561326
81	0x3d2d2450	0.04227096
82	0xbd9fe71e	-0.07807754
83	0xbcae0407	-0.021242155
84	0xbc7be39e	-0.015374092
85	0xbcb767e8	-0.022388414
86	0xbd4b1a75	-0.04958578
87	0x3daf2d78	0.08553594
88	0xbd320588	-0.043462306
89	0xbd18ebb5	-0.037334163
90	0xbd70a7e9	-0.05875388
91	0x3d33cf32	0.04389877
92	0x3d6b4f4c	0.05744867
93	0x3dc1703c	0.09445235
94	0x3aa0383b	0.0012223789
95	0xbdaf5558	-0.085612
96	0x3dafe57c	0.085886925
97	0xbd0f2ebf	-0.03495669
98	0xbd44aa0e	-0.04801374
99	0xbdbba3dd	-0.09162114
100	0x3c07338f	0.008252039
101	0xbbdbf39b	-0.0067123896
102	0xbd737f61	-0.05944765
103	0xbd26f77c	-0.040763363
104	0x3c85dd14	0.01634077
105	0xbb1f82c3	-0.0024339415
106	0x3d4ea401	0.050449375
107	0x3ce76e2d	0.028250778
108	0xbd9bb1eb	-0.076022945
109	0xbd9d5778	-0.07682699
110	0x3cbfd454	0.023416676
111	0xbcc8ffb4	-0.024535991
112	0x3d8ced09	0.06881148
113	0x3cf7c277	0.030244095
114	0x3cc28d85	0.023749122
115	0x3bdc9f00	0.0067328215
116	0xbd068f6a	-0.032851614
117	0xbd9e4529	-0.07728035
118	0x3d7a0016	0.06103524
119	0xbd4dbcc5	-0.050228853
120	0x3cc91684	0.02454687
121	0xbca9c935	-0.020725826
122	0xbd4494b1	-0.047993366
123	0x3d4a646f	0.049412187
124	0x3d0d34f5	0.034474332
125	0x3d80f4ff	0.06296729
126	0xbbe1f959	-0.0068961796
127	0x3cf8b4a2	0.03035957

action_input.weight f4 [128, 7]
0	0xbc4a0929	-0.0123312855
1	0xbb93a1f3	-0.00450539
2	0x3bea994d	0.007159388
3	0x3c931b30	0.0179573
4	0xbb2324c6	-0.0024893745
5	0xbbd7d3c0	-0.006586522
6	0xbb02a1aa	-0.0019932785
7	0xbc53f92d	-0.012937826
8	0x3a3300bb	0.0006828417
9	0xbc259e4b	-0.010108541
10	0x3ba95a66	0.005168247
11	0xbcae6894	-0.021290101
12	0xbc85f509	-0.016352193
13	0xbc1fc14a	-0.009750674
14	0xbc69a3d4	-0.014260251
15	0xbc3945d1	-0.011308149
16	0xbc108534	-0.008820821
17	0x3b4f3e15	0.0031622697
18	0x3b88f784	0.004179897
19	0xbbe8fa58	-0.0071099214
20	0xbc0c0e46	-0.008548325
21	0xbc2feded	-0.010737878
22	0xba9ed155	-0.0012116829
23	0xb811fbe0	-3.480527e-05
24	0x3c06c2af	0.008225127
25	0xbc117c40	-0.008879721
26	0xbc14cfd2	-0.009082751
27	0x3bf597bb	0.0074948943
28	0xbcc9d7c4	-0.024639018
29	0xbca8acd7	-0.020590229
30	0x3cb70259	0.022339987
31	0xbb80cd7d	-0.003930746
32	0xbcdb84fd	-0.026796812
33	0xbb356299	-0.0027677177
34	0x3990ba0c	0.00027604436
35	0xbcb4f99e	-0.022091683
36	0xbc6689fd	-0.014070985
37	0x3c09c054	0.008407671
38	0x3b2ec681	0.002666861
39	0xbb9d4644	-0.004799636
40	0xbc0b264e	-0.008493019
41	0xbc0e8853	-0.008699494
42	0x3b86a677	0.0041091996
43	0xbc249220	-0.010044605
44	0xbaa25cca	-0.0012387272
45	0x3c747775	0.014921059
46	0x3c3ec367	0.011643267
47	0x3c154d87	0.009112722
48	0xbca94686	-0.020663511
49	0xbb56d0ea	-0.003277833
50	0xbb2dad26	-0.002650091
51	0xbc5d2691	-0.0134979645
52	0xbcfcda04	-0.030865677
53	0xbbe732f4	-0.0070556346
54	0xbc05315b	-0.008129443
55	0x3c4b0938	0.012392335
56	0xbc0b52fa	-0.00850367
57	0xbc532c0b	-0.012888919
58	0x3b67edce	0.0035389545
59	0x3c54d19e	0.01298943
60	0xbc22c3df	-0.009934395
61	0x3c7b71ce	0.015346957
62	0xbbc54e62	-0.006021307
63	0x3bf18091	0.0073700626
64	0x3b99c9ed	0.004693261
65	0xbb17a336	-0.0023138053
66	0xbb5c4ed0	-0.0033616312
67	0xbbae53d2	-0.0053200508
68	0xbbb60532	-0.0055548185
69	0x3bd01d3e	0.006351142
70	0x3ca764d2	0.020433817
71	0x3ba3cb71	0.0049986173
72	0xbc42a3a0	-0.011879832
73	0xbc8e38e1	-0.017361106
74	0x3a321b01	0.0006794185
75	0xbc97d190	-0.018532544
76	0x3c25e75b	0.01012596
77	0x3c6cadee	0.014445765
78	0xba6b7a78	-0.0008982788
79	0xbc50b1dd	-0.012737718
80	0xbc44ce54	-0.012012083
81	0xbc216d5c	-0.009852733
82	0x3b6a90c1	0.0035791846
83	0x3c43397e	0.011915563
84	0xbc33911e	-0.010959892
85	0x3c637404	0.013882641
86	0xbc803242	-0.015648965
87	0x39917f6e	0.00027751498
88	0x3cbfd190	0.023415357
89	0x3b81455e	0.003945037
90	0x3aa861bd	0.0012846511
91	0x3c58d288	0.013233788
92	0xbb284e19	-0.0025681315
93	0x3a37a26d	0.00070050993
94	0x3abd2c2c	0.001443272
95	0x3abe0136	0.001449621
96	0x3bb32302	0.0054668197
97	0x3c312d0f	0.010813965
98	0x3c7a3d22	0.015273364
99	0x3c88dabd	0.016705865
100	0xbb920f7d	-0.0044574128
101	0xbc90462f	-0.017611591
102	0x3bd144ce	0.006386376
103	0x3c186364	0.00930104
104	0x3ba9eee5	0.005185949
105	0x3c989f27	0.018630577
106	0x3c9f0b85	0.019414673
107	0xbb2520f1	-0.0025196637
108	0x3b9f342f	0.0048585157
109	0x3a89a304	0.0010500853
110	0xbc85bb08	-0.016324535
111	0x3c18a487	0.00931657
112	0xbaf058f3	-0.0018337056
113	0x3b932957	0.004491012
114	0x3c08a86a	0.008340934
115	0x3c14c961	0.009081216
116	0xbb3f3e18	-0.0029181298
117	0x3c914b6b	0.017736157
118	0xbbfb489f	-0.007668569
119	0x3c50cbd7	0.012743912
120	0x3c9b16b4	0.018931724
121	0xbbc269bd	-0.005933015
122	0xbab7aecc	-0.0014013886
123	0xbbe7b492	-0.007071086
124	0xbc0a051f	-0.0084240725
125	0x3bd5e24e	0.0065272218
126	0x3b8d5e9a	0.004314256
127	0x3c00995c	0.007849064
128	0x3cd753aa	0.026285011
129	0xbc910fa6	-0.017707657
130	0x3b8c9c29	0.0042910767
131	0xbbed60d4	-0.007244209
132	0x3b7ade10	0.0038279332
133	0x3b3e0e68	0.0029000286
134	0xbb27ef6e	-0.002562489
135	0xbc302f5d	-0.01075348
136	0x3b3d1088	0.0028848965
137	0x3b51b7bd	0.0032000386
138	0x3c320240	0.010864794
139	0xbbfb2c5b	-0.0076651997
140	0xbc0917a1	-0.00836745
141	0xbcaa7078	-0.020805582
142	0xbc4fc4c9	-0.012681195
143	0x3b67075f	0.0035252196
144	0x3a6b87af	0.0008984757
145	0x3b9fc50f	0.004875786
146	0x3b065f95	0.0020503749
147	0xbbf41351	-0.0074485918
148	0xbc87b0e4	-0.01656384
149	0xba2d55a9	-0.00066121906
150	0x3b8ea11a	0.004352701
151	0x3c03c67c	0.008042928
152	0xbc0fc633	-0.008775282
153	0x3a996104	0.0011701887
154	0xbb4f6384	-0.003164501
155	0x3c272c33	0.010203409
156	0x3c988370	0.018617362
157	0xbb8ca639	-0.004292276
158	0xbbe5fecf	-0.007018901
159	0x3a3f52db	0.0007298418
160	0xbb5c63ce	-0.0033628824
161	0xbc745e74	-0.0149150975
162	0xba4eae14	-0.0007884216
163	0x3b9b5a6e	0.0047410047
164	0x3bedaa15	0.0072529414
165	0xbc9841a7	-0.018585993
166	0xbc3101c3	-0.010803643
167	0xbcb218ba	-0.021740306
168	0xbb55a8cf	-0.0032601838
169	0xbba23415	-0.0049500563
170	0xbc61ffe8	-0.013793923
171	0x3c43e4b3	0.011956382
172	0xbc3bcc40	-0.011462271
173	0x3b94bedf	0.004539355
174	0xbc916c73	-0.017751908
175	0x3a0e3c16	0.00054258236
176	0x3c45efae	0.01208107
177	0xbc0b2cd1	-0.008494572
178	0xbc15f6b7	-0.00915306
179	0xbc3c7097	-0.011501453
180	0xbb3682b5	-0.0027848904
181	0xb96e989c	-0.000227543
182	0x39dd79bd	0.00042243107
183	0x3b1df7a1	0.0024103897
184	0x3ac9358f	0.0015351045
185	0xbb8f1875	-0.004366929
186	0xbbb27a4b	-0.0054467074
187	0xbae8ac0b	-0.0017751468
188	0xbc2f5ba4	-0.010703001
189	0xbc1ecdec	-0.00969265
190	0xbc1198dd	-0.008886543
191	0x3b947385	0.0045303726
192	0xbb318591	-0.0027087668
193	0x3b489280	0.00306049
194	0xb9fab08a	-0.00047815248
195	0xbc82baf5	-0.015958289
196	0x3b9931b8	0.0046751164
197	0x3a88f9c0	0.0010450408
198	0x3c60f179	0.013729447
199	0xbc1d5e02	-0.009604933
200	0x3c8b9257	0.017037554
201	0x3abcee82	0.0014414343
202	0x3b49291d	0.0030694671
203	0xbc7688a4	-0.015047226
204	0xbc60070e	-0.013673557
205	0xbb679cb8	-0.0035341214
206	0x3c3477ed	0.011014921
207	0x3c24ffb7	0.010070733
208	0x3ba618f0	0.0050688908
209	0x3bd18aba	0.0063947113
210	0xbb741932	-0.0037246463
211	0xbc93edc9	-0.01805772
212	0xbccbc19f	-0.0248726
213	0x3c374f2e	0.0111883115
214	0xbb15f6de	-0.002288274
215	0xba338233	-0.00068477093
216	0x3b453089	0.0030088744
217	0x3c913ff5	0.017730692
218	0xbb897dd6	-0.004195909
219	0xbbaa94a3	-0.005205707
220	0xbc857b7f	-0.01629424
221	0xbb2dad8e	-0.0026501152
222	0xbc04552d	-0.008076948
223	0xbb5a74e2	-0.0033333828
224	0x3c6f037b	0.014588232
225	0x3cbab7eb	0.022792777
226	0xbc74c7b5	-0.014940192
227	0xbc7f8387	-0.015595323
228	0x3bfb6bba	0.007672754
229	0x3a89f0fb	0.0010524088
230	0x3ca140f9	0.019684302
231	0xbc2f8009	-0.010711678
232	0xbc5559e7	-0.013021923
233	0xbb9ed86d	-0.0048475773
234	0x3c294f52	0.010333853
235	0x3c63973d	0.0138910385
236	0x3ca1998d	0.019726539
237	0x3cd16328	0.025559977
238	0x3c72d879	0.014822119
239	0x3b0c5c38	0.0021417271
240	0x3bb610e5	0.005556213
241	0x3a7f5b46	0.0009741079
242	0xbb8ffc18	-0.0043940656
243	0xbaeee976	-0.0018227536
244	0xbb4a11a7	-0.0030833276
245	0xbb734a8f	-0.0037123298
246	0xbca08c42	-0.01959813
247	0xbbc8067b	-0.006104288
248	0xbc89cde7	-0.016821815
249	0xbc1596bc	-0.009130176
250	0xbc41ce9a	-0.011829043
251	0xbb51ca4e	-0.0032011452
252	0x3b4b6036	0.0031032688
253	0x3ba538d4	0.005042175
254	0xbb718bd1	-0.0036857019
255	0x3bc3e07f	0.0059776898

action_input.bias f4 [128]
0	0xbd6ccea3	-0.05781425
1	0xbd84d244	-0.064854175
2	0x3db37f7e	0.087645516
3	0xbd0d332c	-0.03447263
4	0x3d548af6	0.051890336
5	0x3d5d06ae	0.05396145
6	0xbd10d885	-0.03536274
7	0xbd8e99f2	-0.069629565
8	0xbcba0d09	-0.022711294
9	0xbdbe95e7	-0.09305935
10	0xbdc4f35e	-0.09616731
11	0xbd249be1	-0.04018772
12	0x3ca9fedc	0.02075141
13	0xbdc511e2	-0.096225515
14	0x3c9630af	0.018333761
15	0xbdc4873c	-0.095961064
16	0xbd1a51a3	-0.03767551
17	0x3b969349	0.0045951945
18	0xbd846bad	-0.0646585
19	0x3db246ec	0.087049335
20	0x3dac00f2	0.08398618
21	0x3dc33ce4	0.09533098
22	0xbd7b41f8	-0.06134221
23	0x3d75cd0a	0.060009994
24	0xbdac7273	-0.08420267
25	0xbd99c17e	-0.07507609
26	0x3d47c583	0.048772346
27	0x3c4b68a8	0.012415089
28	0x3d944420	0.07239556
29	0xbd202f88	-0.03910783
30	0xbd63a5f6	-0.055578195
31	0xbdb5c31d	-0.088751055
32	0xbce3295f	-0.027729688
33	0x3c939203	0.01801396
34	0x3d9854df	0.07438063
35	0x3d121b96	0.03567084
36	0x3d0fae39	0.03507826
37	0xbd6b4b64	-0.057444945
38	0xbac92e61	-0.0015348905
39	0xbdb2aa46	-0.08723883
40	0x3d1ceddd	0.03831278
41	0xbdadb59d	-0.084819056
42	0x3dc42557	0.095774345
43	0x3d271137	0.0407879
44	0x3dac9907	0.08427625
45	0x3da8d1dc	0.082431525
46	0x3da8c96a	0.08241542
47	0xbd39097b	-0.045175057
48	0xbce434c4	-0.027857192
49	0xbd92accb	-0.07161864
50	0xbcd29c6d	-0.025709355
51	0x3cda4734	0.02664528
52	0xbc2d345c	-0.0105715655
53	0xbc4668bc	-0.012109932
54	0x3d73736e	0.059436254
55	0xbcc9d147	-0.024635924
56	0x3dc44491	0.095833905
57	0xbc1dc85e	-0.009630291
58	0xbd03a5ad	-0.032140423
59	0x3dad1ba7	0.0845254
60	0xbd89ab3b	-0.06722113
61	0xbdbf7e5d	-0.09350274
62	0x3d7e3cae	0.062069587
63	0xb986b7be	-0.0002569537
64	0x3daa305e	0.083100066
65	0xbdb83dd9	-0.089961715
66	0x3da7db96	0.081961796
67	0x3d45318b	0.04814295
68	0xbd96decb	-0.07366713
69	0xbd1a7f41	-0.037719015
70	0xbdc3335d	-0.09531281
71	0xbb34910e	-0.002755228
72	0x3dbf228c	0.09332761
73	0x3da93262	0.08261563
74	0x3a34bd10	0.00068946276
75	0x3d872167	0.06598168
76	0x3d2c46a0	0.04205954
77	0xbd23031d	-0.03979789
78	0x3af9f29a	0.0019069493
79	0xbd98306f	-0.07431113
80	0x3d846e44	0.06466344
81	0x3c127945	0.008940046
82	0x3b0dd0a5	0.0021639254
83	0x3d2c19a2	0.042016633
84	0xbcae1939	-0.021252261
85	0xbdb1749d	-0.0866482
86	0x3d9f858e	0.077891454
87	0xbc45ce38	-0.012073092
88	0x3d9c0d9f	0.076197855
89	0x3ce6efee	0.02819058
90	0xbda29dfb	-0.07940289
91	0x3d989121	0.07449556
92	0x3dad7a70	0.08470619
93	0x3d3692f1	0.044573728
94	0xbb44e274	-0.0030042203
95	0xbdbab577	-0.09116643
96	0x3b541b42	0.003236488
97	0x3d8d7a74	0.06908122
98	0x3d7db9c8	0.061944753
99	0xbd6d7697	-0.057974424
100	0x3d6c8ac6	0.057749532
101	0xbcbac968	-0.022801116
102	0xbdd2629f	-0.10272717
103	0xbd1d9c04	-0.038478866
104	0x3d55e72e	0.052222423
105	0xbdc86236	-0.09784357
106	0x3dd2d15b	0.10293838
107	0x3dade7ea	0.084915
108	0x3da8ee8c	0.08248624
109	0x3d822a48	0.06355721
110	0x3d7eebe1	0.06223667
111	0xbd93f108	-0.072237074
112	0xbccad785	-0.02476097
113	0xbdbd10a6	-0.09231691
114	0xbd3191e5	-0.043352026
115	0xbdb7464a	-0.089489534
116	0x3cf28822	0.029605929
117	0xbb7646a7	-0.0037578733
118	0xbd41b030	-0.047287166
119	0xbd6cb67a	-0.05779121
120	0xb97ee4b0	-0.0002430852
121	0x3c10c26f	0.008835419
122	0xbcbe20c9	-0.023208993
123	0xbd5da25d	-0.05410992
124	0x3d9b7c75	0.07592098
125	0xbd9d37a5	-0.07676629
126	0x3c7d2805	0.015451436
127	0x3d249556	0.04018148

layers.0.weight f4 [256, 256]
0	0x3ca4b90a	0.020107765
1	0x38e6fb0c	0.00011014016
2	0xbbf1e17d	-0.0073816166
3	0xbae71669	-0.001763058
4	0xbc146897	-0.009058139
5	0xbb9c08b0	-0.004761778
6	0x3c0eb0aa	0.008709112
7	0x3c173c81	0.009230734
8	0x3b3e4aa4	0.0029036188
9	0x3c1042a2	0.008804949
10	0x3be1a66a	0.006886293
11	0xba9b1102	-0.001183063
12	0x3c394222	0.011307271
13	0xbc1508ff	-0.009096383
14	0x3b819767	0.003954816
15	0x3b90e9b3	0.0044223904
16	0x3bcb345c	0.00620131
17	0x3c123b17	0.008925221
18	0xba0eaba0	-0.0005442444
19	0xbae64638	-0.0017568534
20	0x3bc46efb	0.005994675
21	0xbc2d531c	-0.010578897
22	0xbc7fe1be	-0.015617786
23	0xbc799e88	-0.015235551
24	0xbab0fdd2	-0.0013503379
25	0x3c5e69f4	0.013575066
26	0xbca6e22b	-0.020371517
27	0x3c3c6ff9	0.011501306
28	0xbbac18e5	-0.005251991
29	0x3c54f7c3	0.012998524
30	0x3c8b1a4b	0.01698031
31	0xbb263207	-0.0025359408
32	0xbc7f2123	-0.015571865
33	0x3bc02bda	0.0058646025
34	0xbb9ebeda	-0.0048445286
35	0xba1e01f9	-0.00060275156
36	0x3a59bb4e	0.00083058036
37	0x3a50b47a	0.00079614634
38	0xbbd3cdbd	-0.006463735
39	0xbb56b691	-0.0032762627
40	0xbc35d94d	-0.011099172
41	0x3a797113	0.00095154456
42	0x3b84f78c	0.00405783
43	0xbc47e6ec	-0.012201052
44	0x3c31b8c2	0.010847272
45	0xbc067656	-0.008206924
46	0xbc12b917	-0.008955262
47	0x3c0c451c	0.008561399
48	0x3c39f194	0.011349101
49	0x3bd7592d	0.00657191
50	0xba336e16	-0.0006844712
51	0xbbbf4894	-0.0058375094
52	0xbb95a541	-0.004566819
53	0xb97e322c	-0.00024242018
54	0xbbaf83b8	-0.0053562783
55	0xbc8f7468	-0.017511562
56	0xbc103683	-0.008802059
57	0x3b194f1c	0.00233931
58	0x3a93ed02	0.0011285844
59	0xbcb00c67	-0.021490289
60	0xbbad6433	-0.0052914857
61	0xbc64f829	-0.013975182
62	0x3c879eb8	0.016555175
63	0xbc99e4aa	-0.018785793
64	0xbc04f609	-0.0081153
65	0x3c538266	0.012909507
66	0x3bd40e01	0.006471396
67	0xbbecdbcb	-0.00722835
68	0xbc0cfdbd	-0.008605418
69	0xbc73d1e2	-0.014881583
70	0xba038e3a	-0.0005018447
71	0xbb56ddf7	-0.003278611
72	0xbc1705ac	-0.009217661
73	0x3ba34901	0.004983068
74	0x3bde1322	0.006777183
75	0x3b993736	0.004675771
76	0xbb3c37d7	-0.0028719807
77	0xbc36f244	-0.011166159
78	0xbbef3032	-0.0072994465
79	0xbc6e02ec	-0.014527064
80	0xbc011211	-0.0078778425
81	0xbc116727	-0.008874691
82	0xbc681a74	-0.014166463
83	0xbcb477be	-0.022029754
84	0x3cce2ee6	0.025168847
85	0x3b2eb0d8	0.00266557
86	0xbc995e20	-0.01872164
87	0xbc87894b	-0.016544959
88	0x3c77c792	0.015123265
89	0x3c993bf2	0.018705342
90	0xbc86177c	-0.01636862
91	0x3bb51324	0.0055259634
92	0xbb91f2c0	-0.004453987
93	0xbbf49d1f	-0.0074650194
94	0xbbfe9ec6	-0.007770392
95	0x3c52acd0	0.0128585845
96	0x39da0fda	0.0004159201
97	0x3c166301	0.009178878
98	0xbc72220e	-0.014778627
99	0x3ccd1a01	0.025036814
100	0x3ca627dc	0.020282678
101	0xbbd7f525	-0.006590503
102	0x3a3eb34f	0.0007274644
103	0xbc8dec76	-0.017324667
104	0x3be40e3b	0.006959704
105	0xbaf1ceb2	-0.0018448441
106	0xbc267f58	-0.010162197
107	0xbca69e8f	-0.020339279
108	0x3c5a1fd0	0.013313249
109	0xbc2a5065	-0.010395144
110	0xbc1c78dc	-0.0095502995
111	0x3cf74185	0.03018261
112	0x3cc7f269	0.024407582
113	0xbc5f81dd	-0.013641802
114	0x3bf36f5d	0.007429047
115	0x3ba5b3b1	0.0050568213
116	0x3c7a681d	0.015283612
117	0x3cb39051	0.021919401
118	0x3bfb34e7	0.0076662186
119	0x3cd0f93c	0.02550947
120	0xbb721066	-0.0036936044
121	0x3cacc3cb	0.021089455
122	0xbc03d490	-0.008046284
123	0xba933916	-0.0011232223
124	0xbc067957	-0.008207641
125	0xba6608ec	-0.0008775133
126	0xbbe2e52e	-0.006924293
127	0xbae218a3	-0.0017249774
128	0xbc48c0f1	-0.012253032
129	0x3c83822e	0.016053285
130	0xbb8c9216	-0.0042898757
131	0xbb822f97	-0.0039729583
132	0xbc23af28	-0.009990491
133	0xbc8c8da6	-0.017157387
134	0xbcc1f4f4	-0.023676373
135	0x3ca602f0	0.020265073
136	0xb99d7153	-0.00030029807
137	0x3c4f8b7f	0.012667536
138	0x38204920	3.8215076e-05
139	0xbbe7e32d	-0.007076642
140	0x3c934ea1	0.01798183
141	0x3c953407	0.018213285
142	0xbba87f18	-0.005142104
143	0x3cb0127f	0.021493195
144	0x3a3a5b53	0.0007108945
145	0xbc4aaeac	-0.012370747
146	0x3b21d336	0.0024692542
147	0xbc13ea99	-0.0090281
148	0xbc7f6c74	-0.015589822
149	0x3a280486	0.00064093655
150	0xba38cf5c	-0.0007049942
151	0xbc8dc9b1	-0.017308088
152	0x3bea7f74	0.007156307
153	0x3a3c8536	0.0007191481
154	0x3c29d673	0.01036607
155	0xbc240770	-0.010011539
156	0xbc59b0e8	-0.013286807
157	0xbc853d9d	-0.016264731
158	0x3c01b24e	0.007916046
159	0x3c9b0af5	0.018926123
160	0xbbfc60e2	-0.007701979
161	0xbacc25d4	-0.0015575239
162	0x396ec334	0.00022770168
163	0xbc03c352	-0.008042173
164	0xbcd1a276	-0.025590163
165	0x3c881fe4	0.01661677
166	0xbc618462	-0.013764473
167	0x3b239698	0.0024961587
168	0xbbd660aa	-0.006542285
169	0x3c21f532	0.009885119
170	0xbac4dfa8	-0.0015020268
171	0xba923726	-0.0011155352
172	0xbc73faff	-0.014891385
173	0xbbc7282c	-0.006077787
174	0x3bfb115e	0.0076619824
175	0xbb23138e	-0.0024883482
176	0xbc1b96d6	-0.009496411
177	0x3ca96f2a	0.02068289
178	0x38e8dac8	0.00011103373
179	0xbc609779	-0.013707989
180	0x3c8b3651	0.016993674
181	0x3c3ef7e1	0.011655779
182	0xbc18eb29	-0.00933341
183	0x3c2a886c	0.010408502
184	0xbb123bd4	-0.0022313492
185	0xbba31daf	-0.004977904
186	0xbad5ad7c	-0.0016302313
187	0xbc0fe4ca	-0.008782575
188	0x3c27be5b	0.010238255
189	0xbbc19c96	-0.005908559
190	0xbc516141	-0.012779535
191	0xba934860	-0.0011236779
192	0x3b819a8e	0.003955192
193	0x3bc95d76	0.0061451746
194	0xbbfb240c	-0.007664209
195	0xb95acefc	-0.00020867208
196	0x3c0cb89f	0.008588939
197	0xbc09f0d8	-0.008419238
198	0x3cc613b8	0.024179325
199	0x3c50b04a	0.012737343
200	0xbc0eb4d3	-0.008710104
201	0xbb947cb8	-0.004531469
202	0xbc022756	-0.007943949
203	0xbbc41239	-0.0059836176
204	0xbcb0258b	-0.021502277
205	0xbac93608	-0.0015351186
206	0xbbb8ef0a	-0.00564373
207	0x3b8f4775	0.004372532
208	0x3bb78605	0.005600693
209	0xbb99d471	-0.0046945144
210	0x3ae07b2a	0.001712655
211	0xbc93c754	-0.018039383
212	0x3c49d207	0.012318141
213	0x3abf2bae	0.0014585161
214	0xb9e0f0c4	-0.00042903994
215	0x3c0241e8	0.007950284
216	0x3c2c47be	0.010515152
217	0x3c74712b	0.0149195595
218	0x390d0b30	0.00013450976
219	0x3b7149c3	0.0036817647
220	0xbc8d782c	-0.017269216
221	0xbb8cd852	-0.0042982483
222	0xbab79e5c	-0.0014008987
223	0x3be37b59	0.0069421944
224	0xbc2d72f2	-0.010586487
225	0xbc66f344	-0.014096085
226	0xbc45b72f	-0.0120676
227	0x3c33f944	0.0109847225
228	0xbc7b920a	-0.015354643
229	0x3c4ad92a	0.0123808775
230	0x3bf58e60	0.007493779
231	0x3c660d7a	0.014041299
232	0xbb9e046f	-0.004822306
233	0x3c360010	0.011108413
234	0x3b6176ac	0.003440301
235	0xbca53d64	-0.020170875
236	0xbcb4d507	-0.022074236
237	0xbc193b55	-0.009352525
238	0xbbd93f36	-0.00662985
239	0x3c2db5d7	0.010602436
240	0x3c34c470	0.0110331625
241	0x39dd2a70	0.00042184023
242	0x3b7f313d	0.003893926
243	0x3c05428b	0.008133541
244	0x3bb5869a	0.0055397274
245	0xbb9ae4b5	-0.004726971
246	0x3b43b02c	0.0029859645
247	0xb97c302c	-0.00024050538
248	0xbb97a523	-0.00462784
249	0xbb8938c1	-0.004187674
250	0xba14f361	-0.0005682018
251	0x3c1aa597	0.009438894
252	0xbbb9f3ad	-0.0056748004
253	0x3ae29398	0.0017286418
254	0x3c32988a	0.010900626
255	0xbc9c3530	-0.01906833

layers.0.bias f4 [256]
0	0x3d7ca299	0.061678503
1	0x3d4156aa	0.04720179
2	0x3db55a9e	0.088551745
3	0x3d87758e	0.06614219
4	0xbcd009c5	-0.025395283
5	0xbd5c8fb9	-0.053848002
6	0x3c5e054e	0.013551069
7	0x3d29c0ed	0.041443754
8	0x3d9ea4b8	0.07746261
9	0xbd487320	-0.048937917
10	0xbd93676d	-0.07197461
11	0xbc895f7d	-0.016769165
12	0xbb561523	-0.0032666407
13	0xbdc3bae9	-0.09557135
14	0xbd00c148	-0.031434327
15	0xbd1ab19b	-0.037767034
16	0x3ce64da6	0.028113198
17	0xbd3222a3	-0.043490063
18	0x3da7fa88	0.08202082
19	0xbd9de67a	-0.077099755
20	0xbdc184ec	-0.09449181
21	0xbd5f6421	-0.05453885
22	0x3da71b56	0.08159511
23	0xbce1bdbc	-0.027556293
24	0xbcc26e30	-0.023734182
25	0xbd367ae6	-0.0445508
26	0xbdb78a5e	-0.08961938
27	0xbd312a2b	-0.043253105
28	0xbd85c158	-0.06531018
29	0xbdbfd6a5	-0.09367112
30	0x3d0c919e	0.03431856
31	0xbc3e9aaf	-0.011633559
32	0xbc571c90	-0.013129368
33	0x3d549b64	0.051906005
34	0xbd1b28cd	-0.037880708
35	0xbd3180c3	-0.043335687
36	0xbdb6b089	-0.0892039
37	0xbd996bba	-0.0749125
38	0xbd1380e1	-0.03601158
39	0x3b905501	0.0044046645
40	0xbcc7c3cb	-0.024385354
41	0xbd0936bd	-0.033499468
42	0xbc462f16	-0.012096187
43	0x3c53f6c3	0.012937251
44	0xbd326617	-0.04355439
45	0xbce78edf	-0.028266368
46	0xbcdad6ba	-0.026713718
47	0x3d8f2845	0.06990103
48	0x3dca855a	0.09888716
49	0x3bc167a3	0.005902247
50	0xbd6fd3ab	-0.05855147
51	0x3cbe140d	0.02320292
52	0xbadc5125	-0.0016808851
53	0xbd0217f6	-0.031761132
54	0x3beec8b9	0.0072871116
55	0xbdb651f5	-0.08902351
56	0xbcff584c	-0.031170033
57	0xbd8a5b3d	-0.067556836
58	0xbdac4a38	-0.084125936
59	0x3d7cec5e	0.061748855
60	0xbdb47177	-0.08810704
61	0xbd33b3b5	-0.043872554
62	0xbceaa482	-0.028642897
63	0x3dabd461	0.083901174
64	0x3dadf3a5	0.08493737
65	0xbc4f68e2	-0.012659283
66	0x3dc1e367	0.09467202
67	0x3c98d6cc	0.01865711
68	0x3d6e4a05	0.05817606
69	0xbda5eea1	-0.081021555
70	0xbc65e471	-0.014031515
71	0x3dcae829	0.09907562
72	0x3bc6b434	0.0060639624
73	0xbcc69ce2	-0.02424473
74	0x3d249458	0.040180534
75	0xbd5cf7db	-0.05394731
76	0x3b326dc7	0.0027226077
77	0x3a43d2ea	0.00074700883
78	0x3d2917fc	0.04128264
79	0x3d69adf0	0.057050645
80	0x3cd179c9	0.025570767
81	0x3c8c298b	0.017109653
82	0x3cfc2e8b	0.030783912
83	0x3d82d45e	0.06388162
84	0xbd90ad5d	-0.070643164
85	0x3c6c1004	0.014408115
86	0x3d4f4884	0.050606266
87	0x3daecfac	0.08535704
88	0x3dab0f1d	0.08352492
89	0x3da55804	0.08073428
90	0x3c0d9714	0.008641977
91	0x3dbb2bc0	0.09139204
92	0xbd33e909	-0.04392341
93	0xbd0819a9	-0.033227596
94	0xbdad3b34	-0.08458558
95	0x3d1d78c7	0.03844526
96	0xbdb1aa46	-0.08675055
97	0x3cf29366	0.0296113
98	0xbd08d993	-0.03341062
99	0x3d30b2f1	0.0431394
100	0x3d54ded2	0.05197031
101	0xbd9dd29a	-0.07706185
102	0x3dbf8cab	0.09353002
103	0x3d8435ef	0.064555995
104	0xbbb72112	-0.005588659
105	0x3dc01a64	0.093800336
106	0xbd22823c	-0.039674982
107	0xbc2a1518	-0.010381006
108	0x3d9e5d4a	0.07732637
109	0xbd9f9bb3	-0.07793369
110	0xbd6c6bce	-0.057719998
111	0xbcabe691	-0.020983966
112	0xbd143785	-0.03618576
113	0x3d81605f	0.063172095
114	0xbc863b43	-0.01638568
115	0x3d7cd96f	0.0617308
116	0xbd1a130d	-0.037615824
117	0x3c69e8b9	0.014276677
118	0x3cebfba8	0.028806522
119	0x3db0a0eb	0.08624443
120	0x3da69fd2	0.08135952
121	0xbd8712c3	-0.065953754
122	0xbd4049bf	-0.04694533
123	0xbd7dca2b	-0.06196038
124	0x3dabd361	0.08389927
125	0x3d0a4e55	0.03376611
126	0xbdc303af	-0.09522187
127	0x3d995ad1	0.07488025
128	0x3d3695cc	0.04457645
129	0x3d3f62a2	0.046724923
130	0x3ca963b1	0.02067742
131	0x3cd312f1	0.025765868
132	0x3cf71272	0.030160163
133	0xbbcab165	-0.006185698
134	0x3d80f254	0.062962204
135	0x3d67989c	0.056542024
136	0xbdbe39ae	-0.09288345
137	0xbc76d474	-0.015065301
138	0xbdb67b19	-0.08910198
139	0xbcadc1d7	-0.021210594
140	0xbd80d700	-0.06291008
141	0xbc5c40ba	-0.013443166
142	0xbbbc88ac	-0.0057535972
143	0x3d90320d	0.070407964
144	0x3d974710	0.07386601
145	0xbd9ee6e5	-0.077588834
146	0xbd001260	-0.031267524
147	0xbc098895	-0.00839438
148	0xbc7a7766	-0.015287256
149	0xbd714bad	-0.05891006
150	0xbc859b2d	-0.016309345
151	0x3d8e8b8b	0.069602095
152	0xbc488bee	-0.012240393
153	0x3d4e1820	0.050315976
154	0xbd9de36e	-0.077093944
155	0x3c82d488	0.015970483
156	0x3db85cdd	0.09002087
157	0xbd9c49dd	-0.07631276
158	0x3d804430	0.06263006
159	0x3d097a00	0.033563614
160	0x3dc5d85b	0.09660407
161	0xbcdc2644	-0.026873715
162	0x3dd030b4	0.101655394
163	0xbca62594	-0.02028159
164	0xbcbf3ecc	-0.023345374
165	0xbd87af7d	-0.066252686
166	0xbbe3dbad	-0.0069536776
167	0x3d2c1617	0.042013254
168	0x3ca16a64	0.019704051
169	0x3c1ea74a	0.0096834395
170	0xbd876d0f	-0.06612598
171	0xbdc5772b	-0.0964187
172	0x3da58034	0.080810934
173	0x3c3f62ea	0.011681298
174	0x3d26736d	0.040637422
175	0x3d1b33ed	0.037891317
176	0x3dbf1d36	0.093317434
177	0xbd2b7fc9	-0.041869912
178	0x3d97fcba	0.07421251
179	0xbc6c1e92	-0.014411585
180	0x3d6b3579	0.057424042
181	0x3d0431e1	0.03227413
182	0xbda1cd95	-0.0790054
183	0xbc409705	-0.011754756
184	0x3d7252bf	0.059160944
185	0xbd179124	-0.03700365
186	0x3db9bf7b	0.09069725
187	0xbd102e93	-0.035200667
188	0xbd34f78d	-0.044181395
189	0xbc946d98	-0.018118665
190	0x3d0341a1	0.03204501
191	0xbdd48b2c	-0.103781074
192	0xbd9ae6c1	-0.07563544
193	0x3d08632c	0.033297703
194	0xbcf80b6d	-0.030278886
195	0xbd780dba	-0.060559966
196	0x3d7975bf	0.060903307
197	0xbcdec5aa	-0.027193863
198	0x3d14dab7	0.036341395
199	0x3c7c40e5	0.015396331
200	0xbdc43ddb	-0.095821105
201	0x3dc4bef8	0.09606737
202	0xbd5b3bca	-0.053523816
203	0xbd81258d	-0.0630599
204	0x3ca72240	0.020402074
205	0x3d606c21	0.05479062
206	0x3dba2d5d	0.090906836
207	0xbd856618	-0.065136135
208	0xbd9b59d1	-0.075854905
209	0x3d8121bf	0.06305265
210	0xbd8fc0b7	-0.07019179
211	0x3daba40a	0.08380897
212	0xbd834990	-0.06410515
213	0xbbe43e6b	-0.0069654486
214	0xbd9d85a0	-0.076915026
215	0x3d79d119	0.060990427
216	0x3dd32277	0.10309308
217	0x3d8ba274	0.06818095
218	0xbd3785c8	-0.044805318
219	0xbd1302be	-0.035891287
220	0x3cbf4c32	0.023351762
221	0x3cfc0a6b	0.030766686
222	0x3d21f519	0.039540384
223	0x3daaa63b	0.08332487
224	0xbd6bbb62	-0.05755175
225	0xbdc5b210	-0.09653103
226	0xbb1290e8	-0.0022364203
227	0xbd02fcce	-0.031979375
228	0xbdb9b67a	-0.09068008
229	0x3c1c0c20	0.009524375
230	0xbdb31e6e	-0.087460384
231	0xbd9312d5	-0.07181326
232	0xbd22f871	-0.039787713
233	0xbcd32031	-0.025772186
234	0x3dc95007	0.09829717
235	0xbd5938cb	-0.053032678
236	0xbb56154a	-0.0032666498
237	0x3d6907fc	0.05689238
238	0xbdc046a0	-0.09388471
239	0xbd201d6e	-0.039090566
240	0xbab8affa	-0.0014090531
241	0x3d873874	0.066025645
242	0x3db66411	0.08905805
243	0x3d9da29c	0.07697031
244	0x3d870f19	0.065946765
245	0x3d4da44f	0.050205525
246	0x3d318b2d	0.04334562
247	0xbda05190	-0.07828057
248	0x3ceff598	0.029291913
249	0xbccdfbe8	-0.025144532
250	0xbccd651b	-0.025072625
251	0x3d15b947	0.036553647
252	0x3db99998	0.09062499
253	0xbd8aa77b	-0.067702256
254	0xbd1ca6af	-0.0382449
255	0xbc316589	-0.0108274305

layers.3.weight f4 [256]
0	0x3f806048	1.0029383
1	0x3f8026b1	1.0011808
2	0x3f7ee4e5	0.99568015
3	0x3f80709a	1.0034363
4	0x3f7fae19	0.99875027
5	0x3f7db40c	0.99102855
6	0x3f7efd4a	0.9960524
7	0x3f7f6c6f	0.9977483
8	0x3f7e1388	0.9924855
9	0x3f809dc1	1.0048143
10	0x3f800b81	1.0003511
11	0x3f803ec8	1.0019159
12	0x3f803e1e	1.0018957
13	0x3f80e1d9	1.0068923
14	0x3f81096c	1.0081
15	0x3f7f8db8	0.9982562
16	0x3f7e493e	0.9933051
17	0x3f7d7d54	0.9901936
18	0x3f7f88e4	0.99818254
19	0x3f809d62	1.004803
20	0x3f8072f5	1.0035082
21	0x3f812fc3	1.0092701
22	0x3f7e3b79	0.993095
23	0x3f803384	1.0015721
24	0x3f80d517	1.006503
25	0x3f814dfd	1.0101925
26	0x3f7fe9ac	0.9996593
27	0x3f80bbb1	1.0057279
28	0x3f807b84	1.0037694
29	0x3f7f752d	0.9978817
30	0x3f803608	1.0016489
31	0x3f800b8b	1.0003523
32	0x3f80ba37	1.0056828
33	0x3f81070b	1.0080274
34	0x3f804e9c	1.002399
35	0x3f8009d8	1.0003004
36	0x3f80bce2	1.0057642
37	0x3f7f64da	0.9976326
38	0x3f7f11b1	0.9963637
39	0x3f80b77c	1.0055995
40	0x3f7f2e28	0.99679804
41	0x3f7f8cab	0.9982402
42	0x3f7efa38	0.99600554
43	0x3f801445	1.0006186
44	0x3f807685	1.0036169
45	0x3f7fa583	0.99861926
46	0x3f807425	1.0035444
47	0x3f7fa1c2	0.998562
48	0x3f8102ae	1.0078943
49	0x3f7ed53f	0.9954414
50	0x3f7e918c	0.99440837
51	0x3f7fb00c	0.99878
52	0x3f7e20d1	0.99268824
53	0x3f7fbdbd	0.9989889
54	0x3f7f8cd7	0.9982428
55	0x3f7ff619	0.9998489
56	0x3f805ab7	1.0027684
57	0x3f7f728e	0.9978417
58	0x3f7df41f	0.99200624
59	0x3f7f5f40	0.99754715
60	0x3f7e919b	0.99440926
61	0x3f7fb520	0.9988575
62	0x3f80e070	1.0068493
63	0x3f7f52e5	0.9973586
64	0x3f7ddde4	0.99166703
65	0x3f808bf1	1.0042707
66	0x3f7fbec3	0.99900454
67	0x3f7f0e01	0.99630743
68	0x3f7fe018	0.99951315
69	0x3f80bb18	1.0057096
70	0x3f7e9bf7	0.99456733
71	0x3f7df32a	0.99199164
72	0x3f80bc93	1.0057548
73	0x3f7f09ef	0.9962453
74	0x3f7de44e	0.9917649
75	0x3f8034ad	1.0016075
76	0x3f806a17	1.0032376
77	0x3f7f9bf3	0.99847335
78	0x3f80948d	1.0045334
79	0x3f7eba56	0.99503076
80	0x3f7eb8cf	0.99500746
81	0x3f808e55	1.0043436
82	0x3f7ec766	0.9952301
83	0x3f80a853	1.0051368
84	0x3f800e82	1.0004427
85	0x3f804b11	1.0022908
86	0x3f80a705	1.005097
87	0x3f80e7b8	1.0070715
88	0x3f7f281d	0.99670583
89	0x3f7dc563	0.99129313
90	0x3f7f64c4	0.9976313
91	0x3f7ee5c9	0.99569374
92	0x3f8079fa	1.0037224
93	0x3f7eb9c4	0.99502206
94	0x3f7e9a31	0.9945403
95	0x3f7f4c2b	0.997256
96	0x3f801738	1.0007086
97	0x3f7f18fc	0.996475
98	0x3f7ffa3b	0.99991196
99	0x3f7e52fc	0.99345374
100	0x3f7f6b23	0.9977285
101	0x3f805d5e	1.0028493
102	0x3f8053ca	1.002557
103	0x3f81298f	1.0090808
104	0x3f8023d6	1.0010936
105	0x3f7e6ab4	0.99381566
106	0x3f7e8ee8	0.9943681
107	0x3f7fada8	0.99874353
108	0x3f7e7fd5	0.99413806
109	0x3f7f330b	0.9968726
110	0x3f8046bd	1.0021588
111	0x3f7e08d2	0.9923221
112	0x3f7eecfb	0.99580353
113	0x3f7ee5bc	0.99569297
114	0x3f7edbee	0.99554336
115	0x3f80fac5	1.0076529
116	0x3f7f7aea	0.99796927
117	0x3f7f163c	0.996433
118	0x3f8014c6	1.000634
119	0x3f80f455	1.0074564
120	0x3f7fe837	0.99963707
121	0x3f7f63bc	0.9976156
122	0x3f7e3cef	0.9931173
123	0x3f7dde92	0.9916774
124	0x3f7e48d1	0.9932986
125	0x3f7f004a	0.99609816
126	0x3f807249	1.0034877
127	0x3f7f3f20	0.99705696
128	0x3f80b066	1.0053833
129	0x3f7fdbb1	0.999446
130	0x3f7ede34	0.99557805
131	0x3f7ed422	0.9954244
132	0x3f80467c	1.002151
133	0x3f7f500d	0.9973152
134	0x3f7f5cce	0.99750984
135	0x3f803ad0	1.0017948
136	0x3f7fbbce	0.9989594
137	0x3f7f1a84	0.99649835
138	0x3f7e857b	0.99422425
139	0x3f7e9230	0.99441814
140	0x3f7f6cf4	0.99775624
141	0x3f8092e5	1.0044829
142	0x3f806ae0	1.0032616
143	0x3f7f830b	0.9980933
144	0x3f7ed3ec	0.9954212
145	0x3f80ad0a	1.0052807
146	0x3f805357	1.0025433
147	0x3f7f6a4b	0.99771565
148	0x3f7f7a7f	0.9979629
149	0x3f7f90d3	0.9983036
150	0x3f7f24b6	0.9966539
151	0x3f7eacc1	0.9948235
152	0x3f7e64d4	0.993726
153	0x3f7fc3df	0.9990825
154	0x3f7f8aad	0.9982098
155	0x3f7e77fa	0.9940182
156	0x3f7fc4a0	0.999094
157	0x3f7f5d8b	0.9975211
158	0x3f80a592	1.0050528
159	0x3f7dbc95	0.9911588
160	0x3f805ea7	1.0028886
161	0x3f7d9a83	0.9906389
162	0x3f7df7ae	0.99206054
163	0x3f7f2cca	0.9967772
164	0x3f7edcd5	0.9955571
165	0x3f809da3	1.0048107
166	0x3f7f19dd	0.9964884
167	0x3f7f21f1	0.99661165
168	0x3f7eeb94	0.99578214
169	0x3f7e4173	0.9931862
170	0x3f80a393	1.0049919
171	0x3f7ff4ed	0.999831
172	0x3f7eeb00	0.9957733
173	0x3f7dff4a	0.99217665
174	0x3f7e01ae	0.99221313
175	0x3f7eec12	0.99578965
176	0x3f80a5c6	1.005059
177	0x3f7fe7f7	0.99963325
178	0x3f7f95e7	0.9983811
179	0x3f806595	1.0031
180	0x3f7f3e98	0.99704885
181	0x3f81335b	1.0093797
182	0x3f7ef96a	0.99599326
183	0x3f7f6d3e	0.99776065
184	0x3f80d784	1.006577
185	0x3f7ee154	0.99562573
186	0x3f7fc1ee	0.9990529
187	0x3f7f0144	0.99611306
188	0x3f7ed9a6	0.99550855
189	0x3f808e83	1.0043491
190	0x3f7e46e6	0.9932693
191	0x3f805835	1.0026919
192	0x3f80496b	1.0022405
193	0x3f7ef979	0.99599415
194	0x3f7f67de	0.99767864
195	0x3f7fa986	0.9986805
196	0x3f7e6240	0.9936867
197	0x3f7f0fff	0.99633783
198	0x3f7f47f6	0.9971918
199	0x3f810243	1.0078815
200	0x3f8089f7	1.0042104
201	0x3f8096bc	1.0046
202	0x3f808c81	1.0042878
203	0x3f7e8566	0.994223
204	0x3f80e3ea	1.0069554
205	0x3f80912e	1.0044305
206	0x3f808535	1.0040652
207	0x3f7e37cb	0.99303883
208	0x3f7f15ff	0.9964294
209	0x3f80164c	1.0006804
210	0x3f7e4268	0.9932008
211	0x3f8048c3	1.0022205
212	0x3f7f3f10	0.997056
213	0x3f7fce23	0.99923915
214	0x3f7fd547	0.9993481
215	0x3f7f4ef4	0.9972985
216	0x3f7e39ca	0.9930693
217	0x3f7f71b2	0.9978286
218	0x3f811a2c	1.0086112
219	0x3f7d80b4	0.9902451
220	0x3f7e2dc2	0.9928857
221	0x3f7dfe11	0.992158
222	0x3f7ef94b	0.9959914
223	0x3f7e76f1	0.9940024
224	0x3f7ec71a	0.99522555
225	0x3f80490f	1.0022296
226	0x3f7f64c8	0.99763155
227	0x3f80274a	1.001199
228	0x3f7f0cc9	0.99628884
229	0x3f802d34	1.0013795
230	0x3f7f8494	0.99811673
231	0x3f7eaa8a	0.9947897
232	0x3f7f1a85	0.9964984
233	0x3f7e5fcb	0.9936492
234	0x3f7eee44	0.99582314
235	0x3f801a49	1.0008022
236	0x3f7e39bf	0.99306864
237	0x3f7f15ad	0.9964245
238	0x3f8033f7	1.0015858
239	0x3f7f27f0	0.99670315
240	0x3f7f6732	0.9976684
241	0x3f8069ab	1.0032247
242	0x3f81223b	1.0088571
243	0x3f80d197	1.0063962
244	0x3f80b3f2	1.0054915
245	0x3f7ffb16	0.999925
246	0x3f7f4840	0.9971962
247	0x3f7fb666	0.9988769
248	0x3f7ece54	0.9953358
249	0x3f80579a	1.0026734
250	0x3f7e4d4c	0.99336696
251	0x3f808a47	1.0042199
252	0x3f8052ed	1.0025307
253	0x3f80531d	1.0025364
254	0x3f7f8bd6	0.9982275
255	0x3f81613a	1.0107796

layers.3.bias f4 [256]
0	0xbb9f92c3	-0.0048697903
1	0xbabed992	-0.0014560691
2	0xbbc03c74	-0.0058665816
3	0x3bcb8f38	0.0062121414
4	0xbbc4368e	-0.0059879487
5	0x3bceccd4	0.0063110385
6	0xbbdcb7cf	-0.006735779
7	0xb9cecc59	-0.00039443633
8	0xbaed825a	-0.0018120513
9	0x3a916980	0.0011094064
10	0xbb00b3f1	-0.0019638503
11	0x3b9be903	0.004758002
12	0x3bd68ed4	0.006547788
13	0xbadd2ff7	-0.0016875257
14	0x3b56bac4	0.003276513
15	0xb67d2b40	-3.7725113e-06
16	0x3bbc44f8	0.0057455264
17	0xba9f2d35	-0.001214421
18	0x3bce39b6	0.006293501
19	0x3aca9b22	0.001545761
20	0xbbe42fb3	-0.006963694
21	0xbbe5261c	-0.0069930684
22	0x3bb7834b	0.005600368
23	0x3bb5c43f	0.005547076
24	0x3a165049	0.00057340093
25	0xbbbc0981	-0.0057384376
26	0x3be607f4	0.007019991
27	0xbbd17edc	-0.0063932966
28	0xba3216d4	-0.0006793563
29	0x3a8fdb20	0.0010975339
30	0xbb826d58	-0.00398032
31	0xbac0c4c6	-0.001470708
32	0x3b808e46	0.0039232103
33	0x3b58d632	0.0033086655
34	0x3b80ce27	0.0039308253
35	0xbb72d62c	-0.0037053926
36	0x3b2cab7c	0.002634733
37	0xbc1b58c1	-0.00948161
38	0x3ba0db7a	0.004908976
39	0xbb1bb8e3	-0.0023761324
40	0xbb6f7783	-0.003653974
41	0xbaa50760	-0.0012590699
42	0x3be650fc	0.007028697
43	0xbb49f176	-0.0030814088
44	0xbb49d042	-0.0030794297
45	0x3a686690	0.00088653807
46	0x3a81e04e	0.0009908767
47	0x3b01c39b	0.0019800428
48	0xbb267ffc	-0.0025405874
49	0x3b2db896	0.0026507727
50	0x3a7e32e9	0.0009696917
51	0x3bdc47c0	0.0067224205
52	0x3ab7a55d	0.0014011074
53	0x3b593158	0.0033140983
54	0xbbbcb824	-0.005759256
55	0x3b55966f	0.0032590886
56	0xbb50fe71	-0.003188994
57	0x395009ce	0.00019840078
58	0x3b8386df	0.0040138806
59	0x3aae8e70	0.0013317596
60	0xbc070bfd	-0.008242604
61	0x3b9c12a6	0.0047629653
62	0xba4f5666	-0.0007909298
63	0xbbf84a7b	-0.007577238
64	0xba3c56ab	-0.00071845454
65	0x3b7857ca	0.0037894123
66	0x3acaea0b	0.0015481127
67	0xbbde34c7	-0.006781194
68	0x3b9d8471	0.004807048
69	0x3b22f504	0.002486528
70	0xbb9b1593	-0.0047327965
71	0xbac2ad1b	-0.0014852615
72	0x3abfe7d3	0.0014641233
73	0xbb588330	-0.0033037178
74	0xba9e8f6b	-0.0012097185
75	0x3ba8465c	0.0051353406
76	0x3a1bc47e	0.00059420604
77	0x3b41f261	0.0029593932
78	0xbb01e977	-0.0019822994
79	0xbb7bdfb6	-0.0038432903
80	0xbb65eb82	-0.0035083
81	0x3ba62144	0.0050698835
82	0xbb3129fc	-0.0027033081
83	0x3b483df9	0.0030554517
84	0xbbea11ab	-0.0071432195
85	0xbb4d0a6f	-0.0031286736
86	0xba0bdb58	-0.0005335114
87	0x3ad4a22c	0.0016222647
88	0xbbdd12e6	-0.0067466376
89	0x3bbacdbb	0.0057007945
90	0xbb70ba88	-0.0036732275
91	0x3b6e9d21	0.0036409574
92	0x3b384792	0.002811883
93	0xbaa7a93c	-0.0012791525
94	0xbbbc9c66	-0.005755949
95	0x3b75509e	0.0037432085
96	0xbba19eb7	-0.0049322504
97	0xbb6cbc12	-0.003612284
98	0xbb12a005	-0.002237321
99	0x3ba44a99	0.0050137755
100	0x3ab637c8	0.0013902122
101	0xbb334e52	-0.0027359915
102	0x3be0d986	0.0068618683
103	0x3b3f5358	0.0029193964
104	0x39cea81f	0.00039416642
105	0xb9034d3e	-0.00012521909
106	0x3b9c9f46	0.004779729
107	0x3b82ff30	0.003997706
108	0x3bd05308	0.0063575543
109	0x3bbaf15a	0.005705041
110	0x3b1fcd8c	0.002438399
111	0xbb34de97	-0.0027598494
112	0x3b99cc7a	0.004693565
113	0xbbf3170f	-0.0074185203
114	0xbad58ae6	-0.0016292005
115	0xbaff64d5	-0.0019485006
116	0xbb29deb5	-0.0025920097
117	0xbbafe7bc	-0.005368201
118	0xbb61b20e	-0.0034438404
119	0x3b39717b	0.00282964
120	0x3bf67f50	0.007522501
121	0x3b9af0bd	0.0047284053
122	0xbb976ee5	-0.004621374
123	0x3a210322	0.00061421294
124	0xbb8b9ae8	-0.0042604096
125	0xbab4e56a	-0.0013801281
126	0x3bdbbef1	0.0067061116
127	0xbb9f0ffe	-0.0048542013
128	0x3c0aeabe	0.008478818
129	0xbbf89ca1	-0.007587031
130	0xbbee4545	-0.007271441
131	0xbbf17da2	-0.007369713
132	0x3b7710ce	0.0037699225
133	0x3c09b5a6	0.008405125
134	0x39c27582	0.00037090114
135	0xbb1a8d74	-0.0023582848
136	0x3b4cbe9e	0.0031241546
137	0x3af142ee	0.0018406787
138	0x3b2d6c19	0.0026462136
139	0x39d7957a	0.00041119364
140	0xbaa7ed8c	-0.0012811883
141	0x3be619ab	0.007022103
142	0x39f796de	0.00047223916
143	0xbab21054	-0.0013585188
144	0x3b0c049c	0.0021365052
145	0xbb1125a7	-0.0022147687
146	0x3a9c3efa	0.0011920624
147	0xbbd0bddb	-0.006370289
148	0xbb4f389e	-0.003161944
149	0x3bd5081b	0.0065012104
150	0x38f446a2	0.00011647983
151	0x392d3c48	0.00016521022
152	0xbaf2f074	-0.0018534795
153	0xbbdb7378	-0.0066971146
154	0xbb040a36	-0.0020147688
155	0x3c099bac	0.0083989315
156	0x3949bf03	0.00019240011
157	0xbb8a8c39	-0.0042281416
158	0x3b59ede7	0.0033253373
159	0xbbcaac71	-0.0061851074
160	0xbbfe79e4	-0.0077659953
161	0xbae7c612	-0.0017682931
162	0xbb1bcb4c	-0.0023772297
163	0xba042092	-0.0005040254
164	0xbbb80cc0	-0.0056167543
165	0x3bbeceea	0.005823006
166	0x3bbcef7d	0.005765854
167	0x3b8ad8ba	0.0042372616
168	0xbb20f26d	-0.002455856
169	0xba54ce76	-0.0008117923
170	0x3baaf6da	0.0052174153
171	0xbad09036	-0.0015912119
172	0xbbb8d8d8	-0.005641084
173	0xbb2ab4bb	-0.0026047665
174	0x3a86926d	0.0010267027
175	0x3b895c20	0.0041918904
176	0xb8dc4bfe	-0.00010504572
177	0x3b7b3bdb	0.0038335237
178	0x3a515b68	0.0007986338
179	0xbb7f0ff7	-0.0038919428
180	0xba848e12	-0.0010113141
181	0x3b88f9e2	0.004180179
182	0x3bb4b51f	0.0055147554
183	0xba99f4e1	-0.0011745953
184	0x3ad2440f	0.0016042012
185	0xbb3b3cae	-0.0028570103
186	0x3be59680	0.0070064664
187	0xbac06a3b	-0.0014680097
188	0xbb1ca1db	-0.0023900184
189	0xb8a9213f	-8.0647405e-05
190	0xbbc85845	-0.006114038
191	0x3bf1713e	0.007368236
192	0xbaf481ea	-0.001865444
193	0xbbc73b7c	-0.006080089
194	0xbb846714	-0.004040608
195	0xbb41b339	-0.0029556288
196	0xbbb7a43f	-0.0056042965
197	0x3b7ecab2	0.003887814
198	0x3b25b5a9	0.002528528
199	0x3b9e8180	0.004837215
200	0xba8d0454	-0.0010758736
201	0x3bbbba0d	0.005728966
202	0x3a675e7a	0.0008826029
203	0x3af4bff3	0.0018672928
204	0xbb7a1df6	-0.003816483
205	0xbb8d20a1	-0.004306868
206	0xbaff0c6b	-0.0019458657
207	0x3b483fc3	0.0030555583
208	0xbbbc5926	-0.005747932
209	0x3a26fbb2	0.0006369903
210	0x3beba7e4	0.007191645
211	0x3ad25708	0.0016047666
212	0xba4a700e	-0.0007722386
213	0xbb6693ba	-0.0035183267
214	0xbacd976f	-0.001568539
215	0xbae23cc5	-0.0017260542
216	0xbbb9c735	-0.0056694993
217	0x3b83633e	0.0040096333
218	0x3b912f57	0.004430692
219	0xbb0b986a	-0.0021300563
220	0x3aec555d	0.0018030811
221	0x3b0256c6	0.0019888147
222	0xbbbbdb56	-0.005732934
223	0xbbea3814	-0.0071477983
224	0xbacbcfd5	-0.001554961
225	0x3a351c0d	0.0006908782
226	0xbbcbdbf5	-0.0062212893
227	0xbad16fbe	-0.0015978736
228	0x3a6852dc	0.00088624447
229	0xbb1c0813	-0.0023808524
230	0x3a3b079e	0.0007134619
231	0x3ad694dc	0.0016371268
232	0x3992324c	0.00027884764
233	0x3b3605f4	0.0027774544
234	0xbb743bab	-0.003726701
235	0x3a16c930	0.0005752025
236	0x3bab0880	0.005219519
237	0x39d2b028	0.00040185568
238	0xbbc5c7c5	-0.0060357773
239	0xbb859c28	-0.004077453
240	0x3bd50dec	0.0065019038
241	0x3989de14	0.00026296137
242	0xbb35413e	-0.0027657296
243	0x3b515a08	0.0031944532
244	0x3aab8d97	0.0013088462
245	0xbacf7299	-0.0015827
246	0x3bc930a4	0.0061398316
247	0xbaf6182e	-0.0018775517
248	0x39abfa5a	0.00032802188
249	0xbb0f5676	-0.0021871603
250	0x3a0664b1	0.00051266985
251	0x3a1cee35	0.00059864233
252	0xbba28a42	-0.0049603293
253	0xbbc7773d	-0.0060872124
254	0xbb515a5c	-0.0031944728
255	0xbb2bb7d6	-0.0026202104
