ddpg/model_params/tpcc_ddpg_7_15_critic.pth (torch, 379178 bytes, 17 tensors)

state_input.weight f4 [128, 65]
000000 8b 84 87 bc c6 ba 05 bc 8f 70 06 bc e8 0d 94 3c
       -0.016542694 -0.008162206 -0.008205547 0.018073037
000010 41 5e 4f bc df 6d 0f 3b 61 c7 e1 3b f2 18 70 3c
       -0.012656749 0.0021885557 0.006890223 0.014654385
000020 64 e9 e0 3b 3e 8f d4 3b fd b8 9b 3c 01 50 45 bc
       0.00686376 0.0064868024 0.019009108 -0.012043
000030 b6 78 8b bb 12 29 b3 3c 90 95 9f 3b 25 35 50 3b
       -0.004256333 0.02187017 0.004870124 0.0031769958
000040 c1 7d 7b bc 50 0d a3 bc 31 48 19 bc b3 d5 89 39
       -0.015349806 -0.019903809 -0.009355591 0.00026289895
000050 c9 6b 02 3c c4 54 a2 bb 10 6f 72 3c 97 28 e3 3b
       0.007960268 -0.0049539525 0.014796987 0.006932329
000060 6a 2a c4 3b ae 2a 06 bc b8 bb b4 bb e4 47 bc bb
       0.0059865015 -0.008188887 -0.005515542 -0.0057458747
000070 30 da ba bc a3 69 22 3c e4 b9 0b bb 92 54 ec bb
       -0.022809118 0.009912881 -0.0021320516 -0.00721223
000080 1b 6f 0b bc a6 ef cc 3b 42 6f 3c 3b ed 9e 21 bb
       -0.008510376 0.0062541543 0.0028752838 -0.0024661378
000090 e4 38 88 bc 97 47 2e 3c 7e f4 6d bc 72 1c af 3b
       -0.01662869 0.010637186 -0.0145236235 0.005343967
0000a0 97 7e d2 3a 0e 3d b1 3b c2 c5 cb b9 96 fe 28 bb
       0.0016059455 0.0054088896 -0.00038866518 -0.002578651
0000b0 54 18 8c bc d2 5c 4a bb f8 b6 9a bb e0 ec 5a 3c
       -0.017101444 -0.003087808 -0.0047215186 0.013362139
0000c0 0a 03 81 bb c0 8d bc bb 7b 7e eb 3a d8 4f 89 bb
       -0.00393713 -0.0057542026 0.0017966771 -0.0041904263
0000d0 cd fe 04 bc a7 82 f4 ba 74 85 82 3b f2 12 84 bc
       -0.00811739 -0.001865466 0.003983194 -0.016122315
0000e0 db 3d dd b8 57 3c 70 3c 06 76 3c 3b 80 51 ae 3b
       -0.00010549623 0.014662824 0.002875687 0.005319774
0000f0 f0 22 1f bb 78 85 8a bb 9d 34 7b 3c 8e 81 3a 3b
       -0.00242823 -0.0042273365 0.015332368 0.0028458568
000100 01 f6 f4 b7 38 25 2c 3b 5b 7e 99 bb a1 06 61 3b
       -2.9201621e-05 0.0026267301 -0.004684252 0.0034336227
000110 bd 25 11 3c 44 6c b2 3c 02 b8 72 3b 46 c7 7a 3a
       0.008859095 0.02178014 0.0037035947 0.0009566437
000120 60 0f 4c bc ce 73 99 bb 27 51 80 3c bc 41 91 bc
       -0.012454838 -0.0046829944 0.015663696 -0.01773154
000130 f7 ea e9 3a a4 62 0b bb b8 97 60 3c c2 2f 19 bc
       0.0017846514 -0.0021268511 0.013708048 -0.009349765
000140 89 97 42 bc 87 4b 9f bb 33 59 11 3b 9a 69 1b bc
       -0.011876949 -0.0048612985 0.002217841 -0.009485627
000150 12 67 f0 3c d4 4c b7 3b a2 c7 db bb 3e 84 89 bb
       0.029346023 0.0055938754 -0.0067071477 -0.0041966727
000160 a3 f1 1b 3c 6f 8f 5a bb 22 ad f2 3b fd 6d 13 bb
       0.00951806 -0.0033349653 0.007405893 -0.0022495978
000170 bd ec 5e 3b e0 de 56 3b a7 53 42 3c 9b f1 1c bc
       0.0034015619 0.0032786652 0.011860765 -0.009579088
000180 cc 90 78 3c db 97 55 bc 53 6e 39 3b 15 69 66 ba
       0.015171241 -0.013036693 0.0028294518 -0.0008789462
000190 84 6e 9c bb 9d ca 2d bc 6b c1 bc 3c 13 df 59 3c
       -0.0047739167 -0.010607389 0.023041448 0.013297814
0001a0 de 32 f2 3b 22 0e 14 3c fe a3 0b 3b e9 0d 57 bc
       0.0073913177 0.009036573 0.0021307464 -0.013125875
0001b0 f1 0e 0c 3c 49 e8 80 bc 91 09 02 bc 9b a1 0c bc
       0.008548484 -0.015735762 -0.007936851 -0.008583452
0001c0 fc 31 fe 3b 7d f0 7d 3b be 6e 20 bc eb 2e e9 bb
       0.0077574234 0.0038748079 -0.009792028 -0.0071161888
0001d0 31 15 9b bb 95 13 0e 3c ac 17 e5 3c c6 6c 07 bb
       -0.004732751 0.008671661 0.02796539 -0.00206642
0001e0 74 47 39 bb 94 a5 85 bc 37 73 2e 3a 87 83 e6 ba
       -0.002827135 -0.016314305 0.00066547416 -0.0017586806
0001f0 41 79 91 ba 09 37 09 ba b9 26 0a bc 24 d8 db 3b
       -0.0011098759 -0.0005234336 -0.008432084 0.0067091156
000200 4e 5e 70 3a 0d 81 9a bb b8 af 7b bc 6f 92 81 3b
       0.0009169326 -0.004715091 -0.015361719 0.003954224
000210 c6 70 81 3c a7 10 96 ba 2a 8f 7e bc 6c 56 19 3b
       0.015800845 -0.0011449055 -0.015537063 0.0023397459
000220 b5 bc 45 bc f7 34 75 3c b8 98 40 3b a7 fe 55 bc
       -0.012068917 0.014966241 0.0029387902 -0.013061202
000230 c1 aa 29 3c 37 30 50 bb 75 3e ba bc 1b 1e 5d b9
       0.010355652 -0.003176702 -0.02273486 -0.00021087418
000240 fe a6 35 3c cc 25 d8 bb 22 8c f1 39 64 98 53 3c
       0.011087177 -0.0065963026 0.0004607151 0.012914751
000250 83 cf ec 3b 8f 6b 5c 3c 57 b3 86 3b 7b 9b ac ba
       0.0072268858 0.013453378 0.0041107344 -0.0013168895
000260 c0 24 45 3b bc 12 2c ba 7e bb 3b bc 1d 6d e2 3a
       0.003008172 -0.0006564071 -0.011458276 0.001727495
000270 fe c3 76 bc 2e e6 4a bc 34 3c f6 3b 71 63 87 bc
       -0.015061377 -0.012383981 0.007514501 -0.01652691
000280 16 8f 1e 3b 0a 14 4d bb 35 f3 35 3b 14 9d b8 ba
       0.0024194173 -0.0031292462 0.002776337 -0.0014084899
000290 92 d4 81 bc 59 a6 97 bb ba 25 16 bc 98 11 af bc
       -0.015848432 -0.0046279845 -0.009164268 -0.021370694
0002a0 f3 64 61 b8 ce 84 bf 3b 65 7d ea bb b8 51 04 bc
       -5.3738197e-05 0.005844689 -0.0071560615 -0.008076124
0002b0 79 78 93 bc 21 d6 c1 b9 af 42 87 ba 20 54 3f bb
       -0.018001782 -0.00036971367 -0.0010319556 -0.002919443
0002c0 e0 32 f5 3b d0 4b d1 3b d2 89 88 3c 80 98 57 ba
       0.0074828714 0.0063872114 0.01666728 -0.00082243234
0002d0 2a 07 3f bc 2a de bb bb db 6a 03 bb 6a 14 24 3c
       -0.011659423 -0.005733271 -0.0020052704 0.010014633
0002e0 10 f2 8b ba a6 65 8b 3c 20 8e 70 3b b5 31 d1 ba
       -0.0010676999 0.017016243 0.0036705807 -0.0015960248
0002f0 da cd 21 3b f7 28 65 3c 27 a4 a6 bb be ab 82 bc
       0.0024689347 0.013986818 -0.0050854865 -0.015951034
000300 57 c8 00 3c 6f 15 41 bc 64 d6 ce bb 1e 48 c8 3b
       0.007860265 -0.011784895 -0.0063121784 0.0061121127
000310 b1 c1 90 bc fe 87 ff 38 3f 31 8f 3b 7c 77 0f bc
       -0.017670484 0.00012184678 0.0043698843 -0.008756515
000320 b9 78 4d 3b 30 af d0 bb f6 dc a0 3c fc ac ca 3a
       0.0031352474 -0.00636854 0.019636612 0.001546293
000330 c5 1c 23 3c 72 4c 7b 3b 41 ae a6 3c ab f7 ce 3b
       0.00995559 0.0038345126 0.020346763 0.0063161454
000340 fc 40 a8 bb d7 5e 69 39 4a 43 d4 3b 2c 6e 8d 3b
       -0.0051347 0.00022255942 0.006477748 0.004316112
000350 ff 11 93 3b c7 9b cc 3b c1 2c 5a bc 38 b5 2d 3b
       0.0044882293 0.006244156 -0.013316334 0.002650572
000360 eb a8 6a 3c 1c d5 0c bc 84 b7 46 3c 54 31 a5 bc
       0.0143225 -0.008595731 0.0121287145 -0.020165123
000370 d7 f0 ee 3b 94 c2 6f 3b ec 55 0e 3c c6 f0 5d 3c
       0.007291894 0.0036584483 0.008687478 0.013546174
000380 b8 c7 0b bc 55 6c b9 3a 9b 35 cb 39 94 6a 0c 3b
       -0.008531503 0.0014146665 0.00038759116 0.002142583
000390 24 c0 01 bd aa c4 29 3c f0 65 32 bb dc 1d 4c bc
       -0.03167738 0.01036183 -0.0027221404 -0.012458291
0003a0 b9 e3 60 3b bb 87 37 3c 52 09 17 3c be be 76 bc
       0.003431542 0.011201794 0.009218531 -0.015060125
0003b0 a1 79 29 3c 47 9f 90 3b 3c fa c1 bb 2d 66 1e ba
       0.01034394 0.0044135186 -0.005919723 -0.0006042447
0003c0 f8 82 f9 3a 02 10 4b bc c4 bc 64 bc 6b 1e cd 3c
       0.0019036224 -0.012393953 -0.013961021 0.025038918
0003d0 d7 ce 6a bb e5 ce 63 3b 3e c2 c6 bb db 96 91 bb
       -0.0035828853 0.003476077 -0.006065636 -0.004443032
0003e0 5c d8 26 bc 1b 50 2e 3c 65 0b 04 3c ee 29 f8 bb
       -0.01018342 0.010639216 0.008059357 -0.007573358
0003f0 0f 1f 80 bc 7e 08 1a bb ca 36 4e 3b eb 90 4b 3c
       -0.01563981 -0.0023503597 0.0031465762 0.012424688

state_input.bias f4 [128]
000000 60 24 f6 bc 25 80 95 bd 08 3e 90 bd 61 b0 c2 3d
       -0.030046642 -0.07299832 -0.070430815 0.09506298
000010 40 cd ee bc 03 ad 96 3d 4e df a0 bd 9b 8a ac bd
       -0.029150605 0.07357218 -0.07855092 -0.084248744
000020 c6 3e 75 3d f4 de f5 bc a8 2d 8a 3c 7a 99 40 3d
       0.05987432 -0.030013539 0.016867474 0.047021367
000030 10 f9 5d bc a0 2a c1 bc 4c 6c ae 3c 72 db bb bd
       -0.013548151 -0.023579895 0.021291874 -0.09172715
000040 6b d8 b3 bd d0 e7 11 bc 95 36 80 3d 36 74 a8 bd
       -0.08781513 -0.008905366 0.06260411 -0.082252905
000050 d4 2e 0d bd 2d a0 61 bd f2 ea 1b 3d 3a 23 51 3d
       -0.034468487 -0.055084396 0.03806586 0.051058985
000060 54 50 81 3c c0 d0 8d bd 86 e6 00 3d 8e dc 92 bd
       0.015785374 -0.069245815 0.031469844 -0.07170974
000070 0c 04 e7 3c c3 de 98 bd 50 6f 79 3c 52 e9 32 3d
       0.028200172 -0.074643634 0.015224293 0.043679543
000080 0a 29 66 3d 75 18 bc 3d 90 92 53 bc 53 d6 6f bd
       0.05619148 0.09184352 -0.012913361 -0.058554005
000090 88 9c 99 bd 57 f9 b2 bd c8 57 87 bc e5 d5 9e 3d
       -0.07500559 -0.08738964 -0.01652135 0.07755641
0000a0 7d 2f b5 3d 65 80 cb bd a1 90 98 3d 50 52 92 bd
       0.08846948 -0.09936599 0.07449461 -0.07144606
0000b0 3f 1d 98 3d c8 8b bb 3c e7 18 c6 3d ef 6c cc bd
       0.07427453 0.022893801 0.096727185 -0.09981715
0000c0 98 43 a5 bc 15 9d 93 3d 00 ed 8b b9 b0 6c 6b bd
       -0.020173833 0.072076954 -0.00026688725 -0.0574767
0000d0 c1 f6 97 3d ad 52 7e bd 80 0d cd bb 92 d6 0a 3d
       0.074201114 -0.062090565 -0.006257713 0.033896036
0000e0 a8 3b 5e 3c 50 e4 58 bd b0 66 bf 3b c0 22 79 bb
       0.013564028 -0.05295211 0.0058410987 -0.0038015097
0000f0 83 3d c0 3d 20 1a c2 bd 08 cf bf bd a4 d2 16 bd
       0.093867324 -0.09477639 -0.0936566 -0.036821976
000100 98 7b 16 bc 47 a6 b4 3d 2a e3 79 3d a0 65 02 bd
       -0.0091847405 0.088207774 0.061007656 -0.0318352
000110 99 d2 9d 3d 30 ab 75 bd 2e 98 6d 3d 9d 86 93 3d
       0.07706184 -0.05997771 0.058006458 0.0720341
000120 21 6a 8a 3d 7e 97 2d 3d f1 70 c5 3d e8 90 69 3c
       0.06758524 0.042380802 0.096406825 0.01425574
000130 80 9b 3f bc a7 1c 36 bd 8c 49 dc 3c 56 d0 88 bd
       -0.011694789 -0.04446092 0.026890539 -0.06680362
000140 54 26 f8 bc 52 92 2d 3d 2e c9 9b bd 40 9a ff bc
       -0.030291714 0.04237587 -0.07606731 -0.031201482
000150 20 88 98 bc 68 40 f0 bc 20 58 51 bd e1 17 b5 3d
       -0.018619597 -0.029327586 -0.051109433 0.08842445
000160 dd f0 31 bd 9a 7b 40 bd e4 8b 82 bd f6 35 30 3d
       -0.043442596 -0.046992876 -0.06374338 0.04302021
000170 f6 c3 77 3d 83 40 ca 3d 58 82 14 3c 97 a8 c2 bd
       0.060489617 0.09875586 0.0090642795 -0.09504812
000180 17 94 be 3d 3d 5a 23 bd ba 2b 4d bd 53 5f b8 bd
       0.0930559 -0.03988098 -0.05009053 -0.09002557
000190 20 08 d3 3b 00 45 b5 39 28 89 84 bd 53 d6 42 bd
       0.0064401776 0.0003457442 -0.06471473 -0.047567677
0001a0 e0 c2 97 3c a0 64 80 bb 72 c1 72 3d ca 7e 17 3d
       0.01852554 -0.0039182454 0.059266515 0.03698615
0001b0 ae 3b a0 bd 46 02 99 bd 2c 91 dc 3c 60 17 b4 bc
       -0.07823883 -0.07471137 0.026924692 -0.021983802
0001c0 73 a7 91 3d b2 26 26 3d cc cb e3 3c e0 28 93 3b
       0.071120165 0.040564246 0.027807139 0.0044909567
0001d0 90 c4 2f bd 6b 97 b2 bd 42 f6 73 3d 6a ea 44 bd
       -0.042912066 -0.08720287 0.05956102 -0.048075117
0001e0 ce 7a 03 3d 4c 80 d7 bc 37 e4 66 bd 32 b6 44 3d
       0.032099538 -0.026306294 -0.056369986 0.048025317
0001f0 c2 45 30 3d 79 79 95 3d c0 eb 50 bc d2 47 08 3d
       0.043035276 0.0729856 -0.01275152 0.03327162

action_input.weight f4 [128, 7]
000000 8e ba bc bb ab 68 43 bb db 8a cf 3b 52 d9 69 3c
       -0.0057595437 -0.0029817026 0.0063336915 0.014273005
000010 70 81 86 ba ca 1e 00 bc f0 97 77 3a f2 e2 9a bb
       -0.0010261964 -0.007819841 0.00094449427 -0.004726761
000020 5b bb 1f 3c 00 03 da ba de 0a 1f 3b 75 e1 4f bc
       0.009749259 -0.0016632974 0.0024267952 -0.0126880305
000030 8f 57 6c bc 37 13 9c ba 7d cd d9 bb 4f 3c 8e bb
       -0.0144251725 -0.0011907582 -0.0066468106 -0.0043406854
000040 f8 ec c2 bb a9 72 6c 3b d6 c8 09 3c 1c 8e b4 bb
       -0.005948659 0.0036079085 0.008409699 -0.005510105
000050 20 6f 62 bb 59 5c 7a ba 2e e0 55 ba 2f 7e 26 bb
       -0.00345511 -0.0009550504 -0.00081587106 -0.00254048
000060 22 6e 40 3a f6 49 2a bc e4 08 ae bb cf af 6a 3c
       0.000734063 -0.01039361 -0.0053111184 0.014324143
000070 91 e0 9f bc 7d f3 78 bc 20 aa dc 3c 79 9d df bb
       -0.019516261 -0.015194771 0.02693659 -0.006824192
000080 64 31 b7 bc 61 33 3d bb 98 f7 df 3b d9 b0 9a bc
       -0.022362418 -0.0028869736 0.0068349354 -0.018883156
000090 cf f0 34 bc 4d 28 30 3c bb af 07 3b 91 94 15 bb
       -0.011043741 0.010751796 0.0020704109 -0.0022824148
0000a0 da 97 07 bc db 46 98 bb fe 77 05 3c 9b 0a e2 bb
       -0.00827595 -0.0046471185 0.008146284 -0.006898237
0000b0 f0 e5 3d 3b 49 6e 8c 3c bc 8b 72 3c 8a 88 4d 3c
       0.0028976165 0.017142432 0.014803823 0.0125447605
0000c0 06 b0 8c bc 54 28 de ba 23 35 7a bb ea 9f 50 bc
       -0.017173778 -0.0016949275 -0.0038178645 -0.012733439
0000d0 ca 58 b2 bc 1b 80 dc bb 7e d8 5d 39 b9 4d 56 3c
       -0.021770854 -0.0067291385 0.00021156852 0.013080054
0000e0 87 1d c5 bb 3d 36 14 bc 90 d4 53 3a c2 25 2f 3c
       -0.006015483 -0.009046135 0.00080806855 0.0106901545
0000f0 e2 c2 86 bb 1c 0b 2b 3c 24 69 e4 3a 17 ed 50 3c
       -0.0041125873 0.01043966 0.0017426354 0.012751839
000100 2b c8 48 3a 10 a9 e2 bb 2d 56 19 bb 90 0a 0f bc
       0.0007659222 -0.0069171265 -0.0023397312 -0.008730546
000110 04 63 99 3a 17 81 83 3b 0d 87 80 3c 5b ff d2 3a
       0.0011702483 0.0040131914 0.015689397 0.001609783
000120 61 cf 4a bc 53 49 31 bc 06 40 04 bb 42 1b 60 bc
       -0.012378545 -0.0108207045 -0.0020179763 -0.013678374
000130 e4 b4 85 3b 85 bd 65 3c 05 1e af bb b0 ac a8 bc
       0.0040804017 0.014022236 -0.005344155 -0.020590156
000140 24 e9 16 bc e1 5d 89 bc b8 81 fa 3b db ad a2 3b
       -0.0092108585 -0.016768398 0.007644858 0.004964573
000150 73 10 80 bc f7 d0 08 3c 97 2e a4 bc 5b f1 6d bb
       -0.015632844 0.008350602 -0.020041747 -0.003630719
000160 da 7b 92 3c 27 1f fe 39 94 b7 8a bb bb 2f 0a 3c
       0.017881323 0.00048469866 -0.00423331 0.008434231
000170 8c 58 fd bb 43 5b 9c bb f3 45 d7 ba 8f 1b 6e bb
       -0.007731503 -0.0047716214 -0.0016424045 -0.0036332344
000180 67 e6 bc 3a 18 f6 b5 3b 32 dd 41 3c b8 c0 41 3c
       0.0014411927 0.0055530183 0.011832522 0.011825733
000190 4c ff 10 bc 93 96 68 bc 37 38 30 3b 39 32 4b 3c
       -0.00884993 -0.014196056 0.0026888975 0.012402111
0001a0 cb 27 64 3a c6 24 89 3c d4 b0 60 3c 51 1b 21 bc
       0.00087034394 0.016741168 0.013714034 -0.009833173
0001b0 2a af 5d 3b 0b 6e 7b bb 18 57 79 bc 2e d9 e0 3b
       0.003382633 -0.0038365151 -0.015218519 0.0068618273
0001c0 04 e9 e4 3b f3 0c a4 3b 05 ee ad 3b 34 a2 c5 3a
       0.0069857854 0.0050064265 0.005307915 0.0015078248
0001d0 00 e8 85 bb 9f 51 9a 3c e1 8a 86 3a 62 b2 19 3c
       -0.0040864944 0.018837748 0.0010264778 0.009380909
0001e0 d2 be 5d 3c 14 1f 56 bc 1d 09 45 bb c6 35 51 bc
       0.013534265 -0.013068933 -0.0030065246 -0.012769168
0001f0 97 9b 27 bc ac b8 e9 3a d6 6d 24 bb 34 1e 9b ba
       -0.010229967 0.0017831526 -0.0025089881 -0.0011834563
000200 6a 1f 93 3c ba b9 a0 bc 65 ef 7a bb 27 ba 21 bc
       0.017959315 -0.019619811 -0.0038289663 -0.009871042
000210 42 bd 9b bb 67 ed 08 3c 59 ed 08 3b 5c d7 a7 bb
       -0.004752786 0.008357382 0.0020893423 -0.0051221084
000220 5b ac 07 3a eb 0d 12 3c ed 10 4c 3c 25 e6 e3 bb
       0.0005175524 0.008914451 0.012455207 -0.0069549256
000230 1e fd a6 3a c0 d8 69 bc 82 8c 48 bc ce 94 69 b9
       0.001274023 -0.014272869 -0.012240531 -0.00022276046
000240 cd c5 08 3c ca c1 06 3c fe 2e 37 3c 41 f4 01 bb
       0.008347941 0.008224914 0.011180637 -0.0019829425
000250 1c 6a 76 bc 82 de b4 ba be a4 45 ba f8 c4 d5 3b
       -0.015039947 -0.0013799223 -0.0007539502 0.0065237246
000260 c1 60 b7 bb 40 b6 7b 3b 5c 66 a3 3b 5c 42 70 3c
       -0.0055962508 0.003840819 0.0049865674 0.014664259
000270 6e 6b 88 3c 93 90 0f bb b2 25 67 bb a7 d9 d0 3b
       0.016652789 -0.0021906241 -0.003527027 0.0063736024
000280 ef 33 4b 3b 6c d2 e2 bb d0 f4 f7 3b 24 1b 3c 3c
       0.0031006297 -0.006922057 0.0075670257 0.01148108
000290 2d 01 88 3b 0e 91 3a bc df bd 09 bc 19 65 3e bc
       0.004150531 -0.011387123 -0.008407085 -0.011620783
0002a0 61 c6 d2 3b 87 8e bf 3b cb ea 88 bb 62 31 7a 3c
       0.00643234 0.005845848 -0.00417838 0.015270563
0002b0 5d 05 2b ba c6 35 15 3c 98 fd f9 bb e1 0e 82 bb
       -0.00065239315 0.009107059 -0.0076291077 -0.003969059
0002c0 66 7f 36 3c e9 a1 0e bc 8f df 40 bb 74 00 45 bc
       0.011138773 -0.008705595 -0.0029430126 -0.012024034
0002d0 c6 35 58 bb 44 9f aa bb 3b 05 51 3a 29 c6 cb 3b
       -0.0032991036 -0.005206974 0.00079734967 0.006218691
0002e0 df 9f 80 3b 7c 32 b9 3a 9d 5b ca 3a ab 53 5f bb
       0.003925308 0.0014129425 0.001543868 -0.003407697
0002f0 df 12 8b bb 8f 54 c0 bb 6d 10 4c bb 3e d1 20 3c
       -0.004244193 -0.005869455 -0.003113772 0.009815512
000300 14 58 0b ba 70 ab f8 3b 92 d1 aa 3a f5 b6 42 bc
       -0.0005315554 0.0075887963 0.0013032428 -0.011884441
000310 b9 27 99 3a 1d 3c 1e bb 65 5d 3d 3c dd d8 1e bc
       0.0011684812 -0.0024144717 0.0115579115 -0.009695259
000320 d7 19 5d 3c 52 f6 39 ba 17 7e ee ba f2 1a 09 bc
       0.01349493 -0.00070938945 -0.0018195537 -0.008368241
000330 b6 ed 8c bc aa 66 fa bb 25 76 42 3a b0 58 a0 3b
       -0.017203193 -0.007641633 0.00074181176 0.004893385
000340 53 08 70 3b fb f6 59 3b 4a 6d d3 3b 4d 89 87 bc
       0.0036626055 0.0033258784 0.0064522373 -0.016544962
000350 c1 f2 d2 bc 39 47 8f 3b 09 4b e9 ba f3 d1 d2 ba
       -0.02575052 0.004372504 -0.0017798851 -0.0016084298
000360 d2 07 02 3c d6 7c 2c 3c 65 e9 f5 bb 98 b6 d0 bb
       0.007936435 0.01052781 -0.0075046294 -0.006369423
000370 d5 b9 71 bc 47 16 7d bb 78 72 ed bb ee 24 b6 bb
       -0.014753778 -0.0038618015 -0.0072463118 -0.0055586016
000380 92 1d ad 3b 9e 34 89 3c 74 64 b0 bc 14 2d 73 bc
       0.005283066 0.016748723 -0.021532275 -0.01484229
000390 72 52 9e b9 32 90 35 bb d0 18 0e 3c c2 6d 47 bc
       -0.00030197535 -0.0027704355 0.008672908 -0.012172164
0003a0 fb cd 78 bc aa 9a fa bb a5 90 55 3b c2 b4 30 3c
       -0.015185828 -0.007647832 0.0032587436 0.0107852835
0003b0 ec 86 5c 3c cd 2e be 3c 3d 81 31 3c 75 2c 0c 3b
       0.013459902 0.023215676 0.010834035 0.0021388803
0003c0 51 59 1a 3c 14 81 6e 3a 29 44 78 bb f7 68 80 bb
       0.009420709 0.00090982136 -0.0037882423 -0.003918763
0003d0 e0 6c 5e bb 89 c6 f8 bb 0a 4b 8b bc f1 b8 19 bb
       -0.0033939406 -0.0075920266 -0.017003555 -0.002345618
0003e0 f5 fc 51 bc 75 cb d0 bb a2 77 2f bc 2f 90 ef ba
       -0.012816657 -0.00637191 -0.010709675 -0.0018277223
0003f0 37 06 7a 3a 53 5b c7 3b ee e0 63 3a a6 f9 26 3c
       0.0009537669 0.0060838847 0.000869288 0.010191357

action_input.bias f4 [128]
000000 e3 50 77 bd d0 9a 6f bd e3 86 b6 3d a0 d6 1c bd
       -0.060379874 -0.05849725 0.08912446 -0.03829062
000010 9e d9 53 3d 2e e2 5c 3d 2c af 08 bd d4 22 83 bd
       0.051721208 0.05392664 -0.033370182 -0.06403127
000020 e8 91 c9 bc 55 9a bc bd 1b 21 bd bd 80 a2 3e bd
       -0.024605706 -0.09209124 -0.0923483 -0.04654169
000030 00 21 78 3c fb 2f cc bd cc d5 9a 3c 30 8d c6 bd
       0.015144587 -0.09970089 0.018900774 -0.09694898
000040 a3 1a 27 bd 00 f0 6a b8 48 17 8e bd 97 0f b2 3d
       -0.040796887 -5.6013465e-05 -0.06938034 0.0869438
000050 a1 c6 a8 3d ef dc bc 3d 9a 41 6d bd dd a3 80 3d
       0.082410105 0.09221827 -0.05792389 0.062812544
000060 65 9c a0 bd e3 4d 96 bd 6e 98 5f 3d 70 81 79 3c
       -0.0784233 -0.073390745 0.054588728 0.015228614
000070 2b 08 8a 3d 8d e5 49 bd 5d e5 6b bd 5b f5 b2 bd
       0.06739839 -0.049291182 -0.057591785 -0.08738204
000080 f4 43 08 bd d8 61 38 3c 5f 1f 9d 3d c6 d5 18 3d
       -0.03326793 0.0112537965 0.07671999 0.037313245
000090 62 56 23 3d a3 c3 5d bd c0 25 64 bb b3 a5 b7 bd
       0.039877303 -0.05414165 -0.003481254 -0.089671515
0000a0 8e c4 18 3d 2a 49 b2 bd 31 09 c6 3d 6e a9 2d 3d
       0.037296824 -0.08705361 0.09669722 0.04239791
0000b0 2f 2b a6 3d c9 ac b3 3d c5 e9 a0 3d 27 b4 2f bd
       0.08113705 0.087731905 0.07857088 -0.042896416
0000c0 00 11 a8 bc f2 a7 9d bd 8c c5 f1 bc 62 fe 05 3d
       -0.020515919 -0.07698049 -0.029513143 0.0327133
0000d0 d0 12 cd bb f0 0a 23 bc a9 ef 86 3d b4 3b d5 bc
       -0.006258346 -0.009951338 0.0658868 -0.026029445
0000e0 79 32 c5 3d e0 d5 97 bb 26 55 05 bd e3 4f a6 3d
       0.096287675 -0.00463365 -0.032551907 0.08120706
0000f0 98 8a 92 bd 87 23 c1 bd 71 08 82 3d 00 d5 27 ba
       -0.07155341 -0.094306044 0.06349266 -0.0006402284
000100 bd 1a a9 3d a5 89 b5 bd 95 a4 b4 3d 66 6e 35 3d
       0.08257053 -0.08864144 0.08820454 0.044294737
000110 68 c6 8f bd aa 02 0e bd ed b9 c8 bd 30 dd d9 bb
       -0.07020265 -0.03467051 -0.098010875 -0.006648682
000120 4b 47 c8 3d 0b 84 a1 3d 40 2f 6e 3b c6 af 7e 3d
       0.09779223 0.07886513 0.003634408 0.06217935
000130 da ba 45 3d bd 78 29 bd d8 18 10 3c 58 17 9b bd
       0.0482739 -0.04137491 0.008794986 -0.07572812
000140 95 b1 82 3d 60 95 9d 3b 00 0b 0a bb 4a f2 25 3d
       0.06381527 0.0048090667 -0.0021063685 0.040514268
000150 20 20 b3 bc 15 1d bd bd 47 14 9e 3d 40 b8 48 bc
       -0.021865904 -0.092340626 0.07718711 -0.01225096
000160 f1 ed 92 3d 52 2e 0a 3d 36 e2 a0 bd 2b b1 91 3d
       0.0717429 0.03373558 -0.07855646 0.0711387
000170 d9 f9 a4 3d 0a d0 3f 3d e0 01 89 3b 5d 65 ae bd
       0.08055467 0.04682926 0.0041811317 -0.08515427
000180 a8 73 1e 3c f5 7c 87 3d 3a be 6b 3d ba 50 7c bd
       0.009671129 0.066156305 0.05755446 -0.061600424
000190 ae e7 5a 3d 94 49 b6 bc 6f 9c cb bd 84 70 11 bd
       0.053443603 -0.022251882 -0.09941947 -0.035507694
0001a0 82 21 6a 3d 93 42 c6 bd 6b 63 cc 3d b9 06 a3 3d
       0.05716086 -0.09680667 0.099799 0.079602666
0001b0 eb bf a2 3d 95 b8 85 3d 9a de 6f 3d f3 a3 96 bd
       0.07946762 0.06529347 0.0585619 -0.073554896
0001c0 0c 32 03 bd 58 26 b9 bd 90 98 25 bd 57 1d b9 bd
       -0.03203015 -0.090405166 -0.040428698 -0.09038799
0001d0 64 10 ce 3c a0 57 ba bb f7 08 35 bd 8a 73 74 bd
       0.0251543 -0.0056867152 -0.044198003 -0.0596805
0001e0 30 3a 9a 3b a0 7e c5 3b a8 9d e7 bc 93 ba 70 bd
       0.0047066435 0.0060270578 -0.028273419 -0.05877168
0001f0 89 f3 92 3d 78 43 91 bd e8 ce 24 3c 52 fe 07 3d
       0.07175357 -0.07092947 0.010059096 0.033201523

layers.0.weight f4 [256, 256]
000000 25 e9 70 3c c8 a5 9a 3b 0a b7 56 bc c6 0e cb bb
       0.0147040235 0.0047194697 -0.013105163 -0.0061968295
000010 4b a8 a1 bb c2 09 e4 bb 02 c7 41 3b 45 c6 61 3b
       -0.004933392 -0.006959171 0.002956808 0.0034450453
000020 4e d7 5e 3a 98 aa 61 3c 55 96 e9 3a d0 ec 17 bc
       0.0008500711 0.013773583 0.0017821292 -0.009272769
000030 f5 b0 86 3c 06 33 61 bb 05 91 4c bb 26 4e 75 ba
       0.016441802 -0.0034362688 -0.0031214368 -0.00093576533
000040 bd b9 c8 39 33 0d 28 3b d6 92 a9 bb 67 3a 0b bc
       0.00038285358 0.0025642633 -0.005174975 -0.008497811
000050 10 8d d7 38 7f 34 85 bc 27 ed 27 bc 15 c0 16 bc
       0.00010278274 -0.016260384 -0.010249413 -0.009201069
000060 0f a0 d2 bb 56 9a 00 3c 66 91 6d bc bd d7 ba 3b
       -0.006427772 0.007849297 -0.014499998 0.0057019875
000070 69 3a 80 39 5b a0 eb 3b 7e 03 40 3c b7 fa c0 bb
       0.00024457581 0.0071907467 0.011719583 -0.0058892625
000080 87 7a 99 bc f4 fa b8 3a d3 19 26 bc 32 bb e0 bb
       -0.018735183 0.0014112876 -0.010137993 -0.006858253
000090 18 90 a2 bb eb b3 b9 3b e7 b8 b2 ba 25 04 04 bc
       -0.004961025 0.0056672 -0.0013635427 -0.008057629
0000a0 e1 5a ac bb 0e f0 d9 3b 2b bc 84 ba f8 27 f7 bb
       -0.005259857 0.006650931 -0.0010126879 -0.0075426064
0000b0 50 cd 87 3c 33 ed 12 bb 2f 1e 5b bc 32 11 68 3c
       0.016577393 -0.0022419214 -0.013373896 0.014164256
0000c0 22 02 bf 3b 7e e1 de 3a de 37 a4 3b b5 2c 8f ba
       0.0058291117 0.0017004458 0.0050115427 -0.0010923358
0000d0 cc 04 9b 3a 59 95 c1 bb 54 62 20 bc 54 ab 58 bc
       0.0011826991 -0.005907696 -0.009789068 -0.013224442
0000e0 22 27 67 bb ab ef e8 3b 98 c5 84 bb 04 2b 84 bc
       -0.0035271128 0.007108649 -0.0040518753 -0.016133793
0000f0 cb 1c 00 39 49 9a a6 bc 7c 55 2f 3c de 34 5a bc
       0.00012217757 -0.02033724 0.010701533 -0.013318269
000100 de b6 d7 ba eb 83 09 3c 52 9a 4d 3b 68 d0 15 bb
       -0.0016457697 0.008393268 0.00313725 -0.0022859816
000110 c7 e2 34 bb 9d 30 a8 bc eb 6d 47 3b 20 4a 01 bc
       -0.002760099 -0.020530993 0.0030430506 -0.007891208
000120 c0 ce 68 bb 22 97 34 3c 09 b4 41 3c 1c 21 23 3c
       -0.0035523623 0.011022361 0.011822709 0.009956624
000130 50 65 12 3b b0 fc dd bb 9e fa 49 bc 54 8b 8d bc
       0.002233822 -0.0067745075 -0.012327818 -0.01727835
000140 57 46 59 bc ec c1 5b bb 62 05 1d bc c9 e5 93 bc
       -0.013261399 -0.0033532334 -0.009583803 -0.018053906
000150 99 a6 a2 3c f8 f2 32 39 05 55 7c bc 29 7d ac bc
       0.01985483 0.00017065916 -0.01540113 -0.021055775
000160 02 b4 a3 3c 70 21 58 3c fb d8 55 bc 1c e1 e5 3a
       0.019983295 0.013191566 -0.01305222 0.0017538401
000170 b6 90 0a b9 05 b5 49 bc 45 db 40 bc b0 bc e1 3b
       -0.00013214615 -0.012311225 -0.011771028 0.0068889484
000180 f6 72 85 bb ab fd 71 3b 30 c1 a6 bc ce fd 9c 3c
       -0.0040725423 0.003692488 -0.02035579 0.019163992
000190 38 f1 77 3c 35 95 ba ba d4 d8 b8 3b c5 73 54 bc
       0.015133195 -0.0014235141 0.0056410823 -0.012967055
0001a0 7e 87 57 3c a1 39 5b 3b 94 1a 7f bb 30 c5 81 bc
       0.013154862 0.0033451098 -0.0038925754 -0.015841097
0001b0 c2 11 0c 3c bb 21 be bb bb 7f 88 bb ec 5c fb 3c
       0.008549156 -0.005802361 -0.0041656173 0.030683957
0001c0 1b 82 a5 3c 30 2f 09 bc f9 31 52 3c e9 ef 28 ba
       0.02020364 -0.008373067 0.012829297 -0.0006444441
0001d0 97 7e 19 3c 74 fc 83 3c 92 33 41 3b 19 74 99 3c
       0.00936856 0.01611159 0.0029480201 0.018732117
0001e0 9d 37 e1 3a 13 72 98 3c bd 26 61 bc d9 85 c2 bb
       0.0017182712 0.018609082 -0.013742146 -0.005936366
0001f0 9e 0c 77 bb 27 eb d0 bb e4 fe 2f bc 9e bd 73 3b
       -0.003769673 -0.0063756886 -0.010741923 0.0037191878
000200 f1 07 98 bc f2 7a 1a 3c a9 32 3e 3b e7 dc 2e bc
       -0.018558474 0.0094287265 0.0029021895 -0.010672784
000210 8f 30 32 bb 1e b6 1a bc 1e 0b f3 bc b9 ca 55 3c
       -0.0027189588 -0.009442834 -0.029668387 0.013048821
000220 17 9d ad bb 45 8b b5 3b cf 69 ed bb 14 36 6e bc
       -0.0052982676 0.005540284 -0.0072452794 -0.01453926
000230 2b 9f d5 3c c2 e2 36 3c 9d 8f 3e bb 8b d2 6c 3c
       0.026076874 0.011162462 -0.00290773 0.014454494
000240 ec cb d3 bb bc 7e 71 bc a8 00 9f bb bf 44 13 bb
       -0.0064635184 -0.0147396885 -0.004852373 -0.0022471396
000250 fe 3e 0c bc fb 58 fb 3b 50 8a 02 bc d9 07 25 bc
       -0.00855994 0.0076705194 -0.007967547 -0.010072672
000260 eb 27 01 3a 52 eb ca bb 7e 14 8d 3c c7 0a 1c bb
       0.0004926908 -0.006192603 0.017221685 -0.0023810135
000270 b5 c6 db bb 7c 0c ba bc e4 be af 3a 04 57 3f 3c
       -0.0067070373 -0.022711031 0.001340833 0.011678461
000280 87 56 5b bc 33 f9 cb 3b a7 28 e2 3b 74 86 22 bb
       -0.013387329 0.006224775 0.006901819 -0.0024799379
000290 4b b5 96 bc 1e ef 29 3c ad df 20 bc 0d 13 8c bb
       -0.018396994 0.010371951 -0.009818953 -0.004274732
0002a0 86 c2 13 bb d4 d6 50 3b 50 9b ae 3b 6e a5 cc 3b
       -0.0022546365 0.0031866329 0.0053285733 0.0062453067
0002b0 18 5a 01 bc 09 ce 7b 3a 63 5f 70 3c ed 75 22 bc
       -0.007895015 0.0009605592 0.0146711795 -0.009915811
0002c0 44 93 4d bc 10 10 5f 3c 2b 70 cf bb 40 87 ec bb
       -0.012547318 0.013614669 -0.00633051 -0.0072182715
0002d0 8d fe 43 3c bd 37 db 3b eb d4 8b bb 27 8d bd 3a
       0.011962545 0.006689994 -0.004267325 0.0014461622
0002e0 39 f4 a6 3b 46 db c3 bb 89 38 0d bc 92 5f f7 ba
       0.0050950316 -0.005977067 -0.008619436 -0.0018873087
0002f0 62 c7 4f 3b 75 17 52 bc 1b fb b0 bb 70 43 e3 3a
       0.0031704535 -0.012822975 -0.005401028 0.0017338824
000300 78 e4 2f 3c e0 a8 95 b9 0d 7c 2b bb 9c 7e dd 3b
       0.010735624 -0.00028545316 -0.002616647 0.006759478
000310 cc 09 d9 3a a0 cc 73 bc 81 34 8f 3c 6f 6a 35 3c
       0.0016558706 -0.014880329 0.01748109 0.011072739
000320 00 47 f5 ba 9d 1d 2b 3b 2a 69 7d bc e1 1d e2 39
       -0.0018713176 0.002611018 -0.015466968 0.0004312834
000330 23 73 71 bc 19 c4 00 bc 45 0a c1 bb f9 e6 08 bb
       -0.014736923 -0.007859253 -0.005891117 -0.0020889624
000340 35 36 51 3c e2 f9 06 bc 27 a5 96 b9 e7 e2 5d bc
       0.012769272 -0.008238288 -0.00028733278 -0.013542867
000350 1b b0 c3 3b cd 7d ba bb b3 64 d7 3b ff 3c 05 3b
       0.005971921 -0.005691266 0.0065732836 0.0020330546
000360 40 7d 8e 3c db 4e ad 3c 53 e5 de bb 36 c1 2c 3c
       0.017393708 0.021155765 -0.00680224 0.010544112
000370 d6 eb 26 bc 17 68 58 3b 73 04 d9 bb 38 09 d1 39
       -0.010188064 0.0033021027 -0.006622845 0.00039870455
000380 67 7b e7 bb 18 79 f6 bb d3 e9 a9 bb 4f cf 7e 3b
       -0.0070642713 -0.0075217597 -0.0051853447 0.003888089
000390 2b 3a 0b bc e1 de eb 3b 0b 00 1d 3a 18 ed d6 3b
       -0.008497755 0.0071982 0.0005989081 0.0065590255
0003a0 17 ea ff 3a 6f 01 90 3b 39 12 28 3c 05 53 51 bc
       0.001952472 0.004394702 0.010258251 -0.012776141
0003b0 77 28 76 bc a5 92 3e bb 11 24 15 bb 86 7c 5b 3b
       -0.015024296 -0.0029079106 -0.0022757093 0.003349097
0003c0 a2 69 ba 3b 4a c1 d0 bb ea c8 47 bb 2e 17 9d 3a
       0.005688862 -0.006370698 -0.0030484744 0.0011985057
0003d0 41 97 4a 3c 72 fe 4f bb a5 c5 75 bb b4 72 ed bb
       0.012365163 -0.0031737355 -0.0037501839 -0.0072463397
0003e0 39 ff e8 bb 47 81 5b 3b 4b f2 ba bb af d5 15 3b
       -0.007110503 0.0033493803 -0.005705153 0.002286296
0003f0 38 a6 b8 3a 94 d3 b8 bb 8e 14 3c 3c e2 57 32 bc
       0.0014087623 -0.0056404565 0.01147951 -0.010885211

layers.0.bias f4 [256]
000000 e3 7e 8c 3d 66 57 2a 3d 2b 63 b8 3d c9 c3 86 3d
       0.06860139 0.041587256 0.0900329 0.06580312
000010 d8 d2 ce bc ed f2 73 bd 98 8e 6e 3c f2 a3 21 3d
       -0.025247023 -0.059557844 0.014560364 0.03946299
000020 a5 4f 9a 3d c7 3a 4a bd 58 95 9c bd 58 0d 7d bc
       0.07534722 -0.04937246 -0.076456726 -0.015445076
000030 30 fd 03 bc c0 f6 c9 bd 88 c3 c4 bc b0 74 2a bd
       -0.00805597 -0.09861517 -0.024019018 -0.041615188
000040 94 26 cc 3c 77 a9 45 bd d7 cd af 3d d3 ff a6 bd
       0.02492074 -0.048257317 0.08584183 -0.08154263
000050 dd ff be bd 23 39 4c bd c9 12 b5 3d 48 12 d5 bc
       -0.09326146 -0.049859177 0.088414736 -0.026009694
000060 b8 b4 bc bc 83 84 2e bd fd a2 a8 bd 93 6b 40 bd
       -0.023035392 -0.04260684 -0.082342125 -0.04697759
000070 82 e9 84 bd ed c2 c3 bd c4 3f fb 3c 30 21 5f bc
       -0.064898506 -0.095586635 0.030670054 -0.013618752
000080 70 c2 65 bc ce 67 52 3d 1a f4 02 bd 5d 31 28 bd
       -0.014023408 0.051368527 -0.031971075 -0.0410627
000090 2f 98 c1 bd 10 a9 8f bd 47 ce 24 bd 30 06 d1 3b
       -0.09452855 -0.07014668 -0.040235784 0.0063789114
0000a0 40 cd 9e bc a0 5a f3 bc 98 5f 5d bc 50 4c 02 3c
       -0.01938498 -0.0297063 -0.013511561 0.007952765
0000b0 3d d7 1c bd 2a 0d 06 bd 14 58 fa bc b1 9a 97 3d
       -0.038291205 -0.032727398 -0.030559577 0.07402552
0000c0 a3 bb ca 3d 60 07 4a 3b c0 ec 5e bd 80 39 b7 3c
       0.0989907 0.003082715 -0.054425 0.022366285
0000d0 60 c4 c8 bb e6 0e 09 bd 80 d1 30 3c a0 e2 b0 bd
       -0.0061269253 -0.033461474 0.010792136 -0.08636975
0000e0 d4 c8 ee bc 36 a8 8c bd f5 f8 a3 bd 22 5b 77 3d
       -0.029148497 -0.06868021 -0.08006469 0.060389645
0000f0 6d 58 ac bd 63 51 1e bd c0 d4 00 bd dd 22 a3 3d
       -0.084153034 -0.038651835 -0.031452894 0.07965634
000100 a9 24 bd 3d 34 aa 94 bc 51 67 cb 3d 10 d5 4c 3c
       0.09235508 -0.018147565 0.099318154 0.01250197
000110 72 6b 6c 3d 9b e4 b1 bd d8 29 2e bc 37 38 cb 3d
       0.057719655 -0.08686181 -0.0106300935 0.099228315
000120 70 71 23 3c 14 a8 da bc d2 f6 26 3d 03 e6 4a bd
       0.009975776 -0.026691474 0.04076273 -0.049535763
000130 00 b8 84 3b c0 c9 2d bb 56 37 16 3d ee 0d 57 3d
       0.004050255 -0.0026517957 0.036673866 0.05250352
000140 54 42 aa 3c 70 8f 50 3c 32 2a 01 3d 1a f8 7e 3d
       0.02078358 0.012729511 0.03153438 0.062248327
000150 ce de 8d bd ac 03 8e 3c 72 0d 41 3d 35 cd a5 3d
       -0.06927262 0.017335735 0.047131963 0.08095781
000160 71 1a af 3d b1 33 a3 3d 00 d0 39 3c e9 3f b7 3d
       0.08549965 0.07968844 0.011341095 0.08947737
000170 27 32 21 bd 0a ec 18 bd 30 f5 a9 bd 2e d6 2d 3d
       -0.03935447 -0.03733448 -0.08298719 0.042440586
000180 f2 0c ad bd 6c 5f db 3c b6 0f 01 bd 2e 32 44 3d
       -0.08449735 0.0267789 -0.031509124 0.047899418
000190 aa 46 59 3d 1b ce a9 bd 6b aa b9 3d 6f a1 82 3d
       0.053045906 -0.082912646 0.09065708 0.06378447
0001a0 00 cc b8 b8 a9 f7 b7 3d e6 0d 0f bd f0 32 61 bc
       -8.811802e-05 0.08982784 -0.034925364 -0.013745055
0001b0 4b 1d 91 3d 65 97 9c bd 0a eb 59 bd 48 45 a2 bc
       0.07085665 -0.07646064 -0.053202666 -0.019808426
0001c0 b4 34 0d bd b6 3e 77 3d 94 db b9 bc 51 d7 81 3d
       -0.03447409 0.06036254 -0.02268771 0.063398965
0001d0 2a 43 0d bd 98 d5 1e 3c aa 5f 00 3d 01 27 af 3d
       -0.03448788 0.009694479 0.031341232 0.08552361
0001e0 0b 1c 9d 3d c5 f3 8f bd 33 f8 3e bd ad 05 6e bd
       0.076713644 -0.07028917 -0.04662342 -0.05811088
0001f0 21 7b a6 3d 34 75 f5 3c da 31 b5 bd 05 ac 94 3d
       0.08128954 0.029963113 -0.08847399 0.072593726
000200 a6 6e 2d 3d 0a f4 3a 3d 38 31 99 3c 8c e9 aa 3c
       0.04234185 0.04564289 0.018700227 0.020863317
000210 24 ed ce 3c 80 2a 2f ba 9f 9d 86 3d 22 fd 67 3d
       0.025259562 -0.0006682053 0.065730326 0.05663789
000220 17 28 c6 bd d0 13 5a bc 1a 21 c5 bd 00 2d ce bc
       -0.09675615 -0.013310388 -0.09625454 -0.025167942
000230 c0 37 8e bd f0 8c 52 bc 58 94 05 bc 57 f2 93 3d
       -0.06944227 -0.012850985 -0.008153044 0.07223957
000240 f7 69 8d 3d 76 b9 a6 bd 48 26 f7 bc 10 8f 5d bc
       0.06904977 -0.081408426 -0.030169621 -0.013522878
000250 10 d6 57 bc 03 6a 6a bd c0 18 42 bc 59 26 94 3d
       -0.013173595 -0.057230007 -0.011846721 0.07233877
000260 a0 67 84 bc 62 90 5e 3d 13 53 a2 bd 78 39 ad 3c
       -0.016162694 0.054336913 -0.079260014 0.021145567
000270 25 f9 c9 3d 00 5d 9d bd 06 3e 7c 3d 1e 48 1e 3d
       0.09861974 -0.07683754 0.061582588 0.038642995
000280 dd 9c c4 3d a8 42 c2 bc 0b 88 c5 3d 28 6e 6e bc
       0.09600232 -0.023713425 0.09645089 -0.0145526305
000290 d0 9f 73 bc 0d fd 8f bd 40 ab 00 3b 52 6a 1a 3d
       -0.014869645 -0.070306875 0.0019633323 0.03769905
0002a0 00 f1 6f 3c 28 72 8c 3c 8c f4 86 bd 8f e0 c0 bd
       0.014644861 0.017144278 -0.06589612 -0.09417831
0002b0 79 7f 9a 3d 50 d8 fe 3b ae be 09 3d 16 67 1e 3d
       0.07543845 0.0077772513 0.033629112 0.03867253
0002c0 17 b6 b9 3d 14 40 18 bd 0b 98 96 3d 18 8f 0d bc
       0.09067934 -0.037170485 0.07353219 -0.008640073
0002d0 72 23 4f 3d 8e 8b 03 3d fa 79 a5 bd 60 db ba bb
       0.050570913 0.03211551 -0.08079906 -0.005702421
0002e0 26 88 66 3d 80 7e 2a bd a7 51 b0 3d 26 a0 00 bd
       0.056282185 -0.041624546 0.08609324 -0.03140273
0002f0 63 d1 26 bd a8 a6 5e bc f2 ea 20 3d 10 02 c9 bd
       -0.04072703 -0.013589539 0.03928656 -0.098148465
000300 dd fa 97 bd 82 25 25 3d 68 db f6 bc b5 8c 82 bd
       -0.07420895 0.040318973 -0.030133918 -0.06374494
000310 46 69 6c 3d 00 31 c6 bc 8a 3c 03 3d 18 c8 5b 3c
       0.057717584 -0.024193287 0.032040156 0.013414405
000320 1f 88 cc bd 51 e3 bb 3d 3a b4 55 bd 04 a9 8b bd
       -0.099869005 0.091742165 -0.05217383 -0.068193465
000330 28 d6 8b 3c e6 7e 5d 3d 65 c2 aa 3d b0 a5 8b bd
       0.017069891 0.054076098 0.08337859 -0.06818712
000340 5d 1d 93 bd c9 aa 85 3d 58 c7 96 bd b1 57 a8 3d
       -0.07183335 0.06526715 -0.073622406 0.08219851
000350 5e fd 90 bd 50 1e 02 bc 72 20 a5 bd b3 91 81 3d
       -0.07079576 -0.007941797 -0.08062829 0.06326618
000360 45 78 c5 3d 7b 72 8d 3d e0 b7 29 bd 4c 4a f8 bc
       0.0964208 0.06906601 -0.041435122 -0.030308865
000370 ec e9 ad 3c c2 06 17 3d a2 c5 42 3d 8d a9 99 3d
       0.021229707 0.03687168 0.04755176 0.07503042
000380 b3 e7 77 bd 0d c4 bc bd 80 8f c9 ba 80 1b 1b bd
       -0.0605237 -0.09217081 -0.0015377849 -0.037868023
000390 0d ad bf bd a0 6b af 3b df 0d c1 bd 83 f2 8f bd
       -0.09359179 0.005353406 -0.09426474 -0.07028677
0003a0 94 e0 0c bd 74 ab eb bc b1 c8 bc 3d 37 e1 46 bd
       -0.034393862 -0.028768279 0.09217966 -0.048554625
0003b0 40 83 d2 3a b3 87 84 3d 77 69 bb bd 50 3d 07 bd
       0.0016060844 0.06471195 -0.09150975 -0.033017457
0003c0 80 da e0 3a 53 c8 85 3d b3 f1 b9 3d 3d 87 9f 3d
       0.0017154962 0.065323494 0.090793036 0.077894665
0003d0 f5 6c 85 3d ae 00 4d 3d 82 57 32 3d 9d d7 95 bd
       0.065149225 0.050049476 0.043540485 -0.073165156
0003e0 3a ea 03 3d d4 56 e3 bc b4 98 be bc 12 e9 29 3d
       0.032205798 -0.027751364 -0.023266174 0.04148204
0003f0 eb 26 bf 3d f5 d5 81 bd c6 a0 0c bd e8 e6 42 bc
       0.09333595 -0.06339637 -0.034333013 -0.011895873

layers.3.weight f4 [256]
000000 00 00 80 3f 00 00 80 3f 00 00 80 3f 00 00 80 3f
       1.0 1.0 1.0 1.0
000010 00 00 80 3f 00 00 80 3f 00 00 80 3f 00 00 80 3f
       1.0 1.0 1.0 1.0
000020 00 00 80 3f 00 00 80 3f 00 00 80 3f 00 00 80 3f
       1.0 1.0 1.0 1.0
000030 00 00 80 3f 00 00 80 3f 00 00 80 3f 00 00 80 3f
       1.0 1.0 1.0 1.0
000040 00 00 80 3f 00 00 80 3f 00 00 80 3f 00 00 80 3f
       1.0 1.0 1.0 1.0
000050 00 00 80 3f 00 00 80 3f 00 00 80 3f 00 00 80 3f
       1.0 1.0 1.0 1.0
000060 00 00 80 3f 00 00 80 3f 00 00 80 3f 00 00 80 3f
       1.0 1.0 1.0 1.0
000070 00 00 80 3f 00 00 80 3f 00 00 80 3f 00 00 80 3f
       1.0 1.0 1.0 1.0
000080 00 00 80 3f 00 00 80 3f 00 00 80 3f 00 00 80 3f
       1.0 1.0 1.0 1.0
000090 00 00 80 3f 00 00 80 3f 00 00 80 3f 00 00 80 3f
       1.0 1.0 1.0 1.0
0000a0 00 00 80 3f 00 00 80 3f 00 00 80 3f 00 00 80 3f
       1.0 1.0 1.0 1.0
0000b0 00 00 80 3f 00 00 80 3f 00 00 80 3f 00 00 80 3f
       1.0 1.0 1.0 1.0
0000c0 00 00 80 3f 00 00 80 3f 00 00 80 3f 00 00 80 3f
       1.0 1.0 1.0 1.0
0000d0 00 00 80 3f 00 00 80 3f 00 00 80 3f 00 00 80 3f
       1.0 1.0 1.0 1.0
0000e0 00 00 80 3f 00 00 80 3f 00 00 80 3f 00 00 80 3f
       1.0 1.0 1.0 1.0
0000f0 00 00 80 3f 00 00 80 3f 00 00 80 3f 00 00 80 3f
       1.0 1.0 1.0 1.0
000100 00 00 80 3f 00 00 80 3f 00 00 80 3f 00 00 80 3f
       1.0 1.0 1.0 1.0
000110 00 00 80 3f 00 00 80 3f 00 00 80 3f 00 00 80 3f
       1.0 1.0 1.0 1.0
000120 00 00 80 3f 00 00 80 3f 00 00 80 3f 00 00 80 3f
       1.0 1.0 1.0 1.0
000130 00 00 80 3f 00 00 80 3f 00 00 80 3f 00 00 80 3f
       1.0 1.0 1.0 1.0
000140 00 00 80 3f 00 00 80 3f 00 00 80 3f 00 00 80 3f
       1.0 1.0 1.0 1.0
000150 00 00 80 3f 00 00 80 3f 00 00 80 3f 00 00 80 3f
       1.0 1.0 1.0 1.0
000160 00 00 80 3f 00 00 80 3f 00 00 80 3f 00 00 80 3f
       1.0 1.0 1.0 1.0
000170 00 00 80 3f 00 00 80 3f 00 00 80 3f 00 00 80 3f
       1.0 1.0 1.0 1.0
000180 00 00 80 3f 00 00 80 3f 00 00 80 3f 00 00 80 3f
       1.0 1.0 1.0 1.0
000190 00 00 80 3f 00 00 80 3f 00 00 80 3f 00 00 80 3f
       1.0 1.0 1.0 1.0
0001a0 00 00 80 3f 00 00 80 3f 00 00 80 3f 00 00 80 3f
       1.0 1.0 1.0 1.0
0001b0 00 00 80 3f 00 00 80 3f 00 00 80 3f 00 00 80 3f
       1.0 1.0 1.0 1.0
0001c0 00 00 80 3f 00 00 80 3f 00 00 80 3f 00 00 80 3f
       1.0 1.0 1.0 1.0
0001d0 00 00 80 3f 00 00 80 3f 00 00 80 3f 00 00 80 3f
       1.0 1.0 1.0 1.0
0001e0 00 00 80 3f 00 00 80 3f 00 00 80 3f 00 00 80 3f
       1.0 1.0 1.0 1.0
0001f0 00 00 80 3f 00 00 80 3f 00 00 80 3f 00 00 80 3f
       1.0 1.0 1.0 1.0
000200 00 00 80 3f 00 00 80 3f 00 00 80 3f 00 00 80 3f
       1.0 1.0 1.0 1.0
000210 00 00 80 3f 00 00 80 3f 00 00 80 3f 00 00 80 3f
       1.0 1.0 1.0 1.0
000220 00 00 80 3f 00 00 80 3f 00 00 80 3f 00 00 80 3f
       1.0 1.0 1.0 1.0
000230 00 00 80 3f 00 00 80 3f 00 00 80 3f 00 00 80 3f
       1.0 1.0 1.0 1.0
000240 00 00 80 3f 00 00 80 3f 00 00 80 3f 00 00 80 3f
       1.0 1.0 1.0 1.0
000250 00 00 80 3f 00 00 80 3f 00 00 80 3f 00 00 80 3f
       1.0 1.0 1.0 1.0
000260 00 00 80 3f 00 00 80 3f 00 00 80 3f 00 00 80 3f
       1.0 1.0 1.0 1.0
000270 00 00 80 3f 00 00 80 3f 00 00 80 3f 00 00 80 3f
       1.0 1.0 1.0 1.0
000280 00 00 80 3f 00 00 80 3f 00 00 80 3f 00 00 80 3f
       1.0 1.0 1.0 1.0
000290 00 00 80 3f 00 00 80 3f 00 00 80 3f 00 00 80 3f
       1.0 1.0 1.0 1.0
0002a0 00 00 80 3f 00 00 80 3f 00 00 80 3f 00 00 80 3f
       1.0 1.0 1.0 1.0
0002b0 00 00 80 3f 00 00 80 3f 00 00 80 3f 00 00 80 3f
       1.0 1.0 1.0 1.0
0002c0 00 00 80 3f 00 00 80 3f 00 00 80 3f 00 00 80 3f
       1.0 1.0 1.0 1.0
0002d0 00 00 80 3f 00 00 80 3f 00 00 80 3f 00 00 80 3f
       1.0 1.0 1.0 1.0
0002e0 00 00 80 3f 00 00 80 3f 00 00 80 3f 00 00 80 3f
       1.0 1.0 1.0 1.0
0002f0 00 00 80 3f 00 00 80 3f 00 00 80 3f 00 00 80 3f
       1.0 1.0 1.0 1.0
000300 00 00 80 3f 00 00 80 3f 00 00 80 3f 00 00 80 3f
       1.0 1.0 1.0 1.0
000310 00 00 80 3f 00 00 80 3f 00 00 80 3f 00 00 80 3f
       1.0 1.0 1.0 1.0
000320 00 00 80 3f 00 00 80 3f 00 00 80 3f 00 00 80 3f
       1.0 1.0 1.0 1.0
000330 00 00 80 3f 00 00 80 3f 00 00 80 3f 00 00 80 3f
       1.0 1.0 1.0 1.0
000340 00 00 80 3f 00 00 80 3f 00 00 80 3f 00 00 80 3f
       1.0 1.0 1.0 1.0
000350 00 00 80 3f 00 00 80 3f 00 00 80 3f 00 00 80 3f
       1.0 1.0 1.0 1.0
000360 00 00 80 3f 00 00 80 3f 00 00 80 3f 00 00 80 3f
       1.0 1.0 1.0 1.0
000370 00 00 80 3f 00 00 80 3f 00 00 80 3f 00 00 80 3f
       1.0 1.0 1.0 1.0
000380 00 00 80 3f 00 00 80 3f 00 00 80 3f 00 00 80 3f
       1.0 1.0 1.0 1.0
000390 00 00 80 3f 00 00 80 3f 00 00 80 3f 00 00 80 3f
       1.0 1.0 1.0 1.0
0003a0 00 00 80 3f 00 00 80 3f 00 00 80 3f 00 00 80 3f
       1.0 1.0 1.0 1.0
0003b0 00 00 80 3f 00 00 80 3f 00 00 80 3f 00 00 80 3f
       1.0 1.0 1.0 1.0
0003c0 00 00 80 3f 00 00 80 3f 00 00 80 3f 00 00 80 3f
       1.0 1.0 1.0 1.0
0003d0 00 00 80 3f 00 00 80 3f 00 00 80 3f 00 00 80 3f
       1.0 1.0 1.0 1.0
0003e0 00 00 80 3f 00 00 80 3f 00 00 80 3f 00 00 80 3f
       1.0 1.0 1.0 1.0
0003f0 00 00 80 3f 00 00 80 3f 00 00 80 3f 00 00 80 3f
       1.0 1.0 1.0 1.0

layers.3.bias f4 [256]
000000 00 00 00 00 00 00 00 00 00 00 00 00 00 00 00 00
       0.0 0.0 0.0 0.0
000010 00 00 00 00 00 00 00 00 00 00 00 00 00 00 00 00
       0.0 0.0 0.0 0.0
000020 00 00 00 00 00 00 00 00 00 00 00 00 00 00 00 00
       0.0 0.0 0.0 0.0
000030 00 00 00 00 00 00 00 00 00 00 00 00 00 00 00 00
       0.0 0.0 0.0 0.0
000040 00 00 00 00 00 00 00 00 00 00 00 00 00 00 00 00
       0.0 0.0 0.0 0.0
000050 00 00 00 00 00 00 00 00 00 00 00 00 00 00 00 00
       0.0 0.0 0.0 0.0
000060 00 00 00 00 00 00 00 00 00 00 00 00 00 00 00 00
       0.0 0.0 0.0 0.0
000070 00 00 00 00 00 00 00 00 00 00 00 00 00 00 00 00
       0.0 0.0 0.0 0.0
000080 00 00 00 00 00 00 00 00 00 00 00 00 00 00 00 00
       0.0 0.0 0.0 0.0
000090 00 00 00 00 00 00 00 00 00 00 00 00 00 00 00 00
       0.0 0.0 0.0 0.0
0000a0 00 00 00 00 00 00 00 00 00 00 00 00 00 00 00 00
       0.0 0.0 0.0 0.0
0000b0 00 00 00 00 00 00 00 00 00 00 00 00 00 00 00 00
       0.0 0.0 0.0 0.0
0000c0 00 00 00 00 00 00 00 00 00 00 00 00 00 00 00 00
       0.0 0.0 0.0 0.0
0000d0 00 00 00 00 00 00 00 00 00 00 00 00 00 00 00 00
       0.0 0.0 0.0 0.0
0000e0 00 00 00 00 00 00 00 00 00 00 00 00 00 00 00 00
       0.0 0.0 0.0 0.0
0000f0 00 00 00 00 00 00 00 00 00 00 00 00 00 00 00 00
       0.0 0.0 0.0 0.0
000100 00 00 00 00 00 00 00 00 00 00 00 00 00 00 00 00
       0.0 0.0 0.0 0.0
000110 00 00 00 00 00 00 00 00 00 00 00 00 00 00 00 00
       0.0 0.0 0.0 0.0
000120 00 00 00 00 00 00 00 00 00 00 00 00 00 00 00 00
       0.0 0.0 0.0 0.0
000130 00 00 00 00 00 00 00 00 00 00 00 00 00 00 00 00
       0.0 0.0 0.0 0.0
000140 00 00 00 00 00 00 00 00 00 00 00 00 00 00 00 00
       0.0 0.0 0.0 0.0
000150 00 00 00 00 00 00 00 00 00 00 00 00 00 00 00 00
       0.0 0.0 0.0 0.0
000160 00 00 00 00 00 00 00 00 00 00 00 00 00 00 00 00
       0.0 0.0 0.0 0.0
000170 00 00 00 00 00 00 00 00 00 00 00 00 00 00 00 00
       0.0 0.0 0.0 0.0
000180 00 00 00 00 00 00 00 00 00 00 00 00 00 00 00 00
       0.0 0.0 0.0 0.0
000190 00 00 00 00 00 00 00 00 00 00 00 00 00 00 00 00
       0.0 0.0 0.0 0.0
0001a0 00 00 00 00 00 00 00 00 00 00 00 00 00 00 00 00
       0.0 0.0 0.0 0.0
0001b0 00 00 00 00 00 00 00 00 00 00 00 00 00 00 00 00
       0.0 0.0 0.0 0.0
0001c0 00 00 00 00 00 00 00 00 00 00 00 00 00 00 00 00
       0.0 0.0 0.0 0.0
0001d0 00 00 00 00 00 00 00 00 00 00 00 00 00 00 00 00
       0.0 0.0 0.0 0.0
0001e0 00 00 00 00 00 00 00 00 00 00 00 00 00 00 00 00
       0.0 0.0 0.0 0.0
0001f0 00 00 00 00 00 00 00 00 00 00 00 00 00 00 00 00
       0.0 0.0 0.0 0.0
000200 00 00 00 00 00 00 00 00 00 00 00 00 00 00 00 00
       0.0 0.0 0.0 0.0
000210 00 00 00 00 00 00 00 00 00 00 00 00 00 00 00 00
       0.0 0.0 0.0 0.0
000220 00 00 00 00 00 00 00 00 00 00 00 00 00 00 00 00
       0.0 0.0 0.0 0.0
000230 00 00 00 00 00 00 00 00 00 00 00 00 00 00 00 00
       0.0 0.0 0.0 0.0
000240 00 00 00 00 00 00 00 00 00 00 00 00 00 00 00 00
       0.0 0.0 0.0 0.0
000250 00 00 00 00 00 00 00 00 00 00 00 00 00 00 00 00
       0.0 0.0 0.0 0.0
000260 00 00 00 00 00 00 00 00 00 00 00 00 00 00 00 00
       0.0 0.0 0.0 0.0
000270 00 00 00 00 00 00 00 00 00 00 00 00 00 00 00 00
       0.0 0.0 0.0 0.0
000280 00 00 00 00 00 00 00 00 00 00 00 00 00 00 00 00
       0.0 0.0 0.0 0.0
000290 00 00 00 00 00 00 00 00 00 00 00 00 00 00 00 00
       0.0 0.0 0.0 0.0
0002a0 00 00 00 00 00 00 00 00 00 00 00 00 00 00 00 00
       0.0 0.0 0.0 0.0
0002b0 00 00 00 00 00 00 00 00 00 00 00 00 00 00 00 00
       0.0 0.0 0.0 0.0
0002c0 00 00 00 00 00 00 00 00 00 00 00 00 00 00 00 00
       0.0 0.0 0.0 0.0
0002d0 00 00 00 00 00 00 00 00 00 00 00 00 00 00 00 00
       0.0 0.0 0.0 0.0
0002e0 00 00 00 00 00 00 00 00 00 00 00 00 00 00 00 00
       0.0 0.0 0.0 0.0
0002f0 00 00 00 00 00 00 00 00 00 00 00 00 00 00 00 00
       0.0 0.0 0.0 0.0
000300 00 00 00 00 00 00 00 00 00 00 00 00 00 00 00 00
       0.0 0.0 0.0 0.0
000310 00 00 00 00 00 00 00 00 00 00 00 00 00 00 00 00
       0.0 0.0 0.0 0.0
000320 00 00 00 00 00 00 00 00 00 00 00 00 00 00 00 00
       0.0 0.0 0.0 0.0
000330 00 00 00 00 00 00 00 00 00 00 00 00 00 00 00 00
       0.0 0.0 0.0 0.0
000340 00 00 00 00 00 00 00 00 00 00 00 00 00 00 00 00
       0.0 0.0 0.0 0.0
000350 00 00 00 00 00 00 00 00 00 00 00 00 00 00 00 00
       0.0 0.0 0.0 0.0
000360 00 00 00 00 00 00 00 00 00 00 00 00 00 00 00 00
       0.0 0.0 0.0 0.0
000370 00 00 00 00 00 00 00 00 00 00 00 00 00 00 00 00
       0.0 0.0 0.0 0.0
000380 00 00 00 00 00 00 00 00 00 00 00 00 00 00 00 00
       0.0 0.0 0.0 0.0
000390 00 00 00 00 00 00 00 00 00 00 00 00 00 00 00 00
       0.0 0.0 0.0 0.0
0003a0 00 00 00 00 00 00 00 00 00 00 00 00 00 00 00 00
       0.0 0.0 0.0 0.0
0003b0 00 00 00 00 00 00 00 00 00 00 00 00 00 00 00 00
       0.0 0.0 0.0 0.0
0003c0 00 00 00 00 00 00 00 00 00 00 00 00 00 00 00 00
       0.0 0.0 0.0 0.0
0003d0 00 00 00 00 00 00 00 00 00 00 00 00 00 00 00 00
       0.0 0.0 0.0 0.0
0003e0 00 00 00 00 00 00 00 00 00 00 00 00 00 00 00 00
       0.0 0.0 0.0 0.0
0003f0 00 00 00 00 00 00 00 00 00 00 00 00 00 00 00 00
       0.0 0.0 0.0 0.0
