ddpg/model_params/tpch_ddpg_40_20_critic.pth (torch, 396162 bytes, 17 tensors)

state_input.weight f4 [128, 65]
0	0xbaa44a8d	-0.0012534425
1	0x3a37e143	0.00070144626
2	0xbafb95a2	-0.0019194374
3	0x3b0701bc	0.00206004
4	0x39273531	0.00015946176
5	0x3b00fb8c	0.0019681184
6	0xbaed0780	-0.00180839
7	0x3bd667ee	0.006543151
8	0xb9acab94	-0.00032934232
9	0x3c329510	0.010899797
10	0x39c1e49a	0.0003698215
11	0xbaff58cf	-0.0019481423
12	0x3a159ef2	0.00057075836
13	0x3a09d1b4	0.00052573835
14	0xb9a767ba	-0.00031930004
15	0x399ac3ab	0.00029518953
16	0x3ae094f7	0.0017134239
17	0x3b37582c	0.0027976139
18	0x3b01395b	0.0019718024
19	0xbaf369ff	-0.0018571018
20	0xb9fd6754	-0.00048332906
21	0x3a036daf	0.00050135975
22	0xbbc24aae	-0.0059293127
23	0xb9a75716	-0.00031917606
24	0xbaad0adf	-0.0013202092
25	0x3984856a	0.00025276403
26	0xb99cda24	-0.00029917166
27	0x3a91bb24	0.0011118394
28	0xbb36f3a9	-0.002791623
29	0x3aa05e9c	0.0012235227
30	0x3ae60f85	0.0017552233
31	0xb6c877f0	-5.974427e-06
32	0x39a404fa	0.00031284225
33	0x39b0ee47	0.00033746866
34	0xbac36f61	-0.0014910513
35	0xb98efe00	-0.00027273595
36	0x3b05d868	0.0020423178
37	0xbaa558bb	-0.0012614945
38	0xb9d72375	-0.00041034413
39	0x3b05dae8	0.0020424668
40	0x398f77d8	0.00027364376
41	0x3b16481c	0.0022931164
42	0xbaf4832b	-0.0018654814
43	0x3abab088	0.0014243284
44	0x3b06ff70	0.002059903
45	0x3b91fbbc	0.004455058
46	0xba436026	-0.0007452987
47	0xb9c934f6	-0.00038377166
48	0xb93d2d36	-0.00018041287
49	0xb9a2f0ee	-0.00031078554
50	0x3aa49eee	0.0012559572
51	0xba3675d2	-0.00069603056
52	0x3aedec8b	0.001815216
53	0x3b91efa4	0.004453616
54	0x3a38ce4f	0.00070497853
55	0xb9abc206	-0.0003276022
56	0xbb27e6f7	-0.0025619844
57	0xb99e2d58	-0.00030169892
58	0x3b06ed73	0.0020588308
59	0x3af112ad	0.0018392407
60	0x3ab6bb58	0.0013941331
61	0xbab3026e	-0.001365734
62	0xb9a11e9d	-0.00030731122
63	0xbc3d3a95	-0.011549612
64	0x3adf12fc	0.0017019208
65	0x3a109122	0.00055147905
66	0x37410c7e	1.1506605e-05
67	0xbb00e81e	-0.0019669603
68	0x3aec4942	0.0018027204
69	0xbaf3cda2	-0.0018600712
70	0xbaf92b4f	-0.0019010099
71	0xba8977b2	-0.0010487942
72	0xb9a3b8d3	-0.00031227487
73	0x3a6b8059	0.0008983664
74	0x3a5ef98c	0.00085058133
75	0x3b045010	0.0020189323
76	0xb9c751c2	-0.00038017152
77	0x38d683e2	0.0001022888
78	0x3a7c6055	0.00096273917
79	0xb9af6581	-0.00033454227
80	0x3a13af5a	0.00056337344
81	0x39a665ec	0.00031737925
82	0x3a58b9dd	0.0008267442
83	0xbab447e0	-0.001375433
84	0x3a70e702	0.0009189696
85	0x3ac7cbdc	0.001524325
86	0x3acd2ad7	0.0015653026
87	0x3ae0f445	0.0017162642
88	0x392e5e1a	0.00016628989
89	0xba2f3c2f	-0.0006684688
90	0xba65de74	-0.0008768805
91	0x375862f6	1.2897644e-05
92	0x3accae38	0.0015615886
93	0x3afbea32	0.0019219576
94	0x3a56659c	0.0008178593
95	0xbaf3c712	-0.0018598756
96	0xb914b94a	-0.00014183405
97	0xbadf657e	-0.0017043797
98	0xbc241d53	-0.010016757
99	0x3b06872c	0.0020527346
100	0xbb0502df	-0.00202959
101	0xbb5cb187	-0.003367515
102	0x3b4dc2a5	0.0031396535
103	0x3a9c0ddb	0.0011905985
104	0x3a61b7b5	0.00086104433
105	0x388247b2	6.212237e-05
106	0x3af747d4	0.0018866011
107	0xbb04001d	-0.002014167
108	0xba993eee	-0.0011691728
109	0xb9bfa5c1	-0.00036553855
110	0xbb063538	-0.0020478498
111	0x3ad91a64	0.0016563651
112	0x372c376c	1.0264903e-05
113	0x3b01f9de	0.001983277
114	0x3a263638	0.00063404767
115	0x3ae07be2	0.0017126764
116	0x3a986baa	0.0011628766
117	0xbaeb138d	-0.0017934904
118	0xbac94ca4	-0.0015357924
119	0x38b93760	8.831802e-05
120	0xbad19ffc	-0.0015993114
121	0xbad4f9e1	-0.0016248786
122	0x3b020021	0.0019836503
123	0xbaea3b8c	-0.001787053
124	0xbb06c221	-0.0020562487
125	0xbab303b2	-0.0013657717
126	0x399c6b5e	0.00029834633
127	0xb9a8302c	-0.00032079348
128	0x3ac41be7	0.0014961929
129	0x3b320530	0.0027163737
130	0x39b816b4	0.0003511213
131	0x398f8779	0.0002737602
132	0x3ae77330	0.001765823
133	0xbaaa63d0	-0.0012999717
134	0x3a0f4d6c	0.0005466554
135	0x3af79a68	0.0018890621
136	0x3a59ee81	0.0008313433
137	0x39b13e3e	0.00033806445
138	0x3acbd55e	0.0015551259
139	0x3a969883	0.0011489544
140	0xbc920793	-0.017825877
141	0xbacc6db4	-0.0015596659
142	0x39e2649c	0.0004318104
143	0xb989f07a	-0.00026309845
144	0xba9e3a25	-0.0012071772
145	0x3ae4a382	0.0017443749
146	0xb79320d1	-1.7539047e-05
147	0x3a04dae4	0.00050680176
148	0x3abb8dde	0.0014309247
149	0x39de3546	0.0004238283
150	0x3af934d1	0.0019012933
151	0x3ac34b4f	0.0014899763
152	0x36f6cfcc	7.355562e-06
153	0x3a8bc699	0.0010664045
154	0x3af27f39	0.001850105
155	0x3ab88fe6	0.0014080971
156	0xbad5e90a	-0.0016320061
157	0x3affd6a9	0.001951893
158	0xbb0364e8	-0.0020049158
159	0xba39f788	-0.0007094075
160	0xb8c02f60	-9.164098e-05
161	0x3b9120f2	0.004428976
162	0xbae1be4b	-0.001722285
163	0x3a7f154d	0.0009730652
164	0xbb561062	-0.0032663574
165	0x3af7c782	0.0018904062
166	0xbc0dc688	-0.008653291
167	0x39d99c10	0.0004150574
168	0x3a719ad9	0.00092164945
169	0xb9b04b40	-0.00033625402
170	0xba6992a8	-0.0008910098
171	0x3b017ca0	0.001975812
172	0x39b06e14	0.0003365135
173	0xba25a94c	-0.00063194777
174	0x3c1d7a86	0.009611731
175	0x39a5ab79	0.0003159901
176	0x3ad62b3c	0.0016339789
177	0xbb02c173	-0.001995173
178	0x3bfd876f	0.007737092
179	0x3aac6acf	0.001315439
180	0xb995332e	-0.00028457626
181	0xbaf59321	-0.0018735864
182	0x3afb4d95	0.0019172902
183	0x3a14ab65	0.0005671292
184	0xba9416f6	-0.0011298347
185	0xbb8a2e68	-0.004216958
186	0x3a7403d5	0.00093084323
187	0x3af1b90a	0.0018441987
188	0x3acab581	0.0015465469
189	0xb9a659f6	-0.00031729013
190	0x39e91654	0.0004445786
191	0xba36b3b4	-0.0006969527
192	0x3701a340	7.727009e-06
193	0x3b05afda	0.0020399005
194	0xbb070265	-0.0020600792
195	0xbb16ca62	-0.0023008813
196	0x3a0db79a	0.0005406082
197	0xb67c3fea	-3.758813e-06
198	0xb8176a90	-3.610045e-05
199	0x36567f68	3.1962645e-06
200	0xbaf08439	-0.0018349952
201	0x3b8e0292	0.0043338025
202	0x38f5e34e	0.00011724849
203	0xbaa52a8e	-0.0012601183
204	0x3afb36b8	0.0019166088
205	0xb9a0be94	-0.0003065957
206	0x3b07024f	0.0020600741
207	0xbb06add9	-0.0020550399
208	0xbaec183c	-0.0018012594
209	0xba1500e1	-0.000568403
210	0x396617f4	0.00021943433
211	0xba41e07c	-0.00073958165
212	0xbc064261	-0.008194537
213	0x37c13bde	2.303527e-05
214	0xb961ba5b	-0.00021527095
215	0xb8ef0c4e	-0.000113987
216	0x3b43cb9f	0.0029876006
217	0xbabc6df0	-0.0014376026
218	0xb9aa36e0	-0.00032465812
219	0x3afbfe38	0.0019225543
220	0xbac8aa86	-0.0015309609
221	0xbbdc582b	-0.0067243776
222	0x3adc7d1c	0.0016821953
223	0x394236b0	0.00018521654
224	0x3af145cb	0.0018407641
225	0x3b0401b1	0.002014261
226	0xb7c843f8	-2.3873508e-05
227	0x3b0158b3	0.0019736707
228	0xbae767ec	-0.0017654872
229	0x3a4b17c7	0.00077473785
230	0xbae542b1	-0.0017491189
231	0xbb04cefe	-0.0020264979
232	0xbb06fc9a	-0.002059734
233	0x3ac19377	0.0014768679
234	0xba3a6496	-0.00071103254
235	0xb9a9ff3c	-0.00032424356
236	0xbb710d59	-0.0036781637
237	0xba5ae028	-0.0008349442
238	0x3b8ab80c	0.004233366
239	0xbb013f17	-0.0019721442
240	0x3b06b462	0.0020554294
241	0xb9821543	-0.00024811373
242	0xbaf6c22a	-0.0018826176
243	0xbaf15ee6	-0.0018415123
244	0x3b8ad5fe	0.0042369356
245	0xb6a7ef92	-5.0048775e-06
246	0x3c27d901	0.010244609
247	0xbb06f1c2	-0.0020590876
248	0x3915850e	0.00014259314
249	0xbafa606f	-0.0019102226
250	0x397d344e	0.00024147445
251	0x39714b2e	0.00023011558
252	0x35139100	5.497277e-07
253	0xb81fad14	-3.8069746e-05
254	0xb987d192	-0.0002590535
255	0xbadb0dcc	-0.0016712486

state_input.bias f4 [128]
0	0x3b233e4a	0.0024908953
1	0xbcb6800c	-0.022277854
2	0x3ae684a2	0.0017587135
3	0xbd351415	-0.044208605
4	0x3da4778a	0.08030613
5	0xbd8dea33	-0.069294356
6	0x3d8ad069	0.06778032
7	0x3c253b28	0.010084905
8	0xbd5943fb	-0.053043347
9	0x3c2be8b8	0.010492496
10	0x3d60f857	0.054924335
11	0x3d850412	0.06494917
12	0x3d92820b	0.0715371
13	0xbd2bf687	-0.041983154
14	0x3d430783	0.047614586
15	0x3c867aa3	0.0164159
16	0xbc9c2085	-0.019058475
17	0x3cecb941	0.02889693
18	0x3d9839c2	0.074328914
19	0xbcde6f3a	-0.027152646
20	0xbd74da07	-0.05977824
21	0x3d38e080	0.045135975
22	0x3b87f41b	0.0041489727
23	0x3c60382c	0.013685267
24	0xbc061d78	-0.008185737
25	0x3d5b0098	0.053467363
26	0xbcf58487	-0.02997042
27	0x3d35f010	0.044418395
28	0x393e6048	0.0001815568
29	0xbc67387e	-0.01411259
30	0x3aecea0a	0.001807512
31	0x3cb3d654	0.021952786
32	0xba033e0c	-0.0005006499
33	0xbd6752d7	-0.056475487
34	0x3be05bc8	0.0068468787
35	0xbce344ce	-0.02774277
36	0xbb947e6b	-0.0045316718
37	0x3be39146	0.006944808
38	0x3d9a0734	0.07520905
39	0x3c7462a4	0.014916096
40	0xbd99ed58	-0.07515973
41	0x3d17f051	0.037094418
42	0xbda49932	-0.08037032
43	0x3c9667fa	0.018360127
44	0xbda16a61	-0.07881618
45	0x3cc38af8	0.023869976
46	0xbc0869f0	-0.008326039
47	0x3b52ff92	0.0032195789
48	0x3b00c179	0.0019646569
49	0x3ac82afa	0.0015271597
50	0xbcd72772	-0.026263926
51	0x3ae50558	0.0017472906
52	0x3d9379f7	0.07200997
53	0xba35b24e	-0.00069311715
54	0xbdaa6aa5	-0.08321122
55	0x3d4c8a17	0.04993638
56	0xbd50f211	-0.051012103
57	0x3ccf5a34	0.025311567
58	0xbd1ea446	-0.038730882
59	0x3d5d906a	0.054092802
60	0xbd124b6e	-0.035716467
61	0x3c9f8d89	0.019476669
62	0xbc3bfbbf	-0.011473595
63	0x3d806943	0.06270077
64	0xbda0876a	-0.07838328
65	0xbd31c67d	-0.043402184
66	0xbd7c34ee	-0.061573915
67	0xbc440cdd	-0.0119659575
68	0x3d80c975	0.06288425
69	0x3cee5af7	0.02909611
70	0x3cea2267	0.028580857
71	0x3cbee052	0.023300324
72	0x3c950a27	0.018193318
73	0x3d939f49	0.072081156
74	0xba8b06d9	-0.0010606899
75	0xbd3d2eaf	-0.0461871
76	0x3bea7fd0	0.0071563497
77	0x3cb28f64	0.02179689
78	0xbd595aad	-0.05306499
79	0xbc75722a	-0.014980832
80	0x3cdeea31	0.02721128
81	0x3d4863f2	0.04892344
82	0xbdab2521	-0.08356691
83	0x3d2825cf	0.041051682
84	0xbd223670	-0.039602697
85	0x3d1ea6c9	0.038733277
86	0xbd4a84fb	-0.049443226
87	0xbd37d9b8	-0.044885367
88	0x3da897e9	0.082320996
89	0xbd0f86a3	-0.03504051
90	0x3acec95b	0.0015776561
91	0xbd1f1809	-0.03884128
92	0x3d84b00e	0.06478892
93	0x3da491be	0.080356106
94	0x3cf535b5	0.029932836
95	0x3bb95ad6	0.0056565804
96	0xbda239bc	-0.07921168
97	0xbc007fab	-0.007842938
98	0x3b0123c2	0.0019705151
99	0xbd2494cd	-0.04018097
100	0x3a9eefeb	0.0012125944
101	0xbc7576fc	-0.014981981
102	0xba4a221d	-0.0007710772
103	0xbd56e175	-0.052461106
104	0xbcf98db2	-0.030463073
105	0xbd7cc2fa	-0.06170938
106	0x3b03d13e	0.0020113732
107	0xbcb7a3d8	-0.022416994
108	0xbd1a203d	-0.0376284
109	0xbda94794	-0.082656056
110	0x3d953030	0.07284582
111	0xbd01e843	-0.031715643
112	0x3a42a050	0.0007424401
113	0x3d2b9459	0.041889522
114	0x3d3f0331	0.046633903
115	0xbd6eb4ec	-0.05827801
116	0xbcc9314f	-0.024559645
117	0xbd6cba7c	-0.057795033
118	0x3d510f9c	0.051040277
119	0x3a03f6c7	0.0005034026
120	0x3bfed70b	0.0077771
121	0xbd9b929c	-0.07596323
122	0x3d8f285f	0.06990122
123	0xbd97c34f	-0.07410299
124	0xb8809a14	-6.132215e-05
125	0x3d156df6	0.03648182
126	0x3d83a47a	0.06427856
127	0x3da2cc98	0.079491794

action_input.weight f4 [128, 40]
0	0xbc5a6df0	-0.013331875
1	0xbc1eb129	-0.009685793
2	0xbc008d57	-0.007846198
3	0x3c3e4320	0.011612684
4	0xbc2e3e88	-0.010635026
5	0xbb46057b	-0.003021567
6	0xbb901c98	-0.00439794
7	0xbb5e246e	-0.0033896226
8	0xbaf7f8d0	-0.0018918756
9	0x3c0c5a8f	0.008566513
10	0xbc641df6	-0.013923159
11	0xbb89a390	-0.0042004064
12	0x3b8c0d4b	0.0042740456
13	0xbc248b67	-0.010043002
14	0x3b6e6dd3	0.0036381378
15	0x39df344a	0.00042572833
16	0xbb61a61a	-0.003443128
17	0xbb07b11d	-0.0020704933
18	0x3c007a75	0.007841696
19	0xbbc929f0	-0.0061390325
20	0x3c6eed22	0.014582904
21	0xba8932d0	-0.0010467414
22	0x3b2effd4	0.0026702778
23	0x3ba7ad5a	0.0051171007
24	0x3aa830da	0.0012831942
25	0xbc950ffb	-0.018196097
26	0xbb07e438	-0.0020735394
27	0x3b6b35b2	0.003589016
28	0x3bda683f	0.006665259
29	0xbc63a23b	-0.013893659
30	0xbbba89bd	-0.005692689
31	0xbcd0b58f	-0.025477199
32	0x3887bdbb	6.472642e-05
33	0xbc8006d0	-0.015628248
34	0xbbd47ef3	-0.00648486
35	0xbc128e03	-0.008944991
36	0xbb04977c	-0.0020231893
37	0x3ad038ae	0.0015886032
38	0x39f9de41	0.00047658573
39	0xbc904f88	-0.017616048
40	0xbb777c3d	-0.003776326
41	0x3c8a4909	0.016880529
42	0xbb939708	-0.0045040883
43	0xbb9a9b51	-0.004718222
44	0xbb632427	-0.0034659
45	0x3b44d883	0.0030036278
46	0xbc24f95d	-0.010069218
47	0x3afba952	0.0019200242
48	0xbb04110c	-0.0020151762
49	0xbc217698	-0.009854935
50	0xba7fda18	-0.00097599765
51	0x3b81d793	0.003962466
52	0x3aef4f88	0.0018257955
53	0xbbdb4eac	-0.006692728
54	0x3a5f97bd	0.00085293857
55	0x3c257eb9	0.010101014
56	0xbaeafad5	-0.0017927537
57	0xbc19ea46	-0.009394234
58	0xbba738d9	-0.0051032123
59	0xbc0fd23b	-0.00877815
60	0xbbae636f	-0.005321912
61	0xbb8c7fbc	-0.004287688
62	0xbce4b702	-0.027919296
63	0xbc638f25	-0.013889109
64	0xbc926f8b	-0.017875453
65	0xbb0cc142	-0.0021477495
66	0xbc3a99eb	-0.011389236
67	0x3af99bdc	0.0019043642
68	0x3c3f5fba	0.011680538
69	0xbc040c45	-0.008059566
70	0x39667461	0.00021977864
71	0x3ba7d0d2	0.005121329
72	0xbc37b93f	-0.0112136
73	0x3c9f3045	0.019432196
74	0xbbad4bc0	-0.005288571
75	0x3c0755e1	0.008260221
76	0xbb902985	-0.0043994808
77	0x3c09411c	0.00837734
78	0xbc45b271	-0.0120664695
79	0xbcaf0edb	-0.021369388
80	0x3b684f7e	0.0035447772
81	0x3ba31924	0.004977362
82	0x3c0e0b91	0.00866975
83	0x3b8ff0bd	0.004392712
84	0x3cac40c9	0.021026986
85	0x3d242205	0.040071506
86	0x3c8ed1fa	0.017434109
87	0xbc04b9d2	-0.008100944
88	0xbc2be03f	-0.010490476
89	0x3ac55d8e	0.0015057789
90	0x3cb340f4	0.021881558
91	0x3b1b6b14	0.0023714947
92	0xbc23f13c	-0.010006245
93	0xbbd98a09	-0.0066387695
94	0xbb8345da	-0.0040061297
95	0xbb1bea12	-0.002379064
96	0x3baaf173	0.0052167713
97	0x3b246d28	0.0025089476
98	0xbb838c80	-0.0040145516
99	0x3c1c7109	0.009548434
100	0x3bf7bd34	0.0075603966
101	0xbb223e87	-0.0024756507
102	0x3c7b4bdb	0.01533791
103	0xbc1b53f2	-0.009480463
104	0x3b7f976e	0.0039000171
105	0x3b358447	0.0027697252
106	0xbc3eafbb	-0.011638577
107	0xbbd894d6	-0.0066095395
108	0xbc35790d	-0.011076224
109	0x3a8b5601	0.001063049
110	0xbbe1f386	-0.0068954853
111	0xba190761	-0.00058375864
112	0xbb99665d	-0.004681392
113	0xb9c07ee6	-0.0003671564
114	0x3bb663e1	0.0055661057
115	0x3c8ca99c	0.01717072
116	0x3bd52d55	0.006505648
117	0x3bd94cff	0.006631493
118	0xbbccdbd3	-0.006251791
119	0x3be3b761	0.0069493507
120	0xbb565ee4	-0.0032710368
121	0x3a82e37c	0.0009986009
122	0xbc817c42	-0.015806321
123	0xbc3b0699	-0.011415147
124	0xb9692f3c	-0.00022238208
125	0xbc1a562b	-0.009419958
126	0xbbc0be60	-0.0058820695
127	0xbc302f2f	-0.010753437
128	0xba64826c	-0.0008716944
129	0xbc9312b8	-0.017953262
130	0xbbabad16	-0.0052391393
131	0xbc9e9826	-0.01935966
132	0xbc5da233	-0.013527441
133	0xbccbcedf	-0.024878917
134	0x3b27e1e1	0.0025616812
135	0xbba5fc95	-0.0050655105
136	0x3b9c2b15	0.004765878
137	0xbc12a823	-0.00895122
138	0xbbc57212	-0.006025561
139	0x3b7be09c	0.0038433438
140	0xbc8586e2	-0.016299669
141	0xbbcf6b3e	-0.006329923
142	0xbbfc6c95	-0.0077033737
143	0xbcf67938	-0.030087098
144	0xbb974c56	-0.0046172542
145	0x3b96be08	0.00460029
146	0xbbd663fb	-0.0065426803
147	0xbcee2bfe	-0.029073711
148	0x3c2a0a68	0.010378458
149	0xbb9540ff	-0.0045548673
150	0xbc8acd55	-0.016943613
151	0xbbcf08d3	-0.0063181906
152	0xbc3a44e6	-0.011368966
153	0x38950e48	7.107534e-05
154	0xbc2d3ba2	-0.0105733
155	0xbcc98b6b	-0.024602612
156	0xbcc123d6	-0.023576658
157	0xbc5eb758	-0.013593517
158	0x3b44d458	0.0030033793
159	0xbc316dcb	-0.010829399
160	0x3ae01e44	0.0017098864
161	0xbba4de6d	-0.005031398
162	0x3bc745d9	0.0060813245
163	0xbb5c9296	-0.0033656708
164	0xbc5b2c30	-0.013377234
165	0x3c978fb7	0.018501146
166	0x3c1948df	0.009355753
167	0xbc8259d5	-0.015911976
168	0xbbc399a5	-0.0059692436
169	0x3b97e42e	0.0046353554
170	0x3c07cb2f	0.008288189
171	0x3c9f9445	0.01947988
172	0x3c8adc61	0.016950788
173	0xbbdcb3bb	-0.0067352927
174	0xbc814fe2	-0.015785161
175	0x3af61887	0.001877562
176	0x3c670940	0.014101326
177	0x3bd4cbb7	0.0064940113
178	0x3c703f8c	0.014663588
179	0xbc24b6d7	-0.010053358
180	0x3b218c21	0.0024650174
181	0xbb18d2e9	-0.0023319072
182	0xbb93f05d	-0.0045147375
183	0x3b6c0398	0.0036012884
184	0xbac1a886	-0.0014774955
185	0x3b7d92f4	0.0038692327
186	0xbc1c6d54	-0.00954755
187	0x3cc8c645	0.024508605
188	0x3c64406c	0.013931375
189	0x3bc4e149	0.0060083014
190	0xbaa88d54	-0.0012859502
191	0xbc2a1bcc	-0.010382604
192	0x3c344200	0.011002064
193	0x3bbb0226	0.005707043
194	0x3c62d323	0.013844284
195	0xbbc5e2fc	-0.0060390215
196	0xbb1dc2f6	-0.0024072505
197	0x3b7a1a3f	0.0038162617
198	0xbbd2fc6c	-0.0064387824
199	0x395f76c4	0.00021311181
200	0xbc4c15b8	-0.01245635
201	0x3c112506	0.008858925
202	0xbbd42965	-0.006474661
203	0x3b39f904	0.0028377185
204	0x3b133684	0.0022462914
205	0x3cf10abf	0.02942407
206	0x3a8d1a82	0.0010765346
207	0xbc26133f	-0.010136425
208	0xbc718d45	-0.014743154
209	0xbafd5dc2	-0.001933031
210	0xbb3688e9	-0.00278526
211	0x3c18af99	0.0093192095
212	0xbc101d0d	-0.008795989
213	0xbc92803e	-0.017883416
214	0x3c2e0df8	0.010623448
215	0xbbd082ba	-0.00636324
216	0x3c26a697	0.010171554
217	0x3bce6593	0.0062987297
218	0xbc0af8b1	-0.008482144
219	0x3b8325bb	0.0040023006
220	0xbc9825c2	-0.018572692
221	0xbc8eedfb	-0.017447462
222	0xbcfb01f9	-0.03064059
223	0xbbd539d6	-0.0065071387
224	0x3a3837db	0.0007027366
225	0xbc968e30	-0.018378347
226	0xbc4680ba	-0.012115652
227	0x3c254961	0.010088296
228	0x3c579dda	0.013160193
229	0xbc5ac4ac	-0.013352554
230	0x3945db3e	0.00018869058
231	0x3bfb372e	0.00766649
232	0x3bb4d6a0	0.0055187494
233	0x3b2fa6a1	0.00268022
234	0x3a8f25a9	0.0010921258
235	0xbbbce8ef	-0.0057650725
236	0xbc856c00	-0.01628685
237	0xbb897e7f	-0.0041959877
238	0x3acad89c	0.0015475932
239	0x3a376548	0.0006995988
240	0xb639b640	-2.7673232e-06
241	0xba2398ad	-0.0006240707
242	0xbbd76a2c	-0.006573936
243	0x3c74e6ef	0.014947637
244	0xbb01f518	-0.0019829925
245	0x3c2b2e84	0.010448102
246	0x3b82bc48	0.00398973
247	0x3b5435c5	0.0032380682
248	0x3c751fca	0.014961192
249	0xbc2c61da	-0.0105213765
250	0xba1df1f9	-0.00060251314
251	0x3a41864a	0.00073823764
252	0x3c581fff	0.013191222
253	0x3c2cbbcd	0.010542822
254	0x3b9b8e8f	0.004747219
255	0x3b9c7110	0.0047742203

action_input.bias f4 [128]
0	0x3d4570ca	0.048203267
1	0xbb7bb055	-0.0038404663
2	0x3d90219e	0.07037662
3	0xbd817501	-0.06321145
4	0x3cf260ee	0.029587235
5	0x3bf7f562	0.0075670937
6	0xbd25ba18	-0.040460676
7	0xbb69ed44	-0.00356944
8	0x3d7a5938	0.061120242
9	0x3d387dc2	0.045041807
10	0x3dad34cc	0.08457336
11	0xbd6087e8	-0.05481711
12	0x3d571980	0.052514553
13	0xbd37ca1c	-0.04487048
14	0x3c62e15e	0.013847677
15	0xbb98375d	-0.0046452717
16	0x3c8b088e	0.016971853
17	0xbd9bb928	-0.07603675
18	0xbdc3de90	-0.09563935
19	0xbd9b2c5b	-0.075768195
20	0xbd9f71c3	-0.0778537
21	0xbcb4228f	-0.021989135
22	0x3cb3041a	0.021852542
23	0x3cc9c261	0.02462882
24	0x3d8b02c3	0.06787636
25	0xbdcd2d3c	-0.100183934
26	0x3a2a55da	0.0006497778
27	0x3c8e4c6f	0.01737043
28	0xbd5c3120	-0.053757787
29	0xbd00ef89	-0.03147844
30	0xbc9e6db2	-0.019339416
31	0xbd1cb665	-0.038259882
32	0x3da09183	0.07840254
33	0x3cef3f7e	0.02920508
34	0x3c99ed2d	0.018789852
35	0xbdb57c8c	-0.08861646
36	0xbd292fee	-0.041305475
37	0x3c2e45ea	0.010636786
38	0xbdb6467f	-0.08900165
39	0xbda1ecc6	-0.07906489
40	0x3bbd8fc1	0.005784959
41	0xbd3735fb	-0.044729214
42	0x3c214e56	0.009845337
43	0xbcb3a5ac	-0.021929584
44	0x3d2e0301	0.042483333
45	0xbdb3ea5b	-0.08784934
46	0xbdd5716a	-0.10422023
47	0xbc34df80	-0.011039615
48	0x3d9c368d	0.07627592
49	0xbdad8757	-0.0847308
50	0x3bcf1cb9	0.0063205627
51	0xbadfad16	-0.0017065133
52	0xbc43fef6	-0.011962643
53	0x3dc5926f	0.096470706
54	0xbc89af37	-0.016807182
55	0x3cbe3ba7	0.023221804
56	0xbda5ccab	-0.08095678
57	0x3db88c85	0.09011177
58	0xbdac648f	-0.084176175
59	0xbc6e437b	-0.014542456
60	0x3d490843	0.049080145
61	0xbd0671e5	-0.032823462
62	0xbaee0b48	-0.0018161321
63	0x3da43140	0.08017206
64	0xbda538c8	-0.08067471
65	0x3a5b1797	0.0008357702
66	0x3ad5c45d	0.0016309131
67	0x3d917443	0.07102253
68	0xbb6d07e3	-0.003616803
69	0x3d94d985	0.07268051
70	0x3d46ca3f	0.04853272
71	0xbb04eaac	-0.0020281477
72	0xbd0cefe7	-0.034408476
73	0xbcb3546d	-0.021890843
74	0xbc41c0d9	-0.011825764
75	0x3dd1a431	0.10236395
76	0x3c50c9cd	0.012743426
77	0x3d89408c	0.067017645
78	0x3bd0337e	0.0063537946
79	0xbdc297d0	-0.09501612
80	0xbd4590a4	-0.048233643
81	0x3d1a0200	0.037599564
82	0xbdbafae2	-0.09129883
83	0x3d780a7a	0.060556866
84	0x3d79ac75	0.060955483
85	0xbda385c7	-0.079845004
86	0x3dd457f1	0.10368336
87	0xbd69fc3b	-0.05712531
88	0xbd9326e8	-0.07185155
89	0xbd84a1a1	-0.06476141
90	0x3d66e88c	0.056374118
91	0x3d80b0b1	0.06283701
92	0x3d684b95	0.056712706
93	0x3dac0da1	0.08401037
94	0x3dddc29c	0.108281344
95	0x3c8795ac	0.016550861
96	0xbda24b86	-0.07924561
97	0x3d788045	0.060669202
98	0x3ca1eb62	0.01976556
99	0x3dc13f71	0.094359286
100	0xbc9a5bdb	-0.018842628
101	0xbd7dd08c	-0.061966464
102	0x3d672187	0.05642846
103	0xbb80e82f	-0.0039339284
104	0x3c8ec214	0.017426528
105	0xbd00e17f	-0.03146505
106	0x3d875dff	0.06609725
107	0xbd9be10c	-0.07611284
108	0xbd5b698b	-0.05356745
109	0x3db659c6	0.08903842
110	0x3d92d4c8	0.07169491
111	0x3d8a7f9a	0.06762619
112	0x3da9b3ca	0.08286245
113	0xbc4a4d50	-0.012347534
114	0xbd447593	-0.04796369
115	0xbcf1f826	-0.029537272
116	0x3cea7913	0.028622186
117	0xbd9db749	-0.077009745
118	0xbc478ff2	-0.012180315
119	0xbca6ce60	-0.02036208
120	0x3c94af30	0.018149942
121	0x3da1e503	0.07905009
122	0x3dbcb395	0.0921394
123	0xbda90b39	-0.08254094
124	0x3d4675de	0.04845225
125	0xbc286dba	-0.010280067
126	0xbdbea6de	-0.09309171
127	0xbdc191dc	-0.094516486

layers.0.weight f4 [256, 256]
0	0xba177fbe	-0.0005779228
1	0x3bbbeaa1	0.005734757
2	0x3c3fd46e	0.011708362
3	0x3b8281a8	0.0039827414
4	0xbb3dfecd	-0.0028990984
5	0xbba642cd	-0.0050738812
6	0xbc073dd3	-0.008254486
7	0xbb875c34	-0.0041308645
8	0xbc16b014	-0.009197254
9	0x3a21a5ea	0.0006166386
10	0xbb329364	-0.0027248496
11	0x3ad5a68f	0.0016300249
12	0x3c1116a5	0.0088554965
13	0x3b359996	0.0027709953
14	0xbc755f2e	-0.014976306
15	0x3b2da1ec	0.0026494218
16	0x3a7d9576	0.00096734555
17	0xbc08abc6	-0.008341735
18	0x3c20f1c0	0.009823263
19	0xbc7fe24b	-0.015617917
20	0xbbddb912	-0.006766447
21	0x3c177491	0.0092441
22	0xbb4960ca	-0.0030727857
23	0xbbd354fd	-0.0064493404
24	0x3c60e47a	0.013726348
25	0x3bf983c6	0.0076145856
26	0x3ba80d39	0.0051285294
27	0xbb4ef539	-0.003157927
28	0x3be4615b	0.0069696135
29	0xbc76e344	-0.015068833
30	0x3a2ecd8c	0.0006668202
31	0x3c276422	0.010216745
32	0xbb714606	-0.003681542
33	0xbc81a50b	-0.015825769
34	0x3afd3f65	0.0019321261
35	0x3b10093e	0.0021978165
36	0x3b672fca	0.0035276287
37	0xbc0280a3	-0.00796524
38	0xbbac1d31	-0.0052525033
39	0x3bc1120d	0.0058920444
40	0x3c13726b	0.008999447
41	0x3b0d8aec	0.0021597696
42	0x3c15f532	0.009152697
43	0x3ccf8d4d	0.025335932
44	0x3c921d2f	0.017836181
45	0xbc23fc8c	-0.010008942
46	0x3b50ee23	0.0031880222
47	0xbbcfeb06	-0.0063451556
48	0x3cd17da2	0.025572602
49	0xba21438e	-0.0006151729
50	0xbc295d14	-0.010337133
51	0x3bfed7ca	0.007777189
52	0xbcaa5e6c	-0.020796977
53	0xbb436b42	-0.002981857
54	0xbc99b5e7	-0.018763496
55	0xbc0d1961	-0.008612008
56	0xbacb771b	-0.0015523167
57	0xbc426c2e	-0.011866612
58	0xbc247e1e	-0.010039834
59	0xbc21c10f	-0.009872689
60	0x3b80e11f	0.0039330865
61	0x3c5a0fae	0.013309402
62	0x3b85b9c7	0.0040809843
63	0xbc6412c8	-0.013920493
64	0x3c0c55f0	0.008565411
65	0xba09823c	-0.00052455417
66	0xbc1934fd	-0.009351012
67	0xba7982b0	-0.000951807
68	0xbcd48b5a	-0.025945354
69	0x3b839019	0.0040149805
70	0xbaf7dca8	-0.0018910365
71	0x3cac6702	0.021045212
72	0x3b0e9372	0.0021755365
73	0xb995353c	-0.00028459157
74	0x3c47c273	0.012192356
75	0x3c6099fa	0.013708586
76	0x3ad0dbb8	0.0015934622
77	0x3cbf9738	0.023387536
78	0xbc14d8e0	-0.00908491
79	0x3c297bff	0.010344504
80	0xbb61bd14	-0.0034444975
81	0x3b1ad907	0.0023627894
82	0x3cbb5206	0.02286626
83	0x3b1d4bab	0.00240014
84	0xbc91cd15	-0.017797986
85	0x3c9be8dc	0.019031934
86	0xbc22e8cd	-0.009943199
87	0x3c52558e	0.012837781
88	0x3c4114fa	0.011784786
89	0xbb3e5742	-0.002904371
90	0xbb86d16b	-0.00411432
91	0x3c54ff5e	0.013000337
92	0xba90accb	-0.0011037824
93	0xbc093e5a	-0.008376682
94	0x3ba12892	0.0049181664
95	0xbbbf914c	-0.005846178
96	0x3bdaf118	0.0066815726
97	0x3c3a110f	0.011356606
98	0xbc7bf210	-0.015377536
99	0x3c5626f1	0.013070808
100	0x3c5d034a	0.013489554
101	0xbb4fd15b	-0.003171048
102	0xbbfcab1d	-0.007710828
103	0x3b277145	0.0025549692
104	0x3b08587b	0.0020804692
105	0xbb5136f1	-0.0031923617
106	0xbc471208	-0.012150295
107	0xbb680e5e	-0.0035408954
108	0xbb7b80aa	-0.003837625
109	0xbbde9982	-0.006793202
110	0xbbd5dead	-0.006526789
111	0xbb939e3e	-0.004504948
112	0xbbaeb20a	-0.0053312825
113	0xbc16f0ac	-0.009212654
114	0x3bedab3e	0.0072530797
115	0x3c472678	0.012155168
116	0x3c962641	0.018328788
117	0x3bcb4be8	0.006204117
118	0x3ca90eee	0.020637002
119	0xbaf3a692	-0.001858907
120	0x3c2bdb68	0.010489322
121	0x3bd473a3	0.0064835115
122	0x3acd3e06	0.0015658743
123	0xbcd8e1f5	-0.026474932
124	0x3caf838b	0.02142503
125	0x3c42c479	0.011887663
126	0xba12f721	-0.0005606283
127	0xbc9aac85	-0.018881092
128	0x3bb45855	0.005503694
129	0x3c414517	0.011796257
130	0xbc5c598b	-0.013449083
131	0x3c1203e0	0.008912057
132	0x3c2de858	0.010614477
133	0x3c8a1160	0.016853988
134	0x3c3582a2	0.011078509
135	0x3bd95c1a	0.006633294
136	0xbcb97cb5	-0.022642473
137	0xbc6423c6	-0.013924545
138	0xbc9a43bc	-0.018831126
139	0x3c96782d	0.018367851
140	0xbc1d26d3	-0.009591776
141	0x3b169dac	0.0022982163
142	0x3aa73a4e	0.0012758465
143	0x3ade313e	0.0016951931
144	0x3b0a96e8	0.0021147076
145	0xbaccf5f8	-0.0015637269
146	0x3b452c4f	0.0030086224
147	0x3c43b268	0.011944391
148	0x3b16e001	0.00230217
149	0x3c0790e3	0.00827429
150	0xbc1f5c97	-0.009726665
151	0xbcc2400d	-0.023712182
152	0xbbb69a7f	-0.0055726166
153	0xbba97071	-0.0051708748
154	0x3aee59d0	0.0018184725
155	0xbbe8c88c	-0.007103985
156	0x3be9a227	0.007129926
157	0xbbf95e81	-0.0076101427
158	0x3cda232c	0.0266281
159	0x3b459cad	0.00301532
160	0xbc2575eb	-0.010098915
161	0xba3eb466	-0.0007274806
162	0x3cad5c4f	0.02116218
163	0x3c6d360c	0.014478218
164	0x3c5d287b	0.013498421
165	0xbc5231a6	-0.01282922
166	0x3a23290d	0.00062240736
167	0x3c42e8e2	0.011896344
168	0xbb66584c	-0.0035147844
169	0x3b7f5299	0.0038959144
170	0xbceeed89	-0.029166
171	0x3cb61409	0.02222635
172	0x3baac761	0.005211756
173	0x3adb1f82	0.0016717764
174	0xba01e8b9	-0.0004955638
175	0x3be79c57	0.0070681977
176	0xbc4ead90	-0.012614623
177	0x3ba22506	0.004948261
178	0x3c244aa2	0.0100275595
179	0xbc50a422	-0.012734445
180	0x3b9695df	0.0045955027
181	0xbc8e9994	-0.017407216
182	0x3bfd1eb6	0.0077246083
183	0xbc44987e	-0.011999248
184	0x38b5dd20	8.67194e-05
185	0xbc4842f1	-0.012222991
186	0x3ca6e72d	0.020373905
187	0xbc501ff1	-0.012702928
188	0xbb8002b1	-0.003906571
189	0xbac6bed2	-0.001516307
190	0x3c997b89	0.018735664
191	0xbc0e0d23	-0.008670124
192	0x3c19d2eb	0.009388666
193	0x3c0466ec	0.008081179
194	0x3b72dbb5	0.0037057225
195	0x3bd7a661	0.006581113
196	0xbb2fd078	-0.0026827138
197	0xbc6bc7b8	-0.014390878
198	0xbc0cfb2d	-0.008604807
199	0x3c0bfbf9	0.008543962
200	0xbc861406	-0.01636697
201	0xbc657e85	-0.014007215
202	0xbaa3419b	-0.0012455465
203	0xbcdba717	-0.026813073
204	0xbc303252	-0.010754185
205	0xbc818b0a	-0.01581337
206	0x3c9c8877	0.01910804
207	0xbb53ba0e	-0.0032306942
208	0x3c08dc02	0.008353235
209	0xbc22e613	-0.009942549
210	0x390dbe7c	0.00013517769
211	0xbc58313b	-0.013195331
212	0xbc06f578	-0.008237235
213	0x3cee320d	0.0290766
214	0xba920a8e	-0.0011142062
215	0x3b0aff91	0.0021209458
216	0x3c9a36a1	0.018824877
217	0x3c7eaee7	0.01554463
218	0xbb1417f5	-0.0022597287
219	0xbc617c2d	-0.013762516
220	0xbb869c3d	-0.0041079805
221	0x3c7c2a00	0.015390873
222	0xbc376215	-0.011192818
223	0xbbc28e64	-0.0059373844
224	0xbb60caf6	-0.0034300662
225	0x3c0b1558	0.008488975
226	0x3c02efa0	0.007991701
227	0xbce0b23e	-0.027428742
228	0xbc3eecdd	-0.011653152
229	0x3c00cd03	0.007861379
230	0x3a1e35a0	0.00060352124
231	0xbcc16523	-0.023607796
232	0xbb945fc6	-0.0045280186
233	0xbc80e2c2	-0.015733127
234	0x3bb78077	0.005600031
235	0x3c2aa70f	0.010415806
236	0x3a4d01a0	0.00078203715
237	0xbbe99201	-0.0071280007
238	0xbc3e1c68	-0.011603452
239	0x3b9abee1	0.0047224616
240	0x3c51326b	0.012768368
241	0x3b02a220	0.001993306
242	0x3be4a10e	0.006977207
243	0x3c6e0713	0.014528054
244	0xbca97f7e	-0.020690676
245	0xba822b2c	-0.0009931079
246	0x3ca25f04	0.019820698
247	0x3c0dbbdd	0.008650747
248	0x3c583459	0.013196074
249	0xbcafb30b	-0.021447679
250	0xbd11bfa2	-0.035583146
251	0x3bed8ac0	0.0072492063
252	0xbc1571ee	-0.009121401
253	0xbc2da761	-0.010598988
254	0x3ad7a966	0.0016453683
255	0x3bc6df53	0.006069103

layers.0.bias f4 [256]
0	0xbdcfe4d5	-0.10151068
1	0x3d63c5aa	0.05560843
2	0x3db375b9	0.08762688
3	0x3d82dd04	0.06389812
4	0x3ae54ef6	0.0017494846
5	0xbd52a666	-0.05142822
6	0xbd0cf290	-0.034411013
7	0xbd06bad3	-0.032893013
8	0x3d337d5a	0.043820716
9	0xbda868d4	-0.082231194
10	0xbd007269	-0.03135911
11	0xbc1c325e	-0.009533493
12	0xbdca73c4	-0.09885362
13	0xbd929958	-0.07158154
14	0xbc646162	-0.0139392335
15	0x3dbfc1fa	0.0936317
16	0x3d2de670	0.04245609
17	0xbcff5a28	-0.03117092
18	0xbc7027ae	-0.014657898
19	0xbcb3439b	-0.021882823
20	0x3b7ec546	0.0038874908
21	0xbdcc790a	-0.09984024
22	0x3d909496	0.070595905
23	0x3cb71a58	0.022351429
24	0xbc17fed8	-0.009277068
25	0xbdbe4577	-0.09290593
26	0x3caff915	0.021481076
27	0xbcb5b7fb	-0.022182455
28	0x3c83a8b6	0.016071659
29	0x3dbe636f	0.09296309
30	0x3d0a809d	0.03381406
31	0xbbf49506	-0.007464054
32	0xbd579881	-0.052635673
33	0x3d396663	0.04526366
34	0x3da085b1	0.078379996
35	0xbdb1d51d	-0.08683226
36	0x3d8ffa70	0.07030189
37	0xbdd04591	-0.10169519
38	0x3b99639b	0.0046810634
39	0xbd97175b	-0.073775016
40	0x3dacb860	0.08433604
41	0xbdd0ea1e	-0.10200904
42	0xbdc31163	-0.09524801
43	0x3d35beac	0.044371292
44	0xbd7ceccc	-0.061749265
45	0x3b8d6732	0.0043152804
46	0xbc057340	-0.0081451535
47	0xbdc0a97b	-0.09407326
48	0x3da24253	0.079228066
49	0x3d689a65	0.056787867
50	0x3d3c3f3e	0.04595875
51	0xbc07cd46	-0.008288687
52	0x3dcc49c7	0.099750094
53	0x3d9af398	0.07565993
54	0x3d13f502	0.03612233
55	0xbbf6b3c4	-0.007528754
56	0xbdbca015	-0.09210221
57	0x3dbd4590	0.092417836
58	0x3db82f69	0.08993418
59	0x3dba8078	0.09106535
60	0x3d0fe8e2	0.035134204
61	0xbdbabed5	-0.091184296
62	0xbdb8971c	-0.09013197
63	0x3bb6aab2	0.0055745477
64	0x3da86d5e	0.08223985
65	0xbcc07c3a	-0.023496736
66	0xbd8cb0db	-0.0686967
67	0xbda9c515	-0.082895435
68	0x3d4a66e6	0.049414538
69	0x3db8a754	0.0901629
70	0x3c08708f	0.008327617
71	0xbd8513ec	-0.064979404
72	0xbd720220	-0.059084058
73	0x3d709cd7	0.058743324
74	0xbd8b6503	-0.06806376
75	0xbdb458f0	-0.08806026
76	0x3da968fd	0.08271978
77	0xbdcac2e4	-0.09900454
78	0x3db9505c	0.090485305
79	0xbda39648	-0.07987648
80	0x3cec938d	0.028878951
81	0xbd9742a5	-0.07385758
82	0x3cb041d3	0.021515762
83	0xbd7619d1	-0.060083214
84	0x3dbf5027	0.0934146
85	0x3cd6bd15	0.026213208
86	0xbd99d5f5	-0.07511512
87	0xbd71e7f2	-0.05905909
88	0x3db30c29	0.08742554
89	0x3da0610d	0.07831011
90	0x3d64a196	0.055818163
91	0xbccf9006	-0.02533723
92	0xbdca756f	-0.0988568
93	0xbdae7e5a	-0.085201934
94	0xbc36acb9	-0.011149579
95	0x3da09a00	0.07841873
96	0xbc74013a	-0.014892871
97	0xbdab480a	-0.0836335
98	0xbc5b6b69	-0.013392308
99	0x3d52dfee	0.051483087
100	0xbdb801d2	-0.08984722
101	0xbd79211f	-0.060822602
102	0x3d22891b	0.039681535
103	0x3d2afdfe	0.041746132
104	0xbc8846cc	-0.016635321
105	0x3d994b57	0.07485073
106	0x3d039f79	0.032134507
107	0x3d857c5f	0.065178625
108	0xbcd80693	-0.026370322
109	0xbc88047b	-0.016603699
110	0x3bfa2592	0.0076338733
111	0xbc4cb059	-0.012493216
112	0x3b688899	0.003548181
113	0xbdbc9d1d	-0.092096545
114	0x3c3b1e4f	0.0114208
115	0x3d86e1ae	0.06586014
116	0xbd727d92	-0.059201784
117	0xbd8e30b4	-0.06942883
118	0x3db25aa4	0.087086946
119	0xbda1c7ed	-0.07899461
120	0x3c8d84b1	0.017275186
121	0xbd7b2539	-0.061314795
122	0xbd785e2d	-0.060636688
123	0xbce2e666	-0.027697753
124	0xbcecb51e	-0.028894957
125	0x3d3e29f1	0.046426717
126	0x3db918c4	0.09037927
127	0x3db0c78d	0.08631811
128	0xbd760e6d	-0.06007235
129	0x3da4f135	0.08053819
130	0xbcd847ae	-0.026401367
131	0xbd6922bb	-0.056917887
132	0x3b859d57	0.0040775943
133	0x3dcc9998	0.09990233
134	0x3d4343b4	0.04767199
135	0xbd38d246	-0.045122407
136	0x3c964f8b	0.018348476
137	0xbdc2bd8f	-0.09508812
138	0xbd2c97f9	-0.04213712
139	0xbd0bf6f5	-0.034171063
140	0xbce6ddc0	-0.02818191
141	0xbda0ccf0	-0.07851589
142	0xbc409e5d	-0.011756507
143	0x3d838c42	0.064232364
144	0xbdad4cd5	-0.0846192
145	0xbd3ae7dd	-0.04563128
146	0xbd6158f1	-0.05501646
147	0x3d6043d3	0.054752182
148	0x3bc8a2fb	0.0061229444
149	0x3da13ab7	0.07872527
150	0xbd1201c1	-0.035646204
151	0xbd82cf95	-0.063872494
152	0xbd9a1bbc	-0.07524821
153	0xbd1851bf	-0.037187334
154	0xbb82dd96	-0.0039937003
155	0x3d81f693	0.063458584
156	0x3d2bd547	0.041951444
157	0xbd8de3b3	-0.06928196
158	0xbdb018e4	-0.085984975
159	0x3b9fa513	0.0048719733
160	0xbcda05ab	-0.02661403
161	0x3c8cc8de	0.017185625
162	0x3d3b7772	0.04576821
163	0x3d9a7a58	0.075428665
164	0xbcf55262	-0.02994651
165	0xbab7433c	-0.0013981829
166	0x3d85f52e	0.06540905
167	0xbc90fdf3	-0.017699217
168	0xbda92279	-0.08258528
169	0xbca94933	-0.020664787
170	0xbdbd1515	-0.09232537
171	0xbd0eee39	-0.034895156
172	0xbbb5a67d	-0.0055435286
173	0xbb95a5d2	-0.0045668865
174	0x3caa4d8f	0.020788936
175	0xbbd9521a	-0.0066321017
176	0xbd98c230	-0.07458913
177	0x3be80f4b	0.007081901
178	0x3d5a661f	0.053320047
179	0xbdc66e6c	-0.0968903
180	0x3ca08890	0.019596368
181	0x3cc95f94	0.024581708
182	0xbd30e374	-0.043185666
183	0x3dae3534	0.085062414
184	0xbcae8acc	-0.021306418
185	0xbdb6715c	-0.0890834
186	0xbd92bfc9	-0.07165486
187	0xbda7c073	-0.08191004
188	0xbd98b99e	-0.07457279
189	0x3dc9b0ab	0.0984815
190	0xbd7fb6b0	-0.062430084
191	0x3db7d686	0.08976464
192	0xbdcffc7a	-0.10155578
193	0xbdd04438	-0.10169262
194	0x3dbbad66	0.091639325
195	0x3dc4f02b	0.09616121
196	0xbd97c8ea	-0.07411368
197	0x3c305abd	0.010763821
198	0xbc1a317c	-0.009411212
199	0xbd0e8e7e	-0.03480386
200	0x3db0f941	0.086412914
201	0xbbc068fd	-0.0058718906
202	0x3d2a3b11	0.041560236
203	0x3dae1f56	0.085020706
204	0x3d2a9cdf	0.04165351
205	0x3d8f2ec4	0.06991342
206	0x3d3f9d56	0.046780907
207	0xbd81930d	-0.06326876
208	0x3c9936b3	0.01870284
209	0x3d8fe1c9	0.07025487
210	0xbda5a6bb	-0.08088442
211	0x3d2d39ed	0.04229157
212	0xbd626e04	-0.0552807
213	0x3c9dc2ad	0.019257868
214	0x3d4186ba	0.047247626
215	0x3caa6ed5	0.020804802
216	0xbd7b5122	-0.06135667
217	0xbacfb28a	-0.0015846055
218	0xbcbe66f5	-0.023242453
219	0x3dc5851d	0.0964453
220	0x3da4701c	0.08029196
221	0xbb065310	-0.0020496286
222	0xbc0c21c3	-0.008552971
223	0x3dbcb42d	0.09214053
224	0x3cc8d731	0.024516674
225	0x3dc4c535	0.09607927
226	0xbc92132d	-0.01783141
227	0xbb5bcedd	-0.0033540048
228	0x3d9af9f7	0.07567208
229	0x3d0a2ef8	0.0337362
230	0xbd6f7ec0	-0.058470488
231	0xbce56e6e	-0.028006759
232	0x3cb517e1	0.022106113
233	0xbda74883	-0.081681274
234	0xbd4fbb17	-0.050715532
235	0x3d1caafd	0.038249005
236	0x3bd91f58	0.006626051
237	0x3d3c0f14	0.045912817
238	0x3db572a3	0.08859756
239	0xbcdb26fb	-0.026751986
240	0x3d2d0069	0.04223672
241	0x3be9e7d2	0.007138231
242	0xbd88bc34	-0.06676522
243	0xbdb26ca3	-0.08712127
244	0xbdc1057d	-0.09424875
245	0x3cc8e30f	0.024522332
246	0x3db37707	0.08762937
247	0x3d0a3324	0.033740178
248	0x3d54d7e2	0.051963694
249	0x3d9bd97a	0.0760984
250	0x3da7643f	0.08173417
251	0x3d9c6833	0.07637062
252	0xbdc88bcf	-0.097922914
253	0xbd4d04f9	-0.05005357
254	0xbd5e51f0	-0.05427736
255	0xbdb026f3	-0.08601179

layers.3.weight f4 [256]
0	0x3f7fbbce	0.9989594
1	0x3f802d83	1.0013889
2	0x3f7dfe2e	0.9921597
3	0x3f801439	1.0006171
4	0x3f80128c	1.000566
5	0x3f810a5b	1.0081285
6	0x3f803c91	1.0018483
7	0x3f8005d8	1.0001783
8	0x3f803ea1	1.0019113
9	0x3f7f83ec	0.9981067
10	0x3f7ffa23	0.99991053
11	0x3f801c63	1.0008663
12	0x3f80120f	1.0005511
13	0x3f807c36	1.0037906
14	0x3f80b820	1.005619
15	0x3f809557	1.0045575
16	0x3f7ecc34	0.9953034
17	0x3f816ea0	1.0111885
18	0x3f7dcdc4	0.991421
19	0x3f80b68b	1.0055708
20	0x3f803504	1.0016179
21	0x3f809b41	1.004738
22	0x3f808174	1.0039506
23	0x3f8002c2	1.0000842
24	0x3f802cf5	1.001372
25	0x3f7f8a2e	0.9982022
26	0x3f7ec874	0.9952462
27	0x3f7f8a4d	0.99820405
28	0x3f7e64f9	0.9937282
29	0x3f7f77f4	0.9979241
30	0x3f7f7ad5	0.997968
31	0x3f7fb6a3	0.99888057
32	0x3f807b13	1.0037559
33	0x3f809256	1.0044658
34	0x3f80a536	1.0050418
35	0x3f80145d	1.0006214
36	0x3f80ee18	1.007266
37	0x3f7fc424	0.9990866
38	0x3f810d86	1.0082252
39	0x3f7e9212	0.99441636
40	0x3f7d53d7	0.98956054
41	0x3f7ed8ff	0.9954986
42	0x3f7d37e3	0.989134
43	0x3f806497	1.0030698
44	0x3f7f36e8	0.99693155
45	0x3f7f9d4c	0.9984939
46	0x3f7d5e74	0.9897225
47	0x3f80d206	1.0064094
48	0x3f7dd352	0.99150574
49	0x3f7e62fe	0.993698
50	0x3f7fabf9	0.99871784
51	0x3f806320	1.003025
52	0x3f7fdc73	0.99945754
53	0x3f7f3b97	0.997003
54	0x3f7fcdd4	0.99923444
55	0x3f80002b	1.0000051
56	0x3f7fdb3f	0.9994392
57	0x3f808b69	1.0042545
58	0x3f7ed6f7	0.9954676
59	0x3f80ae54	1.0053201
60	0x3f802c7a	1.0013573
61	0x3f8097ce	1.0046327
62	0x3f7fb5b4	0.9988663
63	0x3f80ec21	1.0072061
64	0x3f7fa45d	0.99860173
65	0x3f8135ab	1.0094503
66	0x3f804d6b	1.0023626
67	0x3f7f6930	0.9976988
68	0x3f7ffeec	0.99998355
69	0x3f80b6c7	1.0055779
70	0x3f7f1db3	0.9965469
71	0x3f809adc	1.0047259
72	0x3f802921	1.0012552
73	0x3f7e60b2	0.99366295
74	0x3f80e6d1	1.007044
75	0x3f7f9490	0.99836063
76	0x3f81308d	1.0092942
77	0x3f7f4cc4	0.9972651
78	0x3f80f0e3	1.0073513
79	0x3f80e215	1.0068995
80	0x3f7ee0d7	0.9956183
81	0x3f8054c5	1.002587
82	0x3f7f3655	0.9969228
83	0x3f805da3	1.0028576
84	0x3f7f77ae	0.9979199
85	0x3f7e69cd	0.9938019
86	0x3f7f93f0	0.9983511
87	0x3f7e0f0d	0.99241716
88	0x3f7f9e16	0.99850595
89	0x3f806bb4	1.0032868
90	0x3f7ef0a7	0.99585956
91	0x3f802ea3	1.0014232
92	0x3f7d94f4	0.9905541
93	0x3f7f7c45	0.99798995
94	0x3f7e036f	0.9922399
95	0x3f804833	1.0022033
96	0x3f7f2282	0.9966203
97	0x3f80ce89	1.006303
98	0x3f81751f	1.0113868
99	0x3f800583	1.0001682
100	0x3f7ebfa0	0.99511147
101	0x3f7e8cc0	0.9943352
102	0x3f7f7955	0.99794513
103	0x3f7f68bf	0.99769205
104	0x3f8181ae	1.01177
105	0x3f7f2f52	0.9968158
106	0x3f7e541d	0.99347097
107	0x3f7f7190	0.9978266
108	0x3f7fedc3	0.9997217
109	0x3f7f7872	0.9979316
110	0x3f7f2e52	0.99680054
111	0x3f803fd7	1.0019482
112	0x3f7fc64d	0.9991196
113	0x3f7fc073	0.9990303
114	0x3f808223	1.0039715
115	0x3f809bab	1.0047506
116	0x3f7ec9db	0.99526757
117	0x3f7fe0ec	0.9995258
118	0x3f7fb3c3	0.9988367
119	0x3f7fd1ee	0.999297
120	0x3f7f7731	0.99791247
121	0x3f805901	1.0027162
122	0x3f7f34ec	0.9969013
123	0x3f7fe6d9	0.9996162
124	0x3f7ea5b2	0.9947158
125	0x3f7fcd21	0.99922377
126	0x3f8067a5	1.003163
127	0x3f7ff746	0.99986684
128	0x3f7e4899	0.99329525
129	0x3f80784e	1.0036714
130	0x3f802166	1.0010192
131	0x3f80a486	1.0050209
132	0x3f7f77f2	0.997924
133	0x3f803028	1.0014696
134	0x3f7fa626	0.998629
135	0x3f804b1c	1.0022922
136	0x3f806f42	1.0033953
137	0x3f7ede72	0.99558175
138	0x3f802f99	1.0014526
139	0x3f7ee309	0.9956518
140	0x3f800508	1.0001535
141	0x3f7fc02b	0.999026
142	0x3f80920e	1.0044572
143	0x3f809b27	1.0047349
144	0x3f7ec843	0.99524325
145	0x3f803949	1.0017482
146	0x3f807e26	1.0038497
147	0x3f7f6945	0.99770004
148	0x3f7d9b77	0.99065346
149	0x3f807f62	1.0038874
150	0x3f802cdf	1.0013694
151	0x3f804299	1.0020324
152	0x3f802d9a	1.0013916
153	0x3f7e7ded	0.994109
154	0x3f8018ef	1.0007609
155	0x3f7fb2e1	0.9988232
156	0x3f802c64	1.0013547
157	0x3f7edcbc	0.99555564
158	0x3f7e7e1a	0.99411166
159	0x3f7ee31e	0.99565303
160	0x3f7fba3d	0.9989355
161	0x3f7e7849	0.9940229
162	0x3f7f8ecf	0.99827284
163	0x3f802186	1.001023
164	0x3f7d92dd	0.9905222
165	0x3f7f6cb6	0.99775255
166	0x3f7da4fe	0.99079883
167	0x3f7ee492	0.9956752
168	0x3f80302b	1.00147
169	0x3f80ef7b	1.0073084
170	0x3f7e2219	0.9927078
171	0x3f809221	1.0044595
172	0x3f7f971e	0.9983996
173	0x3f7febe8	0.9996934
174	0x3f7f5850	0.9974413
175	0x3f7d9bc1	0.99065787
176	0x3f7f2576	0.99666536
177	0x3f7e18d1	0.99256617
178	0x3f805b9d	1.0027958
179	0x3f801c49	1.0008632
180	0x3f7f940f	0.99835294
181	0x3f7fd03d	0.9992712
182	0x3f7efc24	0.99603486
183	0x3f7e259e	0.9927615
184	0x3f80514f	1.0024813
185	0x3f7fd50a	0.99934447
186	0x3f803ed0	1.0019169
187	0x3f80708e	1.0034349
188	0x3f7ea053	0.99463385
189	0x3f806e75	1.0033709
190	0x3f7e127c	0.99246955
191	0x3f7f8459	0.9981132
192	0x3f80b7df	1.0056113
193	0x3f8085bf	1.0040816
194	0x3f7f138f	0.9963922
195	0x3f7e2035	0.99267894
196	0x3f7ecfbe	0.9953574
197	0x3f806a52	1.0032446
198	0x3f7f9b18	0.9984603
199	0x3f7fe285	0.99955016
200	0x3f7f58cd	0.99744874
201	0x3f80923b	1.0044626
202	0x3f7e279e	0.992792
203	0x3f805fb2	1.0029204
204	0x3f7f9873	0.99841994
205	0x3f7f2fa0	0.99682045
206	0x3f7ea3b2	0.9946853
207	0x3f7e4900	0.9933014
208	0x3f8051f7	1.0025014
209	0x3f7ffcec	0.99995303
210	0x3f7ebd91	0.99508005
211	0x3f7ff643	0.9998514
212	0x3f7f72c6	0.99784505
213	0x3f7fd994	0.9994137
214	0x3f7f9ec0	0.9985161
215	0x3f7f7a47	0.99795955
216	0x3f7f4643	0.99716586
217	0x3f7dfa4b	0.9921004
218	0x3f7e55d0	0.9934969
219	0x3f802634	1.0011659
220	0x3f810bb2	1.0081694
221	0x3f807e8b	1.0038618
222	0x3f7fd8a2	0.9993993
223	0x3f80be36	1.0058048
224	0x3f80a199	1.0049316
225	0x3f7fe080	0.99951935
226	0x3f80b768	1.0055971
227	0x3f7fbeec	0.999007
228	0x3f7e7ee9	0.994124
229	0x3f8030f2	1.0014937
230	0x3f80026a	1.0000737
231	0x3f7d5b83	0.9896776
232	0x3f807830	1.0036678
233	0x3f7fe89b	0.999643
234	0x3f811921	1.0085794
235	0x3f8128fc	1.0090632
236	0x3f7fbfe0	0.99902153
237	0x3f800b35	1.000342
238	0x3f8010bc	1.0005107
239	0x3f7e89d2	0.9942905
240	0x3f80ce55	1.0062968
241	0x3f811d71	1.008711
242	0x3f80e313	1.0069298
243	0x3f7ee705	0.9957126
244	0x3f7f506d	0.99732095
245	0x3f8078cc	1.0036864
246	0x3f7e2965	0.99281913
247	0x3f7ecfcf	0.9953584
248	0x3f7fafb7	0.99877495
249	0x3f7fa2c2	0.99857724
250	0x3f804b59	1.0022994
251	0x3f7efb54	0.99602246
252	0x3f7fedf5	0.9997247
253	0x3f808fa5	1.0043837
254	0x3f8002ae	1.0000818
255	0x3f8040d2	1.0019782

layers.3.bias f4 [256]
0	0x3b9ccc22	0.0047850767
1	0x3bb91d31	0.005649232
2	0xba521f15	-0.0008015496
3	0x3b8971ed	0.004194489
4	0xbbac86d9	-0.0052650985
5	0x3b698251	0.0035630653
6	0x3b75e52e	0.0037520635
7	0x3b5fdbe9	0.0034158176
8	0xbb40d5ea	-0.0029424378
9	0x3ab11950	0.0013511572
10	0xbb905eaf	-0.0044058184
11	0xbb014a2e	-0.0019728052
12	0xbbdd8668	-0.0067604072
13	0xbacf912f	-0.0015836115
14	0x39f60aac	0.00046928728
15	0xbb81b3cb	-0.0039582006
16	0xbbc35ad1	-0.005961754
17	0xbb15350b	-0.0022767212
18	0xbb13dc18	-0.0022561606
19	0xbbbb11ed	-0.005708924
20	0xbb0be173	-0.0021344095
21	0x3bb322c6	0.005466792
22	0xbb88d1dd	-0.0041754083
23	0xbae450a1	-0.0017419049
24	0x3c020998	0.007936858
25	0xbb3d872f	-0.0028919687
26	0x3b54a8c9	0.0032449237
27	0xbc217e57	-0.009856782
28	0x3bc305c3	0.0059516146
29	0x3ac1b377	0.0014778216
30	0xba20fc74	-0.0006141134
31	0x3b3afc43	0.0028531707
32	0x3b0781c0	0.0020676702
33	0xb9e0a9f3	-0.0004285123
34	0x3b45dd2e	0.0030191648
35	0xbb4be089	-0.0031109175
36	0x3b27ecd1	0.0025623331
37	0x3ad1ba5c	0.0016000974
38	0xbb047585	-0.0020211649
39	0xbb02173b	-0.0019850272
40	0xba536e4f	-0.00080654485
41	0x3b0e092e	0.0021672952
42	0x368e7140	4.245114e-06
43	0xbb121a11	-0.0022293369
44	0x3b8045c2	0.003914566
45	0x3b162dd7	0.0022915506
46	0x3bc6e70c	0.0060700234
47	0xbb0071d4	-0.0019599097
48	0x3be348eb	0.0069361827
49	0xbaf6e337	-0.0018836026
50	0xbb22edac	-0.0024860902
51	0xbb994126	-0.0046769558
52	0x3ba784db	0.005112273
53	0xb99a5b73	-0.00029441304
54	0xbb1df764	-0.0024103755
55	0xbaa234af	-0.001237532
56	0x3b4dd236	0.0031405813
57	0x3bfa7bbc	0.007644145
58	0x3c1b7efb	0.009490724
59	0xbb515f67	-0.0031947733
60	0xbabd5d68	-0.0014447393
61	0xbb312b7e	-0.002703398
62	0xb93f37b0	-0.00018235925
63	0x3baf3bd0	0.0053477064
64	0xba29bb07	-0.00064747076
65	0xbaad6156	-0.0013227861
66	0xbb9d4880	-0.0047999024
67	0x3bb77f7d	0.0055999146
68	0xbb515151	-0.0031939337
69	0x3c27581a	0.010213876
70	0x3b42874c	0.0029682694
71	0x3c00c510	0.007859483
72	0x3b173c87	0.0023076849
73	0x3be92b5d	0.007115765
74	0x3bfd610e	0.007732517
75	0xba840774	-0.0010073022
76	0xbbae1109	-0.0053120893
77	0xbc3e87aa	-0.0116290245
78	0x39a29968	0.00031013344
79	0xbb58ce7a	-0.0033082054
80	0xbb9c6a94	-0.0047734473
81	0x3b7fc3a6	0.0039026528
82	0x3c2a5e8a	0.010398516
83	0x3af92d42	0.001901068
84	0x3ba23eaf	0.00495132
85	0xbbb2a8ab	-0.0054522357
86	0x3ba4e42a	0.005032082
87	0x3c5b90da	0.0134012345
88	0x3b3ae2f3	0.002851662
89	0xba161736	-0.00057255046
90	0x3b0d51c4	0.0021563629
91	0xba1b65b8	-0.0005927938
92	0x3b4a4a90	0.0030867197
93	0xbb1c1452	-0.0023815823
94	0x3b1f71aa	0.0024329224
95	0xbae2ac62	-0.0017293806
96	0x3a73c198	0.0009298562
97	0x398d0c2c	0.00026902684
98	0xbb6d7e47	-0.0036238597
99	0x3a63b4bd	0.0008686295
100	0x3b975f15	0.004619489
101	0x3b708648	0.0036701132
102	0xba3c0547	-0.0007172417
103	0x3aa68377	0.0012703974
104	0xbbbdbf8c	-0.0057906564
105	0x3c15dce5	0.009146904
106	0x3ba9a2d1	0.00517688
107	0xba4497a7	-0.00074994046
108	0xbb3fca81	-0.002926499
109	0x3b9631e2	0.004583583
110	0x3ba070f8	0.0048962794
111	0x3a2ebb77	0.00066655077
112	0xbbb1fdb9	-0.0054318574
113	0x3bf325f0	0.007420294
114	0x3c389067	0.011264897
115	0x3ac8581d	0.0015285049
116	0xbb48a026	-0.0030613034
117	0x3b0a22c0	0.0021077842
118	0x3abb070a	0.0014269066
119	0xbb5df2f5	-0.0033866738
120	0xbb06f2ee	-0.0020591575
121	0x3b363c69	0.0027807003
122	0x393c9bf0	0.00017987168
123	0x3a9271c7	0.0011172824
124	0xbb938fac	-0.004503211
125	0x3bd1916b	0.006395509
126	0xbb87e8a5	-0.0041476064
127	0x3addf9e0	0.001693543
128	0x38f0fc58	0.000114910945
129	0xbbccc5d2	-0.006249168
130	0x3c0ac251	0.00846918
131	0xbc1da4a1	-0.00962177
132	0x3ba79283	0.005113901
133	0x3be13605	0.0068728947
134	0xb8413d18	-4.6071684e-05
135	0x3b910a45	0.004426273
136	0x3a95022d	0.0011368446
137	0x3a90db62	0.0011051709
138	0xbbb6bad3	-0.0055764704
139	0xbbe5b5fe	-0.0070102206
140	0x3a2dbe89	0.0006627818
141	0x3b1705a8	0.0023044143
142	0xbb832cb1	-0.0040031304
143	0xbb964dd8	-0.0045869164
144	0xbb8cb457	-0.004293959
145	0x3bc00914	0.005860457
146	0x3b048e79	0.0020226522
147	0xbbde5564	-0.0067850817
148	0x3ba5002f	0.0050354223
149	0xbae331d1	-0.0017333572
150	0xbbb4fb57	-0.005523126
151	0xbc3824a0	-0.011239201
152	0x3ba35480	0.0049844384
153	0x3aafd1ca	0.0013413962
154	0x3aa064d5	0.0012237082
155	0x3b5750bd	0.003285452
156	0xbb40bd68	-0.002940977
157	0xbbcfc325	-0.0063404017
158	0xba03d074	-0.00050283154
159	0xba8c4df5	-0.0010704385
160	0xbbb8fbb1	-0.0056452383
161	0x3b31d254	0.0027133422
162	0x3a3856c8	0.00070319744
163	0x3a0fa0b9	0.00054789666
164	0x3b4599c1	0.003015146
165	0xbb0b695a	-0.0021272511
166	0x3b8740fc	0.00412762
167	0x39dbbaa4	0.00041909993
168	0x3b5b1ea1	0.0033435004
169	0x3ba9034f	0.005157865
170	0x37fae1e0	2.9907504e-05
171	0x3b680b27	0.0035407038
172	0xbbe93480	-0.007116854
173	0x3b3d86b6	0.0028919405
174	0xba091f3e	-0.00052307907
175	0x3b97668c	0.004620379
176	0x3bb00abf	0.005372375
177	0xbbb863a2	-0.0056271115
178	0xbb427439	-0.0029671325
179	0x3b56b343	0.0032760657
180	0xbb06fca3	-0.002059736
181	0xbb6d76f8	-0.003623424
182	0xbba4b7ee	-0.005026809
183	0xbb3b6e58	-0.0028599706
184	0x3a8a6031	0.0010557232
185	0x3a50e7ef	0.0007969131
186	0x3be381f2	0.006942981
187	0xbb5726d6	-0.0032829545
188	0xbb673d81	-0.0035284462
189	0xbb017cdd	-0.0019758262
190	0xba0611e5	-0.0005114361
191	0x3b36de9d	0.0027903684
192	0x3b897972	0.0041953856
193	0x3c4a60d5	0.012352188
194	0xbad058c6	-0.0015895597
195	0xbbe18b1e	-0.006883039
196	0xba5446c6	-0.0008097704
197	0xbb1d0fed	-0.0023965791
198	0x3b8b40c0	0.004249662
199	0x3a05cacb	0.0005103766
200	0x3ad4714b	0.001620808
201	0xbc005a8e	-0.00783409
202	0x3a9d2dc8	0.0011991793
203	0x3b63bc6d	0.0034749762
204	0x3bcea8be	0.0063067367
205	0x3c092172	0.00836979
206	0x3ad5cc07	0.0016311415
207	0xba395c1c	-0.00070709153
208	0x3b0a0393	0.002105926
209	0x3c202104	0.009773497
210	0x3b59412c	0.0033150418
211	0x3b4d784a	0.0031352215
212	0x3a11d108	0.0005562459
213	0xbbba63fa	-0.0056881877
214	0x3b9a5bb8	0.0047106408
215	0x3b55b0a4	0.0032606507
216	0xbba20fa4	-0.004945712
217	0xbbd9cffc	-0.006647108
218	0xbc199be0	-0.009375542
219	0xbbf81ac7	-0.0075715515
220	0x3bcaddf5	0.00619101
221	0xb8af9611	-8.372602e-05
222	0xbb7f6413	-0.003896956
223	0xbbe8bdfd	-0.0071027265
224	0x3bfcb39e	0.0077118417
225	0xba89d3a8	-0.0010515349
226	0x3bd8bb7a	0.006614146
227	0xb9289245	-0.00016076218
228	0x3c1069e4	0.008814309
229	0x3b5556a3	0.003255286
230	0xbc3f3e61	-0.011672587
231	0xbbb43062	-0.0054989317
232	0x398d0bee	0.00026902504
233	0xbacb079c	-0.0015489939
234	0xbb546c89	-0.0032413325
235	0xbb81f320	-0.0039657503
236	0x3b23cb0c	0.0024992852
237	0x3b3e6cb5	0.0029056494
238	0xbb4fcff1	-0.0031709636
239	0xbb68ae3c	-0.0035504242
240	0x3a72311a	0.0009238884
241	0x3b8bff12	0.00427235
242	0x3c38f07e	0.011287807
243	0x3b68575c	0.003545246
244	0x3ba0c024	0.0049057174
245	0x39db7fc9	0.00041866142
246	0xbb21fe99	-0.0024718402
247	0xbaec26a4	-0.0018016887
248	0xb9eba74c	-0.0004494734
249	0x3c4aeff0	0.012386307
250	0xbb0e030a	-0.0021669292
251	0xbb80dfa3	-0.0039329096
252	0xbc1faf34	-0.0097463615
253	0x3b9f0725	0.0048531466
254	0xbc1c216f	-0.009529456
255	0xbbb93fa4	-0.0056533385
