ddpg/model_params/tpch_ddpg_40_30_critic.pth (torch, 396162 bytes, 17 tensors)

state_input.weight f4 [128, 65]
000000 0b c9 0a 39 44 48 0a b9 90 80 2e b9 c3 d3 9f 39
       0.000132356 -0.00013187627 -0.00016641826 0.00030484618
000010 0b c7 b4 37 33 93 8d 39 29 c2 37 b9 52 0a 10 ba
       2.1550359e-05 0.00027003288 -0.0001752457 -0.0005494702
000020 a7 10 2e 37 39 72 c0 ba d3 1c 8d b8 f7 98 87 b9
       1.0375085e-05 -0.0014682479 -6.728773e-05 -0.00025863174
000030 ce cc e8 b8 3a 8a d6 b8 20 d3 27 36 ba 05 83 b8
       -0.0001110077 -0.00010230062 2.500783e-06 -6.2476334e-05
000040 f2 5c f8 38 a4 92 ed 39 c5 f0 19 3a b1 ec ff b8
       0.00011842874 0.00045313418 0.0005872364 -0.00012203435
000050 e5 dc 22 ba a0 54 e1 b9 c7 8e c4 39 94 25 65 38
       -0.00062127254 -0.00042978395 0.0003749041 5.4632852e-05
000060 a6 8f e8 38 e8 7a a0 37 8b a6 4f 38 8b 56 16 b9
       0.00011089379 1.9130719e-05 4.950775e-05 -0.00014337355
000070 be 31 ee b9 08 0e 1a b9 1e 87 76 38 0c 70 d7 b5
       -0.00045431958 -0.00014691812 5.8776808e-05 -1.6051358e-06
000080 5e a1 70 b8 10 27 21 b8 05 b4 81 38 7c 36 01 3a
       -5.7370744e-05 -3.842177e-05 6.1847306e-05 0.0004929078
000090 f2 35 90 39 78 f0 00 39 8a 85 a1 38 ce ab a0 39
       0.00027506013 0.00012296613 7.701952e-05 0.00030645583
0000a0 77 e3 89 b8 72 3e 0e 3a 28 ee 05 b9 f0 30 af b8
       -6.575038e-05 0.0005426175 -0.00012772589 -8.3537656e-05
0000b0 4e 64 9e 39 18 0d 46 38 cb e9 0f 39 cf 24 f3 39
       0.0003021084 4.7219073e-05 0.00013724637 0.00046375996
0000c0 ab 62 bd b7 2a d2 73 38 91 01 02 b9 0a 15 27 ba
       -2.2576502e-05 5.8131445e-05 -0.0001239835 -0.00063736795
0000d0 c5 b0 c6 38 46 ba 47 38 00 c5 0a b9 be 3b 50 38
       9.4743016e-05 4.7618778e-05 -0.00013234094 4.9646704e-05
0000e0 25 73 02 ba b7 8a 7f 38 cc 18 a1 39 50 40 4b 39
       -0.00049762643 6.0925926e-05 0.00030726788 0.00019383547
0000f0 78 4c 7f b8 1f be 9e 38 ec 6d 58 38 1b 4a c9 3a
       -6.0867955e-05 7.56944e-05 5.1600786e-05 0.0015357168
000100 0b 16 ea 38 f8 29 e1 b8 28 01 10 35 9b 3b 8d b9
       0.00011162095 -0.00010736653 5.3645863e-07 -0.00026938025
000110 6c 5d b6 38 ee 67 58 b9 f9 34 20 b9 43 e8 1a 39
       8.6958375e-05 -0.00020638082 -0.00015278523 0.00014773109
000120 68 1c d7 b5 38 ee 1b b9 12 29 a2 b9 27 4a 83 39
       -1.6027016e-06 -0.00014870695 -0.00030929648 0.00025041515
000130 92 a9 f3 39 38 c1 32 36 c9 23 1d b9 8a db 34 38
       0.00046474912 2.6636535e-06 -0.00014986018 4.3119806e-05
000140 30 b3 24 3a 20 3a 63 b8 34 f9 a6 b9 6e 28 cc 38
       0.00062828045 -5.417515e-05 -0.00031847658 9.735009e-05
000150 ac ef 93 b9 46 c2 50 b8 45 6d 0d b8 97 3c 1c 38
       -0.00028216594 -4.9771996e-05 -3.3718785e-05 3.7249727e-05
000160 ca 1b 71 b7 65 a7 26 ba 82 c3 9c 39 c4 9d 4f 35
       -1.43711895e-05 -0.0006357341 0.00029900303 7.734309e-07
000170 0c 7b ff 37 ce 7e 30 39 d0 25 17 b9 b8 ed 01 b9
       3.0455667e-05 0.00016831906 -0.00014414568 -0.00012390956
000180 e6 31 73 38 50 d7 01 b8 bf 2c b0 3a 9b 1f 97 39
       5.7982186e-05 -3.0956522e-05 0.001344107 0.00028824512
000190 05 22 9e b9 e9 8b ac b9 1b dd c7 39 3e fa 0c b9
       -0.00030161455 -0.00032910638 0.00038120974 -0.00013444663
0001a0 12 27 1a b9 3a fc 1d 37 45 1b 69 39 5a de 80 b9
       -0.0001470114 9.416655e-06 0.0002223077 -0.00024579727
0001b0 fc 4f 29 ba f1 e8 8a 38 30 70 a1 b9 c0 e5 e3 36
       -0.0006458757 6.6237415e-05 -0.000307919 6.7918736e-06
0001c0 58 84 af 34 f3 fc 91 39 0a cf ff b8 37 6f f7 38
       3.2692583e-07 0.00027845017 -0.000121979116 0.00011798593
0001d0 cc 57 29 3a 93 84 aa b8 f5 78 3e 38 d0 99 d4 36
       0.0006459921 -8.1309256e-05 4.541218e-05 6.3359985e-06
0001e0 54 ab 59 b8 a1 39 23 ba 55 18 92 39 46 5c a2 b8
       -5.1896393e-05 -0.0006226544 0.0002786542 -7.741949e-05
0001f0 4d f6 99 b9 b1 b3 9e 38 e1 d7 03 37 1a fe fb 39
       -0.00029365942 7.567497e-05 7.858472e-06 0.0004806377
000200 e0 b3 c8 b6 92 e0 f5 39 94 6f 83 b8 37 5a 7f 37
       -5.9814047e-06 0.0004689736 -6.26735e-05 1.5220189e-05
000210 d4 0e 88 38 d2 55 28 ba be 35 df b8 92 a6 6a 39
       6.487747e-05 -0.00064214796 -0.00010643479 0.00022378031
000220 ec 0c a6 b9 c6 40 1b b8 78 eb e0 37 39 71 12 b9
       -0.00031671615 -3.7015205e-05 2.681253e-05 -0.00013965824
000230 95 70 92 3a ec 60 f6 b7 84 fd ab b8 43 30 1c ba
       0.0011172468 -2.9370618e-05 -8.2011364e-05 -0.0005958119
000240 74 79 0a 39 f9 cb 5c 38 28 b6 d3 b5 f0 6e 23 3a
       0.0001320595 5.264205e-05 -1.577374e-06 0.00062344875
000250 ef 00 ab b8 83 20 a8 b8 b0 4e 72 39 ec 7d 82 b8
       -8.154089e-05 -8.01692e-05 0.00023108232 -6.222338e-05
000260 60 5b 26 b4 a8 50 66 b9 f2 15 f6 38 f2 35 b9 b8
       -1.5493197e-07 -0.00021964556 0.00011734282 -8.8315355e-05
000270 89 12 23 ba 50 f0 48 39 4d 01 98 b9 13 47 27 ba
       -0.00062207185 0.0001916301 -0.00028992668 -0.00063811353
000280 f4 a8 4d 38 fc 5b 64 38 cf cf 29 b8 cb 1b 1d b9
       4.903316e-05 5.4445103e-05 -4.0486277e-05 -0.0001498304
000290 4e df b8 b9 70 7e 6b 39 df 11 8e 3a d1 91 ee b9
       -0.0003526159 0.00022458448 0.0010839066 -0.0004550354
0002a0 00 52 29 3a 56 ba a0 37 87 d3 99 39 b0 d4 8f 39
       0.00064590573 1.9160256e-05 0.00029340034 0.0002743355
0002b0 d2 b9 a4 b7 1b 19 ff 38 c5 22 a7 ba f7 44 6b b8
       -1.9636853e-05 0.00012164024 -0.0012751451 -5.6092595e-05
0002c0 f0 14 7f b6 84 4f 6f b9 54 94 63 ba 84 c8 d4 b8
       -3.8010148e-06 -0.00022822438 -0.00086814654 -0.00010146297
0002d0 80 86 50 b7 b6 c8 0b b9 b6 cf 2c 39 00 9f d6 b9
       -1.2429082e-05 -0.00013330844 0.00016480577 -0.00040935725
0002e0 b2 52 48 39 a0 01 ec b8 59 67 91 b9 66 de ed 38
       0.00019104293 -0.000112536596 -0.00027733555 0.000113424656
0002f0 73 ee 2c b8 98 75 a6 35 e2 24 ea b9 d8 e0 bf 39
       -4.123007e-05 1.2402188e-06 -0.00044659438 0.0003659788
000300 cd 4f 11 3a 78 3a a0 39 75 0c 9f b9 7f ed 0d ba
       0.0005543202 0.0003056114 -0.00030336124 -0.0005414113
000310 64 35 24 3a 48 83 63 b5 8e ed a5 b7 f4 1f 5a b5
       0.00062640593 -8.475513e-07 -1.9780153e-05 -8.1257826e-07
000320 9a 39 e1 b8 18 2e a9 38 e1 dd 61 b8 8c 58 07 39
       -0.00010739565 8.0671336e-05 -5.385082e-05 0.0001290759
000330 c2 d7 7b 39 c9 a8 57 38 9c ac 9f 39 d4 d2 a1 b9
       0.00024017601 5.1417188e-05 0.00030455447 -0.00030865392
000340 ae 41 33 b9 1f ce 24 ba 74 10 bb 37 3d 3b 0f 39
       -0.00017095238 -0.0006286818 2.2299799e-05 0.0001365961
000350 0a 64 80 3a 54 ea 2a 36 44 a0 bc b7 3b 68 5f 38
       0.0009795439 2.546837e-06 -2.2485976e-05 5.3264415e-05
000360 5f 26 d9 39 30 b2 a6 38 a2 86 58 38 f4 f7 30 39
       0.00041418054 7.948687e-05 5.16238e-05 0.00016877038
000370 bb 3a 46 38 55 45 1d 3a 53 b4 d1 38 f1 78 be 37
       4.7261576e-05 0.0005999406 9.9994846e-05 2.2706083e-05
000380 b0 20 e9 38 4e 73 9a 39 5b 9e bf b7 be 34 8f 39
       0.00011116394 0.00029459078 -2.2842714e-05 0.0002731438
000390 c7 b9 1c b9 68 2b 13 b9 26 fe 67 b8 51 40 87 b9
       -0.00014946527 -0.00014035183 -5.5311386e-05 -0.00025797126
0003a0 0f 6b a0 b9 78 f5 8b b8 51 97 0b 39 54 8c 6a 38
       -0.00030597343 -6.6737586e-05 0.00013312443 5.592064e-05
0003b0 63 ea 84 b9 ab 74 18 39 ce ab e2 38 5e c2 8e b9
       -0.00025351634 0.00014539312 0.00010808521 -0.00027229165
0003c0 8f cd a1 39 04 df a5 b7 fa 66 12 b9 10 dc 1d ba
       0.00030861466 -1.9773383e-05 -0.00013962007 -0.00060218666
0003d0 6c a3 e0 38 79 d9 f2 b5 d4 d4 b4 ba 91 f5 9c b9
       0.00010711592 -1.8093698e-06 -0.0013796338 -0.000299376
0003e0 b9 b7 a9 37 28 4b 27 b9 4e d8 8c b8 a6 67 b5 37
       2.0231922e-05 -0.00015954359 -6.71601e-05 2.1625146e-05
0003f0 9d a3 ef 37 a2 73 af b6 06 0b 1c ba 27 3b c4 b8
       2.8567209e-05 -5.228868e-06 -0.00059525704 -9.357026e-05

state_input.bias f4 [128]
000000 90 bb 05 3a f1 f4 77 b9 a2 e7 7e 38 1d eb 66 bc
       0.00051014964 -0.00023647003 6.0774044e-05 -0.014094141
000010 ad 97 3b 3d 78 11 12 bd 92 72 0c 3d ae 99 b1 ba
       0.045798946 -0.03566119 0.03428895 -0.0013549828
000020 0c c6 ae bc ed 89 b9 ba f8 e7 bb 3c e7 01 02 3d
       -0.02133467 -0.0014155485 0.02293776 0.031740095
000030 29 70 1a 3d 72 96 4a bc 60 cd 89 3c 38 42 b4 ba
       0.03770462 -0.0123649705 0.016821563 -0.0013752645
000040 ad 22 57 3a bf ce 61 3b 99 ec 24 3d a4 f2 22 bb
       0.0008206766 0.0034455506 0.0402647 -0.0024863863
000050 b4 6b de bc 8c ef 72 3c 3e 40 09 39 e4 f7 d2 ba
       -0.027150966 0.01482762 0.0001308927 -0.0016095606
000060 5e 1e 80 3a 8b b8 b1 3c ce 5c 85 bb 6a a0 69 3c
       0.0009774675 0.021694442 -0.004069901 0.014259437
000070 04 ad bd 37 fb 4f d1 3a 32 34 37 39 ac 19 ec 38
       2.2611122e-05 0.0015969271 0.00017471684 0.00011258139
000080 72 71 e1 39 dd d7 c6 bc d0 1e 26 ba eb af 37 bb
       0.00042999868 -0.024272854 -0.0006336989 -0.002802844
000090 e0 45 d9 b7 b2 22 2d ba 94 3e 28 3d 49 fe ca ba
       -2.5900954e-05 -0.0006604596 0.041075304 -0.001548716
0000a0 e6 0e 28 bd ad 4d 0f 3c 5d d6 3b bd d5 9f 82 ba
       -0.041029833 0.008746547 -0.04585873 -0.0009965847
0000b0 a7 ea 35 bd 9b 48 6a 3a 40 6a 84 3a 68 77 be 39
       -0.044413235 0.00089372107 0.0010102466 0.0003632859
0000c0 19 d6 53 39 78 20 3b 37 a0 ca 04 bb f8 aa 63 38
       0.00020202286 1.1153628e-05 -0.0020262375 5.4280245e-05
0000d0 93 35 1c 3d d3 94 c0 39 d3 b3 46 bd 29 6e 99 3c
       0.03813703 0.00036731976 -0.048511337 0.018729286
0000e0 7a c4 a0 bc 50 fb cb 3a 60 a5 22 bc 0f 15 b6 3c
       -0.019624937 0.0015562568 -0.009927124 0.022226838
0000f0 cc eb fe bb cd 01 39 ba 2a 65 c8 3a 60 93 f3 3c
       -0.007779574 -0.0007057458 0.0015288938 0.02973336
000100 43 45 34 bd 26 91 5c bc 92 63 eb bc e2 85 cd 3a
       -0.044011366 -0.01346234 -0.028734002 0.0015680159
000110 82 e9 f4 3c bd 46 69 3b ec 12 56 3b b7 2e 2a 3a
       0.029896501 0.0035595142 0.0032665087 0.00064919464
000120 0b bc 87 ba de 79 1c 3d 2c 3d 1a 39 0e 59 80 bc
       -0.0010355724 0.03820216 0.00014709373 -0.015667465
000130 10 18 3c ba 64 6b 64 38 80 ec ae bc c4 4d ca 3a
       -0.00071752165 5.445945e-05 -0.021353006 0.0015434553
000140 b4 fb 24 3b 67 93 92 3c 03 11 48 bd b6 f5 3e 3c
       0.002517444 0.017892553 -0.04884435 0.011655262
000150 b8 2a 2d bc ba ac 22 3c 20 16 96 bc 3c ad 6f bc
       -0.010569267 0.0099288765 -0.018321097 -0.014628705
000160 ca 4a 43 3d d9 b2 ef bb 30 12 f0 b7 65 f8 23 bc
       0.047678746 -0.0073150215 -2.8618699e-05 -0.010007952
000170 5f 6b 01 3d 7e c8 3b 3d f6 a1 84 3b 72 4e 9b b9
       0.031596538 0.0458455 0.0040476276 -0.0002962235
000180 f6 6b 37 bd f5 7e 6a 3a f3 47 8e 39 25 39 34 bc
       -0.044780694 0.00089453097 0.00027137957 -0.010999952
000190 81 92 1f b9 95 4a ca 3a c5 c9 12 39 47 bd aa bc
       -0.00015217999 0.0015433604 0.0001399881 -0.020842208
0001a0 20 04 8f bb 09 5f ec bc 27 b5 99 39 72 5b 98 b9
       -0.0043645054 -0.02885391 0.00029317403 -0.0002905983
0001b0 e3 8d 15 bc 37 93 44 bd 4d 58 1f 3d 0d 44 a8 bb
       -0.009128067 -0.047991958 0.03890257 -0.0051350654
0001c0 c5 b9 27 3a 99 69 49 3c 33 4b 83 3c 24 aa d3 bc
       0.0006398226 0.012293243 0.016027069 -0.025837965
0001d0 66 b0 9d ba cc 37 d0 bc df f5 a0 3c e8 f0 cc b8
       -0.001203072 -0.025417231 0.01964849 -9.77235e-05
0001e0 5c 34 66 ba 31 18 2b bd fa 53 14 3d b8 12 24 bd
       -0.0008781606 -0.041771118 0.0362129 -0.040056914
0001f0 00 b8 1b b7 1f 35 08 3c 06 19 ff 3c 0c 7d 38 3d
       -9.281561e-06 0.008313446 0.031139862 0.04504113

action_input.weight f4 [128, 40]
000000 a3 b4 e6 bb ba 49 83 bb 48 9a b4 bb 01 8c 8e 3c
       -0.0070405765 -0.0040065916 -0.005511556 0.017400743
000010 8b f7 ee bb 9f 6c 57 3b 7c b1 02 ba 02 f7 b0 3a
       -0.007292693 0.003287114 -0.00049855537 0.0013501348
000020 ad ca 82 3b 46 43 2d 3c e5 76 22 bc 68 86 52 bb
       0.003991446 0.010575121 -0.009916042 -0.003212357
000030 aa fb 37 3c f1 80 25 bb e2 77 1c 3c 3d 19 80 3b
       0.011229435 -0.0025253857 0.009550067 0.0039092586
000040 7d f9 61 3a ab f5 17 3b 2e 16 40 3c 8c e7 b3 b9
       0.00086202455 0.00231872 0.011724038 -0.00034314056
000050 c0 5f 98 3c ce 7d a8 3b d4 af 89 3b ef 96 06 3c
       0.018600345 0.00514195 0.0042018685 0.008214696
000060 54 fc 76 3b 20 1e 73 bc ec b8 b4 3a 2a 1b c8 3b
       0.003768702 -0.014838725 0.0013788021 0.006106754
000070 2d 9f 17 3c 62 40 0a bc 55 db 4e bb 6d 28 aa bc
       0.009254259 -0.008438202 -0.0031563838 -0.02077123
000080 26 e3 a5 3b a2 1a 55 bc 7d 0b 84 bb 60 e8 ce ba
       0.0050624786 -0.013006838 -0.00402969 -0.0015785806
000090 f3 7d 89 3b 34 36 b1 3b e7 3c cf 3b 41 f1 92 bc
       0.0041959225 0.005408073 0.006324399 -0.017937304
0000a0 51 e3 a3 bb 47 5e 19 3c de 18 b6 bb ea b3 18 bc
       -0.0050014635 0.009360856 -0.0055571636 -0.009320239
0000b0 14 bc 3c bb 64 64 2c 3b d8 7a 08 bc f0 45 8a bb
       -0.0028798627 0.0026304955 -0.0083300695 -0.004219763
0000c0 44 ec 14 bc 6b 72 1b bc 42 60 f0 b9 60 ca 2c 3c
       -0.009089533 -0.009487729 -0.00045848085 0.010546297
0000d0 a4 6d bd bb 99 a0 2c bc b0 87 d3 bb 4a dc 4d 3c
       -0.0057808924 -0.010536336 -0.006455384 0.012564728
0000e0 b9 4b e5 bb 67 67 ff bb 0b 7a 2d bb ed 0e 8a bc
       -0.0069975522 -0.007794309 -0.0026470448 -0.01685282
0000f0 2f 8e 5b bc cb f5 c9 bb 46 b0 03 bd f4 ff 95 bc
       -0.013400598 -0.006163334 -0.03215053 -0.018310525
000100 71 9a 95 bc ec 04 a6 bb 1f f8 63 bc 58 43 97 ba
       -0.01826212 -0.0050665047 -0.013914137 -0.0011540456
000110 cb 41 5e 3c 2e 6d c7 bb f9 2f 51 ba 60 d8 51 bb
       0.013565491 -0.0060860133 -0.0007979866 -0.0032019839
000120 65 20 49 bc 34 f2 a4 3c 97 45 a1 bb 43 d8 f9 3a
       -0.01227579 0.020135023 -0.004921626 0.0019061643
000130 42 27 93 bb 2d fd 62 3b 62 ae 42 bc 97 ab a7 bc
       -0.004490764 0.0034635768 -0.011882396 -0.020467563
000140 df 83 f4 3b c3 07 8d bb 13 83 fb 3b 6c a6 40 3b
       0.0074620093 -0.004303904 0.0076755374 0.002939607
000150 fe f8 cd 3c 24 c1 3f 3d 55 03 d3 3c 6a 58 5d bc
       0.025143143 0.046815053 0.025758425 -0.013509849
000160 ce 1e 8f bc a1 39 08 3b cd 75 e6 3c 20 e1 c2 3c
       -0.017470744 0.0020786303 0.028132344 0.023788989
000170 48 f8 b6 bc 59 e9 fc bb 47 f8 3b bc 15 f9 d3 3b
       -0.022335187 -0.007718247 -0.011472768 0.006468902
000180 44 8e 20 3b 7f 45 2e 3c 17 7c b4 3b bb 8d c2 bb
       0.002449886 0.010636686 0.0055079567 -0.0059373057
000190 b3 0d 41 bb da 87 9e 3a 0a 23 fe 3b 32 f4 80 bc
       -0.0029457628 0.001209493 0.007755642 -0.015741441
0001a0 ee ac 4c 3b c9 b8 19 bb 84 7f 55 bc 62 11 42 bc
       0.0031231004 -0.0023456088 -0.01303089 -0.011844965
0001b0 dd db 5f bb 7e b4 1a 3c 7a d0 e9 bb b3 52 2c bc
       -0.0034158148 0.009442447 -0.007135448 -0.010517764
0001c0 20 19 22 bb 9c ac 0f 3b 7a 73 da 3b 1a ac 0f 3c
       -0.0024734214 0.0021922952 0.006666598 0.00876906
0001d0 92 d0 41 3c 33 e8 4d 3b 20 9a 1c 38 b6 54 d4 3b
       0.011829512 0.003141892 3.733684e-05 0.006479825
0001e0 f8 60 19 bc f4 dd 80 bb 66 64 b4 bc c8 20 95 bc
       -0.009361498 -0.003932709 -0.02202053 -0.018204108
0001f0 15 56 93 bb 37 f9 86 bc 38 26 35 bc f0 d4 82 bc
       -0.0044963458 -0.016476257 -0.011056475 -0.015970677
000200 35 81 ac bb 49 55 b5 bc 83 a8 44 bc 8e 7b aa bc
       -0.005264426 -0.022135394 -0.012003067 -0.020810869
000210 e5 98 8c bc 1b a4 fa bc 18 71 6a bb 90 eb 2f bc
       -0.01716275 -0.03059583 -0.0035772976 -0.010737315
000220 f4 d9 32 ba 6d c2 83 bc 01 d3 4e bc 3d a2 c8 39
       -0.00068226387 -0.01608392 -0.012623549 0.0003826785
000230 15 4c a7 bc e4 7b 59 bc a9 bf 35 bc 72 f0 0a bd
       -0.02042202 -0.013274167 -0.011093059 -0.033920713
000240 c1 79 18 bc b7 63 01 3b b6 03 46 bc 11 49 07 bd
       -0.009306372 0.0019743273 -0.012085846 -0.033028666
000250 fb 83 b2 3b e5 7c 43 bc 75 2a b3 bc d7 98 3e bc
       0.005447862 -0.011931633 -0.021870831 -0.01163312
000260 0e a5 88 bc f8 84 74 bb 41 65 83 bc b1 46 00 bd
       -0.016680267 -0.00373107 -0.016039493 -0.031317417
000270 d5 93 f8 bc 3e 8c 9b bc 47 c8 67 bb 34 52 3b bc
       -0.03034393 -0.018987771 -0.0035367177 -0.011433173
000280 98 4b 8e 3b 2a e6 ba bc 84 69 e3 3a 21 07 29 bc
       0.0043425076 -0.022814829 0.0017350172 -0.010316641
000290 7d 03 11 bc f5 1c ba 3c 43 45 a0 3c 2c ee e5 bc
       -0.008850929 0.022718886 0.019564277 -0.02806767
0002a0 86 b3 a3 bc 3c a1 97 3b 09 c1 76 3c 99 b2 20 3d
       -0.019983064 0.004627375 0.015060672 0.039232824
0002b0 e2 f2 d8 bb cb 7e 8a bc ff 21 06 bd 49 c2 35 3c
       -0.0066207508 -0.016906163 -0.032747265 0.0110936845
0002c0 ce 12 02 3c 97 8a 53 3c f4 51 c5 3c 23 b7 14 bd
       0.007939054 0.01291146 0.02408693 -0.036307465
0002d0 28 45 81 bc 53 22 7c bb d6 10 82 bc e8 0c d3 bb
       -0.015780047 -0.0038472607 -0.015877169 -0.0064407475
0002e0 9c f6 65 bb 6c 2f a1 bb c5 66 75 bc 0b c8 72 3c
       -0.0035089618 -0.004918983 -0.014978115 0.014818202
0002f0 1f 5b ba 3c d8 59 41 3c fa fe 49 bb e3 b0 dc bc
       0.022748528 0.011801206 -0.0030822144 -0.026939815
000300 a7 a9 33 3c 33 96 1c 3c 80 43 60 3c 8b 75 db bc
       0.010965741 0.009557295 0.013687968 -0.026789447
000310 fc 37 94 b9 f8 42 a1 bb 3b 7f 34 bb 57 74 2d bb
       -0.0002827047 -0.0049213134 -0.0027541656 -0.002646705
000320 c0 e1 17 bc 44 ea f2 3b 9c 87 5f bb 9a 51 8d 3b
       -0.009270132 0.0074131805 -0.003410793 0.004312706
000330 48 d4 e2 3b 34 7f 09 3d 80 94 e3 3b 0f ba 26 bc
       0.0069222786 0.033568576 0.006945193 -0.010176196
000340 da 2f 8a bc ab c3 88 3b 5e d8 60 3b 54 69 a7 3c
       -0.01686852 0.004173716 0.0034308652 0.020435967
000350 64 fc 62 bc fd 51 9a bc b7 35 21 3c aa f9 b9 39
       -0.01385412 -0.018837923 0.009839467 0.00035471964
000360 2c 64 4e 3c e2 9c 44 3c a4 4d 96 ba 06 1d 5d ba
       0.012597125 0.012000294 -0.001146723 -0.0008434806
000370 f5 f6 98 bc 84 8b 79 bc ea 4a fc bc 37 23 b3 bb
       -0.018672446 -0.015231017 -0.03079744 -0.0054668444
000380 8f 42 a5 3b e0 bf 88 bc af c3 1e bc 7b 84 30 3c
       0.005043335 -0.016693056 -0.009690209 0.010773773
000390 24 c3 9e 3c 61 98 00 bc c8 b5 1c 3b 91 ef df 3b
       0.01938016 -0.00784883 0.002391206 0.0068339785
0003a0 46 9c 00 3c 81 af fa 3b e8 f2 9a 3b 38 ff 15 bc
       0.0078497585 0.007650316 0.0047286637 -0.009155087
0003b0 67 34 45 bc 29 ed 6b bb d9 60 8b 3b 21 87 0b 3b
       -0.0120364195 -0.0035999513 0.0042534885 0.002129026
0003c0 34 8c 1f bb 42 ef b2 3a 32 55 0e bc 91 b5 52 3c
       -0.0024345042 0.0013651627 -0.008687304 0.012860672
0003d0 07 11 4c bb 31 ff bf 3b fc ef 25 39 63 69 a3 3b
       -0.0031138079 0.0058592786 0.00015825027 0.0049869283
0003e0 ba 44 95 3c 6d e8 37 bc 76 c7 a4 bb da b2 d5 bb
       0.018221248 -0.011224848 -0.0050286604 -0.006521565
0003f0 dc 7c 99 3c 9d 63 0f 3c 35 77 23 3c b8 8c fb b9
       0.018736295 0.008751777 0.009977152 -0.00047979294

action_input.bias f4 [128]
000000 2c f9 58 3d b6 4f df bb cd 15 8b 3d 30 b7 8b bd
       0.052972004 -0.006814922 0.067912675 -0.068220496
000010 40 a5 b7 3c a0 24 09 3c 2d 66 20 bd 6d f9 92 bb
       0.022417665 0.0083705485 -0.039159942 -0.0044853003
000020 13 c2 79 3d 7f e3 34 3d f9 ac ae 3d 8f b1 54 bd
       0.0609761 0.04416227 0.08529086 -0.051927146
000030 00 e7 68 3d a8 4f 49 bd 27 f8 1c 3c 16 fc 76 bb
       0.056860924 -0.04914823 0.0095806485 -0.0037686876
000040 97 08 7a 3c aa 91 9b bd 02 8d bb bd c1 89 9d bd
       0.015260837 -0.075961426 -0.091577545 -0.0769229
000050 9b e4 aa bd bf 1f c0 bc 36 92 af 3c 6f 41 d3 3c
       -0.08344384 -0.023452638 0.021432023 0.025788037
000060 4c ba 87 3d c8 b5 d1 bd 55 ed 2d 3a 65 27 be 3c
       0.0662733 -0.1023975 0.00066347915 0.023212144
000070 e5 dc 6e bd b4 eb d5 bc 5a 62 d7 bc 31 80 1e bd
       -0.05831613 -0.026113369 -0.026292015 -0.03869647
000080 9a 5d a3 3d 0d a6 e2 3c 0b 1f 8f 3c 2d c8 ba bd
       0.079768375 0.02766707 0.017470857 -0.09120212
000090 89 0a 1f bd 1a 7b 62 3c 63 56 a7 bd b8 45 a2 bd
       -0.038828406 0.013823295 -0.08170774 -0.07923454
0000a0 08 e1 e4 3b 9c 26 44 bd 69 c9 32 3c 60 d0 d9 bc
       0.0069848336 -0.047888383 0.010912278 -0.026588619
0000b0 10 04 11 3d fd 3b b5 bd 98 73 d2 bd ab 22 7c bc
       0.035404265 -0.088493325 -0.10275954 -0.015389125
0000c0 33 5a 99 3d 2d e7 b3 bd 5f bd b2 3b 11 0b b8 3a
       0.07487907 -0.08784328 0.0054547037 0.0014041384
0000d0 7f 71 fd bb a1 b7 cc 3d 0e f4 b9 bc 3d c7 ab 3c
       -0.007734477 0.09995962 -0.022699382 0.020969028
0000e0 48 ee ae bd 76 ae b8 3d 32 19 a5 bd f0 3c 38 bc
       -0.08541542 0.09017651 -0.08061446 -0.011244997
0000f0 34 e8 2d 3d 41 22 0b bd 50 0f 9d 3b 20 22 a6 3d
       0.042457774 -0.033968214 0.004793085 0.081119776
000100 10 25 ab bd 0a c9 97 b8 5d 51 3c 3b 7a 60 a6 3d
       -0.083566785 -7.2376875e-05 0.002873502 0.0812387
000110 85 e3 2c bc 93 13 97 3d 28 5f 3c 3d 2d 54 6f bb
       -0.010552292 0.0737678 0.045989186 -0.0036518679
000120 72 3a da bc b7 2c b4 bc 4a d4 83 bc 6f 0e d8 3d
       -0.026639197 -0.021993978 -0.016092438 0.10549628
000130 81 63 72 3c d0 a8 83 3d 1a ab a6 3b ad 78 ca bd
       0.014794231 0.06428683 0.005086315 -0.09886298
000140 7c b5 34 bd bf 28 25 3d bd c0 c0 bd de 8a 7a 3d
       -0.04411839 0.04032206 -0.09411762 0.06116759
000150 bf 88 85 3d 6b 08 b1 bd 4d b1 d2 3d 96 98 62 bd
       0.06520223 -0.08644184 0.10287724 -0.0553213
000160 9b f5 93 bd fd f6 8f bd 4d d9 4c 3d a2 a0 8a 3d
       -0.0722458 -0.07029531 0.05001192 0.067689195
000170 31 1f 76 3d e2 c9 b6 3d b2 bb e9 3d a2 6b 79 3c
       0.06008834 0.08925225 0.11412753 0.015223416
000180 c8 f4 ad bd b7 21 72 3d 79 f5 94 3c 74 60 ca 3d
       -0.08493954 0.059114184 0.018183457 0.09881678
000190 d0 aa 8d bc 15 f5 84 bd 9b 56 6d 3d 3e a1 04 3b
       -0.017293364 -0.06492058 0.05794392 0.002023771
0001a0 48 75 98 3c 14 2e 21 bd ad bc 87 3d e9 9f a7 bd
       0.018610612 -0.039350584 0.06627784 -0.08184797
0001b0 18 20 6c bd 49 17 ae 3d 65 b6 94 3d 75 23 92 3d
       -0.057647794 0.08500535 0.072613515 0.07135669
0001c0 3b f6 b2 3d d1 02 4e bc 1a 95 4a bd 4f a3 07 bd
       0.08738371 -0.012573914 -0.0494586 -0.033114728
0001d0 7e 1d 03 3d 94 ef 9d bd 11 38 8a bc 00 bc 88 bc
       0.032010548 -0.077117115 -0.016872438 -0.016691208
0001e0 47 12 92 3c 87 c0 a1 3d 3a a8 c6 3d 22 d0 a5 bd
       0.017830981 0.0789805 0.097000554 -0.08096339
0001f0 57 a1 40 3d 72 25 42 bb 19 f0 c4 bd 49 06 c9 bd
       0.047028866 -0.002962437 -0.096161075 -0.09815652

layers.0.weight f4 [256, 256]
000000 dc a8 cd b9 43 ad 0e bb 5f be 68 3c 42 bf 17 bb
       -0.00039226457 -0.0021770753 0.014205544 -0.002315477
000010 c8 e2 db bb d4 95 88 bb ab 84 3d bc f8 ea 75 bb
       -0.006710384 -0.0041682515 -0.011567275 -0.0037524085
000020 f2 ae 01 bc d1 cf a1 3a 47 76 f8 bb ff 52 0e 3b
       -0.007915245 0.0012345259 -0.007582459 0.002171695
000030 e3 a1 43 3c 77 fa 19 3b f3 9a 57 bc 4d 3e 60 3b
       0.011940452 0.0023495236 -0.013159501 0.0034216822
000040 65 4a 23 bb 0a 14 fc bb 15 e9 36 3c aa b2 83 bc
       -0.0024916169 -0.0076928185 0.0111639695 -0.016076405
000050 e1 0c 23 bc be 6b 24 3c 79 7a f2 ba d6 ad c0 bb
       -0.009951801 0.010035453 -0.0018499634 -0.005880098
000060 de 85 71 3c e5 cf d0 3b 5d f3 29 3c a9 2d e4 bb
       0.014741389 0.006372439 0.010372964 -0.006963451
000070 f0 d5 f7 3b 24 64 97 bc 2d e1 0e bb a3 03 0b 3c
       0.007563345 -0.018480368 -0.0021801696 0.008484754
000080 e6 f8 90 ba a5 de 89 bc f5 c4 7b 3b 8d 7f 41 3a
       -0.0011060506 -0.016829798 0.0038416956 0.0007381372
000090 07 6b e8 b9 96 48 a8 bb 4f a3 fd bb 61 ee b6 3a
       -0.0004433023 -0.005135606 -0.007740415 0.001395654
0000a0 0e 3c 26 3c 6b 15 5c 3b a5 ea 4c 3c d7 18 d2 3c
       0.010146154 0.0033582102 0.0125071155 0.02564661
0000b0 29 59 95 3c 76 43 9d bc 34 d8 05 3b f2 e7 12 bc
       0.018230991 -0.019197207 0.0020423057 -0.008966433
0000c0 3c f4 c9 3c cb d7 65 bb 3c 3c 62 bc 81 b6 ca 3b
       0.024652593 -0.003507125 -0.013808306 0.006186307
0000d0 dd cb b5 bc 76 dd 72 bb d4 ae a1 bc d8 11 9c bb
       -0.022191936 -0.003705827 -0.019736685 -0.0047628693
0000e0 fe c8 b5 39 8d 86 3a bc 5e 94 48 bc 6f 00 0b bc
       0.0003467276 -0.0113846185 -0.012242405 -0.00848399
0000f0 ea 64 87 3b 89 48 63 3c 6e dd 6b 39 e3 39 84 bc
       0.004131903 0.013872274 0.00022493835 -0.016140884
000100 56 eb 47 3c 4a 74 f2 ba f7 68 05 bc 3e e6 5a ba
       0.012202105 -0.0018497792 -0.008142701 -0.0008350349
000110 8f 64 e7 bc e4 70 bd 3a e8 89 7e bb c2 ae b6 3c
       -0.028246192 0.00144532 -0.0038839523 0.022300128
000120 0d ba e0 ba 72 30 60 bc b6 ee 2e 3c d0 84 95 3c
       -0.0017145291 -0.013683425 0.01067703 0.018251806
000130 c2 ee bf 3b 7a 98 cc 3c ba 11 f2 bb 35 fb 46 3c
       0.0058573196 0.02497505 -0.007387367 0.012144853
000140 29 bf 28 bb 34 d2 67 3b 1f 2c d5 3c f0 79 ee 3b
       -0.0025748706 0.0035373094 0.026022015 0.0072777197
000150 35 0d 93 bc 0c 50 ae 3c 30 f9 1d bc 7c 2f 64 3c
       -0.017950634 0.021278404 -0.00964193 0.013927337
000160 01 91 72 3c 2a 30 03 bc b2 eb 5c bb 6b 94 7b 3c
       0.014805079 -0.008007089 -0.0033709821 0.01535521
000170 47 d5 e6 3a d2 e6 25 bc 48 5a e3 3b 3e c8 29 bb
       0.0017611169 -0.010125833 0.0069382526 -0.0025906707
000180 09 10 00 3c 23 02 1b 3c 36 0b 79 bc d8 0d 85 3c
       0.007816323 0.009460959 -0.015200427 0.016241953
000190 a7 f9 47 3c d6 6e 18 bb 9d 0f 33 bc f2 e9 1f 3b
       0.012205518 -0.0023259423 -0.010929015 0.0024400917
0001a0 1b 3b 04 3c 73 17 22 bc 24 32 8a bc ce b4 ed 3a
       0.0080707325 -0.009893286 -0.016869612 0.0018135549
0001b0 23 5a ce ba 41 2a a7 bb fd f9 53 bb 42 f7 08 bb
       -0.0015743416 -0.0051014726 -0.003234505 -0.002089933
0001c0 46 2e d4 bb 79 6d 5a bc 8a 59 e4 3b ef b3 37 3c
       -0.006475243 -0.013331764 0.0069686817 0.011212333
0001d0 f7 62 a8 3c 79 3a d0 3b 76 67 ac 3c 63 88 45 39
       0.020555003 0.0063546267 0.021045428 0.00018838192
0001e0 bb ae 41 3c ee ba c6 3b 80 8e 92 b5 07 ee d4 bc
       0.011821444 0.006064764 -1.0919321e-06 -0.025992407
0001f0 74 1a c6 3c 2f f4 50 3c 41 ee 06 bc 2f 08 a0 bc
       0.024182536 0.01275353 -0.008235515 -0.019535152
000200 78 fb c8 3b d5 6e 6c 3c 0b ea a6 bc 1e 2d 41 3c
       0.006133493 0.014430721 -0.020375272 0.011790542
000210 c6 32 ba ba 8e f1 53 3c bd 97 7d 3c 16 41 83 3b
       -0.0014205805 0.012936009 0.015478072 0.0040055616
000220 77 ba d4 bc e7 c5 84 bc ab 2c a3 bc b2 02 af 3c
       -0.02596782 -0.016207648 -0.01991876 0.02136359
000230 76 f9 2d bc b4 5b 19 3b 1f 5c b2 3b 8b 5c b3 3b
       -0.010618558 0.0023400607 0.0054431106 0.0054736785
000240 fb 74 38 39 e0 19 46 bb ba 6b ba 3b 11 3d 5e 3c
       0.00017591186 -0.0030227825 0.0056891115 0.013564364
000250 7f b3 f0 3b 94 50 46 3c c4 17 2c bc d2 b5 dd bc
       0.0073456164 0.012104172 -0.010503713 -0.027064238
000260 2c 61 00 bc 72 2f 2e bb cb 5b c1 3b c5 83 21 bc
       -0.007835668 -0.0026578573 0.005900835 -0.009858076
000270 5f c0 81 ba fa 5d 93 bb 6a 2f 07 3d ea b8 b8 ba
       -0.000989925 -0.004497287 0.033004202 -0.0014093195
000280 66 9a 79 bc ac ca c7 3a 50 b3 26 3c d6 28 84 3c
       -0.015234565 0.0015242896 0.010174587 0.016132753
000290 e9 4a 87 3c 4e bd 89 bb 13 e1 16 3b c7 4f 48 3c
       0.016515212 -0.004203475 0.0023022338 0.012226052
0002a0 c5 bc 14 ba 6d f2 fd 3b af 8c 16 bd e5 c1 c7 3c
       -0.0005673881 0.0077498467 -0.03675526 0.024384448
0002b0 6e 0b ea bb 7c 82 ab 3b 48 8f 94 3b 8c cd 1e 3c
       -0.007142476 0.005234061 0.004533682 0.009692561
0002c0 24 4b 87 bc 04 35 e5 3b 52 41 3b 3c 14 19 a6 bc
       -0.016515322 0.0069948453 0.011429148 -0.02027563
0002d0 b0 bd ce ba bb 10 80 bc 1a 0a 50 3c 60 4d a0 bc
       -0.0015773084 -0.015632978 0.012697721 -0.019568145
0002e0 0c 73 88 3b f4 3d 88 bc cb bc c2 3c 86 b5 8d bc
       0.0041641053 -0.016631104 0.023771664 -0.017298471
0002f0 a3 9d 1f bc ae 6f 2c 3b 22 bc 98 3c df fc 5f bc
       -0.009742173 0.0026311683 0.018644396 -0.013671129
000300 65 b9 8a 3b 9d fe b0 3b 77 48 3d 3c a6 37 9c 3b
       0.0042335265 0.005401446 0.0115529215 0.004767376
000310 71 cb eb bb 1f d4 bf bc 5d 6e 59 bc ec 7c 06 3c
       -0.007195883 -0.023416577 -0.013270942 0.008208495
000320 07 bb b4 bc fe ee cf bc 21 b3 90 bc 98 ef f2 bc
       -0.022061838 -0.025382515 -0.01766354 -0.029655263
000330 c9 90 93 bc 1a bc 99 bc 87 f5 b6 3c bc 5c ba 39
       -0.018013375 -0.018766452 0.022333873 0.00035545777
000340 b7 ff 85 3c c5 82 73 bc 20 43 c8 3b fc 96 85 bc
       0.016357286 -0.014862721 0.0061115175 -0.016307347
000350 96 11 2b bc 5e 08 de 3c e3 e9 d3 bb 9e 57 15 3b
       -0.0104412045 0.0271036 -0.0064670905 0.002278782
000360 de 85 da 3c 38 c1 df 3b 72 4d 41 3b 1e 28 9c bc
       0.026675161 0.0068284534 0.0029495624 -0.019062098
000370 7a 5d b8 bb 37 75 33 3c 3c 7b 77 bc 6e d0 8a 3b
       -0.0056263776 0.010953239 -0.015105065 0.0042362725
000380 22 c1 b4 b9 29 83 a1 39 b8 fb 09 3c 91 27 df bc
       -0.0003447617 0.00030806035 0.008421831 -0.027240546
000390 47 78 77 bb 47 05 28 3c 8b f0 ff bb 66 da e4 bc
       -0.00377609 0.0102551645 -0.0078106574 -0.027936172
0003a0 ce 8d 4d bc a1 84 4f bc 61 37 c1 3a 7a 7f 7e 3c
       -0.012546016 -0.012665899 0.0014741236 0.0155333225
0003b0 6c 35 bd 3b 84 70 ec bb 18 e9 94 bc 78 af d9 3a
       0.0057741906 -0.0072155613 -0.018177554 0.001660808
0003c0 d2 cb 30 3c 38 85 81 3b cf 00 11 3c 7c a2 4d 3c
       0.010790782 0.0039526485 0.00885029 0.012550946
0003d0 75 12 c3 bc 71 15 a5 bb 7d 76 c3 3c 88 0e 05 3c
       -0.023812512 -0.0050379564 0.02386021 0.00812114
0003e0 14 c0 a5 3c ef 91 f2 bc f7 e7 14 bd b2 4e 4f 3c
       0.020233192 -0.029610602 -0.03635403 0.01265304
0003f0 d8 f9 73 bc ac fd 32 bc 0a 00 55 3b d1 be 3a 3c
       -0.01489111 -0.010924738 0.0032501244 0.011398033

layers.0.bias f4 [256]
000000 0c 39 d2 bd 0a 85 6a 3d 8f 2c ba 3d 41 18 8b 3d
       -0.10264787 0.057255782 0.0909053 0.067917354
000010 49 e2 b7 3b 68 b5 4d bd 9e 2c 00 bd 88 b4 e5 bc
       0.005611692 -0.05022183 -0.03129255 -0.028040186
000020 25 84 39 3d 07 f3 9a bd 0b 40 f0 bc c1 29 33 bb
       0.04529204 -0.07565885 -0.029327413 -0.002733812
000030 ef 47 cf bd 3f 7a 89 bd b5 bb 8b bc c4 c1 c1 3d
       -0.10121142 -0.0671277 -0.01705728 0.09460786
000040 83 6f 2c 3d b1 59 bf bc 43 4d 8c bc 34 5c d1 bc
       0.042098533 -0.023358198 -0.017126685 -0.025556661
000050 61 b5 b9 3b 8e cf d9 bd 57 52 87 3d 3c ea d2 3c
       0.005667374 -0.10635291 0.06607502 0.025746457
000060 d5 90 38 bc 3f 2a aa bd bb 00 aa 3c 78 22 ef bc
       -0.011264999 -0.08308839 0.020752301 -0.02919124
000070 68 90 a4 3c 27 e3 be 3d bd 1c 06 3d 8f 78 8d bc
       0.02008839 0.093206696 0.03274225 -0.0172694
000080 08 50 63 bd 16 e2 5c 3d 17 bf ab 3d 45 d9 b5 bd
       -0.055496246 0.05392655 0.08386057 -0.088793315
000090 d6 b7 99 3d fd b0 d5 bd 7e 09 14 3c 51 6c 8f bd
       0.07505767 -0.104341485 0.009035466 -0.070030816
0000a0 48 37 ab 3d 76 4e e4 bd fe 15 c1 bd 16 1a 29 3d
       0.083601534 -0.11147778 -0.09428023 0.041284643
0000b0 fa 04 80 bd af 6d fe 3b 8b e9 d9 bb c6 e2 bc bd
       -0.06250949 0.00776454 -0.006650155 -0.09222941
0000c0 e9 48 a9 3d 4c 0c 71 3d c3 ba 55 3d 98 e8 1f bc
       0.0826586 0.058849618 0.052180063 -0.0097600445
0000d0 52 92 e5 3d 81 99 a0 3d 4b e6 24 3d bb 51 81 bc
       0.11209549 0.078417785 0.040258687 -0.015786042
0000e0 16 01 b4 bd 99 a1 bb 3d 73 e2 bb 3d 2a 60 b3 3d
       -0.087892696 0.09161682 0.09174051 0.08758576
0000f0 27 1f 08 3d 46 50 bf bd 2f b3 d2 bd 77 07 b6 ba
       0.033232834 -0.09341483 -0.10288083 -0.0013887723
000100 5c 75 a4 3d 52 87 dc bc 41 97 8b bd 6d e4 ac bd
       0.08030197 -0.026919995 -0.06815959 -0.08442006
000110 f0 0e 53 3d 3c 19 ba 3d 67 46 85 3a 80 01 7e bd
       0.051527917 0.09086844 0.0010168076 -0.06201315
000120 87 f8 7c bd c3 eb 5f 3d e5 80 84 bd 1c be b6 bd
       -0.06176045 0.0546682 -0.06469897 -0.08922979
000130 cd 03 9a 3d 4d b7 d4 bd ea c3 af 3d 36 1d ad bd
       0.07520256 -0.10386524 0.085822895 -0.08452837
000140 49 68 ef 3c e6 5d a2 bd ef cd 8f 3c c7 94 7c bd
       0.029224532 -0.07928066 0.017554251 -0.061665323
000150 cd 8d be 3d 1b fd 00 3d 3c 76 95 bd 5d 5f 76 bd
       0.0930439 0.03149138 -0.07297942 -0.06014954
000160 b5 6e 9c 3d 31 a8 a6 3d bf 08 5a 3d e9 0e f3 bc
       0.07638303 0.08137549 0.053230997 -0.029670196
000170 a0 24 c8 bd 7d f4 ab bd dc bc 05 bc b0 8c a1 3d
       -0.09772611 -0.08396242 -0.008162703 0.07888162
000180 b2 c2 25 bc b3 78 b4 bd 35 d4 fa bb c8 4c 5a 3d
       -0.01011722 -0.08812084 -0.0076546916 0.05329588
000190 e6 4f b0 bd 3d 15 8f bd d2 5c 1a 3d 8c 31 38 3d
       -0.086089894 -0.06986473 0.037686177 0.044969127
0001a0 c5 01 88 bc 33 2f a3 3d 1e 0f 1e 3d 4a 0a 93 3d
       -0.016602406 0.07967987 0.038588636 0.07179697
0001b0 cd 57 e5 bc 9b d9 a5 bc 77 11 79 3c 03 a0 26 bc
       -0.027995968 -0.020245364 0.015201918 -0.010169986
0001c0 d2 58 bf ba c3 61 ba bd 31 51 32 3c 38 ca 93 3d
       -0.0014598614 -0.09100678 0.010883615 0.072163045
0001d0 02 b9 77 bd b2 d5 8c bd 83 ab b1 3d 5b 1e 97 bd
       -0.06047917 -0.06876697 0.086752914 -0.07378837
0001e0 12 73 78 3c 8c d7 73 bd 45 0b 78 bd ad 83 c5 bc
       0.015164154 -0.059531733 -0.060557622 -0.02411064
0001f0 6c 68 ca bc 36 27 2f 3d a6 5f b8 3d 01 a1 a0 3d
       -0.024707995 0.042762004 0.090026185 0.07843209
000200 61 7f 72 bd 0e 16 ae 3d c8 60 04 bd e2 09 82 bd
       -0.05920351 0.085003 -0.03231886 -0.06349541
000210 22 d0 fa 3b 87 4a d9 3d 43 41 2b 3d 5c db 3c bd
       0.007654206 0.10609918 0.041810285 -0.046107635
000220 01 ab 8c 3c f8 9d d1 bd 98 a7 35 bd 6e 47 15 bd
       0.017171385 -0.10235208 -0.044349283 -0.036445074
000230 c6 f1 f3 bc 9e 22 a7 bd 90 0a e4 bb 3b d0 7b 3d
       -0.029778372 -0.081608996 -0.006959267 0.06147788
000240 34 26 a6 bd 7e bb 2e bd 74 93 4f bd 83 9c 74 3d
       -0.081127554 -0.042659275 -0.05067773 0.059719574
000250 3c 2a 34 3c b0 7c 9f 3d fe b5 eb bc 10 96 83 bd
       0.010996398 0.07787454 -0.028773304 -0.064251065
000260 c2 4e 9f bd 8b 3a 04 bd 0e 90 5c bb f2 03 82 3d
       -0.07778694 -0.032282393 -0.00336552 0.06348409
000270 35 fd 29 3d 2c c6 87 bd 25 b3 ab bd b6 af fa 3b
       0.041501243 -0.06629595 -0.083837785 0.007650341
000280 aa cb b8 bc 9a b0 bb 3c 81 73 54 3d 28 61 91 3d
       -0.022558052 0.022911359 0.051867966 0.07098609
000290 83 8c 09 bd 76 e4 57 bb ac d9 8c 3d c1 21 8e bc
       -0.033581268 -0.003294257 0.06877455 -0.01735008
0002a0 04 73 9e bd 3d 73 70 bc 90 b8 c3 bd 8f c4 0f bd
       -0.07736781 -0.014675912 -0.09556687 -0.035099562
0002b0 ec 15 95 bb df 2d 32 bb 7f ae cd 3c 30 92 15 bc
       -0.0045497324 -0.0027187986 0.02510762 -0.009129092
0002c0 64 44 a2 bd 81 9a af 3b 22 38 68 3d 26 5b d4 bd
       -0.07923201 0.0053589945 0.056694157 -0.10368948
0002d0 d7 f9 7f 3c 4e 78 04 3d 7a 74 40 bd d6 e9 aa 3d
       0.015623531 0.032341294 -0.04698608 0.08345382
0002e0 0d cc 9d bc 55 85 b3 bd ff 4b 8b bd 57 e5 ab bd
       -0.019262338 -0.087656654 -0.068016045 -0.083933525
0002f0 69 d8 9d bd 53 ef c8 3d cd 24 70 bd d7 88 ba 3d
       -0.077072926 0.098112725 -0.058628846 0.091081314
000300 fc c0 d1 bd e8 e5 d1 bd a4 86 be 3d c8 96 c2 3d
       -0.10241887 -0.10248929 0.093030244 0.095014155
000310 06 85 9c bd 8d 32 63 3c c2 cc e0 bb 28 89 09 bd
       -0.0764256 0.013867033 -0.0068603465 -0.033578068
000320 fc 07 aa 3d be 66 9d bb 6b e4 36 3d 12 b3 ac 3d
       0.08302304 -0.0048035076 0.04465143 0.084325925
000330 1a cd 4d 3d 5a de 90 3d 30 33 35 3d e6 aa 8d bd
       0.05024443 0.0707366 0.04423827 -0.06917362
000340 e0 b5 9c 3c 83 f1 97 3d ae 3b a9 bd 47 02 32 3d
       0.019129694 0.074191116 -0.08263336 0.043459203
000350 22 ad 55 bd 70 8d b4 3c 39 6e 44 3d 1d 90 a9 3c
       -0.052167065 0.022040099 0.04795668 0.020698601
000360 01 ef 73 bd e0 5a 0d 3b 9c 98 bb bc c4 00 e3 3d
       -0.059554104 0.0021569058 -0.022899918 0.110841304
000370 bf b9 a0 3d a6 57 b2 3b a9 2b 13 bb 5e ae bc 3d
       0.07847928 0.0054425774 -0.0022456443 0.092129454
000380 e6 31 c3 3c d3 7b be 3d 15 37 93 bc 0b 00 8a bb
       0.023827504 0.09300961 -0.017970601 -0.004211431
000390 b8 77 94 3d 30 b0 01 3d f5 e2 53 bd 4a e4 d7 bc
       0.07249397 0.031662166 -0.051730115 -0.026353974
0003a0 cc eb b8 3c 80 ef bf bd f1 d9 53 bd 81 bc f8 3c
       0.022573374 -0.09371853 -0.051721517 0.030363323
0003b0 bb 22 3b 3c 60 28 18 3d 06 68 b8 3d 3e c9 e7 bc
       0.011421855 0.03714788 0.09004216 -0.028294202
0003c0 bf 46 2c 3d 74 84 2b 3b 71 cc 7a bd 7f c7 b2 bd
       0.042059656 0.0026171478 -0.061230127 -0.08729457
0003d0 f5 bf ae bd 9e 1f d5 3c 5f ab ae 3d 72 7f 0a 3d
       -0.08532707 0.026016053 0.0852878 0.033812948
0003e0 58 66 60 3d 64 cf 9b 3d 71 a9 a2 3d 69 a3 9b 3d
       0.054785103 0.07607916 0.07942475 0.075995274
0003f0 f1 87 bb bd b0 9f 3e bd ad 8e 5f bd 0f a6 93 bd
       -0.09156788 -0.04653901 -0.054579426 -0.072094075

layers.3.weight f4 [256]
000000 67 c7 7f 3f 2f 9c 7e 3f d0 33 7d 3f 64 66 80 3f
       0.9991364 0.9945707 0.98907185 1.0031247
000010 34 96 7f 3f 5a 81 7f 3f 13 c7 7e 3f dc dc 7f 3f
       0.99838567 0.9980675 0.99522513 0.9994638
000020 b9 36 7e 3f 10 0b 7f 3f e3 53 7e 3f e4 eb 7f 3f
       0.9930225 0.99626255 0.9934675 0.99969316
000030 c5 a3 7d 3f d4 62 80 3f d6 02 81 3f e9 9c 80 3f
       0.9907802 1.003016 1.007899 1.0047885
000040 c2 4a 7c 3f 30 6e 81 3f e1 05 7d 3f d1 70 80 3f
       0.9855157 1.0111752 0.98837095 1.0034429
000050 84 2c 80 3f 15 97 80 3f 41 b3 80 3f 11 9f 7f 3f
       1.0013585 1.0046107 1.0054704 0.9985209
000060 97 05 80 3f b4 b0 7d 3f 21 69 7e 3f 14 2c 7f 3f
       1.0001706 0.9909775 0.99379164 0.9967663
000070 b3 c1 7e 3f 00 eb 7d 3f c1 02 7e 3f ee 95 7f 3f
       0.9951431 0.99186707 0.9922295 0.9983815
000080 72 2d 80 3f 39 7d 7e 3f 5e 76 80 3f 5b b8 7f 3f
       1.0013869 0.99409825 1.0036123 0.9989068
000090 8d 41 80 3f 54 26 7e 3f 0e ca 80 3f 6e 7f 7d 3f
       1.0020005 0.99277234 1.0061662 0.9902257
0000a0 4a 8a 7b 3f 83 f2 7d 3f 79 30 7b 3f 27 36 80 3f
       0.9825789 0.9919817 0.9812084 1.0016526
0000b0 56 89 80 3f 72 9f 7e 3f b5 3c 7c 3f 8b 55 81 3f
       1.0041912 0.99462044 0.9853013 1.0104231
0000c0 0a ee 7b 3f 5b 55 7d 3f 15 6d 7f 3f 81 4d 81 3f
       0.98410094 0.9895837 0.9977582 1.0101777
0000d0 15 b8 7e 3f fc e2 7d 3f 76 a3 7e 3f dd b9 7d 3f
       0.99499637 0.99174476 0.9946817 0.9911173
0000e0 96 76 7e 3f f8 b9 80 3f 2c 77 7e 3f 5b 35 81 3f
       0.993997 1.0056753 0.9940059 1.0094408
0000f0 f1 16 80 3f fc 47 80 3f 97 04 7f 3f 41 fa 80 3f
       1.0007001 1.0021968 0.9961638 1.0076371
000100 8e 61 7e 3f 5a 9b 80 3f 9a 24 7f 3f 31 72 7e 3f
       0.99367607 1.004741 0.99665225 0.9939299
000110 b7 f5 7f 3f f4 c9 80 3f 1d 55 7e 3f 3c 7d 81 3f
       0.99984306 1.0061631 0.9934862 1.0116343
000120 c7 9c 7e 3f 09 74 7d 3f 8e 57 81 3f f6 9b 7d 3f
       0.99457973 0.9900518 1.0104845 0.990661
000130 eb f8 80 3f 83 ed 7d 3f c7 48 81 3f 24 6d 81 3f
       1.0075964 0.9919054 1.0100335 1.0111432
000140 69 9a 7d 3f c6 b0 7f 3f cc a2 7e 3f 09 db 7e 3f
       0.99063736 0.9987911 0.9946716 0.9955297
000150 e7 11 7d 3f 9b d8 7d 3f b1 10 7e 3f 20 01 7d 3f
       0.9885544 0.9915864 0.9924422 0.9882984
000160 82 ed 7e 3f 85 73 80 3f 28 35 80 3f 45 bd 7f 3f
       0.9958116 1.0035254 1.0016222 0.9989818
000170 ca 2e 7c 3f 0b c9 7f 3f 68 c8 7c 3f c4 54 7f 3f
       0.98508894 0.9991614 0.98743296 0.9973872
000180 00 94 7e 3f 68 05 81 3f b0 c7 81 3f a3 e5 7f 3f
       0.9944458 1.0079775 1.0139065 0.9995977
000190 2a f7 7d 3f c4 cb 7c 3f b6 e4 7e 3f 46 9a 7d 3f
       0.9920527 0.9874842 0.99567735 0.9906353
0001a0 7a 08 81 3f 0b d8 7e 3f dd e9 7c 3f ef e6 7e 3f
       1.0080712 0.99548405 0.9879435 0.99571127
0001b0 27 c6 7f 3f 6d e4 7d 3f 9f 2b 7f 3f cf 04 81 3f
       0.9991173 0.99176675 0.99675936 1.0079592
0001c0 6e 44 7f 3f 39 ef 7e 3f 69 b0 80 3f 84 d5 7f 3f
       0.9971379 0.99583775 1.0053836 0.99935174
0001d0 29 ff 7c 3f 28 6f 7f 3f 4e f6 7e 3f 2b 4d 7e 3f
       0.98826844 0.99778986 0.9959458 0.993365
0001e0 8a 23 7e 3f c2 71 80 3f e6 bc 7d 3f ae 8b 7f 3f
       0.9927298 1.0034716 0.9911636 0.9982251
0001f0 88 8c 7f 3f 3f c2 7e 3f 3d d8 7f 3f c4 d3 7f 3f
       0.9982381 0.99515146 0.9993933 0.99932504
000200 bd ba 7c 3f e8 24 80 3f 69 c9 7e 3f 31 6d 7f 3f
       0.9872244 1.0011263 0.9952608 0.9977599
000210 d3 f3 7e 3f 44 b7 7f 3f d7 6d 7f 3f 43 e8 7d 3f
       0.99590796 0.99889016 0.9977698 0.9918253
000220 c4 50 80 3f 66 af 7d 3f 48 0c 80 3f 78 19 7e 3f
       1.0024648 0.9909576 1.0003748 0.9925761
000230 c2 7f 7e 3f 32 37 7e 3f 40 1b 80 3f 23 ee 80 3f
       0.9941369 0.9930297 1.0008316 1.0072674
000240 3f c5 7d 3f 85 2a 7f 3f da 5d 80 3f 51 52 7d 3f
       0.991291 0.99674255 1.0028641 0.9895373
000250 57 76 7c 3f fc 53 80 3f f4 f0 7f 3f f5 5a 7f 3f
       0.9861807 1.002563 0.9997704 0.99748164
000260 da 99 7e 3f 85 74 7d 3f 90 a1 7f 3f 19 e6 7e 3f
       0.9945351 0.9900592 0.998559 0.9956985
000270 18 94 7f 3f d6 d8 7e 3f b7 c8 7d 3f 52 86 7e 3f
       0.9983535 0.99549615 0.9913439 0.99423707
000280 a4 e4 7e 3f 86 f7 7b 3f f6 4a 7e 3f fa be 7e 3f
       0.9956763 0.98424566 0.9933313 0.9951016
000290 94 f1 7d 3f ae 4c 7e 3f 03 b3 7b 3f a0 6c 7d 3f
       0.99196744 0.99335754 0.98320025 0.98993874
0002a0 9d 7c 7f 3f 03 b0 80 3f c6 ef 7d 3f 26 3d 80 3f
       0.9979952 1.0053715 0.9919399 1.0018661
0002b0 9c 68 7f 3f eb a7 7e 3f c7 36 7f 3f 0e 34 7b 3f
       0.99768996 0.9947497 0.9969296 0.98126304
0002c0 7f 20 7d 3f f4 07 7d 3f f6 1a 80 3f f6 bc 7f 3f
       0.9887771 0.9884026 1.0008228 0.99897707
0002d0 90 81 7e 3f 23 e4 7e 3f 0e dd 7d 3f fc 39 7d 3f
       0.99416447 0.9956686 0.9916543 0.989166
0002e0 e9 52 80 3f af d9 7e 3f 7e 03 80 3f 2a 08 80 3f
       1.0025302 0.9955091 1.0001066 1.0002491
0002f0 84 ac 7e 3f 59 18 80 3f a9 bf 7b 3f 5b 2b 7f 3f
       0.9948199 1.000743 0.98339325 0.9967553
000300 00 60 80 3f 5a 2b 81 3f e6 b2 7c 3f 01 e5 7c 3f
       1.0029297 1.0091355 0.9871048 0.9878693
000310 38 37 7e 3f 0b 2d 80 3f 4a 5f 80 3f c3 9b 7f 3f
       0.9930301 1.0013746 1.002908 0.9984705
000320 08 d7 7f 3f 37 b8 80 3f dc 06 7c 3f 98 54 80 3f
       0.99937487 1.0056218 0.98447967 1.0025816
000330 ea 9a 80 3f 29 2e 7f 3f e4 9c 7e 3f 81 55 7d 3f
       1.0047276 0.9967981 0.99458146 0.98958594
000340 e3 08 7f 3f be 88 7f 3f f5 57 7d 3f 79 e5 7f 3f
       0.99622935 0.99818027 0.98962337 0.9995952
000350 4a 7f 7e 3f 3f 63 7f 3f 86 bb 7e 3f c0 b1 7e 3f
       0.9941298 0.9976081 0.9950489 0.99489975
000360 05 12 7f 3f a3 e0 7c 3f 8a 68 7c 3f 67 26 80 3f
       0.9963687 0.9878027 0.98597014 1.001172
000370 8b 92 80 3f d9 30 7f 3f d3 5e 7f 3f 04 99 7e 3f
       1.0044721 0.9968391 0.99754065 0.99452233
000380 89 47 80 3f 7c 9a 7e 3f 94 45 80 3f ad d0 7d 3f
       1.0021831 0.99454474 1.0021234 0.9914654
000390 47 69 7d 3f 0b 2d 7f 3f b4 2a 7e 3f 4e b7 7b 3f
       0.98988765 0.99678105 0.9928391 0.98326576
0003a0 05 6f 80 3f 39 4c 7f 3f d9 ec 81 3f 0a 3b 81 3f
       1.003388 0.9972568 1.0150405 1.0096142
0003b0 6e 2e 7f 3f 3a 96 7f 3f 6f d9 7e 3f 74 e5 7d 3f
       0.9968022 0.998386 0.9955053 0.9917824
0003c0 cd db 80 3f c0 54 80 3f fb 5d 81 3f 09 46 7f 3f
       1.0067078 1.0025864 1.0106806 0.9971624
0003d0 c7 16 7d 3f 00 75 80 3f e6 f0 7c 3f c7 0d 7f 3f
       0.9886288 1.0035706 0.9880508 0.996304
0003e0 0a 7d 7e 3f 92 17 7e 3f a3 64 7f 3f 8a d6 7e 3f
       0.99409544 0.99254715 0.99762934 0.9954611
0003f0 5c af 7e 3f cb 41 80 3f 18 ad 7f 3f 57 0a 80 3f
       0.9948633 1.0020078 0.99873495 1.0003155
