ddpg/model_params/tpch_ddpg_50_20_actor.pth (torch, 158731 bytes, 20 tensors)

layers.0.weight f4 [128, 65]
00000000: 8a39 293a 2569 59b9 6a34 89bb 69c5 543b
00000010: f623 9a3a ec5f d7ba ea90 a3ba 27cf dbba
00000020: f9bd c0ba 6408 2139 dbc0 633c 6d7d a93a
00000030: 6b16 d9ba 089e fcb7 ffae b63b 8ca0 953a
00000040: 6b1e 263b 24c2 d239 1c81 4bbb 9da1 c03a
00000050: e02b b5b6 8f07 0fbc 25fd 00bb b20b 923a
00000060: e332 2cba ff29 94b9 c03b 84ba 7cba ecbb
00000070: 36e1 b4bb 5540 ccb8 3e12 cbbb 2272 3dbc
00000080: 918e abbb a319 b4ba 3872 d73a 8bac bd38
00000090: 50a3 223a 8249 c1ba 497d 843b 2eb0 523a
000000a0: 608f 0db8 32b4 be39 302c b73a f672 3abb
000000b0: b8bd adb8 4820 4eba 4b66 01bc a065 91b7
000000c0: d70a 3b3a 6c3c 453a 0af3 adba 60c0 8fba
000000d0: 6e24 e2b9 7ed5 963b f864 54b9 7959 003c
000000e0: 1c5e f739 c8ec ca3a 86a9 acba 504b 92ba
000000f0: 66df e8ba 5abf d53a 38c7 c0ba ed1f acbb
00000100: 1031 1eba ec51 51b9 3cbf cb3a 2047 613a
00000110: 50e5 3bbb c096 bdb9 ff5e 7bb7 7082 2f39
00000120: fa96 0abc 7a9f 9d3a 9752 b7ba e3fc 4bba
00000130: 269f 92b9 00a0 c235 604b 7aba fa8a d83a
00000140: a5fb d9ba 0407 8cba 28bc 29ba 16dd fbbb
00000150: 4035 4fba 6342 ad3a 1749 6c39 fae6 a3bb
00000160: bc9c 38bb 96d2 c23a 9a48 2abc 4855 823b
00000170: 6897 9fb7 fce0 7f3a acf0 983a e82d 8cba
00000180: 7599 a538 c5be caba 804e 1db7 540c 98ba
00000190: e648 75ba 5f87 ba3a 5c43 5639 4cad 20b8
000001a0: 464a cb3a 1655 2cb9 41c9 743b 78f9 37b9
000001b0: 5b6c 2739 a512 113c 6d09 c8bb ee01 2c39
000001c0: 8052 523a ac2b 39bc 98fc 1338 383e 44ba
000001d0: c49c c33a 86a4 f5b9 862e 7eba de8b 8cb9
000001e0: fcb6 cbba e604 f638 9bd6 96ba 38e1 80ba
000001f0: d932 cfba ff07 03ba e00a b1bb 3611 ed38
00000200: 2d2f b13a 88d2 92ba 98dc 0c37 cac9 6fbb
00000210: fcbf 353c a4e4 553a a25f 33ba d231 213b
00000220: 56f3 c2ba b66a 6cbb b8bf 0bb9 70cd 98ba
00000230: 5f8b 2a39 9182 fcb8 4dbd 143a 9c45 9aba
00000240: 050e 8bba 3020 d93a 9639 573a 6599 12bc
00000250: da62 80bb 6834 4838 fa49 a73a 86d3 d33a
00000260: 60dd 5c37 ce4e bbbb 7ea4 bfb9 421b d4ba
00000270: 1f7e 103a 3013 26b9 1201 a5ba 08b9 0b39
00000280: f091 113c 950d 27bc 0a5c 6bba 7dd3 90ba
00000290: 58f2 9e3a 0e10 61ba 0f71 da3a c778 daba
000002a0: 709a 3eb9 ce7d 50ba 249d 34bb 6204 2bbb
000002b0: 7b22 d13a 323d 46ba 7d8a 2a3b 6bb7 9cba
000002c0: 0d0c 87ba b4af b5ba 4c7c 2839 094f 61ba
000002d0: 0f4b cfba f056 d9ba 55c2 a7ba 1af2 633a
000002e0: 5569 d0ba 2c6f 3b38 d633 343a 4804 96ba
000002f0: 030a 403a 5704 883a f6e7 313a 9de5 d7ba
00000300: 0658 7aba c0a7 cf3a 6add 1d3a 96a2 d8ba
00000310: 3871 d939 fb7e a7bb 67ae 99bb a2c1 ba3a
00000320: 225a bfba 6e94 19ba 57c9 093c e174 cf3a
00000330: 98de d2ba 1036 ceb8 6e65 d0ba 7411 16bb
00000340: a1f3 fe3b 130c 613b c96b 913a 74d4 94ba
00000350: 3acc 3bba 10e0 58bb e3b4 82bb b2d1 23bb
00000360: 784e 8fba 0381 d7ba 4670 daba a18c 5abb
00000370: 980b 7bb9 c508 feb8 e435 df3a e699 d0ba
00000380: d122 f7b8 bc43 03b9 62c7 1039 5873 d73a
00000390: 6d83 92ba 404f c9ba b29c 5aba 3486 22bc
000003a0: d10a d43b 78b6 02ba 6c98 d238 7c1b 29b9
000003b0: ecaa 953a 544f 33ba 7ef8 0639 c5c2 093b
000003c0: 59ca f5b8 9438 fdba b120 1fb9 1359 da3a
000003d0: a740 8c3a 0633 d2ba 2a1d c2bc 14ee 3abb
000003e0: 0c7f cc3a 0c93 84b9 5c0e da3a f309 2c39
000003f0: a574 1eb8 b4c9 2e3c 06ca abba 5eef d5ba
0.00064554124 -0.00020733902 -0.0041871564 0.0032466298 0.0011759985 -0.0016431785 -0.0012479101 -0.001677011
-0.0014705054 0.00015357282 0.013900961 0.0012931057 -0.0016562467 -3.011433e-05 0.0055750604 0.0011415645
0.002534772 0.00040198967 -0.0031052297 0.0014696602 -5.399328e-06 -0.008729829 -0.0019682136 0.0011142401
-0.0006568862 -0.0002826005 -0.0010088608 -0.007224379 -0.0055200113 -9.739461e-05 -0.006197243 -0.011562856
-0.005235501 -0.001374055 0.0016437238 9.044361e-05 0.0006204145 -0.0014746638 0.0040432555 0.0008037117
-3.3750548e-05 0.0003637388 0.0013974961 -0.002844987 -8.284621e-05 -0.00078630866 -0.007897924 -1.733267e-05
0.0007135099 0.0007523957 -0.0013271284 -0.0010967366 -0.0004313322 0.004603087 -0.0002025551 0.007833832
0.00047181628 0.0015481943 -0.001317308 -0.0011161361 -0.0017766773 0.0016307638 -0.0014707809 -0.0052528293
-0.00060345326 -0.00019962311 0.0015544663 0.00085936673 -0.0028670616 -0.00036161207 -1.4982884e-05 0.00016737892
-0.008458847 0.0012025677 -0.0013986406 -0.00077815185 -0.00027965865 1.4500692e-06 -0.0009547975 0.001652091
-0.0016630782 -0.0010683243 -0.0006474876 -0.0076862676 -0.0007904358 0.0013218637 0.00022533942 -0.0050019
-0.0028169593 0.0014863785 -0.010393286 0.0039774515 -1.9024781e-05 0.00097610033 0.0011668405 -0.0010694833
7.896397e-05 -0.0015468231 -9.376206e-06 -0.0011600354 -0.0009356871 0.0014231018 0.00020433724 -3.8308368e-05
0.0015509806 -0.00016434895 0.0037351402 -0.00017545174 0.00015966727 0.008854543 -0.0061046393 0.00016403917
0.0008023158 -0.011301916 3.5282777e-05 -0.0007486078 0.0014924039 -0.0004685262 -0.00096962636 -0.0002680709
-0.0015542204 0.000117311065 -0.0011508049 -0.0009832745 -0.0015808 -0.0004998445 -0.0054029077 0.000113042464
0.0013518088 -0.0011201659 8.396011e-06 -0.0036588782 0.011093136 0.0008159375 -0.00068425585 0.0024596346
-0.0014873545 -0.0036074347 -0.00013327494 -0.0011657905 0.00016264383 -0.00012040616 0.000567396 -0.0011770013
-0.0010609037 0.0016565379 0.000821018 -0.008947705 -0.003918034 4.7732523e-05 0.0012763136 0.0016161061
1.3164565e-05 -0.0057161814 -0.00036552915 -0.001618244 0.00055119576 -0.00015838142 -0.001258882 0.00013325003
0.008884892 -0.010196109 -0.00089782535 -0.0011049357 0.0012126667 -0.0008585461 0.0016665774 -0.0016668075
-0.00018177344 -0.00079533167 -0.0027559483 -0.0026095142 0.001595571 -0.00075622194 0.0026022487 -0.0011956518
-0.0010303274 -0.0013861568 0.00016068033 -0.0008594846 -0.0015815216 -0.0016581696 -0.0012799004 0.0008695439
-0.0015900532 4.468781e-05 0.0006874179 -0.0011445368 0.00073257106 0.001037727 0.0006786579 -0.0016471628
-0.00095498597 0.001584284 0.0006022068 -0.0016527947 0.0004147382 -0.005111573 -0.00468998 0.0014248381
-0.0014599005 -0.00058586046 0.00840982 0.0015827679 -0.0016088067 -9.8329154e-05 -0.0015899369 -0.0022898586
0.0077805077 0.0034339472 0.0011094745 -0.001135482 -0.0007163916 -0.0033092536 -0.0039888485 -0.0024996814
-0.001093342 -0.0016441647 -0.001666554 -0.0033347982 -0.00023941544 -0.00012113297 0.001702961 -0.0015915006
-0.00011784363 -0.00012518367 0.00013807186 0.0016437573 -0.0011178084 -0.0015358701 -0.00083393895 -0.009919692
0.006471016 -0.00049862964 0.00010041971 -0.00016127335 0.0011418737 -0.0006840129 0.00012871806 0.0021020633
-0.000117202006 -0.001931923 -0.000151756 0.0016658626 0.001070042 -0.0016036935 -0.023695547 -0.0028523253
0.0015601828 -0.0002528656 0.001663636 0.00016406905 -3.777877e-05 0.010668207 -0.0013106472 -0.0016321947

layers.0.bias f4 [128]
00000000: 225b 383c d08c 9b3d 79f4 9b3c 32db 8cbd
00000010: 3cbf 233d da8d 2bbb a39a 0b3d ba61 903d
00000020: 0b55 18bd 40b9 1e3d 9a23 b13a 2c62 f43c
00000030: 66f5 ebbc 468a 073c 316e 57bc a1aa 9bbd
00000040: fe48 aa3d 3990 4d3d 72d1 38bd 8194 44bd
00000050: 1632 b1bb 90bf 87ba f552 b9bc cbf8 8abc
00000060: cbb0 5a3c 6501 803d 6855 33bd 81bd ad3d
00000070: 0c92 89bd e310 843a 5434 153d 4353 95bd
00000080: 0e15 853b 95f1 4e3d 7001 893b 3747 003d
00000090: da08 643c f791 513d c6fe 0b3d 9a68 253d
000000a0: ec55 fbbc c0a9 e13c 42d7 713a 5952 91bd
000000b0: 2771 8c3d c23c 4abc 3331 023d f6e2 82bd
000000c0: 6cce d73a aa44 d43a ee3c 1a3d 61de aeba
000000d0: a4be a7ba 4277 863d 78c2 033d 5cd8 1fbd
000000e0: 2ecf 32bd 78c7 7abd 445c b13d 3b49 9f3d
000000f0: 8fde 873d 8fbe 943d cd38 1bbd 5805 d23a
00000100: 191f 23bd 1531 a6bc 387f da3c fe36 0abc
00000110: 5afc aabd 71ef 3a3c 04da 4ebd ad38 a53d
00000120: de0c aa3a 24c5 143a 3fff 283c 5dcc 0cbd
00000130: 5870 daba 1601 3739 1f19 893d 80cd 23bc
00000140: e2db 143d ce77 803a 6721 263a 0439 3bbc
00000150: 6d2b aa3d 4c92 62bd 9b75 b3bc 7210 e3bc
00000160: d489 1e3c 7440 4b3d 9fab 22bd 73f9 6b3c
00000170: 6586 5e3d a4c9 743c 0f9b 9a3d 9322 d3bc
00000180: 0709 cf3a da2e 303d f18d c2bc f8cc b8b9
00000190: c03d 9d3c fe25 883d 08fc 603d a33a 51bd
000001a0: 9952 d6bc 2edc f03c 33b8 bdba 57f0 173d
000001b0: cdb2 08bc a930 e9ba 871f 88bd 057d 82bd
000001c0: 2a6b 1bbc c6a7 62bd d116 043d abea 3dbd
000001d0: 7797 b2bd 614a 1ab9 e31b afbd 6972 3c3d
000001e0: 5441 48bd eb34 043d d639 34bd bc3f 4a3d
000001f0: c9e8 61bd 9cf3 de3a 4200 063d 8bc7 183c
0.0112521965 0.07595217 0.019037472 -0.06877746 0.039977297 -0.002617708 0.03408302 0.0704989
-0.03719048 0.038750887 0.0013514638 0.029831968 -0.028803539 0.008272713 -0.01314883 -0.07600904
0.083147034 0.05018637 -0.045121618 -0.047993187 -0.005407582 -0.0010356773 -0.022622565 -0.016964337
0.013347815 0.06250266 -0.04378262 0.084834106 -0.06717309 0.0010075833 0.036426857 -0.072912715
0.004061348 0.05052336 0.0041810796 0.031317916 0.013918126 0.051164594 0.034178518 0.04038296
-0.03068062 0.027546763 0.00092254963 -0.07095785 0.068575196 -0.012343587 0.0317852 -0.063909456
0.0016464717 0.001619478 0.037655763 -0.001334142 -0.0012797904 0.065657154 0.03216788 -0.039024696
-0.043654613 -0.061225384 0.086601764 0.077776395 0.066342466 0.07262909 -0.037895966 0.0016023321
-0.03982458 -0.020287076 0.02667199 -0.008435963 -0.083489135 0.011409626 -0.050500885 0.08067451
0.0012973805 0.0005675128 0.010314762 -0.034374584 -0.0016665561 0.00017452645 0.066942446 -0.0099977255
0.03634251 0.000980133 0.0006337375 -0.011427168 0.08309064 -0.0553153 -0.021906665 -0.027717803
0.0096764155 0.049622014 -0.039714452 0.014402735 0.054327387 0.014940653 0.07549106 -0.025773322
0.0015795537 0.04301343 -0.023749324 -0.00035247928 0.019194484 0.066478714 0.054927856 -0.05108131
-0.026162433 0.029401865 -0.0014474451 0.03709444 -0.008343411 -0.0017790991 -0.06646638 -0.06371502
-0.009485999 -0.055335782 0.032248322 -0.046366375 -0.08720296 -0.00014714293 -0.08550241 0.046007548
-0.048890427 0.03227703 -0.04400047 0.049377188 -0.05515364 0.0017009857 0.03271509 0.0093249185

layers.2.weight f4 [128]
00000000: c8ee 7c3f b0ee 7c3f b3ee 7c3f c4ee 7c3f
00000010: b4ee 7c3f a8ee 7c3f bcee 7c3f b5ee 7c3f
00000020: dbee 7c3f acee 7c3f bbee 7c3f bfee 7c3f
00000030: a4ee 7c3f a5ee 7c3f 9fee 7c3f a6ee 7c3f
00000040: b8ee 7c3f 9bee 7c3f adee 7c3f c8ee 7c3f
00000050: c7ee 7c3f a5ee 7c3f b4ee 7c3f c6ee 7c3f
00000060: b4ee 7c3f baee 7c3f b7ee 7c3f cdee 7c3f
00000070: bbee 7c3f c3ee 7c3f bbee 7c3f c8ee 7c3f
00000080: c7ee 7c3f c5ee 7c3f d6ee 7c3f 9fee 7c3f
00000090: aeee 7c3f caee 7c3f bfee 7c3f c4ee 7c3f
000000a0: b6ee 7c3f a9ee 7c3f c1ee 7c3f adee 7c3f
000000b0: bbee 7c3f baee 7c3f ceee 7c3f aaee 7c3f
000000c0: b3ee 7c3f a0ee 7c3f b5ee 7c3f b3ee 7c3f
000000d0: adee 7c3f cfee 7c3f bfee 7c3f c4ee 7c3f
000000e0: cbee 7c3f b1ee 7c3f adee 7c3f b6ee 7c3f
000000f0: beee 7c3f adee 7c3f a9ee 7c3f b5ee 7c3f
00000100: b7ee 7c3f baee 7c3f c9ee 7c3f 92ee 7c3f
00000110: c8ee 7c3f a3ee 7c3f bcee 7c3f d7ee 7c3f
00000120: cfee 7c3f c3ee 7c3f baee 7c3f cbee 7c3f
00000130: b3ee 7c3f 9eee 7c3f beee 7c3f beee 7c3f
00000140: c1ee 7c3f cbee 7c3f c4ee 7c3f b7ee 7c3f
00000150: aeee 7c3f c1ee 7c3f b7ee 7c3f aeee 7c3f
00000160: c8ee 7c3f bbee 7c3f bdee 7c3f c4ee 7c3f
00000170: adee 7c3f b1ee 7c3f b0ee 7c3f c6ee 7c3f
00000180: c5ee 7c3f b7ee 7c3f beee 7c3f bbee 7c3f
00000190: b3ee 7c3f b3ee 7c3f c2ee 7c3f b5ee 7c3f
000001a0: a4ee 7c3f b3ee 7c3f bfee 7c3f a9ee 7c3f
000001b0: c7ee 7c3f b0ee 7c3f abee 7c3f baee 7c3f
000001c0: b8ee 7c3f b8ee 7c3f b7ee 7c3f b9ee 7c3f
000001d0: b1ee 7c3f cdee 7c3f aeee 7c3f aeee 7c3f
000001e0: acee 7c3f b0ee 7c3f a9ee 7c3f adee 7c3f
000001f0: b0ee 7c3f c4ee 7c3f aaee 7c3f c3ee 7c3f
0.9880185 0.9880171 0.98801726 0.9880183 0.9880173 0.9880166 0.9880178 0.9880174
0.98801965 0.98801684 0.98801774 0.988018 0.98801637 0.9880164 0.98801607 0.9880165
0.98801756 0.98801583 0.9880169 0.9880185 0.98801845 0.9880164 0.9880173 0.9880184
0.9880173 0.9880177 0.9880175 0.9880188 0.98801774 0.9880182 0.98801774 0.9880185
0.98801845 0.98801833 0.98801935 0.98801607 0.98801696 0.98801863 0.988018 0.9880183
0.98801744 0.98801666 0.9880181 0.9880169 0.98801774 0.9880177 0.9880189 0.9880167
0.98801726 0.9880161 0.9880174 0.98801726 0.9880169 0.98801893 0.988018 0.9880183
0.9880187 0.98801714 0.9880169 0.98801744 0.9880179 0.9880169 0.98801666 0.9880174
0.9880175 0.9880177 0.9880186 0.9880153 0.9880185 0.9880163 0.9880178 0.9880194
0.98801893 0.9880182 0.9880177 0.9880187 0.98801726 0.988016 0.9880179 0.9880179
0.9880181 0.9880187 0.9880183 0.9880175 0.98801696 0.9880181 0.9880175 0.98801696
0.9880185 0.98801774 0.98801786 0.9880183 0.9880169 0.98801714 0.9880171 0.9880184
0.98801833 0.9880175 0.9880179 0.98801774 0.98801726 0.98801726 0.98801816 0.9880174
0.98801637 0.98801726 0.988018 0.98801666 0.98801845 0.9880171 0.9880168 0.9880177
0.98801756 0.98801756 0.9880175 0.9880176 0.98801714 0.9880188 0.98801696 0.98801696
0.98801684 0.9880171 0.98801666 0.9880169 0.9880171 0.9880183 0.9880167 0.9880182

layers.2.bias f4 [128]
00000000: f466 0fba f6e6 c439 0cf0 bab9 bc24 5c37
00000010: fc7c 013a dd4f 143a 34d8 fd39 547d 9bb9
00000020: 52e2 b239 e073 64ba 6ccd 26ba 0b99 0c3a
00000030: e318 8cba b2d5 c038 5fcb 1739 5bc5 193a
00000040: c13f 08b9 d628 0e3a 98e0 2b3a c3fe 3ab9
00000050: 4048 923a aeef 9639 b772 b5b8 2c0d 9238
00000060: 2212 cbb9 8c75 9b38 d478 483a 7be1 6439
00000070: 32d6 233a a75a 36b9 c87b 67b9 547a 8fb9
00000080: 0eb8 103a 2b9d 2bba 86c5 ffb9 4bbf d638
00000090: a1c3 09b9 e2dd 2dba 9297 c738 9ed1 8339
000000a0: 2b9b 0aba ae62 f6b8 d6ce 9539 dd27 30ba
000000b0: 7e32 0bb9 a0da 183a 8498 e139 5e5d b339
000000c0: 1498 deb9 3d68 dcb9 59f3 09ba 4bd5 14ba
000000d0: 6c34 083a 70b8 ffb9 09ec 7d39 2e65 8f37
000000e0: 9858 71b8 20dc 2eba 6f8b fbb9 69ab f839
000000f0: 705a e3b9 e4e2 80b9 30fe c8b9 01ef 083a
00000100: 499d 183a caf2 cc39 6408 d839 8772 2439
00000110: 912b da39 5b9b 47ba d801 80b9 748a dab9
00000120: 20fe 87b7 fc9b 20b9 10e2 6c38 8174 6939
00000130: f0d7 7939 de12 043a 6693 093a 99e2 663a
00000140: b835 2438 8d2a 9439 7195 003a 2e5b b4b9
00000150: 9cd5 35ba 047a d337 aec6 043a 05e9 90b9
00000160: 3437 d339 f091 093a d878 89ba 4897 e837
00000170: 02dd 463a 8355 e5b7 a6b8 1f3a 1afd 88b9
00000180: eaa4 8a39 4977 8eb9 5389 2439 7a39 9f39
00000190: d4b5 b4b9 2259 c239 78e7 6f39 c8aa 843a
000001a0: 4cb7 1239 e161 ddb8 2dc4 0b3a 1fb5 0bba
000001b0: a368 22ba 75ec 23b9 d4a8 243a 045a 1a3a
000001c0: 6022 343a 9daa dcb9 8f8f ae39 1855 433a
000001d0: b1df d1b9 98b2 86b9 d094 45ba c2e1 8eb9
000001e0: 02e8 22b9 5a08 dfb9 536d 383a 6788 043a
000001f0: e616 723a e8bb e737 72b9 13ba 3d7e 5db9
-0.00054703583 0.00037556113 -0.00035655533 1.3121575e-05 0.00049395836 0.00056576525 0.00048417004 -0.0002965728
0.00034119427 -0.00087147765 -0.00063630077 0.00053633814 -0.0010688569 9.195077e-05 0.00014476244 0.0005865895
-0.00012993721 0.0005422955 0.00065565994 -0.00017833248 0.0011160448 0.00028788805 -8.65212e-05 6.964276e-05
-0.00038732687 7.412871e-05 0.00076473993 0.00021827772 0.0006249874 -0.00017390643 -0.00022075989 -0.00027366227
0.00055205903 -0.0006546552 -0.00048784557 0.00010239946 -0.00013138216 -0.00066324894 9.5172916e-05 0.00025142444
-0.0005287404 -0.000117485746 0.000285736 -0.0006719807 -0.00013274883 0.00058309175 0.00043028977 0.00034211105
-0.00042456447 -0.00042039333 -0.0005262397 -0.0005677535 0.00051958 -0.00048774807 0.0002421589 1.7094044e-05
-5.7541387e-05 -0.00066703744 -0.00047978337 0.00047429957 -0.00043364195 -0.0002458311 -0.00038336357 0.00052236026
0.0005821777 0.00039090804 0.00041204982 0.00015682924 0.0004161266 -0.00076143973 -0.00024415436 -0.00041683356
-1.621159e-05 -0.00015316898 5.647732e-05 0.00022264013 0.00023826933 0.0005038212 0.00052480993 0.00088075694
3.9150676e-05 0.00028260463 0.0004905081 -0.0003440021 -0.00069364323 2.5209978e-05 0.0005065006 -0.00027639433
0.00040286186 0.00052478816 -0.0010488285 2.7727001e-05 0.00075860333 -2.7338747e-05 0.00060928834 -0.00026128517
0.00026444282 -0.00027173225 0.00015691416 0.00030369667 -0.00034467748 0.00037068973 0.00022879045 0.0010121698
0.00013991928 -0.000105563326 0.00053316617 -0.00053294183 -0.00061954017 -0.00015632978 0.0006281261 0.0005888047
0.00068715774 -0.00042088787 0.00033294826 0.00074513396 -0.0004003025 -0.00025691534 -0.00075371284 -0.00027252553
-0.00015535954 -0.00042540097 0.00070353335 0.0005055726 0.00092349795 2.7624847e-05 -0.00056352385 -0.0002112323

layers.2.running_mean f4 [128]
00000000: 8ae7 66d0 46fe 9150 1e17 0d52 60da fdcf
00000010: 74d0 bdcf 9b7c 3b50 53b0 8b51 6db0 32d0
00000020: 602c 06d0 7bfd 0e52 f08b 4d51 bde4 99cf
00000030: 3a1c 01d0 5499 8f51 9403 5e50 248a 9751
00000040: 59b8 85d0 6e5f f750 fa07 1251 a6b5 0651
00000050: 38c9 974e 8681 4c51 e7e7 22d0 dc8d b6ce
00000060: b212 9a51 ac00 9c50 1924 dfcf 0fc2 2ad0
00000070: e9a4 62cf 549c 1852 2c2c a5cf ef9b 3751
00000080: f7d5 4250 7035 0c51 a89b 77d0 e8d8 5ed0
00000090: 09ef dbcf e884 a2cf 7499 e1cf f405 c250
000000a0: 1913 12d0 4ec8 5bd0 25ce 24d0 157c 4651
000000b0: 0b15 abd0 c359 a6cf c4e6 edcf bd2f a2cf
000000c0: 7d89 3dd0 a143 3852 e107 1851 493e c551
000000d0: 87f2 a451 abbe 8951 5d25 d850 31bc 2651
000000e0: d38f 40d0 226f 7551 a84d 2e51 cb1d 00d0
000000f0: fcb3 ed50 75d6 9151 fd20 c751 84a7 3151
00000100: da03 2651 10ee f44f 7b5f ba51 51bf 76d0
00000110: 2a5e d450 7b95 9351 0c49 f4cf 1a20 8f51
00000120: 0953 d350 8a5c a3d0 3c30 add0 e706 6651
00000130: 8a45 23d0 da51 0250 302f 31d0 623d c5d0
00000140: 3e36 d5cf 3e5d 0fd0 6c39 b4d0 5f4f d2cf
00000150: 9ae6 b551 d8a0 1151 2aa5 13d0 7c16 11d0
00000160: 821c b1ce 29ad 6e4f a1c6 4bd0 2785 a851
00000170: 6fb2 44d0 466e 3951 af5c c4cf 928b e6d0
00000180: d9c2 6051 2222 2cd0 2685 bb51 2f59 4b4e
00000190: dec4 7b51 6c46 facf 840a ab51 a6f8 42cf
000001a0: 34b1 8bcf 0835 1451 7595 3e51 ad75 14d0
000001b0: e095 4750 d023 9950 e2d1 c750 ddb2 0551
000001c0: e28a 5d51 67a4 d150 3d79 18d0 f3cb ab50
000001d0: e606 b651 bf5b bf51 7803 124f c913 8ecf
000001e0: c654 6351 27e3 afd0 e973 9ad0 2cba e550
000001f0: 2fc4 c150 cd97 e850 c956 9d51 eaa8 aed0
-1.5495735e+10 1.9594883e+10 1.5149456e+11 -8.517894e+09 -6.36911e+09 1.2582022e+10 7.4994835e+10 -1.1991627e+10
-9.00422e+09 1.5353451e+11 5.5176004e+10 -5.1638093e+09 -8.664443e+09 7.709409e+10 1.4899106e+10 8.135721e+10
-1.794761e+10 3.3201811e+10 3.919994e+10 3.6160823e+10 1.2732733e+09 5.489665e+10 -1.0932428e+10 -1.5313751e+09
8.271733e+10 2.0938318e+10 -7.4873697e+09 -1.1459378e+10 -3.8024584e+09 1.6386444e+11 -5.542271e+09 4.9287197e+10
1.3075209e+10 3.7636997e+10 -1.6616694e+10 -1.4955028e+10 -7.3797514e+09 -5.4532383e+09 -7.5698606e+09 2.604136e+10
-9.8029e+09 -1.474935e+10 -1.1059893e+10 5.328033e+10 -2.2962264e+10 -5.581801e+09 -7.9826473e+09 -5.442075e+09
-1.2719617e+10 1.9785215e+11 4.081045e+10 1.0589419e+11 8.855545e+10 7.3951175e+10 2.9010618e+10 4.475762e+10
-1.2922605e+10 6.5883218e+10 4.6789198e+10 -8.597745e+09 3.1903965e+10 7.829603e+10 1.0690649e+11 4.768873e+10
4.4564324e+10 8.2184847e+09 1.0005823e+11 -1.6558933e+10 2.8503527e+10 7.923351e+10 -8.196856e+09 7.683986e+10
2.8363475e+10 -2.1926007e+10 -2.3244956e+10 6.1747393e+10 -1.0956974e+10 8.745609e+09 -1.1890639e+10 -2.6473075e+10
-7.1542036e+09 -9.62101e+09 -2.4189297e+10 -7.056834e+09 9.765724e+10 3.90918e+10 -9.9083e+09 -9.736679e+09
-1.4857178e+09 4.0043256e+09 -1.3675169e+10 9.047355e+10 -1.3200113e+10 4.977619e+10 -6.588817e+09 -3.0943252e+10
6.0333855e+10 -1.1551672e+10 1.0067409e+11 8.529049e+08 6.758373e+10 -8.3978383e+09 9.182698e+10 -3.2710753e+09
-4.6872924e+09 3.9784055e+10 5.1159454e+10 -9.96296e+09 1.3393953e+10 2.0554088e+10 2.6819367e+10 3.5889467e+10
5.9469865e+10 2.81377e+10 -1.0232329e+10 2.305816e+10 9.772497e+10 1.0273475e+11 2.4497009e+09 -4.7673226e+09
6.102374e+10 -2.3607196e+10 -2.07303e+10 3.0833467e+10 2.6006878e+10 3.12181e+10 8.4470735e+10 -2.3442444e+10

layers.2.running_var f4 [128]
00000000: 3401 cd60 a73b 1461 3556 0c64 40be f05f
00000010: d497 925f cef6 0561 fab9 1763 56b0 8060
00000020: 954d 0260 a2e6 0e64 3086 a762 8245 5c5f
00000030: 6022 f95f c610 1863 8ef9 4161 edf5 2f63
00000040: 49fa 0061 e33f ed61 1bcf 0d62 e61b 1362
00000050: b312 c45f 65ee ac62 d4ba 5060 9bad 8d5e
00000060: 8289 1a63 56c6 8461 d71c b75f 23a8 4660
00000070: e4d1 4660 fb86 1d64 fe06 615f 16d7 6f62
00000080: 4910 c460 d8da 2062 dfcc e660 3874 af60
00000090: 8660 af5f 3933 3b5f 7962 a15f 7d17 b461
000000a0: b14d 2060 636b ae60 f00e 2a60 c4db 8a62
000000b0: c5cb 4661 64b2 155f 9578 cc5f b739 3c5f
000000c0: 1dff 9260 a5f4 6d64 a778 4162 7f0e 8f63
000000d0: 1daf 4a63 075a 1463 4445 c461 3d27 2862
000000e0: acf3 8d60 99d4 c562 4085 6262 b4d4 0b60
000000f0: 4641 f161 0ad1 2063 9e03 9163 1de1 8262
00000100: a435 5562 afe3 9660 b6cb 8863 fd61 cb60
00000110: 1827 be61 5597 2b63 9153 c85f 5e40 1c63
00000120: f548 cc61 ddec 3961 7368 5361 1073 ac62
00000130: 9285 4760 0c13 4960 88f0 6a60 c153 8861
00000140: 57ec ae5f ad60 0e60 8067 6a61 e589 c45f
00000150: 3082 6f63 0ef8 1162 dcf0 5f60 00a5 2c60
00000160: 43b4 f75e 62df 7960 1d79 9f60 04f1 5663
00000170: 6436 9260 3938 6d62 8422 9d5f ee33 ba61
00000180: c168 be62 d023 6760 c6f3 6f63 abf1 0260
00000190: a8fc f262 7843 ca5f c760 6063 78cb 955f
000001a0: e351 2f5f a1a5 1262 2700 7462 f9aa 4260
000001b0: 2a38 4b61 fd31 1c61 cec1 b861 603e e461
000001c0: 53da a762 0809 8861 3ede 3660 933b 4e61
000001d0: 0e95 7763 fd47 8263 68ee 7760 4a89 095f
000001e0: 004e c362 1114 5f61 7daf 4261 f0f0 d361
000001f0: 0414 6b61 38ae d461 f8ed 2a63 93cc 5b61
1.1817716e+20 1.7090103e+20 1.0355024e+22 3.4694746e+19 2.112629e+19 1.5445007e+20 2.7988594e+21 7.418405e+19
3.75573e+19 1.0544226e+22 1.5451377e+21 1.5872235e+19 3.5904033e+19 2.8051138e+21 2.2363774e+20 3.245901e+21
1.4870114e+20 5.4706023e+20 6.539786e+20 6.784204e+20 2.8257104e+19 1.595009e+21 6.016227e+19 5.104493e+18
2.850707e+21 3.0615773e+20 2.6389315e+19 5.725892e+19 5.730593e+19 1.1623461e+22 1.6214927e+19 1.1060676e+21
1.1302298e+20 7.418121e+20 1.330473e+20 1.0114233e+20 2.5274496e+19 1.3489188e+19 2.325798e+19 4.152633e+20
4.6204333e+19 1.0054598e+20 4.901598e+19 1.2807432e+21 2.2919615e+20 1.0786794e+19 2.946738e+19 1.3563073e+19
8.473773e+19 1.7558027e+22 8.922289e+20 5.277858e+21 3.7388605e+21 2.7366053e+21 4.5256912e+20 7.754701e+20
8.182967e+19 1.8246639e+21 1.04464146e+21 4.0303505e+19 5.562961e+20 2.966542e+21 5.350077e+21 1.2071489e+21
9.832554e+20 8.698181e+19 5.046872e+21 1.1724218e+20 4.384623e+20 3.1652979e+21 2.8870081e+19 2.8823302e+21
4.710491e+20 2.1435722e+20 2.4373683e+20 1.5905656e+21 5.750823e+19 5.795575e+19 6.771672e+19 3.1434904e+20
2.520909e+19 4.103756e+19 2.7024975e+20 2.8324205e+19 4.4181528e+21 6.73163e+20 6.4546557e+19 4.97614e+19
8.9244824e+18 7.202087e+19 9.192998e+19 3.9649702e+21 8.428575e+19 1.0939824e+21 2.2645515e+19 4.2935454e+20
1.7562148e+21 6.662154e+19 4.4263376e+21 3.7742043e+19 2.241159e+21 2.914925e+19 4.1390442e+21 2.1587706e+19
1.2633128e+19 6.7628986e+20 1.1252541e+21 5.610919e+19 2.34296e+20 1.8008088e+20 4.2602075e+20 5.2629403e+20
1.5481691e+21 3.13676e+20 5.270815e+19 2.3777013e+20 4.5670863e+21 4.806528e+21 7.1461324e+19 9.910534e+18
1.8013678e+21 2.5719187e+20 2.244571e+20 4.8870305e+20 2.710267e+20 4.9040794e+20 3.153094e+21 2.5341113e+20

layers.3.weight f4 [128, 128]
00000000: 8e98 bb3a c044 1a3a 3efe 513b 7f23 013b
00000010: a731 423b fad5 93b9 75be 5bbb 3d4b 063b
00000020: 9ff5 183b 02b9 ed3a bf9f 2fbb eddd de39
00000030: a1b3 483b 1e4b 82bb 4fb2 16bb b27b 1c3b
00000040: b301 023b 1a1b 04bb bf2e cbbb 3e38 03bb
00000050: 1eef d33a 5ca6 763b 1e4c f93a e324 aa3b
00000060: 6b2a bfba 40e1 0fbb 033a 293b d74a 013b
00000070: e24e ec3a a76d ceba eace b93a 37e3 22bb
00000080: 665d 273b 14d6 01bb 08a3 fa3a 3e83 e33a
00000090: ac1d 0c3b 9a48 ac3a fa4b 85bc 85d3 07bc
000000a0: 08b3 0f3b 6a23 103b ae19 8d39 7009 d0bb
000000b0: ba45 15ba 81c9 af3a 0afa 9d3a 2eb5 053b
000000c0: b656 253b cdac ecbb ff27 29b9 cdbb 62ba
000000d0: f147 26bb 3730 12bb 085e d6ba c390 e1ba
000000e0: dcf1 ccba 8836 0fbb 6c60 18b9 25dd 93ba
000000f0: bf86 8ebb 3da3 08bb de27 01bb de44 c8ba
00000100: e030 fd38 b2fb b6ba 6296 06bb 9723 3a3b
00000110: 010a 99bb 7e7f 4b3c 9068 543b 40ca dcba
00000120: 9a3c c039 7a8a 00bc 24cb 5a3b 6c19 2dbc
00000130: cc7f 513c 1b7c a23b 2121 903a 91c5 89bb
00000140: 01ff 0c3b dc3d 3bbb 5970 c8b9 3b0d e0bb
00000150: ffcc 6aba 96dd de3a 38e9 77bc 7ed9 2b3b
00000160: 6867 0a38 bb34 b63a f11f c23a 5278 02bb
00000170: 0635 383a 96b8 7e3b 852f d93a 388d 963b
00000180: 12e3 22bb 1019 dd3b 88ba b43a 63d3 8fbb
00000190: 85e3 f0ba 47b1 813a 16ab f1ba d691 c03b
000001a0: fb36 f73b c2c7 59bb 5af4 0a3b df88 063b
000001b0: 42a7 1ebb cfc9 9e3a 32eb 0db9 b5b2 00bb
000001c0: 9a7d 4dbb 6def 39bb 7021 c2bb c282 273b
000001d0: d808 afbb 8511 0bbb 84ba de3a 76bc 483a
000001e0: 522e 45b9 9134 e6ba 6bc2 b93a 26e4 6eba
000001f0: 4405 f8bb 8c29 d0ba 24e0 833a 9c97 93bb
00000200: e66e ffb9 ad59 09bc 3874 743b c0ad 8e35
00000210: 3750 1b3b 0cc9 023b be34 eebb 4c61 55ba
00000220: b005 e23b 6d7f f93a 156f 483b f4a8 b63a
00000230: 014e 7fba a8e0 85ba 1c85 e13b da4a 073c
00000240: f62c 48bb 5099 e239 2846 b8ba 593c e63a
00000250: bd87 e63b f66c 3abc 5a31 623c 794f a0ba
00000260: 608c 08ba 7e77 56ba c233 c1ba e981 b5bb
00000270: a0f2 70bb cec9 caba 8eef 59ba 3dbb c0ba
00000280: e511 293b 54d9 643b 3140 f53a 04e3 bfb8
00000290: c4d5 f8ba 7ea8 15bb c481 383a 017f a33b
000002a0: 479b 71bb 5c74 1dbc 7121 aebb d49c 9abb
000002b0: 272d 293b 8a2e 953b ce90 99bb e865 b5bb
000002c0: c20e 973b 9fad 06bb 5a72 99bb 5099 6bbb
000002d0: 1ac3 b5ba 287b 583b e9b6 413b 8bda e03a
000002e0: 3d29 a63a add5 d8bb c823 11bc d5a7 7fbc
000002f0: 473c 763b d4a9 44bb 6eb7 15ba 20ef e83a
00000300: 4ac6 703b d52e ebba a00b 73bc d5c3 413b
00000310: 37e6 d2bb 0862 89ba fe52 353a 8ce2 21bc
00000320: 556b d73b 9b4d d339 5942 85ba beb5 a43b
00000330: 0856 cbb9 ee4f 91bb fcdc 643b 5b8e 8f3a
00000340: 243e 97b9 3297 ac39 a646 66bb 9f05 0bbc
00000350: 5030 27bb 8c9a 27bb 59a5 a5bb 018c 073c
00000360: ab34 083c 1097 053c da7a 093b 0f03 a13b
00000370: 12ef 07b9 4e40 473b 1a73 9d3a ea05 34ba
00000380: c8b6 ad39 2755 19bc fdd0 1e3a 2685 b23b
00000390: de53 acbb bbbb 05bb 641e 753b 9691 d5ba
000003a0: 5ce3 1639 6111 8fba 67dd 41bb af2c 1bbc
000003b0: 2458 06bc cf04 2cbc fd44 cb3b 27cd b03b
000003c0: 948b bf3b a8ea 6a3b 3744 dcbb 4a60 b9b9
000003d0: c7d8 b1bb d8d8 e6bb 5f37 9a3a 33c7 8f3a
000003e0: c602 c5bb 44b2 f63b caa1 5f3c 61b7 003b
000003f0: 38c6 363b 0a18 a43b 7488 9ebb f2e4 903b
0.0014312433 0.00058848783 0.003204241 0.0019704995 0.0029631646 -0.0002819745 -0.003353027 0.0020491623
0.002333976 0.0018136802 -0.0026798097 0.00042508487 0.0030624645 -0.00397624 -0.0022994464 0.002387744
0.0019837439 -0.0020157755 -0.006200641 -0.0020022537 0.0016169285 0.003763578 0.0019019877 0.0051923855
-0.0014584785 -0.0021954328 0.0025821931 0.0019728446 0.001802888 -0.0015749232 0.0014176045 -0.002485467
0.0025537848 -0.0019811438 0.0019122073 0.0017357839 0.002137999 0.0013144196 -0.01627158 -0.008290176
0.002192678 0.0021993765 0.0002691275 -0.0063487813 -0.0005694289 0.0013411493 0.0012052667 0.002040218
0.0025228686 -0.007222748 -0.00016131996 -0.00086492003 -0.002537247 -0.002230657 -0.0016354928 -0.001720928
-0.0015636045 -0.0021852572 -0.0001453177 -0.0011281116 -0.004349559 -0.002084925 -0.00197076 -0.0015279313
0.00012073084 -0.0013960509 -0.0020536412 0.002840256 -0.004670382 0.012420533 0.0032410957 -0.0016844943
0.00036666245 -0.007845515 0.0033385241 -0.010565143 0.012786817 0.004958642 0.0010996201 -0.00420446
0.00215143 -0.0028570807 -0.00038230678 -0.0068375147 -0.00089569384 0.0017003294 -0.015131287 0.0026222165
3.299807e-05 0.0013901213 0.0014810545 -0.0019908142 0.0007026944 0.0038867346 0.0016569948 0.0045944713
-0.0024854583 0.0067473724 0.0013788501 -0.004389213 -0.0018378353 0.0009894752 -0.0018437828 0.00587676
0.007544396 -0.0033230637 0.0021202774 0.002052836 -0.002420858 0.0012114587 -0.00013534425 -0.0019637768
-0.0031355382 -0.0028371469 -0.005924396 0.0025560115 -0.0053416304 -0.002122016 0.0016992842 0.00076574774
-0.0001880464 -0.0017563273 0.0014172321 -0.0009112976 -0.007568987 -0.0015881523 0.0010061306 -0.004504157
-0.00048720016 -0.008383197 0.0037300717 1.0630392e-06 0.0023698935 0.001995626 -0.007269471 -0.00081398035
0.0068976507 0.0019035168 0.0030583788 0.001393585 -0.00097391015 -0.0010214048 0.006882323 0.008257592
-0.0030544377 0.00043220306 -0.0014058994 0.0017565592 0.007035224 -0.011378517 0.013805712 -0.0012230716
-0.0005208906 -0.0008181258 -0.0014740156 -0.005539168 -0.003676571 -0.001547152 -0.00083135895 -0.0014704239
0.002579802 0.0034919577 0.0018711147 -9.149875e-05 -0.0018984606 -0.0022836025 0.00070383796 0.0049895053
-0.0036866234 -0.009610262 -0.005314045 -0.0047184024 0.0025814266 0.004552667 -0.0046864515 -0.00553583
0.0046099136 -0.0020550264 -0.004682821 -0.0035949536 -0.0013867349 0.0033032391 0.0029558486 0.0017154975
0.0012677085 -0.006617269 -0.008858629 -0.015603979 0.003757255 -0.0030008452 -0.0005711232 0.001777146
0.0036739283 -0.0017943034 -0.014834315 0.0029566188 -0.006436135 -0.0010481486 0.0006916969 -0.009880673
0.0065740743 0.00040302877 -0.0010166868 0.005026548 -0.00038783276 -0.004434577 0.0034921756 0.0010952459
-0.00028847263 0.00032919046 -0.0035137325 -0.008485227 -0.0025510974 -0.0025574295 -0.0050551114 0.008273126
0.008313338 0.008153692 0.0020977766 0.0049136947 -0.00012963664 0.0030403319 0.0012012452 -0.00068673363
0.00033133314 -0.009358681 0.00060583634 0.0054480014 -0.005259021 -0.0020406086 0.0037402147 -0.0016293998
0.00014389813 -0.0010915213 -0.002958143 -0.009471103 -0.008199725 -0.010499193 0.0062032924 0.00539555
0.0058454964 0.0035845432 -0.006721999 -0.0003535769 -0.005427453 -0.0070448928 0.001176577 0.00109694
-0.0060122935 0.007528575 0.013649413 0.0019640552 0.0027889144 0.0050077485 -0.004838044 0.0044218237

layers.3.bias f4 [128]
00000000: 8442 653d d165 6abc 8aa9 a0bc d402 e3bb
00000010: 6f0c 5abd 8dfa d2bc b8f3 9f3d f689 a8bd
00000020: d72b 423d cfc5 27bd 38ea 7dbd 7a84 433d
00000030: 0763 a73d 683b a53d 02b7 d9bc d8d9 68bc
00000040: 39ef ad3d fbfe 5e3d 2020 30bd 946a 903c
00000050: e387 6e3d ef3b de3c ecc0 8a3c 355a 7fbd
00000060: f9e2 01bd 675b b3bc 2949 05bc 1ff8 b3bc
00000070: 110d b33d 2f4a 9b3d 0af4 893c 2750 28bd
00000080: 4c55 ffb9 8d21 abbd 00f0 25b6 23ea a03d
00000090: b4af fdbc e66d 10bc 581e 3bbc a92c a63d
000000a0: 8f77 e4ba 72ff 6e3d ef62 8dbd b03f 8cbd
000000b0: bb44 a0bd 18b8 3ebd fe60 483d b572 1cb9
000000c0: 20c5 ad3d 7e46 b33d bd95 153d 6031 9fbd
000000d0: f762 22bc cebe 56bb 49b4 423d 9c75 aebd
000000e0: 3bda 483b e5dd 443d 50ec 1e3d 2614 8bbd
000000f0: 6385 6cbc 24ff 013c 2c99 9e3d 07cd b2bd
00000100: a43a 623d bf0e cb3b 93bc 99bd 2326 1f3a
00000110: ff0a 7aba d712 1bbd b15b 35bd 1464 e3bc
00000120: 5f83 a2bd 1664 873d 1c0b ecbc 5590 0ebd
00000130: 3090 2bbd cd15 0a3c d36e 9bbb a543 273d
00000140: e4f1 3abd 8a95 3f3c 929d a0bd 9a35 873d
00000150: 6874 d33b 4322 6e3d 0eb8 afbd daa1 773b
00000160: dc30 16bc e23c 033c 6885 043a 0767 a03d
00000170: 211e 93bb 6d59 b93c a445 21bd a5ff 673d
00000180: 407a 683b 3d49 f9bb d511 a2bc cd7e f73c
00000190: 2538 8cbd 4b04 3d3d 765c 5a3d 88a6 96bc
000001a0: 1a24 233d 15b9 84bd 2890 583d 4ae7 753d
000001b0: e49e 293d a26a ca3c 0e98 443c 8390 ad3c
000001c0: 73bb 4a3c bcb4 cfbc f266 bf3b 0273 a6bd
000001d0: 81db ea39 172a 15bd d81c 3e3d 2011 ad3d
000001e0: c4fc 1cbb fd85 0ebd 9645 1dbc 81fc d63c
000001f0: e6f8 da3c 717a 9c3d 5533 3a3d 5c55 bd3c
0.055971637 -0.0143065015 -0.019612093 -0.0069278274 -0.053234514 -0.025754238 0.078101575 -0.08229439
0.04740509 -0.04096013 -0.061990947 0.04773376 0.08173185 0.080679715 -0.026576523 -0.014212094
0.08492894 0.054442387 -0.042999387 0.017628945 0.05823506 0.027128188 0.016937695 -0.062341888
-0.0317106 -0.02189417 -0.0081351185 -0.0219689 0.087427266 0.07582509 0.01684 -0.041092064
-0.0004870094 -0.08356009 -2.4726614e-06 0.07857158 -0.03096757 -0.008815264 -0.011420809 0.08113987
-0.0017430651 0.05834908 -0.06903636 -0.06848085 -0.07825609 -0.046562284 0.048920624 -0.00014920051
0.08484864 0.0875368 0.036519755 -0.077730894 -0.00991129 -0.0032767537 0.047535215 -0.08518526
0.0030647654 0.048063178 0.038799584 -0.067909524 -0.014436099 0.007934365 0.07744059 -0.08730512
0.055231705 0.006196826 -0.07506671 0.00060710515 -0.0009538382 -0.037859764 -0.044276897 -0.027757682
-0.07935213 0.06610887 -0.028813891 -0.034805615 -0.041885555 0.008428049 -0.004743436 0.040835995
-0.04564084 0.011693368 -0.07842554 0.066020206 0.0064530857 0.058138143 -0.085800275 0.003778568
-0.009166922 0.008010121 0.00050552795 0.07832151 -0.0044896756 0.02262565 -0.039373055 0.056640286
0.0035473257 -0.0076076076 -0.019783894 0.03021183 -0.06846646 0.046146672 0.053310834 -0.018389955
0.03982935 -0.06480614 0.052871853 0.060035028 0.041411296 0.02470905 0.011999143 0.021187073
0.012373793 -0.025354736 0.0058411295 -0.08127405 0.000447955 -0.036417093 0.046414226 0.08450532
-0.002395437 -0.03479575 -0.00959911 0.02624345 0.026730012 0.07640541 0.04545911 0.023111992

layers.6.weight f4 [128]
00000000: c1ee 7c3f b5ee 7c3f cfee 7c3f abee 7c3f
00000010: b5ee 7c3f b5ee 7c3f a9ee 7c3f b8ee 7c3f
00000020: b0ee 7c3f aeee 7c3f b8ee 7c3f ccee 7c3f
00000030: bdee 7c3f bdee 7c3f d5ee 7c3f abee 7c3f
00000040: c2ee 7c3f b4ee 7c3f aaee 7c3f b4ee 7c3f
00000050: dbee 7c3f b1ee 7c3f acee 7c3f ccee 7c3f
00000060: d7ee 7c3f b3ee 7c3f b1ee 7c3f c1ee 7c3f
00000070: bdee 7c3f c8ee 7c3f bcee 7c3f adee 7c3f
00000080: acee 7c3f c4ee 7c3f c6ee 7c3f aaee 7c3f
00000090: c1ee 7c3f b0ee 7c3f b1ee 7c3f a1ee 7c3f
000000a0: b1ee 7c3f c4ee 7c3f b9ee 7c3f b1ee 7c3f
000000b0: bfee 7c3f b5ee 7c3f b2ee 7c3f afee 7c3f
000000c0: baee 7c3f b1ee 7c3f b8ee 7c3f c5ee 7c3f
000000d0: bcee 7c3f a2ee 7c3f b9ee 7c3f adee 7c3f
000000e0: b4ee 7c3f bdee 7c3f c8ee 7c3f c0ee 7c3f
000000f0: beee 7c3f a8ee 7c3f a8ee 7c3f bcee 7c3f
00000100: bdee 7c3f b6ee 7c3f a0ee 7c3f baee 7c3f
00000110: b4ee 7c3f b0ee 7c3f b2ee 7c3f a4ee 7c3f
00000120: adee 7c3f baee 7c3f c8ee 7c3f adee 7c3f
00000130: beee 7c3f caee 7c3f 9cee 7c3f b7ee 7c3f
00000140: b5ee 7c3f c2ee 7c3f c5ee 7c3f c5ee 7c3f
00000150: caee 7c3f a6ee 7c3f bdee 7c3f baee 7c3f
00000160: afee 7c3f b0ee 7c3f ceee 7c3f beee 7c3f
00000170: adee 7c3f c8ee 7c3f adee 7c3f bbee 7c3f
00000180: c0ee 7c3f e7ee 7c3f a6ee 7c3f a4ee 7c3f
00000190: c0ee 7c3f b4ee 7c3f b6ee 7c3f d4ee 7c3f
000001a0: b3ee 7c3f b4ee 7c3f bdee 7c3f b6ee 7c3f
000001b0: c2ee 7c3f a4ee 7c3f b7ee 7c3f a0ee 7c3f
000001c0: 9cee 7c3f b5ee 7c3f b4ee 7c3f c8ee 7c3f
000001d0: b5ee 7c3f b6ee 7c3f abee 7c3f c8ee 7c3f
000001e0: bfee 7c3f c0ee 7c3f b9ee 7c3f c7ee 7c3f
000001f0: a8ee 7c3f adee 7c3f c4ee 7c3f a5ee 7c3f
0.9880181 0.9880174 0.98801893 0.9880168 0.9880174 0.9880174 0.98801666 0.98801756
0.9880171 0.98801696 0.98801756 0.98801875 0.98801786 0.98801786 0.9880193 0.9880168
0.98801816 0.9880173 0.9880167 0.9880173 0.98801965 0.98801714 0.98801684 0.98801875
0.9880194 0.98801726 0.98801714 0.9880181 0.98801786 0.9880185 0.9880178 0.9880169
0.98801684 0.9880183 0.9880184 0.9880167 0.9880181 0.9880171 0.98801714 0.9880162
0.98801714 0.9880183 0.9880176 0.98801714 0.988018 0.9880174 0.9880172 0.988017
0.9880177 0.98801714 0.98801756 0.98801833 0.9880178 0.98801625 0.9880176 0.9880169
0.9880173 0.98801786 0.9880185 0.98801804 0.9880179 0.9880166 0.9880166 0.9880178
0.98801786 0.98801744 0.9880161 0.9880177 0.9880173 0.9880171 0.9880172 0.98801637
0.9880169 0.9880177 0.9880185 0.9880169 0.9880179 0.98801863 0.9880159 0.9880175
0.9880174 0.98801816 0.98801833 0.98801833 0.98801863 0.9880165 0.98801786 0.9880177
0.988017 0.9880171 0.9880189 0.9880179 0.9880169 0.9880185 0.9880169 0.98801774
0.98801804 0.98802036 0.9880165 0.98801637 0.98801804 0.9880173 0.98801744 0.9880192
0.98801726 0.9880173 0.98801786 0.98801744 0.98801816 0.98801637 0.9880175 0.9880161
0.9880159 0.9880174 0.9880173 0.9880185 0.9880174 0.98801744 0.9880168 0.9880185
0.988018 0.98801804 0.9880176 0.98801845 0.9880166 0.9880169 0.9880183 0.9880164

layers.6.bias f4 [128]
00000000: 3e22 5fba 0c04 7e3a db30 04b9 e66e c8b9
00000010: 75ea 0739 fd29 65ba 58de 03ba 8d14 5f38
00000020: a8b0 9ab9 2c39 8738 7409 e239 a7de 8fb9
00000030: 6ff7 eb38 661f 5bb9 a079 3638 5d9f 2aba
00000040: e811 093a 0173 123a 3a87 c939 99af 3eb9
00000050: 06d4 44b9 491b b439 b870 d7b7 4c34 1dba
00000060: fc6f fdb9 d625 24b9 93d2 22ba b661 c139
00000070: 11af 2939 efae 0eb9 1f1e c039 47f5 0fb9
00000080: 224d 5039 e4fa 6038 c1e7 4c39 0468 1fb9
00000090: 269f 3cb7 1ba1 ec39 03e1 ec39 36a9 24ba
000000a0: 35d4 c439 b613 233a 77b7 23ba b431 a038
000000b0: 9deb 453a d3cd 0339 90ec 5835 a866 ea37
000000c0: 3e0a fcb9 a4e0 65ba 55a0 c739 15ae a3b9
000000d0: 5400 2bb9 7edc f938 1524 0f3a caf6 80b9
000000e0: e356 6d39 92d4 d3b8 1ce8 2338 50c3 1cba
000000f0: 0d9c 8aba 5412 0c3a d986 8a39 c989 6fba
00000100: 3874 1839 3ed0 f338 d078 a539 2a16 8db9
00000110: 0852 1fb7 6297 df38 eca6 f839 bcc4 ebb9
00000120: cc7b 53b9 3e7e 89b8 bcd6 bcb9 3d20 48ba
00000130: a13c 0eb9 58a5 fd37 f985 90b9 4732 a639
00000140: 742c 083a a535 3839 5b1b 17ba a2e3 f4b9
00000150: 58a3 0fba 9584 37ba bb30 06ba e93f 80ba
00000160: b583 13b9 5002 653a 310f 6aba 4ac4 ac39
00000170: 5067 c739 d8a6 afb9 4489 50b8 181f 123a
00000180: 14d4 47b9 d68d f7b9 fc1a 76b9 85b9 8339
00000190: 3bf1 6c39 5fdc 19ba 2c4e 9a39 1bd3 8d39
000001a0: d3cf c7b8 8ab6 e939 3e92 5e39 48a1 4639
000001b0: ad2d eeb8 fdb3 18b9 fc43 e239 0819 8fb8
000001c0: 7894 da39 f8ea e4b9 7614 b739 5ebc bc39
000001d0: a613 1f3a c27f da39 b858 073a 08b0 8a37
000001e0: 68e0 3a3a b0c8 303a f76a 1a39 672a 9db9
000001f0: be7a 9538 42ec e4b9 297e 99ba 6c20 d0b7
-0.00085118774 0.0009689934 -0.00012606701 -0.00038229598 0.00012961945 -0.00087419135 -0.0005030385 5.3186483e-05
-0.00029504788 6.447951e-05 0.00043113122 -0.00027440974 0.00011251761 -0.00020897164 4.3505454e-05 -0.00065087323
0.00052288035 0.0005586595 0.0003843846 -0.00018185227 -0.00018771001 0.00034352604 -2.5682486e-05 -0.00059968675
-0.00048339355 -0.00015654354 -0.00062111876 0.0003688463 0.00016182313 -0.00013607343 0.00036643536 -0.00013728916
0.0001986516 5.3639422e-05 0.00019541291 -0.0001520217 -1.1242728e-05 0.0004513346 0.00045181075 -0.0006281318
0.0003754214 0.00062208937 -0.0006245295 7.6386525e-05 0.0007550063 0.00012569809 8.0810514e-07 2.7942777e-05
-0.00048072817 -0.0008769131 0.00038075694 -0.00031219484 -0.00016307953 0.00011914315 0.0005460394 -0.00024597935
0.00022634449 -0.00010100858 3.9078397e-05 -0.00059800316 -0.0010575071 0.0005343307 0.0002642188 -0.0009137658
0.00014539144 0.00011625931 0.00031561265 -0.0002691013 -9.496238e-06 0.00010661666 0.00047426613 -0.0004496927
-0.00020168646 -6.5561835e-05 -0.00036018144 -0.00076341984 -0.00013564761 3.0236944e-05 -0.00027565638 0.00031699447
0.00051946123 0.00017567592 -0.0005764269 -0.00046708906 -0.0005479357 -0.0007000652 -0.0005118956 -0.0009784672
-0.00014068077 0.00087360013 -0.00089286553 0.00032952643 0.00038033212 -0.0003350291 -4.9718903e-05 0.00055740913
-0.00019057124 -0.00047217187 -0.0002347044 0.0002512449 0.00022596579 -0.00058693247 0.00029431412 0.00027050902
-9.52777e-05 0.00044577225 0.0002122605 0.00018942833 -0.00011357232 -0.000145629 0.0004315673 -6.823434e-05
0.00041690818 -0.00043662614 0.00034919725 0.000359985 0.00060682965 0.00041675387 0.00051630614 1.6532853e-05
0.0007128776 0.0006743772 0.00014726432 -0.00029976966 7.127736e-05 -0.00043663575 -0.0011710572 -2.481063e-05

layers.6.running_mean f4 [128]
00000000: cb84 4c3d 4fb2 48bc 7228 bbbc ee9c acba
00000010: f415 16bd 3c7a debc 1918 823d a064 75bd
00000020: f473 163d e49b 01bd 8893 2fbd 228a 0e3d
00000030: a636 623d 8de1 6d3d f2d6 8dbc 79fe 77bc
00000040: b5d0 8c3d 6ee9 1e3d bd7c f9bc 1913 8e3c
00000050: 6de5 1f3d 2f17 bf3c 9844 3c3c 51a5 49bd
00000060: c9c8 efbc 347a 9abc e920 edbb 5386 9bbc
00000070: 4e80 6f3d 3931 583d 15c2 6d3c da41 e8bc
00000080: e2aa db3a c462 89bd 4435 58bb af8a 513d
00000090: 8246 efbc 3235 48bc 1dba f2bc dc9a 7a3d
000000a0: 4ef1 123b b0f1 593d d3ae 47bd 9267 5bbd
000000b0: bbb9 55bd 4121 0dbd ef4b 173d 1cfc 833b
000000c0: 2c26 6a3d a117 903d d1a8 f13c 2022 90bd
000000d0: bb2d 60bc 6a49 e23a f1fb 0b3d bee2 6ebd
000000e0: e8da 043b cf59 213d 92d8 273d b9c4 4abd
000000f0: 3214 65bc b80a 893c d322 533d 09a9 92bd
00000100: 7a9f 4a3d 4c75 b33b d542 3bbd c3d4 743b
00000110: 90f1 1ebc 5855 f6bc 8465 b3bc 6043 d1bc
00000120: 2339 75bd 4cd9 6a3d c73a adbc ad4b eebc
00000130: da2b b9bc 787c ef3b 5ea1 a1bb 5068 953c
00000140: 85ea 11bd b393 6d3c 738e 41bd 36f5 523d
00000150: 2eb9 073c 6b3f 263d 51c2 95bd 3a2a e8bb
00000160: 241b 16bc 1ff2 0a3c c2a7 42bb 7e35 6e3d
00000170: 6310 42bc bacb 253c 8bcc 09bd c5d1 243d
00000180: 5020 e239 0264 8cbb 4a96 b7bc db9d a63c
00000190: 69a1 47bd 9c9c 233d a23a 2b3d 55a4 79bc
000001a0: b4a5 e23c 5b6c 1cbd af7c 123d 4f00 563d
000001b0: f2c1 c83c f49d a93c f499 733c 2698 a13c
000001c0: b582 843c a2ab 5ebc 0479 bf3b a9de 7dbd
000001d0: f4f4 233c 160e e4bc 7541 233d 72c6 813d
000001e0: 104e 4eba ad86 05bd 8c30 84bc 920e a03c
000001f0: 358d ac3c bc3b 753d a0bb 453d ae04 9b3c
0.04993133 -0.012249543 -0.022846434 -0.0013169327 -0.03664203 -0.027157895 0.063522525 -0.059910417
0.036731675 -0.03164281 -0.042865306 0.034799702 0.055227898 0.05807643 -0.017314408 -0.015136355
0.06875745 0.038796835 -0.030454988 0.01734309 0.039037157 0.023326484 0.011490963 -0.049229924
-0.029270547 -0.0188571 -0.007236589 -0.01898495 0.05847197 0.052781317 0.014511605 -0.028351713
0.0016759301 -0.06708291 -0.0032990733 0.05115765 -0.029208425 -0.012219714 -0.029629761 0.06118284
0.002242166 0.053209007 -0.04875071 -0.05356557 -0.05217908 -0.03445554 0.03693765 0.0040278565
0.05716531 0.07035757 0.029499443 -0.07037759 -0.013682778 0.0017264311 0.034175817 -0.058321707
0.002027208 0.03939229 0.040978022 -0.049504016 -0.013981866 0.016728744 0.051546883 -0.07161147
0.049468495 0.0054766294 -0.045718033 0.0037358261 -0.009701148 -0.030069992 -0.021898992 -0.025544822
-0.059868943 0.057336137 -0.021146191 -0.02908882 -0.022603918 0.007308539 -0.0049325665 0.018238217
-0.035624046 0.014500546 -0.04725499 0.051503383 0.008283896 0.040587824 -0.073124535 -0.007085112
-0.009161744 0.008480578 -0.0029702042 0.058156483 -0.011844727 0.010119373 -0.033642333 0.040239114
0.00043130154 -0.004284383 -0.02241053 0.020338943 -0.048737917 0.039944276 0.041803963 -0.015236934
0.027666904 -0.038189273 0.03576344 0.052246388 0.024506543 0.0207052 0.014868248 0.01972587
0.016175607 -0.013590725 0.0058432836 -0.061979923 0.010007132 -0.027838748 0.039857347 0.063366786
-0.00078699086 -0.03259914 -0.01613643 0.019538198 0.021063427 0.05987142 0.048274636 0.01892313

layers.6.running_var f4 [128]
00000000: 9497 9b3e 44b2 913e 93e7 983e ef9f 9a3e
00000010: 35cb a93e 649f 983e 0641 943e da76 983e
00000020: 1f67 943e 84ec 923e abc0 9b3e 9d07 983e
00000030: c252 973e 082e a23e e60d 943e fd5a 993e
00000040: a29d 993e 689a 9f3e bf35 943e c477 a23e
00000050: 76e5 993e cc4c 9d3e 82aa 9d3e 4c68 973e
00000060: a83d 933e c792 a33e f130 973e 5d2e 953e
00000070: 2275 a03e a3c2 a63e 9a0a 953e 61e4 ac3e
00000080: 2a0d 943e 9c51 a03e 7a2a a13e 2f8e 943e
00000090: 690b a83e e16f a13e 7f06 a43e b757 b43e
000000a0: cf4a 9a3e 9df9 953e 16dd 943e 6e73 953e
000000b0: 62a8 9b3e 0055 973e 1ee7 983e cbe1 9e3e
000000c0: 2f22 a33e 709e 963e 1983 983e 1eea 9a3e
000000d0: 52f8 933e b643 9f3e 17e9 9e3e a040 993e
000000e0: 0ede 953e cded 923e 898c 9f3e ef1a 9e3e
000000f0: 7f73 a33e d917 963e e6e7 983e a1b1 943e
00000100: f0c1 983e 7b5f 953e 189d 9b3e 2ec7 973e
00000110: e6d3 993e c91e 943e 0356 aa3e 286f 943e
00000120: 1164 9c3e 9273 9e3e f31d 993e 2fc6 983e
00000130: 15d0 b23e 725d d23e c226 a03e 7b19 983e
00000140: 49ed a03e 7ead 933e 81b1 a63e 7582 9b3e
00000150: 7699 923e 3a86 953e b501 993e e6ee a43e
00000160: 4353 973e ceac a03e c556 9c3e 7824 9b3e
00000170: 3a52 a33e cf9c 9b3e 3c88 953e 84d0 a93e
00000180: a94a 993e e1ed 953e 7735 953e 6a49 9c3e
00000190: 884d 9d3e dfc2 943e be81 bf3e e4ee 983e
000001a0: caa0 9a3e 79a1 ac3e 804d 963e e6dd 933e
000001b0: 0a66 993e d8f7 953e 0690 953e f2a0 9b3e
000001c0: 37dc 9b3e 2353 943e aeb8 953e 94ce a53e
000001d0: da85 9a3e 7664 9a3e 44c7 943e d715 983e
000001e0: bb7f 963e d7ec 9b3e 048f 983e a820 973e
000001f0: a410 b63e d362 973e b30f 9a3e b18d 943e
0.30389082 0.28456318 0.29864177 0.30200145 0.33162847 0.29809105 0.2895586 0.29778177
0.28984925 0.28696072 0.30420431 0.29693308 0.29555327 0.31675744 0.28916854 0.2995223
0.30003077 0.3117249 0.28947255 0.31732 0.30057877 0.30722654 0.3079415 0.2957176
0.28757977 0.3194792 0.29529527 0.29136935 0.31339365 0.3257037 0.2910965 0.3376799
0.28916293 0.31312263 0.3147772 0.29014727 0.32821205 0.3153067 0.32036206 0.3522317
0.301352 0.29292002 0.29074925 0.29189628 0.30401903 0.29557037 0.29863828 0.3103164
0.31862018 0.29417753 0.2978752 0.30256742 0.2890039 0.31106347 0.31037208 0.29932117
0.29270977 0.28697053 0.31161907 0.30879924 0.31924054 0.2931507 0.29864424 0.2904177
0.29835463 0.29174408 0.3039329 0.2964415 0.30044478 0.28929737 0.33268747 0.28991055
0.30545095 0.30947548 0.29905662 0.29838702 0.3492438 0.41086918 0.3127957 0.2970694
0.31431034 0.28843302 0.325573 0.30372968 0.28632706 0.2920397 0.29884115 0.32213515
0.2955571 0.3138184 0.3053495 0.3030126 0.3189867 0.30393073 0.292055 0.33166897
0.29939774 0.2928305 0.29142353 0.3052476 0.30723214 0.29054925 0.37403673 0.2986976
0.30200797 0.33716944 0.29356003 0.28880233 0.29960662 0.29290652 0.29211444 0.3039623
0.30441448 0.28969678 0.29242462 0.3238417 0.30180246 0.3015477 0.29058278 0.29704162
0.29394326 0.30454132 0.29796612 0.29517102 0.3555957 0.29567584 0.30090103 0.29014352
