ddpg/model_params/tpch_ddpg_139_90_actor.pth (torch, 181926 bytes, 20 tensors)

layers.0.weight f4 [128, 65]
000000 f3 67 20 bb 9a 31 3a bb 06 bb b7 3b fa ce 46 3d
       -0.002447602 -0.0028410912 0.0056070117 0.048537232
000010 2c fa b3 34 00 82 97 38 74 33 83 38 2b 75 13 bd
       3.3523372e-07 7.2244555e-05 6.256151e-05 -0.036000412
000020 8e ad a3 b8 4b e4 06 b9 4d b7 15 b5 2a 1f 0a b6
       -7.804773e-05 -0.00012864282 -5.5773563e-07 -2.0581742e-06
000030 70 0e 25 37 d9 18 14 b9 26 c9 6c b8 06 37 32 b7
       9.838128e-06 -0.00014123636 -5.645412e-05 -1.0622438e-05
000040 84 d9 2e bc 48 f7 62 39 89 de 0a bd 45 5e 75 b3
       -0.010671977 0.00021645159 -0.033903632 -5.7129245e-08
000050 c3 ef 92 38 20 ea 32 b1 be 7c 0f b8 3f 54 e1 b0
       7.0064816e-05 -2.6035494e-09 -3.4210032e-05 -1.6394849e-09
000060 f2 cd ad 30 c5 1e a8 b0 74 f5 3f 30 39 6f fc 2f
       1.264594e-09 -1.2232354e-09 6.9834205e-10 4.5917561e-10
000070 32 2a 63 af 11 28 c5 af 34 8c 0b b0 8a b3 ab b0
       -2.066052e-10 -3.586256e-10 -5.0767146e-10 -1.2492916e-09
000080 11 e1 73 30 53 9a ad 36 ea 91 a2 30 2f d9 e3 2b
       8.8722724e-10 5.1737675e-06 1.1828523e-09 1.6189601e-12
000090 9a 8a d5 2f 71 4c 71 b9 d2 72 32 3a 70 0c 5a ae
       3.8842957e-10 -0.00023012028 0.00068072707 -4.9578508e-11
0000a0 17 b3 aa 31 f8 44 f9 2f 64 cf 8f b1 00 b6 1d 38
       4.9680113e-09 4.5341841e-10 -4.1854253e-09 3.7601218e-05
0000b0 21 d1 91 3c 81 02 f8 af c1 43 d5 af 0e 50 ad 2f
       0.017799916 -4.5112716e-10 -3.8792616e-10 3.15254e-10
0000c0 92 c1 62 af fa 80 24 30 0a 39 b0 b0 71 49 41 2e
       -2.062335e-10 5.984614e-10 -1.2821897e-09 4.394835e-11
0000d0 d5 32 14 b0 f7 13 11 b1 55 70 9e b0 83 bf 61 b0
       -5.3914323e-10 -2.1111626e-09 -1.152794e-09 -8.212668e-10
0000e0 d2 9a c9 ae f6 b2 f2 af 14 48 16 39 42 63 15 38
       -9.1679234e-11 -4.4146703e-10 0.00014331966 3.561681e-05
0000f0 34 8e 2b b0 ad a1 90 af 1f 3d c4 af c0 78 1a 2f
       -6.241152e-10 -2.6308325e-10 -3.5695621e-10 1.4049117e-10
000100 91 62 90 30 93 79 80 bb 4c be 4c ba 0b 4e 9c 3b
       1.0505393e-09 -0.003920743 -0.0007810339 0.0047700456
000110 4b c2 44 3d 9b c2 88 35 06 ae 14 bb 00 86 37 b5
       0.048036855 1.0189427e-06 -0.0022686734 -6.836781e-07
000120 b1 7b 68 bd 9b 30 27 ba 7c ae ce b8 16 23 60 b5
       -0.056758586 -0.0006377787 -9.855346e-05 -8.349756e-07
000130 46 d9 ac b6 90 69 6b 35 68 34 b9 38 f1 3c 95 39
       -5.1512934e-06 8.7697936e-07 8.831249e-05 0.000284649
000140 81 e8 cf 38 23 d0 55 bc 8f a2 b4 ba a0 30 7e bd
       9.9138364e-05 -0.013050112 -0.0013781356 -0.06205809
000150 78 69 8b b3 d2 90 bc 38 2c 5d 1b ac c6 e7 91 b7
       -6.4918765e-08 8.9915135e-05 -2.2078546e-12 -1.7393275e-05
000160 26 a7 a6 af 14 e0 8d b1 a7 bb 03 b1 70 54 b6 2e
       -3.031399e-10 -4.129115e-09 -1.9169677e-09 8.291401e-11
000170 ff 4a 4f 2d fc b5 3d af 04 98 f3 af 5f e6 33 b1
       1.178324e-11 -1.7254104e-10 -4.4309456e-10 -2.617888e-09
000180 2b dd 77 31 cc 16 03 b1 60 8c 18 b5 6c 14 1c ad
       3.606895e-09 -1.9075967e-09 -5.6828685e-07 -8.872108e-12
000190 39 e9 0b b1 05 c6 18 31 77 7f b6 b9 ee 3c 03 ba
       -2.0359734e-09 2.2231472e-09 -0.00034808714 -0.00050063326
0001a0 b2 08 17 2f 60 dd 55 ae ca af 32 30 cb 41 7e 2f
       1.3736459e-10 -4.8627213e-11 6.5005834e-10 2.312454e-10
0001b0 5c 36 9c b9 ad 7e 81 3d ac 91 3e b0 f4 bf 1f b0
       -0.0002979514 0.063229896 -6.932861e-10 -5.8116645e-10
0001c0 65 28 20 30 2d 7b 26 30 56 fb 51 30 d0 4a 1c b0
       5.8265065e-10 6.056549e-10 7.6390927e-10 -5.6858784e-10
0001d0 c8 6b 4f 2f 8a 16 c5 2f f0 65 3f 30 5e 23 47 2d
       1.8864832e-10 3.5850106e-10 6.9630257e-10 1.13196934e-11
0001e0 d4 60 52 2c 49 9c 08 af 9e d8 ba af c1 52 14 bb
       2.9896545e-12 -1.2424652e-10 -3.398712e-10 -0.0022632333
0001f0 9b 50 8d b7 51 5c e4 af 4d 5b 83 b1 e6 e2 73 b0
       -1.6846045e-05 -4.1538553e-10 -3.8229815e-09 -8.8725327e-10
000200 b0 35 12 b0 22 db 15 31 51 de f0 39 c7 73 59 3b
       -5.3190785e-10 2.1806916e-09 0.00045942006 0.003318058
000210 bf c2 ef bc f4 30 68 3d 6b a5 22 37 13 ba 45 39
       -0.029267667 0.05668731 9.694467e-06 0.00018856702
000220 b4 83 76 37 a7 63 41 bc 6f dc d7 ba f0 f2 cb 38
       1.4693407e-05 -0.011803544 -0.0016468893 9.725045e-05
000230 e1 d2 e6 34 be 39 58 37 12 ec 05 b6 38 4f 37 38
       4.2994273e-07 1.2888047e-05 -1.9955955e-06 4.370438e-05
000240 dc 86 35 39 1c 27 a7 b7 3f 89 16 bc 78 65 0a ba
       0.00017311744 -1.9926163e-05 -0.009187995 -0.0005279402
000250 32 a7 47 bc f5 cc cd 32 f8 33 7b 3a 3c af 99 2f
       -0.012185859 2.3958345e-08 0.0009582634 2.795505e-10
000260 8c 0a ea 39 c5 16 f2 b0 c4 4c ff af f9 68 01 31
       0.00044639816 -1.7614289e-09 -4.6438775e-10 1.883164e-09
000270 1a 74 89 2d d7 11 00 31 20 fe 0e ae 43 0b 7a b0
       1.5626656e-11 1.8636592e-09 -3.251277e-11 -9.0965474e-10
000280 c5 49 fc 2f 45 7b 38 30 35 06 0d b0 ca 87 3c b5
       4.589095e-10 6.7113987e-10 -5.130432e-10 -7.0233057e-07
000290 1a 6a e4 2f 65 1e 93 30 0d 88 6c af 92 fd 36 38
       4.1548348e-10 1.0704296e-09 -2.151241e-10 4.3628337e-05
0002a0 f4 a0 42 39 7d ec 2f af c3 96 be 30 68 e3 f3 b0
       0.00018561241 -1.6000175e-10 1.3867169e-09 -1.774521e-09
0002b0 b3 1a 76 b1 2f e3 0a b9 0e a5 1a 3d 71 88 e0 b0
       -3.5812888e-09 -0.00013245338 0.037755065 -1.6336924e-09
0002c0 8c 43 47 31 2a 1f be b0 21 92 55 2f bc 60 97 af
       2.8996707e-09 -1.3833177e-09 1.9424153e-10 -2.7535474e-10
0002d0 47 43 80 31 e5 d6 65 b0 cd 16 c8 ae fc 84 b0 2f
       3.732939e-09 -8.36151e-10 -9.098997e-11 3.2108705e-10
0002e0 df 71 14 af b0 ef 86 30 71 4d 89 30 72 cb c7 af
       -1.3500977e-10 9.817906e-10 9.990072e-10 -3.6342446e-10
0002f0 7f 2e c4 b9 6c 21 3d 38 e2 1e c6 ae 34 b1 50 31
       -0.00037418675 4.5092238e-05 -9.0094834e-11 3.0368712e-09
000300 a1 21 2d ad 19 58 af af b5 9d 0d b0 dd 54 95 ba
       -9.841379e-12 -3.1894912e-10 -5.1519616e-10 -0.0011393089
000310 1a 08 3f bb 2b 14 d6 3c 61 55 12 3d 81 68 83 b6
       -0.0029149116 0.026132664 0.035725955 -3.91627e-06
000320 b6 96 55 38 0d e6 4f b7 62 a1 37 3a 28 93 d4 39
       5.0923518e-05 -1.2391724e-05 0.0007004944 0.0004054543
000330 c8 65 4f b7 be e2 d0 b4 7e 2a 4e 35 31 83 75 36
       -1.2361859e-05 -3.8907996e-07 7.6802814e-07 3.6584208e-06
000340 21 78 97 b8 ac 64 34 b9 d3 d9 d3 b7 50 a4 31 bb
       -7.222617e-05 -0.00017203641 -2.5254592e-05 -0.0027105995
000350 38 d1 7a 39 85 71 ef 3b c5 94 01 b3 54 dc 23 ba
       0.00023919798 0.0073072338 -3.0170458e-08 -0.0006250788
000360 7c 41 21 ae b5 f4 bf b9 75 9f f4 2f d8 c2 37 b1
       -3.6665324e-11 -0.0003661268 4.4496642e-10 -2.674076e-09
000370 6e f0 16 30 0e 11 4d 30 d4 54 21 b1 60 fe b2 2e
       5.4911353e-10 7.46028e-10 -2.3476803e-09 8.139689e-11
000380 48 70 6d 2f 2e 07 4e 2f 9f 0c c2 30 fc 52 60 b0
       2.1594915e-10 1.8738142e-10 1.4118945e-09 -8.1608653e-10
000390 04 1f 9a b5 ba 54 e1 2e b4 80 91 ac 6b 17 7e b0
       -1.1482921e-06 1.0246866e-10 -4.135437e-12 -9.243794e-10
0003a0 b8 3f b4 b8 91 37 1c b9 9c f4 94 2f 96 25 3e 30
       -8.5949374e-05 -0.0001489802 2.7094849e-10 6.917501e-10
0003b0 d9 e4 33 af c4 7f d8 b0 32 ac 23 38 59 ec 12 bc
       -1.6361258e-10 -1.5752382e-09 3.9022598e-05 -0.0089674825
0003c0 63 28 8a ae 05 5d 92 b1 7a 33 19 31 68 f6 f3 2e
       -6.2826876e-11 -4.2597343e-09 2.2293691e-09 1.1094131e-10
0003d0 cb 26 57 af 7c 1f 04 b1 98 39 42 b0 ba 17 fc af
       -1.9567918e-10 -1.9226425e-09 -7.0658634e-10 -4.5855392e-10
0003e0 dc 34 c6 b0 53 40 03 b0 0a 10 fa 2f 9e e9 2b 30
       -1.442142e-09 -4.774893e-10 4.5486132e-10 6.254143e-10
0003f0 9a 6e 29 b0 6c 46 d8 38 cd 25 8c b7 8c 3a 00 2f
       -6.1639016e-10 0.000103128 -1.6706903e-05 1.1662332e-10

layers.0.bias f4 [128]
000000 1d f2 d3 b1 04 1c 9b af 0e 57 0b b2 96 ce ca af
       -6.1684333e-09 -2.8214242e-10 -8.110659e-09 -3.6890374e-10
000010 0a 93 ba 2c 6b e8 1c 35 22 9f 02 31 63 27 a4 35
       5.3027626e-12 5.845274e-07 1.9007946e-09 1.2230415e-06
000020 5c 6f 00 b1 cb a7 3c b1 74 97 0a b3 1b b5 80 32
       -1.8689752e-09 -2.745298e-09 -3.2268375e-08 1.4983518e-08
000030 b2 cb 24 30 65 4f 05 b6 b6 6e b1 31 91 e8 b1 b0
       5.995232e-10 -1.9864758e-06 5.1639644e-09 -1.2944544e-09
000040 3c 5d ff 30 13 ce 14 b1 d3 65 21 32 71 57 74 34
       1.8580191e-09 -2.1653974e-09 9.3945856e-09 2.2756082e-07
000050 9f f3 ae 31 26 82 7d 30 dc e0 1b b2 4c 83 a1 b0
       5.091763e-09 9.2225816e-10 -9.0733145e-09 -1.1751609e-09
000060 91 73 94 36 d9 ee 33 b5 c6 23 b0 35 a8 10 7b 32
       4.4241974e-06 -6.7030265e-07 1.3123433e-06 1.461391e-08
000070 6b 6c 52 34 d3 c4 f5 32 6d 3f 89 30 f9 3d 64 b0
       1.9597216e-07 2.861126e-08 9.986089e-10 -8.3033985e-10
000080 17 4d 1d 31 e2 ce c3 37 57 0f 27 b2 e3 7d 1b 37
       2.2890327e-09 2.3342149e-05 -9.724167e-09 9.26803e-06
000090 5a ad b0 b5 36 2b 04 31 d1 7b 92 32 90 03 a2 b2
       -1.3163474e-06 1.923309e-09 1.7052942e-08 -1.8860902e-08
0000a0 07 85 ea 32 e6 04 90 31 c3 8c 9a b1 f8 71 b4 2f
       2.730168e-08 4.1915085e-09 -4.4979926e-09 3.282279e-10
0000b0 c9 50 d3 b1 c5 82 a1 32 55 01 61 b2 8f df 29 b4
       -6.1500924e-09 1.8802334e-08 -1.3097027e-08 -1.5820682e-07
0000c0 d8 58 03 33 c8 6b 03 b7 6b f6 bf b0 97 c1 a0 b5
       3.0581617e-08 -7.833303e-06 -1.3967115e-09 -1.1977271e-06
0000d0 6b 35 5a b2 62 43 31 34 00 98 86 32 cc 5f 2a b1
       -1.2701416e-08 1.6508923e-07 1.5668775e-08 -2.479271e-09
0000e0 8a 62 04 b1 30 3b 01 32 78 ed 8e b1 ac 3f 20 af
       -1.926454e-09 7.522246e-09 -4.159741e-09 -1.4574536e-10
0000f0 00 43 b0 b5 dc 84 6d b2 cb 1b 38 32 90 b5 a2 30
       -1.3132521e-06 -1.3825424e-08 1.0716529e-08 1.1838655e-09
000100 46 ac d5 2f f7 21 2f 30 2e df 96 33 82 78 da b0
       3.8866882e-10 6.3712896e-10 7.0255155e-08 -1.5895838e-09
000110 1c 03 a3 35 fe 2b 3e b5 d1 f5 a5 36 63 10 a1 b2
       1.2145351e-06 -7.084453e-07 4.946e-06 -1.8750319e-08
000120 da 35 d0 32 37 c0 3c 30 7b f4 ba b1 d5 7e 02 31
       2.4238876e-08 6.8667155e-10 -5.4411067e-09 1.8989585e-09
000130 c2 ca 0e b0 1a 6f bb af 1c 34 87 34 6f e9 98 b2
       -5.1947435e-10 -3.4094044e-10 2.5183624e-07 -1.7801282e-08
000140 45 85 66 34 45 ec 59 af d2 f4 93 b1 d0 6c 9f b0
       2.1468902e-07 -1.9819975e-10 -4.306096e-09 -1.1599699e-09
000150 2c 76 02 32 f2 a4 40 b2 42 30 28 b5 d8 4a 89 b3
       7.593865e-09 -1.1213375e-08 -6.26551e-07 -6.3931736e-08
000160 ca 33 a2 30 bd 9a 8c b5 ba d9 c4 35 39 c7 2a b2
       1.1801771e-09 -1.0475848e-06 1.4666505e-06 -9.9406e-09
000170 32 85 35 b4 d5 49 58 b5 fc bf a8 b1 76 f0 f6 b3
       -1.6905395e-07 -8.057371e-07 -4.9112696e-09 -1.1499007e-07
000180 1d 33 ba b1 ab 8c a7 b1 01 50 a2 b0 ac 9c a6 b1
       -5.4191234e-09 -4.876332e-09 -1.180979e-09 -4.8490474e-09
000190 0a 7b 40 b1 60 37 10 af dc ce 31 34 24 38 fd b7
       -2.8009617e-09 -1.3116397e-10 1.6559665e-07 -3.0186093e-05
0001a0 91 88 c4 af 7e 8e 38 ad 51 68 c6 37 97 b3 bd b2
       -3.5749229e-10 -1.0490829e-11 2.3652015e-05 -2.2084164e-08
0001b0 85 ba bf b5 67 e2 64 34 03 2f 47 33 9e b9 7a 31
       -1.4284893e-06 2.131652e-07 4.6376055e-08 3.64853e-09
0001c0 ae 5a 18 b0 73 38 63 2f 72 5e f4 35 87 f8 98 b2
       -5.542614e-10 2.0665585e-10 1.8206904e-06 -1.7808146e-08
0001d0 7f 52 ab 32 ed 31 06 37 84 30 9c 30 1a 4d fb b0
       1.9944535e-08 7.998647e-06 1.1364283e-09 -1.8284567e-09
0001e0 18 b2 54 2e 44 2f fe 37 5f c8 e5 31 57 75 9e 32
       4.8361398e-11 3.030117e-05 6.6875567e-09 1.844698e-08
0001f0 01 2f 66 b1 f2 b8 c8 35 9c 15 a3 b2 6f 36 68 30
       -3.3496124e-09 1.4954987e-06 -1.8985524e-08 8.4478463e-10

layers.2.weight f4 [128]
000000 df 02 37 3f 0e 75 3b 3f 76 45 3f 3f c1 55 37 3f
       0.71488756 0.73225486 0.74715364 0.71615225
000010 57 62 37 3f a4 1e 3a 3f 83 68 39 3f 4e d1 5e 3f
       0.7163443 0.72703004 0.724251 0.87038124
000020 e3 dd 63 3f 1a ad 48 3f c7 6c 39 3f 15 cb 38 3f
       0.8901045 0.7838913 0.72431606 0.7218488
000030 7b c3 38 3f 86 53 3a 3f ad dc 3b 3f e0 28 39 3f
       0.7217328 0.72783697 0.733836 0.72327995
000040 5d eb 36 3f 5b a0 38 3f 4a de 41 3f f0 d7 37 3f
       0.71452886 0.72119683 0.7572981 0.7181387
000050 ce b2 37 3f e2 2c 5d 3f ce 53 38 3f 9f 0f 39 3f
       0.7175721 0.8639661 0.72002876 0.7228946
000060 d7 d5 69 3f bf e8 36 3f 6e fc 37 3f f0 61 54 3f
       0.9134192 0.7144889 0.7186955 0.8296194
000070 45 23 38 3f 30 42 3a 3f 24 77 40 3f 7e f8 39 3f
       0.7192882 0.72757244 0.75181794 0.72644794
000080 de bb 37 3f ea 98 39 3f ef 01 37 3f ce 87 53 3f
       0.7177104 0.72498953 0.71487325 0.82629097
000090 3a 49 37 3f 6d cd 39 3f 45 ef 36 3f 5f a1 37 3f
       0.7159611 0.7257908 0.71458846 0.7173061
0000a0 fa 46 3b 3f a7 50 36 3f d2 15 3b 3f 5e 2d 42 3f
       0.73155177 0.71216816 0.7308017 0.75850475
0000b0 81 83 36 3f a5 b6 38 3f ec de 47 3f 47 a7 3b 3f
       0.7129441 0.72153693 0.78074527 0.7330212
0000c0 68 78 37 3f 73 7d 38 3f ce 2f 39 3f 8f 11 37 3f
       0.716681 0.7206642 0.7233857 0.7151117
0000d0 99 b4 3b 3f 69 d7 56 3f 1e c0 36 3f e0 c8 36 3f
       0.73322445 0.8392244 0.713869 0.7140026
0000e0 19 f3 38 3f c3 9b 37 3f e2 c8 38 3f e0 c2 3b 3f
       0.7224594 0.7172205 0.7218152 0.7334423
0000f0 9a e5 63 3f 07 db 37 3f 00 8e 36 3f b3 e1 37 3f
       0.8902222 0.71818584 0.71310425 0.71828765
000100 95 7f 3a 3f 1f ce 39 3f 38 f7 3e 3f d2 32 37 3f
       0.72850925 0.7258014 0.74595976 0.7156192
000110 ba 54 55 3f 7e c7 3c 3f 02 c3 36 3f 9c 3c 56 3f
       0.8333241 0.737419 0.7139131 0.8368623
000120 11 7c 3a 3f da 88 37 3f 13 57 3a 3f ae ac 36 3f
       0.7284556 0.71693194 0.72789115 0.7135724
000130 10 23 3d 3f 1e c5 36 3f a6 d1 43 3f 87 1e 38 3f
       0.73881626 0.71394527 0.76491773 0.7192158
000140 b3 09 39 3f 5c 46 50 3f b9 6b 37 3f b4 44 37 3f
       0.72280425 0.8135736 0.71648747 0.7158921
000150 32 f4 37 3f 57 66 3a 3f 45 c6 36 3f 9a bc 36 3f
       0.7185699 0.7281241 0.71396285 0.71381533
000160 cb 15 37 3f 0a d7 37 3f 5b c0 42 3f 52 0e 3a 3f
       0.7151763 0.718125 0.7607476 0.726781
000170 fc b1 36 3f 58 05 38 3f 87 dc 3a 3f 08 94 3f 3f
       0.7136533 0.71883154 0.7299275 0.7483525
000180 72 42 39 3f dc 6b 49 3f bb 76 4f 3f 4c 4c 37 3f
       0.7236701 0.78680205 0.81040543 0.71600795
000190 96 96 37 3f d5 1f 37 3f b0 e2 3b 3f 50 e0 36 3f
       0.7171415 0.71532947 0.7339277 0.71436024
0001a0 48 9c 36 3f 60 f6 3a 3f ae 34 37 3f 2c 36 49 3f
       0.71332216 0.7303219 0.7156476 0.78598285
0001b0 18 95 3d 3f 85 a2 66 3f 34 67 42 3f 5d 2e 40 3f
       0.74055624 0.90091735 0.75938725 0.75070745
0001c0 b9 af 6e 3f 4e 4d 3c 3f e1 a9 39 3f f0 d7 37 3f
       0.9323688 0.7355546 0.7252484 0.7181387
0001d0 e7 f5 36 3f a7 e0 4b 3f ac 1d 37 3f ba c1 36 3f
       0.7146897 0.7963967 0.7152965 0.71389353
0001e0 62 8e 37 3f af f5 39 3f fc 25 39 3f 73 bc 58 3f
       0.71701634 0.7264051 0.72323585 0.8466255
0001f0 7e 76 36 3f af fa 36 3f 8f d1 3f 3f 41 c1 39 3f
       0.71274555 0.7147626 0.74929136 0.7256051

layers.2.bias f4 [128]
000000 70 98 cb bc 52 d1 be bb b7 ed 25 bc 4c 89 7a bd
       -0.024852961 -0.005823293 -0.010127476 -0.061166093
000010 2b 47 07 3d be f0 dc 3c 3b b1 0b bb b4 45 bc bd
       0.033026855 0.026970264 -0.0021315354 -0.09192982
000020 f7 69 b6 bd aa 44 8b bd 8f 79 03 3d 49 e4 0d 3d
       -0.0890693 -0.06800206 0.03209835 0.034641538
000030 59 b9 64 3d 63 0f d8 bc 86 36 e2 3c 65 b1 a7 3c
       0.055840824 -0.026374524 0.02761389 0.02047033
000040 7e 34 cf bc 8f 7a f3 3c e8 1f e1 b7 98 8a 1d 3d
       -0.025293585 0.029721526 -2.6836948e-05 0.03846225
000050 0a 2a 08 3d ec e6 bd bd fc 90 29 3d f0 52 f4 bc
       0.033243217 -0.092725605 0.041398033 -0.029824704
000060 cd 65 ca bd 88 88 10 3d b7 97 3a 3d c8 19 da bd
       -0.09882698 0.035286456 0.045554843 -0.10649449
000070 6e 3c 08 bd 7b af ed bc e6 6f 6d 3d 7c dc dc bc
       -0.033260755 -0.02901434 0.057968043 -0.026960604
000080 ea 6a 34 3d d0 7d 84 bc a5 8a 27 3d 03 16 ca bd
       0.044047274 -0.016173273 0.040903706 -0.0986748
000090 bb 7d 40 3d b1 c7 f0 bc ef 69 e3 bc 53 20 22 3d
       0.046994906 -0.029392095 -0.027760474 0.039581608
0000a0 1a bd d4 bc 2b 7b 9f bc 5f a1 d2 3c 0a e5 14 bd
       -0.025969077 -0.01946791 0.025711713 -0.03635124
0000b0 31 11 96 bc 9c 89 d3 3c 2f ea 94 3d 29 a7 e8 bc
       -0.018318744 0.025822453 0.072712295 -0.02840002
0000c0 25 aa da 3c 87 2d 8c bc 10 a6 1d 3d d5 aa ec 3c
       0.02669246 -0.017111553 0.038488448 0.028890053
0000d0 60 92 0a 3d 81 d5 ad bd 95 49 ef bc 8d 11 c1 bc
       0.033831 -0.08487988 -0.029209891 -0.02356794
0000e0 ef 91 43 3c c8 08 f8 3c 41 9f 81 3c cb bf c7 bc
       0.011936649 0.030277625 0.015823008 -0.024383446
0000f0 04 9e ba bd fa 14 e5 bc 68 b7 ae bc 36 f7 12 bd
       -0.0911217 -0.027964104 -0.02132769 -0.03588029
000100 a2 2b 0a bd 24 7f 64 ba fc a0 4f 3d 27 ac 30 bd
       -0.033733018 -0.0008716455 0.050690636 -0.043132927
000110 d2 f4 d8 3d a4 89 ce 3c cd f6 a8 bc f0 ec b6 bd
       0.10593571 0.025212117 -0.020625496 -0.08931911
000120 a8 6a 09 bd f6 eb 13 3d a9 27 0b 3c 4b a8 ab bc
       -0.03354898 0.0361137 0.008493342 -0.020954272
000130 5e d1 ee 3c cd f2 da bc 1b 51 7f bd 40 13 43 bc
       0.029152568 -0.026727105 -0.062333208 -0.011906445
000140 ce 21 d4 3c 07 f8 d4 bd 6a 5e e9 3c cc 5f dc 3c
       0.025895026 -0.1039887 0.028487403 0.026901148
000150 b0 72 c9 bc cd 1c e3 3c 07 53 e0 bc d8 09 08 bd
       -0.02459082 0.027723694 -0.02738334 -0.033212513
000160 1f c8 28 3d 79 96 fc 3c 8c 24 ad bc d2 3f de bc
       0.041206475 0.03083347 -0.021135591 -0.027130041
000170 1e 6d bf bc 95 d6 c1 bc db 9e de 3c 5a 09 6c 3d
       -0.02336746 -0.023661891 0.027175358 0.057626106
000180 58 46 a0 bc aa bc 1c bd 87 ad ba 3d 17 9b 2a 3d
       -0.019564793 -0.03826586 0.09115129 0.04165181
000190 aa 7e e3 3c 2e 09 95 3c e1 72 2e 3c b9 49 28 3d
       0.02777036 0.018192854 0.010647506 0.041085932
0001a0 9e 73 ee bc 8e cc dd bc 66 f9 27 bd aa 11 92 3d
       -0.029107865 -0.027075078 -0.04100933 0.071322754
0001b0 5c 98 18 bd 8c bb b8 bd 14 39 3c bd 50 fa 24 3b
       -0.037254676 -0.09020147 -0.04595287 0.0025173612
0001c0 bd b2 cd bd 32 5e 09 bd ac a8 0c 3d 94 be 1e bd
       -0.10043857 -0.033537097 0.034340546 -0.03875597
0001d0 4a 1a ee bc 9e 8b 95 bd 34 3c 0c bd 7a 83 04 3d
       -0.02906527 -0.073020205 -0.0342371 0.03235195
0001e0 fc 2a 37 bd 7c 36 d7 bc 46 cd df 3c 2f 12 b0 bd
       -0.044718727 -0.026271097 0.027319562 -0.08597218
0001f0 6e 84 11 bd b4 6f b5 bc 5e 0e 2b 3d 5b 48 52 3d
       -0.035526685 -0.02214799 0.04176175 0.051338535

layers.2.running_mean f4 [128]
000000 bc 46 60 52 8d ac 81 52 dc 73 79 d1 0c 0b c2 52
       2.4081485e+11 2.7847285e+11 -6.6961916e+10 4.167045e+11
000010 46 79 76 d1 f4 e4 ca 51 1b 47 e5 51 5d d9 55 51
       -6.6162287e+10 1.0892807e+11 1.2309256e+11 5.7404674e+10
000020 0e 91 a2 d0 ec df 15 d1 03 4e 96 d1 b2 bc 93 d0
       -2.1819322e+10 -4.023168e+10 -8.069424e+10 -1.9828937e+10
000030 8a db fa d0 2f 0c c0 d0 fa 74 96 51 73 d6 50 52
       -3.3669534e+10 -2.5776191e+10 8.0775954e+10 2.2423776e+11
000040 1c 25 08 53 1d 71 ac d0 9c 4d b6 51 39 8a 97 d1
       5.8473814e+11 -2.3144753e+10 9.7873265e+10 -8.135738e+10
000050 59 e2 92 d1 9d cd b0 d0 65 e4 45 d1 2a b8 94 51
       -7.885784e+10 -2.373012e+10 -5.3121274e+10 7.9843115e+10
000060 27 30 d5 d0 ca cb 30 d1 7e c1 a5 d1 f2 0c 18 51
       -2.8613622e+10 -4.745833e+10 -8.898948e+10 4.0815763e+10
000070 26 dc c1 51 ba f3 10 51 6b 63 77 d1 a9 5c 2a d1
       1.0407777e+11 3.891027e+10 -6.6407805e+10 -4.573119e+10
000080 3a e0 86 d1 a0 d8 d0 51 56 0d a9 d1 b6 29 88 51
       -7.241094e+10 1.12123445e+11 -9.075915e+10 7.310192e+10
000090 0e 76 9b d1 77 87 fc 51 af 8c 01 53 70 77 1e d1
       -8.346257e+10 1.3557556e+11 5.5641106e+11 -4.253804e+10
0000a0 f4 54 92 d0 63 ce 0d 53 2a 30 97 d0 85 96 45 d1
       -1.9640328e+10 6.09053e+11 -2.0292129e+10 -5.3039616e+10
0000b0 57 2b e9 52 52 a8 8d d1 dd ff b8 d0 57 6a b3 d0
       5.0072725e+11 -7.605179e+10 -2.4830208e+10 -2.4080726e+10
0000c0 9e 82 98 d1 d5 e2 c0 51 12 9a 62 d1 90 a5 70 d1
       -8.18783e+10 1.0355492e+11 -6.0827967e+10 -6.4598114e+10
0000d0 e7 22 ad d0 e0 ff 70 d1 e4 37 a5 52 8d f9 09 53
       -2.3237966e+10 -6.4692814e+10 3.5480365e+11 5.925973e+11
0000e0 24 d9 0f 51 7e 6b ec d0 14 72 4f d1 af cc cc d0
       3.861396e+10 -3.173174e+10 -5.568576e+10 -2.748773e+10
0000f0 b2 49 4f d1 2d 9e ab 51 6f 2d 08 53 97 60 43 52
       -5.5643415e+10 9.2136645e+10 5.848778e+11 2.0978478e+11
000100 c4 0c aa d0 7c ab fe 51 27 0b 65 d1 36 e0 ce 52
       -2.2823707e+10 1.3672484e+11 -6.1483414e+10 4.4426245e+11
000110 98 de 17 52 1e f0 b7 51 09 08 07 53 fb a3 38 51
       1.6306864e+11 9.875094e+10 5.799554e+11 4.956407e+10
000120 bc 5a ba 52 13 19 63 d1 81 98 c1 51 fd 1e f1 52
       4.001931e+11 -6.096114e+10 1.0393591e+11 5.178035e+11
000130 6e 18 d6 52 14 40 ed 52 86 0d 3d d1 d3 aa 92 51
       4.5976643e+11 5.0949115e+11 -5.074848e+10 7.87414e+10
000140 09 27 8b 51 15 09 1f d1 83 82 ac d1 ab 7f ce d1
       7.470692e+10 -4.269076e+10 -9.26155e+10 -1.1086315e+11
000150 e9 a2 58 51 d8 fa 78 51 fa c5 cb 52 ba 7d cb 52
       5.8152882e+10 6.683502e+10 4.3759993e+11 4.3699385e+11
000160 be d8 80 d1 4c 87 02 d1 16 13 bb 52 f7 ff df d0
       -6.917402e+10 -3.503848e+10 4.0173955e+11 -3.0064753e+10
000170 7f 4a e3 52 b0 4e 9b 52 0e 0a dc 51 42 9b 64 52
       4.881037e+11 3.3352004e+11 1.1813269e+11 2.4546433e+11
000180 2d a9 bf d0 34 62 c1 50 18 bb 58 52 00 be a6 d1
       -2.5724283e+10 2.5955508e+10 2.3271296e+11 -8.951903e+10
000190 28 7c 0b d1 20 fe cb d1 50 93 a8 51 26 4a 61 d1
       -3.7442716e+10 -1.0951773e+11 9.050325e+10 -6.0475728e+10
0001a0 fb 0d e3 52 cb 1f de d0 e4 5d c6 52 8e 53 58 52
       4.8759606e+11 -2.9813004e+10 4.2598937e+11 2.3227869e+11
0001b0 9a 6e 3f d0 07 98 3e 51 06 7b 48 52 96 6b 03 52
       -1.2846787e+10 5.116215e+10 2.1526436e+11 1.4111143e+11
0001c0 f2 dd 45 51 ca f1 26 51 85 c6 7e d1 d7 98 b6 52
       5.311451e+10 4.481382e+10 -6.839077e+10 3.9212414e+11
0001d0 3c 23 08 53 c2 8b c7 51 93 75 de 52 99 a8 a2 d1
       5.847067e+11 1.07130405e+11 4.7772765e+11 -8.732666e+10
0001e0 58 4f b9 52 30 c6 81 d0 09 86 aa d0 9d c9 de d0
       3.9795006e+11 -1.7417994e+10 -2.2887287e+10 -2.990204e+10
0001f0 c1 7b bc 52 a7 fb 97 52 b2 92 28 d1 e1 dc 63 d1
       4.0476505e+11 3.2638104e+11 -4.5250978e+10 -6.1166457e+10

layers.2.running_var f4 [128]
000000 a7 10 c3 63 af 13 ef 63 bf 1a 9a 62 a5 ed 9d 64
       7.19663e+21 8.8203804e+21 1.4213629e+21 2.3306103e+22
000010 30 7f 39 62 a5 f9 7c 63 73 c9 72 63 52 2c 9b 63
       8.554531e+20 4.6665683e+21 4.478628e+21 5.724878e+21
000020 bb 24 d4 60 51 89 16 61 82 b8 64 62 22 0c fc 60
       1.2229239e+20 1.7355664e+20 1.0547882e+21 1.4529543e+20
000030 e5 99 bf 61 1f 43 a0 61 72 8d 8f 63 61 d1 63 63
       4.4180217e+20 3.6953945e+20 5.296153e+21 4.2024982e+21
000040 02 1b fa 64 5d eb 1b 61 8c bd b3 63 be 0c 89 62
       3.6909057e+22 1.7976282e+20 6.631251e+21 1.264061e+21
000050 db 65 7b 62 5e b6 f6 60 48 19 f3 61 9a a0 e9 62
       1.15936806e+21 1.4222e+20 5.6054756e+20 2.154832e+21
000060 ce e8 37 61 3e 6c 08 62 24 8b a3 62 e5 08 9d 63
       2.120331e+20 6.291392e+20 1.5084227e+21 5.7935595e+21
000070 ac dd 0e 63 c9 d9 bc 62 24 51 b0 62 88 1f 07 62
       2.6354108e+21 1.7418405e+21 1.6262369e+21 6.231456e+20
000080 7e 1e 58 62 07 1e 55 63 3b 49 ba 62 38 3b d3 63
       9.966735e+20 3.9313202e+21 1.7181856e+21 7.7930603e+21
000090 b2 ce 9f 62 10 9d 3a 63 be 43 fb 64 a2 77 f1 61
       1.4739631e+21 3.442412e+21 3.7080113e+22 5.5678572e+20
0000a0 6a 8d cd 61 2d 9a 0e 65 64 de 76 61 69 1f 53 61
       4.7397156e+20 4.2088755e+22 2.8462025e+20 2.434079e+20
0000b0 d1 a5 af 64 60 0b 49 62 08 9e 36 62 dd f8 c3 61
       2.5921028e+22 9.271538e+20 8.421737e+20 4.5188095e+20
0000c0 8a 9e 97 62 af 77 27 63 8e d1 f2 61 0c a9 40 62
       1.3984411e+21 3.0892304e+21 5.599015e+20 8.88489e+20
0000d0 38 1d b2 61 cd de a8 61 0e 14 2f 64 0f 8f 06 65
       4.1070323e+20 3.8938844e+20 1.2918501e+22 3.9714755e+22
0000e0 c5 34 0c 63 aa 45 72 61 5a f4 da 61 79 07 d3 61
       2.5863466e+21 2.7932074e+20 5.048747e+20 4.866002e+20
0000f0 ca 07 ab 61 b3 8a 0b 63 f4 99 03 65 6c b3 8e 63
       3.943693e+20 2.5740918e+21 3.884187e+22 5.264733e+21
000100 2f 6a 8a 61 f9 45 6e 63 da 37 91 62 26 7c 92 64
       3.1916275e+20 4.3953672e+21 1.3394012e+21 2.1617364e+22
000110 c1 59 86 63 50 19 b5 63 eb 6c ed 64 03 e3 8b 63
       4.9566623e+21 6.681369e+21 3.5037814e+22 5.1609107e+21
000120 98 cf 3e 64 26 b9 21 62 75 05 48 63 e3 3d cd 64
       1.407936e+22 7.458168e+20 3.689742e+21 3.0288336e+22
000130 4d 48 bf 64 6c 0b d1 64 c3 fb 44 61 96 04 02 63
       2.8228304e+22 3.084954e+22 2.2710645e+20 2.3984072e+21
000140 e9 59 41 63 83 3c 4a 61 70 29 c3 62 fe 0a 09 63
       3.5667003e+21 2.3316266e+20 1.8000505e+21 2.527996e+21
000150 16 76 ba 62 7c ea 1e 63 14 8b 8f 64 b7 22 92 64
       1.7198017e+21 2.931482e+21 2.1183248e+22 2.1565809e+22
000160 11 31 76 62 47 e9 93 61 e5 0c c2 64 47 89 d6 61
       1.13535866e+21 3.410601e+20 2.863678e+22 4.946869e+20
000170 c8 1b b5 64 a1 60 14 64 29 06 a0 63 e9 8b 6d 63
       2.67269e+22 1.0948324e+22 5.903846e+21 4.38196e+21
000180 6b 01 c0 61 a4 61 45 63 97 85 6f 63 5b 5c a5 62
       4.4273463e+20 3.6410443e+21 4.418398e+21 1.5251838e+21
000190 d8 fb a1 61 34 c8 05 63 ea ff c3 63 40 d4 43 62
       3.7350913e+20 2.467843e+21 7.2311113e+21 9.031023e+20
0001a0 a0 06 c6 64 da 4f f0 61 b5 e2 88 64 ea 39 9e 63
       2.9223462e+22 5.5412156e+20 2.0200745e+22 5.8375174e+21
0001b0 88 1b 41 62 c1 77 8e 63 60 e3 25 64 bd df 01 64
       8.9055136e+20 5.2561337e+21 1.2240387e+22 9.583008e+21
0001c0 56 26 68 63 d4 80 cc 62 19 eb 22 62 1a b7 3f 64
       4.282407e+21 1.8862094e+21 7.513283e+20 1.4146088e+22
0001d0 8f 22 07 65 a8 4b db 63 08 13 9b 64 81 fd bb 62
       3.988481e+22 8.090577e+21 2.2884933e+22 1.733904e+21
0001e0 73 18 86 64 76 77 a7 61 51 36 0d 61 76 c3 e8 60
       1.9789004e+22 3.861518e+20 1.6280655e+20 1.3417903e+20
0001f0 93 e4 8b 64 7d ec 1a 64 e7 20 55 62 fe f6 37 62
       2.0644543e+22 1.1431357e+22 9.8288184e+20 8.4838796e+20

layers.3.weight f4 [128, 128]
000000 d0 62 32 3b 27 bb 3b 3c 7a 8f b6 3b c9 c8 c9 bb
       0.0027219541 0.011458195 0.005571303 -0.0061579687
000010 5a f5 77 bb 34 04 30 bc f2 af 6f 3c d5 96 66 bd
       -0.003783545 -0.01074319 0.014629351 -0.05629619
000020 6a 9e 64 bd 70 86 03 bd c7 d0 02 bc 5d af 82 bb
       -0.055815138 -0.03211063 -0.007984347 -0.00398819
000030 0f f3 1d 3c ed 0d cf 3b b2 f2 aa bb 67 c0 76 3c
       0.009640469 0.0063187988 -0.00521692 0.015060521
000040 af 51 3c 39 3f e9 ea bb 05 02 d2 bc ac 50 33 3a
       0.00017959507 -0.0071689184 -0.025635729 0.0006840329
000050 a3 77 12 bb d5 60 65 bd 02 62 c8 ba 81 71 01 3c
       -0.002234914 -0.05600055 -0.0015287998 0.007900597
000060 6d c4 81 bd f8 75 24 3b b4 f5 cf 3a ec d5 3a bd
       -0.06336293 0.002509473 0.0015866072 -0.045614168
000070 3a dd d2 3b ba 33 f9 3b 7b 83 c0 3c 0e d3 26 3b
       0.0064350637 0.0076050432 0.023500195 0.0025455388
000080 f2 8e 19 bb fa b8 16 3c f0 12 ad 3a 47 44 53 bd
       -0.002343115 0.009199375 0.0013204496 -0.051578786
000090 48 de a0 3a 06 5c c9 3b e5 53 5c bb 32 bd 4d 3a
       0.0012273276 0.0061450033 -0.003361934 0.00078483217
0000a0 41 de ed 3b bd 70 5a ba 5d b2 21 bc ae 46 bf bc
       0.0072591607 -0.00083328394 -0.009869185 -0.023349132
0000b0 0e 3f 7c 3b d8 b2 3a bc ea e6 ac 3c e4 ac da 3b
       0.0038489732 -0.011395179 0.021106202 0.006673442
0000c0 3e 6f bf bb cd 7c c2 bb a4 d0 c4 bb ae 56 81 bb
       -0.0058421185 -0.0059352876 -0.006006317 -0.0039471006
0000d0 47 d9 9e bb db 42 4a bd ca ac 0e 3b 50 c9 b8 ba
       -0.004847679 -0.049380165 0.002177047 -0.0014098082
0000e0 ba c9 e6 bb 5d ef 4f bb 72 57 72 bc 4c 1c f8 3b
       -0.0070430906 -0.0031728365 -0.014791356 0.0075717326
0000f0 64 8f 8f bd 6f 35 68 3b 6f c5 2a bb 34 db 9b 3b
       -0.070097715 0.003543224 -0.002605762 0.0047563557
000100 20 46 71 3b 7b 43 85 3c fa 0c b2 3c 76 14 cb ba
       0.003681548 0.016267529 0.021734703 -0.0015493769
000110 e8 27 23 3d d5 24 de bb 00 d8 c1 3a 0c b4 39 bd
       0.03983298 -0.006779293 0.0014789104 -0.04533772
000120 9c 2e b6 3a 55 38 43 bb 1f c6 90 3c 3e 86 d5 39
       0.0013899389 -0.0029788215 0.017672596 0.00040726544
000130 e3 3d 05 ba b1 7c a0 ba dd 11 ca bc 1a 75 14 3c
       -0.0005082769 -0.0012244192 -0.024666721 0.009061122
000140 b7 93 d9 bb d8 7a 30 bd 3e ff fa b8 79 a6 69 ba
       -0.0066399234 -0.043085903 -0.000119684715 -0.0008913051
000150 36 55 c4 3b e6 f0 02 bc 24 0b 43 3a f5 f6 d8 ba
       0.0059916032 -0.007992005 0.000744032 -0.0016553091
000160 4e 96 57 3b 7e 00 97 bb 73 eb 56 bc de 1a 0a 3c
       0.0032895985 -0.004608213 -0.013117659 0.008429257
000170 fb e8 d6 ba 31 56 bf 3b 29 dd b8 bb e5 aa c3 3c
       -0.0016396338 0.0058391322 -0.0056415987 0.0238852
000180 9c db f3 3b fb 4a c0 bc 82 b6 03 3d 42 e1 a9 ba
       0.007441951 -0.023473253 0.032156475 -0.0012960809
000190 32 bc 84 bb 7c 67 a3 3a 54 b2 ca bb 11 5a 2a 3b
       -0.004050755 0.0012466754 -0.006185809 0.0025993625
0001a0 2f 00 52 bb cc d0 8d 3b 6a a4 a3 ba 67 03 21 3d
       -0.0032043566 0.004327869 -0.0012484912 0.039309885
0001b0 fd d4 e7 bb 1c 86 59 bd 65 ba b1 bc 8c 03 a8 bc
       -0.0070749507 -0.053106412 -0.021695325 -0.020509504
0001c0 e1 17 96 bd 69 0a 52 3c 89 a9 fb bb ff f1 9e 3b
       -0.07328773 0.012819865 -0.0076801223 0.0048506255
0001d0 a3 04 d5 ba 98 aa 0a bd 5a 66 b6 39 42 7e a5 39
       -0.0016251992 -0.033854097 0.00034790003 0.00031565322
0001e0 d8 2f ac bb c5 e8 a1 3b b9 17 f6 bb ca b5 44 bd
       -0.005254727 0.0049410784 -0.007510152 -0.04802493
0001f0 f7 c9 8b bb 5f 15 05 3b 00 4a 0d 3c 3c 78 23 3c
       -0.0042660194 0.0020306928 0.0086236 0.009977397
000200 3a e4 8b 3c 40 12 fd 3c cf a4 db bc 42 e8 db 3c
       0.0170766 0.030892491 -0.026811985 0.026844148
000210 f2 5d 9a bc 92 26 d1 bc 4f a9 b6 bb 34 39 06 3d
       -0.018843625 -0.025531087 -0.0055743824 0.032769397
000220 cd 69 2b 3c dc 16 c5 bb 8d 8a 0f ba 19 ec cf bc
       0.010462237 -0.006014688 -0.0005475663 -0.025381135
000230 a0 5d e8 bc 18 e1 c1 3c 29 78 bf bc 08 10 42 3b
       -0.028364956 0.023666903 -0.023372727 0.0029611606
000240 aa f3 5a 3c 84 05 c1 bc 4e 34 8f 3c 30 87 bf bc
       0.013363758 -0.0235622 0.017480996 -0.023379892
000250 c0 ae a0 bc 2f fb c9 3c 96 5a b5 bc 3c 5a cf 3c
       -0.019614577 0.024655906 -0.022137921 0.025311582
000260 9c dd 3f 3c e4 74 de bc e4 34 e2 bc b6 4f 84 3c
       0.011710551 -0.027155347 -0.02761311 0.01615129
000270 fc 7f e2 3c 68 95 c5 3c 3a a7 20 bc da 60 8b 3c
       0.027648918 0.024119094 -0.009805495 0.017013956
000280 0a bb af bc a6 32 d8 ba 65 ee a9 bc 5f 32 07 3d
       -0.021451492 -0.0016494587 -0.020743558 0.033007022
000290 5f 2c c9 bc a7 61 c7 3c b0 d2 5e 3c c5 dc 01 bd
       -0.02455729 0.024338556 0.0136000365 -0.031704683
0002a0 89 f7 71 3c ad ca 6b 3c 97 2c a9 bc 93 ce bf bc
       0.01476849 0.014391583 -0.020651145 -0.023413932
0002b0 16 0e 94 3c ba ca b7 3b f6 77 e5 bb e2 af e9 3c
       0.018073123 0.0056088837 -0.007002826 0.02852625
0002c0 a9 cd 73 bc 22 a0 b7 3c 76 b8 cc bc fb 44 8b bc
       -0.014880576 0.022415224 -0.024990302 -0.017000666
0002d0 96 ef f0 bc 0d 42 90 3b 8a 2e 9d 3c 4f bb 68 3c
       -0.029411118 0.004402405 0.01918723 0.014204814
0002e0 93 2c c4 bc 21 3f a6 bc 2f 18 ba 3b 5a 93 ec 3c
       -0.023947036 -0.020293774 0.0056791524 0.028878856
0002f0 0b 8e c8 3c 4c 26 c8 3c 6f 03 5d 3c 3d d1 be 3c
       0.024481794 0.024432324 0.013489588 0.023293132
000300 5b bd bc 3c e7 f3 f7 ba a2 0c 15 bc f6 bc be 3c
       0.02303951 -0.0018917293 -0.00909725 0.023283463
000310 89 0c 51 bc 72 b6 e3 bc 6d 35 58 3c c7 16 ff 3c
       -0.012759336 -0.027796958 0.013196331 0.03113879
000320 3a b6 ca 3c 50 a0 a9 bc cf b6 03 3a e3 6b 65 3c
       0.024745096 -0.020706326 0.0005024494 0.014002773
000330 27 a7 82 bc bc a9 76 3c 80 f9 30 3c 9b 7f b9 3c
       -0.015948845 0.015055116 0.010801673 0.022643855
000340 cc c2 d5 bc 2b bf b2 3c 81 f7 6a bc f6 80 5d bc
       -0.026093863 0.021819672 -0.014341236 -0.013519516
000350 c6 5f cf 3c 65 20 e4 bc 2d 56 67 3c 68 2e 93 3c
       0.025314223 -0.027847478 0.014119667 0.017966464
000360 a6 08 ad bc 51 35 a9 bc 56 7d f4 3c 6a 66 87 3c
       -0.021122288 -0.020655306 0.029844921 0.016528327
000370 a1 56 71 3c ed d7 70 bb d4 34 bd bc 28 41 b2 3c
       0.014730127 -0.0036749796 -0.02309648 0.021759585
000380 dc 0e 84 3c 6b 27 a5 3b 47 f9 11 3c 11 49 a7 bc
       0.016120367 0.0050400994 0.00890953 -0.020420583
000390 9e fb 94 bc b1 bf 67 bc de 95 3b bc 0c 6c ce bc
       -0.018186387 -0.014144824 -0.011449305 -0.025198005
0003a0 ba 0e 85 3c 71 b1 b5 3c f8 bc cf 3c 1a af 6b 3b
       0.016242374 0.022179337 0.025358662 0.0035962523
0003b0 53 6c 83 bb 48 05 da 3c 9b 72 cb 3c e9 04 f3 3b
       -0.004010716 0.026613846 0.024834922 0.007416357
0003c0 ac 82 b2 3c 83 3f c5 3c b3 4b 8f bb 20 43 c6 3c
       0.021790825 0.024078136 -0.0043730377 0.02420193
0003d0 a0 06 6d 3c 07 73 75 3c a2 b2 b0 3c 6e 56 8d bc
       0.014466912 0.014981038 0.021569554 -0.017253127
0003e0 92 b0 e5 3c 6b a3 a2 3c 52 58 d2 bc 2c d0 a0 3c
       0.028038297 0.019853314 -0.02567688 0.019630514
0003f0 ad 95 a3 3c c2 64 88 3c f8 00 82 bc 05 de a4 bc
       0.019968832 0.016649608 -0.015869603 -0.020125398

layers.3.bias f4 [128]
000000 29 2c a0 3d 22 bb 19 bd 35 15 ca bc 87 4f 84 bd
       0.07820923 -0.03753198 -0.024668315 -0.06460481
000010 76 0f 71 bd f4 62 25 bd 6f 2a 88 3d 46 f6 d8 3c
       -0.058852635 -0.040377572 0.066487186 0.02648462
000020 0c de e5 bc 93 36 f5 3c fa 3d 19 3c a0 e8 92 3d
       -0.028059982 0.02993325 0.009353155 0.07173276
000030 0b f2 29 3c a6 74 05 3d e1 0e 23 bc 00 4f d3 3b
       0.010372649 0.032581948 -0.009952278 0.0064486265
000040 0e df 28 3d e4 b5 32 3d cb 85 89 bc 65 84 34 bc
       0.041228347 0.043630496 -0.01678743 -0.011017893
000050 7e 09 32 bd 3d c3 98 bb f7 f5 85 bd 98 74 6b bb
       -0.043466084 -0.004661946 -0.06541055 -0.003592765
000060 0b e1 a9 ba 67 8a 53 3d 95 23 03 bc c0 28 c8 3a
       -0.0012960745 0.051645663 -0.008004089 0.0015270934
000070 33 ab 1b 3c 16 8b 0b bd 54 95 9e 3d 9c 4d 8b 3d
       0.009501266 -0.03406819 0.07743326 0.06801912
000080 f4 25 25 3d b1 53 42 bd 23 6c b6 bc 18 37 04 3d
       0.040319398 -0.047443096 -0.02226836 0.032279104
000090 7d 5e 1c 3d da bb 08 bc 9b 45 2c 3c dd 72 d1 bc
       0.03817605 -0.008345569 0.010514642 -0.025567466
0000a0 9e 06 42 3d 51 c4 b8 3c 53 fd fa 3c d6 f3 02 bd
       0.047369592 0.022554548 0.030638373 -0.03197082
0000b0 16 0f 19 bd d7 28 d6 3c 7c f4 d4 bc 6f de 71 3c
       -0.037367903 0.02614252 -0.025995485 0.014762505
0000c0 f5 50 08 bd 71 79 11 3c 48 ae 4f bd b6 83 37 bd
       -0.03328033 0.008879052 -0.050703317 -0.044803344
0000d0 6a 5b 66 bc 9f 56 01 3c 1c 16 18 bd c6 a7 16 bd
       -0.014059881 0.007894187 -0.03713046 -0.036781095
0000e0 89 9c 0b bd 7f 33 89 3b 29 f0 39 bd 49 73 6a 3d
       -0.03408483 0.004187047 -0.04539505 0.05723885
0000f0 57 bc 9f bd 34 e5 6c bd ad 82 21 3d eb fc 49 bc
       -0.07799595 -0.057835773 0.039431263 -0.012328367
000100 79 9b ee 3d de d6 63 bd 35 ae 83 3d a8 a6 e2 bc
       0.11650748 -0.055624835 0.06429712 -0.027667359
000110 a9 ed ce bc 9a 8a ba 3c 7e 4b 44 bc 86 a8 15 bd
       -0.02525981 0.022771169 -0.011980889 -0.03653767
000120 4d ff 81 bd e1 39 56 3d 4a a8 cf bc 74 19 b8 3c
       -0.06347523 0.05230129 -0.025348801 0.022473074
000130 b3 ca e2 bc 46 16 85 3d 50 d5 74 3d 5a 4c ff 3c
       -0.027684545 0.06498389 0.059773743 0.031164337
000140 c0 a7 c2 3d c3 9d 9e 3c 23 f1 fd bc 5a 0c 35 bc
       0.09504652 0.019362336 -0.030998772 -0.011050308
000150 38 69 89 bb cd 08 f9 bc 72 f9 62 3d 56 cf 2b 3c
       -0.0041934513 -0.030399704 0.05541367 0.010486444
000160 81 f0 f0 3b 00 13 86 3b 03 a6 25 bd a1 24 27 bd
       0.007352889 0.0040916204 -0.040441524 -0.040806416
000170 45 80 64 bc 45 ce 36 bc 3c ab 55 3c b0 0a 2d 3d
       -0.013946597 -0.011157577 0.013041314 0.04224652
000180 61 73 1f 3d eb 66 7c 3d f6 cb 3b 3d 5c 46 a6 3c
       0.038928393 0.061621588 0.04584881 0.020297222
000190 4c e0 48 3c eb 7e f1 bc 31 fb 5f 3c 6b 86 b1 3b
       0.012260508 -0.029479465 0.013670729 0.005417635
0001a0 60 c5 6c 3d 87 c0 19 3d 88 38 d3 3c d9 af 23 3d
       0.05780542 0.037537124 0.025783792 0.039962623
0001b0 66 bb 02 3d a7 3e 00 3c f1 0c c9 bc a6 36 13 3d
       0.031917 0.0078274375 -0.024542304 0.03594079
0001c0 43 ea 6b 3b 3b 99 e1 3d 56 4e 20 3d 80 b2 0c bd
       0.0035997785 0.110155545 0.039137207 -0.03434992
0001d0 6f 15 56 3c 32 dd 4e bc 1b 96 e6 bb c0 ab 16 bd
       0.013066634 -0.012625979 -0.007036937 -0.036784887
0001e0 c6 28 a7 3b cd 14 e5 bb d0 2f 27 3d f0 13 9c 3c
       0.005101296 -0.006991005 0.040817082 0.019052476
0001f0 f3 a6 4a bd 3a 45 90 bd 83 4c c0 3c ca cf 89 bd
       -0.04947562 -0.07044454 0.023473984 -0.06729086

layers.6.weight f4 [128]
000000 73 a9 4d 3f 6a a7 40 3f f6 de 4e 3f 66 a0 4c 3f
       0.80336684 0.75255454 0.8080896 0.7993225
000010 c1 ec 44 3f 18 d5 43 3f 05 75 3f 3f 04 eb 4d 3f
       0.7692376 0.7649703 0.7478793 0.8043673
000020 3d 49 41 3f 47 05 42 3f cb 79 49 3f e1 c6 45 3f
       0.7550238 0.757893 0.78701466 0.7725659
000030 de bd 46 3f f4 b9 41 3f 51 49 40 3f 05 d0 4d 3f
       0.77633464 0.75674367 0.7511187 0.8039554
000040 13 69 50 3f f3 42 58 3f 9e 2c 42 3f 54 ae 3e 3f
       0.8141033 0.84477156 0.7584933 0.74484754
000050 34 2d 47 3f 70 b7 45 3f 4b ad 55 3f 33 24 44 3f
       0.7780335 0.7723303 0.8346755 0.76617736
000060 9d 82 4a 3f 02 c9 59 3f 76 99 55 3f 8b ea 41 3f
       0.7910555 0.8507234 0.8343729 0.7574851
000070 35 b1 43 3f d4 8e 4c 3f 11 0b 4b 3f e5 7c 44 3f
       0.7644227 0.7990544 0.7931376 0.76753074
000080 c6 0c 3e 3f ea 5f 40 3f 72 53 48 3f 9e c1 44 3f
       0.7423824 0.75146353 0.7825233 0.76857936
000090 ea 17 48 3f 65 74 51 3f 2c 61 46 3f ef d5 47 3f
       0.7816149 0.8181823 0.7749202 0.7806081
0000a0 a4 32 4c 3f 78 32 3f 3f 65 ec 4c 3f da 08 47 3f
       0.7976477 0.74686384 0.8004821 0.7774788
0000b0 7e 91 43 3f 73 59 41 3f 18 9e 3b 3f f6 fc 47 3f
       0.7639388 0.75527114 0.73288107 0.7812036
0000c0 e2 09 4e 3f a7 51 50 3f 26 6a 4b 3f 65 f1 3d 3f
       0.8048383 0.8137459 0.79458845 0.74196464
0000d0 fb 2d 3f 3f 6e 4a 4d 3f 90 b9 44 3f 47 af 44 3f
       0.74679536 0.80191696 0.76845646 0.7682995
0000e0 b5 e4 42 3f e9 0c 3e 3f be 0d 44 3f ca d1 4a 3f
       0.7613023 0.7423845 0.7658347 0.7922636
0000f0 23 d8 4b 3f 5b b2 54 3f cd eb 46 3f d8 e6 44 3f
       0.79626673 0.8308465 0.77703553 0.7691474
000100 f8 90 48 3f 48 f2 46 3f 07 bc 43 3f 0b 9b 44 3f
       0.78346205 0.7771344 0.7645878 0.76799077
000110 dc cc 47 3f 49 33 44 3f 8e 0c 3d 3f ad 03 43 3f
       0.78046966 0.76640755 0.7384728 0.76177484
000120 11 5d 4d 3f be 7c 44 3f 27 75 4c 3f 65 69 4a 3f
       0.80220133 0.7675284 0.7986626 0.7906707
000130 6c 2b 46 3f c0 45 5d 3f 53 89 4a 3f 05 ae 3f 3f
       0.77410007 0.86434555 0.7911579 0.7487491
000140 4b 43 55 3f fd e5 3c 3f 9b 8c 48 3f 01 ec 46 3f
       0.83305806 0.73788434 0.78339547 0.77703863
000150 04 d3 47 3f 50 1e 4a 3f 2b 08 47 3f 34 ce 4f 3f
       0.7805636 0.78952503 0.7774684 0.81174016
000160 eb 13 42 3f 00 fa 4b 3f a6 5f 45 3f 60 9c 4c 3f
       0.7581164 0.79678345 0.7709907 0.7992611
000170 66 ad 4a 3f cb 95 46 3f 24 a7 51 3f 9a 9b 45 3f
       0.79170835 0.77572316 0.8189566 0.77190554
000180 cd 87 59 3f 3d 4e 55 3f 5d f4 42 3f 04 ec 44 3f
       0.8497284 0.8332251 0.7615412 0.7692263
000190 e4 54 4c 3f e4 76 3e 3f 6c fe 40 3f 7b cc 48 3f
       0.7981703 0.7440016 0.75388217 0.7843701
0001a0 6a 29 49 3f d0 7d 4b 3f 2f d9 3f 3f c0 2c 3d 3f
       0.7857882 0.7948885 0.7494077 0.7389641
0001b0 4b ef 42 3f 90 4c 4f 3f ee ef 4f 3f 33 c1 3c 3f
       0.7614638 0.809762 0.8122548 0.737323
0001c0 c9 8f 3e 3f db 17 4a 3f 4c fb 48 3f 72 b5 3f 3f
       0.7443815 0.7894265 0.7850845 0.7488624
0001d0 c9 14 54 3f d5 3c 45 3f 67 48 4a 3f 22 2b 4a 3f
       0.82844216 0.7704595 0.7901673 0.78972065
0001e0 65 84 41 3f 3e 76 49 3f 1d 47 3d 3f f7 d8 4e 3f
       0.75592643 0.7869605 0.73936635 0.8079981
0001f0 bb 0f 44 3f a5 ce 4a 3f 69 81 4f 3f 94 81 4d 3f
       0.765865 0.79221565 0.8105684 0.80275846

layers.6.bias f4 [128]
000000 8f 10 07 3e 55 6c 57 3c f4 46 1b be e9 1e ea 3d
       0.1318991 0.013148387 -0.15163785 0.11431677
000010 79 1e bb bd fb a8 e5 bc 4f 2b 67 3d 38 2b 0f 3e
       -0.091366716 -0.028034678 0.056437787 0.1398133
000020 54 71 ef bd 84 dc 06 3e 50 d6 00 bc 5b 5b c4 3d
       -0.116915375 0.13170058 -0.007863596 0.09587737
000030 63 8f 08 be 42 e4 d3 bd 33 61 ba 3d 5d 88 c7 bd
       -0.13335948 -0.10346271 0.091005705 -0.09742806
000040 b7 2d 12 3e 09 98 1f 3e 36 b5 f3 bd ac c2 7a bb
       0.14275251 0.1558534 -0.118997976 -0.0038263006
000050 a3 72 e2 bd 25 02 ce 3d 9d 94 29 be 52 c3 ad 3c
       -0.110570215 0.10059003 -0.16560598 0.0212113
000060 42 6d fa bd aa c9 0e 3e d4 9e 22 3e 39 57 ad bd
       -0.122278705 0.13944116 0.158809 -0.08463902
000070 b5 da 19 3d 5d f6 0b be 43 61 d4 3d 73 22 d1 3d
       0.03756209 -0.13668199 0.10370114 0.10211649
000080 0c fa 1e 3d 0d 05 8a bd c8 39 a1 bd 10 20 98 bc
       0.038812682 -0.067392446 -0.07872349 -0.018569976
000090 4b 7f a1 3d e9 17 14 be bd d8 bf 3d 60 c1 f5 bd
       0.07885607 -0.14462246 0.093675114 -0.11999774
0000a0 7d fa c2 3d bc 79 b3 3d e2 da dc 3d 3e 8a a2 bb
       0.09520433 0.08763453 0.10783936 -0.0049603274
0000b0 23 6a 6c 3c cf 87 a9 3d b3 24 07 bd 68 34 b7 3d
       0.014429602 0.082778566 -0.032993983 0.089455426
0000c0 0d e6 b4 bd 34 d3 0a be 5d 87 1b be 7e 0c 6d bd
       -0.08832941 -0.1355713 -0.15188356 -0.05787324
0000d0 c8 ce 85 bd 1f f2 ca 3d 6e 50 0d bd 99 dc a6 bd
       -0.06533581 0.09909462 -0.03450053 -0.081475444
0000e0 30 bc 5d bd 41 3d ac 3d 82 39 06 be 7d ae d6 bb
       -0.054134548 0.08410121 -0.13107875 -0.0065515623
0000f0 9b 54 1a be c4 a0 23 be 0c 19 62 3d 88 57 8b bb
       -0.15071337 -0.15979296 0.055199668 -0.004252378
000100 89 e9 1a 3e f0 53 b3 bd 88 c9 d6 3d 9e fe ad bd
       0.15128149 -0.08756244 0.10487658 -0.0849583
000110 be 70 e6 3d bc 41 ec 3d 2a 4c c4 bc 2b 51 17 be
       0.112519726 0.11535975 -0.0239621 -0.14777057
000120 63 24 12 be 9a 70 07 bd c5 44 e7 bd 31 a4 a6 3d
       -0.14271693 -0.03306637 -0.112924136 0.08136786
000130 17 7b d6 bd c8 59 2b 3e b6 a2 01 3e 24 08 b9 3d
       -0.10472696 0.16733468 0.12659726 0.09034756
000140 6a af 0f 3e 7d 09 d7 3d 66 96 d1 bd 16 d0 b5 3d
       0.14031759 0.104998566 -0.10233764 0.0887758
000150 0e 45 0b be 54 e2 02 be 57 fd 01 3e 0a 3e 09 3e
       -0.13600561 -0.1278165 0.12694298 0.13402572
000160 4c 5c f3 3d 3b e0 99 3d b4 57 e3 bd 34 72 08 be
       0.118828386 0.07513472 -0.111007124 -0.13324815
000170 68 2c fb bd 64 97 dd 3d 64 78 08 be 82 46 a2 bd
       -0.12264329 0.10819891 -0.13327175 -0.079236045
000180 4b c0 12 3e 66 4c 1f 3e e5 ab 68 bd eb ab bc 3d
       0.14331166 0.15556487 -0.056804556 0.09212478
000190 28 5b e9 bd f5 3d c5 bd a9 b8 35 3d dc 72 be 3d
       -0.1139434 -0.09630958 0.04436556 0.092992514
0001a0 2f 4d e6 3d 81 46 08 3e 14 cb e0 3d 38 25 91 3d
       0.1124519 0.13308145 0.10976234 0.07087177
0001b0 a8 38 93 bd 12 d0 f0 bd b2 64 1a be ad fd b1 bc
       -0.07188541 -0.11758436 -0.15077475 -0.021727407
0001c0 95 b1 79 bd 32 ac ff 3d b5 e9 c1 3d a3 9a 3c 3d
       -0.06096037 0.124840155 0.09468404 0.04604591
0001d0 d6 cc 19 3e ca 32 65 3b 18 4c 5f bd 81 f7 fd bd
       0.15019545 0.00349729 -0.054515928 -0.12400723
0001e0 ce 0a a2 bd b7 46 f6 bd 2c 6f 7c 3d 98 2f 0b 3e
       -0.07912217 -0.120252065 0.06162946 0.13592374
0001f0 bd c9 04 bc a7 ef 44 bd 5f f4 05 3e 15 33 1b be
       -0.008104739 -0.048080113 0.13081501 -0.15156205

layers.6.running_mean f4 [128]
000000 1e 26 42 3e 67 76 18 be c3 07 99 bd 00 32 9c b9
       0.18959853 -0.14888917 -0.074721836 -0.00029791892
000010 a9 29 3c be 00 ae a1 3d 84 ed 98 3c 93 31 08 3e
       -0.18375267 0.07894516 0.018667944 0.13300161
000020 2e 49 46 be 5e 3a 3f 3e b3 e7 93 3d 20 4f 57 3e
       -0.19363853 0.18674609 0.072219275 0.21026278
000030 6a 4b 29 be 72 0f e3 bc 73 d3 31 3e ca ce 1c 3c
       -0.16532674 -0.027717326 0.17365818 0.009570787
000040 b4 62 4b 3e 09 f4 ee 3d 70 07 0e be 5b b0 04 3d
       0.19861871 0.1166764 -0.13870025 0.03239475
000050 53 d5 27 be 79 62 1d 3e eb 99 21 be 65 9f ed bd
       -0.1638997 0.15369596 -0.15781371 -0.11602668
000060 0b ac 3a be 3d 89 b9 3d b3 f6 84 3d 84 cb d4 bd
       -0.18229692 0.09059379 0.06492367 -0.1039038
000070 95 77 30 be df f0 1e be 65 c8 2b 3e 60 e8 15 3e
       -0.17233117 -0.15521573 0.16775663 0.14639425
000080 d9 08 6e 3e a6 3e 48 be 44 ec 44 3c e7 9b 8b bd
       0.23245563 -0.19555148 0.012019221 -0.068168454
000090 eb 7f 06 3d 4c 7e 8f bd 11 08 31 3e 37 2c 2e be
       0.032836836 -0.07006511 0.17288233 -0.17009054
0000a0 36 85 90 bb 33 de 8b 3d 0a 18 d5 3d 0e 9e c2 bd
       -0.004410411 0.068294905 0.10404976 -0.09502803
0000b0 a3 cc 9e 3d 3c 64 47 3e 58 7b 16 be bf ff 9e bc
       0.07753875 0.1947183 -0.1469549 -0.019409059
0000c0 88 27 18 be d3 8d 3d be ca 2a ee bd 0e 06 b5 bd
       -0.1485883 -0.18511133 -0.11629255 -0.088390455
0000d0 b0 ad c2 bd 24 3b a0 3d d7 3a 4f be 51 00 2a be
       -0.095057845 0.0782378 -0.2023729 -0.16601683
0000e0 e1 58 f4 3c c2 3b 55 3e 96 43 3a be dc d0 38 bd
       0.029827537 0.20823577 -0.18189844 -0.04512106
0000f0 b6 28 44 be 92 00 16 be dc a1 ca bd 7d 47 ed bd
       -0.19156155 -0.14648655 -0.098941535 -0.11585901
000100 42 b9 4f 3e f0 08 23 be da dd 6b 3e ef 3c fb bd
       0.20285514 -0.15921378 0.23033848 -0.122674815
000110 09 3d 32 3c 3c ed 27 3e a6 84 f7 bd 2f 30 5f bd
       0.01087881 0.16399091 -0.120858476 -0.05448931
000120 7f 13 81 be 44 85 00 bd 58 bb 7f bd ee d4 d4 3d
       -0.25210187 -0.031377092 -0.062434524 0.103921756
000130 bc 7b 22 be d5 f7 13 3e dc 0d 15 3e f7 45 ef 3d
       -0.15867513 0.14450009 0.14556068 0.116832666
000140 3c 7d 6f 3e 1d 05 c6 bd bc 1d 98 bd 55 2b 20 be
       0.23387617 -0.09668944 -0.074275464 -0.1564153
000150 b5 b6 98 bd f1 c1 40 be 07 0d 45 3e 18 5f 95 3d
       -0.074567236 -0.18823983 0.19243251 0.07293528
000160 f3 8e 09 3e d1 6b 2e 3e 22 30 28 be b8 1d 0f be
       0.13433437 0.17033316 -0.16424611 -0.1397618
000170 17 d6 05 be 88 58 bb 3d dc 76 b5 bd 87 2c bc bd
       -0.1306995 0.09147745 -0.08860561 -0.091881804
000180 e2 d6 53 3e 2d 09 3e 3e a8 dd 3e 3e 68 1c 23 3e
       0.2068744 0.18558188 0.18639243 0.15928805
000190 78 cb 9a 3c 0b e5 29 be 81 ff 00 3e 9c bc 10 3d
       0.01889585 -0.16591279 0.12597467 0.035336122
0001a0 6d 16 3d 3e 1c 21 26 3e 13 25 f5 3d d9 9e 59 3d
       0.18465586 0.16223568 0.11969962 0.053130005
0001b0 b8 92 b4 3d 86 4c 04 be f4 80 05 be 90 47 39 3e
       0.08817047 -0.12919816 -0.13037473 0.18093705
0001c0 ad dc ce bd 4f 28 4d 3e e6 1f 9e 3d 13 e8 a9 3d
       -0.10100684 0.20034908 0.07720928 0.08296218
0001d0 28 0d fb 3d 62 54 fa 3d da d6 f1 3d f2 ab 02 be
       0.12258369 0.12223126 0.11808558 -0.12760904
0001e0 78 04 e2 3d e0 04 10 be f4 80 2c 3e c5 90 32 3e
       0.110360086 -0.1406436 0.16846067 0.17438038
0001f0 ff bc 9c 3c a7 64 89 3d 15 66 5f 3d 5b c2 1c be
       0.01913309 0.06708651 0.054540712 -0.15308516
