ddpg/model_params/tpch_ddpg_139_110_actor.pth (torch, 181953 bytes, 20 tensors)

layers.0.weight f4 [128, 65]
0.0037426837 0.0035125804 0.045305345 0.06334695 2.4891247e-05 0.00053056504 1.318127e-05 0.0075582634
-0.005975918 -0.00030316782 -8.493953e-07 -1.197262e-05 -1.855729e-05 -0.00044877164 -0.00017699183 -0.00022040523
0.0019723333 0.0004169537 0.011054507 -4.165388e-08 -0.0004636861 -8.224158e-12 0.0012733764 -6.128839e-13
-8.282619e-09 1.2793698e-11 7.948765e-12 1.3158961e-11 -5.9477087e-13 4.794291e-12 1.508519e-11 -1.9835232e-11
2.202542e-11 -1.17840245e-05 6.647054e-11 -1.5361383e-15 3.964362e-12 0.0012335444 0.00079509063 -7.393814e-13
3.3529266e-11 1.3182123e-11 -6.228365e-11 0.0008996817 -0.012168322 9.919619e-12 7.1097607e-12 4.3449133e-11
-7.083803e-13 -8.816214e-12 8.3013596e-11 1.52814e-12 4.3258043e-11 2.9304302e-11 -1.7265203e-11 -7.014636e-14
-1.2712687e-12 -2.0607294e-11 0.00055953115 0.00016403677 5.8862637e-13 -1.7048851e-13 3.4142047e-12 1.0037889e-11
1.40922265e-11 0.0024122598 0.0018730789 0.018264774 0.09839101 1.464584e-05 -0.00024117393 0.00010675366
-0.031621803 0.013708064 0.00010260332 2.1474223e-06 6.236606e-06 1.1491517e-05 0.00012357453 0.00028214965
-7.159965e-07 0.008002911 -2.1912318e-05 -0.03618913 5.2769717e-08 -0.00029841714 -2.8642233e-15 -0.00011555047
-1.1055044e-12 -9.2456204e-10 2.4145564e-11 4.1193396e-11 1.4686955e-13 -1.2997101e-11 -1.2115195e-11 1.9327123e-11
5.122666e-11 2.4888938e-11 9.372536e-06 -9.2292236e-14 3.2948696e-11 -3.361328e-11 -0.00028403776 0.0002240404
1.7435949e-12 3.4964076e-12 5.00303e-12 2.5755186e-12 -0.00044712165 0.057764363 -7.845568e-12 -2.3162633e-11
1.2297869e-11 1.3856629e-11 8.856636e-12 7.396731e-12 3.379333e-12 4.5303748e-12 1.4790578e-11 2.5926833e-13
1.5689784e-13 2.60978e-12 5.3774793e-12 -0.00024066147 0.00011457101 9.802355e-12 9.368858e-11 3.1095786e-13
5.12923e-12 -3.129958e-11 -0.012253021 -0.011549317 -0.020459255 0.05725096 -9.720536e-05 -0.0036546856
-0.00092337164 -0.012074834 -0.0049740556 0.00031724176 -1.1547157e-05 -0.00018813637 5.450407e-05 0.00036303612
0.00054589426 0.0006264067 0.0052179545 -0.0045349696 -0.015057002 1.0467537e-07 -0.0036102007 -4.2796225e-11
-0.003996668 2.023251e-11 2.4788832e-08 4.806544e-11 2.4976955e-13 -2.7088155e-11 3.9173932e-13 -1.0764979e-11
-2.7265497e-12 1.1101303e-11 -2.3181769e-11 -5.254829e-05 2.0912725e-11 3.100753e-11 -1.7512637e-12 0.0009629945
0.0031870692 4.477662e-12 1.4665354e-11 3.7866384e-11 -5.3251584e-11 -0.0013411641 0.055881128 4.7636547e-12
-7.697136e-12 -3.2494736e-12 3.2764735e-12 2.1931775e-12 6.1992966e-11 -4.010933e-12 -1.2836561e-12 7.1413275e-13
1.1510809e-11 -5.4973764e-12 1.14019835e-11 4.130353e-12 -0.0041347174 -0.001322806 -3.3803917e-12 3.1116117e-12
-3.6763263e-14 1.5831405e-12 4.323977e-11 0.009091092 0.0035898197 0.029382367 0.014285739 6.276751e-05
0.004015453 0.00045055023 0.011969737 -0.006612644 -0.00066586875 3.7844293e-06 -2.6755219e-05 -2.6227131e-05
-0.0007523639 0.0001477185 -0.00045451953 -0.015688224 0.003503946 0.020176439 -2.732154e-08 -0.0010343329
-5.0733723e-13 0.0032842222 -6.8455805e-12 -1.9736e-09 2.318137e-11 -3.9719005e-12 -4.3990114e-11 -6.22288e-12
-2.0428654e-11 1.8122439e-12 2.4770607e-12 3.7340443e-13 8.9054065e-06 1.114096e-12 5.2642867e-14 -6.51536e-12
0.0031004653 0.0011252412 -3.0631715e-13 -5.692051e-12 1.833114e-12 2.4019293e-12 0.0018162393 -0.023861554
-2.3088107e-13 -5.91722e-11 -1.4558693e-12 1.4829249e-11 7.057883e-13 2.2510244e-11 5.269815e-12 5.8164814e-12
3.5911135e-11 8.0475114e-12 -6.9054346e-12 -8.324313e-12 -4.2853195e-12 0.0035529584 0.00079082075 -2.0509256e-13
00000000: d047 753b 5233 663b 1992 393d 0cbc 813d
00000010: 8ccd d037 9e15 0b3a 2025 5d37 4fab f73b
00000020: a2d1 c3bb 7ff2 9eb9 0002 64b5 03de 48b7
00000030: 7aab 9bb7 1c49 ebb9 e296 39b9 941c 67b9
00000040: 4342 013b 949a da39 f71d 353c ede6 32b3
00000050: e51a f3b9 51ae 10ad 6ce7 a63a f082 2cab
00000060: 584b 0eb2 b211 612d 0ed6 0b2d b17e 672d
00000070: c269 27ab 22af a82c d4b0 842d f978 aead
00000080: d6bc c12d 00b4 45b7 962b 922e 8061 dda6
00000090: cc7b 8b2c e2ae a13a a16d 503a 0b1e 50ab
000000a0: 9976 132e 01e7 672d 94f6 88ae 9ed8 6b3a
000000b0: a45d 47bc fe81 2e2d 0827 fa2c 6017 3f2e
000000c0: 2e64 47ab b318 1bad 808c b62e 0c11 d72b
000000d0: 3a40 3e2e b6e1 002e c8dd 97ad a0f4 9da9
000000e0: 48ea b2ab 8043 b5ad 80ad 123a 4901 2c39
000000f0: 00af 252b f8f3 3faa d840 702c a296 302d
00000100: bfe9 772d 0117 1e3b 1982 f53a 02a0 953c
00000110: 3a81 c93d 67b7 7537 a2e3 7cb9 efe0 df38
00000120: dd85 01bd ca97 603c bd2c d738 6f1c 1036
00000130: 0a44 d136 b1cb 4037 c993 0139 7ced 9339
00000140: e832 40b5 a41e 033c 58d0 b7b7 0e3b 14bd
00000150: eba4 6233 df74 9cb9 9863 4ea7 b053 f2b8
00000160: fe95 9bab 4524 7eb0 fa62 d42d a42b 352e
00000170: 445c 252a bda5 64ad fd21 55ad d000 aa2d
00000180: 174c 612e e8ec da2d bc3e 1d37 dad2 cfa9
00000190: efe8 102e 30d5 13ae e7ea 94b9 63ec 6a39
000001a0: a063 f52b ae09 762c 4a07 b02c 6b3c 352c
000001b0: a76b eab9 539a 6c3d 4c05 0aad 9dbd cbad
000001c0: ae58 582d b6c4 732d bece 1b2d ea1f 022d
000001d0: a7cc 6d2c fd65 9f2c 6c19 822d 81f4 912a
000001e0: b9a6 302a 9ea5 372c 0734 bd2c 125a 7cb9
000001f0: d845 f038 e271 2c2d fb05 ce2e c00d af2a
00000200: ff77 b42c 32a8 09ae e5c0 48bc 5939 3dbc
00000210: 2b9a a7bc fc7f 6a3d bbda cbb8 7383 6fbb
00000220: 6c0e 72ba 86d5 45bc 67fd a2bb 7853 a639
00000230: a9ba 41b7 7946 45b9 4d9b 6438 e255 be39
00000240: 581a 0f3a 7135 243a 60fb aa3b 159a 94bb
00000250: a5b1 76bc e5c9 e033 1e99 6cbb 4438 3cae
00000260: 7bf6 82bb 90f7 b12d 38ef d432 e064 532e
00000270: 969b 8c2a 1a45 eead 9687 dc2a 2861 3dad
00000280: 27dd 3fac d34b 432d b4e8 cbad 4c67 5cb8
00000290: 45f3 b72d 605f 082e ed77 f6ab 7871 7c3a
000002a0: 26de 503b 328b 9d2c 71ff 802d c289 262e
000002b0: f433 6aae 00ca afba 9ce3 643d 309b a72c
000002c0: d268 07ad 50a9 64ac b38f 662c c654 1a2c
000002d0: f052 882e 461f 8dac 96a8 b4ab b002 492b
000002e0: 1380 4a2d f76b c1ac f895 482d ea52 912c
000002f0: 867c 87bb 0162 adba b9df 6dac d0f5 5a2c
00000300: 2891 25a9 a6ce de2b a72b 3e2e cef2 143c
00000310: 2e43 6b3b 4ab3 f03c bb0e 6a3c 0da2 8338
00000320: 1094 833b d437 ec39 b71c 443c e1ae d8bb
00000330: b28d 2eba 00f8 7d36 6570 e0b7 5602 dcb7
00000340: 493a 45ba e2e4 1a39 944c eeb9 9784 80bc
00000350: 75a2 653b 0f49 a53c b4b0 eab2 7492 87ba
00000360: 80cd 0eab 1b3c 573b 82db f0ac f09f 07b1
00000370: cee7 cb2d b3bf 8bac 7778 41ae b8f2 daac
00000380: 3db1 b3ad f80c ff2b c24e 2e2c 4035 d22a
00000390: 6e68 1537 8acb 9c2b 1815 6d29 253d e5ac
000003a0: 2d31 4b3b d47c 933a f470 acaa 7045 c8ac
000003b0: 72fe 002c 5005 292c e10e ee3a 4e79 c3bc
000003c0: 78f9 81aa fd1e 82ae 38e5 ccab 8070 822d
000003d0: 68a9 462b 9000 c62d 466a b92c 35a6 cc2c
000003e0: 58f0 1d2e c592 0d2d a0f6 f2ac 5f71 12ad
000003f0: bac6 96ac c0d8 683b 154f 4f3a e8e9 66aa

layers.0.bias f4 [128]
-1.3849427e-10 -4.3148957e-11 -1.345354e-10 1.7669519e-11 1.3585685e-13 -6.791161e-09 -1.763822e-11 -1.767546e-08
-1.2568601e-12 -3.520141e-11 -2.9554365e-10 7.0593703e-10 1.5538477e-11 6.858806e-08 -1.3042464e-10 3.469146e-11
-7.237072e-11 3.283858e-11 1.593862e-10 -3.6343093e-09 1.105168e-11 2.5119521e-11 -2.157105e-10 -4.8619348e-11
-1.0551302e-07 4.3512e-08 -1.8769462e-08 1.10302996e-10 -1.3834812e-09 4.5253823e-10 -2.4023396e-12 -4.947107e-12
4.482151e-11 -1.6400338e-07 -1.668055e-10 -1.5324176e-07 7.800596e-09 -2.3008831e-11 1.8313927e-10 -3.5351272e-10
4.4867052e-10 -4.5297203e-11 9.5701516e-11 -4.893826e-11 5.775675e-11 3.0242744e-10 -6.3123985e-11 4.5337427e-09
1.961189e-10 1.4208707e-07 1.6510184e-11 1.73254e-08 -1.7838458e-11 -4.551363e-09 1.4003265e-10 -4.8011083e-12
9.265737e-11 -5.475996e-11 -4.68174e-11 4.9750807e-12 1.8779321e-08 -2.4061847e-10 1.990771e-10 -6.274883e-11
5.8565916e-11 -1.2686824e-11 2.1933587e-11 -6.9261784e-11 -5.4421008e-08 -1.1035668e-08 -1.1213056e-07 -7.330309e-10
4.2145967e-10 -7.989516e-13 9.4893315e-11 6.84524e-11 -3.9930108e-12 -7.9066744e-12 -8.315029e-10 -7.270913e-10
-2.1890167e-09 3.5591072e-13 2.7493438e-11 6.2670012e-12 -1.1321524e-10 5.3921114e-11 -1.3241516e-08 7.846199e-10
1.8616879e-11 -1.2442503e-09 -1.944167e-08 -2.0890376e-10 -5.4636284e-10 1.0829034e-08 -2.1547364e-10 3.14239e-08
9.896726e-12 1.0167477e-10 -7.923349e-12 1.2771982e-10 8.423448e-11 1.8341679e-11 6.021901e-10 1.1793687e-07
5.210977e-12 -4.206739e-13 -1.625566e-07 9.6775185e-11 1.2467561e-08 -4.3012194e-09 7.275151e-10 3.2216257e-11
-9.479516e-12 -8.4548926e-13 -6.566281e-08 -2.093762e-10 -1.5328656e-10 -1.4349065e-07 1.6482921e-11 2.8242337e-11
1.6095081e-12 -1.1692097e-07 -8.67336e-11 1.614804e-09 -2.0585839e-10 -1.6559062e-08 -3.553861e-10 4.554039e-11
00000000: ac46 18af 68c5 3dae 59ec 13af 386c 9b2d
00000010: 12f6 182a af57 e9b1 be25 9bad bfd4 97b2
00000020: 28e3 b0ab 44d1 1aae 127a a2af e70b 4230
00000030: 8aad 882d af4a 9333 4667 0faf 1d93 182e
00000040: 1825 9fae f46c 102e 3a3f 2f2f 72bf 79b1
00000050: 586c 422d 22f4 dc2d 1c2d 6daf 85d4 55ae
00000060: 6596 e2b3 f3e1 3a33 7c3a a1b2 118f f22e
00000070: eb24 beb0 18c9 f82f b40c 29ac 940f aeac
00000080: 8920 452e e818 30b4 9367 37af c68a 24b4
00000090: 6203 0632 4863 caad 1f5d 492f 7e58 c2af
000000a0: c3a8 f62f 1e38 47ae 2a73 d22e 953b 57ae
000000b0: 5204 7e2e e142 a62f a5cf 8aae 39c7 9b31
000000c0: 90a2 572f 9990 1834 a139 912d f5d2 9432
000000d0: a3e8 9cad 3662 9cb1 b0f7 192f 8aec a8ac
000000e0: 76c1 cb2e 3cd6 70ae b5e7 4dae 8b0b af2c
000000f0: 2a50 a132 0a48 84af 39e3 5a2f 73fc 89ae
00000100: aec9 802e 6030 5fad 0cee c02d eb4e 98ae
00000110: 88bc 69b3 6297 3db2 6dcc f0b3 777e 49b0
00000120: 2db3 e72f 88e2 60ab 30ac d02e 4787 962e
00000130: d87d 8cac 7f18 0bad d18f 64b0 80dc 47b0
00000140: 976d 16b1 245c c82a b8d5 f12d 2180 dc2c
00000150: 84f6 f8ae c725 6d2e ce7c 63b2 b8ac 5730
00000160: 7cc1 a32d 2a02 abb0 af00 a7b2 2eb1 65af
00000170: de2e 16b0 980a 3a32 70ea 6caf f2f6 0633
00000180: e41a 2e2d cf95 df2e 9763 0bad ef6d 0c2f
00000190: cc3b b92e ca55 a12d 5c87 2530 7b44 fd33
000001a0: 4f58 b72c 80d1 ecaa 388b 2eb4 96cf d42e
000001b0: ea30 5632 edc9 93b1 53fa 4730 48b0 0d2e
000001c0: f2c3 26ad ecfb 6dab 8302 8db3 2936 66af
000001d0: 558a 28af 6912 1ab4 3dfc 902d 176c f82d
000001e0: a484 e22b fc15 fbb3 adba beae ddef dd30
000001f0: fc57 62af c33d 8eb2 2660 c3af ec49 482e

layers.2.weight f4 [128]
0.694401 0.6475352 0.69131523 0.69984645 0.6996737 0.7200218 0.6964531 0.8241282
0.8206496 0.6912695 0.70749557 0.6966591 0.7029998 0.7122901 0.7191467 0.67903656
0.7054014 0.67042387 0.69385004 0.706968 0.704518 0.7989952 0.7024336 0.7099714
0.8506236 0.6956008 0.70807445 0.7740606 0.673876 0.6946884 0.71652114 0.7051982
0.70389545 0.6766751 0.7035765 0.77479666 0.7050204 0.6827393 0.70325285 0.69659287
0.6707767 0.6996891 0.65973014 0.69539523 0.6999869 0.7008629 0.7378079 0.71743596
0.70501065 0.71099997 0.7047066 0.69946057 0.66280603 0.8168089 0.69693273 0.70258266
0.7044176 0.6749452 0.6860872 0.72741634 0.83799446 0.7116137 0.7017002 0.6688123
0.70279026 0.6910558 0.7182885 0.7017301 0.7746641 0.70421714 0.70282596 0.78452593
0.71050316 0.69991153 0.69777495 0.70104 0.7174296 0.7010557 0.72517145 0.70199406
0.7133335 0.77398694 0.70589864 0.7063306 0.70108336 0.71364075 0.7017463 0.7015867
0.7030089 0.6912345 0.70437276 0.709059 0.70135486 0.69418025 0.7125 0.6738847
0.6967802 0.71744114 0.7499088 0.7037829 0.69360745 0.70390433 0.70738214 0.6994209
0.69979864 0.7212146 0.70035684 0.68669575 0.6499727 0.854985 0.70093924 0.69406104
0.88856345 0.6907825 0.70349675 0.7014717 0.70316875 0.7293327 0.70230937 0.70158243
0.704354 0.6985679 0.6980208 0.7809275 0.6972781 0.6974206 0.6979023 0.7136325
00000000: 44c4 313f dec4 253f 09fa 303f 2329 333f
00000010: d11d 333f 5953 383f c04a 323f 11fa 523f
00000020: 1816 523f 0af7 303f 6e1e 353f 4058 323f
00000030: cbf7 333f a558 363f 001a 383f 57d5 2d3f
00000040: 3095 343f e6a0 2b3f 28a0 313f dbfb 343f
00000050: 4b5b 343f f38a 4c3f b0d2 333f b0c0 353f
00000060: 78c2 593f e512 323f 5e44 353f d628 463f
00000070: 2383 2c3f 19d7 313f ee6d 373f df87 343f
00000080: 7e32 343f 943a 2d3f 971d 343f 1359 463f
00000090: 387c 343f 01c8 2e3f 6108 343f e953 323f
000000a0: 06b8 2b3f d31e 333f 13e4 283f 6c05 323f
000000b0: 5732 333f c06b 333f fbe0 3c3f e2a9 373f
000000c0: 947b 343f 1804 363f a767 343f d90f 333f
000000d0: a8ad 293f 631a 513f 2f6a 323f 75dc 333f
000000e0: b654 343f 35c9 2c3f 69a3 2f3f f537 3a3f
000000f0: ce86 563f 512c 363f a0a2 333f 4837 2b3f
00000100: 10ea 333f 08e9 303f c1e1 373f 95a4 333f
00000110: 6350 463f 9347 343f 67ec 333f b1d6 483f
00000120: 89e3 353f 672d 333f 61a1 323f 5c77 333f
00000130: 77a9 373f 6378 333f d6a4 393f e2b5 333f
00000140: 069d 363f 0224 463f c6b5 343f 15d2 343f
00000150: 337a 333f 29b1 363f a5a5 333f 309b 333f
00000160: 64f8 333f bff4 303f c651 343f e484 353f
00000170: fe8b 333f ccb5 313f 6666 363f b583 2c3f
00000180: 3060 323f 39aa 373f 06fa 3f3f 1e2b 343f
00000190: 4290 313f 1333 343f ff16 353f 400d 333f
000001a0: 0126 333f 85a1 383f 964a 333f 4bcb 2f3f
000001b0: 9c64 263f 4ce0 5a3f c170 333f fcad 313f
000001c0: e578 633f 1fd7 303f 5d18 343f a693 333f
000001d0: de02 343f 8cb5 3a3f 8cca 333f e89a 333f
000001e0: 8b50 343f 59d5 323f 7eb1 323f ddea 473f
000001f0: d180 323f 288a 323f baa9 323f 9fb0 363f

layers.2.bias f4 [128]
-0.013206135 -0.023832124 -0.0007996743 -0.045929212 0.023645543 0.048009947 -0.009313663 -0.073231265
-0.06970933 -0.056710467 0.017232073 0.028857311 0.039914683 -0.045223046 0.04834571 0.01770428
-0.011439495 0.033966746 -0.0034956331 0.02779964 0.022929205 -0.0746516 0.031518195 -0.044940844
-0.07699561 0.024561819 0.03490725 -0.09277011 -0.040896855 -0.043579474 0.05053067 -0.045629647
0.03328274 -0.01742483 0.028355893 -0.08257479 0.0342681 -0.03392232 -0.0130963 0.02923031
-0.033348396 -0.006076948 0.02811589 -0.031082751 -0.007456889 0.010100725 0.057722975 -0.05148156
0.015025063 -0.035556298 0.030095313 0.018512001 0.042843338 -0.08679551 -0.018331854 -0.0096619595
0.03192092 0.018575594 0.0016247693 -0.050508615 -0.074435964 -0.042877417 -0.007474082 -0.033625938
-0.050479297 -0.010069741 0.041679505 -0.031250857 0.09501504 0.04347919 -0.008027538 -0.072013676
-0.024147833 0.026623359 -0.0017203909 -0.008780203 0.042937364 -0.012749714 -0.07062136 -0.029748145
0.043987717 -0.09407027 0.016098531 0.013846209 -0.038204532 0.04762719 -0.014703774 -0.020800052
0.027871491 0.03676887 -0.027714472 -0.046332493 -0.010397092 -0.008614928 0.047434453 0.052228685
-0.03577606 -0.03864197 0.06695407 0.030206278 0.017361648 0.006743973 0.029882438 0.028810129
-0.015121851 -0.049287576 -0.030423682 0.06307573 -0.032298576 -0.071793586 -0.048616547 -0.0075643947
-0.081310764 -0.044873927 0.019584013 -0.028972998 -0.014222661 -0.069414504 -0.023254221 0.019399868
-0.03264487 -0.042437144 0.022953028 -0.070238985 -0.021915223 -0.01100139 0.04008482 0.037299883
00000000: 8b5e 58bc 963b c3bc 3ca1 51ba 4520 3cbd
00000010: 4cb4 c13c 14a6 443d 5598 18bc 46fa 95bd
00000020: c4c3 8ebd 3c49 68bd 472a 8d3c 2b66 ec3c
00000030: 947d 233d cd3b 39bd 2706 463d 9108 913c
00000040: b86c 3bbc b720 0b3d fe16 65bb 12bc e33c
00000050: 07d6 bb3c f0e2 98bd 3919 013d e413 38bd
00000060: e0af 9dbd de35 c93c e8fa 0e3d 41fe bdbd
00000070: 7683 27bd 6480 32bd 3ff9 4e3d 27e6 3abd
00000080: 7b53 083d 84be 8ebc 9e4a e83c f91c a9bd
00000090: b55c 0c3d 21f2 0abd dd91 56bc 6774 ef3c
000000a0: 5498 08bd 2221 c7bb 4c53 e63c 41a1 febc
000000b0: eb58 f4bb 837d 253c ed6e 6c3d 54de 52bd
000000c0: af2b 763c 7ba3 11bd 728a f63c 7ba6 973c
000000d0: 7f7c 2f3d d8c1 b1bd af2c 96bc 324d 1ebc
000000e0: 83bf 023d d82b 983c 36f6 d43a 1fe2 4ebd
000000f0: e271 98bd 3ba0 2fbd 25e9 f4bb 5abb 09bd
00000100: 61c3 4ebd 8efb 24bc 21b8 2a3d e600 00bd
00000110: 3f97 c23d 3c17 323d ef85 03bc e87b 93bd
00000120: add1 c5bc 3b19 da3c bd7e e1ba d7da 0fbc
00000130: 17df 2f3d 2de4 50bc eea1 90bd 62b2 f3bc
00000140: 772c 343d eaa7 c0bd 11e1 833c 36db 623c
00000150: 5b7c 1cbd ba14 433d 19e8 70bc df64 aabc
00000160: c152 e43c f49a 163d 7609 e3bc 24c7 3dbd
00000170: 9158 2abc a125 0dbc a14a 423d bfed 553d
00000180: eb89 12bd 0b47 1ebd 371f 893d 2873 f73c
00000190: 043a 8e3c 8cfc dc3b 04cc f43c 3803 ec3c
000001a0: a4c1 77bc c5e1 49bd 163b f9bc d92d 813d
000001b0: 834b 04bd 8408 93bd 2522 47bd bede f7bb
000001c0: 4286 a6bd b9cd 37bd a76e a03c c858 edbc
000001d0: 2a06 69bc 3129 8ebd a37f bebc 79ec 9e3c
000001e0: a1b6 05bd 92d2 2dbd fd07 bc3c 75d9 8fbd
000001f0: 8e87 b3bc 2d3f 34bc fb2f 243d c3c7 183d

layers.2.running_mean f4 [128]
7.018974e+11 4.655764e+11 -2.5975384e+10 3.453514e+11 -1.2440041e+11 6.7221514e+11 -1.03019856e+11 3.144733e+11
2.386688e+09 -4.288618e+10 -1.3452785e+11 -9.4962745e+10 -3.7047575e+10 -1.113143e+11 5.4647498e+11 -7.3781985e+10
7.7244806e+11 3.4144476e+11 1.7156437e+10 -1.0495686e+11 -1.21516564e+11 2.2767464e+11 -1.237117e+11 -1.24360204e+11
-1.6979328e+09 -4.551273e+10 -8.76328e+10 3.7668975e+11 -5.063784e+10 -8.076135e+10 -8.5706195e+10 -1.1288234e+11
-1.0910705e+11 -5.347494e+10 -8.85686e+10 3.7988935e+11 -7.442278e+10 -5.837793e+10 6.15873e+11 -3.6372607e+10
5.9300915e+09 7.9249926e+11 6.6352615e+10 -1.1277471e+11 7.6032554e+11 -1.3915716e+11 -7.394912e+10 -9.127854e+10
-1.4749277e+11 -1.4698878e+11 -1.3395229e+11 -1.3046621e+11 -1.1798761e+11 -1.33376475e+11 6.6274814e+11 7.483452e+11
6.665725e+11 -1.156622e+11 -1.530806e+11 -9.399505e+10 -1.1312123e+11 -1.3286115e+11 7.468402e+11 -6.5369563e+10
-1.0021008e+11 -1.0397476e+11 -8.057219e+10 5.0822922e+11 6.096957e+11 3.8805894e+11 8.884701e+11 2.5541222e+11
5.515623e+11 -1.2018733e+11 -1.031784e+11 6.9217767e+11 5.134074e+11 6.062806e+11 -1.5500054e+11 -1.2423593e+11
6.556753e+11 -1.3569195e+11 -1.41317e+11 -1.5563186e+11 -1.0258014e+11 6.029944e+11 7.024197e+11 5.3689654e+11
-6.393077e+10 6.438934e+11 3.8990515e+11 -1.1197139e+11 7.19853e+11 6.064922e+11 5.0617893e+11 5.166554e+11
-1.1382001e+11 -6.373158e+09 -6.0209627e+10 -1.06580664e+11 -1.2625913e+11 -1.7814631e+11 6.049553e+11 -5.776536e+10
5.497418e+11 -1.12114475e+11 4.8574435e+11 3.9020026e+11 -5.780766e+10 2.9158182e+11 2.5780717e+11 -6.496864e+09
2.0360975e+11 -6.7364254e+10 -1.2699582e+11 6.217108e+11 6.563604e+11 1.0852698e+11 5.832529e+11 -1.0232906e+11
3.4136264e+11 -9.9058205e+10 -1.2330895e+11 1.0683977e+10 4.2399993e+11 8.167315e+11 -6.642782e+10 -5.2750668e+10
00000000: 586c 2353 08cd d852 1d88 c1d0 18d1 a052
00000010: bdb6 e7d1 2583 1c53 b2e3 bfd1 2470 9252
00000020: f841 0e4f 73c3 1fd1 e193 fad1 c4e1 b0d1
00000030: 5203 0ad1 cb56 cfd1 e578 fe52 fe6d 89d1
00000040: 7ed9 3353 63ff 9e52 9da6 7f50 557f c3d1
00000050: 9d57 e2d1 dd09 5452 566e e6d1 91a3 e7d1
00000060: cc68 cace 528c 29d1 933a a3d1 eb68 af52
00000070: 02a4 3cd1 036e 96d1 e6a3 9fd1 7f42 d2d1
00000080: 4c3a cbd1 ad35 47d1 cdf8 a4d1 57e6 b052
00000090: 8c9f 8ad1 8879 59d1 e464 0f53 9f7f 07d1
000000a0: 02bb b04f a384 3853 c92e 7751 2c0f d2d1
000000b0: ef06 3153 a799 01d2 b0bd 89d1 0005 aad1
000000c0: 045d 09d2 dbe4 08d2 6e81 f9d1 2303 f3d1
000000d0: e0c4 dbd1 dc6e f8d1 de4e 1a53 da3c 2e53
000000e0: d132 1b53 0970 d7d1 4291 0ed2 5514 afd1
000000f0: 68b4 d2d1 2279 f7d1 25e3 2d53 4685 73d1
00000100: e4a7 bad1 07ab c1d1 d013 96d1 a5a9 ec52
00000110: b2f4 0d53 3bb4 b452 f2dc 4e53 05df 6d52
00000120: ad6b 0053 c9dd dfd1 4c2f c0d1 0129 2153
00000130: ee12 ef52 2429 0d53 025b 10d2 4f68 e7d1
00000140: 4ba9 1853 f7be fcd1 999c 03d2 87f1 10d2
00000150: 0612 bfd1 4465 0c53 7a8b 2353 0e03 fa52
00000160: 2229 6ed1 0aeb 1553 5190 b552 1f90 d0d1
00000170: 959a 2753 c135 0d53 3bb5 eb52 2096 f052
00000180: 9c01 d4d1 56ef bdcf 604c 60d1 9f85 c6d1
00000190: 0b2d ebd1 64e9 25d2 25da 0c53 5731 57d1
000001a0: 54fe ff52 59d4 d0d1 3d31 e252 7fb3 b552
000001b0: ae59 57d1 43c7 8752 051a 7052 249f c1cf
000001c0: 59a0 3d52 8ff3 7ad1 538c ecd1 dac0 1053
000001d0: 21d2 1853 b225 ca51 95cc 0753 4c9a bed1
000001e0: 99f5 9e52 a282 b8d1 4aae e5d1 2334 1f50
000001f0: bb70 c552 fe28 3e53 8176 77d1 f582 44d1

layers.2.running_var f4 [128]
5.546778e+22 1.60131e+22 7.0021805e+20 1.7550563e+22 3.0593287e+21 3.4783712e+22 2.2831558e+21 1.724225e+22
1.4477005e+21 2.5931424e+20 3.1762512e+21 1.9696513e+21 4.363104e+20 1.8911552e+21 2.7181034e+22 1.8699057e+21
6.3655674e+22 1.4481549e+22 3.2029156e+21 2.172923e+21 2.8431396e+21 1.1091925e+22 3.06033e+21 2.9081508e+21
2.0104415e+21 6.403831e+20 1.5186004e+21 2.3555283e+22 5.6442907e+20 1.3989509e+21 1.9095945e+21 2.0344655e+21
2.3242181e+21 9.2014374e+20 1.5912552e+21 2.5015249e+22 1.17127804e+21 1.00656746e+21 4.4365978e+22 5.044213e+20
1.191069e+21 6.8765287e+22 4.6979435e+21 1.6117316e+21 6.1374533e+22 3.409529e+21 1.5480725e+21 1.543054e+21
4.2494091e+21 3.8434994e+21 3.2506062e+21 3.407767e+21 2.4134768e+21 2.3113978e+21 4.9589072e+22 6.150064e+22
3.7073943e+22 2.399786e+21 4.060503e+21 1.5288142e+21 1.4694424e+21 3.0494566e+21 6.1281376e+22 8.595196e+20
1.6704069e+21 2.5967482e+21 1.5911008e+21 3.1322515e+22 1.9458665e+22 1.6885407e+22 8.200006e+22 1.3591068e+22
3.4689082e+22 2.9019127e+21 2.5686827e+21 5.42331e+22 2.4543654e+22 4.3246923e+22 3.0966284e+21 2.7301772e+21
3.4843206e+22 1.978237e+21 3.9067882e+21 4.604543e+21 1.835758e+21 2.658744e+22 5.5728303e+22 3.4884966e+22
9.595128e+20 3.848254e+22 2.4483443e+22 1.9361576e+21 5.780151e+22 4.1508502e+22 2.0246747e+22 1.7166668e+22
2.1575796e+21 1.4037184e+21 1.4533633e+21 2.1651099e+21 3.2691247e+21 6.020449e+21 3.6253614e+22 8.5316994e+20
3.7208868e+22 1.9731258e+21 2.9590827e+22 8.478104e+21 4.5750126e+20 1.502705e+22 1.1231327e+22 2.0925636e+21
8.6949016e+21 1.2468089e+21 2.8647684e+21 4.2405237e+22 4.8966517e+22 7.331798e+21 3.8164053e+22 2.1931323e+21
1.8510592e+22 1.650981e+21 2.8287512e+21 2.4663876e+21 2.4848712e+22 7.2273123e+22 1.3712743e+21 6.9523214e+20
00000000: a1ee 3b65 9a04 5964 e9d5 1762 bfda 6d64
00000010: b7d8 2563 1fb4 eb64 4e8a f762 12ad 6964
00000020: c3f5 9c62 54eb 6061 572f 2c63 ce8c d562
00000030: 2f38 bd61 1a0a cd62 942f b864 4fbc ca62
00000040: 7fac 5765 f742 4464 62a1 2d63 bb96 eb62
00000050: 7d20 1a63 d852 1664 9ce6 2563 b3a6 1d63
00000060: f6f8 d962 67dc 0a62 a1a5 a462 e79d 9f64
00000070: 37c8 f461 b0ac 9762 e509 cf62 c393 dc62
00000080: 03fe fb62 3d86 4762 3486 ac62 8a82 a964
00000090: fefa 7d62 b843 5a62 5a51 1665 04c2 da61
000000a0: ce22 8162 61fc 6865 10ad 7e63 8abe ae62
000000b0: ecf1 4f65 b8d4 3863 a5d7 a762 5a4c a762
000000c0: 665c 6663 455b 5063 3937 3063 44bc 3863
000000d0: b8d5 0263 2d9a fa62 aa03 2865 4d5f 5065
000000e0: 0a39 fb64 b917 0263 cd1e 5c63 1ec1 a562
000000f0: 3851 9f62 b64f 2563 1fa1 4f65 ec60 3a62
00000100: 1b1b b562 1fc5 0c63 eb81 ac62 e73f d464
00000110: 67db 8364 06d7 6464 dbe9 8a65 7d31 3864
00000120: f70f eb64 2150 1d63 a23f 0b63 b7bf 3765
00000130: 7450 a664 ba86 1265 5ade 2763 d200 1463
00000140: 541b ec64 1b7b d662 94c9 5363 df9c 7963
00000150: 8508 c762 db29 b464 99d0 3c65 c563 ec64
00000160: a90f 5062 4862 0265 01e8 a564 2beb d162
00000170: d1d6 4365 e3a2 0c65 8232 8964 d8a6 6864
00000180: ddec e962 0331 9862 ef92 9d62 dfbd ea62
00000190: 3838 3163 422f a363 ffa9 f564 7200 3962
000001a0: 1923 fc64 3eed d562 e783 c864 aacc e563
000001b0: d868 c661 8ea7 4b64 7e36 1864 4fe0 e262
000001c0: 00ad eb63 e62d 8762 a64c 1b63 aeac 0f65
000001d0: afe7 2565 92ba c663 0a4e 0165 a6c7 ed62
000001e0: 84dd 7a64 eeff b262 cf58 1963 01b4 0563
000001f0: a561 a864 f1de 7465 82ac 9462 23c1 1662

layers.3.weight f4 [128, 128]
-0.00866863 -0.0022038962 0.0074022836 -0.01436256 0.005639459 -0.020706493 0.017333556 -0.057418052
-0.047038924 -0.019482398 0.0014601371 0.004389715 0.015194011 0.01596338 -0.0136493165 0.016039604
-0.0109026125 -0.007968221 -0.021489408 0.009564601 0.0070783217 -0.05169261 0.0074718036 0.016229166
-0.055860247 0.00956009 0.00989679 -0.049709715 0.010088959 0.014033922 0.028607545 0.01145402
0.0071990923 0.009241375 0.0101428 -0.05632526 0.009660617 0.008649007 -0.013907466 0.0068145897
0.0054711173 -0.011831647 -0.0018112464 -0.012501159 -0.0076415003 -0.0018001522 0.025341997 0.012957156
0.0043362603 0.003491685 0.0025728338 0.0060168183 0.0064474903 -0.033687588 -0.008492533 -0.012259999
-0.015237439 0.0068432605 -0.004663337 0.014742069 -0.049925 0.012556587 -0.0135005275 0.0049060322
0.011081265 0.019123062 0.027327724 -0.011183338 0.028629951 -0.012896099 -0.009749401 -0.044030577
-0.007069497 0.0063121584 0.022358429 -0.010482304 -0.0095947655 -0.011906942 -0.011416565 0.016553996
-0.016027074 -0.03045618 0.009683365 0.00922852 0.013031715 -0.017798245 -0.010181415 -0.011868685
0.011448626 -0.010486352 -0.019518252 0.017670192 -0.012542297 -0.0045432434 -0.015481381 0.0114792455
0.015942777 -0.020271538 0.03327367 0.00803749 0.0046374183 0.011328167 -0.013950802 0.010446631
-0.01355969 0.013481453 -0.0106396945 0.022750277 0.0052744057 -0.053121205 -0.027653635 -0.017070359
-0.07125757 0.0161016 0.0014974865 -0.005091776 -0.01239629 -0.031010635 -0.009664169 0.009732852
-0.01341838 0.012295888 0.002183873 -0.040384658 -0.013605989 -0.009220788 0.0128234895 0.016832208
-0.03190025 0.01069649 0.015708346 -0.015478551 0.03094873 -0.055857282 0.027274558 -0.002404876
-0.013206256 -0.022510286 0.04179678 0.025513982 0.0129098855 0.056372754 -0.054750472 0.029241921
-0.028279172 -0.046247058 -0.026070448 0.025041776 0.029037058 0.005278179 0.030690987 0.059359647
-0.01041057 0.018490272 0.020109395 -0.01630849 0.053590372 0.054912027 0.02654925 0.05050864
0.027048703 0.027319906 0.024787635 -0.001550751 0.021378895 0.054012768 -0.026866734 0.014033652
0.033391424 -0.026671259 -0.036974728 0.0061883894 -0.025039485 0.045442183 0.024136798 0.058492202
0.03129994 0.05508524 0.028887395 0.031258732 0.004192927 0.035341676 -0.027409771 -0.026974624
-0.051761884 0.017745888 0.04136698 0.05956608 0.040229175 0.057609744 -0.027426088 0.04501428
0.05418638 0.030647123 0.027127707 -0.021414662 -0.0038853115 -0.060470425 -0.02906211 -0.002342142
-0.022272475 0.029702011 0.037038673 -0.027563583 -0.05878894 -0.025708906 0.02687679 0.051054586
-0.058617726 0.03795082 0.03071217 0.030514192 0.053905293 -0.05622073 -0.028485753 -0.024891814
0.023540726 -0.047525875 -0.01410355 0.049372517 -0.027041668 -0.043141652 -0.054046173 0.016153315
0.04727197 -0.023432076 0.026271386 0.02635246 0.035620827 0.030394254 -0.042632595 0.020399833
-0.024361752 0.055941384 -0.019792838 0.011264413 -0.020550678 -0.0047474313 -0.015576521 -0.03200417
-0.008318339 0.054940615 0.037718665 -0.024348995 -0.026348425 -0.018176872 -0.023779187 0.026870891
-0.016471619 0.050258715 0.023175163 0.000748473 -0.022193218 -0.031536315 0.02106075 0.024353895
00000000: df06 0ebc 3e6f 10bb db8e f23b f150 6bbc
00000010: 36cb b83b aaa0 a9bc 1aff 8d3c 312f 6bbd
00000020: e3ab 40bd 8d99 9fbc 1262 bf3a 99d7 8f3b
00000030: 4df0 783c a2c5 823c 62a1 5fbc 7d65 833c
00000040: dfa0 32bc 248d 02bc 8e0a b0bc d8b4 1c3c
00000050: 44f1 e73b a1bb 53bd 08d6 f43b 07f3 843c
00000060: b7cd 64bd eca1 1c3c 2526 223c 6a9c 4bbd
00000070: 294c 253c 89ee 653c 5f5a ea3c a4a9 3b3c
00000080: 5de6 eb3b 2369 173c fd2d 263c 51b5 66bd
00000090: 9147 1e3c 91b4 0d3c 24dc 63bc ec4c df3b
000000a0: 0f47 b33b 86d9 41bc 5867 edba a9d1 4cbc
000000b0: 8d65 fabb 16f3 ebba 059a cf3c 404a 543c
000000c0: 3017 8e3b c1d4 643b fd9c 283b bb28 c53b
000000d0: 7845 d33b fffb 09bd 4424 0bbc 2ade 48bc
000000e0: 74a6 79bc 6e3d e03b e8ce 98bb b888 713c
000000f0: 287e 4cbd 25ba 4d3c 5131 5dbc c8c2 a03b
00000100: 328e 353c f8a7 9c3c 64de df3c 523a 37bc
00000110: 5c89 ea3c 294a 53bc f4bb 1fbc 6859 34bd
00000120: 3da7 e7bb 39d6 ce3b 0629 b73c f8bd 2bbc
00000130: 5d33 1dbc 5615 43bc 8b0c 3bbc 3f9c 873c
00000140: 364b 83bc 3d7f f9bc faa6 1e3c 3833 173c
00000150: f982 553c a0cd 91bc f3cf 26bc df74 42bc
00000160: 0593 3b3c f3ce 2bbc bee4 9fbc 14c1 903c
00000170: 357e 4dbc 7ddf 94bb 9ea5 7dbc 7213 3c3c
00000180: 6d9a 823c 7f10 a6bc f949 083d adaf 033c
00000190: 7cf5 973b c799 393c e891 64bc 5928 2b3c
000001a0: 7629 5ebc 50e1 5c3c 1d52 2ebc ca5e ba3c
000001b0: ecd4 ac3b 9f95 59bd e089 e2bc 23d7 8bbc
000001c0: 7def 91bd 81e7 833c 4f47 c43a ead8 a6bb
000001d0: cf19 4bbc 040a febc 7656 1ebc 8a76 1f3c
000001e0: c4d8 5bbc b174 493c 4f1f 0f3b 626a 25bd
000001f0: a7eb 5ebc ca12 17bc 9d19 523c b3e3 893c
00000200: d6a9 02bd 5540 2f3c caae 803c c099 7dbc
00000210: 3188 fd3c 9bca 64bd e56e df3c 209b 1dbb
00000220: 0d5f 58bc 7e67 b8bc 1a33 2b3d b302 d13c
00000230: fc83 533c 1ee7 663d 0842 60bd c18c ef3c
00000240: b9a9 e7bc 8e6d 3dbd b191 d5bc 6924 cd3c
00000250: 20df ed3c 93f4 ac3b aa6b fb3c 1a23 733d
00000260: 1891 2abc e978 973c 75bc a43c 6299 85bc
00000270: 9481 5b3d 6feb 603d d07d d93c 26e2 4e3d
00000280: 3e95 dd3c ffcd df3c 700f cb3c 9242 cbba
00000290: cb22 af3c 7e3c 5d3d a017 dcbc 67ed 653c
000002a0: 72c5 083d af7d dabc d072 17bd f9c7 ca3b
000002b0: 9b1f cdbc 9521 3a3d 89ba c53c 8595 6f3d
000002c0: 5e34 003d 10a1 613d 42a5 ec3c 2809 003d
000002d0: d264 893b 6fc2 103d 758a e0bc e3f9 dcbc
000002e0: 4504 54bd d35f 913c 6c70 293d 90fb 733d
000002f0: 59c7 243d 32f8 6b3d adac e0bc e560 383d
00000300: 8af2 5d3d ad0f fb3c ed3a de3c cd6d afbc
00000310: b6a0 7ebb d6af 77bd aa13 eebc 9f7e 19bb
00000320: c474 b6bc a251 f33c ddb5 173d 06cd e1bc
00000330: accc 70bd 7c9b d2bc b72c dc3c 9d1e 513d
00000340: 2419 70bd 5272 1b3d 1798 fb3c e6f8 f93c
00000350: cccb 5c3d b547 66bd f45a e9bc ebe9 cbbc
00000360: 7bd8 c03c 7eaa 42bd 9412 67bc d63a 4a3d
00000370: 7d86 ddbc 4db5 30bd 855f 5dbd f553 843c
00000380: 41a0 413d a0f4 bfbc 1737 d73c 1de1 d73c
00000390: 25e7 113d 5ffd f83c 849f 2ebd 8d1d a73c
000003a0: 4c92 c7bc cb22 653d 9724 a2bc 5f8e 383c
000003b0: e559 a8bc 5790 9bbb aa34 7fbc ce16 03bd
000003c0: a449 08bc 6909 613d e37e 1a3d 8b77 c7bc
000003d0: a7d8 d7bc aae7 94bc 92cc c2bc 5820 dc3c
000003e0: 7def 86bc 15dc 4d3d d7d9 bd3c 2c35 443a
000003f0: 8dce b5bc 392c 01bd 9887 ac3c d281 c73c

layers.3.bias f4 [128]
0.07599572 -0.04698596 -0.0038706213 -0.060784236 -0.045966864 -0.02102973 0.05816432 0.022386955
-0.02413934 0.032845337 0.018406041 0.056562528 0.011801305 0.037492815 -0.05267734 0.019488554
0.048493925 0.051447496 -0.0034349763 -0.015459163 -0.027019698 0.0063880053 -0.06488749 -0.044025123
0.010960665 0.041242473 -0.017215302 0.011288371 -0.011286072 -0.023398347 0.0779067 0.025374172
0.040711205 -0.040570162 -0.023150172 0.015666172 0.03008373 -0.0083434265 0.0029685926 -0.011425818
0.034039333 0.020571373 0.009603338 -0.041779485 -0.036060095 0.023756102 -0.022853984 0.003959891
-0.018390017 0.009312354 -0.05130058 -0.035202555 0.005223565 -0.00081637665 -0.037258696 -0.030485012
-0.05411436 -0.01210046 -0.028030332 0.05361941 -0.082807355 -0.057978895 0.008177618 -0.005795291
0.10952078 -0.06439781 0.072127186 -0.0072543975 -0.026629923 -0.012239753 -0.026586266 -0.030604841
-0.04498677 0.07511664 -0.025762126 0.01058985 -0.011404438 0.07122883 0.061459757 0.036861297
0.08477166 0.015402849 -0.04030744 -0.014659678 -0.00017315848 -0.00766012 0.06974698 -0.024929386
0.008144213 -0.0069761863 -0.03461793 -0.069067515 0.008867955 -0.032094292 0.004981014 0.038371075
0.032493472 0.044966605 0.052168164 0.009581865 0.022739727 -0.024196768 0.00034312106 0.0026755189
0.06831364 0.029781718 0.029483737 0.03253108 0.025765112 0.006005697 -0.024694659 0.043887723
-0.009596172 0.08832275 0.039794285 -0.019030552 0.02441017 0.0053167627 0.02711695 -0.022383071
0.024957174 0.019936822 0.0428688 0.010886037 -0.054560557 -0.07181665 0.018847581 -0.06247743
00000000: a5a3 9b3d 5a74 40bd 40aa 7dbb e4f8 78bd
00000010: c047 3cbd 8a46 acbc b63d 6e3d d964 b73c
00000020: ddbf c5bc d588 063d 44c8 963c 1cae 673d
00000030: 435a 413c 1192 193d 32c4 57bd 76a6 9f3c
00000040: 91a1 463d 9cba 523d 571d 61bb 6e48 7dbc
00000050: 6a58 ddbc 7952 d13b bbe3 84bd b053 34bd
00000060: 5c94 333c deed 283d 1b07 8dbc dcf2 383c
00000070: 38e9 38bc e4ad bfbc 8c8d 9f3d 7fdd cf3c
00000080: cbc0 263d e62c 26bd 6ea5 bdbc 5856 803c
00000090: 2872 f63c deb2 08bc b88c 423b 5b33 3bbc
000000a0: d46c 0b3d 4c85 a83c 5257 1d3c f720 2bbd
000000b0: c0b3 13bd 289c c23c 4738 bbbc f9c1 813b
000000c0: a9a6 96bc d892 183c 8f20 52bd 8e30 10bd
000000d0: 702a ab3b 1c02 56ba 939c 18bd b4bb f9bc
000000e0: 05a7 5dbd 0241 46bc de9f e5bc 07a0 5b3d
000000f0: e796 a9bd 477b 6dbd 6afb 053c 6de6 bdbb
00000100: 6e4c e03d 00e3 83bd 6bb7 933d 4cb6 edbb
00000110: ff26 dabc 3f89 48bc 71cb d9bc 01b7 fabc
00000120: 0c44 38bd c1d6 993d 180b d3bc 0d81 2d3c
00000130: aed9 3abc 6ce0 913d 3abd 7b3d dffb 163d
00000140: c49c ad3d 3b5c 7c3c 6a19 25bd 252f 70bc
00000150: e091 35b9 be01 fbbb 81d7 8e3d b638 ccbc
00000160: 4e6f 053c 7e98 e4bb 88cb 0dbd 4573 8dbd
00000170: e64a 113c 4e75 03bd c637 a33b fd2a 1d3d
00000180: e017 053d e72e 383d 49ae 553d 41fd 1c3c
00000190: aa48 ba3c 4d38 c6bc eee4 b339 c257 2f3b
000001a0: 06e8 8b3d caf8 f33c e187 f13c 4f3f 053d
000001b0: 5b11 d33c 70cb c43b 744c cabc 9dc3 333d
000001c0: 4339 1dbc 8fe2 b43d 55ff 223d f6e5 9bbc
000001d0: d6f7 c73c 3d38 ae3b 5e24 de3c b45c b7bc
000001e0: fd72 cc3c 8c52 a33c 3297 2f3d 595b 323c
000001f0: e47a 5fbd 9c14 93bd 3e66 9a3c 55e8 7fbd

layers.6.weight f4 [128]
0.7328381 0.7703283 0.82004344 0.73811924 0.7800108 0.7087542 0.73257506 0.7486991
0.7102368 0.7017884 0.80733615 0.7561113 0.72299916 0.73928285 0.76534456 0.7816634
0.7391264 0.74966216 0.75872594 0.7470847 0.73442304 0.7264042 0.77682227 0.74369264
0.75517166 0.89068115 0.74978614 0.7330632 0.7347403 0.80411494 0.72613215 0.73893875
0.6759257 0.7207304 0.81332016 0.77739185 0.73318094 0.7871023 0.71495986 0.77191025
0.7897338 0.7255223 0.7629769 0.73510045 0.7147887 0.7367142 0.74756736 0.78626925
0.81680286 0.75865614 0.75162363 0.69857424 0.7215146 0.80525136 0.7117745 0.68368715
0.78292644 0.7429267 0.7333366 0.7421658 0.7188299 0.7639887 0.7751176 0.78448987
0.71846944 0.6816984 0.71790576 0.79690385 0.8046413 0.7783905 0.67560846 0.72881025
0.80554163 0.76135886 0.8026658 0.7510697 0.77245384 0.78710294 0.74695647 0.6908067
0.79114205 0.70364213 0.7273952 0.75134104 0.7314453 0.7889203 0.6883198 0.796631
0.6999831 0.7791031 0.72290945 0.7262062 0.78172135 0.7248991 0.74502707 0.6947258
0.7936415 0.7867528 0.7193514 0.7292542 0.83057994 0.73857063 0.7580487 0.8174405
0.69711524 0.74270356 0.71957844 0.7160291 0.7830362 0.750608 0.7481245 0.7153012
0.65503967 0.74186474 0.7897484 0.69125 0.81529206 0.71037763 0.78998095 0.77009755
0.6976269 0.7611329 0.6706284 0.7405563 0.79458874 0.7604216 0.74454474 0.70439637
00000000: 479b 3b3f 3c34 453f 5eee 513f 62f5 3c3f
00000010: caae 473f ea70 353f 0a8a 3b3f bfaa 3f3f
00000020: 14d2 353f 68a8 333f 95ad 4e3f 8390 413f
00000030: 7916 393f a441 3d3f 9fed 433f 181b 483f
00000040: 6337 3d3f dce9 3f3f dd3b 423f f140 3f3f
00000050: 2603 3c3f a0f5 393f d3dd 463f a462 3e3f
00000060: ee52 413f ae03 643f fcf1 3f3f 08aa 3b3f
00000070: f117 3c3f 7ada 4d3f cce3 393f 172b 3d3f
00000080: 7709 2d3f ca81 383f c035 503f 2703 473f
00000090: bfb1 3b3f 897f 493f 9c07 373f e99b 453f
000000a0: ff2b 4a3f d4bb 393f 7452 433f 8b2f 3c3f
000000b0: 64fc 363f 4d99 3c3f 9360 3f3f f148 493f
000000c0: fe19 513f 4a37 423f 686a 403f c3d5 323f
000000d0: 2eb5 383f f424 4e3f db36 363f 1f06 2f3f
000000e0: de6d 483f 7230 3e3f f3bb 3b3f 94fe 3d3f
000000f0: 3c05 383f c394 433f 1b6e 463f 54d4 483f
00000100: 9ded 373f c983 2e3f acc8 373f e401 4c3f
00000110: f9fc 4d3f 9a44 473f adf4 2c3f 4f93 3a3f
00000120: fa37 4e3f 6ae8 423f 827b 4d3f 1b46 403f
00000130: 89bf 453f 947f 493f 8a38 3f3f b5d8 303f
00000140: 4988 4a3f e421 343f 9236 3a3f e357 403f
00000150: 0040 3b3f aef6 493f ba35 303f 02f0 4b3f
00000160: 1832 333f 4d73 473f 9810 393f a6e8 393f
00000170: e41e 483f fd92 393f 18ba 3e3f 8dd9 313f
00000180: 172c 4b3f a268 493f 6a27 383f 67b0 3a3f
00000190: e3a0 543f f712 3d3f 7b0f 423f c843 513f
000001a0: 2576 323f d221 3e3f 4b36 383f af4d 373f
000001b0: 0f75 483f d927 403f 1685 3f3f fb1d 373f
000001c0: aeb0 273f d9ea 3d3f f32c 4a3f c3f5 303f
000001d0: fbb6 503f 4fdb 353f 313c 4a3f 1d25 453f
000001e0: ad97 323f 9bd9 423f 4eae 2b3f 1995 3d3f
000001f0: 2b6a 4b3f fdaa 423f 7c9a 3e3f 5253 343f

layers.6.bias f4 [128]
0.10935372 0.014569746 -0.13733794 0.08378138 -0.07059536 -0.024773296 0.04238362 0.11525861
-0.09577668 0.11207214 -0.0037942803 0.07368277 -0.12077315 -0.08600802 0.0718426 -0.07806547
0.12074846 0.12692463 -0.0973793 0.0016036256 -0.08840458 0.08634323 -0.14688474 0.010590915
-0.1007187 0.12900408 0.12629029 -0.068283536 0.02724375 -0.124144636 0.078737006 0.088503145
0.022447335 -0.04808983 -0.07333048 -0.027655115 0.060609758 -0.12469194 0.079031326 -0.09840855
0.08297945 0.066662736 0.08620521 -0.01130608 0.013409329 0.066472866 -0.01821763 0.08865151
-0.07157939 -0.116462916 -0.13553545 -0.031415474 -0.065351516 0.07797542 -0.0298086 -0.06684184
-0.055011246 0.065723404 -0.11015388 -0.0068042115 -0.1279456 -0.13755657 0.050241064 0.0059076985
0.12721638 -0.061227236 0.083476394 -0.065389484 0.100119516 0.09490769 -0.01489809 -0.13534348
-0.118817344 -0.016839152 -0.09737245 0.059789687 -0.08818255 0.14403515 0.1004216 0.06900158
0.11651216 0.0963493 -0.08891201 0.07537827 -0.1122828 -0.10502238 0.10919598 0.11777001
0.09720567 0.055150703 -0.09146204 -0.11328816 -0.10410326 0.0761007 -0.108203135 -0.05551545
0.11864799 0.1323869 -0.043547105 0.08079621 -0.111521065 -0.07701807 0.027344314 0.08828426
0.081208885 0.11370739 0.09303604 0.055939518 -0.07088878 -0.10036154 -0.12881657 -0.015830295
-0.043491974 0.09782339 0.07497821 0.038053144 0.1357612 0.0074772085 -0.044728953 -0.10518165
-0.06944832 -0.092559025 0.03932437 0.11359938 -0.0023200582 -0.046438232 0.11312249 -0.12829722
00000000: d8f4 df3d f2b5 6e3c 51a2 0cbe 9295 ab3d
00000010: 4d94 90bd 5ef1 cabc 729a 2d3d b50c ec3d
00000020: 9026 c4bd 1486 e53d 76a9 78bb fee6 963d
00000030: ea57 f7bd f924 b0bd 3722 933d cae0 9fbd
00000040: f84a f73d 88f8 013e cc6e c7bd bf30 d23a
00000050: 760d b5bd b8d4 b03d f468 16be 8485 2d3c
00000060: 9b45 cebd a519 043e 3e52 013e 3dd8 8bbd
00000070: 492e df3c 8b3f febd de40 a13d 2341 b53d
00000080: 79e3 b73c d7f9 44bd 4a2e 96bd fb8c e2bc
00000090: f041 783d 7d5e ffbd 2ddb a13d 6c8a c9bd
000000a0: 21f1 a93d 7986 883d 5b8c b03d 233d 39bc
000000b0: cdb2 5b3c ed22 883d 243d 95bc ec8e b53d
000000c0: 3798 92bd 1c84 eebd cec9 0abe 83ad 00bd
000000d0: 04d7 85bd 94b1 9f3d 2a31 f4bc 60e4 88bd
000000e0: 7953 61bd fe99 863d 5c98 e1bd ddf5 debb
000000f0: 2c04 03be a1db 0cbe 93c9 4d3d 5e95 c13b
00000100: 0345 023e 69c9 7abd acf5 aa3d ecea 85bd
00000110: 760b cd3d f75e c23d 1e17 74bc 7b97 0abe
00000120: 8256 f3bd 43f2 89bc 356b c7bd 08e6 743d
00000130: 0e99 b4bd f37d 133e d7a9 cd3d b350 8d3d
00000140: ed9d ee3d c852 c53d 8017 b6bd ec5f 9a3d
00000150: 86f4 e5bd f915 d7bd 24a2 df3d 6731 f13d
00000160: c413 c73d b4e5 613d 7350 bbbd 9f03 e8bd
00000170: 1734 d5bd afda 9b3d 9b99 ddbd 2b64 63bd
00000180: b8fd f23d 6e90 073e 735e 32bd 7c78 a53d
00000190: 2865 e4bd a6bb 9dbd 2f01 e03c 61ce b43d
000001a0: d850 a63d 6cdf e83d ae89 be3d d620 653d
000001b0: 232e 91bd 5a8a cdbd 7ee8 03be 89ae 81bc
000001c0: a424 32bd a157 c83d 2d8e 993d 9ddd 1b3d
000001d0: fc04 0b3e 5f03 f53b b535 37bd 7a69 d7bd
000001e0: ec3a 8ebd 968f bdbd 9712 213d cba6 e83d
000001f0: 1e0c 18bb 0436 3ebd c4ac e73d 5960 03be

layers.6.running_mean f4 [128]
0.1949509 0.15752217 0.1321114 0.021271113 -0.19663921 0.033392213 0.11935661 0.17691353
-0.13776591 0.17678165 -0.16103683 0.1949564 0.0813984 -0.09229594 0.1550596 -0.09594735
0.1799548 0.08568746 -0.12108081 -0.18963492 -0.17236692 -0.15622681 -0.19088233 0.05498624
-0.14641738 -0.16089727 0.07666317 -0.13200848 0.012973679 0.10234762 0.15170786 -0.20737283
-0.08278206 -0.16255248 0.12610671 0.10385047 0.06976596 0.13560484 0.0034491206 -0.20763594
0.13786453 0.098261096 0.14275233 0.018321345 0.07592906 0.21138558 -0.17947383 -0.17368113
-0.1327363 -0.19576985 0.14475536 -0.14417508 0.12225573 0.13712543 -0.14051856 -0.16894685
0.18056054 0.22378626 -0.1926829 -0.07453726 0.07411863 -0.142142 0.0038716923 -0.18799289
0.2642573 -0.15960298 0.18809974 -0.107289344 -0.14339408 0.18584177 -0.12351212 0.16100784
-0.21479592 -0.033593204 -0.14400579 0.13005157 -0.14449842 0.13736029 0.14932005 0.17134671
0.18799461 -0.098259114 0.17399299 0.07117172 -0.12247191 -0.20112973 0.09214961 -0.112293504
0.15518531 0.13823697 -0.23597458 0.12496812 -0.19496813 0.12104511 -0.06379261 0.0020773988
0.19491598 0.19402617 -0.08388117 -0.13984193 0.19341983 -0.22784606 0.10148633 -0.21098071
0.13669212 0.16431461 0.16419645 0.12748203 0.17947085 0.061614774 -0.118869714 -0.09751404
-0.04151173 0.2141697 0.10093132 0.11097364 -0.101268254 0.13430269 -0.09663153 0.12888299
0.14713188 -0.11183067 0.12746768 0.15919663 -0.10787329 -0.10879134 0.13043582 0.01144618
00000000: 35a1 473e 7e4d 213e 3648 073e c240 ae3c
00000010: ca5b 49be 46c6 083d 3d71 f43d d228 353e
00000020: 8212 0dbe 4006 353e d7e6 24be a7a2 473e
00000030: 34b4 a63d a705 bdbd f2c7 1e3e 0b80 c4bd
00000040: 1246 383e e87c af3d 37f9 f7bd a82f 42be
00000050: f480 30be ecf9 1fbe a876 43be 4039 613d
00000060: 70ee 15be 41c2 24be 9401 9d3d 3b2d 07be
00000070: 8e8f 543c a19b d13d 4e59 1b3e 8b59 54be
00000080: a489 a9bd 2874 26be 1e22 013e 8eaf d43d
00000090: 75e1 8e3d ffdb 0a3e a40a 623b 849e 54be
000000a0: 5c2c 0d3e 1d3d c93d ab2d 123e a516 963c
000000b0: b280 9b3d 7675 583e fdc7 37be 77d9 31be
000000c0: 06ec 07be e477 48be c03a 143e a2a2 13be
000000d0: 3661 fa3d 9c6a 0c3e 19e4 0fbe 6700 2dbe
000000e0: dde4 383e 3a28 653e ab4e 45be fea6 98bd
000000f0: 82cb 973d ac8d 11be 38bc 7d3b 3581 40be
00000100: bc4c 873e f76e 23be 389d 403e 84ba dbbd
00000110: e6d5 12be 4e4d 3e3e ecf3 fcbd 3ddf 243e
00000120: 76f3 5bbe 0799 09bd 4176 13be 3d2c 053e
00000130: 65f7 13be 2da8 0c3e 5be7 183e 8375 2f3e
00000140: a981 403e 133c c9bd 382b 323e 7bc2 913d
00000150: 8ed2 fabd f4f4 4dbe efb8 bc3d 23fa e5bd
00000160: e6e8 1e3e fe8d 0d3e 52a3 71be 49ef ff3d
00000170: baa5 47be 80e6 f73d b3a5 82bd f824 083b
00000180: 0e98 473e ccae 463e e4c9 abbd b932 0fbe
00000190: d90f 463e 7a50 69be 11d8 cf3d 540b 58be
000001a0: 05f9 0b3e 1742 283e 1d23 283e a68a 023e
000001b0: 35c7 373e c65f 7c3d f771 f3bd 71b5 c7bd
000001c0: 3408 2abd 4d4f 5b3e 14b5 ce3d 2646 e33d
000001d0: bb65 cfbd a586 093e c0e6 c5bd e7f9 033e
000001e0: bda9 163e 7a07 e5bd e386 023e 7104 233e
000001f0: acec dcbd fecd debd f890 053e c288 3b3c

layers.6.running_var f4 [128]
0.533223 0.7973836 0.81475496 0.21742395 0.8052893 0.35675347 0.59848577 0.6929228
0.44588935 0.65725493 0.78263265 0.6796366 0.80849206 0.5443458 0.8461028 0.74594164
0.44636887 0.50887585 0.7281801 0.80987173 0.586461 0.92480093 0.61594605 0.90841335
0.75817126 0.78241473 0.4428901 0.78128344 0.8073442 0.82123226 0.6543252 0.8170447
0.87211305 0.5529726 0.6686987 0.83845353 0.6617055 0.73512053 0.33855122 0.81839633
0.7320045 0.7144611 0.7757771 0.64783186 0.1885544 0.57509387 0.7396299 0.72815555
0.8645443 0.70029205 0.7560766 0.75519544 0.7688722 0.6920785 0.2815858 0.5882306
0.67085356 0.6127247 0.6747204 0.19658779 0.67200613 0.6145323 0.7358434 0.7371414
0.5666758 0.41401297 0.4670621 0.69557154 0.7735666 0.79614663 0.5320321 0.7976626
0.7191708 0.45417875 0.89935845 0.7770157 0.59422266 0.14711092 0.33501196 0.41361448
0.69436985 0.20450073 0.896333 0.73120415 0.55911195 0.87473893 0.25615764 0.8138919
0.550197 0.6671098 0.7765404 0.83870214 0.78497505 0.8470307 0.4016805 0.21120253
0.8113037 0.72272766 0.7259671 0.9098623 0.79439265 0.7511524 0.43085375 0.80924445
0.3396152 0.61222464 0.6041988 0.63259965 0.80273026 0.7055722 0.7055943 0.87366706
0.20109181 0.82359016 0.5049579 0.43375456 0.84065014 0.15601653 0.82461935 0.8573057
0.19724208 0.78927743 0.22658053 0.7217182 0.7280614 0.7732871 0.5205279 0.5106956
00000000: 4d81 083f 5521 4c3f c893 503f 62a4 5e3e
00000010: 7127 4e3f 64a8 b63e 5d36 193f 6363 313f
00000020: 9c4b e43e dc41 283f 9d5a 483f aafc 2d3f
00000030: 56f9 4e3f 3f5a 0b3f 319a 583f 08f6 3e3f
00000040: 768a e43e b045 023f 036a 3a3f c153 4f3f
00000050: 4f22 163f c1bf 6c3f a4ae 1d3f c78d 683f
00000060: 8317 423f 554c 483f 7ec2 e23e 3102 483f
00000070: 1cae 4e3f 473c 523f db81 273f d729 513f
00000080: cd42 5f3f 9d8f 0d3f d72f 2b3f e4a4 563f
00000090: 8865 293f dc30 3c3f 9656 ad3e 6c82 513f
000000a0: a664 3b3f ece6 363f 5499 463f 4fd8 253f
000000b0: 6814 413e 5a39 133f 6358 3d3f 6768 3a3f
000000c0: c652 5d3f 5746 333f 3c8e 413f 7d54 413f
000000d0: cfd4 443f 0e2c 313f 042c 903e 4896 163f
000000e0: 0fbd 2b3f 87db 1c3f 7aba 2c3f 4f4e 493e
000000f0: 9808 2c3f fd51 1d3f 3c60 3c3f 4cb5 3c3f
00000100: aa11 113f 82f9 d33e c322 ef3e fa10 323f
00000110: 7608 463f 44d0 4b3f 4133 083f 9e33 4c3f
00000120: 941b 383f 1e8a e83e 5b3c 663f 80ea 463f
00000130: fa1e 183f 3fa4 163e b086 ab3e 47c5 d33e
00000140: 39c2 313f a468 513e 1476 653f 3230 3b3f
00000150: f621 0f3f e4ee 5f3f 1827 833e 385b 503f
00000160: b6d9 0c3f b5c7 2a3f 5acb 463f 2fb5 563f
00000170: 20f4 483f 01d7 583f 11a9 cd3e 7a45 583e
00000180: 99b1 4f3f ae04 393f fbd8 393f bcec 683f
00000190: 515d 4b3f 864b 403f dd98 dc3e a52a 4f3f
000001a0: 0be2 ad3e c1ba 1c3f c6ac 1a3f 0df2 213f
000001b0: bb7f 4d3f 61a0 343f d4a1 343f a5a8 5f3f
000001c0: 03eb 4d3e ced6 523f ec44 013f 1415 de3e
000001d0: d934 573f ccc2 1f3e 411a 533f 6378 5b3f
000001e0: d4f9 493e 160e 4a3f ba04 683e 86c2 383f
000001f0: 3b62 3a3f 25f6 453f 5141 053f f2bc 023f
