ddpg/model_params/tpch_ddpg_139_105_critic.pth (torch, 446898 bytes, 17 tensors)

state_input.weight f4 [128, 65]
00000000: 7572 18ae 11b4 9a2e 6e27 51ae 826b 0a2e
00000010: 7fd5 2b2d b0ad 102d cd35 32ae 36b2 472d
00000020: a886 252f 540d d32c d297 012e 90a5 642e
00000030: 960b ed2d 0c84 532e 3a66 b6ab d8f9 4d2b
00000040: 1059 da2d 78b0 7ead cb8f 6c2e 6291 d82c
00000050: cbd1 362d 7d38 88ad 1e45 e9ae 8ae6 aead
00000060: 0ca9 f3ad d086 6baa 92de b8ae a7ea 6dad
00000070: dc0a e0ae b4c7 93ae 1fb8 332e 3de7 11af
00000080: f273 fd2d 8297 aaad 2a6b 672c e534 e62b
00000090: fff7 6d2d fa54 04af 688c 522e 5a06 83ad
000000a0: 3071 4fae 72b5 462c ecf9 0c2b 660f 47ab
000000b0: 1f4c abae 8051 972d 4db0 3f2d b565 5dae
000000c0: 2276 022d 2c06 00af 8c17 86ae dceb adae
000000d0: c925 29ac cbd8 b7ae 5095 2aad 8b69 052d
000000e0: b490 ceac 5d6d 572c 0d85 9c2e 59a1 9a2c
000000f0: c3b1 67ad 9196 c3ae 5abb 092d d520 112e
00000100: 105f 14a9 48da 86bc f5c7 81bc 09f9 86bc
00000110: edf8 86bc 38b0 06bc cf8b 86bc 58e3 7dbc
00000120: b3f7 86bc 4af2 86bc 24d5 06bc a2f0 9f3a
00000130: d570 353c ce5d babb 2e3e 55ae 927b 84bc
00000140: e808 5dbc 34f6 86bc 2575 86bc cca6 382c
00000150: aaa9 01b6 16af 86bc f91c af2e 9a7b 85bc
00000160: ae01 fd2d 7fa1 fa35 52a9 99ad be0f 182e
00000170: d7b3 86ad 8797 97ae b8b7 922c 30ea cf2c
00000180: 8ae7 0dae ce43 d0ad 2922 e8bb 1136 c02e
00000190: 484c 802e 1066 932b 02a6 82bc 4083 85bc
000001a0: 407f 1fac 4668 b02c 1e19 d92d 3219 412f
000001b0: 1256 56bc d4f8 86bc b03e 502f e64e 0fae
000001c0: 8d90 35ad d70b 40ad 21c6 90ae d2c9 27ae
000001d0: f97e 08af de6b 17ae 94f8 b0ad 4539 d82d
000001e0: 1feb 98ae 57f8 012e 3ad6 512d bc8b 86bc
000001f0: f1e6 7dbc cdb1 ccae 6afe 6a2d 9a43 7cae
00000200: 0325 f92d 2e1e 93ae d690 4f2c adef 1f2f
00000210: 02ea d62c e2d3 3bad ab60 6f2e 3877 2d2e
00000220: 80a9 b42d 4457 99ab f435 bead bc51 e22d
00000230: 67ea 9a2a f967 c1ad 0b50 b12e 5e13 dd2e
00000240: ce64 442e d47d 1dab 3b53 912e e2ea 86ae
00000250: e08a 9aab 6db7 3bac 8fa7 a42e 2da1 792e
00000260: db82 572e 6cd2 2f2e c8b0 2a2e 8298 98ac
00000270: a905 4d2e fcd1 1cae e009 0a2d 99da 352d
00000280: 76f4 83ac ccd1 612f 2038 1cab cc78 7cad
00000290: abea 6cac 3ef5 bc2c d005 902e ed3a 10ae
000002a0: ecf3 63ac 4019 3b2c 6024 75ae 4be2 82ad
000002b0: c08d 7fab d9bc d52c b8c9 18ae d6c1 ceac
000002c0: 8074 6bac bc6c 952e 30a6 942d 20c6 e8ad
000002d0: 5ae2 3fae 12a5 29ac 3ee4 f6ad 3f0c a0ac
000002e0: ab25 8a2c 00ff da2a 1576 242d 2277 abac
000002f0: 60f3 5d2c 2d24 30ae 7860 832c 480b 99ae
00000300: 52f5 b6ac 63a7 41ae 08a4 4cae 8870 803c
00000310: 8a70 80bc 8a70 803c 8a70 80bc 2c53 80bc
00000320: 8670 803c 356a 80bc 8a70 80bc 8070 80bc
00000330: d36c 80bc ce29 7bbc 8f6f 80bc 806a 803c
00000340: a76f 80bc 7a70 803c c96f 803c 8a70 803c
00000350: 8570 803c 8c70 80bc 44c9 a6ac 8070 80bc
00000360: 643f 6eae 6c70 80bc 0205 752d 187b d53a
00000370: 1b63 f6ac e01f 1bac f0f1 f02d c7a9 faae
00000380: 2ceb f62d 3c0f ff2b 10b1 2e2c 44ae ea2c
00000390: 002e f239 d222 41ab 4bcc e92d 105b d0ad
000003a0: 7d70 803c 8570 803c c272 15af e232 dbac
000003b0: 32e4 6f2e 2fdc b9ad 6970 803c 8b70 803c
000003c0: 7268 cdad 67a6 4a2d 66cd e12d 507d a9aa
000003d0: eaf6 892c 0a28 602d 67c0 9d2d 5f60 77ae
000003e0: 21c6 642e 9281 052e 7e07 52ad e223 16ae
000003f0: 788c fead 8770 803c 676a 80bc 7f9d 98ae
-3.4662457e-11 7.0350954e-11 -4.755612e-11 3.1473053e-11 9.76763e-12 8.224019e-12 -4.05203e-11 1.1351411e-11
1.5054502e-10 5.9984604e-12 2.9466048e-11 5.1988247e-11 2.6948926e-11 4.8093127e-11 -1.2960251e-12 7.317736e-13
2.4823282e-11 -1.4477412e-11 5.37879e-11 6.15523e-12 1.0392086e-11 -1.5486496e-11 -1.0607891e-10 -1.988389e-11
-2.7700973e-11 -2.0918965e-13 -8.406888e-11 -1.35239936e-11 -1.018827e-10 -6.7202605e-11 4.086342e-11 -1.3269826e-10
2.881426e-11 -1.9394045e-11 3.2886562e-12 1.6357164e-12 1.35269565e-11 -1.203552e-10 4.7873178e-11 -1.4895796e-11
-4.716688e-11 2.8238215e-12 5.008483e-13 -7.072037e-13 -7.7897015e-11 1.7202906e-11 1.089624e-11 -5.0339916e-11
7.415875e-12 -1.1643725e-10 -6.097797e-11 -7.909026e-11 -2.403732e-12 -8.360387e-11 -9.696535e-12 7.58361e-12
-5.8709374e-12 3.0614046e-12 7.117693e-11 4.3948564e-12 -1.3170301e-11 -8.894319e-11 7.829149e-12 3.2998344e-11
-3.2945055e-14 -0.016461506 -0.015842417 -0.016476171 -0.016476119 -0.008220725 -0.016424088 -0.0154960975
-0.016475534 -0.016472954 -0.008229528 0.0012202451 0.0110742645 -0.005687452 -4.848582e-11 -0.016172204
-0.013490893 -0.01647482 -0.01641328 2.6240564e-12 -1.9321255e-06 -0.01644091 7.963225e-11 -0.01629429
2.8763516e-11 1.8673453e-06 -1.746928e-11 3.457478e-11 -1.5313901e-11 -6.893602e-11 4.1699665e-12 5.909294e-12
-3.2265336e-11 -2.3676974e-11 -0.0070841503 8.740753e-11 5.8343164e-11 1.0473306e-12 -0.0159483 -0.016297936
-2.2665897e-12 5.0137975e-12 2.4681198e-11 1.7562199e-10 -0.013082044 -0.016476072 1.8939761e-10 -3.258451e-11
-1.03207555e-11 -1.0916565e-11 -6.5835566e-11 -3.8150656e-11 -1.2414238e-10 -3.442923e-11 -2.0119274e-11 2.458179e-11
-6.9539256e-11 2.9551774e-11 1.1927842e-11 -0.016424052 -0.015496955 -9.30843e-11 1.3357851e-11 -5.735821e-11
2.8324459e-11 -6.690147e-11 2.949687e-12 1.4546116e-10 6.108226e-12 -1.0676767e-11 5.4428167e-11 3.9441533e-11
2.0538904e-11 -1.0895525e-12 -2.162446e-11 2.5729523e-11 2.7518545e-13 -2.1987733e-11 8.0632466e-11 1.0053357e-10
4.4654773e-11 -5.5952226e-13 6.608621e-11 -6.135338e-11 -1.0980904e-12 -2.667612e-12 7.487621e-11 5.6759198e-11
4.9001563e-11 3.9977285e-11 3.8810538e-11 -4.3370316e-12 4.661663e-11 -3.5656797e-11 7.8465845e-12 1.0337197e-11
-3.7503846e-12 2.0538166e-10 -5.550022e-13 -1.4351364e-11 -3.3667884e-12 5.3705087e-12 6.5493944e-11 -3.2794146e-11
-3.2394044e-12 2.6588315e-12 -5.5738858e-11 -1.4879783e-11 -9.0790916e-13 6.0747904e-12 -3.473996e-11 -5.8763923e-12
-3.346018e-12 6.7950506e-11 1.6899454e-11 -2.6463332e-11 -4.3629413e-11 -2.4107977e-12 -2.8068322e-11 -4.548833e-12
3.926378e-12 3.890152e-13 9.34854e-12 -4.8733387e-12 3.154109e-12 -4.0049897e-11 3.733954e-12 -6.9596384e-11
-5.199987e-12 -4.403179e-11 -4.652992e-11 0.01567866 -0.015678663 0.015678663 -0.015678663 -0.01566466
0.015678655 -0.015675643 -0.015678663 -0.015678644 -0.015676891 -0.015329791 -0.015678195 0.015675783
-0.01567824 0.015678633 0.015678303 0.015678663 0.015678653 -0.015678667 -4.7403487e-12 -0.015678644
-5.4171237e-11 -0.015678607 1.392775e-11 0.0016287295 -7.0027434e-12 -2.204452e-12 2.7392283e-11 -1.1398842e-10
2.80714e-11 1.8123068e-12 2.4825177e-12 6.6700274e-12 0.0004619211 -6.8615697e-13 2.6579757e-11 -2.3687302e-11
0.015678639 0.015678653 -1.3592241e-10 -6.2300035e-12 5.4544987e-11 -2.1129846e-11 0.015678601 0.015678665
-2.3352185e-11 1.1519319e-11 2.5670754e-11 -3.0107384e-13 3.921187e-12 1.2741816e-11 1.7934277e-11 -5.6246893e-11
5.2017172e-11 3.035578e-11 -1.19387816e-11 -3.413792e-11 -2.8938837e-11 0.015678657 -0.015675737 -6.940137e-11

state_input.bias f4 [128]
00000000: eced 952e fba8 71af 8c72 982f 5484 ed36
00000010: 047f 513a 307d adb9 0139 9d34 5274 4bb1
00000020: 695a bd33 a96b 0d39 4aaa bfb8 3172 3eb1
00000030: 70ad 2db7 f1dd 1f37 83ca 13b3 4c15 9439
00000040: 265f 54b5 5f25 8d34 61c1 1cbb be8e c0ae
00000050: b26f b6b7 8a96 cf35 8a3e 36b5 259d adb9
00000060: dc4d 8cb5 361b 153c 30e6 f235 2d1e adae
00000070: 142b e632 a3a7 7eb2 3857 123a e761 612f
00000080: a889 2533 8125 09b3 e2f8 4d34 d39e 04bb
00000090: 2bdd f332 506c 8e36 c8d0 89b2 2822 ddb5
000000a0: 0828 f837 416d d436 5e1d 9d35 7282 0eb3
000000b0: 83f7 11b3 5bb2 1bb1 fd35 3fb7 b7aa 4c39
000000c0: 745d 373b 763c b6bb f2b5 85b5 2c22 b335
000000d0: 0435 f0b9 fbb6 4433 bf43 c331 0304 2db2
000000e0: a02d 8239 fb76 d432 d414 3431 fd42 d938
000000f0: 313c 9eb9 d44b cfb8 8279 0db8 183b 22b5
00000100: 2169 19b1 0d42 3c36 0759 f7b4 800a fab2
00000110: d22b 8e39 7631 50bb 521c 8234 6034 30b6
00000120: df51 ab39 cce4 a6b9 1252 8438 d03f d1af
00000130: 2747 8b39 c4f7 3e31 a0f4 c534 263a 1cba
00000140: d980 2331 c236 b435 aa0a 3ab1 e013 dbba
00000150: 0426 00b5 6ce0 91b4 d3c3 822f a2b3 2ebc
00000160: de13 3d38 8e06 0238 96e9 00b9 8ab5 4136
00000170: b3d6 c9af f092 21b3 cf6a 8c36 1b18 03ad
00000180: 783a c2b0 9aff 8031 859d d131 aa29 f52e
00000190: fc5f f136 c065 daae a0df f832 e4cd 1538
000001a0: e67f 2234 802a 5db8 18b0 42b6 204c 9eb2
000001b0: e7d7 0fb7 1802 1a2d 0087 0536 7466 c4b5
000001c0: 5eba d4ba 7961 90bb 88b4 1734 08ee 31b6
000001d0: 1a79 8fb2 a905 952f 6ec7 0cb0 48b4 05b1
000001e0: 6600 64b1 8414 1ab2 79ba e4b0 850d db32
000001f0: 8495 2634 b841 30bc 4215 24b8 6084 9b34
6.817999e-11 -2.1978856e-10 2.773003e-10 7.0785554e-06 0.0007991644 -0.00033090403 2.9285005e-07 -2.9606508e-09
8.817444e-08 0.00013486914 -9.1393085e-05 -2.771355e-09 -1.0351985e-05 9.528813e-06 -3.4410288e-08 0.00028244627
-7.9114614e-07 2.6290488e-07 -0.0023918974 -8.756505e-11 -2.1748103e-05 1.5466514e-06 -6.789129e-07 -0.00033114213
-1.0453473e-06 0.009100726 1.8097398e-06 -7.8724895e-11 2.6795114e-08 -1.4822862e-08 0.00055824546 2.0498413e-10
3.8542254e-08 -3.1931908e-08 1.9182656e-07 -0.0020236268 2.8389499e-08 4.244539e-06 -1.6043842e-08 -1.6475724e-06
2.9582545e-05 6.330811e-06 1.1705959e-06 -3.318059e-08 -3.3985554e-08 -2.2656852e-09 -1.1397057e-05 0.00019518552
0.0027979286 -0.0055614067 -9.962225e-07 1.3346485e-06 -0.00045815867 4.5801226e-08 5.682949e-09 -1.00708375e-08
0.00024829526 2.4734154e-08 2.6205287e-09 0.00010359844 -0.00030180954 -9.884653e-05 -3.3730183e-05 -6.0435696e-07
-2.232419e-09 2.805263e-06 -4.607211e-07 -2.9108605e-08 0.00027117 -0.0031767762 2.4234993e-07 -2.625653e-06
0.0003267666 -0.00031832454 6.309537e-05 -3.806222e-10 0.0002656516 2.7789477e-09 3.6872098e-07 -0.00059595925
2.3792863e-09 1.3426982e-06 -2.7072624e-09 -0.0016714297 -4.7739036e-07 -2.7171643e-07 2.3786004e-10 -0.010662945
4.5079614e-05 3.100052e-05 -0.00012294049 2.886491e-06 -3.671424e-10 -3.7619373e-08 4.1847593e-06 -7.45184e-12
-1.4131976e-09 3.754349e-09 6.1006085e-09 1.1148711e-10 7.1935337e-06 -9.931567e-11 2.8972693e-08 3.571612e-05
1.5133955e-07 -5.2730087e-05 -2.9010753e-06 -1.8428238e-08 -8.573733e-06 8.754351e-12 1.9897125e-06 -1.4632956e-06
-0.0016229858 -0.004406151 1.4128648e-07 -2.6513608e-06 -1.6702462e-08 2.7106964e-10 -5.121511e-10 -1.9456525e-09
-3.3178593e-09 -8.9686445e-09 -1.6642182e-09 2.5501103e-08 1.5514348e-07 -0.010757856 -3.9120445e-05 2.8967315e-07

action_input.weight f4 [128, 139]
00000000: cd1a e03b dc4a 3e3b 86bd 43bc 8b0a 29bc
00000010: 4c51 7fbb 2aaa 803b fbb5 b6bb 2098 a13a
00000020: 35fc a3bc 8bc4 d53c 8a58 f4ba e490 69bc
00000030: 256e fabc 00d9 bcbc c798 80bc 77a5 cb39
00000040: cf55 c43b 5aaf fa3b b2d4 a3bb 2b18 9bba
00000050: 3e27 b1bc 76eb 043b 3520 06bc e2f9 713b
00000060: d769 f3bb cb64 55bc 4e3f 3cbc 9c8c b6ba
00000070: d77a 46bc 9ca4 26bc c35b d73b 57b7 3abc
00000080: e836 58bc 6233 2cbc e8fe 67bc 3bec 52bc
00000090: f318 31bd cf10 2fbc aa70 d4bb baa7 7ebb
000000a0: 36bc 23bc 33ee 62bb 0191 a2bc 1a78 3b3b
000000b0: 8401 5e3b 900c feba 169e a0bb 41cb 85ba
000000c0: 5793 97bb 769d bfbb 07bf 84bb 75d0 48bc
000000d0: ff2c ecbb 9498 53bc d0ec 31bc 92db 2f3b
000000e0: 6107 493b ca29 4abc 984e 42bc 828d 133b
000000f0: e921 acbc 47bd a739 7e68 8bbb e2d1 53bc
00000100: 51d1 35bc a3d3 dbbc a9f4 60bb 1288 47bc
00000110: bb91 2b3b 315f 25bb 1adc fabb 9fbd debb
00000120: 3283 f73b cff5 d8bc 5c97 bcbb 56f8 a8bc
00000130: 0a61 6e3c 35f6 1fbc 3fec 1ebb e3eb 6f3b
00000140: 33e4 b8bc c8f4 77b9 48e1 4fbc c9dc fd3c
00000150: 41cf 86bc c712 d3bb 293c 7bbc e0b1 bfbc
00000160: 82b0 6bbb 8803 cfbb 215a 033b c8b8 4cbb
00000170: 73df d9bb c286 63bc 6025 0db8 44c7 273c
00000180: a5f9 27bc 5ee4 8cbc 74dd 0ebb fd24 02ba
00000190: 49fb 31bc 7762 39bb 7d91 f9bb fe3b a2bc
000001a0: 0608 1fbc 7b04 b8bc b80a 81bc 6270 47bc
000001b0: 3b56 59bc ecc4 52bc c911 993c f83a 2bbc
000001c0: 005e 603c 4ef9 853c 007c ad39 9e52 08bc
000001d0: d00f 27bc 0f71 503c 1f35 613b b249 e0ba
000001e0: 4217 06bc 4d11 3abb 31ba c13b c202 fa37
000001f0: c2eb 8a3c e135 e7bb 2ab6 7cbc 3232 52bb
00000200: 603e c33a 7e5a bfba 3894 d7bc ef08 28bc
00000210: 08ef 013c d0a5 3cbb 28d1 45bc d1ed 1fbc
00000220: 1fea afbb 6e93 edbc b2cc 1fbc ae14 a03c
00000230: ec41 293a 6d4a 133c e052 023c fafb 783c
00000240: fef9 b8bb 52c8 903b 4fbe 4a3c b755 c13c
00000250: d77b 98bb 96a9 2c3c d188 7d3c c671 1d3c
00000260: e299 903b ece6 b73b fd45 c8bb 05bb 33bb
00000270: f749 e9bc a49f d2bb f3a2 643b 592f 533b
00000280: 48f7 ad3c 1a49 5dbb 068c 14bc 9c15 bfba
00000290: 02e7 9d3c faba 163b b650 38bb fd0c 29bb
000002a0: 1714 14bc 27b3 b339 ecb1 aa3c 2deb 833c
000002b0: 678a 09bc af94 223d fe48 433c 268f 89bc
000002c0: 76f0 bcbc f5da d8bb 87fd 51bc 7a8d 2a3c
000002d0: 00ce 273c cf3c bb3b 5ce0 023c b9bc 903c
000002e0: b66e f339 c34c 9e3b 1908 613c af28 553c
000002f0: 4935 65bc 28b0 26bc 891e b43c 9e88 973b
00000300: c1a3 503b 7e04 37bb 394f c1bb ef3d 213a
00000310: 65e5 66bb d6cb bcbc aad7 fd3c 62ae 313b
00000320: d847 27bc b960 d73c 5435 8e3c 9567 f7bb
00000330: 475e e03b 61e7 c3bb 707d d3bb 61b5 20bb
00000340: ba0b 383c 93d0 80bc efdc f5bb 29a0 983a
00000350: 6a54 513c 1e4b 083b b9a9 4e3b 48aa b6bc
00000360: fefc a73c 2ad0 59bc 3e30 2d3c 997c b23b
00000370: 2613 573c abe4 06bc e97b 813c c46d 933c
00000380: d059 2bbc eed7 743b 818a 8d3c 4995 393c
00000390: 70f5 1e39 2243 603c ad66 a63c 713d 063d
000003a0: 2e7f 393c cfba 213a 33a5 a8bc 2111 b1bb
000003b0: f953 e83b 74b0 b23c 3afa a33c 791a dc3c
000003c0: 3e9e 90bc c5a5 a2ba c355 003c d829 69bc
000003d0: f878 84bc 53e2 b63c df69 bb3c fd0d 1c3c
000003e0: 902f f73b 7951 8d3b 0e3e a73c 8fd9 ad3c
000003f0: 5bc9 2abc 1c55 85bb d233 88bb abb4 79bb
0.0068391324 0.002903632 -0.011947041 -0.010317455 -0.0038958369 0.003926535 -0.005575893 0.0012328662
-0.020017723 0.026094696 -0.0018642109 -0.014255736 -0.0305701 -0.023052692 -0.01569785 0.00038842458
0.0059916745 0.007650298 -0.0049997205 -0.0011832764 -0.021625157 0.0020281947 -0.00818639 0.0036922623
-0.0074283886 -0.013024519 -0.011489702 -0.0013927403 -0.012114248 -0.010171082 0.006572218 -0.011396251
-0.013196684 -0.0105102975 -0.0141598955 -0.012873705 -0.043236684 -0.01068516 -0.006483157 -0.0038857297
-0.009993603 -0.003462684 -0.019844534 0.0028605522 0.0033875415 -0.0019382406 -0.004901658 -0.0010207669
-0.0046257186 -0.005847628 -0.0040510925 -0.012256731 -0.0072075124 -0.012914795 -0.010859683 0.0026833755
0.0030674564 -0.012339065 -0.0118595585 0.0022514765 -0.021012263 0.00031993745 -0.0042544 -0.012928458
-0.011097268 -0.026834315 -0.0034325516 -0.012178438 0.0026179391 -0.002523374 -0.0076556327 -0.006797507
0.0075534815 -0.026484398 -0.005755348 -0.020626228 0.014549503 -0.00976329 -0.00242497 0.0036609105
-0.022569751 -0.00023646944 -0.012687989 0.030989068 -0.016456248 -0.0064414474 -0.0153341675 -0.023400247
-0.003596336 -0.0063175596 0.0020042735 -0.0031238068 -0.0066489517 -0.013887109 -3.3651828e-05 0.01024038
-0.010252391 -0.017198738 -0.0021799477 -0.0004964618 -0.010863134 -0.002828745 -0.0076162205 -0.019803997
-0.009706503 -0.022463074 -0.015752181 -0.01217279 -0.013265188 -0.012864333 0.018685238 -0.010451071
0.013694286 0.01635423 0.0003308952 -0.008320479 -0.010196641 0.012722268 0.0034363938 -0.0017111807
-0.008184256 -0.002839166 0.0059120883 2.9803607e-05 0.016958121 -0.0070559834 -0.015424291 -0.0032073376
0.0014895909 -0.0014599112 -0.026315793 -0.010256036 0.007930525 -0.0028785355 -0.0120737925 -0.00976129
-0.0053684856 -0.029000964 -0.009753393 0.01954111 0.00064566615 0.008989912 0.007954329 0.015196795
-0.0056450358 0.0044184113 0.012374475 0.023600442 -0.0046534347 0.010538479 0.015474514 0.009609645
0.0044128755 0.005612245 -0.006111859 -0.0027424705 -0.028477652 -0.006427722 0.0034887164 0.0032224266
0.021236077 -0.0033765496 -0.009066587 -0.0014578584 0.019275192 0.002299963 -0.002812428 -0.0025795095
-0.009037993 0.0003427502 0.020836793 0.016103351 -0.008394814 0.039692577 0.011919258 -0.016791891
-0.02306388 -0.0066178986 -0.012816793 0.010409707 0.010241985 0.005714036 0.007988062 0.017668115
0.00046431058 0.004830928 0.013734841 0.013010188 -0.013989755 -0.010173835 0.021987217 0.0046244403
0.0031835886 -0.0027926262 -0.0058993367 0.00061508914 -0.0035231945 -0.023046415 0.030986626 0.0027111997
-0.01021 0.026291238 0.017359413 -0.0075501897 0.0068471762 -0.0059785102 -0.0064541623 -0.0024522173
0.011233265 -0.015724456 -0.007503144 0.0011644411 0.012776474 0.0020796726 0.0031534268 -0.022297993
0.020506378 -0.013294259 0.010570584 0.005446982 0.013127124 -0.00823323 0.015806155 0.017996676
-0.010458425 0.003736015 0.017277958 0.011327096 0.00015159487 0.013687881 0.020312632 0.03277344
0.011321826 0.0006169499 -0.020586586 -0.0054036533 0.0070900884 0.021812655 0.020016778 0.026868092
-0.01765358 -0.0012409022 0.007832947 -0.014231168 -0.016170964 0.022324717 0.022877632 0.009524819
0.0075435117 0.004312691 0.020415332 0.021221904 -0.010423983 -0.0040689837 -0.004156568 -0.0038102071

action_input.bias f4 [128]
00000000: 4c8b 6a3b faf0 923d 3cec 613c 8db3 963d
00000010: a6b9 96bd 83ad 623d 2e47 abbd f51b 1dbd
00000020: d93e c2bc 3a58 353d 2638 55bd 7180 dcbc
00000030: 5b20 863d 5189 1a3d ee0e 203d 4872 413d
00000040: f784 893c 5f3b 0cbd 3264 023c 4f93 80bd
00000050: 00cf 363d c2db c7bd 06c0 673d 2429 d43b
00000060: 281f b33d 9210 5e3b 9757 08bd 82cc fd3a
00000070: b613 4a3d ee41 bfbd 9755 e93c 9edf cbbc
00000080: 2210 b0bd d64b 0cbd 4e90 af3d ac62 7dbd
00000090: 615b 533b c845 5d3d e076 b2bc 2b29 65bd
000000a0: 2dde bdbd 2a99 c2bd 15c2 ad3d 8efa eebc
000000b0: 80a0 c3bb 296c d23d 025f 613d cd03 08bc
000000c0: 6ce8 813d c08a df3b a784 cfbd 29fd 933d
000000d0: af26 493d 0b4c 233d 5e79 47bc 465c 57bd
000000e0: 99d8 aebc 0f10 0e3d 2446 b9bc 50f3 b2bc
000000f0: 6aac 99bc 94e0 25bc 468d 6abd b61e adbc
00000100: a131 92bd aa08 87bd d9d4 953c 27a2 033d
00000110: a47a 953c 9aa4 1fbd 9b19 a13d d573 583c
00000120: a6ae a33d 5cac c63d 80d2 d53c f4e4 703d
00000130: 1685 973c 4298 403b 80d4 53bc 03dd 70bd
00000140: a934 873c 12d3 c0bd d774 1e3d 1c70 a9bd
00000150: 6e4c 643d d995 06bd 92b0 63bd 00cd 44bd
00000160: 6426 61bd b316 d93c 02bc c2bc d860 b0bc
00000170: f08a e53b 4ca6 33bd 0123 28bd 081d b23d
00000180: 44aa 89bc 9eff c83d 67ff 773d 545a e8b9
00000190: 3d17 8fbd 3188 463c 91a8 afbd 8899 113c
000001a0: 5172 433d fd8c 333d 2364 8c3d 1bf0 e1bc
000001b0: 7de1 11bd ebb8 bdbc a966 2b3d 5e2d 673d
000001c0: f1d6 9d3b 3046 bcbd 9004 893d 196a 2ebd
000001d0: 0d1c 493d f330 b73d c0e1 63bd 3019 753d
000001e0: ecca 86bd 7182 453d 7eb4 cebd 4cd8 563d
000001f0: 4bb3 8fbc 6ed7 993c e360 f03b ef5a 3dbd
0.0035788594 0.07174869 0.013789233 0.07358465 -0.073596284 0.055341255 -0.08363186 -0.03835674
-0.023711609 0.044273593 -0.0520555 -0.026916714 0.0654914 0.03772861 0.039076738 0.047228128
0.016787035 -0.03423631 0.007958459 -0.06278097 0.044631004 -0.09758712 0.056579612 0.006474631
0.08746177 0.0033884388 -0.033286657 0.0019363316 0.049335204 -0.09338747 0.028483195 -0.024886902
-0.08596827 -0.03425201 0.08572446 -0.06186168 0.003225051 0.054021627 -0.0217852 -0.055947464
-0.09270892 -0.0950187 0.08484284 -0.029172208 -0.005970061 0.10274536 0.055022247 -0.008301687
0.06343159 0.00682196 -0.10132723 0.07226021 0.049109157 0.039867442 -0.012174932 -0.052578233
-0.021343516 0.034683283 -0.022616453 -0.021844536 -0.018758971 -0.010124344 -0.057263635 -0.021132808
-0.07138372 -0.065934494 0.01828997 0.032137062 0.018246956 -0.038975336 0.07866212 0.01321121
0.07992296 0.09700844 0.02610135 0.058812097 0.018496078 0.0029387628 -0.012929082 -0.058804523
0.016504603 -0.094152585 0.038685646 -0.08273336 0.05573695 -0.03285775 -0.055588312 -0.048047066
-0.054968253 0.026500082 -0.02377129 -0.021530554 0.007005088 -0.043859765 -0.041049007 0.086969435
-0.016804822 0.0981438 0.060546305 -0.00044317788 -0.06986854 0.0121174315 -0.08577073 0.008886702
0.047716442 0.04383563 0.06855037 -0.027580312 -0.035615433 -0.023159465 0.04184595 0.05643975
0.004816883 -0.09193075 0.06690323 -0.04258165 0.049099017 0.08944883 -0.055635214 0.059838474
-0.06581673 0.0482201 -0.1009302 0.05245237 -0.017541548 0.018779483 0.0073357685 -0.0462293

layers.0.weight f4 [256, 256]
00000000: 650e 03bc a76b 163d 508e bc3b 6342 2c3c
00000010: e53f a03c ccd5 863a d46b 6f3b 87bf 453c
00000020: de3f 2cba dd40 a6ba 8a76 69bb 4b28 6fbc
00000030: 7d2e 74bb df06 d0bc 94a8 babc 8e8a e53c
00000040: f2aa 7fb8 0e93 97b8 1657 1bbd fe68 e1bb
00000050: 5a92 133c f0d7 3c3c 4f1a ac3c 58f4 16bc
00000060: 99cd b23b 5b97 19bb adca 92bc ad25 cd3b
00000070: a1f4 96bb e502 213b 7aa4 9ebc c862 a9bc
00000080: afe9 9a3c a06a a2bc eab4 6e3c 1710 863b
00000090: cb15 12bc f23d e3ba 5309 a4bc b684 06ba
000000a0: 07a4 d43c 258b abbc 4671 913b e565 2dbb
000000b0: cc6e 92bc 315a 26bc 1966 fa3b d5b4 073a
000000c0: d9dc f7bb c6de 803b 2e56 17bc 9f24 933b
000000d0: bb1e cabc ee28 e2bb b822 10bc 014c 393c
000000e0: 8c8d 843a 5be7 ec3b 607e 14bc dc86 9e3c
000000f0: 14cb 9abb fd86 ca3b 035f 073c 55e8 20bc
00000100: 5e1d 80bc 8c94 113a f257 b9ba 4d6b cb3c
00000110: d49b 0fbc 1dd4 c4ba cfb5 c33b 2200 5039
00000120: 5d8d d23c f0f3 fbbb f434 123b 6024 94bc
00000130: 7bf0 363b 5779 b5ba f2c4 b8bb 85a6 7bbb
00000140: f614 e4bc 52c9 b23c 02e3 8e3c 9dea b43c
00000150: 3b05 923c 704f 6dbc 3850 8dbb da66 2fbb
00000160: 6b8b 79bc b7b8 b93b a574 44bc c5c2 e33c
00000170: ec5a d33b 3907 903c 928f dd3b 1b0c 41bc
00000180: 42b6 6d3c 7a1b 1f3b af91 013c 525c 1a3c
00000190: 2cbd 063b fa90 123d c310 43bb 7587 ce3b
000001a0: 249d 7cbb 9472 7b3b f801 2fbc 790c ef3c
000001b0: 5fd7 afbc fdae d2bb b20b 0cbc 63cb bd3c
000001c0: 1969 d3bc 5115 c8bc 3870 aebc d4ad e3ba
000001d0: 4a13 8f3b 30d4 0a3c 24ca 65bc 6a43 033d
000001e0: 76d9 1c3c 4a15 6e3c 4666 7139 0025 eb3b
000001f0: 6aba b5bb 554d 32bc 8609 363b 4756 0cbc
00000200: 39c1 1a3c 4454 ccba 124d 95ba d90c 34bb
00000210: a9f4 ac3c de0b 00bd 8eed cd3b 7ddb 9d3c
00000220: 51d4 cc3b b69f f03b 6ec0 e5bc 0174 fe3b
00000230: 2612 94bb 186f a6bc 4c81 6f3b 1817 8ebb
00000240: 5557 a7bb 29e2 a1bb 79d8 b73b 21cf 163b
00000250: 8cc5 253c 9006 103b 4dab 55bb df7e babb
00000260: 7657 72bc 3fb8 dfbc 0ba6 84bb 76df 86bc
00000270: b2b9 28bc aead 16bc 4403 05bd 94b8 2dbc
00000280: 60a9 c6bb 34e8 dfbc 5d94 79bc d1af 92bb
00000290: 1748 363a a7a9 71bc cd0a 5d3c 06b1 46bb
000002a0: 299c c63c 6d04 ae3c 28a8 d93b 16d9 81bc
000002b0: ac2c 40bc 8383 8e3b 7ab4 f93b 248a 2b3c
000002c0: 8878 b2bc 939a 773c 30be 723c d078 ebbc
000002d0: fc52 8f38 0534 2bbc deb7 25bc 62ee 4abc
000002e0: df2a 813c c819 50b8 71da 8b3b def1 e3bc
000002f0: 2274 86ba c4ed 8e3c f65e 52bc 720f bfbc
00000300: c3ce 8d3c c9f6 b8bc f0e4 ae3c 65a0 a03b
00000310: 93a4 b0bc 95b7 63bc c39b fabb a7d2 76bb
00000320: 2edb 2dbc 9683 46bc aa98 063c 28ee 143c
00000330: f38d 35b9 4392 2d3c 03dc a13a 95b6 8dbc
00000340: 30ea 85bc b5f1 623c e2eb 83bb fb99 3cbc
00000350: fb1a 2b3a 36c9 bcbb 7733 61bc 3fc4 633c
00000360: f9aa fdbb 563b 6c3c be5e a03a 328f df3c
00000370: 9ef5 6cba fc43 8cbc 76be 31bb 724d a0bb
00000380: c252 a73c 600e 1bbd 55bf 3ebb f372 e639
00000390: 86ac 17bb 1e22 1cbc 3a0d ba3c e386 733c
000003a0: 1e98 a8bc c5e2 11bb c91e c3bb 9788 76bb
000003b0: 1411 fdba 46e7 4e3c 3a34 57bc 21dd 80bc
000003c0: 02eb 3eb9 4831 113b 65c1 0a3c 71e1 443c
000003d0: 713c 3d3c ef48 d4bb e9fb 9abc 10d6 d9ba
000003e0: 7d1b 26bc d5e8 a53b cf9e d73a 709e 603a
000003f0: 7159 6b3a 96ab 30bc 07ba 65bc 2466 a53a
-0.007999037 0.03672376 0.0057542697 0.010513875 0.019561717 0.0010287105 0.0036532776 0.012069589
-0.0006570796 -0.0012684126 -0.0035623633 -0.014597009 -0.0037259154 -0.025393901 -0.022785462 0.02802017
-6.0955943e-05 -7.227632e-05 -0.03792485 -0.006878971 0.009007061 0.011526093 0.021008639 -0.0092135295
0.005456638 -0.0023436162 -0.017918909 0.006260595 -0.0046067988 0.0024568376 -0.019365538 -0.020676985
0.018910257 -0.019826233 0.0145695 0.0040912735 -0.008916329 -0.0017337187 -0.020023977 -0.000513147
0.02595712 -0.020940373 0.004438552 -0.002645844 -0.017875098 -0.010153339 0.0076415655 0.00051767874
-0.007564169 0.0039328067 -0.009236855 0.0044904496 -0.024672857 -0.006901852 -0.00879734 0.011309625
0.0010112985 0.007229728 -0.009063333 0.019351415 -0.004723916 0.0061806426 0.008262399 -0.009821017
-0.015639003 0.0005553446 -0.001414059 0.024831438 -0.00876518 -0.0015016828 0.005972601 0.00019836475
0.025702173 -0.0076889917 0.0022309395 -0.018083751 0.0027914334 -0.0013845366 -0.005638712 -0.0038398814
-0.027842026 0.021824513 0.01744223 0.022084529 0.01782476 -0.014484271 -0.0043125413 -0.0026764185
-0.015230994 0.0056677717 -0.011990701 0.027802834 0.0064500477 0.017581569 0.0067614997 -0.011782671
0.014508786 0.0024277852 0.007908269 0.009421425 0.0020559533 0.03578279 -0.002976463 0.006302769
-0.0038545812 0.0038367854 -0.010681622 0.029180752 -0.021465002 -0.0064295516 -0.00854771 0.023168271
-0.02580695 -0.024424227 -0.021293744 -0.001737053 0.004366313 0.008473441 -0.014025245 0.032046713
0.009573331 0.014531443 0.00023021651 0.0071760416 -0.005545904 -0.010882695 0.0027776673 -0.008565492
0.009445482 -0.0015589078 -0.0011390767 -0.0027473478 0.021112757 -0.031261317 0.0062844222 0.0192697
0.006250896 0.007343258 -0.02804586 0.0077652936 -0.004518765 -0.020316646 0.0036545573 -0.004336249
-0.0051068463 -0.0049402905 0.0056105223 0.0023011642 0.0101179 0.0021976568 -0.0032603324 -0.0056913937
-0.01479136 -0.027309535 -0.004048114 -0.016463976 -0.010298179 -0.009196682 -0.032473817 -0.010603089
-0.0060626715 -0.027332403 -0.0152331265 -0.0044765254 0.0006953491 -0.014749921 0.013491345 -0.0030317917
0.024244385 0.021242345 0.0066423602 -0.015850585 -0.011729401 0.0043491735 0.0076203914 0.010469947
-0.02178599 0.015112537 0.014815852 -0.028744131 6.8342284e-05 -0.010449414 -0.010114638 -0.012385936
0.015767513 -4.9615075e-05 0.0042679836 -0.027825292 -0.0010257999 0.01744736 -0.012840023 -0.023322795
0.017310506 -0.022578614 0.0213494 0.004901933 -0.02156285 -0.01389875 -0.007647963 -0.003766218
-0.010611339 -0.0121163335 0.008215109 0.009089984 -0.00017314385 0.010593954 0.0012348894 -0.017298976
-0.01634702 0.013851573 -0.004025922 -0.011511321 0.0006527153 -0.005761291 -0.01374518 0.013901769
-0.007741329 0.014418444 0.0012235267 0.02728996 -0.00090392854 -0.017122261 -0.002712158 -0.0048920447
0.020425204 -0.037855506 -0.0029105742 0.00043954662 -0.0023143603 -0.009529619 0.022711385 0.0148637025
-0.020580348 -0.002226041 -0.0059545976 -0.0037618035 -0.0019307458 0.012628382 -0.01313501 -0.015730442
-0.00018207359 0.0022154618 0.00846896 0.01201664 0.011550055 -0.006478421 -0.018918948 -0.0016619582
-0.01013839 0.005063156 0.0016450527 0.0008568531 0.00089778664 -0.010783097 -0.014021403 0.0012618941

layers.0.bias f4 [256]
00000000: a53f ab3d 4d81 7d3d 2a57 0cbd 34ab 353d
00000010: 3c43 ccbb bbe4 bfbd d6aa c2bc 2571 a13c
00000020: e371 d43d 5e83 fd3c c629 993b 90eb e8bd
00000030: eaa2 1b3d d2e2 893d b8f7 eb3b 6c99 dabd
00000040: 9ca5 ab3d 5d35 ffbc b389 ce3c 7fa2 29bc
00000050: ce4d 813d 57bf 3e3d 6946 8f3d ea83 213c
00000060: 4cc2 aa3d c269 bcbd a02a 68bd 57c5 8abd
00000070: 8088 85bd f98c 56bc aabf 64bc a639 8f3b
00000080: f548 af3d f410 fa3c 82dd 513d 954e 833d
00000090: 9749 94bd b517 36bd 8e5b 6c3d 1c9d 033d
000000a0: ab30 093c d631 c63c 557d 373c 1fa8 42bc
000000b0: 11f6 ae3c 5523 833a cbd8 85bc 12e9 fdbc
000000c0: f503 94bd 2ef1 b5bd 6a45 2bbd 645e ba3c
000000d0: a396 963c 3536 b53d b4a8 233d 87d1 db3d
000000e0: 4beb 24bd af93 603d aff2 b03d 6a47 613d
000000f0: 7906 703d 8e79 85bd 3e7f 533d 3210 bd3d
00000100: 6db7 4d3c 66d5 1e3d a6ef 5cbd c527 123c
00000110: ae4d 063c 1a0c 31bd bc86 8ebd 0311 23bc
00000120: 5045 debd 4647 a73b a411 66bd 3409 a2bc
00000130: 6fa1 41bd dcc3 303c d7ba a43a 714d 03bd
00000140: c3e9 373c dd02 19bd 6b04 21bd e3be 55bc
00000150: 9d23 debd 2d98 773b ed86 b2bd 30cc 8fbc
00000160: dd2e b33d 5e84 16bb 4b68 79bd 69b7 da3c
00000170: 73a9 993d a315 973a fd7c 193c 01ff cd3c
00000180: 67ea 03bc 70c9 d2bd 05af 42bd 7492 24bc
00000190: dcea ad3c 660b a43b 4795 9dbd 213f 943d
000001a0: 93ed e6bb 16b5 9c3d fac6 113d 4fca b23d
000001b0: 754e da3d d9f6 9a3c ce69 823d 5d4c 49bd
000001c0: b76b 943d e4dc acbc a699 3c3d 1366 b53d
000001d0: 7a0b 9b3c 91ca b5bd 7bdb cd3d 248f 103d
000001e0: 3771 17bd 1e92 3fbd 934c 28bc c8d2 bb3d
000001f0: 1285 b1bd 1cd6 463d 9ca5 983d d9ac f43b
00000200: cc5e 9f3d 141a fd3a e0d8 bd3c cf21 c7bb
00000210: 78ef db3c 41cf 28bd 3bc1 d1bd cc0a 693c
00000220: e57b 3a3d 6b2e cb3d d982 76bb 550b 75bd
00000230: f045 793d 7953 323b 4055 46bd b7a6 2e3b
00000240: 061b 673c e803 debc c486 c5bd 2cb6 2e3d
00000250: 4dbe b03d 3015 bd3c 7724 78bd 73d0 403d
00000260: 7dfd 1ebd c245 80bd 9908 773d 9bc8 06bd
00000270: a329 b53d 267c d3bd 64b4 bd3d 5ccd 85bd
00000280: 7540 9f3a 796d b63d bda6 b13d 8a0d 833a
00000290: 9db2 cbbc b53b 86bd c318 5e3d 0046 123b
000002a0: 034a 343c 04ea 60bd 5181 6cbd 9460 b03d
000002b0: 8d56 63bd d3f4 333c de24 94bc 4dff 4e3c
000002c0: 3e02 61bc 68aa 8dbd 2a54 9dbd 6aa1 933d
000002d0: 721c b53b b86a 09bc 8f3d 373c 419f 65bb
000002e0: 7c7b 95bd d042 cebd 5c19 93bd b1ca 2b3d
000002f0: d648 5e3d 356d 8a3d f008 ae3c 489e 143d
00000300: 5343 cebc 3f33 6abc 432a 543d f487 a93d
00000310: 1b26 1cbd 253e 873c 93c5 4fbd d2b2 92bc
00000320: 76e2 c5bd b9a4 69bc 4818 36bd dc8f 61bd
00000330: 1902 b23d 4877 69bc 5e5a 2e3d 0d33 8fbb
00000340: ba16 8abd 37f6 4dbd 45f5 773d 5d78 42bd
00000350: 3e19 44bd d48a 513d 3c9c 753d c40e 423c
00000360: 8a63 873b c503 af3d d9ec a4bc 71ea 213c
00000370: 7b25 3e3d 272e 233d 05e9 50bd 08f9 a1bc
00000380: 16d5 b0bd 8a4c 783d 2e6a c93b 515f 103d
00000390: f400 01bc da3c 34bb 66e0 26bd 8e66 9ebd
000003a0: a627 453d 2603 5b3d 548f 44bd 86ab cf3d
000003b0: 1d25 7cbc 86e1 acbd df61 8c3d 3476 593d
000003c0: 2fc2 443d cd4a 353b 815b 85bc 5031 293b
000003d0: e0a4 a0bd f317 503d 7f4b b0bd a4db 41bb
000003e0: a96c c5bd c425 5abd 7769 84bd f556 adbd
000003f0: 8606 b43b d8bb 0cbd 98f8 d93d b7fc a43d
0.083617486 0.06189089 -0.034262814 0.044352725 -0.006233601 -0.09369799 -0.023763102 0.019707272
0.10373285 0.03094643 0.0046741692 -0.11373055 0.037997164 0.06732716 0.0072011612 -0.10673794
0.08381197 -0.031153375 0.025212144 -0.0103536835 0.06313668 0.046569195 0.069958515 0.009858111
0.083378404 -0.09199859 -0.056681275 -0.06775921 -0.06520176 -0.013095134 -0.013961712 0.004370886
0.08558837 0.030525662 0.051236637 0.06411473 -0.07240599 -0.044456203 0.0577045 0.032132253
0.00837342 0.024193686 0.011199315 -0.0118809035 0.021357568 0.0010005037 -0.016338727 -0.030994926
-0.07227317 -0.08883892 -0.041814245 0.022750087 0.018382376 0.0884823 0.03995581 0.107333235
-0.040263455 0.054828342 0.08640038 0.054999746 0.058599923 -0.06517325 0.05163502 0.09231605
0.012555939 0.03877773 -0.053939484 0.008920615 0.008197231 -0.04322443 -0.06959292 -0.009952786
-0.10853064 0.005104932 -0.056169167 -0.019779779 -0.047273096 0.010788884 0.001256789 -0.032056276
0.011225167 -0.037356246 -0.039310854 -0.013045999 -0.108466364 0.0037779913 -0.08717141 -0.017553419
0.08749173 -0.002296708 -0.060890477 0.026698785 0.07503023 0.0011526834 0.009368178 0.02514601
-0.008051491 -0.102923274 -0.047530193 -0.010044683 0.021230154 0.0050062416 -0.07694488 0.072386034
-0.007047364 0.07651727 0.03559015 0.087299936 0.10659496 0.018916534 0.06367837 -0.04914509
0.072471075 -0.021101423 0.046044968 0.0885736 0.01892637 -0.08876527 0.10051628 0.03529276
-0.036973204 -0.046770208 -0.010272163 0.09171063 -0.08667959 0.048544034 0.074534625 0.007466894
0.07781753 0.001931014 0.023174703 -0.0060770283 0.026847586 -0.041213278 -0.10241934 0.014223766
0.04552831 0.09920963 -0.0037614612 -0.05982526 0.060857713 0.0027210398 -0.048421144 0.0026649663
0.014105564 -0.027101472 -0.09644845 0.0426542 0.08630047 0.023081392 -0.06058165 0.047073793
-0.038815964 -0.06263305 0.060310934 -0.032906156 0.08845832 -0.10326414 0.092629224 -0.0653331
0.0012149947 0.08907599 0.08674381 0.0009998542 -0.024865443 -0.06554357 0.054222833 0.0022319555
0.011003974 -0.054910675 -0.057740513 0.08612171 -0.055502463 0.010983664 -0.018083986 0.012634111
-0.013733445 -0.06917268 -0.07682069 0.07208522 0.0055270726 -0.00838726 0.01118411 -0.003503755
-0.072989434 -0.10071337 -0.07182571 0.04194135 0.05426868 0.06759111 0.021244496 0.03628376
-0.025178587 -0.014294445 0.051798116 0.08277884 -0.038122278 0.016509125 -0.05072553 -0.017907534
-0.096623346 -0.014260464 -0.04445675 -0.055068836 0.08691806 -0.01424963 0.04256665 -0.0043700994
-0.06742616 -0.050283637 0.06053664 -0.04747807 -0.047875635 0.051157787 0.05996345 0.011844341
0.004131739 0.08545641 -0.020132469 0.009882555 0.046422463 0.039838936 -0.051003475 -0.019772068
-0.08634393 0.06061987 0.006146691 0.03524715 -0.007873762 -0.002750209 -0.040741347 -0.077344045
0.048133515 0.0534698 -0.04798825 0.101401374 -0.015389708 -0.08441453 0.06854605 0.053091243
0.04803675 0.0027662993 -0.016278984 0.0025816746 -0.078439474 0.05080409 -0.0860815 -0.002958038
-0.09639866 -0.053258672 -0.06465428 -0.08463851 0.0054939417 -0.03435883 0.106431186 0.08056014

layers.3.weight f4 [256]
00000000: 2d9c 6e3f 92a1 743f f3ff 733f b853 763f
00000010: bcef 703f cf73 713f 3be5 703f f89b 753f
00000020: c65f 763f d8ae 6a3f b2b0 693f 7351 743f
00000030: 34d1 673f f2d0 713f 0c6a 743f cbf7 743f
00000040: b753 6d3f a4b3 743f 3f59 753f 15e6 6f3f
00000050: 8709 753f afc3 703f faea 733f d1e4 733f
00000060: 48a3 743f c0b6 733f 5534 733f 2f66 733f
00000070: 086c 6f3f 3977 773f 4e47 703f 7786 6d3f
00000080: 656d 6c3f 09e0 703f b7cd 6d3f 3516 703f
00000090: 2b66 783f e58f 6c3f 7e29 773f fbe1 6f3f
000000a0: b0fd 713f ecb7 723f c610 713f 9fe6 6d3f
000000b0: 6488 743f 0537 6c3f 2d5e 733f 94fe 6f3f
000000c0: fcb6 713f 0506 733f 900e 713f c733 783f
000000d0: c3af 763f 6d2c 723f b2b7 703f 7ba6 703f
000000e0: 4c06 763f f366 743f add6 763f 9ae2 6b3f
000000f0: 8152 753f 2876 723f 6c0c 713f b17f 703f
00000100: 7e84 783f 59b5 703f ef16 6d3f ec97 6a3f
00000110: 9f0f 723f fef7 743f 931c 763f 744d 6e3f
00000120: 27cd 723f 3d94 763f 6700 743f a00b 6f3f
00000130: 0fa3 743f d8a1 713f 7bc6 713f 35d1 6f3f
00000140: 6ca7 733f 8030 6d3f 9dc1 713f 4042 6d3f
00000150: be2c 733f 559a 733f 0764 6e3f 7323 6e3f
00000160: 3dcf 6f3f d71d 713f 10de 6c3f 07c9 753f
00000170: 1bbe 6c3f c34a 773f 46a7 713f e77a 703f
00000180: 5882 713f 13f7 763f 22ea 753f 2c65 7a3f
00000190: 0ced 723f cc6f 6c3f 1026 6f3f 532c 763f
000001a0: 380d 733f a55c 743f 7e0a 6d3f f2dc 733f
000001b0: b996 733f cadd 713f 1244 703f 5a7e 6d3f
000001c0: 3af5 723f 5388 793f 5945 743f 701d 723f
000001d0: 9f62 703f 4641 753f b7ad 793f 4f50 753f
000001e0: 61b1 6a3f 5ec5 743f 0c59 703f ec1c 6e3f
000001f0: 79c6 7d3f 9da2 753f e38c 703f 44e6 733f
00000200: 9deb 753f 15b1 733f 7856 6f3f 559f 6e3f
00000210: f411 743f ce36 7b3f 3734 723f 3fb3 703f
00000220: af3b 723f cf47 653f eb9c 733f 4eb1 6b3f
00000230: 2d27 743f 830d 733f 1a71 763f 7214 733f
00000240: 2396 763f 67fb 743f d821 6f3f a4ea 6e3f
00000250: 6d4a 6d3f a3ac 6e3f 588e 6b3f a071 733f
00000260: 8f2d 773f 2cd2 733f 0e3f 753f 7f45 723f
00000270: 9e7e 723f 3ba5 753f fc2b 6f3f b24b 733f
00000280: 3bd6 6a3f 1db4 7b3f 1647 763f 89a7 733f
00000290: 16b3 723f 0fd5 6b3f 46f0 743f 242e 6c3f
000002a0: 3ee9 763f 1ecc 703f 5d18 733f cb98 743f
000002b0: ae47 7a3f ec26 6c3f a957 6c3f ce19 783f
000002c0: e618 773f 2d1f 6a3f 7137 743f 7eb1 793f
000002d0: dc92 783f fc96 753f 37c6 6c3f 413c 703f
000002e0: 896f 693f 704c 743f 1dce 753f 24c8 703f
000002f0: 22fe 6d3f 385f 723f 02fc 753f 20d9 723f
00000300: de81 783f 37e2 723f 863e 6d3f 4564 733f
00000310: a5ca 763f 48a5 753f 2d33 723f 0699 743f
00000320: 67cb 743f 482d 733f fe18 7a3f 5f8d 743f
00000330: 9baa 733f ed41 763f c017 743f e361 743f
00000340: 140a 753f 195c 703f 4020 703f 5d45 6f3f
00000350: a6d7 733f 892b 6e3f 2195 733f 2a91 6b3f
00000360: 2757 763f e899 6c3f 2e82 6c3f 6d6c 703f
00000370: 615d 6f3f ade1 733f 3cd0 6c3f 9ac3 743f
00000380: ea17 703f 6763 703f 84b9 723f 422e 793f
00000390: f8d6 743f 46cc 713f d81e 763f 9a16 703f
000003a0: 1d1d 763f 980a 713f e41a 6d3f 4545 733f
000003b0: c9cd 763f 4885 6d3f cdbe 713f 47cf 7a3f
000003c0: 00f8 713f f83d 6c3f aba5 723f aed7 763f
000003d0: b9be 6c3f 1923 733f 1709 733f 2cf1 723f
000003e0: 88be 753f 639e 6d3f 3df3 793f b4a7 6e3f
000003f0: e70e 7a3f e097 763f cb90 703f 15ec 6e3f
0.93207055 0.95559037 0.9531242 0.96221495 0.94115806 0.94317335 0.9409978 0.95941114
0.9623989 0.9167304 0.9128524 0.9543678 0.90553594 0.9445945 0.95474315 0.956906
0.92705864 0.9558661 0.95839304 0.9371045 0.9571766 0.9404859 0.9528042 0.9527102
0.9556165 0.9520073 0.9500173 0.95077795 0.9352422 0.96666294 0.938588 0.927833
0.9235442 0.9409185 0.9289202 0.93783885 0.97030896 0.92407066 0.9654769 0.93704194
0.9452772 0.9481189 0.9416622 0.92930025 0.95520616 0.92271453 0.95065576 0.9374783
0.94419837 0.9493106 0.94162846 0.96954006 0.9636194 0.9459904 0.94030297 0.9400403
0.9610336 0.9546959 0.9642132 0.9214264 0.95829016 0.9471154 0.9415958 0.9394484
0.9707717 0.94026715 0.9261312 0.91638064 0.94555086 0.95690906 0.9613735 0.93086934
0.9484429 0.96319944 0.95313114 0.93377113 0.9556131 0.9438758 0.9444348 0.936786
0.9517734 0.9265213 0.94436055 0.92679214 0.94990146 0.95157367 0.9312138 0.9302284
0.93675596 0.94186157 0.9252634 0.9600987 0.9247758 0.9659845 0.94395864 0.93937534
0.94339514 0.96470755 0.96060383 0.97810626 0.94892955 0.9235809 0.93417454 0.96161383
0.94942045 0.95453864 0.92594135 0.9525901 0.9515186 0.9447905 0.9385387 0.9277092
0.94905436 0.9747364 0.95418316 0.9457617 0.93900484 0.95802724 0.9753069 0.95825666
0.9167691 0.9561366 0.93885875 0.9301288 0.9913097 0.95951253 0.93964976 0.9527323
0.9606264 0.9519208 0.93491316 0.9321187 0.95339894 0.981305 0.94610924 0.9402351
0.9462232 0.89562696 0.9516131 0.9206742 0.9537228 0.9494249 0.9626633 0.9495307
0.9632284 0.9569611 0.93411016 0.93326783 0.9269169 0.9323217 0.92014074 0.95095253
0.9655389 0.9524257 0.9579934 0.9463729 0.9472445 0.95955247 0.9342649 0.95037377
0.9173314 0.98321706 0.9620222 0.95177513 0.94804513 0.92121977 0.9567913 0.92257905
0.9644965 0.9406146 0.9495905 0.95545644 0.97765625 0.9224689 0.9232126 0.96914375
0.96522367 0.9145382 0.95397097 0.97536457 0.9709909 0.9593351 0.9248995 0.9384194
0.91185814 0.95429134 0.9601763 0.9405539 0.929659 0.9467654 0.9608766 0.94862556
0.9707316 0.94876426 0.9267353 0.95074874 0.9640296 0.95955324 0.9460934 0.95545995
0.9562287 0.9499097 0.97694385 0.95528215 0.951822 0.96194345 0.9534874 0.95461863
0.95718503 0.9389053 0.9379921 0.93465215 0.9525093 0.9303518 0.9514943 0.9201838
0.96226734 0.9242234 0.9238614 0.93915445 0.9350186 0.9526623 0.9250524 0.95610964
0.9378649 0.93901676 0.94814324 0.9733621 0.95640516 0.9445232 0.96140814 0.9378449
0.96138173 0.9415679 0.92619157 0.9502757 0.96407753 0.92781496 0.94431764 0.9797253
0.9451904 0.92282057 0.9478404 0.9642285 0.9247852 0.9497543 0.94935745 0.9489925
0.9599385 0.92819804 0.9763678 0.93224645 0.9767899 0.9632549 0.93970937 0.9332898

layers.3.bias f4 [256]
00000000: f24a 513c 7a0d acbc 6c87 9f3b 61ed 93ba
00000010: 22b9 323c ab4e 6a3c dfa2 01bc b695 b7b8
00000020: 5a26 43bb 8c34 673b 7c51 d8bb d8f9 74ba
00000030: 554f 193c 8f15 94bb c877 5bbc acaa b63b
00000040: 96e5 9bba d14a 833c b96b 19bc 42c0 09bc
00000050: d041 7d3c b4fa ebba 775c a7bb 3e4f 50bc
00000060: 9e26 903b a1a0 fa3b 4e8f 9bbc 5176 e8bb
00000070: 0a78 bebc 5994 0fbb 299a 86bc 5b11 e0ba
00000080: 9a61 7f3c e12e 983b 56df 32bc 7a26 91bc
00000090: a7aa 6b3c d796 263c e608 a9bb 8335 603b
000000a0: 135c 9839 1dbd 093c d101 08bb 46b7 37bc
000000b0: 2fba 1a3c fe7c 8dbb a54e 4bbc aee7 be3b
000000c0: 41fc 923b 1acf c1bb f88d 80bc 25e6 4ebc
000000d0: aa6e d03a 4859 41bc 356d cfbb c536 09ba
000000e0: 7e8a ffbb f831 eabb 5274 8bbb 5c17 e6bb
000000f0: 896f 8fba d7b4 b0ba 957d 1039 f828 4d3b
00000100: 0d39 8cbb 6cea a3ba 9781 e73b de2c a63b
00000110: 88bb 013b 038a 1a3c 18eb afba 6cde 923a
00000120: a52b 68b9 385d 3a3c 0407 91b9 25c5 043b
00000130: 188c 393a 8521 813b f5e8 8e3a c420 953c
00000140: 410e db39 312e 88b9 bd8f 31bc 0171 9cbc
00000150: 7112 e9bb f5b1 fe3a 8e89 3dbb 8d6d 713c
00000160: 12f7 ae3b 0a17 edbb b45c d63b 616c 3fba
00000170: 6f21 7e3b 8ef1 f63b 0488 653c 8564 adbb
00000180: 9a5f fb3a c99a 26bc fae0 243c d62d 7abb
00000190: 68ea faba ac51 e63a a283 c63b 8e68 783b
000001a0: b8e6 ed3b b9bf 63bc 2c04 163b 76ea 963a
000001b0: 5677 103c fed0 24bc 3693 213c 07a1 c9bb
000001c0: 2f64 99b9 28ad c1b9 5f3d cebb c247 eaba
000001d0: ca21 32bc be3e 00bc 6fc5 553c 63f7 663b
000001e0: 395d 80b8 153b 893c 6ca9 f4ba 6f76 e7bb
000001f0: 4a52 67bc 1786 5bbc 4524 4d3c c1a8 703a
00000200: 3e73 11bc 3d81 0bbc faae 403c 3941 cfbb
00000210: d4f5 f8bb cb55 b53b e980 a9ba 0a60 a33a
00000220: 48c2 ec3b 082d 323c 0a47 9d3a ae78 963b
00000230: 89e7 f63b 8593 55bb 4398 fe3b c2f3 e43b
00000240: f965 ab3b bd71 d2bb c22e 3a3b ce59 53bc
00000250: 4782 333c cd48 a6bc 541f c33c eff4 7cbb
00000260: 4439 debb a827 0a3c deba 923c 701c 953c
00000270: 68dd 56bb 7a2a a739 8aa6 24ba 0f34 33bc
00000280: 37ce 44bb ee60 3e3c e79d 0a3b e5ff dfbb
00000290: 5c24 55bc 6228 593c c518 f2bb 5a6d 44bc
000002a0: e080 04ba 06e4 7c3b b48a f43b b7cc ffbb
000002b0: 46c8 10bb 4dbf 49bc c3c5 c0ba 749a 90bb
000002c0: f10c 33bc 58f5 6ebb fe6c a7bb cc8e b2ba
000002d0: 7d90 4b3c 3cf6 20bc bb98 2dbb 7e9e 88bb
000002e0: c1d7 423b 29a1 e43a 7428 bd3c 04d5 0abb
000002f0: c5be 403c b603 0cbc 5c6a 4cbb ca2e 14bc
00000300: 372c 263b 78ca 823b 2733 343b 3251 2e3b
00000310: dc31 ecbb 5e65 1fbc 5f31 e0bb d0bf a83c
00000320: 31fe c13b 6dca e8bb 80b7 9dba 1bf7 1d3c
00000330: 4381 c43b 528e b23b 3909 67bb 0b55 0f3c
00000340: fa2b 773b cce0 573c 72d8 0c3b 8f6c 33bb
00000350: 49ca 60bb 0855 b3bb 7235 ff3b 965a 2f3c
00000360: 9664 7ebc e76d 703b cdc3 f33b 9ed0 d5bb
00000370: 5009 a43a bd79 e139 f9d2 6fbc 005f 26bc
00000380: 946e 803b b19e 883a 5d13 fabb d798 e13b
00000390: 7f4f 263b dd0c 333c 81ec 2a3b 2927 a2ba
000003a0: 02c8 583b 5626 0fba 19ba c2bb de38 483c
000003b0: c057 7539 7c2d c5bb 741b 4c3c 0a4b 853c
000003c0: 7c4a 13bc c777 bd3b 60c7 cfbb 062f f43b
000003d0: d6d5 cb3c ff99 77bb 5352 e33b 7af3 343c
000003e0: 289c 0f3c 5c25 563a cd37 c03b 08e2 10bc
000003f0: 646f 0c3b b29a 98bc 0cef 683b aaec 60bb
0.012774216 -0.02100252 0.0048684385 -0.0011285954 0.010908397 0.0143009825 -0.007912367 -8.754006e-05
-0.0029777498 0.0035279123 -0.0066015106 -0.0009345091 0.009357293 -0.0045191715 -0.013395257 0.005574545
-0.0011893983 0.016026886 -0.009364062 -0.008407654 0.015457585 -0.0018003793 -0.005107458 -0.012714205
0.004399135 0.007648543 -0.018989231 -0.0070941825 -0.023250598 -0.002190849 -0.016430931 -0.0017095016
0.015587235 0.0046442603 -0.010917505 -0.017718542 0.014383948 0.010167799 -0.0051585315 0.0034211583
0.000290603 0.0084069045 -0.0020753036 -0.011213129 0.009443804 -0.0043178787 -0.012408887 0.005825958
0.0044856374 -0.005914581 -0.015692696 -0.012628113 0.0015902121 -0.011801071 -0.006330157 -0.00052342966
-0.007798492 -0.00714707 -0.00425581 -0.0070218276 -0.0010943274 -0.0013481629 0.00013779693 0.0031304937
-0.004279262 -0.0012505776 0.007065009 0.0050712666 0.0019795615 0.009432319 -0.0013421504 0.0011205203
-0.00022141503 0.011374764 -0.00027661782 0.002025911 0.00070780655 0.0039407634 0.0010903167 0.0182041
0.00041781555 -0.00025974357 -0.0108374925 -0.019096853 -0.007112794 0.0019431697 -0.00289211 0.014735592
0.0053395117 -0.0072354125 0.006541813 -0.00073022215 0.0038777252 0.00753612 0.014009479 -0.005291524
0.0019178272 -0.01016874 0.010063404 -0.0038174293 -0.0019143345 0.0017571948 0.0060581723 0.0037904116
0.00726017 -0.013900691 0.002289067 0.0011513967 0.008817514 -0.010059593 0.009861758 -0.006153229
-0.00029257077 -0.0003694084 -0.006293937 -0.0017874169 -0.010872314 -0.007827459 0.01304756 0.0035242669
-6.12088e-05 0.016751805 -0.0018666214 -0.007063679 -0.01411874 -0.013398669 0.012520854 0.000918042
-0.008877574 -0.0085146995 0.011760468 -0.006324914 -0.0075976644 0.005533909 -0.0012932095 0.0012464535
0.0072253086 0.010874994 0.0011999321 0.004592023 0.0075349254 -0.003258915 0.007769616 0.006987066
0.005230662 -0.00642225 0.0028409217 -0.012899829 0.0109563535 -0.020298386 0.02381865 -0.003859814
-0.006781729 0.008432306 0.01791137 0.018202037 -0.0032785777 0.0003188437 -0.000628092 -0.010937705
-0.003003014 0.0116197895 0.0021151246 -0.006835925 -0.013009157 0.013254257 -0.0073882067 -0.011988962
-0.0005054604 0.003858806 0.0074628238 -0.0078063863 -0.0022092029 -0.012313676 -0.0014707375 -0.0044129435
-0.010928378 -0.0036462154 -0.0051094284 -0.0013622879 0.012424585 -0.009824332 -0.002648874 -0.0041692844
0.002973065 0.0017443049 0.023090579 -0.0021184096 0.011764233 -0.008545807 -0.0031191325 -0.0090443585
0.0025355944 0.0039914213 0.002749631 0.002659869 -0.007208092 -0.009728758 -0.006841823 0.020599276
0.0059201946 -0.007104209 -0.0012032837 0.009641434 0.0059968545 0.005449095 -0.00352533 0.008748303
0.003771542 0.013176154 0.0021491316 -0.0027377938 -0.003430026 -0.005472783 0.0077883536 0.01070275
-0.015526911 0.00366866 0.0074391128 -0.0065251132 0.0012514982 0.00043006046 -0.014637702 -0.010154486
0.003919432 0.001042327 -0.007631703 0.006884675 0.0025376973 0.01092836 0.0026080909 -0.001237129
0.0033078198 -0.00054607296 -0.0059425947 0.012220589 0.0002339771 -0.006017385 0.012457717 0.016271133
-0.008989926 0.005782101 -0.006340906 0.0074518947 0.024882238 -0.0037780998 0.006937304 0.011044377
0.008765258 0.0008169019 0.005866027 -0.008842953 0.0021428699 -0.018628452 0.0035542874 -0.003432075
