ddpg/model_params/twitter_ddpg_45_110_critic.pth (torch, 398818 bytes, 17 tensors)

state_input.weight f4 [128, 65]
000000 ab 28 8a bc af 28 8a bc ae 28 8a bc af 28 8a bc
       -0.016865095 -0.016865103 -0.0168651 -0.016865103
000010 be fa 89 bc ae 28 8a bc 24 26 8a bc ae 28 8a bc
       -0.016843196 -0.0168651 -0.01686389 -0.0168651
000020 ae 28 8a bc ae 28 8a bc a4 27 8a bc af 28 8a 3c
       -0.0168651 -0.0168651 -0.016864605 0.016865103
000030 9f 28 8a bc af 28 8a 3c 69 da ce ad 99 28 8a bc
       -0.016865073 0.016865103 -2.3516482e-11 -0.016865062
000040 b1 28 8a bc ae 28 8a bc af 28 8a 3c 69 93 84 2e
       -0.016865106 -0.0168651 0.016865103 6.02885e-11
000050 9f 28 8a bc c5 5f 80 ac 26 28 8a bc 58 64 fc ad
       -0.016865073 -3.6486114e-12 -0.016864847 -2.8693645e-11
000060 99 7d 88 3c cc 26 8a bc a2 21 3c ab 80 77 b7 ab
       0.016661452 -0.016864203 -6.683769e-13 -1.30361e-12
000070 75 22 85 ab ab 85 cb ad 80 1c fb 2d d4 26 8a bc
       -9.459782e-13 -2.3137789e-11 2.8548053e-11 -0.016864218
000080 e6 54 80 ad 2b 28 8a bc 24 26 8a bc 10 1a 8a bc
       -1.4589618e-11 -0.016864857 -0.01686389 -0.01685813
000090 5a c5 19 2d 36 3c b1 2d ae 28 8a bc 00 0d bb a9
       8.740864e-12 2.014931e-11 -0.0168651 -8.3067234e-14
0000a0 22 d1 b0 2b 7e dd 8c ad 8c 0c c6 ac d6 f3 02 aa
       1.2563598e-12 -1.601452e-11 -5.6288915e-12 -1.1630917e-13
0000b0 af 28 8a bc 38 2e 4e ac a4 e1 39 ac 2e 91 6b 2d
       -0.016865103 -2.9300017e-12 -2.6415337e-12 1.339044e-11
0000c0 b7 0c 73 2d e3 a7 ac ad 9c b7 d4 2b f2 af 02 ae
       1.3815774e-11 -1.9628693e-11 1.5114468e-12 -2.971485e-11
0000d0 6b f0 0c ad ae 28 8a bc 60 e9 9c 2a 23 28 8a bc
       -8.011462e-12 -0.0168651 2.7873103e-13 -0.016864842
0000e0 24 28 8a bc 2a 28 8a bc ae 28 8a bc 40 28 8a bc
       -0.016864844 -0.016864855 -0.0168651 -0.016864896
0000f0 ae 28 8a bc 1e 28 8a bc d6 3e 6a ad 42 0c 85 ad
       -0.0168651 -0.016864832 -1.3315312e-11 -1.5125793e-11
000100 e0 04 d6 2b 6a cf 83 3c 53 cb 86 3c ed d9 86 3c
       1.5206968e-12 0.016090114 0.016454374 0.016461337
000110 ff d3 86 3c cd c5 e6 38 f5 06 77 3c 89 40 1b b9
       0.01645851 0.00011004098 0.015077342 -0.00014805993
000120 1b da 86 3c fd d7 86 3c 23 87 86 3c 64 2e ae 3b
       0.016461423 0.016460413 0.01642186 0.005315589
000130 d2 96 86 bc 41 f5 7c 3c 18 34 85 bc 48 f7 3e 2c
       -0.016429339 0.015439332 -0.016260192 2.7137893e-12
000140 ce 57 3a ac 29 d6 86 3c cd c1 75 3c 17 da 86 bc
       -2.6480931e-12 0.016459541 0.014999819 -0.016461415
000150 68 18 3f 2b 97 ae 7f 3c da 09 1d 2c 3b 7a 6f 3c
       6.78907e-13 0.01560559 2.231651e-12 0.014616544
000160 b0 fc 2d ad 72 90 d6 b7 26 10 38 3b 68 e4 0f ae
       -9.890019e-12 -2.557805e-05 0.0028085797 -3.27173e-11
000170 22 46 b7 2b 1d 11 12 2c 0a 9d 11 ab 65 93 e6 ac
       1.3022398e-12 2.0757348e-12 -5.1732284e-13 -6.5533572e-12
000180 1d 80 42 3b 47 69 9e 2a a2 bc 23 3c f0 6c bf 39
       0.0029678412 2.813949e-13 0.009993704 0.00036511524
000190 84 a8 3f b9 0a ce bb 2c c7 90 9c 2e a7 b4 85 3c
       -0.00018277956 5.3377346e-12 7.119776e-11 0.016321493
0001a0 78 b5 12 2d 84 0c 32 2d 65 3b d8 ab dc f1 04 2c
       8.339433e-12 1.0120908e-11 -1.5364208e-12 1.8892587e-12
0001b0 65 c8 5c ad 2c d7 86 3c 8c 2d b2 ad bc 6a 8b 2d
       -1.2550049e-11 0.016460024 -2.0256484e-11 1.584987e-11
0001c0 92 19 cd 2e b7 ce b2 ad 67 9d 73 2e 8c b8 7c aa
       9.326863e-11 -2.0328057e-11 5.5391604e-11 -2.2446124e-13
0001d0 a0 4d 60 2c f2 2a 2c 2d a1 b5 86 3c 87 82 22 aa
       3.1875405e-12 9.786604e-12 0.01644403 -1.4433776e-13
0001e0 5d e2 1c 3c 80 08 1d 3c 1c 01 d4 39 e0 f5 76 3c
       0.009575454 0.009584546 0.00040436618 0.01507327
0001f0 8b 32 27 3c 61 ce 86 3c 5c 4e 0f 3a fb e0 64 ad
       0.0102049215 0.016455831 0.00054666935 -1.3010255e-11
000200 34 66 eb ab b0 d3 57 2d 1b 84 7a 3c 20 bc 7e 3c
       -1.6726121e-12 1.2268339e-11 0.015290285 0.015547782
000210 11 d1 7e 3c 98 cc 7e 3c f0 3a 9b b7 22 3c 7c 3c
       0.015552775 0.015551709 -1.8504885e-05 0.015395196
000220 86 00 18 3a 1b d1 7e 3c 2a ce 7e 3c 42 42 7e 3c
       0.0005798418 0.015552784 0.015552083 0.015518727
000230 a4 af e7 3b aa 7e 7e bc a0 da 71 3c 61 02 7e bc
       0.0070704985 -0.015533129 0.014761597 -0.015503497
000240 58 81 94 ae 48 8d 7c 3c 8a cb 7e 3c 9d 3c 7c 3c
       -6.753237e-11 0.015414543 0.015551457 0.015395311
000250 19 d1 7e bc d6 87 02 ae 9e aa 72 3c 5c 1b 20 ac
       -0.015552782 -2.9679224e-11 0.014811186 -2.2752555e-12
000260 7f 99 68 3c 49 5f 47 2b b7 c2 aa b5 bf 0e e6 2d
       0.014196753 7.0831237e-13 -1.2722656e-06 2.6154521e-11
000270 08 49 1a 2d ca 44 03 ae 51 22 0e 2d 42 d4 69 2a
       8.770103e-12 -2.984705e-11 8.079385e-12 2.0768199e-13
000280 51 f9 90 2d cc e2 96 aa f8 fb dd 2c 00 d9 2f 3c
       1.6481623e-11 -2.6802725e-13 6.309172e-12 0.010732889
000290 bc bb 0f 3a b0 3c 0e b4 a2 61 77 ac e5 65 fa ad
       0.00054829917 -1.3246859e-07 -3.5155008e-12 -2.846696e-11
0002a0 3a 0f 7d 3c 9d 94 b4 2d 22 79 a0 ad 39 de 17 2c
       0.015445525 2.0529628e-11 -1.8243688e-11 2.158175e-12
0002b0 95 84 d9 a8 bd 18 c0 2d da cb 7e 3c 10 f5 b7 a9
       -2.4149338e-14 2.1838859e-11 0.015551532 -8.169344e-14
0002c0 96 5c a1 2d dc a0 6f ac a1 60 51 ae 76 28 10 ae
       1.8344697e-11 -3.4053238e-12 -4.7606922e-11 -3.2777746e-11
0002d0 92 32 56 2c 76 40 e7 ad 6d e8 0a ae ef 1e 7b 3c
       3.0439301e-12 -2.6290286e-11 -3.1584003e-11 0.015327199
0002e0 e4 99 d6 ac f0 9a 25 3c 75 f3 d9 38 01 98 ad 38
       -6.099331e-12 0.010107741 0.00010392714 8.277596e-05
0002f0 9b 3b 7c 3c 5c 1f f7 37 03 99 7e 3c 63 72 52 b8
       0.01539507 2.9459297e-05 0.0155394105 -5.0174433e-05
000300 fb 78 3c 2e e6 83 4d ad a0 fa ae 2b 8d 7a 84 bc
       4.2853703e-11 -1.1682188e-11 1.2433006e-12 -0.016171718
000310 bb 7a 84 bc bd 7a 84 bc bc 7a 84 bc b7 2f 83 bc
       -0.016171804 -0.016171807 -0.016171806 -0.016013963
000320 0f 7a 84 bc 6c 59 84 bc bd 7a 84 bc be 7a 84 bc
       -0.016171483 -0.01615592 -0.016171807 -0.01617181
000330 b9 7a 84 bc 6d 72 84 bc b8 7a 84 3c 2e 7a 84 bc
       -0.0161718 -0.016167844 0.016171798 -0.016171541
000340 9f 7a 84 3c 12 d6 92 2b 1e 62 82 2c bc 7a 84 bc
       0.016171752 1.043334e-12 3.7057154e-12 -0.016171806
000350 0b 7a 84 bc bd 7a 84 3c fa f5 f8 ab 42 7a 84 bc
       -0.016171476 0.016171807 -1.7689732e-12 -0.016171578
000360 10 72 08 ad 8b 76 84 bc c2 f9 5b ad 58 3b 3b b9
       -7.756032e-12 -0.016169807 -1.2504166e-11 -0.00017855817
000370 42 6c 84 bc 84 74 e4 2a 49 f1 08 ac 00 5f bb ad
       -0.016164903 4.0581785e-13 -1.9460703e-12 -2.1301627e-11
000380 93 c6 28 ad 91 b5 86 2c be 6c 84 bc ce 81 09 ac
       -9.593787e-12 3.828667e-12 -0.016165134 -1.9540927e-12
000390 ab 76 84 bc 1b 50 84 3c ea 18 84 3c 95 6c 18 2a
       -0.016169867 0.016151479 0.016125161 1.3537984e-13
0003a0 e2 dd 37 ad a8 7a 84 bc 3c b2 af 29 74 14 a8 2d
       -1.04516135e-11 -0.016171768 7.80248e-14 1.9108472e-11
0003b0 a4 8b 2a 2d e6 46 18 ad 6b 4e 55 ae bf 7a 84 bc
       9.694388e-12 -8.655942e-12 -4.8500242e-11 -0.016171811
0003c0 78 29 6b ac 58 11 aa aa 66 70 99 2b b3 de 40 2d
       -3.3418528e-12 -3.02101e-13 1.0902501e-12 1.0963386e-11
0003d0 d3 5b f7 2c 0d 17 ca 2d 50 89 4d 2c 4c fd 4b 2d
       7.0303568e-12 2.2974978e-11 2.9208476e-12 1.1595457e-11
0003e0 bc 7a 84 bc ab 71 80 ac 7f 76 84 bc 6c 76 84 bc
       -0.016171806 -3.6505985e-12 -0.016169785 -0.01616975
0003f0 27 76 84 bc 0e 7a 84 bc ae 76 84 bc bc 7a 84 bc
       -0.01616962 -0.016171481 -0.016169872 -0.016171806

state_input.bias f4 [128]
000000 4c 65 28 3a 00 47 72 b0 e2 b9 92 31 ca da 64 37
       0.0006423786 -8.8139984e-10 4.2702917e-09 1.36408e-05
000010 5a 42 34 34 4f 63 d0 b7 07 40 b0 b5 28 ed 04 36
       1.6787945e-07 -2.4841776e-05 -1.3131656e-06 1.9807576e-06
000020 82 b8 8a b3 9a 05 b3 35 50 06 aa 30 09 a7 c9 36
       -6.4596875e-08 1.333817e-06 1.2370922e-09 6.0097123e-06
000030 40 0e f2 2f 10 1a 6b 31 27 a4 46 35 d4 67 2e 39
       4.402967e-10 3.4211816e-09 7.399962e-07 0.00016632612
000040 2a c7 7b b7 f1 04 2d 34 06 35 85 b5 81 b2 1d 37
       -1.5007137e-05 1.6113678e-07 -9.924704e-07 9.39949e-06
000050 d0 f7 a3 38 73 8a 53 b7 8b bc 15 b6 cc 46 b9 b9
       7.818604e-05 -1.2608815e-05 -2.2312477e-06 -0.00035338697
000060 e6 ad cf 36 13 f2 30 af ca 9a c5 33 2c f3 49 b7
       6.189325e-06 -1.6093109e-10 9.201683e-08 -1.20371515e-05
000070 b2 db 80 31 2f 93 9b b9 00 f1 7d b6 a4 e5 5a b8
       3.7502668e-09 -0.00029673564 -3.7840218e-06 -5.218912e-05
000080 35 15 38 3b b0 1b ab b3 2c 95 59 35 d6 7c 06 38
       0.0028088812 -7.967844e-08 8.1055873e-07 3.2064352e-05
000090 f2 b9 1d b4 2d f5 df 32 1c dc c2 34 44 13 a6 39
       -1.4689411e-07 2.607211e-08 3.6295467e-07 0.0003167634
0000a0 c4 42 0f 37 70 96 66 33 5d 06 31 b2 1d 57 57 37
       8.539009e-06 5.368787e-08 -1.0304203e-08 1.2835281e-05
0000b0 ae 5e 08 b3 42 26 8b b1 a3 a1 2e 35 9f a2 f9 39
       -3.1751078e-08 -4.049782e-09 6.5055264e-07 0.00047614143
0000c0 1d 1c be 2d 41 d0 80 37 72 30 40 b2 74 d8 7c 36
       2.1612984e-11 1.5355765e-05 -1.1186886e-08 3.7676919e-06
0000d0 7a 77 e5 37 e5 1b 34 3b 22 4a ec b6 ef e7 b2 32
       2.7354563e-05 0.0027482447 -7.0419783e-06 2.0827398e-08
0000e0 44 79 aa b3 84 e0 a4 36 69 56 c6 35 ea bd 84 bb
       -7.9383e-08 4.913718e-06 1.4777298e-06 -0.00405096
0000f0 7e 07 71 35 76 18 f8 b1 29 05 50 b2 b0 ff 5d 2e
       8.97904e-07 -7.220531e-09 -1.2108367e-08 5.047668e-11
000100 35 db 06 3c 78 76 a0 b2 ce 48 8c 37 de b4 61 32
       0.008230974 -1.8680325e-08 1.6723203e-05 1.3137848e-08
000110 dc 75 9d b2 87 a3 5a b8 94 7b 1d 39 77 5d a4 b8
       -1.8330802e-08 -5.2127547e-05 0.00015018723 -7.8375386e-05
000120 72 c7 4a 32 7b 2d 20 b5 70 6a 66 b9 01 51 a5 36
       1.1803296e-08 -5.967083e-07 -0.0002197416 4.9268133e-06
000130 b3 31 07 b0 c6 0b 5e b8 b7 87 00 b4 a4 c4 5e b8
       -4.918334e-10 -5.293989e-05 -1.1970302e-07 -5.311206e-05
000140 94 0e d0 b0 8e ee d7 b1 07 be d3 30 2e 40 fa 36
       -1.5138135e-09 -6.284444e-09 1.540628e-09 7.458052e-06
000150 09 06 02 39 b0 1c 94 ad b2 bf 9e 35 8e 31 66 2f
       0.00012400014 -1.6838392e-11 1.1827708e-06 2.0935984e-10
000160 59 23 58 38 e7 b3 c5 b0 22 4c 5e 33 18 7f 4e b9
       5.1531333e-05 -1.4384768e-09 5.1757645e-08 -0.00019693037
000170 ba ed 22 b4 47 1e 53 b0 47 c8 87 bb dc 5f 34 33
       -1.517391e-07 -7.680438e-10 -0.004143748 4.19967e-08
000180 c0 4f 6c b0 16 13 6e af 79 25 d6 38 dd 99 96 31
       -8.596963e-10 -2.1652755e-10 0.00010211295 4.383067e-09
000190 c5 01 8b b8 c5 30 95 36 a5 59 37 b3 9e 45 0e b3
       -6.628366e-05 4.4462236e-06 -4.268954e-08 -3.3125268e-08
0001a0 b6 50 9b 33 26 09 e4 38 6f 64 26 b1 d7 89 7c 3b
       7.232431e-08 0.00010873591 -2.421327e-09 0.0038534307
0001b0 5f 25 8e b7 84 64 2e ae 9a 0d bb 32 13 2f 7b ba
       -1.6945121e-05 -3.9652295e-11 2.177585e-08 -0.0009581905
0001c0 be 10 8c b5 52 ce 77 3c 18 ef 80 31 f7 fe f8 32
       -1.0435685e-06 0.015124874 3.752472e-09 2.8986944e-08
0001d0 8c 1b ea 32 5f 82 83 ae c0 00 12 b1 1f b5 b2 2e
       2.7253712e-08 -5.980349e-11 -2.1246223e-09 8.1266764e-11
0001e0 64 2b 9c 32 ca 31 e6 b7 24 7c d0 af fe 8e dc 38
       1.8180522e-08 -2.7441321e-05 -3.7923187e-10 0.00010517052
0001f0 83 6a 89 b5 80 de ae 2f 46 ba cd b9 34 ff 87 b2
       -1.0238294e-06 3.180851e-10 -0.00039239431 -1.5832121e-08

action_input.weight f4 [128, 45]
000000 18 f9 a5 bc a2 a2 f7 ba 23 1d 9b bb b7 de 85 3b
       -0.020260379 -0.0018893073 -0.004733698 0.0040853876
000010 e8 d0 3f 3c 40 6b f6 bb 84 a5 b1 3b f5 21 b2 bc
       0.011707522 -0.0075201094 0.0054213423 -0.021744708
000020 a1 e8 c7 3c 2c 4c 36 3d 21 cf 98 ba 81 d7 a7 bb
       0.024402918 0.044506237 -0.0011658409 -0.0051221256
000030 eb 64 06 3a cc da d1 3c 39 93 14 3c fb 51 7d 3b
       0.0005126732 0.025617026 0.009068304 0.00386536
000040 53 bc 39 3c 5b 8f 88 bc 2d 40 3d 3c d4 2b 9c bb
       0.011336404 -0.01666992 0.011550945 -0.004765967
000050 a7 79 b1 3c e4 3a 28 3d 34 81 e3 3a be de 86 3c
       0.021664454 0.041071787 0.0017357231 0.016463634
000060 7b a2 a9 bc dd 56 6b 3c 7f 89 5a bc 70 67 1a 3d
       -0.02070736 0.014363972 -0.013338446 0.037696302
000070 f0 9e c0 3b 54 4b aa 3c 49 55 8f 3c 86 81 cd bc
       0.005878322 0.020787872 0.017496722 -0.025086176
000080 d4 4d 9d 3c 08 fc f6 bc b8 4d 02 3d 44 01 f2 3c
       0.01920215 -0.030149475 0.0318124 0.02954162
000090 c9 a0 a1 bc a5 e8 e1 bb ff 3b 45 ba 2a ee ab bb
       -0.019729989 -0.0068941885 -0.0007523894 -0.005246897
0000a0 57 d7 a6 3b 04 9d 3e bc b5 a7 46 3c b0 73 45 3c
       0.0050915885 -0.011634115 0.012124945 0.012051508
0000b0 11 fb 0c bc 1c bb 33 bd 26 92 13 bd bf c6 0f bd
       -0.008604781 -0.043879613 -0.03602805 -0.03510165
0000c0 85 bc a8 bc 93 6c d3 3c f5 ae 85 bd 05 63 6c bc
       -0.020597706 0.025808608 -0.06527511 -0.014427905
0000d0 2b e4 12 3c 5d ce 44 3c 26 5b dd 3d e9 c0 8f 3c
       0.008965532 0.012012091 0.10808401 0.017548041
0000e0 f3 2f f2 bc fc a8 03 bd aa ab e0 bb f1 36 3b 3c
       -0.02956388 -0.032143578 -0.0068564015 0.011426673
0000f0 96 5d d6 3c 6f b1 24 3a d1 7c 4c bc bf 4e df 3b
       0.026167672 0.0006282543 -0.01248093 0.006814807
000100 86 77 2b bd fc a2 31 3d cd 0f 36 3d 1d 1f 06 3c
       -0.041862033 0.043368325 0.044448663 0.008186129
000110 54 11 e9 3c e4 e6 23 bd 38 6c 16 3d 3d 63 65 bd
       0.028450646 -0.040015116 0.0367243 -0.056002844
000120 d6 1c 68 3d 68 17 a5 bc 2d 82 6a 3d 26 c2 4a 3d
       0.056668125 -0.020152763 0.05725305 0.04950156
000130 99 01 48 bd f4 bd 89 bc 4f c2 9d bb 26 b2 c5 3c
       -0.04882965 -0.01681421 -0.004814423 0.0241328
000140 07 de 89 3d 88 fb 16 bd 90 1f a4 bb 08 ce c0 bc
       0.067318015 -0.036860973 -0.0050086454 -0.023535743
000150 8e 43 b9 bc 1e 59 64 ba 10 48 59 bd 7f 62 1f 3d
       -0.02261522 -0.0008710789 -0.05304724 0.038912293
000160 4b cd 17 3d 14 c0 ed bb 20 bb 50 3c 25 be 4d 3c
       0.037061017 -0.0072555635 0.012739927 0.012557541
000170 69 59 f4 3c 4f 16 65 3b 7e 5a 8b bc 58 6e fb 3c
       0.02982779 0.0034955924 -0.017010923 0.030692264
000180 c4 94 06 bc a0 56 b5 bc 9f 87 76 3c 24 d3 a4 3c
       -0.008214179 -0.022136033 0.015046983 0.020120211
000190 d7 ac fe 3c 6c b5 00 3c 9f 8b 99 bc b3 18 a0 3a
       0.031088276 0.007855754 -0.018743334 0.0012214392
0001a0 62 8f 8e 3c ff 9c 63 3b ab 7e cf bb 81 2f 8d bc
       0.017402355 0.0034731028 -0.0063322387 -0.017234566
0001b0 27 d4 79 3c 02 0b 53 3c 43 3d b6 3c 87 b6 85 3a
       0.015248335 0.012881042 0.022246009 0.0010201492
0001c0 28 fc ed 3c 3d ad 20 3d ae 02 b1 3c d7 ad cb 3b
       0.029050902 0.039227713 0.021607723 0.0062157917
0001d0 55 9e 77 3b 3a a0 86 bd d8 87 24 bc 9a 02 92 3c
       0.0037783582 -0.065735295 -0.010042153 0.017823506
0001e0 b2 e0 29 bd 25 25 1b bc cc 4d 1c 3d f4 08 68 bb
       -0.04147405 -0.009469305 0.03816013 -0.0035405727
0001f0 45 95 b6 3c 55 09 03 3c 27 51 e2 3c a5 86 48 bd
       0.022287974 0.00799783 0.027626587 -0.048956532
000200 12 c6 fa bb ee dc 46 b9 21 3f 62 3c cf 93 8b 3c
       -0.0076530064 -0.00018965054 0.013808996 0.017038254
000210 4f bc 06 3c f4 60 13 3d f1 7e 5d 3c 0c 76 bd 3c
       0.008223607 0.035981134 0.013519035 0.023127578
000220 d5 24 0c 3d d9 1b 4c 3d f5 3c c4 3c 83 67 40 bd
       0.034214813 0.049831245 0.023954848 -0.046973716
000230 05 69 ab 3d 46 27 c7 3b 87 2f f1 bb 9b e3 1a bb
       0.0836964 0.00607768 -0.007360402 -0.0023634199
000240 75 25 b9 bd f7 12 89 bc 27 75 34 3d c9 a1 cd ba
       -0.090403475 -0.016732676 0.044057038 -0.0015688475
000250 bc 7a 73 3c ec 5d b8 bc 86 cf e7 bc dd aa 3c 3b
       0.014860805 -0.022505723 -0.028297197 0.0028788366
000260 42 59 0f 3d cd 36 1f bc d8 06 44 3c 28 9c 35 bd
       0.034997232 -0.009717655 0.011964522 -0.044338375
000270 aa 3b 48 bd 35 26 ad bc 1c 24 12 bd 09 a3 cd 3c
       -0.048885025 -0.021136383 -0.035678968 0.025102155
000280 67 20 e5 bc fa 54 04 3d a4 50 8d bd 21 95 ac 3c
       -0.027969552 0.032307602 -0.069001466 0.021067204
000290 81 2f 98 bd 9c c7 79 bd b0 d2 78 3d 65 7a 79 bb
       -0.07430936 -0.060981378 0.060747802 -0.0038067338
0002a0 b8 2c d6 3b 56 fa f3 bc ea 72 73 bd a9 8b 0f 3d
       0.0065360926 -0.029782455 -0.059435762 0.0350453
0002b0 18 45 c8 3a 90 17 cb 3c 05 e4 a6 3c d5 e2 26 3c
       0.0015279381 0.024791509 0.0203724 0.010185917
0002c0 40 05 64 3d 81 d7 28 bd ff de cc bc 31 3b 43 3c
       0.05566907 -0.041221146 -0.025008677 0.011915968
0002d0 d6 ec 02 3d f1 63 23 3d 3f 3c 24 3d 19 e0 1d 3d
       0.031964146 0.039890233 0.040096518 0.038543794
0002e0 c5 91 4d bd 1c 92 96 3d b7 74 83 3c d1 6c 1c bb
       -0.050187845 0.07352087 0.016046865 -0.002386857
0002f0 85 96 bb bb 37 94 d6 bd 5d eb 8b bc 6a 41 43 3d
       -0.0057247304 -0.104774885 -0.017080003 0.047669806
000300 5c df 6f 3c f1 77 95 3c 09 0a b1 bb 72 93 1d bd
       0.014640655 0.01824567 -0.0054028076 -0.038470693
000310 d4 cb c0 bc 33 fe c1 3c 33 e7 88 3a 28 d3 d1 3c
       -0.023534693 0.023680782 0.0010444879 0.025613382
000320 98 4c 3e bd 7e e9 e8 bc ec 44 f6 bc 25 52 b2 bc
       -0.046459764 -0.02843165 -0.030062161 -0.021767685
000330 02 94 d1 3c cf f0 ee 3a bb 92 5f 3d 21 16 80 bd
       0.025583271 0.0018229726 0.054583292 -0.06254221
000340 32 32 fb bb a6 3c f6 bc d7 a0 4c bd 70 8f 2c 3d
       -0.007665896 -0.030058216 -0.049958076 0.04212898
000350 eb 40 9f 3c ac 24 b8 3c d1 4f ed bc 5a 7d 91 bd
       0.019440135 0.022478424 -0.028968723 -0.07103987
000360 ef dd 77 3d c0 5c fa ba 8b c5 72 3c 6a 4f b0 3c
       0.060514387 -0.0019101128 0.014817606 0.021522243
000370 f7 22 f7 3b 21 d7 6a 3d 9e 69 5e bd 96 7b b8 bc
       0.00754201 0.05733407 -0.054299943 -0.022519868
000380 bb e9 5d 3c ba b1 c9 3b 97 c5 84 bd a1 d6 fc bc
       0.013544495 0.00615522 -0.06483 -0.030864062
000390 37 71 a6 bc c3 4d 60 3d 28 b8 a4 bd 1c 85 9a 3c
       -0.020317657 0.05476166 -0.080429375 0.0188623
0003a0 09 4b e9 3c b1 a0 fc 39 d2 68 ab 3d 73 de 40 3c
       0.028478162 0.0004818491 0.08369602 0.011771786
0003b0 17 83 a8 bc 15 14 75 3a 04 73 d0 bb 1d 6a 88 3c
       -0.020570321 0.0009349001 -0.006361367 0.016652161
0003c0 85 e8 14 3d eb b5 7b 3d 52 88 ca bc c8 93 ae 3b
       0.03635456 0.061452787 -0.024723206 0.0053276755
0003d0 87 fa a6 bc d7 81 4f 3d 0f 11 eb 3c cc 4f ad bc
       -0.020383133 0.050660934 0.028694658 -0.021156214
0003e0 ff cd 98 3b e8 72 1e bb b9 1f 15 39 2c c1 6a bd
       0.0046632285 -0.0024177376 0.00014221565 -0.05731313
0003f0 c0 4d 92 3d bf 72 03 3d f0 8b 1e 3d ce 79 b3 3d
       0.07143736 0.032091852 0.038707674 0.08763467

action_input.bias f4 [128]
000000 15 aa 92 3d 03 18 11 bd 0e 19 96 bd 15 62 82 3c
       0.07161347 -0.03542329 -0.073289976 0.01591591
000010 06 57 bc 3b af 65 a1 bd 55 75 a9 bd 55 f9 06 3d
       0.0057476787 -0.07880723 -0.082743324 0.032952625
000020 b3 ca 29 3d 4b cf f7 3c 12 21 08 3d ee e6 70 bd
       0.041453075 0.030250212 0.033234663 -0.05881398
000030 aa ac ef 3c 06 8a 19 3c 4e c4 64 bd 77 0e 21 3d
       0.029257137 0.009371286 -0.055851273 0.039320435
000040 23 e6 9a 3c 9d 3a 72 3d ac b5 72 3d bf 43 57 3c
       0.018908566 0.05913793 0.059255287 0.0131387105
000050 95 10 4e bc fb af 59 bd 40 38 af bd a6 f8 2e 3d
       -0.012577196 -0.053146344 -0.08555651 0.0427176
000060 dd e8 ce 3d 1f 1c a0 ba 52 7f c1 bd d2 2d 0a bc
       0.10103009 -0.0012215412 -0.094481125 -0.008433776
000070 b7 f7 82 3d 70 f2 9f 3d 3a 25 9f 3d 35 f6 22 3c
       0.06394904 0.07809913 0.07770772 0.009946396
000080 5f 38 54 3d 2e e1 08 bd 11 4a 40 3d 9e 22 53 3c
       0.051811572 -0.033417873 0.046945635 0.012886671
000090 a6 0b 82 bd e9 bb e7 bb e9 c1 0a 3d b8 50 3b 3d
       -0.06349878 -0.007071961 0.033876333 0.045731276
0000a0 87 5c e1 3d 19 1a de 3d c8 2d 67 3d 34 ca 0a 3b
       0.11003976 0.108448215 0.056440145 0.0021177651
0000b0 1c b8 36 3d b7 43 9b bd 6d 36 6f bd ff f5 98 3d
       0.044609174 -0.07581275 -0.058401514 0.07468795
0000c0 aa f3 89 bc 4e 91 9c bc ec ce 7f bd c8 1a a6 bd
       -0.01683982 -0.019112255 -0.062453195 -0.08110577
0000d0 20 75 af bd 24 22 11 bd db e9 26 3d 4d 1b 16 3d
       -0.08567262 -0.03543295 0.040750366 0.03664713
0000e0 c5 d9 8a 3d d3 52 93 3d 80 d6 c5 bc 94 44 5b bd
       0.067798175 0.07193532 -0.024150133 -0.053532198
0000f0 90 6f 44 bd cf c5 c5 3c 49 ce 83 3c cb e2 a7 3d
       -0.047957957 0.024142174 0.016089575 0.08197554
000100 49 d4 13 bd 82 6d c4 bd 8c e2 be bd cc 15 8b bd
       -0.036091123 -0.095911995 -0.09320554 -0.06791267
000110 2f aa 71 3d 79 fd 76 bd ca 48 0d 3c 9f 07 c1 3d
       0.05900019 -0.060300324 0.008623311 0.09425282
000120 68 47 49 bd 62 5d cb 3d da 42 65 3d ff 81 d2 bd
       -0.049140364 0.09929921 0.055971958 -0.10278701
000130 29 6d 9f 3c 0b c3 48 3c 4c f8 a9 3d bd d3 11 3d
       0.019461231 0.012253533 0.08299312 0.03560232
000140 d0 98 4f bc a4 02 54 3c eb 8e 1a 3c 38 c2 c8 3c
       -0.012670711 0.012940083 0.009433488 0.024506673
000150 e4 7b 69 3d f9 9d ae bd 98 57 d7 b6 4a 21 9e bc
       0.057002917 -0.08526225 -6.4176966e-06 -0.019302983
000160 dc 95 86 3d f6 14 63 bd d8 f0 ca bd d5 56 89 bd
       0.06571552 -0.05543991 -0.099092185 -0.06706015
000170 ec 50 ad 3d 51 f5 ce 3d 35 0a 3e 3d 61 32 16 bc
       0.084627 0.10105384 0.046396453 -0.009167285
000180 6a 2b 84 3d 6f 97 88 3c 43 e0 9f bd 88 c8 c1 bd
       0.06453593 0.016673772 -0.078064464 -0.094620764
000190 8f 8a ea bc 2f 14 80 3d 63 38 9d 3c f4 42 17 bd
       -0.028630523 0.0625385 0.019191926 -0.036929086
0001a0 b1 e6 c2 bd 61 44 66 bd 55 15 53 3d 6c 5d 98 3d
       -0.09516657 -0.056217555 0.051534016 0.07439694
0001b0 e4 09 16 3d 90 3b 01 bd ad 2e 98 3d 32 e7 a8 3d
       0.036630526 -0.031550944 0.07430778 0.08247222
0001c0 3f c2 9a 3d fa 8c 4e bd ef 8e 7d 3d 0f da 6d bd
       0.07556581 -0.050427414 0.06190389 -0.058069285
0001d0 a3 ce 84 3d 02 2f 9c 3d 03 66 58 3b 6d f8 23 3d
       0.06484725 0.076261535 0.0033019788 0.04003184
0001e0 a0 ac 95 3d 74 1a 80 bd 72 4a 8b bd ac d6 ad bd
       0.07308316 -0.062550455 -0.06801309 -0.08488211
0001f0 6d 7e 77 bc 98 c4 31 3d 8a 10 b3 bd dd e7 57 3d
       -0.015105826 0.043400377 -0.08743389 0.052711356

layers.0.weight f4 [256, 256]
000000 e5 7c c3 bb 5b 2f fe 3b ac dd c4 3c 22 08 f6 3b
       -0.0059658163 0.00775711 0.024031483 0.0075082937
000010 2d ce 39 3b 44 25 5f bb d3 9a 07 bc bb 8a 20 39
       0.002835165 -0.0034049312 -0.008276659 0.0001531047
000020 ca 3f ed bb b5 7f 5a 3c fe 67 b4 3c 38 de 9c bc
       -0.0072402703 0.013336112 0.022022244 -0.01914893
000030 6d 30 1c 3b 1a 09 dd 3b e4 93 75 bb 02 fd 94 ba
       0.0023832575 0.0067454698 -0.0037472183 -0.0011366906
000040 0a 60 ec 3b 43 8c 0b 3c 00 27 ae bc d2 b9 36 bc
       0.007213597 0.008517328 -0.021258831 -0.011152701
000050 4b 67 96 3c 7a 42 19 ba 86 23 ec 3c 75 e1 54 bc
       0.0183598 -0.00058463926 0.028825533 -0.012993206
000060 39 b2 0c bb 4d 24 50 bc f4 a4 01 bb 6c cc 92 bc
       -0.0021468534 -0.012703967 -0.0019782158 -0.017919742
000070 4a f2 3e bb 60 89 5b bc ec 6e bd 3c d1 9c f5 bb
       -0.0029136115 -0.013399452 0.02312418 -0.0074955006
000080 77 81 9c bc 5b f4 87 3b fe 5e df bb 23 15 14 bc
       -0.019104702 0.0041490025 -0.006816744 -0.0090382425
000090 4d b8 9b bc b6 d8 9a bc 1c 92 48 3c 53 f8 34 3c
       -0.01900878 -0.018902164 0.012241866 0.011045533
0000a0 4c b0 26 3b 30 bc 82 bc 57 23 88 37 43 17 66 bc
       0.002543467 -0.015958875 1.622892e-05 -0.014043632
0000b0 26 db a4 ba 0e 98 a6 3c f5 a3 c5 bb 3e d1 6f 3c
       -0.0012577518 0.020336177 -0.006031508 0.01463729
0000c0 35 ff 7b 3a be 11 3d 3b d7 64 28 3c 47 be 5d bb
       0.0009612919 0.0028849686 0.010277948 -0.0033835338
0000d0 e1 19 1c bb 9c 94 4e ba ba a7 9a bc 19 c7 85 3b
       -0.0023819136 -0.0007880421 -0.018878806 0.004082572
0000e0 8c ec c0 bb b9 3c 34 3b 7d b7 33 bc 55 c0 55 bc
       -0.0058875736 0.0027502014 -0.01096904 -0.013046344
0000f0 85 4b 75 bc 94 bc 5f 3b 15 f7 b8 bb b9 aa 1b 3c
       -0.014971619 0.00341395 -0.005644689 0.009501153
000100 dd 9d 6d 3b 2b e9 71 3b d2 cf 58 bb 7a a6 0e 3c
       0.0036257424 0.003691266 -0.0033082855 0.008706683
000110 ba d1 00 bc 2b 93 cf 3a 54 fa 9d bc 47 5c 01 bb
       -0.007862503 0.0015836706 -0.019284405 -0.001973884
000120 36 43 8c bc ed 8f 81 bc 46 cf b7 bc f4 53 4b 3b
       -0.017121892 -0.0158157 -0.022437703 0.0031025382
000130 a6 c8 90 bc 22 e9 04 bc 33 b1 63 3c e4 f2 9c bb
       -0.017673802 -0.008112224 0.013897228 -0.004789697
000140 ff 33 e8 3a a4 56 93 3c 88 5e ce 3b f3 3e 36 bc
       0.0017715691 0.01798565 0.00629789 -0.011123407
000150 e5 8c cb 3a 5f 87 0b 3c 97 99 29 3c 79 e3 a1 bb
       0.0015529661 0.008516162 0.01035156 -0.004940447
000160 bb 3a da bb 82 4e d9 bb f3 42 05 bc d7 4c cb bb
       -0.0066598332 -0.0066316733 -0.008133638 -0.0062042284
000170 2e 7d 05 bc 76 40 ca 3a 3c 80 37 3b 59 a2 4e bc
       -0.008147521 0.0015430588 0.0028000018 -0.012611949
000180 26 e1 2c bc e0 ac 0f 3c 01 c8 11 bc 42 95 b4 3c
       -0.010551726 0.008769244 -0.008897782 0.022043828
000190 ba c4 fc 3b 6f bb c6 bb 5c b2 3b 3c 3e 22 0e 3c
       0.0077138813 -0.0060648243 0.011456098 0.008675156
0001a0 91 ec 95 3b ae e4 e4 3b b4 51 d5 ba 63 50 c0 bb
       0.00457532 0.0069852686 -0.001627496 -0.005868958
0001b0 e1 db 5c bc c7 62 80 bb 7c b8 6c 38 14 43 db bb
       -0.013480158 -0.003918025 5.64386e-05 -0.006691346
0001c0 b8 91 19 bc ad ce 29 3c 65 9e d8 bb 43 d0 c5 ba
       -0.009373121 0.010364217 -0.006610679 -0.0015091974
0001d0 95 5e 8c 3c 2d 8b 5e bc b9 e7 1f bc bd 8c 10 3c
       0.017134944 -0.013582987 -0.009759837 0.008822617
0001e0 11 e5 ca 3a d5 19 0a 3c 7f f5 d4 bc e4 cc 69 3c
       0.0015479644 0.00842901 -0.025995968 0.014270041
0001f0 62 37 03 3c e0 55 df 3a 10 0f a1 3b 74 17 e0 bc
       0.00800881 0.0017039143 0.0049151257 -0.027354933
000200 a4 b4 ad 3c ba 57 2b 3d dc 5b e5 3c 24 a4 27 bd
       0.0212043 0.04183171 0.027997904 -0.04092802
000210 98 ce 37 bd 4e e8 53 3c 40 4e b5 3b c0 3a bb bc
       -0.044874758 0.012933804 0.00553301 -0.022855163
000220 b3 5a cc bc cd 01 0a bd c2 9e 97 b8 a6 92 44 3c
       -0.024945593 -0.033693124 -7.229812e-05 0.011997854
000230 9d 59 c2 bb 2e f5 2b 3d c5 65 5f bc 22 35 9a bc
       -0.005931093 0.04198187 -0.013635104 -0.018824164
000240 83 f4 54 3c 05 f9 d4 3c 53 87 96 3c dd 23 2f bd
       0.012997749 0.025997648 0.018375074 -0.04275881
000250 a8 ec b0 3c e7 17 01 bc 13 87 92 bc 29 ce 5b ba
       0.021597221 -0.007879234 -0.017886674 -0.0008384907
000260 c1 3a dd 3b 10 73 f9 3c be 13 b0 bc a3 46 1d 3c
       0.006751389 0.030450374 -0.021493789 0.009599361
000270 2a f9 85 bc 9b 54 0d 3c 00 94 98 bc b9 6c de bc
       -0.016354162 0.008626129 -0.01862526 -0.027151452
000280 fa 63 f1 bc 19 6a 3d 3d 60 96 4e bd 47 e1 86 3c
       -0.029466618 0.04624376 -0.050436378 0.016464842
000290 6c 81 fc bc 90 82 29 bd f1 4f 43 bc c8 08 86 bc
       -0.030823432 -0.04138428 -0.011920915 -0.01636161
0002a0 40 2d dc 3a 84 f1 88 3c e6 ff 2e bd 3c 06 f8 bc
       0.0016798154 0.016716726 -0.042724513 -0.03027641
0002b0 e5 15 df 3c 16 a5 7f 3c 69 36 4b 3c 77 3d 72 3b
       0.02723212 0.015603324 0.012403109 0.0036962905
0002c0 48 38 39 bd 3b aa 81 ba 9f 02 83 bc 09 39 1d 3c
       -0.04521969 -0.0009892652 -0.01599246 0.009596118
0002d0 44 af d8 bb 07 6b 8f 3c fb 26 13 bc b7 1d a7 3c
       -0.00661269 0.01750709 -0.008981462 0.020399911
0002e0 8c 0f 9b 3c f8 7a fe 3b 3d 87 b5 3c fd ce a8 3c
       0.018928312 0.007766124 0.022159213 0.020606512
0002f0 4a 3f 77 3c a0 f7 a0 3c f8 eb f8 bc 4d 9b 8d 3c
       0.015090773 0.019649327 -0.030385956 0.017285967
000300 b5 04 09 bd 74 89 09 3b 57 8a 0b bd 64 e0 a8 bc
       -0.033451755 0.002098647 -0.034067478 -0.02061481
000310 a1 17 4c bc ee e7 9e bc b6 db a4 3b e0 5a e2 bc
       -0.012456805 -0.019397702 0.0050310744 -0.027631223
000320 34 da 96 3c fc fa 61 3c 62 d7 f6 3c 40 11 ba bc
       0.018414594 0.0137927495 0.030132 -0.022713304
000330 50 6b b3 bc 3a 91 3a 3d 81 3e 01 3d 40 35 60 3d
       -0.021901757 0.045548655 0.03155375 0.054738283
000340 ab c1 11 bd 3c e0 da bb e2 97 35 bc 85 a9 d4 bc
       -0.035585087 -0.006679563 -0.011083575 -0.02595974
000350 e4 5a a2 bc 1c 61 9e bc 28 1e 1f bd 72 06 28 3d
       -0.01981873 -0.019333415 -0.03884712 0.04102177
000360 fe 35 0b bd b6 2e f9 bc 8c 28 d7 3c 47 42 a7 3c
       -0.033987038 -0.030417781 0.026264451 0.020417346
000370 f2 ff e8 bc 20 0c 93 3c 74 ad 92 3c e4 0b 08 bb
       -0.028442357 0.017950118 0.017904975 -0.002075904
000380 49 85 a9 bb ac d3 4a bd b4 39 50 3c 72 c0 ed 3b
       -0.0051733595 -0.049518272 0.01270907 0.0072556073
000390 43 d7 87 bd 2b 67 8c bc 3d 1f 44 bc 62 51 9e 3b
       -0.06632855 -0.017139038 -0.011970338 0.004831479
0003a0 a4 f7 c5 3c 17 33 62 bb 24 57 0f bd 09 58 8b bc
       0.024165936 -0.0034515315 -0.034995213 -0.017009752
0003b0 61 75 2d 3d 80 d4 92 3c 75 53 fa bc ba 6b f3 bc
       0.04234827 0.017923594 -0.030557374 -0.029714454
0003c0 ea c6 c8 ba ba 0b 6e bc c6 1d 63 3c e8 00 59 bb
       -0.001531807 -0.014529163 0.013862079 -0.0033112112
0003d0 05 b6 f5 bc 89 3d 01 bd 49 96 d7 bc 00 a5 7a bc
       -0.02999402 -0.031552825 -0.026316779 -0.015298128
0003e0 52 0d 91 3c 5d 2a 13 3d 06 17 b9 bc 67 7b e6 bc
       0.017706547 0.035929073 -0.022593986 -0.028135015
0003f0 cc b8 bd bb 2c 97 53 bd 37 56 8a bc 09 fb 86 3c
       -0.005789852 -0.05165784 -0.016886814 0.016477125

layers.0.bias f4 [256]
000000 ca 68 42 3c 00 35 36 bc b7 4c d9 bd 0f 21 c4 3c
       0.011865804 -0.011121035 -0.10610335 0.023941545
000010 ea 52 c7 bd bf e1 91 3d 39 80 95 3d b3 0e de bc
       -0.097326115 0.07123136 0.07299847 -0.027106619
000020 24 ce 03 3d 55 b9 ab bd be fa 20 bd 8e bc 0e bd
       0.032179013 -0.08384959 -0.039301626 -0.03484779
000030 33 9e 1e bd c2 73 d4 bc 3f a5 1b bd af 31 98 3d
       -0.03872509 -0.025934104 -0.037999388 0.074313514
000040 2c b3 56 3c e6 4e 9e 3d 0b 5d 8d b9 4f 08 85 3d
       0.013104241 0.077298924 -0.00026962938 0.06495725
000050 b5 1f af bd 4a a7 5c 3c 4d 21 cb 3c 7d 0f ae 3d
       -0.085509695 0.013467619 0.024796152 0.08499048
000060 f2 1f 6e 3d 7a 42 af bd 57 5d 15 3c 74 78 02 39
       0.058135934 -0.08557601 0.009116492 0.00012442638
000070 31 f1 b9 bc 49 28 ab bd 21 25 1f bc af d1 ad 3d
       -0.022698017 -0.08357293 -0.009713442 0.084872596
000080 ce d1 4e bd 99 cc 8b 3c aa b7 70 bd b0 49 86 3d
       -0.050493054 0.017065333 -0.058768906 0.065570235
000090 77 e2 9d 3d d9 4c d8 bc c5 70 b7 bc 81 d4 7c 3b
       0.0770921 -0.026403831 -0.02239264 0.003857881
0000a0 f1 eb 2e 3d f3 6d d7 3d 5b 61 8e bd e2 1a 40 3d
       0.04270548 0.10519018 -0.06952163 0.046900637
0000b0 c4 86 de bc be 22 5c 3d 8f dd 83 bd 95 46 74 3d
       -0.02716387 0.05374407 -0.06438743 0.059637625
0000c0 90 b2 67 3d 67 e7 92 3d 2d 04 9f bd f5 47 bd 3b
       0.056566775 0.07173043 -0.07764468 0.0057764
0000d0 cd 7a 11 3d c0 87 e7 bd 67 ed 20 bc 4d 60 92 3c
       0.035517503 -0.11305189 -0.009822226 0.017868185
0000e0 fc 81 af 3d a4 72 a3 bd 18 0a 9d bd b0 78 d3 bd
       0.085697144 -0.0798085 -0.07667941 -0.10325754
0000f0 86 20 b7 bc fc e2 ac bc a7 11 b7 3d 2c 54 9b bd
       -0.022354376 -0.021104328 0.08938914 -0.07584414
000100 74 4f 85 3c 1f 84 81 3d bd f2 3b 3d 93 12 72 ba
       0.016273238 0.06324028 0.04588579 -0.0009234335
000110 10 68 33 bd 6a 0e 58 3c e7 ee 95 bd 58 13 dc 3c
       -0.043800414 0.01318703 -0.07320958 0.026864693
000120 5b 66 ad bd 37 d6 53 3d 29 aa c4 bd ce b6 a5 bc
       -0.084667884 0.051717963 -0.09602768 -0.02022877
000130 60 1e 4e bd cc ab 86 bb fd 14 c9 bd 52 df ba bd
       -0.050321937 -0.0041098353 -0.09818456 -0.09124626
000140 a1 58 45 bd 38 94 b0 bb a9 33 cf 3c ad 47 b5 bc
       -0.048180226 -0.005388763 0.025293188 -0.022128904
000150 87 da 1c bd 1d 4a 68 bd 6e a7 d9 bc b4 cd a7 3d
       -0.03829434 -0.056711305 -0.026569095 0.08193532
000160 ac 53 3e 3d f4 1b ae 3d 22 bf 99 3d 3c ca 8e bc
       0.046466514 0.085014254 0.07507159 -0.017430417
000170 59 bc 85 bc f6 40 46 3d 3a 5f 2f bd f8 b3 00 bd
       -0.016325163 0.048401795 -0.042815425 -0.03142163
000180 24 aa 86 bb 5f 1e 89 3c f2 cd 2f 3c c5 3a 47 bd
       -0.004109638 0.016738115 0.0107302535 -0.04864003
000190 22 d4 88 3d af 47 a2 bc 4e b0 0e bd b4 c4 b1 3c
       0.06681086 -0.019809572 -0.034836106 0.02170024
0001a0 2b 36 40 3d a2 3c 6b bc fd 4f 24 3d 7d 47 a4 bd
       0.04692666 -0.014357718 0.040115345 -0.08021448
0001b0 03 10 c8 3d 97 2d a1 3c 1e 58 e7 3c d1 be 11 3d
       0.09768679 0.01967506 0.02824026 0.035582367
0001c0 ef fc f0 bc e2 3c 00 bd e0 57 f0 3b c4 ad bb 3d
       -0.029417483 -0.031308062 0.0073346943 0.091640025
0001d0 7c 31 0a bd 5a 68 8e bd 4c 48 f8 3b a1 00 10 3d
       -0.0337386 -0.06953497 0.007576978 0.03515685
0001e0 62 66 3c 3c 93 37 ae bc 00 e4 98 3d fb 64 36 3c
       0.011499019 -0.021266734 0.074653625 0.011132474
0001f0 3e c9 8e bd 42 4d 2d 3c 80 0b 1a 3d df 1c ad 3d
       -0.06971978 0.010577502 0.037608624 0.08452772
000200 5b 04 2c bd 84 5a e5 bc 51 14 01 bd 39 89 81 bd
       -0.04199634 -0.027997263 -0.031513516 -0.06325001
000210 45 2c d4 3d 74 39 1a 3d a4 b3 26 3d 52 cd 9a bc
       0.10360006 0.037652448 0.040698662 -0.018896732
000220 bc d1 e0 3c b4 0c 99 bd 55 4e 4e bc 49 83 dd 3d
       0.02744376 -0.07473126 -0.012591918 0.10816056
000230 3d 0f 08 3d 7a d4 50 3d 88 23 b5 bd fa 16 21 bd
       0.033217657 0.050983883 -0.08844668 -0.039328553
000240 e4 af 78 bc df fa 0f bd 0f 79 8c bd a0 1e cf 3c
       -0.015178654 -0.03515136 -0.068590276 0.025283158
000250 bd 50 37 3d 3f b1 c7 3c 22 4d e6 3c ba 35 7c bd
       0.044754732 0.02437651 0.028112952 -0.061574675
000260 7b 1b 85 3d ff 9b c1 3d 03 a7 fa bc c9 c0 04 3d
       0.06499382 0.09453582 -0.030597216 0.032410417
000270 47 8c c3 3d 04 0c e5 bd e4 25 04 bc 00 f4 b1 3d
       0.0954824 -0.111839324 -0.008065674 0.086891174
000280 96 1a 40 3d a7 3d b3 bd c9 3f 83 bd ff bf 21 bd
       0.046900354 -0.087519936 -0.064086504 -0.039489742
000290 ed a5 68 bd c4 56 81 bb 77 78 fd 3b c8 ec 00 3d
       -0.056798864 -0.003947111 0.007735308 0.031475812
0002a0 a8 8b bb 3b 3d ae 40 bd 83 3f 4b bc 86 b5 b1 bb
       0.0057234354 -0.047041167 -0.012405279 -0.0054232506
0002b0 54 65 32 b8 44 f2 ff 3a 8f 69 2d bd 79 fb 64 bd
       -4.2532876e-05 0.0019527157 -0.042336997 -0.055903886
0002c0 a5 db a8 3d b9 9e 11 bd 81 e9 9c 3b 6f bf 03 3d
       0.08245019 -0.03555176 0.004788578 0.032164987
0002d0 0e 26 89 3c ed eb c9 bd 9e 42 75 bc e1 71 50 3c
       0.016741779 -0.098594524 -0.014969496 0.012722463
0002e0 35 b6 95 3d 93 41 49 3c 45 fa 45 bd cc 0e 11 3d
       0.07310144 0.0122837005 -0.04833438 0.035414502
0002f0 fd c4 bb bb 19 ad 95 3d 29 d4 9f bd 8c 44 2b 3d
       -0.00573027 0.073084064 -0.07804138 0.04181342
000300 4c 78 b8 3d 69 6f 04 bd 46 02 0f 3d e6 88 26 3c
       0.0900732 -0.03233281 0.034914277 0.010164475
000310 4c b2 8e 3c 04 a3 65 3c 42 7a ce bd b4 95 37 bd
       0.017419003 0.014015917 -0.100819126 -0.044820502
000320 b4 3b be 3d a5 2e f3 bb 3b 2f 4a 3d 09 39 94 bd
       0.09288731 -0.007421332 0.04936145 -0.07237441
000330 1d 96 bb 3d 06 10 2b bc 0e 40 9a 3d 8c e4 58 bb
       0.09159491 -0.010440832 0.07531749 -0.003309521
000340 26 52 1e 3d c1 c3 89 3d fa 1b 00 bd 93 5c a9 3d
       0.03865256 0.0672679 -0.03127668 0.0826961
000350 e1 30 31 b9 35 1f 5f bd 5a 96 0f bd 9d 07 82 bd
       -0.00016898244 -0.05447312 -0.035055496 -0.06349108
000360 f3 b8 9e bd 4c 84 d0 3b 47 ac ae 3d 56 3d 81 bd
       -0.0775012 0.0063634273 0.08528953 -0.06310527
000370 51 86 34 3d 45 59 57 bc 47 c6 a4 3d 54 b8 53 3d
       0.044073407 -0.013143842 0.08045631 0.05168946
000380 9d 73 49 3d fd d2 3c 3d 22 5f b5 bd b6 1d 33 bc
       0.049182523 0.04609965 -0.08856036 -0.010932377
000390 b6 9e 91 bc 14 23 a4 bd 14 11 3c 3d a9 0b 9f 3d
       -0.017775875 -0.08014503 0.045914724 0.07765896
0003a0 0f 59 22 bd af b3 82 3d 59 1f 15 bc f4 54 28 bd
       -0.039635714 0.06381928 -0.009101712 -0.041096643
0003b0 ed 94 71 3d 05 ef 1d bd 02 67 b7 bd 48 a6 c0 bd
       0.058979917 -0.038558025 -0.08955194 -0.09406716
0003c0 41 40 68 3c f2 a0 df 3a f3 15 95 3c 53 37 36 3a
       0.014175476 0.0017061515 0.018198943 0.0006950993
0003d0 a6 53 20 bd 58 95 8e 3c 7a b9 fc bd 01 05 bc bd
       -0.039142273 0.017405197 -0.12340064 -0.09180642
0003e0 c8 4f 70 bd d7 05 44 bd 19 0b 8d bd 64 bf 87 bd
       -0.058669835 -0.04785713 -0.06886882 -0.06628302
0003f0 43 10 9f 3d b4 f1 49 3d c0 91 9e 3b e4 1b 8c 3d
       0.077667736 0.04930277 0.004839152 0.06841257

layers.3.weight f4 [256]
000000 c0 b6 7d 3f 50 17 78 3f b5 cb 7a 3f 32 b4 7a 3f
       0.9910698 0.9691057 0.9796708 0.97931206
000010 a3 87 79 3f 0e b5 77 3f ba 4f 7f 3f 7d 5e 7e 3f
       0.9747259 0.9676064 0.9973103 0.9936293
000020 09 7f 79 3f 1a c8 78 3f 2e 2c 81 3f e0 48 80 3f
       0.97459465 0.9718033 1.0091608 1.002224
000030 01 47 80 3f 8f 19 7f 3f 09 61 79 3f 7b 4c 7d 3f
       1.0021669 0.99648374 0.9741369 0.98944825
000040 07 e7 82 3f 32 80 79 3f c2 87 7d 3f 6c f3 82 3f
       1.0226754 0.97461236 0.99035275 1.0230536
000050 46 3d 7d 3f ee bb 7c 3f 22 7f 7b 3f 25 7c 7d 3f
       0.9892162 0.9872426 0.98240864 0.99017555
000060 65 9d 76 3f e9 7b 76 3f bf 6b 80 3f 92 82 82 3f
       0.96333915 0.9628282 1.0032881 1.0196097
000070 0a ec 80 3f 2e dc 7e 3f b8 0f 81 3f cf db 7b 3f
       1.0072033 0.9955472 1.0082922 0.98382276
000080 d1 c1 78 3f 4c 91 79 3f 3f 74 77 3f ae cb 7d 3f
       0.9717074 0.9748733 0.9666175 0.99138916
000090 cb e4 79 3f cf 4d 7d 3f 58 a4 7e 3f 28 52 78 3f
       0.97614735 0.9894685 0.9946952 0.9700036
0000a0 fd c0 76 3f 6f f4 79 3f 7c bb 7a 3f ac 7e 7f 3f
       0.96388227 0.976386 0.9794233 0.9980266
0000b0 d3 c5 80 3f d0 b1 7c 3f f4 1f 80 3f 63 ca 76 3f
       1.0060371 0.9870882 1.0009751 0.9640257
0000c0 d1 8f 7e 3f 53 55 79 3f cd 63 79 3f bf 55 83 3f
       0.99438196 0.9739582 0.9741791 1.0260543
0000d0 cd fa 74 3f c8 52 7d 3f f0 2d 78 3f 9d a2 7f 3f
       0.9569519 0.9895444 0.96945095 0.99857503
0000e0 98 18 7c 3f 28 86 78 3f 26 87 79 3f 1f 95 75 3f
       0.9847503 0.97079706 0.97471845 0.95930666
0000f0 34 a4 82 3f f0 f3 7a 3f de 15 7a 3f f6 88 7d 3f
       1.0206361 0.9802847 0.97689617 0.9903711
000100 d5 d8 80 3f 1a 47 7d 3f 93 5a 7d 3f aa 6a 7e 3f
       1.0066172 0.9893662 0.9896633 0.99381506
000110 c7 ad 75 3f f6 df 77 3f e0 3a 7f 3f 46 68 80 3f
       0.9596829 0.9682611 0.9969921 1.0031822
000120 66 0a 7a 3f 31 21 79 3f b6 2f 76 3f 31 f6 7c 3f
       0.97672117 0.9731627 0.9616655 0.9881316
000130 0a 83 7f 3f a0 ff 74 3f 62 42 7b 3f 5b a8 7b 3f
       0.99809325 0.9570255 0.9814817 0.98303765
000140 97 59 80 3f e8 60 79 3f 81 1a 7b 3f db 7d 80 3f
       1.0027341 0.9741349 0.98087317 1.0038408
000150 6e 00 7a 3f 93 d4 81 3f 41 ae 7e 3f c3 d5 7e 3f
       0.97656906 1.0142998 0.9948464 0.99544924
000160 17 9b 74 3f 00 92 7c 3f e9 4b 7c 3f ba 8b 77 3f
       0.9554915 0.9866028 0.9855333 0.9669758
000170 83 b9 79 3f f2 c5 81 3f bd 43 7d 3f 64 7b 7f 3f
       0.97548693 1.0138533 0.98931485 0.99797654
000180 54 2b 7d 3f b4 0f 82 3f 09 a5 7a 3f ad fe 74 3f
       0.9889424 1.0161042 0.97908074 0.95701104
000190 2b ec 78 3f ec 87 80 3f a3 f4 7f 3f 8f 04 7f 3f
       0.97235364 1.004148 0.9998266 0.9961633
0001a0 1f 49 82 3f 68 14 7b 3f fe 3f 7a 3f ff c7 7d 3f
       1.0178565 0.9807801 0.97753894 0.99133295
0001b0 aa 62 7e 3f 10 06 7b 3f 08 bb 7b 3f df 11 7e 3f
       0.993693 0.98056126 0.9833226 0.9924602
0001c0 34 42 80 3f af 65 80 3f 7c cd 80 3f b3 3f 7f 3f
       1.0020204 1.0031031 1.0062709 0.9970657
0001d0 32 81 77 3f 9a 18 7f 3f bf b4 80 3f 2c 4e 7c 3f
       0.9668151 0.99646914 1.0055159 0.9855678
0001e0 7d 0d 7f 3f 36 c6 7b 3f bb 60 7e 3f 94 2e 78 3f
       0.99629956 0.9834932 0.9936635 0.9694607
0001f0 2e 5c 80 3f 79 c5 73 3f 79 5d 76 3f f0 40 7d 3f
       1.0028131 0.95223194 0.9623638 0.9892721
000200 99 87 77 3f 5a 1c 80 3f c0 ce 7e 3f 8e 4f 7a 3f
       0.9669128 1.0008652 0.99534225 0.9777764
000210 f0 68 77 3f 52 29 7c 3f fc 7b 7c 3f 2a f5 80 3f
       0.96644497 0.9850055 0.98626685 1.0074818
000220 aa 23 83 3f 38 72 7a 3f ef 3c 77 3f 64 17 7d 3f
       1.0245259 0.97830534 0.9657735 0.98863816
000230 fc 8d 83 3f 3b 84 7c 3f 64 27 82 3f 30 03 79 3f
       1.0277705 0.9863927 1.0168271 0.9727049
000240 9c ac 7e 3f 94 07 7c 3f 86 a7 7a 3f 2f 9d 7f 3f
       0.9948213 0.98449063 0.9791187 0.9984922
000250 1f 39 75 3f e0 56 7d 3f d9 bc 7a 3f ef e5 77 3f
       0.95790285 0.98960686 0.9794441 0.96835226
000260 47 c9 83 3f 79 cc 7a 3f 7e 20 78 3f 5f 0b 78 3f
       1.02958 0.9796825 0.9692458 0.9689235
000270 a6 16 7d 3f 8b c3 7b 3f 9b b3 7a 3f 24 42 7b 3f
       0.98862684 0.9834525 0.97930306 0.981478
000280 6b ad 7b 3f ba d2 7f 3f ed 75 7f 3f b8 13 7f 3f
       0.9831149 0.9993092 0.99789315 0.99639463
000290 15 ac 7c 3f 51 e4 7a 3f 91 1f 7c 3f 2e 3d 81 3f
       0.98700076 0.98004633 0.98485667 1.0096796
0002a0 9c 38 80 3f fc ab 78 3f b3 32 79 3f 7d 84 7d 3f
       1.0017276 0.9713743 0.97342986 0.99030286
0002b0 9a 93 7e 3f 75 f2 75 3f ac aa 77 3f 44 77 75 3f
       0.9944397 0.96073085 0.967448 0.9588511
0002c0 7f 24 80 3f 2c 26 80 3f 06 90 79 3f 04 93 79 3f
       1.0011138 1.0011649 0.9748539 0.97489953
0002d0 46 dd 7a 3f 8f 35 81 3f 7c ca 7d 3f fb e0 7e 3f
       0.97993886 1.009447 0.9913709 0.9956204
0002e0 26 cf 7e 3f 6d a0 80 3f 78 3d 80 3f 3e 2f 7f 3f
       0.99534833 1.0048958 1.0018759 0.9968146
0002f0 75 c7 80 3f d8 09 7d 3f 0f df 79 3f 23 83 79 3f
       1.006087 0.98843145 0.97605985 0.97465724
000300 d2 71 80 3f bc 9d 7b 3f 54 c2 7c 3f 73 ad 76 3f
       1.0034735 0.9828756 0.9873402 0.9635841
000310 53 24 7d 3f 87 28 7d 3f dd 25 82 3f 5a fc 75 3f
       0.9888355 0.98889965 1.0167805 0.9608818
000320 fc 9c 7f 3f 2b 58 80 3f 52 4d 7c 3f e1 3e 80 3f
       0.99848914 1.0026907 0.9855548 1.0019189
000330 f2 1e 7d 3f 67 48 7d 3f d0 b7 7c 3f bb 6d 81 3f
       0.98875344 0.989386 0.98717976 1.0111612
000340 46 26 79 3f 41 50 7b 3f 0a d9 75 3f 12 84 80 3f
       0.97324026 0.9816933 0.960343 1.0040305
000350 ec 05 80 3f 38 c5 80 3f 4c cf 7d 3f 6b 64 7d 3f
       1.0001807 1.0060186 0.99144435 0.9898135
000360 34 32 7c 3f 84 e0 76 3f e7 a2 78 3f ed 22 79 3f
       0.98514104 0.96436334 0.9712357 0.9731892
000370 8b c5 7b 3f a0 55 79 3f 50 fa 80 3f d1 53 7a 3f
       0.983483 0.9739628 1.0076389 0.97784144
000380 7d 3f 79 3f 0e e3 81 3f 3f 83 80 3f 36 70 7c 3f
       0.973625 1.0147417 1.0040053 0.9860872
000390 42 f7 75 3f 96 6b 7e 3f da c7 82 3f c4 ef 7c 3f
       0.9608041 0.99382913 1.021724 0.98803353
0003a0 76 86 7d 3f 8a 26 80 3f 0d 6f 7b 3f ea 96 7f 3f
       0.99033296 1.0011761 0.98216325 0.9983965
0003b0 65 45 82 3f 39 92 7a 3f 1e d3 77 3f f7 25 75 3f
       1.0177428 0.9787937 0.96806514 0.95761055
0003c0 d0 f6 76 3f a0 27 72 3f 05 1a 7a 3f 7f f5 7c 3f
       0.96470356 0.9459171 0.9769595 0.988121
0003d0 8d 0d 7a 3f ec b6 7a 3f e3 31 7d 3f e3 d3 7b 3f
       0.97676927 0.97935367 0.98904246 0.9837019
0003e0 d4 a4 7d 3f 43 94 7d 3f 4d a9 7b 3f bc 43 7f 3f
       0.9907963 0.99054354 0.9830521 0.9971273
0003f0 17 02 78 3f a5 2b 83 3f 18 5d 7c 3f 65 2c 79 3f
       0.9687819 1.0247694 0.9857955 0.97333366

layers.3.bias f4 [256]
000000 2b 71 bb 3c 4c 8d df 3c 03 d3 c9 3b 6d 70 2c 3d
       0.022881111 0.027289055 0.0061591878 0.042099405
000010 53 ed ad bc c3 b3 79 3c 2f cb 5f bd cb 22 40 3d
       -0.021231329 0.015240612 -0.05463713 0.04690818
000020 47 48 c6 bb 8e f5 b9 3c 4a d4 51 bd 24 9f a2 ba
       -0.0060510966 0.022700097 -0.051227845 -0.0012407047
000030 57 02 85 3d f8 f2 42 3d 21 47 22 bd 03 df 27 bd
       0.06494587 0.047594994 -0.039618615 -0.040984165
000040 fb f6 58 bd 82 dd b2 bc 4c 1e 4b bd 16 b8 5b bd
       -0.052969914 -0.021834139 -0.04958944 -0.053642355
000050 c0 d3 ff bb ff da 92 3c bf 06 b6 bc 3c d6 3e 3d
       -0.007807225 0.017926691 -0.022220014 0.04659103
000060 93 b3 e3 3c 43 2f 3f bc dc 0d de bc fd e1 76 bd
       0.027795589 -0.011668983 -0.027106218 -0.060274113
000070 c5 d7 13 bd c6 48 40 3d 59 4e 18 bd 37 0d 93 bc
       -0.036094446 0.046944402 -0.037184093 -0.017950637
000080 43 9f 55 bc e1 ff 15 bd a2 cf 6e bc 4a 1d 1a bd
       -0.013038459 -0.03662098 -0.014575871 -0.03762559
000090 80 c8 5f bd d0 31 11 3d 67 d7 3a 3d b3 9f 55 bb
       -0.05463457 0.035447896 0.04561558 -0.003259641
0000a0 47 76 70 bc 3c eb 48 3c ae c6 e0 3c 62 05 3a 3d
       -0.014676637 0.0122631155 0.027438488 0.04541529
0000b0 fc df 85 bd 50 4a 06 3d 3d 1f 38 bd f2 6d 4d 3c
       -0.06536862 0.032785714 -0.044951666 0.01253842
0000c0 2e f1 6b 3d b8 98 0c bc ce c2 55 bb 55 0c 8b bd
       0.057603054 -0.008581333 -0.0032617333 -0.067894615
0000d0 62 3f 50 bc 90 ed bc 3c 9e 76 a7 bc 78 e1 19 3d
       -0.012710424 0.023062497 -0.020442303 0.03756854
0000e0 6d be 48 bc 58 ce 41 bc 0f 15 b0 bc e5 2b 0f bc
       -0.012252432 -0.011828981 -0.021494417 -0.008738493
0000f0 38 9b 29 bd ca 75 af bc 56 10 1d 3d b4 1f a2 bb
       -0.041407794 -0.02141847 0.038345657 -0.004947627
000100 8b 3b 33 3d 7e dc 18 3d 64 a3 9f 3c d7 f4 91 3b
       0.043757956 0.037319653 0.01948709 0.004454236
000110 6e 2e 5f 3c c5 39 96 3c 46 58 8a bd 9e 46 8b 3c
       0.01362191 0.018338094 -0.06755118 0.017001446
000120 92 f9 b0 3b 6a bf 33 bd 00 56 51 bd 0a d8 8e 3c
       0.005400845 -0.04388372 -0.051107407 0.017437
000130 1e 41 05 3d b0 53 cc bb 75 8a 23 3d d1 1c ed bc
       0.032532804 -0.0062355623 0.039926965 -0.028944405
000140 d3 52 85 3b bc 9c 62 3c ab 07 2c bd d5 09 0d 3c
       0.0040687113 0.013831314 -0.0419995 0.008608301
000150 7e de 9f 3c c1 9b 64 bd f3 b2 8c bc da 3b 8c 3d
       0.019515272 -0.0558126 -0.017175173 0.06847353
000160 e7 5e 88 bc 6d 55 68 bd d9 95 25 3d 87 25 ff bb
       -0.016646815 -0.056722093 0.04042611 -0.007786456
000170 ee 77 e9 bc 63 f7 56 bd 41 a7 2a 3d ea b7 21 bd
       -0.02849957 -0.05248202 0.041663412 -0.039482035
000180 06 8f 9c bc 52 b9 54 bd b6 ea 55 bc be 9c 11 bd
       -0.019111168 -0.051934548 -0.013056448 -0.03554987
000190 ec 85 fb bc 3a 9a 4e 3d 0d 31 31 3d b2 62 47 bd
       -0.030703507 0.05044005 0.04325967 -0.048678108
0001a0 26 e0 56 bd 4a b3 77 3d 3a fd dc bc f1 23 10 3d
       -0.05245986 0.060473718 -0.026976217 0.035190526
0001b0 05 6b e4 3c 37 35 21 3d b5 5c 20 3d c1 df 0f bd
       0.027883062 0.03935739 0.039150912 -0.035125498
0001c0 82 96 80 bd 04 26 3d 3d 66 ea 02 bd a6 9f 31 3d
       -0.06278707 0.046178833 -0.03196182 0.043365143
0001d0 0d 05 17 3d 0c 1c 6c bd 5b f8 80 3c 41 b4 f7 3c
       0.03687005 -0.057643935 0.015743425 0.030237319
0001e0 b6 90 6d bc 83 6d 14 3d 99 83 13 3d 9c c8 c6 bc
       -0.014499834 0.03623725 0.036014173 -0.02426558
0001f0 c2 cd 22 3d 36 f4 28 bc 9c be 16 bc 6c b5 50 3c
       0.039747007 -0.010312131 -0.009200718 0.012738567
000200 12 d6 6e 3b 52 51 f8 3c 12 94 ee 3c 5a 84 19 bd
       0.0036443514 0.030312214 0.02912334 -0.037479736
000210 5a e2 28 bb 5b be 12 3d 36 83 ce 3c 7b c6 3a 3d
       -0.0025769682 0.03582607 0.02520905 0.045599442
000220 ae 19 60 3d 6b 48 ae bc 18 c2 f0 bb ca f1 69 bc
       0.05471199 -0.021274766 -0.0073473565 -0.014278838
000230 ab 59 7d bd 93 e8 96 38 08 c1 51 3d 26 f1 15 bd
       -0.061853092 7.195878e-05 0.05120948 -0.03660693
000240 de 33 2c 3d 24 a7 e5 bb 3e 0b 9f 3c 1b 41 59 bd
       0.042041652 -0.00700845 0.01941454 -0.053040605
000250 4c e5 01 3c 26 81 77 3d 54 5d 80 bc 5b c2 bc 3c
       0.007928204 0.0604259 -0.015669502 0.023041895
000260 77 80 55 bd 9e c9 3a 3d 4c 24 43 bb df 9e 11 3d
       -0.052124467 0.045602433 -0.0029776273 0.035551902
000270 9e 58 26 bd 33 fe 01 bd f6 8f ee bb 49 0e ac 3c
       -0.040611856 -0.031736564 -0.007280345 0.021002905
000280 d3 1c 82 3d b4 af f4 bc a7 d4 ad 3c 29 80 39 3d
       0.06353154 -0.029868938 0.021219565 0.04528824
000290 10 4d f1 3c 9e 15 df 3c 3f e3 6d 3c 13 d0 12 bd
       0.029455692 0.027231988 0.014519512 -0.035842966
0002a0 b6 87 d6 bc 5b 54 0b bd d3 92 a0 3c e0 dd 0f 3d
       -0.026187759 -0.034015995 0.019601261 0.035123706
0002b0 b2 92 58 3d 2d 8b 96 bc 75 98 22 bb 52 86 a2 3c
       0.052874275 -0.018376911 -0.002481011 0.01983944
0002c0 60 15 1b bc 7f ad d3 3c 95 6d 48 bc 88 06 1d 3d
       -0.009465545 0.025839565 -0.012233158 0.038336307
0002d0 31 9e 5b 3d 4c 5d 04 bd 08 92 12 38 19 7e 07 3d
       0.05361766 -0.032315537 3.4945115e-05 0.03307924
0002e0 42 25 25 bd 9c f3 0a 3d d7 32 47 3d 6a b7 76 bd
       -0.040318735 0.03392373 0.04863247 -0.06023351
0002f0 ed 26 e2 3c 2c 33 b0 3b cd 4e e2 3c e4 24 e7 3c
       0.027606452 0.005377194 0.027625466 0.028215833
000300 93 d2 35 bd 0e b9 d3 bc 98 3e 46 bd cd 9c 7a 3b
       -0.044390272 -0.025845077 -0.048399538 0.0038240433
000310 85 bc 03 bd 0e ea dc bb b8 0b 24 bd e4 9c 84 bc
       -0.032162208 -0.0067417687 -0.04005024 -0.016188093
000320 70 b4 8c 3c f5 e1 51 3d 39 c7 53 3d f3 95 37 bd
       0.017175883 0.05124088 0.051703665 -0.044820737
000330 97 99 c8 bc 28 0d 17 bd 2e 3b d6 3c 1f 9c 22 bd
       -0.0244873 -0.03687778 0.026151266 -0.03969967
000340 c1 be bb bc 49 dc c8 bc a7 db be 3b b9 b9 6b bd
       -0.022918107 -0.024519103 0.0058245244 -0.057550166
000350 59 de ef 3c 2e f7 ed 3c e2 7d 64 3d 2e 8e 24 3c
       0.029280828 0.029048529 0.055784114 0.010043664
000360 31 e3 c8 3b 70 45 93 3c 6f b2 00 3d da 8b bd 3c
       0.006130599 0.017977446 0.031420168 0.023137975
000370 74 10 93 bc f5 78 f2 3c 30 18 54 3d d9 3d d8 3c
       -0.017952181 0.029598692 0.05178088 0.026396679
000380 e9 29 61 3d 09 35 74 bd 64 0f 03 3c 68 f4 3a 3d
       0.05497161 -0.05962089 0.007999275 0.04564324
000390 3f c6 50 bd 91 07 19 3d 13 1c 27 bd 90 2b aa 3c
       -0.050970312 0.03736073 -0.040798258 0.020772725
0003a0 30 1f 21 3d 56 2c 3b bd 65 de bb 3c f1 60 5b 3d
       0.039336383 -0.04569658 0.022933194 0.053559247
0003b0 43 b0 84 3d c1 f4 1e bd cb d4 63 3c 68 0f 87 b7
       0.06478932 -0.038807634 0.013905714 -1.6100428e-05
0003c0 24 31 0e 3d 66 26 c1 3c f1 16 db bc be 87 50 bd
       0.034714833 0.02357788 -0.026744338 -0.050910704
0003d0 dc f6 a5 3b 50 51 2c bd 7c ee 4f bc fe f7 87 bc
       0.0050648283 -0.042069733 -0.012691136 -0.016597744
0003e0 2c 79 0a bd ff f5 5d 3d dc 44 46 bd f9 db 91 3c
       -0.033806965 0.05418968 -0.048405513 0.017805086
0003f0 02 e3 c8 bc 60 ad 4c bd e7 a0 39 bd 8e d7 56 3c
       -0.024522308 -0.04997003 -0.045319464 0.013112916
