ddpg/model_params/twitter_ddpg_47_80_actor.pth (torch, 158108 bytes, 20 tensors)

layers.0.weight f4 [128, 65]
-0.00055645505 -0.015700659 -0.041851543 0.023013864 2.8922573e-06 -0.0139569845 8.2887214e-05 -0.01744061
0.01020992 0.009093699 -0.00042718562 0.0030110786 0.00045024249 0.008571463 -1.978073e-09 0.004879339
-0.01934149 -0.013947599 0.009789578 -7.838019e-10 0.00022969884 1.1754661e-08 -0.0007131769 3.4508245e-09
4.2205584e-06 -3.956876e-05 2.953707e-09 -3.4794605e-09 7.443973e-11 1.1332982e-08 1.40388625e-08 6.5411994e-05
-1.0951075e-08 -4.2065793e-05 -0.00021455128 -3.4126064e-05 -2.501728e-09 -3.3435718e-08 -0.0015540526 -2.2541187e-08
2.3205326e-08 -7.2982075e-05 -1.1190143e-06 -4.3438213e-09 -0.013861074 -2.0499757e-09 1.03735104e-10 4.91658e-09
-2.0039286e-09 -2.9094775e-08 3.6630464e-08 -3.5073822e-09 -5.278765e-09 -0.0047016405 5.674414e-09 -7.37035e-05
0.00012565553 -0.00017031963 -0.013956179 0.0006118456 -0.003396047 -7.537754e-05 1.1515974e-08 -5.33339e-09
3.1967446e-08 0.0010384939 0.019297067 0.040644173 -0.03689584 -3.3092629e-06 0.0177339 -0.0012212044
0.023153026 -0.001488999 -0.008283907 0.00052893185 -0.003550722 -0.00040440468 -0.006932104 -6.410768e-10
-0.0038613009 0.020273171 0.017795142 -0.010311578 -2.5377705e-10 7.951814e-05 1.2480383e-08 0.0008759122
-4.565063e-09 3.1642144e-06 3.220028e-05 5.928622e-10 9.51403e-09 -4.1031885e-08 1.3913584e-09 -1.7377143e-08
-0.00015490175 -2.0060538e-08 -0.00021653845 0.00044716513 4.737456e-05 -4.1281534e-10 9.368642e-09 0.0021119365
4.2824864e-09 -3.0761105e-10 -0.0001143449 6.3839394e-07 1.7874364e-09 -0.010768778 -3.960327e-10 6.6052497e-10
1.9582156e-09 -2.289353e-08 2.0234497e-08 2.1003237e-09 4.908877e-09 -3.3585001e-09 -0.025347216 -3.1740581e-09
-2.0737105e-05 -0.0002103407 0.00015749368 0.017759569 -0.00033727742 -0.028593509 0.0002000132 1.1043329e-08
-3.8046264e-09 -3.4225078e-08 -0.0010503947 0.0014125817 -0.0034431296 0.032513306 -2.444645e-07 -0.0007931363
-0.0002583658 -0.06511112 -0.00088152394 -0.006972099 -0.00050974975 -6.195717e-05 0.00066811295 -0.008504012
3.1136445e-09 0.008201898 0.003486102 -0.0008243187 -0.010980939 1.1411572e-08 -0.00016304433 1.7167332e-09
-0.00070838764 -4.2418367e-09 2.3343887e-07 -3.5840196e-05 6.630941e-09 -2.5219875e-09 1.7076112e-09 -9.788528e-10
8.853631e-09 -8.7301305e-07 -9.518134e-09 6.0612132e-05 -0.00011518056 -6.628036e-05 2.3117541e-10 -8.570899e-09
-0.0027117622 -1.6920696e-08 -4.1506606e-10 0.00032406318 -1.3252306e-06 2.4095923e-09 -0.007375941 4.01546e-10
-2.7096329e-08 -1.4212555e-08 8.499907e-09 9.679058e-09 -3.9799208e-10 -2.2478421e-08 -6.617153e-09 0.027488086
4.1749346e-09 -0.0001792402 0.00025971356 -0.00029826042 -0.0008065482 0.00024758515 0.02894 -9.916037e-05
-3.4852572e-08 -3.8397423e-09 2.2616375e-09 -0.00046325504 -0.0006654558 0.00029934128 -0.011053424 -4.1875103e-07
-0.0029925187 -3.159197e-05 0.05529333 0.03577745 -0.00034057084 5.7288504e-05 -0.001249001 0.00016741156
0.0005617655 -1.2879838e-08 -0.0018473635 -0.00018171333 -0.0030006277 0.0073425504 4.6888498e-09 -4.1223557e-05
-5.1689626e-09 0.0003086281 -9.806561e-09 -1.5328084e-06 -6.7496374e-05 -5.100749e-10 -1.3840862e-09 -1.0895531e-09
-5.708414e-10 -2.9818115e-10 -2.3833265e-05 -5.5727556e-09 4.6539128e-05 -1.0332697e-05 1.762516e-05 8.089895e-09
-4.989273e-09 -0.0007427038 -1.6648801e-08 1.7634041e-09 -0.00025191883 -1.1475656e-07 1.1847399e-08 0.01705138
4.406062e-08 -3.6447168e-10 1.1043994e-10 -3.7673062e-10 6.538633e-10 -8.305424e-09 -1.8825868e-09 2.4139908e-09
-0.0055978782 -3.2193004e-09 -1.0133553e-05 0.0001895175 0.0002663495 -0.0029883862 -8.319565e-05 -0.006901697
00000000: 11df 11ba ab9e 80bc 866c 2bbd 9287 bc3c
00000010: 9a18 4236 d6ab 64bc bcd3 ad38 9cdf 8ebc
00000020: 8247 273c bdfd 143c e2f7 dfb9 8455 453b
00000030: 860e ec39 526f 0c3c a1ee 07b1 dde2 9f3b
00000040: 0b72 9ebc 7884 64bc 7764 203c 2873 57b0
00000050: 50db 7039 8cf1 4932 7ef4 3aba 8c23 6d31
00000060: 529e 8d36 a2f6 25b8 2afa 4a31 511b 6fb1
00000070: d8b1 a32e fbb2 4232 922f 7132 cc2d 8938
00000080: 5623 3cb2 cd6f 30b8 2cf9 60b9 9522 0fb8
00000090: ddea 2bb1 f69a 0fb3 5ab1 cbba 98a0 c1b2
000000a0: 0d55 c732 f40d 99b8 0a31 96b5 a840 95b1
000000b0: 8f19 63bc 8edf 0cb1 ac1d e42e b2ee a831
000000c0: 7cb5 09b1 16ec f9b2 9f53 1d33 8506 71b1
000000d0: 8260 b5b1 3810 9abb acf8 c231 4491 9ab8
000000e0: 66c2 0339 d497 32b9 75a8 64bc 4364 203a
000000f0: 3790 5ebb 0214 9eb8 cad7 4532 ff40 b7b1
00000100: 944c 0933 131e 883a e214 9e3c 817a 263d
00000110: 1820 17bd b414 5eb6 af46 913c d210 a0ba
00000120: 6aab bd3c 842a c3ba 39b9 07bc 04a8 0a3a
00000130: 3bb3 68bb 4706 d4b9 b426 e3bb c537 30b0
00000140: e10d 7dbb ec13 a63c 1ec7 913c e5f1 28bc
00000150: f283 8baf fac2 a638 4e69 5632 799d 653a
00000160: b8da 9cb1 ca58 5436 ca0e 0738 f8f6 2230
00000170: 2573 2332 093b 30b3 123a bf30 be44 95b2
00000180: 1f6d 22b9 9751 acb2 990e 63b9 7d71 ea39
00000190: 0cb4 4638 98f2 e2af b9f3 2032 6a68 0a3b
000001a0: 2625 9331 681c a9af 73cc efb8 195e 2b35
000001b0: d4a9 f530 876f 30bc a6b8 d9af 5090 3530
000001c0: 4b91 0631 68a7 c4b2 21d0 ad32 4955 1031
000001d0: f0aa a831 5ccb 66b1 f7a4 cfbc 9f1e 5ab1
000001e0: 98f4 adb7 e78e 5cb9 e324 2539 847c 913c
000001f0: 9cd4 b0b9 ef3c eabc a2ba 5139 13b9 3d32
00000200: d9b9 82b1 dffe 12b3 66ad 89ba 6026 b93a
00000210: 21a6 61bb ac2c 053d f23e 83b4 7aea 4fba
00000220: 4575 87b9 fb58 85bd 1216 67ba 3576 e4bb
00000230: baa0 05ba 01ef 81b8 4d24 2f3a 6954 0bbc
00000240: d0f7 5531 4161 063c 1677 643b 1717 58ba
00000250: 65e9 33bc a00c 4432 e1f6 2ab9 2ef2 eb30
00000260: 17b3 39ba 97bf 91b1 30a7 7a34 1e53 16b8
00000270: 60d6 e331 464f 2db1 3ab1 ea30 5288 86b0
00000280: ae1a 1832 0059 6ab5 3285 23b2 c839 7e38
00000290: 188d f1b8 ffff 8ab8 182e 7e2f 363f 13b2
000002a0: d2b7 31bb 0159 91b2 5b2f e4af 06e7 a939
000002b0: 94de b1b5 ff95 2531 e1b1 f1bb 93c0 dc2f
000002c0: 75c1 e8b2 7a2b 74b2 fc06 1232 f348 2632
000002d0: 68cc daaf 9216 c1b2 185d e3b1 b22e e13c
000002e0: 1d73 8f31 6df2 3bb9 2a2a 8839 d65f 9cb9
000002f0: 896e 53ba 51ce 8139 9413 ed3c 51f4 cfb8
00000300: cfb0 15b3 bbee 83b1 266b 1b31 0ae1 f2b9
00000310: fc71 2eba e8f0 9c39 6c19 35bc b4d0 e0b4
00000320: 221e 44bb 9f81 04b8 427b 623d 608b 123d
00000330: a58e b2b9 1049 7038 85b5 a3ba 338b 2f39
00000340: 7243 133a 2046 5db2 3c23 f2ba 4d8a 3eb9
00000350: 2ea6 44bb c799 f03b 8f1b a131 75e7 2cb8
00000360: ad9a b1b1 5dcf a139 b679 28b2 e5ba cdb5
00000370: d78c 8db8 5535 0cb0 343a beb0 3ebf 95b0
00000380: 64e9 1cb0 44ed a3af 8ced c7b7 7a7a bfb1
00000390: 0233 4338 985a 2db7 bed9 9337 bcfb 0a32
000003a0: 1c6e abb1 02b2 42ba 1a03 8fb2 445c f230
000003b0: f913 84b9 1670 f6b3 6989 4b32 56af 8b3c
000003c0: 2a3d 3d33 d45e c8af 29dc f22e 1f1c cfaf
000003d0: 8abb 3330 a4af 0eb2 d15e 01b1 60e3 2531
000003e0: 686e b7bb 883a 5db1 4703 2ab7 37b9 4639
000003f0: d3a4 8b39 cdd8 43bb 5379 aeb8 a127 e2bb

layers.0.bias f4 [128]
2.9518278e-06 -4.7665716e-10 1.5686998e-10 -3.4204308e-09 1.9188022e-07 6.458875e-07 9.665221e-09 -1.2195403e-07
-1.7424858e-07 -6.851642e-05 -4.2688216e-06 1.2952685e-05 4.8654016e-08 3.6490933e-06 -9.793972e-08 5.5648115e-08
-1.5554495e-09 -8.577363e-09 -4.1597477e-06 -5.121742e-09 -1.1673079e-07 -6.148051e-09 9.550875e-08 3.926393e-06
-6.4248275e-07 1.9687421e-07 5.6339992e-08 8.8492115e-08 3.2661317e-06 -1.0840743e-08 3.6423216e-09 -4.1703276e-09
-1.7333162e-08 2.1002225e-07 -7.978318e-11 -8.507653e-08 2.6150005e-07 9.002396e-09 1.5460496e-07 -2.7325202e-09
-8.919707e-10 -2.732206e-09 -1.7923052e-06 -3.4640246e-07 -4.2399342e-06 2.326366e-08 -6.8676167e-07 -8.106834e-08
-7.384628e-06 -3.4876643e-07 7.1779834e-07 2.7271197e-08 -2.048707e-09 -0.000111964844 -2.0764971e-06 -7.586095e-07
-1.5270187e-08 4.1070614e-08 -1.9235773e-07 8.541099e-08 -1.701357e-08 5.947161e-09 2.3895755e-06 1.3773985e-08
-7.2049325e-08 3.370894e-08 -2.7648293e-09 -1.601682e-07 5.2512807e-08 6.776781e-07 1.0178186e-07 6.2900085e-08
-7.551413e-10 -9.188176e-05 -7.8318216e-08 1.4716504e-07 -3.008824e-06 -2.3163044e-05 -3.131471e-06 2.0360717e-06
-2.149275e-07 3.7920972e-06 4.445203e-08 3.8659987e-06 -2.0801901e-06 -5.6040516e-08 1.4676348e-08 -6.153762e-08
-0.00013643948 6.178282e-07 -1.02114255e-08 -1.161005e-07 5.623933e-06 4.1163835e-06 7.214426e-08 5.971062e-08
-2.6294578e-09 -1.5450904e-07 2.720268e-07 1.0157086e-07 -4.1012576e-08 -0.00021107213 -3.308565e-07 -1.15377354e-07
2.5327807e-08 3.3074863e-07 1.6446395e-09 6.7613776e-08 1.1515258e-08 -5.472945e-07 -2.1030093e-08 -3.3740098e-06
-1.254817e-07 1.7806245e-09 -5.905695e-07 4.3627267e-08 7.2718464e-08 -7.1936796e-08 2.0065833e-08 -1.3790122e-09
-5.8631275e-07 -6.042798e-07 4.3198493e-06 -0.00020001376 3.4859234e-08 2.8824793e-08 2.7915763e-09 3.8163093e-06
00000000: 0418 4636 c405 03b0 f97a 2c2f db0c 6bb1
00000010: a207 4e34 0d61 2d35 170c 2632 78f2 02b4
00000020: 1619 3bb4 79b0 8fb8 e63c 8fb6 5c4f 5937
00000030: a8f7 5033 f2e2 7436 ee52 d2b3 c001 6f33
00000040: 84c7 d5b0 a45b 13b2 f693 8bb6 52fb afb1
00000050: 6ead fab3 d43e d3b1 7e1a cd33 76bf 8336
00000060: 1477 2cb5 5f64 5334 7afa 7133 0e09 be33
00000070: b72f 5b36 183e 3ab2 664c 7a31 974a 8fb1
00000080: 07e4 94b2 7a82 6134 f071 afae 51b3 b6b3
00000090: 4b64 8c34 f5a8 1a32 7d01 2634 01c7 3bb1
000000a0: dc2e 75b0 7ac1 3bb1 238f f0b5 31f9 b9b4
000000b0: c244 8eb6 54d5 c732 e759 38b5 cb17 aeb3
000000c0: 79c9 f7b6 183e bbb4 baae 4035 ff41 ea32
000000d0: 3cc9 0cb1 abce eab8 f359 0bb6 3fa3 4bb5
000000e0: 7f2b 83b2 9e65 3033 e48a 4eb4 306b b733
000000f0: 3c25 92b2 c857 cc31 985c 2036 a0a2 6c32
00000100: 89b9 9ab3 5fc7 1033 64ff 3db1 b3fa 2bb4
00000110: 718a 6133 afe9 3535 2b93 da33 b013 8733
00000120: 5892 4fb0 a5b0 c0b8 e52f a8b3 6b04 1e34
00000130: 34eb 49b6 424e c2b7 4326 52b6 72a3 0836
00000140: d2c6 66b4 bc7b 7e36 86eb 3e33 adb8 8136
00000150: 6599 0bb6 33b1 70b3 4323 7c32 aa26 84b3
00000160: 3211 0fb9 d5d8 2535 536e 2fb2 ed52 f9b3
00000170: 37b5 bc36 771f 8a36 baed 9a33 433a 8033
00000180: e9b1 34b1 1fe7 25b4 140b 9234 2c1f da33
00000190: ce25 30b3 3e53 5db9 92a0 b1b4 5fc5 f7b3
000001a0: 7090 d932 bf91 b134 9c09 e230 1133 9133
000001b0: a4d4 4532 cbe9 12b5 aaa5 b4b2 0c6d 62b6
000001c0: 26bc 06b4 28ba f430 a187 1eb5 b060 3b33
000001d0: 6629 9c33 ac7b 9ab3 3c5d ac32 ae87 bdb0
000001e0: 1b63 1db5 cb35 22b5 39f3 9036 c9ba 51b9
000001f0: 22b8 1533 649a f732 eed5 3f31 d90d 8036

layers.2.weight f4 [128]
0.9452039 0.96542674 1.0078187 0.8664674 0.98401356 0.9258118 0.9423092 0.9585109
1.0525892 0.950291 0.9818261 0.92990786 0.9025111 0.9487647 0.92694795 0.86445826
0.9973103 0.90032 0.98823106 0.9446261 0.92988825 0.97585815 0.9471731 0.86664706
0.8445193 0.8462183 1.0135173 0.92928714 1.0436878 0.839119 1.0116005 1.0033098
0.87737715 0.8563342 0.9219225 0.87429905 0.8965403 1.0301211 0.8874935 0.83309
0.927044 0.9623572 0.9665437 0.9382653 0.8989959 0.8358501 0.96601164 0.89381826
0.8607982 0.8744966 0.85214496 0.95760846 0.94192773 0.9521316 0.90373963 0.94853956
0.93520594 0.82717913 0.8645466 1.0382438 0.87443626 0.92122674 0.9707755 0.99302274
0.9868686 0.93563235 0.91807127 0.986618 0.845594 0.9370873 0.9731458 0.969214
0.9124513 1.0333207 0.9653548 0.84527206 1.0032034 0.9358881 1.0081152 0.9145216
0.9241948 0.8400508 0.9208811 1.0622163 0.9656356 1.0135711 0.94464666 0.8809178
0.96895766 0.9666449 0.9122859 0.99704325 0.9223134 0.9696038 0.996307 0.8761863
0.8781097 0.9104709 0.8153562 0.92666256 0.8879104 0.90270597 0.9452806 0.95650476
0.9485102 0.98162377 0.9474296 0.8788468 0.8634914 0.88971347 0.88418686 0.9076883
0.9261944 1.0346961 1.0367223 0.9000212 0.9759567 0.9124146 1.0124747 0.8617515
0.94444865 0.95658666 0.84375685 0.8223865 0.87469316 0.86028796 1.0003031 0.9414341
00000000: e2f8 713f 3526 773f 3400 813f cfd0 5d3f
00000010: 50e8 7b3f 0102 6d3f 2d3b 713f f860 753f
00000020: 3ebb 863f 4546 733f f558 7b3f 710e 6e3f
00000030: f80a 673f 3ee2 723f 764c 6d3f 234d 5d3f
00000040: ba4f 7f3f 5f7b 663f b6fc 7c3f 04d3 713f
00000050: 280d 6e3f d7d1 793f f079 723f 95dc 5d3f
00000060: 6b32 583f c3a1 583f efba 813f c3e5 6d3f
00000070: 9097 853f 81d0 563f 207c 813f 756c 803f
00000080: ca9b 603f b838 5b3f 1d03 6c3f 10d2 5f3f
00000090: aa83 653f 02db 833f c632 633f 6345 553f
000000a0: c152 6d3f 0b5d 763f 686f 773f 2832 703f
000000b0: 9824 663f 46fa 553f 8a4c 773f 46d1 643f
000000c0: 455d 5c3f 02df 5f3f 2c26 5a3f d425 753f
000000d0: 2d22 713f e6be 733f 7b5b 673f 7dd3 723f
000000e0: a869 6f3f 03c2 533f ed52 5d3f 2ce5 843f
000000f0: 0edb 5f3f 84d5 6b3f be84 783f bd36 7e3f
00000100: 6ca3 7c3f 9a85 6f3f b806 6b3f ff92 7c3f
00000110: d978 583f f4e4 6f3f 1520 793f 691e 783f
00000120: 6996 693f da43 843f 7e21 773f c063 583f
00000130: f868 803f 5d96 6f3f eb09 813f 161e 6a3f
00000140: 0898 6c3f 920d 573f ddbe 6b3f b4f6 873f
00000150: e533 773f b3bc 813f 5dd4 713f d483 613f
00000160: 9c0d 783f 0a76 773f 928b 693f 3a3e 7f3f
00000170: bb1c 6c3f f437 783f fa0d 7f3f bf4d 603f
00000180: cccb 603f 9f14 693f 2fbb 503f c239 6d3f
00000190: 194e 633f bd17 673f e9fd 713f 7fdd 743f
000001a0: 91d1 723f b24b 7b3f bf8a 723f 1bfc 603f
000001b0: c60d 5d3f 43c4 633f 125a 623f 435e 683f
000001c0: 141b 6d3f ec70 843f 51b3 843f ca67 663f
000001d0: 4cd8 793f 0194 693f c598 813f bf9b 5c3f
000001e0: 63c7 713f dde2 743f 7300 583f ec87 523f
000001f0: e4eb 5f3f d53b 5c3f ef09 803f d301 713f

layers.2.bias f4 [128]
-0.140659 0.13733388 -0.13699847 0.14104779 -0.1550083 -0.14447454 0.14037599 -0.14267257
-0.15261126 -0.13296378 -0.1364691 -0.08314002 -0.12553899 0.1308131 -0.14338227 0.14406817
-0.15016751 -0.07025112 0.14489816 -0.118564226 0.06470602 -0.13292064 -0.13230887 0.116351336
0.11591045 0.10500697 -0.14253008 -0.13725564 -0.15182264 0.08362294 -0.14448392 -0.14317198
-0.121548176 -0.11467347 0.14135887 0.13133486 0.1367615 0.14164583 0.13964391 0.12272695
0.12881942 0.13780472 -0.14583102 -0.13645017 0.1278 0.08475279 -0.1437442 0.14004235
-0.08952488 -0.09158397 0.14415297 -0.13790275 -0.14109975 0.14109081 0.04465037 0.14719054
-0.13812715 -0.06088288 0.11098141 -0.14897473 0.12680145 -0.12264043 0.13793585 0.13789153
-0.14494152 0.10055238 -0.13648164 0.14183012 -0.10319956 -0.14646997 0.14329703 -0.15757363
0.14546251 -0.14501107 -0.14194785 0.10838429 0.13480192 -0.14452869 -0.14351727 0.117732555
0.13074772 0.04521405 -0.14612414 -0.14156218 -0.1564015 -0.14216271 -0.13548113 0.13320366
-0.12915637 -0.15740505 0.1298738 0.14032832 -0.1368154 -0.12641871 -0.13980347 -0.13218096
-0.117996536 0.14001176 0.09358406 0.120583326 0.12244122 0.12644482 -0.13108452 -0.15091282
0.13287587 -0.1394387 -0.15703975 -0.12145873 0.13344674 0.074088395 -0.12236445 0.13460855
0.12426791 -0.13964468 -0.15078206 -0.12406147 -0.14390267 0.020505508 -0.13914193 0.03351616
0.11046051 -0.12884107 -0.10865124 -0.07072612 0.11755799 0.053710047 -0.14714918 -0.12810999
00000000: ea08 10be 41a1 0c3e 5449 0cbe d56e 103e
00000010: 7fba 1ebe 22f1 13be b9be 0f3e c218 12be
00000020: 2046 1cbe a827 08be 8ebe 0bbe 5145 aabd
00000030: 4b8d 00be dff3 053e cdd2 12be 9b86 133e
00000040: 83c5 19be d2df 8fbd 2f60 143e cdd1 f2bd
00000050: 9784 843d 591c 08be fa7b 07be 9c49 ee3d
00000060: 7562 ed3d e50d d73d 68f3 11be be8c 0cbe
00000070: 6577 1bbe 8142 ab3d 98f3 13be ad9b 12be
00000080: 40ee f8bd edd9 eabd 61c0 103e a57c 063e
00000090: 350b 0c3e 9b0b 113e d0fe 0e3e 4458 fb3d
000000a0: 3de9 033e ae1c 0d3e ba54 15be 98b9 0bbe
000000b0: 01de 023e df92 ad3d ae31 13be 4367 0f3e
000000c0: d258 b7bd 6090 bbbd d69c 133e 6136 0dbe
000000d0: 747c 10be 1c7a 103e 4ee3 363d 1eb9 163e
000000e0: 3471 0dbe 5460 79bd 394a e33d d58c 18be
000000f0: 3dd8 013e e82a fbbd 0e3f 0d3e 7033 0d3e
00000100: 8d6b 14be 68ee cd3d d8c1 0bbe ea3b 113e
00000110: 4a5a d3bd 39fc 15be 75bc 123e fb5a 21be
00000120: 20f4 143e c87d 14be c75a 11be 95f8 dd3d
00000130: 8409 0a3e 54ff 13be 31f6 12be c41d f13d
00000140: bbe2 053e 5e32 393d 91a1 15be adf5 10be
00000150: b727 20be 1a93 11be 91bb 0abe 8a66 083e
00000160: 9141 04be ca2e 21be a3fd 043e 3ab2 0f3e
00000170: 5619 0cbe e873 01be a428 0fbe 725a 07be
00000180: 2ba8 f1bd 3e5f 0f3e 00a9 bf3d 64f4 f63d
00000190: 76c2 fa3d c07a 013e 053b 06be e488 1abe
000001a0: 9d10 083e 05c9 0ebe 07cf 20be 5bbf f8bd
000001b0: 43a6 083e a8bb 973d 369a fabd d3d6 093e
000001c0: 2d80 fe3d 04ff 0ebe 9d66 1abe f113 febd
000001d0: 395b 13be 2bfb a73c 397b 0ebe 3e48 093d
000001e0: 1f39 e23d eaee 03be 8b84 debd dbd8 90bd
000001f0: 3ec2 f03d 11ff 5b3d 46ae 16be 442f 03be

layers.2.running_mean f4 [128]
5.9890405e+10 -1.086663e+10 -8.1211505e+09 3.8906774e+10 -2.571309e+09 5.1094372e+10 3.1547023e+10 5.302519e+10
3.5584336e+08 3.6832653e+10 -7.5503565e+09 3.639379e+10 5.1313246e+10 4.1164947e+10 -7.3424123e+09 4.373996e+10
6.4947687e+10 -5.9722813e+09 -1.1717609e+10 -6.8074583e+09 -6.051119e+09 -7.028575e+09 -6.508265e+09 4.223904e+10
4.032351e+10 1.9560774e+10 5.0870972e+10 4.4863013e+10 1.3724045e+09 -6.700533e+09 -8.508074e+09 5.4649676e+10
7.281575e+10 -8.589263e+09 5.088111e+10 3.737456e+10 3.659208e+10 4.72169e+10 4.3351958e+10 2.5918046e+10
4.4971336e+10 3.7131997e+10 -1.209122e+09 5.2767298e+10 4.250409e+10 -9.322674e+09 -1.5720792e+09 4.5650297e+10
-1.0401449e+10 -7.6307476e+09 4.195786e+10 -7.0398116e+09 -1.9504722e+09 3.43291e+10 2.9359718e+10 4.1466053e+10
3.6550087e+10 4.3273007e+10 2.6169002e+10 1.9363873e+09 4.025581e+10 -7.462869e+09 3.9042236e+10 -1.1160641e+10
3.8094275e+10 -5.3502853e+09 6.719951e+10 -8.2167025e+09 4.9748333e+10 5.679518e+10 -1.0818753e+10 2.6899507e+08
4.7623827e+10 -5.2321658e+08 1.604654e+09 2.8321194e+10 -1.0396241e+10 5.4519513e+10 -1.3799203e+09 3.7153554e+10
4.665462e+10 -5.3210337e+09 2.0693946e+09 1.3141648e+07 5.0720494e+10 1.4783973e+09 1.0285366e+09 4.119842e+10
5.358569e+10 6.15402e+08 3.2838255e+10 5.368853e+10 1.7309841e+10 3.1083307e+10 -8.3170033e+09 6.4205545e+10
1.9433567e+09 4.2498994e+10 -4.46319e+09 3.2631235e+10 3.9516017e+10 4.5818003e+10 4.4666434e+10 2.1292552e+07
-1.1438007e+10 -7.509563e+09 6.6164466e+10 -4.776783e+09 4.6272967e+10 5.752759e+10 -4.5892956e+09 4.2779357e+10
3.916938e+10 -8.373026e+09 8.228184e+08 6.3515517e+10 3.4666144e+10 3.733965e+10 -6.3003924e+09 5.651058e+10
-7.4442225e+09 -9.423983e+08 -6.7326377e+09 -8.951262e+08 5.3396324e+10 2.2441446e+09 -2.8866703e+09 4.698872e+10
00000000: f11b 5f51 e7ec 21d0 7607 f2cf 64f0 1051
00000010: 1043 19cf 6457 3e51 2c0b eb50 c388 4551
00000020: e9ad a94d 5b36 0951 a604 e1cf d393 0751
00000030: 2028 3f51 f459 1951 29d2 dacf adf1 2251
00000040: f1f2 7151 e4fc b1cf 229b 2ed0 c9e0 cacf
00000050: 6056 b4cf c677 d1cf 1ff6 c1cf 4a5a 1d51
00000060: 7f37 1651 37bd 9150 5782 3d51 b420 2751
00000070: 769a a34e 03b1 c7cf 748f fdcf fe95 4b51
00000080: 41a1 8751 e0fa ffcf 028c 3d51 283b 0b51
00000090: ed50 0851 8be5 2f51 a67f 2151 c01a c150
000000a0: 0288 2751 d553 0a51 7a23 90ce d192 4451
000000b0: 0f57 1e51 2eeb 0ad0 0d68 bbce 840f 2a51
000000c0: 61fe 1ad0 fc69 e3cf 224e 1c51 80cd d1cf
000000d0: b083 e8ce 90c5 ff50 38bf da50 1c79 1a51
000000e0: e128 0851 5b34 2151 69f9 c250 dad5 e64e
000000f0: eff6 1551 2c69 decf 9471 1151 774e 26d0
00000100: 88e9 0d51 7073 9fcf 7256 7a51 77e0 f4cf
00000110: b553 3951 1b94 5351 4436 21d0 5044 804d
00000120: 9f69 3151 367d f9cd 274a bf4e 6402 d350
00000130: 83ea 1ad0 dc19 4b51 d37f a4ce 6468 0a51
00000140: 50cd 2d51 4494 9ecf e9b0 f64e 9086 484b
00000150: d5f2 3c51 1b3d b04e e438 754e e079 1951
00000160: 4c9f 4751 28b9 124e 00aa f450 5f01 4851
00000170: e7f7 8050 b496 e750 b3dd f7cf 2e2f 6f51
00000180: 8aaa e74e 3352 1e51 7003 85cf 241f f350
00000190: 6935 1351 74af 2a51 3b65 2651 0473 a24b
000001a0: 8970 2ad0 6bcd dfcf 5a7b 7651 f65b 8ecf
000001b0: 5761 2c51 964e 5651 8cc5 88cf 935d 1f51
000001c0: d5ea 1151 1e89 f9cf da2c 444e 1e9d 6c51
000001d0: 3624 0151 dd19 0b51 2ec4 bbcf b084 5251
000001e0: e9da ddcf 6daf 60ce f3a5 c8cf 2b6a 55ce
000001f0: b4ea 4651 eec2 054f 180f 2ccf ef0b 2f51

layers.2.running_var f4 [128]
6.0241155e+20 1.9163472e+19 4.227086e+19 5.4061572e+20 4.0561925e+19 3.9750012e+20 4.5865324e+20 3.8097364e+20
4.498669e+19 1.3671568e+20 3.6583028e+19 3.2955337e+20 3.8593995e+20 6.993044e+20 3.6711633e+19 6.69443e+20
6.435348e+20 1.1315093e+19 2.509347e+19 1.9832907e+19 9.1927204e+18 3.3851643e+19 3.1211764e+19 6.740941e+20
7.23576e+20 1.9566457e+20 3.732873e+20 3.2460447e+20 4.084246e+19 1.3443654e+19 4.3701585e+19 5.4304943e+20
9.995309e+20 4.9771294e+19 7.919521e+20 5.473096e+20 5.0514608e+20 8.139364e+20 6.8177074e+20 3.4444564e+20
6.251921e+20 5.919031e+20 6.6829913e+19 3.7345523e+20 6.665986e+20 1.9968596e+19 4.9799367e+19 7.152624e+20
2.6811204e+19 2.0666471e+19 6.4572056e+20 3.4113584e+19 2.7364698e+19 5.2265994e+20 2.6281185e+20 6.505348e+20
1.3663191e+20 2.4232007e+20 3.382851e+20 4.9595658e+19 5.66447e+20 2.5269508e+19 6.0218074e+20 2.1603559e+19
2.4504012e+20 5.9944577e+18 8.2400125e+20 1.3868447e+19 4.1149805e+20 4.963431e+20 1.950252e+19 5.1025643e+19
7.95513e+20 4.013211e+19 3.7083374e+19 4.046651e+20 1.8613718e+19 5.2902205e+20 5.4545052e+19 3.9322983e+20
8.2231634e+20 1.3135284e+19 4.3542596e+19 4.6695366e+19 4.071826e+20 4.429041e+19 2.5671257e+19 5.6052434e+20
4.5454377e+20 5.3629577e+19 4.9943087e+20 1.01732016e+21 2.09267e+19 1.1907921e+20 4.429834e+19 7.257563e+20
5.864509e+19 6.752121e+20 1.9089455e+19 4.5579556e+20 4.524722e+20 7.496991e+20 3.774569e+20 3.8513953e+19
2.2850224e+19 3.5303986e+19 7.651412e+20 3.4790573e+19 7.1732455e+20 6.970945e+20 3.055993e+19 6.621509e+20
5.243593e+20 3.1402342e+19 4.735384e+19 7.511589e+20 2.3703907e+20 3.9381593e+20 3.024188e+19 7.849176e+20
1.3734555e+19 7.108449e+19 2.2387183e+19 2.5302797e+19 9.5989054e+20 3.0731664e+19 6.1651125e+19 4.300245e+20
00000000: 8fa0 0262 2af9 845f 11a8 1260 6774 ea61
00000010: 3aba 0c60 6163 ac61 bde8 c661 9238 a561
00000020: 3514 1c60 f529 ed60 83d8 fd5f c6eb 8e61
00000030: f15f a761 31a3 1762 f6bc fe5f 8d29 1162
00000040: 5c8b 0b62 4907 1d5f f51e ae5f 529e 895f
00000050: 3526 ff5e 99e4 ea5f 3b93 d85f bd2b 1262
00000060: 89e6 1c62 43b6 2961 37e3 a161 56c6 8c61
00000070: 64b3 0d60 7491 3a5f ce9e 1760 9982 eb61
00000080: 1cbd 5862 caad 2c60 2cba 2b62 925b ed61
00000090: 7b12 db61 8c7e 3062 e1d5 1362 2661 9561
000000a0: 2291 0762 3959 0062 e3dc 6760 dcf5 a161
000000b0: a88b 1062 5a8f 8a5f b9c6 2c60 0a19 1b62
000000c0: 440a ba5f 0767 8f5f b104 0c62 e6b5 ec5f
000000d0: 78e1 bd5f e9aa e261 f4f3 6361 f00f 0d62
000000e0: c204 ed60 dd2d 5261 31b5 9261 cb11 2c60
000000f0: 40a8 f561 aa57 af5f bf93 0262 a1e7 955f
00000100: d689 5461 2f61 a65e 42ad 3262 9f76 405f
00000110: 7675 b261 2741 d761 6f53 875f e007 3160
00000120: d87f 2c62 793c 0b60 a7a8 0060 da7e af61
00000130: 9b28 815f 3f6d e561 bd3d 3d60 4889 aa61
00000140: ba4f 3262 e749 365f 9811 1760 d101 2260
00000150: 5a96 b061 c9a9 1960 5021 b25f b416 f361
00000160: 7f20 c561 a210 3a60 f797 d861 9d98 5c62
00000170: 4935 915f cb91 ce60 d4b0 1960 915f 1d62
00000180: 4e77 4b60 cd69 1262 af75 845f 79ab c561
00000190: 813a c461 a990 2262 22b2 a361 439f 0560
000001a0: 278e 9e5f 7af8 f45f dee9 2562 7968 f15f
000001b0: 838b 1b62 8528 1762 570d d45f c294 0f62
000001c0: 9467 e361 c4e5 d95f a94a 2460 b2e1 2262
000001d0: 3f99 4d61 5aca aa61 5fd8 d15f ae33 2a62
000001e0: f19a 3e5f b69f 7660 a057 9b5f cc92 af5f
000001f0: a124 5062 673e d55f 33e5 5560 4f7e ba61

layers.3.weight f4 [128, 128]
0.014357544 -0.036867023 0.033239182 -0.008314868 0.011958917 0.010884963 -0.04850346 0.026610697
0.004664152 0.025003638 0.04039279 -0.0032554092 0.019666934 -0.030784423 0.029418087 -0.016863957
0.026037553 0.006126101 -0.0343005 0.00848637 -0.0019788481 0.033395667 0.03751913 -0.022056142
-0.012314321 -0.011130717 0.025531156 0.028498331 0.03194988 -0.012276244 0.03679905 0.02396769
0.0040396093 0.011265364 -0.020744383 -0.01531039 -0.015351134 -0.023270898 -0.014460591 -0.008346259
-0.019677818 -0.03314916 0.020012544 0.016226703 -0.021944657 -0.015456759 -0.009513447 -0.02451296
-0.0066683763 -0.0004989767 -0.012867517 0.032102644 0.011522805 -0.03301814 -0.005011469 -0.031569064
0.038886406 0.012046255 -0.014851789 0.0025233887 -0.014562587 0.013079199 -0.025939608 -0.043693945
0.03061958 -0.0065089855 0.021140309 -0.024344252 0.005826536 0.025855757 -0.05228538 0.013142812
-0.023502123 0.019468876 -0.011359701 -0.014614238 -0.03657035 0.006961417 0.027252607 0.0019223302
-0.020125668 -0.0059417007 -0.0018515681 0.01089553 0.005465611 0.020982152 0.007906331 -0.006381113
0.01758328 0.018473726 -0.038740404 -0.024346126 0.045521997 0.032889776 0.035003252 0.011603878
0.009969149 -0.038503323 -0.011624284 -0.047598153 0.0039921957 -0.027329298 0.019849898 -0.023778753
-0.027024794 0.03945106 0.006188472 0.006659704 -0.006136508 0.0038843793 0.021475866 -0.028173806
-0.013813425 0.027103059 0.0024352032 0.010066074 0.023873527 -0.003168249 0.032100957 0.002677691
0.0074869553 0.021174878 -0.0033133829 -0.002359229 -0.017572759 -0.0050147087 -0.0052810106 0.0068785255
-0.06384857 0.067353606 -0.061329767 0.02457278 -0.09473493 -0.02508799 0.0288608 -0.040892955
-0.11432649 -0.020584268 -0.07187318 -0.0019492507 -0.026588244 0.05153633 -0.046825364 0.022629887
-0.07064142 -0.007093907 0.0754733 -0.0150708 0.0012139523 -0.047871254 -0.044038113 0.024734706
0.021094484 0.016555913 -0.07007586 -0.05071924 -0.107866205 -0.010874421 -0.060025938 -0.07342242
-0.02228997 -0.018995337 0.047130793 0.020987293 0.019516587 0.04943602 0.030452702 0.013705786
0.03867411 0.047933847 -0.078991756 -0.026727282 0.0331924 -0.011315819 -0.09694501 0.036247227
-0.0048295297 0.0013244222 0.02472305 -0.032281965 -0.01738451 0.054818083 0.0061236555 0.04000865
-0.023748903 0.0052377223 0.020363957 -0.12438411 0.027168067 -0.009935698 0.06503341 0.07023472
-0.05397726 0.004120072 -0.0452289 0.04660729 -0.009596378 -0.034234237 0.06696396 -0.071672685
0.040901758 -0.07979382 -0.04638052 0.017612698 0.06273282 -0.035213232 -0.08259896 0.021619488
0.022858556 -0.007950962 -0.061939135 -0.12065634 -0.06834472 -0.110332824 -0.033271186 0.026257971
-0.016643684 -0.07015772 0.03941799 0.05582435 -0.03058663 -0.026143314 -0.07422983 -0.023060465
-0.028412389 0.040114272 0.0012276843 0.044907246 0.008785096 0.037736543 -0.06410445 -0.0889286
0.040005043 -0.071190886 -0.024849085 -0.025262594 0.024962213 0.007271079 -0.0077847643 0.025785295
0.012299215 -0.05028509 -0.09053435 -0.0247921 -0.03660494 0.004578147 -0.05676516 0.008096997
0.0038822049 -0.09052254 -0.00933248 -0.0070048813 0.02921778 0.006496268 -0.11106165 -0.024057407
00000000: e73b 6b3c e001 17bd cf25 083d 163b 08bc
00000010: 55ef 433c d856 323c 90ab 46bd adfe d93c
00000020: bed5 983b 6ed4 cc3c e972 253d b458 55bb
00000030: 8d1c a13c 9d2f fcbc 33fe f03c 4826 8abc
00000040: b54c d53c 76bd c83b ae7e 0cbd 6a0a 0b3c
00000050: 90af 01bb e5c9 083d a9ad 193d 15af b4bc
00000060: 01c2 49bc 9c5d 36bc b726 d13c 5575 e93c
00000070: e1dd 023d 4d22 49bc 9aba 163d e457 c43c
00000080: b35e 843b 5c92 383c 20f0 a9bc 6ed8 7abc
00000090: 5383 7bbc 9ca2 bebc 1dec 6cbc bfbe 08bc
000000a0: 6033 a1bc 6ac7 07bd 59f1 a33c dded 843c
000000b0: 48c5 b3bc 593e 7dbc 4ade 1bbc 67cf c8bc
000000c0: 6582 dabb c2cd 02ba 47d2 52bc 107e 033d
000000d0: 26ca 3c3c 073e 07bd 4037 a4bb 904e 01bd
000000e0: 5a47 1f3d a85d 453c eb54 73bc 705f 253b
000000f0: eb97 6ebc 234a 563c 4d7f d4bc 6cf8 32bd
00000100: ead5 fa3c 5449 d5bb 712e ad3c 996d c7bc
00000110: 87ec be3b 74cf d33c 3229 56bd f354 573c
00000120: 8687 c0bc 317d 9f3c 0a1e 3abc 8f70 6fbc
00000130: cbca 15bd 991c e43b dc40 df3c b3f6 fb3a
00000140: 96de a4bc 99b2 c2bb 51b0 f2ba 2a83 323c
00000150: de18 b33b c3e2 ab3c 8e89 013c a818 d1bb
00000160: d00a 903c 3656 973c 42ae 1ebd 8771 c7bc
00000170: 4675 3a3d 6eb7 063d 925f 0f3d 311e 3e3c
00000180: a455 233c a9b5 1dbd c873 3ebc 48f6 42bd
00000190: f7d0 823b b1e1 dfbc 419c a23c a9cb c2bc
000001a0: 1a63 ddbc 6f97 213d aac8 ca3b a539 da3b
000001b0: c314 c9bb 1291 7e3b 28ee af3c c1cc e6bc
000001c0: b451 62bc 3c07 de3c ee97 1f3b 2dec 243c
000001d0: 6a92 c33c 66a2 4fbb 4b7c 033d 337c 2f3b
000001e0: 2255 f53b f076 ad3c 5725 59bb 4b9d 1abb
000001f0: bff4 8fbc 6d52 a4bb 540c adbb 4165 e13b
00000200: 0ac3 82bd b0f0 893d ec34 7bbd db4c c93c
00000210: 6304 c2bd 5485 cdbc 7c6d ec3c 5f7f 27bd
00000220: 0224 eabd 57a0 a8bc 3f32 93bd 007e ffba
00000230: 97cf d9bc c217 533d f4cb 3fbd 5062 b93c
00000240: 73ac 90bd 0174 e8bb bf91 9a3d 84eb 76bc
00000250: 7b1d 9f3a a614 44bd 4f61 34bd 70a0 ca3c
00000260: 57ce ac3c 44a0 873c ef83 8fbd fabe 4fbd
00000270: f5e8 dcbd a12a 32bc c2dd 75bd 7e5e 96bd
00000280: 7599 b6bc 1c9c 9bbc 380c 413d 8bed ab3c
00000290: 40e1 9f3c 6d7d 4a3d f277 f93c 3c8e 603c
000002a0: be68 1e3d 4856 443d 6ec6 a1bd 2cf3 dabc
000002b0: c1f4 073d fc65 39bc 1b8b c6bd f977 143d
000002c0: 0841 9ebb 3c98 ad3a fe87 ca3c 183a 04bd
000002d0: f669 8ebc ed88 603d f2a8 c83b 1ce0 233d
000002e0: 0f8d c2bc 33a1 ab3b 50d2 a63c 19bd febd
000002f0: 918f de3c 56c9 22bc 3d30 853d 39d7 8f3d
00000300: 4217 5dbd ab01 873b f041 39bd 49e7 3e3d
00000310: 203a 1dbc 3339 0cbd 6724 893d 21c9 92bd
00000320: 9a88 273d f16a a3bd 80f9 3dbd 8148 903c
00000330: 117a 803d c03b 10bd a529 a9bd 5a1b b13c
00000340: de41 bb3c c044 02bc e4b3 7dbd ac1a f7bd
00000350: 51f8 8bbd 2df6 e1bd 5e47 08bd f51a d73c
00000360: 5658 88bc daae 8fbd c274 213d 13a8 643d
00000370: d090 fabc 812a d6bc cf05 98bd 4de9 bcbc
00000380: 19c1 e8bc dd4e 243d 40ea a03a a9f0 373d
00000390: 5def 0f3c a291 1a3d 3249 83bd 3320 b6bd
000003a0: 54dc 233d 87cc 91bd 4f90 cbbc 80f3 cebc
000003b0: 8e7d cc3c 3b42 ee3b 5617 ffbb af3b d33c
000003c0: a682 493c bdf7 4dbd 136a b9bd cd18 cbbc
000003d0: 10ef 15bd 4804 963b 9682 68bd 44a9 043c
000003e0: 976c 7e3b e263 b9bd 42e7 18bc 3489 e5bb
000003f0: 205a ef3c a5de d43b 4a74 e3bd 0a14 c5bc

layers.3.bias f4 [128]
0.06780984 0.17198177 0.06671354 -0.025473345 -0.1598231 0.04055869 -0.043178868 0.031138627
0.03892226 -0.036721453 0.057933472 -0.015539595 -0.16904785 0.08716668 0.14817716 0.015529766
-0.02951065 -0.091484815 0.12338745 0.008395757 0.12874429 -0.086779065 -0.0075641805 0.11523686
0.07690949 -0.07928052 0.073193625 -0.09140908 -0.047591854 -0.049236808 -0.022038264 -0.04040112
-0.14710155 0.06049988 0.11936873 -0.04891175 0.017132368 0.06354383 0.017010046 -0.024271898
0.07522334 -0.06558183 0.027901275 0.020048216 -0.044561077 -0.008001769 -0.13012953 -0.018005127
-0.122866005 -0.012716676 0.07431366 0.08542643 0.036532607 0.13156581 0.026158122 0.07674384
-0.07777945 0.06409359 -0.065837905 0.063950986 -0.14534795 0.07638841 -0.062138062 0.14004609
-0.07544224 0.058281086 -0.020309716 0.0258112 -0.14965045 -0.028948013 -0.08880015 0.027341241
-0.14691357 -0.062257443 -0.005991074 0.016074995 -0.053915456 0.021835195 0.106315464 0.14926772
0.13087049 0.008990897 0.1534102 0.03344048 0.017036747 0.049049415 0.119512565 -0.03152436
0.013044252 -0.03313214 0.11720365 0.084347054 -0.06944961 0.03565496 0.14009415 0.026565325
-0.12885289 0.09860107 0.14634171 -0.13751706 -0.015049063 0.051185343 0.14220837 -0.08476358
-0.03495247 0.07769234 -0.14637864 -0.04468883 -0.0133693395 -0.083446525 0.105479434 0.08753372
-0.017445592 0.06935839 -0.07143949 0.13873257 -0.11283752 0.09082351 -0.036491238 -0.08838296
0.08841098 -0.061477657 -0.0694448 -0.01849202 0.03773607 -0.0106167765 0.09036001 0.054928903
00000000: e3df 8a3d fd1b 303e 1ca1 883d 7aad d0bc
00000010: aba8 23be de20 263d 53dc 30bd 6f16 ff3c
00000020: f36c 1f3d 3c69 16bd a64b 6d3d c999 7ebc
00000030: e11a 2dbe 7284 b23d c1bb 173e 8f70 7e3c
00000040: 52c0 f1bc 645c bbbd 8fb2 fc3d 5b8e 093c
00000050: 8bd5 033e 39b9 b1bd f2dc f7bb 4e01 ec3d
00000060: b982 9d3d d35d a2bd 8ae6 953d af34 bbbd
00000070: adef 42bd 89ac 49bd 9789 b4bc a57b 25bd
00000080: caa1 16be b9ce 773d 9877 f43d b057 48bd
00000090: 2e59 8c3c 4423 823d a758 8b3c dcd5 c6bc
000000a0: b20e 9a3d c44f 86bd 3791 e43c 283c a43c
000000b0: ad85 36bd da19 03bc ad40 05be 7d7f 93bc
000000c0: 2ca1 fbbd 9b59 50bc c331 983d 0df4 ae3d
000000d0: 37a3 153d 30b9 063e 8f49 d63c e02b 9d3d
000000e0: d54a 9fbd 8043 833d 06d6 86bd bcf8 823d
000000f0: 18d6 14be 8771 9c3d 7b84 7ebd 3e68 0f3e
00000100: 7681 9abd 26b8 6e3d 9060 a6bc 0272 d33c
00000110: f83d 19be 6224 edbc dadc b5bd bdfa df3c
00000120: 8370 16be a901 7fbd c550 c4bb b5af 833c
00000130: 74d6 5cbd b9df b23c ecbb d93d a3d9 183e
00000140: ea02 063e 8e4e 133c 9017 1d3e e2f8 083d
00000150: a690 8b3c 0ae8 483d 01c3 f43d b01f 01bd
00000160: 8fb7 553c 91b5 07bd 7808 f03d 26be ac3d
00000170: 993b 8ebd ef0a 123d d774 0f3e 869f d93c
00000180: 03f2 03be 5cef c93d 9ada 153e 46d1 0cbe
00000190: 5890 76bc b9a7 513d 129f 113e 8798 adbd
000001a0: 522a 0fbd 291d 9f3d 48e4 15be a20b 37bd
000001b0: 130b 5bbc 03e6 aabd 9a05 d83d e144 b33d
000001c0: 0fea 8ebc c60b 8e3d de4e 92bd e90f 0e3e
000001d0: 5c17 e7bd ad01 ba3d d677 15bd 2002 b5bd
000001e0: d110 b53d ffcf 7bbd 1339 8ebd 947c 97bc
000001f0: 2391 1a3d fdf1 2dbc ab0e b93d 21fd 603d

layers.6.weight f4 [128]
0.8687826 1.0004067 0.8902932 0.86104476 0.99315214 0.92276365 0.91389585 0.9401603
0.92702466 0.9156325 0.9272399 0.9058041 0.9495625 0.889162 0.943985 0.9117265
0.8778867 0.9219738 0.86411893 0.882091 0.89214844 0.8966077 0.9222308 0.908242
0.9043852 0.9111463 0.9246732 0.90395886 0.9099643 0.8937822 0.9009862 0.8717278
0.97084236 0.8840103 0.96438426 0.8843029 0.92025983 0.8872162 0.89545965 0.8985168
0.8868798 0.90779567 0.91565555 0.9070543 0.91354203 0.92596185 0.8929941 0.9306123
0.9259812 0.9349369 0.9125863 0.9367963 0.92670166 0.9038357 0.92858666 0.90420073
0.9442693 0.8760487 0.92297816 0.8657828 0.98027605 0.9458673 0.90110475 0.860648
0.88388145 0.90475285 0.92960584 0.91979223 1.0076426 0.89119726 0.93185556 0.94750386
0.9512253 0.8962855 0.93031645 0.9283534 0.96674997 0.94139904 0.89996105 0.9040825
0.9037529 0.9114342 0.9334225 0.9176351 0.9108429 0.9286432 0.95178 0.9032366
0.89384747 0.8634296 0.8790714 0.97327673 0.9315347 0.8976488 0.93599325 0.9509108
0.9614999 0.95068324 0.9229055 0.9951912 0.89101636 0.90812594 0.92450565 0.92081386
0.89683056 0.9476789 0.99994355 0.9052473 0.9099034 0.9632706 0.87839067 0.8921071
0.9387379 0.8733825 0.8801239 0.89503276 0.89812917 0.96004915 0.8732879 0.9273686
0.9519377 0.93887055 0.9142202 0.86943793 0.9362932 0.92902035 0.87484753 0.8766297
00000000: 8968 5e3f 540d 803f 41ea 633f 6e6d 5c3f
00000010: 383f 7e3f 3d3a 6c3f 14f5 693f 58ae 703f
00000020: 7d51 6d3f e466 6a3f 985f 6d3f c7e2 673f
00000030: 8716 733f 1fa0 633f 00a9 713f e866 693f
00000040: 2fbd 603f 7a06 6c3f e636 5d3f b7d0 613f
00000050: d763 643f 1588 653f 5117 6c3f 8c82 683f
00000060: ca85 673f e240 693f 62b7 6c3f d969 673f
00000070: 6cf3 683f e9ce 643f 08a7 663f 8e29 5f3f
00000080: 2089 783f 804e 623f e3e1 763f ad61 623f
00000090: 2696 6b3f 9a20 633f d83c 653f 3205 663f
000000a0: 8e0a 633f 4c65 683f 6768 6a3f b634 683f
000000b0: e4dd 693f d60b 6d3f 439b 643f 9c3c 6e3f
000000c0: 1b0d 6d3f 0658 6f3f 419f 693f e2d1 6f3f
000000d0: 523c 6d3f c761 673f dbb7 6d3f b379 673f
000000e0: a2bb 713f ba44 603f 4c48 6c3f f1a3 5d3f
000000f0: 5ff3 7a3f 5c24 723f cdae 663f 6d53 5c3f
00000100: 0e46 623f e29d 673f a6fa 6d3f 8177 6b3f
00000110: 6ffa 803f 8125 643f 168e 6e3f 9d8f 723f
00000120: 8083 733f f772 653f 3829 6e3f 92a8 6d3f
00000130: ed7c 773f 87ff 703f d963 663f f371 673f
00000140: 5a5c 673f c053 693f c7f4 6e3f 22ea 6a3f
00000150: 002d 693f 90bb 6d3f dba7 733f 843a 673f
00000160: 30d3 643f b909 5d3f d30a 613f aa28 793f
00000170: 0f79 6e3f 50cc 653f 419d 6f3f e46e 733f
00000180: dc24 763f fa5f 733f 8943 6c3f dac4 7e3f
00000190: a619 643f f17a 683f 67ac 6c3f 75ba 6b3f
000001a0: b096 653f 169b 723f 4dfc 7f3f 49be 673f
000001b0: 6eef 683f e798 763f 36de 603f 2261 643f
000001c0: 2151 703f ff95 5f3f cd4f 613f de20 653f
000001d0: cbeb 653f c8c5 753f cc8f 5f3f 0768 6d3f
000001e0: 30b2 733f d259 703f 560a 6a3f 7c93 5e3f
000001f0: e9b0 6f3f 47d4 6d3f 02f6 5f3f ce6a 603f

layers.6.bias f4 [128]
0.07731039 0.16734526 0.10515789 0.09326039 -0.17163882 0.13786566 -0.119910754 0.12002653
-0.06428708 -0.14125308 0.15827523 -0.14188266 -0.16435371 0.13368885 0.1298106 0.12762052
-0.07934509 -0.17074808 0.12536222 -0.0066119954 0.16608247 -0.15383671 0.10133459 0.12510872
0.15152244 -0.14020154 0.14071423 -0.11432726 -0.14474519 0.08521392 -0.0155130355 -0.045397174
-0.14859122 -0.09538687 0.15066727 -0.11489299 -0.06572358 0.1110549 -0.122849904 0.002779401
0.12278808 -0.1453667 0.088945694 -0.08116748 -0.07098661 -0.048678532 -0.08273041 -0.111239485
-0.14539167 -0.14839147 0.15224525 0.156341 0.15268417 0.09320753 -0.12568697 0.12950197
0.0440833 0.15018202 -0.10822768 0.023694823 -0.1524522 0.14868365 -0.14682433 0.13411857
0.046441745 0.128582 -0.14422074 -0.135075 -0.15815207 0.13038348 -0.14978509 0.15743619
-0.17553289 -0.118817195 -0.10161173 0.14140171 -0.1515072 -0.1366996 0.15862267 0.16090457
0.14741634 0.12345568 0.14649558 0.11568224 0.030157391 0.13317347 0.14005092 0.07141718
-0.049825083 -0.01593971 0.12922353 0.14670768 0.08625273 -0.05894137 0.16067061 -0.14037514
-0.15304098 0.15015897 0.133968 -0.11661118 0.1387899 0.008920521 0.1544167 -0.083219096
0.016987912 0.14705408 -0.10349575 -0.13208827 -0.0018317463 -0.1466224 0.13235055 0.051564205
0.13393128 0.0048149102 -0.102445 0.15027677 -0.1465596 0.154127 -0.013547859 -0.14672782
0.14893325 -0.11542607 -0.037755728 -0.15875532 -0.114407845 0.11941755 0.11615095 0.09933514
00000000: e954 9e3d 8e5c 2b3e 055d d73d 4eff be3d
00000010: 16c2 2fbe a82c 0d3e c593 f5bd 78d0 f53d
00000020: f2a8 83bd a6a4 10be e712 223e b049 11be
00000030: 574c 28be bbe5 083e 12ed 043e f4ae 023e
00000040: ae7f a2bd 96d8 2ebe f45e 003e 70a9 d8bb
00000050: 8611 2a3e 5f87 1dbe 8288 cf3d 801c 003e
00000060: b328 1b3e fe90 0fbe 6417 103e 6924 eabd
00000070: 1538 14be a384 ae3d 632a 7ebc 63f2 39bd
00000080: 4c28 18be 315a c3bd 8548 1a3e 044d ebbd
00000090: 169a 86bd c070 e33d bb98 fbbd 9c26 363b
000000a0: 5178 fb3d 02db 14be 2929 b63d 233b a6bd
000000b0: 6e61 91bd 2463 47bd 906e a9bd 87d1 e3bd
000000c0: 8ee1 14be eff3 17be 2ee6 1b3e db17 203e
000000d0: 3d59 1c3e 97e3 be3d 16b4 00be 2a9c 043e
000000e0: b190 343d 51c9 193e 79a6 ddbd a51b c23c
000000f0: 6e1c 1cbe 8740 183e 1e59 16be 6156 093e
00000100: b339 3e3d 00ab 033e 9aae 13be 1a51 0abe
00000110: 9ef2 21be 3f83 053e 4361 19be f436 213e
00000120: e5be 33be 6e56 f3bd d019 d0bd 9ccb 103e
00000130: b424 1bbe fbfa 0bbe fb6d 223e 2bc4 243e
00000140: 4ff4 163e 55d6 fc3d f002 163e cfea ec3d
00000150: a20c f73c a05e 083e 8269 0f3e 2c43 923d
00000160: 6315 4cbd ff93 82bc 2c53 043e 8a3a 163e
00000170: 45a5 b03d 826c 71bd d686 243e 80be 0fbe
00000180: c6b6 1cbe 46c3 193e e82e 093e d8d1 eebd
00000190: f11e 0e3e 6027 123c 691f 1e3e c66e aabd
000001a0: 3c2a 8b3c 5895 163e 94f5 d3bd 2642 07be
000001b0: 3517 f0ba 2f24 16be e786 073e fd34 533d
000001c0: 4825 093e 65c6 9d3b afce d1bd 27e2 193e
000001d0: b813 16be 78d3 1d3e d7f7 5dbc d13f 16be
000001e0: f581 183e 8164 ecbd c0a5 1abd c190 22be
000001f0: a94e eabd 3091 f43d 8de0 ed3d 3970 cb3d

layers.6.running_mean f4 [128]
-0.21115763 0.37607285 -0.14849079 0.16994281 -0.3586201 0.2853246 -0.23233202 0.4171836
0.12124412 -0.25010884 0.43241164 0.23206106 -0.4296864 0.2539863 0.41443917 -0.26323324
0.15288067 -0.32924706 0.2940014 0.18483372 0.3235266 -0.12521373 0.13822196 0.31840768
0.29213506 -0.42879957 0.28334758 -0.3447503 0.24602982 -0.029689819 -0.29337254 -0.23471726
-0.35199973 -0.043538652 0.43094814 -0.16815396 0.02270965 0.20617104 -0.18185371 0.22952352
-0.25011337 -0.21683095 -0.23032248 -0.0763174 0.1270924 -0.23540622 -0.26090658 -0.29500553
-0.34120998 0.36941433 0.20621713 0.29367068 0.3407144 0.46483567 -0.20517783 0.40780613
-0.019438507 0.32750785 -0.39099744 0.01604783 -0.4609864 0.39887476 -0.36338606 0.31074628
0.09161742 0.34128165 -0.29322237 -0.15543185 -0.3997623 0.15396485 -0.36768565 -0.2540415
-0.3821602 -0.19424784 -0.19025388 0.28942204 -0.42925066 -0.11956701 0.24091868 0.45084807
0.3868283 0.33527395 0.38552356 0.21919367 0.28564656 0.35348216 0.47078413 0.22989795
0.123388894 0.17884918 0.34107685 0.42524892 0.09230728 -0.13359141 0.30446488 0.12229819
-0.40242213 0.2964722 0.30251414 -0.43869174 0.04680089 0.27436814 0.3260577 -0.42470834
-0.27013078 0.34741545 -0.45981133 -0.20062152 0.26064467 -0.34736758 0.37716386 -0.074833095
0.1487942 -0.22981927 -0.26994044 0.39578858 -0.29772907 0.4142564 -0.30516052 -0.25653487
0.26350993 -0.4279173 -0.23806301 -0.14053549 0.18283907 0.22156686 0.2706145 0.37877384
00000000: b539 58be 9f8c c03e f80d 18be 7d05 2e3e
00000010: 0e9d b7be 1116 923e 72e8 6dbe 1799 d53e
00000020: d64e f83d 440e 80be 0f65 dd3e 6aa1 6d3e
00000030: dbff dbbe 7e0a 823e 5f31 d43e 82c6 86be
00000040: c08c 1c3e 1293 a8be 5a87 963e 0d45 3d3e
00000050: 47a5 a53e 0738 00be 0f8a 0d3e 5506 a33e
00000060: ba92 953e 9e8b dbbe ef12 913e 1c83 b0be
00000070: 3eef 7b3e 1038 f3bc ed34 96be b959 70be
00000080: 4f39 b4be 9655 32bd 3ca5 dc3e 8d30 2cbe
00000090: 9709 ba3c 801e 533e dc37 3abe 3708 6b3e
000000a0: dc0e 80be ef08 5ebe a8d9 6bbe 4c4c 9cbd
000000b0: 8324 023e 540e 71be 8c95 85be f70a 97be
000000c0: 13b3 aebe e023 bd3e 952a 533e 015c 963e
000000d0: 1e72 ae3e f1fe ed3e 231a 52be f7cb d03e
000000e0: 813d 9fbc 1caf a73e d130 c8be bd76 833c
000000f0: 6906 ecbe 5039 cc3e bd0d babe 231a 9f3e
00000100: eaa1 bb3d 78bc ae3e 3e21 96be 8729 1fbe
00000110: a5ad ccbe f6a8 1d3e 4b41 bcbe ba11 82be
00000120: 80aa c3be e8e8 46be ead1 42be 202f 943e
00000130: bec6 dbbe 8cdf f4bd 63b3 763e 8fd5 e63e
00000140: 5c0e c63e 07a9 ab3e 5863 c53e 4e74 603e
00000150: 4440 923e 9dfb b43e 9e0a f13e 5e6a 6b3e
00000160: 51b3 fc3d 3d24 373e a0a1 ae3e 3aba d93e
00000170: 990b bd3d 30cc 08be d2e2 9b3e 7977 fa3d
00000180: 460a cebe 34cb 973e 22e3 9a3e 349c e0be
00000190: 4ab2 3f3d fb79 8c3e 09f1 a63e 5f73 d9be
000001a0: 954e 8abe 70e0 b13e 646c ebbe ba6f 4dbe
000001b0: 3873 853e 2ada b1be 9f1b c13e 1842 99bd
000001c0: 825d 183e be55 6bbe a235 8abe cda4 ca3e
000001d0: f26f 98be 6a19 d43e 003e 9cbe 8a58 83be
000001e0: c6ea 863e fa17 dbbe cac6 73be 89e8 0fbe
000001f0: 2a3a 3b3e 6ce2 623e fc8d 8a3e a5ee c13e

layers.6.running_var f4 [128]
0.39132917 1.1063182 0.23935539 0.19924311 1.0627844 0.6979967 0.6263784 1.2934872
0.39943063 0.4762967 0.85775554 0.88001275 0.92979026 0.75424474 1.0035785 1.0415224
0.16900595 0.5097884 0.5091088 0.2144142 0.9221805 0.4335327 0.79574966 0.7797591
0.611833 0.9086361 0.9347822 1.1027503 0.8534526 0.7534356 0.86160296 0.18719712
0.8321366 0.21377082 1.0646396 0.35846117 0.6741124 0.20540625 0.65455145 0.25670153
0.7061571 0.32803988 0.4617127 0.34976077 0.25032535 0.65141416 0.76792 0.71076035
0.67806447 1.2443982 0.63123095 1.0903015 0.36611542 0.7115229 0.19060509 0.9337938
0.962991 0.9729932 1.037917 0.78320605 0.88199705 1.2495192 0.6503939 0.49904466
0.14643763 0.60923177 0.51838756 0.25871015 1.1714336 0.43693608 0.37221432 0.99975115
1.1015468 0.3930761 0.21842486 0.71052766 0.99881613 0.46737793 0.80754054 1.0199703
0.8808296 0.8658589 0.79748565 0.5006715 0.79107225 0.95888495 1.0404116 0.86180675
0.0774708 0.29879785 1.0281137 0.8415559 0.17782389 0.30967265 0.7121441 0.82532877
0.5040681 1.1504391 0.5790674 1.1816157 0.7337827 0.32110023 0.6218803 1.0105131
1.1480435 0.9587712 0.9370638 0.40326747 0.9295503 0.7355685 0.57975054 0.34277382
0.21637318 0.7187972 0.50905675 1.0580442 0.5600535 1.0060889 0.6356194 0.62223166
0.8995356 0.9467306 0.17698078 0.23357514 0.19492045 0.26376632 1.1427238 1.0011733
00000000: 4c5c c83e d69b 8d3f 9419 753e 6306 4c3e
00000010: 5209 883f e9af 323f 565a 203f fd90 a53f
00000020: 2c82 cc3e 29dd f33e de95 5b3f 8448 613f
00000030: bc06 6e3f 2f16 413f 4375 803f 9b50 853f
00000040: e50f 2d3e 7e81 023f f454 023f 658f 5b3e
00000050: 0514 6c3f 00f8 dd3e 40b6 4b3f 4b9e 473f
00000060: 16a1 1c3f 609c 683f e34d 6f3f ec26 8d3f
00000070: df7b 5a3f 28e1 403f 0392 5c3f 9ab0 3f3e
00000080: e706 553f bde6 5a3e 1c46 883f 3988 b73e
00000090: a192 2c3f 0456 523e af90 273f 626e 833e
000000a0: b6c6 343f d8f4 a73e 9b65 ec3e d813 b33e
000000b0: a52a 803e 14c3 263f 6896 443f 64f4 353f
000000c0: a295 2d3f 7148 9f3f 5a98 213f 008f 8b3f
000000d0: 7b73 bb3e 5d26 363f fb2d 433e 1c0d 6f3f
000000e0: 9486 763f 1516 793f 77da 843f 3180 483f
000000f0: 8fca 613f 3ff0 9f3f 3780 263f c882 ff3e
00000100: bff3 153e 9df6 1b3f 0cb5 043f a875 843e
00000110: 89f1 953f 16b6 df3e e092 be3e b1ef 7f3f
00000120: 7cff 8c3f 4541 c93e c4aa 5f3e 24e5 353f
00000130: 6ab2 7f3f 294c ef3e faba 4e3f 638e 823f
00000140: 0c7e 613f eea8 5d3f 0528 4c3f 022c 003f
00000150: b683 4a3f 7c79 753f 352c 853f 5e9f 5c3f
00000160: 03a9 9e3d 08fc 983e 3b99 833f 3570 573f
00000170: 7717 363e 6a8d 9e3e 134f 363f bf48 533f
00000180: 9b0a 013f 9741 933f c33d 143f 2f3f 973f
00000190: 2fd9 3b3f 4067 a43e 8c33 1f3f 7e58 813f
000001a0: 17f3 923f 0872 753f 6ae3 6f3f 1379 ce3e
000001b0: 02f7 6d3f 384e 3c3f 886a 143f 0d80 af3e
000001c0: ee90 5d3e 1803 383f 8b51 023f fe6d 873f
000001d0: ab5f 0f3f 85c7 803f f4b7 223f 934a 1f3f
000001e0: f747 663f f05c 723f 733a 353e 522e 6f3e
000001f0: 3a99 473e 610c 873e c644 923f 7226 803f
