ddpg/model_params/twitter_ddpg_45_170_critic.pth (torch, 398818 bytes, 17 tensors)

state_input.weight f4 [128, 65]
-0.016950605 -0.01695064 -0.016950639 -0.01695064 -0.016736362 -0.016950622 -0.016938685 -0.016950639
-0.016950639 -0.016950633 -0.016945738 0.01695064 -0.016950252 0.016950633 8.987904e-17 -0.01695019
-0.016950645 -0.016950622 0.01695064 3.2221236e-17 -0.016950268 1.6124038e-17 -0.016948136 8.187378e-17
0.015047128 -0.016941747 4.5297113e-19 7.9585965e-17 1.8414835e-18 -6.1255444e-17 -8.332152e-17 -0.016941898
-9.5341856e-17 -0.016948218 -0.016938685 -0.016882192 -5.3301398e-17 1.2847366e-17 -0.016950624 -8.706637e-18
-6.067564e-18 8.099243e-17 -2.1853147e-17 -1.3485615e-18 -0.01695064 -2.283126e-17 -1.4654818e-17 4.3128975e-17
-4.2277466e-17 3.7872133e-19 -3.4509744e-17 3.578302e-17 2.843156e-17 -0.016950639 -3.1355906e-17 -0.016948054
-0.01694804 -0.01694819 -0.016950622 -0.01694853 -0.016950639 -0.016947972 -4.393168e-17 -5.785169e-17
4.9193606e-18 0.014217425 0.016424613 0.016469408 0.01645119 3.73092e-10 0.009321746 -2.4509914e-09
0.016469931 0.016463444 0.01621682 2.81727e-06 -0.016264468 0.0108800735 -0.015215525 -7.691264e-18
5.0797013e-18 0.016457863 0.009013214 -0.016469916 2.4970958e-17 0.011664024 -6.316252e-18 0.007607643
5.4188152e-17 -1.2842724e-10 3.586576e-09 -8.3076376e-17 3.5830743e-18 2.4186571e-17 -6.4544965e-18 6.4290734e-17
-2.03826e-09 7.9368657e-19 0.0005649636 -1.2416242e-09 -3.6012426e-10 2.1689106e-17 2.483723e-16 0.015589059
-7.696487e-17 2.6457006e-17 -3.1189122e-18 2.5748693e-18 -4.2137206e-17 0.016460938 -1.7500124e-17 -7.29514e-17
1.5175013e-16 -3.0782686e-17 -3.2313473e-17 3.1886803e-18 -7.614057e-17 -2.7367118e-17 0.01635826 -1.3462019e-18
0.00041480537 0.00041774922 2.0360279e-10 0.009305241 0.00065610366 0.01643397 1.7075855e-09 8.340123e-18
-1.6259044e-17 -1.0935857e-17 0.014457428 0.015531421 0.015552908 0.015548299 -3.807249e-11 0.014887984
1.4889894e-09 0.015552924 0.015549898 0.015407473 0.00047249178 -0.015468821 0.012427906 -0.01534266
2.7950388e-16 0.014968465 0.015547235 0.014888529 -0.015552921 -9.351212e-17 0.01260859 -4.2173555e-19
0.010504344 -7.204502e-18 4.312932e-12 -7.3111106e-17 -3.0889283e-17 5.440695e-17 -9.7237645e-18 1.2729364e-18
-5.585587e-17 -8.793802e-19 -3.8361897e-17 0.0031006432 1.5122478e-09 2.6467493e-11 4.2994023e-17 3.4878137e-18
0.01509805 3.8433538e-17 8.149611e-17 -2.1233434e-17 2.712648e-19 1.2259043e-16 0.015547532 -1.9401302e-18
-9.407806e-19 -9.400824e-17 -1.667698e-16 -1.12766e-16 -3.7876145e-18 6.816187e-17 -7.903143e-17 0.014607807
2.8253677e-19 0.0023774651 6.3279756e-11 -2.9649488e-10 0.014887453 -4.6434197e-11 0.015495625 9.268915e-11
1.6061076e-16 3.0170285e-17 2.5661961e-18 -0.016173473 -0.016173977 -0.016173981 -0.01617398 -0.015332266
-0.016172256 -0.016087623 -0.016173981 -0.016173983 -0.016173968 -0.016152387 0.016173968 -0.016172487
0.016173605 9.205827e-19 -1.5876958e-17 -0.01617398 -0.016172163 0.016173981 1.3636689e-17 -0.016172726
2.5551846e-17 -0.016163103 -3.11677e-17 2.8034705e-10 -0.01613644 1.4446279e-18 -1.6171917e-17 -2.8974512e-17
3.0785823e-17 -1.0246324e-17 -0.01613765 2.5994213e-19 -0.016163435 0.016063508 0.015921539 -2.8755735e-19
-3.1577514e-17 -0.016173903 9.250764e-20 3.5484576e-17 -2.5186788e-17 5.3248577e-17 -1.2048271e-16 -0.016173985
-1.5120671e-17 3.2022653e-17 4.888226e-18 -5.270932e-17 3.95637e-18 7.231975e-17 2.2849491e-17 1.1546645e-16
-0.016173977 1.11015025e-17 -0.01616294 -0.016162781 -0.016162071 -0.016172249 -0.016163448 -0.01617398
00000000: ffdb 8abc 12dc 8abc 11dc 8abc 12dc 8abc
00000010: b21a 89bc 08dc 8abc ffc2 8abc 11dc 8abc
00000020: 11dc 8abc 0edc 8abc cad1 8abc 12dc 8a3c
00000030: 41db 8abc 0edc 8a3c 393f cf24 20db 8abc
00000040: 14dc 8abc 08dc 8abc 12dc 8a3c 1f98 1424
00000050: 4adb 8abc cfb7 9423 d1d6 8abc c0c9 bc24
00000060: 3b88 763c 6bc9 8abc 88b1 0521 4383 b724
00000070: a4e0 0722 d53e 8da4 5820 c0a4 bcc9 8abc
00000080: e6d7 dba4 fdd6 8abc ffc2 8abc 864c 8abc
00000090: 2fcf 75a4 f8fd 6c23 09dc 8abc ee9b 20a3
000000a0: 86da dfa2 7ec1 ba24 498f c9a3 3703 c7a1
000000b0: 12dc 8abc ca94 d2a3 b62a 87a3 b5e5 4624
000000c0: 6cf8 42a4 c08e df20 ea25 1fa4 2205 2524
000000d0: 101e 0324 11dc 8abc 859a 10a4 a5d6 8abc
000000e0: 9ed6 8abc eed6 8abc 08dc 8abc a5d7 8abc
000000f0: 11dc 8abc 79d6 8abc 6099 4aa4 9c65 85a4
00000100: 0c7e b522 34f0 683c e98c 863c daea 863c
00000110: a5c4 863c 081c cd2f 3dba 183c 4c6e 28b1
00000120: f3eb 863c 58de 863c 23d9 843c 5410 3d36
00000130: 103d 85bc 5642 323c 8a4a 79bc f8e0 0da3
00000140: 6c68 bb22 a4d2 863c 29ac 133c ebeb 86bc
00000150: 0251 e623 761a 3f3c 5007 e9a2 8949 f93b
00000160: 14e6 7924 0e35 0daf b677 7631 a38f bfa4
00000170: 2e31 8422 ed14 df23 ff20 eea2 8d3e 9424
00000180: 7311 0cb1 4341 6a21 111a 143a c5a5 aab0
00000190: fcfa c5af f40b c823 482d 8f25 4169 7f3c
000001a0: 0a78 b1a4 d705 f423 9622 66a2 e8fd 3d22
000001b0: d552 42a4 17d9 863c 0069 a1a3 e836 a8a4
000001c0: bcf4 2e25 c8f5 0da4 0405 15a4 7848 6b22
000001d0: 7691 afa4 c86a fca3 c201 863c 12aa c6a1
000001e0: 3c7a d939 5a05 db39 17dd 5f2f 0275 183c
000001f0: 5ffe 2b3a 88a0 863c 53b0 ea30 1ed9 1923
00000200: 95f6 95a3 20bb 49a3 d9de 6c3c 8077 7e3c
00000210: a0d1 7e3c 4bbe 7e3c d071 27ae bbec 733c
00000220: 28a5 cc30 b1d1 7e3c 00c5 7e3c a06f 7c3c
00000230: c6b8 f739 f070 7dbc 6a9e 4b3c c85f 7bbc
00000240: 7e1f a125 4b3e 753c d4b9 7e3c 04ef 733c
00000250: aed1 7ebc d09f d7a4 4294 4e3c e0f2 f8a0
00000260: 691a 2c3c 4ce6 04a3 70bf 972c 2e95 a8a4
00000270: a173 0ea4 64e8 7a24 2e5f 33a3 2dda bb21
00000280: 7ccb 80a4 0bc6 81a1 bce9 30a4 2934 4b3b
00000290: 7dd7 cf30 7fcf e82d 6246 4624 78ad 8022
000002a0: d05d 773c 503e 3124 d0ea bb24 07d8 c3a3
000002b0: 6120 a020 4f56 0d25 13bb 7e3c 0628 0fa2
000002c0: b0d5 8aa1 acc4 d8a4 c245 40a5 a602 02a5
000002d0: 02bd 8ba2 ab2b 9d24 ec3b b6a4 9555 6f3c
000002e0: c0c7 a620 3fcf 1b3b 5627 8b2e f2ff a2af
000002f0: 81ea 733c 4238 4cae 5de1 7d3c 5ad3 cb2e
00000300: ee2b 3925 c922 0b24 135a 3d22 3b7e 84bc
00000310: 4a7f 84bc 4c7f 84bc 4b7f 84bc 2f34 7bbc
00000320: ae7b 84bc 31ca 83bc 4c7f 84bc 4d7f 84bc
00000330: 457f 84bc 0352 84bc 457f 843c 2a7c 84bc
00000340: 827e 843c a2da 8721 6870 92a3 4b7f 84bc
00000350: 7c7b 84bc 4c7f 843c 718d 7b23 aa7c 84bc
00000360: 97ac eb23 7c68 84bc 53bc 0fa4 571f 9a2f
00000370: 9130 84bc 8030 d521 dc28 95a3 119f 05a4
00000380: 7cf9 0d24 e602 3da3 1b33 84bc 5871 9920
00000390: 2e69 84bc 9e97 833c e36d 823c 70be a9a0
000003a0: 26a0 11a4 227f 84bc 706d da1f cba4 2324
000003b0: 9f4e e8a3 d390 7524 38e8 0aa5 4e7f 84bc
000003c0: ad76 8ba3 adad 1324 fd57 b422 2e14 73a4
000003d0: dcf6 9122 0cc2 a624 d6bf d223 ae1f 0525
000003e0: 4a7f 84bc 5dc9 4c23 2468 84bc cf67 84bc
000003f0: 5266 84bc aa7b 84bc 3569 84bc 4b7f 84bc

state_input.bias f4 [128]
6.685532e-10 2.9636504e-14 3.3154862e-15 6.465407e-11 9.803523e-13 2.5999413e-11 5.160428e-12 -9.60142e-12
-2.6344922e-14 3.360525e-11 4.6855306e-16 3.166195e-11 -1.0736978e-15 -1.9594559e-14 -4.71752e-13 1.1348128e-09
-2.3847557e-10 5.7391174e-13 7.0669343e-12 -2.7499598e-11 2.1462374e-11 1.19789595e-11 4.352252e-12 -4.2444734e-07
-5.969826e-11 -3.2580316e-15 3.742742e-13 9.12192e-12 -4.318155e-15 -1.2223419e-09 1.0784612e-11 -2.2244886e-10
9.850749e-09 -4.759105e-13 7.433858e-12 9.887109e-11 -9.506456e-13 -4.1944157e-14 1.2317084e-12 -9.1061386e-10
3.148074e-11 2.5724518e-12 -2.013036e-13 -2.2967248e-11 3.8698181e-13 4.9215973e-15 1.1560056e-13 -3.2633047e-09
-2.554395e-16 -4.614234e-11 -3.5890216e-14 -1.18328194e-11 1.4018878e-10 -1.3447336e-08 2.6200066e-11 8.365901e-14
2.711127e-13 3.75575e-13 -4.306613e-12 2.376834e-08 5.920019e-12 1.8701054e-13 5.0496035e-14 -4.912465e-16
9.484525e-08 -4.6678197e-14 2.7959354e-10 4.3679958e-14 -4.5399184e-14 -1.9420046e-10 1.1586357e-11 -3.7798054e-10
1.4759137e-13 2.125209e-12 -1.1779195e-09 -3.5076126e-11 -1.7079653e-15 -1.6475422e-10 -1.6294643e-13 1.4435529e-10
1.6864309e-14 -1.1175882e-14 4.660994e-15 1.7814843e-11 -3.6754055e-10 -1.9601429e-16 3.9614857e-12 5.1477983e-16
1.2150916e-10 2.7311303e-15 6.033235e-14 -1.6190616e-09 1.1202394e-12 -4.220896e-16 3.2477445e-08 8.812785e-14
-2.5068577e-15 9.041123e-16 6.780474e-10 -2.1554858e-15 -1.6126211e-10 5.0587503e-12 -1.1825733e-13 1.4410895e-13
-2.5890572e-14 5.8296734e-10 -9.614842e-15 1.2450376e-08 3.4207283e-11 -8.939604e-16 -1.5181625e-13 -2.8485765e-09
3.9655844e-12 0.0038566191 1.0042862e-14 -4.784987e-14 1.4805479e-13 -2.8521188e-19 6.58338e-15 -4.081947e-15
1.76258e-13 -1.7843671e-10 1.7199588e-15 2.1865554e-09 -1.9930307e-12 7.5891484e-16 3.3779046e-10 -2.0013174e-13
00000000: 40c5 3730 9078 0529 ede7 6e27 012d 8e2e
00000010: eaf8 892b 79b1 e42d 0191 b52c f4e8 28ad
00000020: 414b eda8 26cc 132e 1d0d 0726 3040 0b2e
00000030: 75bc 9aa6 fa7d b0a8 50c9 04ab adf7 9b30
00000040: 741a 83af b38a 212b 49a5 f82c 97e3 f1ad
00000050: f8c8 bc2d 70bc 522d 9a21 992c 99df e3b4
00000060: 2247 83ae 13c4 6aa7 99b2 d22a 7a79 202d
00000070: f393 9ba7 55ff a7b0 93b9 3d2d ca95 74af
00000080: 0d3c 2932 f7f4 05ab 1fc7 022d 7a6b d92e
00000090: 9eca 85ab 52e6 3ca9 f958 ad2b c14e 7ab0
000000a0: 2a74 0a2e 2c05 352c d0a5 62aa a505 caad
000000b0: f5d9 d92a b951 b127 9827 022a aa40 60b1
000000c0: 3740 93a5 a8ef 4aae 9aa2 21a9 482a 50ad
000000d0: a223 1a2f 0206 67b2 4e75 e62d 2362 bc29
000000e0: 759f 982a 106e d32a 8586 97ac 222b cc32
000000f0: ca4a d02c 1e8e 522a f769 6329 9897 0da6
00000100: baad cb33 4c38 52a9 4bb5 992f 90b7 4429
00000110: b275 4ca9 9286 55af 50d4 4b2d 08cc cfaf
00000120: 512c 262a 5d8c 152c 5ce4 a1b0 3544 1aae
00000130: cc24 f6a6 3126 35af 1c76 37aa 67b8 1e2f
00000140: 73e6 9728 a953 49a8 15ee a727 76b3 9c2d
00000150: bc0e caaf 35fd 61a5 e461 8b2c 0c60 1426
00000160: ca99 052f 76cc 4427 3bdb 8729 aa85 deb0
00000170: e1a8 9d2b 6e51 f3a5 547d 0b33 3f72 c629
00000180: 5da3 34a7 db4b 8226 5861 3a30 b251 1ba7
00000190: 404f 31af 2cfd b12c 5b25 05aa 9440 222a
000001a0: 9833 e9a8 ae3e 2030 a234 2da8 55e5 5532
000001b0: fa71 162e 51d5 80a6 0eee 2aaa b0c0 43b1
000001c0: cf86 8b2c 55bf 7c3b 87ea 3428 257f 57a9
000001d0: e3b1 262a 005c a8a0 f730 ed27 5111 93a7
000001e0: e972 462a 7831 44af 48df f726 4a42 1631
000001f0: 403f 0cac 08be 5a26 c8b3 b92f 0c54 61aa

action_input.weight f4 [128, 45]
-0.018542392 0.025152186 0.0056844004 0.0065880036 0.022809012 -0.011796046 -0.009757758 -0.023744233
0.02354192 0.06975421 -0.014655601 -0.0015680308 -0.0026487876 0.020873088 0.016214661 -0.004670446
0.00052613753 -0.009344771 0.021021135 0.0042337216 0.04728909 0.031732064 0.0135155525 0.02688512
-0.048835874 0.029640451 -0.008555088 0.0027193185 -0.02117782 0.025984425 -0.0012442799 -0.023716325
0.008190928 -0.04600824 0.026274785 0.02748877 -0.029964032 -0.034191433 0.00094766583 -0.023224272
0.016008869 -0.012647742 0.028452996 0.004318441 0.002146966 -0.031815268 0.011278327 -0.022474946
-0.016141288 0.044007413 -0.07174811 -0.016289277 0.020415656 0.00825393 0.1543136 -0.012853481
-0.025250575 -0.020249048 -0.004127784 0.020287631 0.022910297 -0.006395526 0.006119965 0.023994394
-0.021919541 0.08433131 0.028606717 0.023103425 0.04297728 -0.074506804 0.060654107 -0.03574268
0.018932987 -0.048260543 0.064929254 0.034448057 -0.035314772 -0.038284943 -0.016391443 0.012216029
0.05942041 -0.04958141 -0.031881824 -0.0071954583 -0.04465416 0.0061892695 -0.056847513 0.055062134
0.019889483 0.010925695 0.02412189 0.056927737 0.05312857 0.017204406 -0.015700871 0.027411027
-0.013402032 -0.02586133 0.024955973 0.062372483 0.027906828 0.031676646 0.00037468836 -0.0010054794
0.04298065 0.014127511 -0.02243118 -0.017996691 0.039129175 0.045173295 0.06162785 0.005992815
0.057439286 0.07110869 0.005223192 0.024941154 0.017908879 -0.11817355 -0.012416626 0.032559175
-0.06708603 -0.009872743 0.043745406 -0.028749125 0.02740658 0.020183519 0.023265073 -0.07325909
0.005808475 -0.01783887 0.04481964 0.02020215 0.04892473 0.03695147 0.021133546 0.011559291
-0.012304158 0.03710141 0.019885514 -0.06677329 0.08870234 0.006690613 -0.019603861 0.0017722477
-0.13479508 0.013751118 0.040021483 -0.013274725 0.011124629 -0.031386055 -0.022793384 0.009362262
0.014799298 -0.025724506 -0.006928902 -0.08514912 -0.032458477 -0.03484062 -0.04792644 0.06069628
-0.052620236 0.011798618 -0.03239951 0.052310362 -0.081428275 -0.047869895 0.045593925 0.018163912
0.016893085 -0.01741219 -0.050981175 0.04694003 0.029933596 0.00874215 0.041562874 0.0028650027
0.05847198 -0.056775272 -0.007597619 -0.008330933 0.021319505 -0.005856638 0.028080128 0.034180168
-0.06759858 0.07843954 0.016265612 -0.013693867 -0.000959225 -0.1484172 0.011815744 0.04291421
0.002092674 0.014430447 -0.013516387 -0.033583146 -0.017533256 0.0046945903 -0.014512544 0.0066802176
-0.08626801 -0.012332539 -0.04416496 -0.03462208 0.060243938 -0.022430293 0.033462897 -0.02700895
0.023433078 -0.03763062 -0.036901236 0.026882572 0.039828897 0.03297948 -0.017365627 -0.06257559
0.07074761 0.025595509 -0.00086004473 0.04333943 7.671167e-05 0.0594255 -0.068910435 -0.0047942786
-0.0061773076 0.016772656 -0.03370764 -0.024731193 -0.015878888 0.07731177 -0.07405802 0.025172375
0.045347545 -0.008761472 0.1097997 -0.013428604 -0.025810989 0.0060845767 0.0020294827 0.018757967
0.027368443 0.059733666 -0.0007792939 0.015048077 -0.013663511 0.07376784 0.016487509 -0.015137612
0.004219813 -0.024960004 0.019371405 -0.038238175 0.054488845 0.004757388 0.041567087 0.088225886
00000000: 37e6 97bc f50b ce3c 3544 ba3b 2ee0 d73b
00000010: f7d9 ba3c 3444 41bc 01df 1fbc 4483 c2bc
00000020: fcda c03c 4cdb 8e3d 0c1e 70bc 6286 cdba
00000030: 4897 2dbb 0afe aa3c 9cd4 843c 8a0a 99bb
00000040: 7eec 093a cf1a 19bc 8434 ac3c 08bb 8a3b
00000050: 34b2 413d 7bf9 013d 5670 5d3c 2f3e dc3c
00000060: 2008 48bd 88d0 f23c a42a 0cbc 9836 323b
00000070: 1c7d adbc 4add d43c 1b17 a3ba bd48 c2bc
00000080: 3e33 063c 2373 3cbd 383e d73c 2130 e13c
00000090: 2177 f5bc 510c 0cbd c76c 783a d440 bebc
000000a0: 0825 833c 7a38 4fbc 4216 e93c b581 8d3b
000000b0: 1db4 0c3b ba50 02bd bbc8 383c 611d b8bc
000000c0: bc3a 84bc 1e41 343d acf0 92bd 1771 85bc
000000d0: bc3e a73c 7e3b 073c 6204 1e3e 6897 52bc
000000e0: 4bda cebc 55e1 a5bc 5d42 87bb 3f32 a63c
000000f0: 60ae bb3c 9091 d1bb fd89 c83b e48f c43c
00000100: 9c90 b3bc e5b5 ac3d a258 ea3c 6543 bd3c
00000110: f208 303d 0697 98bd 7170 783d eb66 12bd
00000120: 5a19 9b3c d9ac 45bd a1f9 843d 6819 0d3d
00000130: 39a6 10bd acd0 1cbd 5947 86bc bd25 483c
00000140: d162 733d e015 4bbd 8496 02bd e1c7 ebbb
00000150: 48e7 36bd 5bcf ca3b f0d8 68bd d588 613d
00000160: 45ef a23c b001 333c 459b c53c 0f2d 693d
00000170: 589d 593d 41f0 8c3c 1d9f 80bc 178d e03c
00000180: 3294 5bbc 24db d3bc 7870 cc3c 4a7a 7f3d
00000190: dc9c e43c 5fbf 013d d271 c439 4aca 83ba
000001a0: 7a0c 303d 1377 673c 98c1 b7bc cc6d 93bc
000001b0: ea45 203d a207 393d 7c6d 7c3d 605f c43b
000001c0: 7545 6b3d 6fa1 913d 4f27 ab3b 6451 cc3c
000001d0: a4b5 923c f904 f2bd 1b6f 4bbc c55c 053d
000001e0: 6764 89bd 49c1 21bc 622e 333d 4983 ebbc
000001f0: c483 e03c e857 a53c 6596 be3c dd08 96bd
00000200: 0555 be3b d222 92bc cd94 373d fb7e a53c
00000210: 4c65 483d 6d5a 173d 4220 ad3c 2e63 3d3c
00000220: 6197 49bc a6f7 173d f2e6 a23c 6fc0 88bd
00000230: 93a9 b53d ee3c db3b 4798 a0bc c44a e83a
00000240: b907 0abe 5f4c 613c 91ed 233d 3b7e 59bc
00000250: 1344 363c aa8e 00bd 31b9 babc 2c64 193c
00000260: c178 723c 33bc d2bc d80b e3bb a962 aebd
00000270: 2ef3 04bd 0ab5 0ebd 844e 44bd aa9c 783d
00000280: 5188 57bd fe4e 413c 59b5 04bd 6443 563d
00000290: dec3 a6bd 3913 44bd b2c0 3a3d 7ccc 943c
000002a0: 5e63 8a3c 02a4 8ebc a3d1 50bd 3044 403d
000002b0: 4d37 f53c 3c3b 0f3c d53d 2a3d c5c2 3b3b
000002c0: 5180 6f3d 308d 68bd 73f5 f8bb 777e 08bc
000002d0: 3ea6 ae3c 0ae9 bfbb 4c08 e63c 8100 0c3d
000002e0: 2071 8abd e9a4 a03d 763f 853c 3e5c 60bc
000002f0: 8074 7bba aefa 17be d396 413c d0c6 2f3d
00000300: 3e25 093b ae6d 6c3c d673 5dbc 7b8e 09bd
00000310: e7a1 8fbc 14d5 993b 05c6 6dbc bae5 da3b
00000320: 48ad b0bd 6b0e 4abc 51e6 34bd e2cf 0dbd
00000330: 59c2 763d bcbf b7bc 6410 093d e041 ddbc
00000340: baf6 bf3c 9122 1abd c025 17bd d738 dc3c
00000350: a023 233d 7e15 073d 5c42 8ebc a227 80bd
00000360: 1fe4 903d acad d13c a074 61ba b084 313d
00000370: 44e0 a038 2768 733d ea20 8dbd 5319 9dbb
00000380: 036b cabb cf66 893c 0611 0abd 1299 cabc
00000390: 7114 82bc a255 9e3d bbab 97bd 4c36 ce3c
000003a0: 59be 393d 478c 0fbc aade e03d a603 5cbc
000003b0: 9171 d3bc 2161 c73b 1201 053b 4faa 993c
000003c0: c933 e03c 4aab 743d 8749 4cba 368c 763c
000003d0: ebdc 5fbc 9813 973d d010 873c bf03 78bc
000003e0: 5b46 8a3b ec78 ccbc c8b0 9e3c a29f 1cbd
000003f0: b22f 5f3d dde3 9b3b 4042 2a3d c6af b43d

action_input.bias f4 [128]
0.06847497 -0.024443692 -0.060359824 0.0054383012 -0.0045875683 -0.071978375 -0.07720576 0.022493605
0.03592183 0.02337249 0.021849398 -0.040589944 0.03884915 0.020175202 -0.06449323 0.023570554
0.013228622 0.06845653 0.044300765 0.0026774695 -0.004536968 -0.06498742 -0.09633954 0.04250312
0.09939093 -0.0064052087 -0.09131837 0.002478501 0.052825086 0.07513308 0.06618922 0.0054728063
0.04414635 -0.027949132 0.036575213 0.0198909 -0.07186259 -0.015535711 0.03448993 0.030985571
0.09673913 0.1087679 0.04825275 -0.0030960822 0.04198784 -0.06359498 -0.055096224 0.080130115
-0.02706597 -0.01320101 -0.065016694 -0.0636416 -0.097986236 -0.02295735 0.03510584 0.030256948
0.07380876 0.081817046 -0.02145337 -0.04192527 -0.022063607 0.030529115 0.0060559656 0.089347675
-0.045901436 -0.08933446 -0.09195269 -0.071598954 0.046770312 -0.06366364 -1.4473113e-05 0.07880148
-0.043020573 0.10832981 0.06266928 -0.098406844 0.009835206 0.011000812 0.093535766 0.03966497
-0.021362787 0.017747894 0.007582301 0.018774712 0.056049213 -0.09660137 -0.0067172064 -0.016179046
0.05974207 -0.04918854 -0.08382185 -0.050857265 0.081336945 0.09803364 0.03471103 -0.0002733568
0.07956607 0.005944234 -0.07801357 -0.08253757 -0.036227018 0.050177775 0.018579224 -0.06650713
-0.08334894 -0.045696698 0.03863833 0.061326705 0.046768557 -0.034162026 0.061349314 0.08061845
0.06886713 -0.05029261 0.05418743 -0.043973897 0.05043408 0.0618959 0.011616245 0.04010749
0.07762509 -0.05951449 -0.073645085 -0.09353707 -0.02393243 0.030568162 -0.08950385 0.05315654
00000000: 9b3c 8c3d 233e c8bc dd3b 77bd c733 b23b
00000010: 5053 96bb 6669 93bd 0e1e 9ebd 8244 b83c
00000020: c522 133d aa77 bf3c 82fd b23c a441 26bd
00000030: 4920 1f3d 7746 a53c 0715 84bd 0917 c13c
00000040: ddbc 583c f032 8c3d b874 353d 7c78 2f3b
00000050: d9aa 94bb 2018 85bd aa4d c5bd c017 2e3d
00000060: 798d cb3d c9e2 d1bb 2005 bbbd 596e 223b
00000070: 1e5f 583d 5fdf 993d 378e 873d 3a55 b33b
00000080: ced2 343d 94f5 e4bc e4cf 153d 3ef2 a23c
00000090: b22c 93bd 7f89 7ebc 5045 0d3d 74d5 fd3c
000000a0: 2a1f c63d b4c1 de3d ada4 453d a4e7 4abb
000000b0: 71fb 2b3d 163e 82bd 94ac 61bd 421b a43d
000000c0: 74b9 ddbc 0d49 58bc 7927 85bd 8756 82bd
000000d0: 02ad c8bd 0d11 bcbc 24cb 0f3d 6bdd f73c
000000e0: 0c29 973d b28f a73d fabe afbc d5b9 2bbd
000000f0: bdbe b4bc 3218 fa3c 1f71 c63b eafb b63d
00000100: 2503 3cbd fcf4 b6bd b151 bcbd 79a2 92bd
00000110: 3a92 3f3d 1562 82bd 8cd1 72b7 ac62 a13d
00000120: 5736 30bd 05dc dd3d c058 803d 8789 c9bd
00000130: d823 213c c03c 343c ae8f bf3d bc77 223d
00000140: 0301 afbc 0864 913c f374 f83b 6dcd 993c
00000150: dc93 653d f0d6 c5bd 031c dcbb eb89 84bc
00000160: 1ab4 743d ec79 49bd caaa abbd b54f 50bd
00000170: fc93 a63d dcc5 c83d 272d 0e3d 5451 8fb9
00000180: 89f3 a23d d9c7 c23b 94c5 9fbd 7509 a9bd
00000190: c862 14bd 3687 4d3d 7533 983c e434 88bd
000001a0: d9b2 aabd 762c 3bbd 3a43 1e3d b631 7b3d
000001b0: 6390 3f3d 7bed 0bbd 6b49 7b3d 491b a53d
000001c0: 360a 8d3d a0ff 4dbd a3f3 5d3d f91d 34bd
000001d0: f793 4e3d 8e86 7d3d 1052 3e3c c047 243d
000001e0: e7f9 9e3d 77c5 73bd 3cd3 96bd 5d90 bfbd
000001f0: f20d c4bc 156a fa3c cb4d b7bd acba 593d

layers.0.weight f4 [256, 256]
-0.00494938 0.006726104 0.023470512 0.008455439 0.0031460132 -0.0065483768 -0.008837466 0.006036412
-0.006709493 0.012401974 0.022433473 -0.01817384 0.0029090298 0.005935309 -0.0045986017 -0.007018557
0.0081930095 0.007993201 -0.02059975 -0.01194978 0.017358929 -0.0015595704 0.02967407 -0.0120223025
-0.0044374173 -0.0064044828 -0.003098012 -0.02406486 0.0031036506 -0.012404856 0.026396774 -0.006479681
-0.019984955 0.003581281 -0.006395383 -0.00856254 -0.012728356 -0.017907342 0.01192735 0.010038775
0.0015682867 -0.016449587 0.00049151236 -0.00812915 -0.00029681198 0.0175923 -0.007015417 0.015562723
-0.0044718217 0.0025652677 0.004695013 -0.00393333 -0.0020850457 -0.0016654525 -0.017891688 0.00470022
-0.0068364255 0.0036650856 -0.01146502 -0.012193896 -0.009461631 -0.0020415222 -0.006372397 0.008750476
0.0029938393 0.0026987214 0.0029554118 0.0024364819 -0.0015458352 0.0021106359 -0.018650206 -0.00094288395
-0.023257548 -0.01637125 -0.023130164 0.0025811568 -0.012162296 -0.008974005 0.013111399 -0.0018060714
0.00080211536 0.02184015 0.00720958 -0.010309487 0.0010421007 0.009400992 0.015169754 -0.005437635
-0.0073466958 -0.0060333814 -0.0077009373 -0.007030159 -0.008901989 0.0005827552 0.0032874332 -0.0181887
-0.009602578 0.008226239 -0.0060258205 0.02288517 0.008685711 -0.0053295917 0.01109742 0.014411745
0.0053860694 0.005972085 -0.0008459347 -0.0011047085 -0.013963281 -0.004288942 0.0059819818 -0.0059559126
-0.008348065 0.0093795955 -0.0075547583 -0.0010358831 0.01782406 -0.015634462 -0.010663596 0.008106573
0.002344825 0.009396308 -0.0263053 0.015226294 0.0075048273 0.0007104551 -0.0013832585 -0.026964352
0.022726595 0.05731055 0.039733723 -0.05353014 -0.054020453 0.011851914 0.008905768 -0.023203462
-0.023963345 -0.033229664 -0.006944353 0.031499915 -0.007588706 0.04475964 -0.013249397 -0.02343742
0.012873243 0.02207326 0.010815759 -0.05595839 0.028509228 -0.007903541 -0.01832896 0.007077932
0.005323959 0.033298526 -0.028646547 0.024182037 -0.021295048 0.0033858072 -0.023025969 -0.033912834
-0.03573722 0.06098368 -0.056512255 0.016328692 -0.040213194 -0.047927935 -0.023760358 -0.021453967
0.0014433035 0.01582729 -0.053674217 -0.033611257 0.032318644 0.025474438 0.010446045 0.009257884
-0.055567227 -4.6541973e-05 -0.020070642 0.015183009 9.99145e-05 0.02436227 -0.0017245878 0.020419916
0.018539472 0.010831073 0.017560678 0.03333133 0.032941137 0.019571768 -0.035070974 0.018800009
-0.039447557 0.008809412 -0.035342216 -0.018536516 -0.022346998 -0.021607956 -0.0054523237 -0.036969338
0.02665387 0.011417221 0.033988554 -0.020410392 -0.02622841 0.05009601 0.04176047 0.07524807
-0.041891064 -0.012876546 -0.011592732 -0.043130834 -0.02329995 -0.027106905 -0.040676896 0.044780843
-0.044156756 -0.03208197 0.03281412 0.027746266 -0.03635842 0.015954368 0.0076562106 0.004771944
-0.005994865 -0.057331756 0.016740631 0.009096049 -0.07617551 -0.029065028 -0.01908005 -0.0042231604
0.037663586 -0.0018651016 -0.044057425 -0.026984094 0.036359437 0.02849449 -0.041517325 -0.036477696
-0.009341209 -0.014932901 0.012030866 -0.0039011124 -0.044771943 -0.0385933 -0.027408395 -0.013240646
0.022623587 0.039050058 -0.022952415 -0.031222545 -0.019372512 -0.05918953 -0.019707453 0.012851152
00000000: 692e a2bb a666 dc3b 3b45 c03c ae88 0a3c
00000010: 582d 4e3b c493 d6bb 05cb 10bc 18cd c53b
00000020: 4fdb dbbb a631 4b3c 67c6 b73c 4ee1 94bc
00000030: 6ca5 3e3b fb7c c23b deaf 96bb ecfb e5bb
00000040: f93b 063c eaf5 023c cfc0 a8bc 03c9 43bc
00000050: 5034 8e3c 806a ccba 0917 f33c 31f9 44bc
00000060: c167 91bb b2dc d1bb 0408 4bbb ab23 c5bc
00000070: 9e66 4b3b bd3d 4bbc 0c3e d83c 8153 d4bb
00000080: 7db7 a3bc edb3 6a3b 5c90 d1bb e549 0cbc
00000090: 988a 50bc 6bb2 92bc ef6a 433c ad79 243c
000000a0: f88e cd3a 49c1 86bc d6d8 003a 2030 05bc
000000b0: 6e9d 9bb9 ba1d 903c 95e1 e5bb cbfa 7e3c
000000c0: 5c88 92bb 0d1e 283b a0d8 993b 2ae3 80bb
000000d0: 43a5 08bb 504b daba 9791 92bc 4e04 9a3b
000000e0: 1804 e0bb ef31 703b c7d7 3bbc e8c8 47bc
000000f0: f504 1bbc 0fcb 05bb 8acf d0bb 285e 0f3c
00000100: 4a34 443b 08dd 303b 95af 413b 62ad 1f3b
00000110: 9f9d caba 9852 0a3b 51c8 98bc df2b 77ba
00000120: 9d86 bebc 001d 86bc 787b bdbc a028 293b
00000130: 5e44 47bc b407 13bc 31d1 563c b3b9 ecba
00000140: 0d45 523a 1dea b23c 573e ec3b 1fe9 28bc
00000150: 1997 883a 9e06 1a3c 8f8a 783c 302e b2bb
00000160: 8dbc f0bb acb3 c5bb 2558 fcbb 3f5d e6bb
00000170: a6d9 11bc 0ac4 183a fa71 573b 7800 95bc
00000180: 2254 1dbc 59c7 063c 3f74 c5bb ae79 bb3c
00000190: 834e 0e3c dba3 aebb f4d1 353c 3d1f 6c3c
000001a0: a07d b03b 7bb1 c33b b7c1 5dba decb 90ba
000001b0: 3fc6 64bc 418a 8cbb 8004 c43b d129 c3bb
000001c0: 53c6 08bc e0ac 193c e88d f7bb 78c6 87ba
000001d0: c303 923c d813 80bc 5db6 2ebc 6ed1 043c
000001e0: a3ab 193b f9f2 193c 367e d7bc b577 793c
000001f0: 0eeb f53b d63d 3a3a 744e b5ba 58e4 dcbc
00000200: 202d ba3c 78be 6a3d d4bf 223d 6c42 5bbd
00000210: 8d44 5dbd 882e 423c 80e9 113c 3015 bebc
00000220: c74e c4bc d41b 08bd 758d e3bb 0e06 013d
00000230: aeaa f8bb e255 373d 0014 59bc d5ff bfbc
00000240: 4bea 523c fbd2 b43c 9534 313c a034 65bd
00000250: 2f8c e93c db7d 01bc 9d26 96bc ffed e73b
00000260: 9b74 ae3b 0964 083d 2aac eabc 6819 c63c
00000270: f472 aebc 6be4 5d3b f5a0 bcbc 2fe8 0abd
00000280: 3161 12bd 06ca 793d 6579 67bd c0c3 853c
00000290: 97b6 24bd 1550 44bd 15a5 c2bc 3bc0 afbc
000002a0: 3b2d bd3a 3ca8 813c 7fd9 5bbd f5ab 09bd
000002b0: 8e60 043d c5af d03c e325 2b3c 61ae 173c
000002c0: 769a 63bd 1036 43b8 306b a4bc 28c2 783c
000002d0: 3089 d138 6293 c73c 900b e2ba ab47 a73c
000002e0: 17e0 973c d074 313c 69db 8f3c 6f86 083d
000002f0: 49ed 063d f954 a03c 95a6 0fbd 7a02 9a3c
00000300: c393 21bd 5a55 103c 00c3 10bd e4d9 97bc
00000310: 0d11 b7bc 2b03 b1bc 68a9 b2bb 296d 17bd
00000320: 3759 da3c 4c0f 3b3c 9537 0b3d b233 a7bc
00000330: f6dc d6bc 7931 4d3d 070d 2b3d a91b 9a3d
00000340: f795 2bbd 26f8 52bc 71ef 3dbc f5a9 30bd
00000350: 89df bebc 4d0f debc d19c 26bd 1e6c 373d
00000360: b7dd 34bd 6268 03bd 1968 063d 234c e33c
00000370: 91ec 14bd bcb2 823c f3e0 fa3b f85d 9c3b
00000380: 9370 c4bb b4d4 6abd a623 893c 9807 153c
00000390: e801 9cbd c819 eebc c44d 9cbc 7062 8abb
000003a0: 2245 1a3d 6d76 f4ba 8f75 34bd bf0d ddbc
000003b0: a2ed 143d 476d e93c 120e 2abd a369 15bd
000003c0: df0b 19bc 20a9 74bc 1c1d 453c cea9 7fbb
000003d0: c962 37bd 0214 1ebd 9287 e0bc 4bef 58bc
000003e0: 1a55 b93c f4f2 1f3d b406 bcbc 6cc6 ffbc
000003f0: 1ab3 9ebc b870 72bd 8671 a1bc a38d 523c

layers.0.bias f4 [256]
0.0108171785 -0.010340852 -0.110745244 0.022367476 -0.09214815 0.07595799 0.074007206 -0.024583008
0.029237762 -0.08429841 -0.03774755 -0.0331934 -0.037640423 -0.025561009 -0.03700105 0.07261947
0.01024718 0.06904126 0.0030027956 0.06722577 -0.08130905 0.012718759 0.025005184 0.08134235
0.06314895 -0.090650335 0.009911492 -0.0016981468 -0.020785011 -0.083672136 -0.008995087 0.080882736
-0.051849104 0.011652496 -0.055009395 0.060791597 0.076687105 -0.027704094 -0.035712376 0.00065387186
0.039692752 0.105515495 -0.07241169 0.045849096 -0.02783663 0.05429967 -0.064386316 0.059003517
0.05539929 0.07000086 -0.075418785 0.00067413854 0.031745978 -0.11050782 -0.011231872 0.016537374
0.082375586 -0.08563661 -0.07710123 -0.105025806 -0.026622523 -0.018273987 0.08665041 -0.08057802
0.014715055 0.06506901 0.048910376 -0.007040495 -0.04023083 0.015358491 -0.06829246 0.03242837
-0.08162322 0.04981983 -0.092556596 -0.031474877 -0.05330196 -0.010673337 -0.09738882 -0.09331075
-0.046947893 0.0012640994 0.029642671 -0.022167427 -0.03534548 -0.060893822 -0.039794993 0.079720415
0.047358286 0.085999236 0.07625758 -0.019975528 -0.02450486 0.04004201 -0.04968635 -0.030880967
-0.006556387 0.012044234 0.0062276176 -0.047682647 0.065363154 -0.020766145 -0.031084592 0.02147769
0.055181485 -0.013168339 0.038844652 -0.076280855 0.09536876 0.022523284 0.029634159 0.03580743
-0.028383639 -0.029490117 0.007071155 0.09428754 -0.030025473 -0.06815291 -0.006930034 0.034914315
0.01278017 -0.024751453 0.07132523 0.009422065 -0.07266722 0.01116839 0.038493518 0.08239274
-0.03905405 -0.033670865 -0.03123814 -0.06396111 0.10859858 0.04114361 0.043366533 -0.016641904
0.030938327 -0.072550476 -0.010968138 0.10541478 0.03266439 0.056592323 -0.08245668 -0.0393704
-0.012994618 -0.034440223 -0.07077122 0.021405634 0.046010803 0.02930273 0.02161966 -0.068209775
0.064015076 0.09407028 -0.025571909 0.030491395 0.086587414 -0.10276097 -0.018570693 0.092773356
0.046844397 -0.08445254 -0.057187624 -0.03831121 -0.057732977 -0.0077185584 0.0011942097 0.035071842
0.004996809 -0.05237091 -0.010491298 -0.006223054 0.0009440455 0.0014257778 -0.041282218 -0.05788953
0.082553945 -0.034296025 0.0067118583 0.03215341 0.019615563 -0.09730426 -0.016809609 0.01845008
0.08017809 0.009715571 -0.0434564 0.03668661 -0.0046238573 0.07389893 -0.07555122 0.040146705
0.0886308 -0.03033517 0.034193102 0.0060599856 0.0130420085 0.0147684235 -0.09623849 -0.041947506
0.092580535 -0.002183637 0.05097761 -0.069682725 0.088862196 -0.019333445 0.07506631 -0.0061575663
0.03348759 0.06825918 -0.028742991 0.08147378 -0.004078477 -0.057430662 -0.03738171 -0.06109965
-0.07565667 0.0099745765 0.084629044 -0.058712736 0.04582888 -0.010849758 0.08087642 0.050103664
0.049194485 0.05058659 -0.08573647 -0.023159359 -0.017734298 -0.07852034 0.045491688 0.07962553
-0.0429692 0.06456145 -0.014631168 -0.050863888 0.051567197 -0.03721642 -0.09034151 -0.09561995
0.011742393 5.7840705e-05 0.023666693 -0.010459996 -0.037288554 0.015060268 -0.12387118 -0.093610935
-0.06226546 -0.050061304 -0.06978708 -0.06448999 0.077758625 0.049783025 0.009171599 0.067070335
00000000: 893a 313c ad6c 29bc 67ce e2bd ff3b b73c
00000010: 2bb8 bcbd dd8f 9b3d 1791 973d 4e62 c9bc
00000020: 0884 ef3c a5a4 acbd 2d9d 1abd cdf5 07bd
00000030: d82c 1abd 5265 d1bc 6a8e 17bd 84b9 943d
00000040: cae3 273c 8165 8d3d 8dca 443b aaad 893d
00000050: 5c85 a6bd 5762 503c acd7 cc3c d196 a63d
00000060: 3d54 813d e2a6 b9bd cf63 223c 5a94 deba
00000070: 5445 aabc 4c5c abbd 2160 13bc d9a5 a53d
00000080: ba5f 54bd 1cea 3e3c 8851 61bd 9c00 793d
00000090: 210e 9d3d b2f3 e2bc 2447 12bd 9968 2b3a
000000a0: de94 223d 8218 d83d 954c 94bd 43cc 3b3d
000000b0: a509 e4bc 5569 5e3d f9dc 83bd acad 713d
000000c0: 5eea 623d 9c5c 8f3d 2a75 9abd acb8 303a
000000d0: 1208 023d ed51 e2bd e305 38bc 6379 873c
000000e0: 88b4 a83d 3f62 afbd 40e7 9dbd c517 d7bd
000000f0: 7a17 dabc 54b3 95bc c575 b13d 1706 a5bd
00000100: 6a17 713c e742 853d 3f56 483d f4b3 e6bb
00000110: 15c9 24bd 2ea2 7b3c ebdc 8bbd 9cd3 043d
00000120: 132a a7bd e10f 4c3d 508e bdbd cdeb 00bd
00000130: 2853 5abd 38df 2ebc ca73 c7bd b519 bfbd
00000140: 6f4c 40bd 23b0 a53a 30d5 f23c 7798 b5bc
00000150: 6cc6 10bd cd6b 79bd 1300 23bd 7544 a33d
00000160: c3fa 413d 5e20 b03d ef2c 9c3d b8a3 a3bc
00000170: 6bbe c8bc 1703 243d ea83 4bbd 15fa fcbc
00000180: f6d6 d6bb 2e55 453c 0b11 cc3b e14e 43bd
00000190: 1edd 853d c31d aabc 1da5 febc fbf1 af3c
000001a0: fb05 623d 04c0 57bc 921b 1f3d 2339 9cbd
000001b0: b250 c33d c082 b83c 56c3 f23c d0aa 123d
000001c0: ce84 e8bc 4295 f1bc 26b5 e73b d319 c13d
000001d0: fbf7 f5bc c193 8bbd 5715 e3bb 5002 0f3d
000001e0: eb63 513c 8fc3 cabc f612 923d 015f 1a3c
000001f0: 8dd2 94bd 9ffb 363c 61ab 1d3d 86bd a83d
00000200: 24f7 1fbd 76ea 09bd 21e7 ffbc 0bfe 82bd
00000210: ef68 de3d 3486 283d 1ba1 313d 9a54 88bc
00000220: 6072 fd3c 5895 94bd b5b3 33bc b4e3 d73d
00000230: 18cb 053d 5acd 673d 0cdf a8bd db42 21bd
00000240: 61e7 54bc 3111 0dbd 80f0 90bd de5a af3c
00000250: d375 3c3d 470c f03c b71b b13c 91b1 8bbd
00000260: 561a 833d eba7 c03d 2e7c d1bc 17c9 f93c
00000270: be54 b13d 5874 d2bd 9121 98bc f5ff bd3d
00000280: e9df 3f3d 74f5 acbd 923d 6abd 37ec 1cbd
00000290: 6a79 6cbd f6eb fcbb 0787 9c3a 7ea7 0f3d
000002a0: 46bc a33b e182 56bd b1e3 2bbc c3ea cbbb
000002b0: d279 773a 2ae1 ba3a 8b17 29bd 921d 6dbd
000002c0: 0b12 a93d fd79 0cbd 26ef db3b 4bb3 033d
000002d0: d1b0 a03c 7547 c7bd 4eb4 89bc 9f24 973c
000002e0: 6934 a43d 0f2e 1f3c 57ff 31bd b344 163d
000002f0: ba83 97bb 5258 973d 99ba 9abd df70 243d
00000300: 1184 b53d 7681 f8bc 110e 0c3d d892 c63b
00000310: 26ae 553c 42f7 713c af18 c5bd 26d1 2bbd
00000320: dd9a bd3d 5a1b 0fbb e6cd 503d d1b5 8ebd
00000330: 62fd b53d 2c61 9ebc 5ebc 993d 69c5 c9bb
00000340: 482a 093d 78cb 8b3d 6c76 ebbc badb a63d
00000350: bfa4 85bb 6a3c 6bbd 901d 19bd a043 7abd
00000360: e2f1 9abd 686c 233c fe51 ad3d c47c 70bd
00000370: 10b7 3b3d 2fc3 31bc 89a2 a53d 8039 4d3d
00000380: 2880 493d e233 4f3d 9a96 afbd b2b8 bdbc
00000390: 8547 91bc 46cf a0bd 7e55 3a3d b612 a33d
000003a0: 7900 30bd cb38 843d 91b7 6fbc a756 50bd
000003b0: 2038 533d 3f70 18bd f804 b9bd 64d4 c3bd
000003c0: 2a63 403c fc99 7238 a7e0 c13c 6760 2bbc
000003d0: e2bb 18bd 58bf 763c 2cb0 fdbd 17b7 bfbd
000003e0: 110a 7fbd 150d 4dbd 87ec 8ebd 5413 84bd
000003f0: ea3f 9f3d 49e9 4b3d 7944 163c 2c5c 893d

layers.3.weight f4 [256]
0.9881409 0.95007247 0.9547457 0.969588 0.98324275 0.94855905 0.9939679 0.9780363
0.9632731 0.94761616 1.009794 0.9835746 0.97032624 0.9914108 0.96655685 0.97376883
0.9977169 0.96984005 0.97628444 1.0105784 0.9729273 0.9923624 0.968797 0.9761412
0.9370957 0.95306265 1.0199486 1.0053195 0.99816287 0.99240065 0.99552214 0.96286654
0.9516002 0.9517622 0.9431528 0.98045164 0.9552783 0.9732198 0.943351 0.9499374
0.9356252 0.9500618 0.9562908 0.99050754 0.9912684 0.9823639 0.9853826 0.92449796
0.9746026 0.95149404 0.95505184 1.0098554 0.97411025 0.98609096 0.95250934 0.9795013
0.9920342 0.94083816 0.95139766 0.921177 1.0267303 0.9633976 0.9485682 0.96713775
0.9894803 0.97376144 1.0080415 0.97129726 0.94198537 0.9435645 0.9703524 0.99053013
0.9422969 0.9462761 0.9264335 0.94656485 0.98440844 0.971392 0.96598697 0.9699765
1.0208313 0.99470973 0.9574243 0.9998778 0.9622321 0.9900466 0.99621207 0.9828586
0.9489422 0.96743953 0.962089 0.9507789 0.9667882 0.9770704 0.97091913 0.98390627
0.9639017 0.9915358 0.9608663 0.9403793 0.9499437 0.97472143 0.9856179 0.9816085
0.9736243 0.9720102 0.99546736 0.976662 0.9513037 0.96778876 0.97082454 0.9648512
1.0092847 1.0055889 0.9826511 0.9847199 1.0016286 0.9765755 0.99701756 0.95251423
0.9690269 0.9565093 0.9826592 0.93955606 0.9878066 0.94702977 0.93950325 0.96617514
0.9393258 0.98616 0.9874021 0.95732135 0.9446613 0.95837665 0.97018504 1.0007886
1.0483279 0.9659899 0.9297292 0.9926492 1.0162616 1.0195705 1.0063396 0.95126516
0.98323494 0.9733021 0.97965646 0.9929473 0.96390474 0.990159 0.96872824 0.98388755
1.0061337 0.96465313 0.93415475 0.9489022 0.95794076 0.96710414 0.9519421 0.96699977
0.97486 0.99748474 0.98679715 0.9758133 0.9650861 0.9635556 0.9621182 0.99575806
0.982716 0.9507807 0.9379459 0.9751693 0.98084754 0.9489544 0.9730186 0.9356644
0.978827 0.99751264 0.99648505 0.9412442 0.9572061 1.002625 0.9754743 0.9848084
0.98714614 0.98658526 0.9977057 0.9687638 0.99082565 0.97895217 0.95037955 0.9732482
0.97975653 0.9576409 0.95882547 0.940544 0.9761169 0.9705082 0.98471034 0.97486836
0.98332584 0.9857829 0.9522119 0.9897013 0.982137 0.9469054 0.94648045 1.011616
0.9762927 0.97208524 0.9424816 0.99326855 0.983802 0.9930439 0.971933 0.9893162
0.975645 0.9627421 0.9489777 0.9580694 1.0022143 0.9585915 1.0084105 0.9379397
0.95739645 0.99329185 0.99637973 0.98896074 0.9461625 0.95743877 0.9871544 0.9757219
0.97761863 0.989431 0.9548302 0.99796385 1.0093731 0.9486192 0.9502731 0.91311014
0.9636517 0.92487156 0.9588334 0.97230214 0.95778286 0.98829526 0.96747947 0.96589553
0.9683828 0.9648732 0.9633495 0.99151397 0.9299645 1.0189997 1.0018135 0.93788886
00000000: cdf6 7c3f f337 733f 376a 743f eb36 783f
00000010: ccb5 7b3f c4d4 723f ae74 7e3f 9660 7a3f
00000020: 1199 763f f996 723f ee40 813f 8ccb 7b3f
00000030: 4d67 783f 19cd 7d3f 4570 773f ea48 793f
00000040: 606a 7f3f 7047 783f c7ed 793f a25a 813f
00000050: c311 793f 760b 7e3f 1503 783f 64e4 793f
00000060: 81e5 6f3f eafb 733f ad8d 823f 4fae 803f
00000070: 9a87 7f3f f80d 7e3f 8ada 7e3f 6c7e 763f
00000080: 129c 733f b0a6 733f 7672 713f e1fe 7a3f
00000090: 1e8d 743f ef24 793f 737f 713f 192f 733f
000000a0: 2285 6f3f 4037 733f 79cf 743f e791 7d3f
000000b0: c4c3 7d3f 337c 7b3f 0942 7c3f e6ab 6c3f
000000c0: 8e7f 793f 1d95 733f 477e 743f f142 813f
000000d0: 4a5f 793f 7570 7c3f a7d7 733f 99c0 7a3f
000000e0: f4f5 7d3f c5da 703f cc8e 733f 42d2 6b3f
000000f0: e66b 833f 3aa1 763f 5ed5 723f 5796 773f
00000100: 954e 7d3f 6e48 793f 8107 813f f0a6 783f
00000110: f425 713f 718d 713f 0469 783f 6293 7d3f
00000120: 5f3a 713f 273f 723f bf2a 6d3f 1352 723f
00000130: 3102 7c3f 25ad 783f ec4a 773f 6150 783f
00000140: 9aaa 823f 4ca5 7e3f c219 753f fef7 7f3f
00000150: d854 763f b273 7d3f c107 7f3f 9f9c 7b3f
00000160: e0ed 723f 1eaa 773f 774b 763f 3f66 733f
00000170: 6e7f 773f 4921 7a3f 288e 783f 48e1 7b3f
00000180: 43c2 763f 4ad5 7d3f 55fb 753f b3bc 703f
00000190: 832f 733f 5887 793f 7451 7c3f b24a 7b3f
000001a0: 713f 793f a9d5 783f f3d6 7e3f 8506 7a3f
000001b0: a488 733f 01c1 773f f587 783f 7d00 773f
000001c0: 3e30 813f 23b7 803f 068f 7b3f 9a16 7c3f
000001d0: 5e35 803f da00 7a3f 8b3c 7f3f f9d7 733f
000001e0: 2612 783f cbdd 743f 8e8f 7b3f bf86 703f
000001f0: e5e0 7c3f 8b70 723f 4983 703f 4157 773f
00000200: a877 703f fb74 7c3f 62c6 7c3f 0313 753f
00000210: 53d5 713f 2c58 753f 0c5e 783f d719 803f
00000220: 9c2f 863f 1d4b 773f bc02 6e3f 421e 7e3f
00000230: dc14 823f 4981 823f bccf 803f 1d86 733f
00000240: 49b5 7b3f 542a 793f c4ca 7a3f cb31 7e3f
00000250: 76c2 763f 0f7b 7d3f 93fe 773f 0ee0 7b3f
00000260: fdc8 803f 82f3 763f c424 6f3f 41eb 723f
00000270: 9b3b 753f 2394 773f 7ab2 733f 4c8d 773f
00000280: 6d90 793f 295b 7f3f bd9e 7c3f e7ce 793f
00000290: e20f 773f 94ab 763f 614d 763f 00ea 7e3f
000002a0: 4793 7b3f 5d66 733f 391d 703f b2a4 793f
000002b0: d318 7b3f adee 723f bf17 793f b487 6f3f
000002c0: 6894 7a3f fd5c 7f3f a519 7f3f 61f5 703f
000002d0: 750b 753f 0456 803f afb8 793f 671c 7c3f
000002e0: 9cb5 7c3f da90 7c3f a469 7f3f e800 783f
000002f0: c0a6 7d3f 9c9c 7a3f 134c 733f cb26 793f
00000300: 53d1 7a3f f427 753f 9675 753f 7ec7 703f
00000310: cce2 793f 3a73 783f fa15 7c3f f990 793f
00000320: 3ebb 7b3f 455c 7c3f 29c4 733f 105d 7d3f
00000330: 556d 7b3f 6468 723f 8b4c 723f a27c 813f
00000340: 52ee 793f 94da 783f 7946 713f d946 7e3f
00000350: 73da 7b3f 2038 7e3f 9ad0 783f d443 7d3f
00000360: dfc3 793f 4476 763f 34f0 723f 0944 753f
00000370: 8f48 803f 4166 753f 9813 813f d11c 703f
00000380: ef17 753f 6048 7e3f be12 7f3f 882c 7d3f
00000390: b537 723f b51a 753f 27b6 7c3f e9c8 793f
000003a0: 3745 7a3f 5a4b 7d3f c16f 743f 8f7a 7f3f
000003b0: 2333 813f b5d8 723f 1945 733f 96c1 693f
000003c0: e1b1 763f 62c4 6c3f 1b76 753f cbe8 783f
000003d0: 4231 753f eb00 7d3f bcac 773f ee44 773f
000003e0: efe7 773f ee01 773f 139e 763f dcd3 7d3f
000003f0: 2712 6e3f 956e 823f 6d3b 803f 7c19 703f

layers.3.bias f4 [256]
0.013850286 0.03388729 -0.0007622986 0.046333548 -0.0074602272 0.018417971 -0.047643263 0.037349705
0.019057611 0.039482143 -0.036575492 0.0016991507 0.054209135 0.04684816 -0.022620441 -0.018690646
-0.037658695 -0.0276985 -0.04195733 -0.036850248 -0.013027084 0.0052234554 -0.013426605 0.04182713
0.020746285 -0.0003981909 -0.018861031 -0.050829023 -0.026136445 0.04509062 -0.0154477935 -0.00078739284
-0.0012770039 -0.064347625 -0.016724888 -0.030431598 -0.044502623 0.017626425 0.019019613 -0.0126604475
-0.006737076 -0.004988309 0.038094494 0.03448159 -0.03982653 0.039344754 -0.034437962 0.016301747
0.036100734 -0.02151863 0.032713313 -0.044194065 -0.016725697 0.00094752986 0.011393859 0.033685543
-0.023319265 0.01746957 -0.02456813 0.022302208 -0.041369677 -0.021500668 0.041664787 -0.014334471
0.033684976 0.025837228 0.015745198 0.011688389 0.014386218 0.02369467 -0.051507764 0.011113339
-0.008223794 -0.021363046 -0.041009415 0.024995318 0.028403193 -0.009387058 0.039109446 -0.0038127983
0.0015437833 0.012738717 -0.03168032 0.009369366 0.025336538 -0.033778302 -0.005655979 0.048106074
0.007599435 -0.047183897 0.03831417 -0.019132564 -0.04729497 -0.03883952 0.037826955 -0.029265147
-0.008240828 -0.039132472 -0.021044793 -0.026951132 -0.03603901 0.02694127 0.044352993 -0.037511975
-0.044351056 0.046877407 -0.04673565 0.016594008 0.016282745 0.034012698 0.03344295 -0.021614445
-0.041690946 0.04346589 -0.026494453 0.036068268 0.035630822 -0.049136426 0.02778084 0.016679453
-0.007444746 0.035956614 0.025528572 -0.009707393 0.042276837 0.0022396026 -0.026563091 0.0071106893
0.01535751 0.017867716 0.03269877 -0.035396095 -0.0066078636 0.03444844 0.029089682 0.04635824
0.042154767 -0.016666086 0.0124012735 -0.0038440078 -0.051259108 0.034638107 0.032503217 -0.036827307
0.03202691 -0.0025166133 0.05024037 -0.042430278 0.0121642295 0.054269448 -0.012766751 0.011957178
-0.03785117 0.047422033 0.00087004877 0.03904198 -0.03422079 -0.016100118 -0.017089887 0.000669098
0.042116914 -0.0031045005 0.017299382 0.04428305 0.013636377 0.009590922 0.0069320826 -0.026265807
-0.0057469695 -0.01968052 0.015686257 0.038292885 0.043393917 -0.04044991 0.0074901185 0.011053523
-0.0044715307 0.003113618 0.0046538245 0.047425028 0.0532747 -0.02301964 0.015775656 0.0269309
-0.031147638 0.030126678 0.054330558 -0.054596093 0.020602107 0.0030767627 0.018299151 0.03482871
-0.061840553 -0.014862043 -0.043939803 0.005504004 -0.028953465 -0.015372691 -0.026241524 -0.025971482
0.010138619 0.05188284 0.042081688 -0.035626724 -0.0185254 -0.018609095 0.014581344 -0.043141108
-0.017103171 -0.008031741 0.014024337 -0.038426932 0.0143218525 0.02003445 0.05145387 0.011279216
0.016810695 0.013989711 0.025239315 0.021590238 -0.016852828 0.022887956 0.05798681 0.031047149
0.04938044 -0.041221634 0.018622959 0.032159988 -0.06190773 0.03354123 -0.020723745 0.014715481
0.043991614 -0.03584143 0.04036638 0.04629721 0.05302383 -0.041149087 0.00671077 0.0011085361
0.039281767 0.015247398 -0.020187022 -0.056818906 -0.010696419 -0.030404061 -0.021692086 0.0035681084
-0.027903173 0.046378218 -0.028559914 0.006884804 -0.022584345 -0.03165493 -0.03043263 0.0021926193
00000000: 4fec 623c 66cd 0a3d fed4 47ba 3fc8 3d3d
00000010: ec74 f4bb 49e1 963c 9525 43bd 01fc 183d
00000020: b51e 9c3c 07b8 213d 2fd0 15bd 09b6 de3a
00000030: 660a 5e3d dbe3 3f3d 814e b9bc 201d 99bc
00000040: 0140 1abd f7e7 e2bc 73db 2bbd 49f0 16bd
00000050: 8d6f 55bc 8529 ab3b 43fb 5bbc ed52 2b3d
00000060: 1df4 a93c 47c4 d0b9 7382 9abc 1832 50bd
00000070: 191c d6bc f1b0 383d be18 7dbc 0a69 4eba
00000080: 2461 a7ba b0c8 83bd a202 89bc b04b f9bc
00000090: 6248 36bd 4b65 903c 05cf 9b3c c46d 4fbc
000000a0: b1c2 dcbb f874 a3bb f908 1c3d 913c 0d3d
000000b0: 2521 23bd f727 213d d20e 0dbd 3e8b 853c
000000c0: 5dde 133d d747 b0bc 65fe 053d d604 35bd
000000d0: 5404 89bc a763 783a 4fad 3a3c daf9 093d
000000e0: 0b08 bfbc 581c 8f3c 1a43 c9bc 1fb3 b63c
000000f0: 4073 29bd 2b22 b0bc b2a8 2a3d 21db 6abc
00000100: 42f9 093d 98a8 d33c 13fc 803c a880 3f3c
00000110: 2cb4 6b3c 531b c23c cef9 52bd b914 363c
00000120: 18bd 06bc 8e01 afbc 7df9 27bd fbc2 cc3c
00000130: d0ad e83c 2dcc 19bc 3a31 203d 24e0 79bb
00000140: c658 ca3a 0db6 503c 39c3 01bd f881 193c
00000150: 928e cf3c 1e5b 0abd ca55 b9bb e00a 453d
00000160: ae04 f93b e743 41bd 52ef 1c3d e5bb 9cbc
00000170: 5fb8 41bd 3016 1fbd 70f0 1a3d 76bd efbc
00000180: 8a04 07bc 5f49 20bd 2166 acbc 9fc8 dcbc
00000190: a49d 13bd f0b3 dc3c 7cab 353d 28a6 19bd
000001a0: 74a9 35bd 8602 403d e26d 3fbd 28f0 873c
000001b0: 6463 853c e650 0b3d 7afb 083d c710 b1bc
000001c0: 20c4 2abd 4a09 323d e50a d9bc 52bc 133d
000001d0: a0f1 113d 4743 49bd a594 e33c 59a3 883c
000001e0: 0ef3 f3bb 3e47 133d 4c21 d13c c20b 1fbc
000001f0: 7a2a 2d3d 4cc6 123b d79a d9bc c900 e93b
00000200: 119e 7b3c 515f 923c 25ef 053d 7ffb 10bd
00000210: c786 d8bb cf19 0d3d 7c4d ee3c 23e2 3d3d
00000220: 7aaa 2c3d 5187 88bc b62e 4b3c c0eb 7bbb
00000230: 12f5 51bd b0e0 0d3d 1822 053d 3bd8 16bd
00000240: a62e 033d c4ed 24bb d9c8 4d3d 5fcb 2dbd
00000250: 7a4c 473c a449 5e3d a32b 51bc 0ae8 433c
00000260: d409 1bbd 9b3d 423d fc13 643a 7cea 1f3d
00000270: 192b 0cbd 65e4 83bc 1700 8cbc 6866 2f3a
00000280: c982 2c3d e074 4bbb 6fb7 8d3c 2562 353d
00000290: 1c6b 5f3c 3e23 1d3c 8626 e33b 642b d7bc
000002a0: 1351 bcbb 0b39 a1bc 7780 803c 00d9 1c3d
000002b0: d2bd 313d ceae 25bd ab6f f53b d619 353c
000002c0: eb85 92bb d70d 4c3b 1c7f 983b bf40 423d
000002d0: 9236 5a3d af93 bcbc f33b 813c 319e dc3c
000002e0: 5529 ffbc 39cc f63c b889 5e3d 27a0 5fbd
000002f0: c0c5 a83c 83a3 493b 1ae8 953c 8da8 0e3d
00000300: 854c 7dbd ed7f 73bc 39fa 33bd ef5a b43b
00000310: d12f edbc bddd 7bbc 77f8 d6bc 25c2 d4bc
00000320: 731c 263c 1a83 543d d95d 2c3d 54ed 11bd
00000330: 94c2 97bc 1a72 98bc 97e6 6e3c bbb4 30bd
00000340: f31b 8cbc 9097 03bc 55c6 653c 8f65 1dbd
00000350: 34a6 6a3c 491f a43c 4bc1 523d 76cc 383c
00000360: 95b6 893c 1a35 653c aec2 ce3c 03de b03c
00000370: f10e 8abc 867f bb3c 9483 6d3d 9756 fe3c
00000380: 2543 4a3d 04d8 28bd 2d8f 983c 31ba 033d
00000390: f692 7dbd 8762 093d d8c4 a9bc 3319 713c
000003a0: 8d30 343d 77ce 12bd 3857 253d 25a2 3d3d
000003b0: 842f 593d f28b 28bd 05e6 db3b 4d4c 913a
000003c0: ebe5 203d 39d0 793c 415f a5bc f1ba 68bd
000003d0: 0840 2fbc f011 f9bc 9ab3 b1bc edd6 693b
000003e0: 3295 e4bc 16f7 3d3d 7bf6 e9bc ec99 e13b
000003f0: ce02 b9bc 9aa8 01bd da4d f9bc 0cb2 0f3b
