ddpg/model_params/twitter_ddpg_6_65_critic.pth (torch, 378802 bytes, 17 tensors)

state_input.weight f4 [128, 65]
-3.818859e-08 -1.2304115e-07 4.4728576e-09 -3.9172726e-08 -5.079908e-08 -1.39160825e-08 -6.153035e-08 2.9509616e-07
-5.342074e-07 -1.5058962e-06 7.269859e-08 -6.5170454e-08 -1.539227e-07 8.531712e-09 3.9048678e-07 -2.7020484e-08
2.2282225e-07 -5.27964e-07 3.902329e-08 6.073193e-08 2.579598e-07 1.3946013e-07 9.828462e-08 -1.6674193e-07
1.6374042e-07 -4.3362766e-07 1.6755412e-07 -4.296404e-07 -5.017522e-08 -6.875195e-07 -3.3440344e-09 -5.413411e-07
2.7243777e-07 -1.0700709e-07 -1.5958392e-08 -8.293027e-08 7.898064e-08 1.4663351e-07 -9.412542e-10 -6.05744e-08
-4.25015e-07 -2.1619465e-07 4.0088457e-07 1.7858475e-09 -8.197771e-08 -1.12956634e-07 2.942983e-08 1.0496051e-07
-2.099675e-07 1.25282e-08 1.4717986e-07 1.4156765e-08 1.5461083e-08 -1.5385118e-07 3.27563e-07 -3.2423316e-08
-2.7407886e-08 -1.1221233e-07 2.0382015e-07 7.0012334e-08 9.524726e-08 -3.4424883e-08 9.776611e-08 -3.8691985e-07
-2.850789e-09 -4.307259e-07 1.5011477e-07 -5.095367e-07 6.228294e-08 -1.8703561e-07 -8.51723e-08 -1.4301357e-07
9.0103654e-08 7.889237e-09 -5.977361e-08 -1.6892393e-07 -5.4560934e-07 -5.6289288e-08 -9.454363e-08 3.9562633e-07
-2.7092344e-07 -5.647337e-08 8.334182e-08 5.486882e-09 -5.774225e-08 1.699426e-08 -5.150112e-08 -5.6973124e-07
2.2706342e-08 -1.5930176e-07 2.8421618e-07 8.8093275e-09 1.23892505e-08 -1.2365888e-07 -3.398576e-07 -7.085356e-08
-1.2021543e-06 3.4295397e-07 1.39433e-07 -5.0716764e-09 8.2556404e-08 -1.2056753e-06 -4.527377e-11 -7.0326786e-07
-4.2661082e-07 7.053599e-07 -6.983804e-07 -5.528305e-07 -3.8226457e-07 3.821073e-08 -5.8249363e-08 3.3441697e-07
3.8201762e-07 -4.0541957e-07 -5.7467926e-08 -8.662846e-08 1.9837854e-07 -2.1283697e-07 -1.9447477e-08 1.04143986e-07
-1.0423084e-07 7.296204e-08 4.2725695e-08 6.346106e-08 1.2743445e-07 6.540878e-09 9.366029e-08 2.2969575e-09
1.943054e-07 5.314655e-08 -7.266304e-08 -1.6419317e-07 2.2421386e-07 -2.0917258e-07 -1.852904e-08 3.0710563e-09
-1.7666909e-07 2.2541009e-07 1.5678424e-08 1.1608879e-08 -1.4186618e-07 -7.298368e-08 -1.5466819e-09 2.6971136e-09
-3.4512735e-07 -2.0574498e-07 5.46069e-08 -3.2133013e-07 1.9269191e-07 1.17436166e-07 1.0072918e-07 1.1329455e-08
-8.527634e-09 2.6007433e-07 1.07457936e-07 2.5838526e-07 6.438789e-09 1.6560737e-07 -1.0197815e-07 -4.7208726e-10
-3.4183626e-07 -1.0196831e-07 1.5935562e-07 5.738459e-08 -1.6497404e-07 -3.7753293e-07 -3.7043046e-07 -8.956835e-09
-2.0927042e-07 -6.7208217e-10 1.9238815e-08 -1.5023747e-07 -6.336844e-09 -3.433044e-08 2.2722381e-07 3.7740935e-07
2.6789505e-07 2.1511883e-07 1.282942e-07 2.037321e-08 -1.79887e-08 9.8777306e-08 7.896605e-08 -2.899971e-07
1.9672137e-07 -4.3633605e-08 -1.0709391e-07 -2.1335039e-07 -2.144915e-07 -1.0221022e-08 4.8004406e-08 -9.326327e-08
-8.4007326e-09 4.1477257e-08 7.046042e-07 -4.3447773e-08 7.2034245e-09 2.7215464e-07 -2.0454236e-07 -2.5174485e-09
-2.3747515e-07 -3.9755594e-07 6.413857e-08 6.666009e-08 -5.67966e-07 -2.7392929e-08 -3.729343e-08 1.971504e-08
-2.0259971e-08 -4.2263852e-07 -2.281571e-07 -8.06109e-08 1.9253858e-07 -8.494925e-08 -1.9604258e-07 -1.3030736e-07
1.1617274e-07 -3.2637267e-08 6.907247e-08 -9.794538e-08 3.420431e-07 2.8632377e-07 -1.8922325e-08 -9.985101e-08
1.8649561e-07 -1.8169945e-07 2.6491394e-08 -2.6545723e-07 -3.9965725e-10 6.600072e-08 -1.4433095e-07 -9.281116e-08
-9.694905e-08 -1.7189522e-07 3.0123815e-08 2.22697e-07 2.3600933e-08 -1.5232389e-07 1.1283145e-08 2.060375e-08
1.1769363e-07 2.41599e-08 -1.8993434e-08 -9.338349e-08 3.247677e-07 3.9021438e-07 -2.5543935e-08 -2.063855e-07
-2.1201656e-07 1.6875619e-07 3.6492608e-08 5.2764193e-08 3.0779272e-08 -4.938901e-08 2.3167418e-07 -3.605561e-08
00000000: cc04 24b3 4b1d 04b4 acaf 9931 de3e 28b3
00000010: 2e2e 5ab3 9413 6fb2 ab22 84b3 b56d 9e34
00000020: 7466 0fb5 331e cab5 791e 9c33 d6f3 8bb3
00000030: f345 25b4 de92 1232 18a4 d134 ac1a e8b2
00000040: ea40 6f34 69b9 0db5 909a 2733 bb6b 8233
00000050: ba7d 8a34 82be 1534 8b10 d333 ac09 33b4
00000060: a0d0 2f34 55cd e8b4 ede8 3334 54a9 e6b4
00000070: 3d80 57b3 fb8d 38b5 e0cc 65b1 ad50 11b5
00000080: 9043 9234 c5cb e5b3 e014 89b2 6617 b2b3
00000090: 119c a933 5072 1d34 705d 81b0 2115 82b3
000000a0: 9e2d e4b4 2223 68b4 2839 d734 ec71 f530
000000b0: b90b b0b3 9192 f2b3 e1cc fc32 a766 e133
000000c0: 6d73 61b4 9b3b 5732 7e08 1e34 1c36 7332
000000d0: 48cf 8432 4a32 25b4 eadb af34 d041 0bb3
000000e0: 946e ebb2 61f9 f0b3 a8d9 5a34 b059 9633
000000f0: bc8a cc33 8fda 13b3 7df3 d133 dcb9 cfb4
00000100: 9ce7 43b1 843e e7b4 3c2f 2134 18c7 08b5
00000110: 69c0 8533 f5d3 48b4 f8e7 b6b3 458f 19b4
00000120: 027f c133 3b89 0732 e45c 80b3 7561 35b4
00000130: fd75 12b5 bac2 71b3 e907 cbb3 7866 d434
00000140: 6f73 91b4 218d 72b3 a6f9 b233 2087 bc31
00000150: 4600 78b3 c6fa 9132 1532 5db3 a2ef 18b5
00000160: c60b c332 890c 2bb4 6096 9834 d557 1732
00000170: 80d8 5432 18c7 04b4 ac75 b6b4 2828 98b3
00000180: b559 a1b5 3c1f b834 0db7 1534 f042 aeb1
00000190: dd49 b133 b0d2 a1b5 bc1d 47ae 33c8 3cb5
000001a0: f208 e5b4 f757 3d35 5678 3bb5 3966 14b5
000001b0: 0b3a cdb4 241d 2433 da2d 7ab3 eb89 b334
000001c0: 1a18 cd34 71a8 d9b4 a7d2 76b3 8008 bab3
000001d0: e101 5534 2e88 64b4 740d a7b2 c3a5 df33
000001e0: 83d5 dfb3 4eaf 9c33 6681 3733 1648 8833
000001f0: ead4 0834 2cbe e031 4a22 c933 81d8 1d31
00000200: 43a2 5034 4043 6433 ee0a 9cb3 134d 30b4
00000210: 70bf 7034 ec98 60b4 ca29 9fb2 980a 5331
00000220: 6eb2 3db4 4108 7234 38ad 8632 6470 4732
00000230: e153 18b4 34bb 9cb3 0893 d4b0 2058 3931
00000240: f149 b9b4 c0ea 5cb4 ec88 6a33 4783 acb4
00000250: c0e6 4e34 3731 fc33 7450 d833 78a3 4232
00000260: ee80 12b2 58a0 8b34 a0c3 e633 33b8 8a34
00000270: 303c dd31 cfd1 3134 15ff dab3 30c4 01b0
00000280: 9e85 b7b4 acf9 dab3 571b 2b34 0677 7633
00000290: b823 31b4 bbaf cab4 93df c6b4 94e0 19b2
000002a0: d1b3 60b4 94bd 38b0 9a42 a532 f650 21b4
000002b0: 78bb d9b1 b872 13b3 cefa 7334 bf9e ca34
000002c0: 37d3 8f34 6afb 6634 3ec1 0934 2a01 af32
000002d0: 9285 9ab2 661f d433 0c94 a933 e6b0 9bb4
000002e0: 5c3a 5334 a867 3bb3 80fb e5b3 4f15 65b4
000002f0: f94e 66b4 8898 2fb2 672d 4e33 0648 c8b3
00000300: d052 10b2 ba24 3233 0824 3d35 559b 3ab3
00000310: fe81 f731 a61c 9234 2da0 5bb4 6cff 2cb1
00000320: acfc 7eb4 ac6f d5b4 8dbc 8933 c626 8f33
00000330: 5476 18b5 b04d ebb2 8f2c 20b3 d559 a932
00000340: 2608 aeb2 ffe6 e2b4 59fb 74b4 501c adb3
00000350: 9abc 4e34 586d b6b3 c67f 52b4 9dea 0bb4
00000360: a47a f933 0e2d 0cb3 fe54 9433 0b56 d2b3
00000370: 0ca2 b734 0ab8 9934 a28a a2b2 ac6d d6b3
00000380: 863f 4834 2a19 43b4 318f e332 2a84 8eb4
00000390: c2b6 dbaf 48bc 8d33 64f9 1ab4 7a4f c7b3
000003a0: 4e32 d0b3 3392 38b4 7c61 0133 7c1e 6f34
000003b0: 00bb ca32 798e 23b4 ccd7 4132 20fc b032
000003c0: c2be fc33 2f88 cf32 0127 a3b2 1e8a c8b3
000003d0: bc5b ae34 a87e d134 b56b dbb2 d09a 5db4
000003e0: aba6 63b4 5933 3534 0cbc 1c33 d89e 6233
000003f0: 2b32 0433 ca1f 54b3 1dc2 7834 90db 1ab3

state_input.bias f4 [128]
-1.8339788e-08 4.2274292e-05 3.4338766e-06 6.251984e-06 2.197151e-06 -3.5275934e-07 1.7868047e-06 -0.0007973186
2.997276e-07 -1.2468115e-07 1.2437672e-06 2.714403e-07 0.0009871805 4.6691225e-06 9.0884825e-08 -2.046163e-07
2.9257733e-06 -2.9471687e-06 -0.00079807127 0.00054896914 -2.0491636e-06 1.7884917e-05 -1.4190191e-07 2.3631135e-05
0.00025353365 -1.3390274e-06 1.7776891e-06 7.7032655e-07 -1.7846089e-06 -1.4758531e-06 -6.2191853e-06 6.9302416e-07
0.00010196932 -7.241259e-07 1.4778996e-06 -1.3613712e-06 6.7683135e-07 -0.0004173494 -2.7782291e-06 1.7547879e-07
-0.0006973433 0.00037765608 0.00091195514 -2.4671299e-05 -0.0004911022 -0.0008751941 3.2248245e-05 0.0017904171
2.483161e-06 -1.3011561e-05 -2.4407163e-06 0.0010705063 -1.7918555e-06 -6.6708054e-07 2.4149745e-06 -7.1865617e-07
1.7606197e-08 -0.0010274999 -1.690029e-07 9.219019e-08 1.2292109e-06 1.1815956e-05 0.00063607114 0.00081671844
2.1444499e-05 -1.8277749e-06 0.0009751731 2.1370136e-07 -5.1020565e-06 -1.9748128e-05 -1.1391646e-06 -1.997756e-06
1.7410737e-05 -5.9514055e-06 -6.9549046e-08 0.0015863496 -1.0987479e-06 -5.056195e-07 1.2079386e-06 0.00065124966
-1.2119476e-06 5.3865087e-06 5.136204e-06 0.00035275565 -1.6026974e-05 2.434442e-07 0.00083109277 -7.8925115e-07
-2.4453573e-05 1.3402972e-06 -2.7386438e-06 -1.4219644e-07 -0.00030077362 8.596058e-08 4.5905517e-07 -2.9744672e-07
-2.1216395e-06 0.0015835129 0.00033721744 9.4653217e-07 1.50445685e-05 -2.118366e-05 -0.00015760603 2.593868e-07
-0.00073790055 2.4567142e-05 5.1612383e-06 -1.7867656e-06 4.7515613e-07 5.4546804e-06 -1.2567216e-06 -1.5445562e-07
-2.3492827e-05 -1.6323875e-05 1.2703282e-08 5.349834e-07 -7.841052e-06 -0.00088047655 -7.01652e-08 -0.00063164585
-1.5552283e-05 5.3412583e-07 -1.1666614e-05 2.0836746e-06 -2.7085987e-06 7.149119e-07 0.0005538678 3.7613936e-06
00000000: 9f89 9db2 ad4f 3138 8d71 6636 22c8 d136
00000010: c472 1336 e062 bdb4 24d2 ef35 2503 51ba
00000020: 3fea a034 18e0 05b4 84ef a635 79ba 9134
00000030: 4864 813a 75ab 9c36 762c c333 80b4 5bb4
00000040: 6758 4436 f9c7 45b6 a835 51ba b2e8 0f3a
00000050: 5d84 09b6 9107 9637 b35d 18b4 7a3b c637
00000060: b6ec 8439 a2b8 b3b5 ef98 ee35 70c8 4e35
00000070: b286 efb5 ed15 c6b5 65ae d0b6 4208 3a35
00000080: 5dd8 d538 8e61 42b5 3e5c c635 5cb8 b6b5
00000090: 7faf 3535 b0cf dab9 9d71 3ab6 3e6b 3c34
000000a0: ebcd 36ba 2400 c639 4610 6f3a 36f5 ceb7
000000b0: 50bd 00ba 486d 65ba 4a42 0738 6eac ea3a
000000c0: 62a4 2636 3b4c 5ab7 30cb 23b6 3b50 8c3a
000000d0: b07f f0b5 6d11 33b5 f210 2236 ade9 40b5
000000e0: 703c 9732 2dad 86ba 2a77 35b4 18fa c533
000000f0: 5dfb a435 253d 4637 03be 263a 0c19 563a
00000100: b6e3 b337 de51 f5b5 c2a2 7f3a c875 6534
00000110: 5532 abb6 c8a8 a5b7 66e5 98b5 3011 06b6
00000120: 460d 9237 2fb2 c7b6 fe5a 95b3 0fed cf3a
00000130: b178 93b5 e8b9 07b5 7420 a235 a0b8 2a3a
00000140: 34aa a2b5 c2bd b436 a857 ac36 10f2 b839
00000150: aa71 86b7 b7b2 8234 b1dd 593a eddc 53b5
00000160: a621 cdb7 43e4 b335 8bc9 37b6 a9ae 18b4
00000170: 27b1 9db9 5499 b833 1074 f634 c4b0 9fb4
00000180: 7d61 0eb6 e08d cf3a 8fcc b039 3215 7e35
00000190: ee67 7c37 90b3 b1b7 0c43 25b9 da41 8b34
000001a0: ab6f 41ba 8915 ce37 b32e ad36 ccd0 efb5
000001b0: f618 ff34 5907 b736 a0ac a8b5 70d8 25b4
000001c0: 7612 c5b7 41ef 88b7 a03d 5a32 c89b 0f35
000001d0: 108d 03b7 c8cf 66ba baad 96b3 0995 25ba
000001e0: 4676 82b7 d960 0f35 babb 43b7 42d5 0b36
000001f0: 5fc5 35b6 5fe8 3f35 7031 113a 406c 7c36

action_input.weight f4 [128, 6]
0.04272018 -0.08046839 0.03098277 -0.036589332 -0.06690449 0.015977561 0.012770275 -0.011662808
0.0047203256 0.049188886 -0.00437993 0.008596653 -0.056205206 0.08454084 -0.018218799 -0.008139564
0.05788724 -0.03361436 -0.047396798 0.0375937 -0.01642175 -0.017590435 0.018833928 -0.045611683
0.05340807 -0.081307866 0.01501485 -0.0077775028 -0.030933008 0.020094894 0.046346564 -0.0557222
0.0111182 -0.027820144 -0.029354688 0.019946327 -0.024325576 0.06666428 -0.028821044 0.0032250984
0.056245387 -0.059094306 0.08191122 -0.10091866 0.014442358 -0.05307487 -0.08643067 0.02784126
0.05925766 -0.10560639 0.00909609 -0.018621372 -0.059182633 0.024604198 0.011685319 -0.06766584
0.00054819335 -0.038071003 -0.07067102 -0.019446813 -0.02109656 0.034697097 -0.020062871 0.03107464
0.0138739785 -0.025391435 -0.06823186 0.08740319 -0.021199416 0.050309714 0.064060144 -0.023875944
0.050835524 -0.07461297 0.0086507695 -0.054558866 -0.070247516 0.017005702 0.09951277 -0.0865218
0.026038716 -0.039577935 -0.0715156 0.031051086 -0.072040655 0.09391885 -0.017490776 0.033252943
0.07980043 -0.034513075 -0.08180973 0.097177885 -0.017975789 0.0447522 0.05531822 -0.02954679
-0.04790445 0.04816121 0.0020449795 0.02142466 0.04056183 -0.016602866 0.068078004 -0.09551316
0.029527135 -0.04275251 -0.05128033 0.060914323 -0.06461413 0.088698804 -0.016034162 0.02449272
0.049800206 -0.021887269 0.078491226 -0.10214869 0.021357441 -0.038179733 -0.058779262 0.0532695
0.071207605 -0.11406343 0.010837973 -0.025557559 -0.07707906 0.033399828 0.07964355 -0.0899508
0.024720179 -0.018343737 -0.06821833 0.024430733 0.08313116 -0.084927894 0.029799605 -0.006394011
-0.043331023 0.057406 0.08153971 -0.078880504 0.0064374697 -0.013858743 -0.061209884 0.04299452
0.095906295 -0.091833055 0.033809297 -0.024901874 -0.049049415 0.047143836 0.08043068 -0.11075333
0.011346268 -0.040531643 -0.0689507 0.0319976 0.08868598 -0.08687025 0.016019063 -0.047270037
-0.0761867 0.021279585 -0.093197614 0.06976719 -0.024562657 0.029003344 0.05112451 -0.035156883
-0.0344787 0.08897333 -0.0053773317 0.04166878 0.06409953 -0.035257194 -0.0870854 0.09603218
-0.02515474 0.041760605 0.06501894 -0.039937455 0.060268283 -0.0905423 0.016403276 -0.015800973
-0.058964126 0.030262418 0.09405943 -0.0939589 0.028158149 -0.023584576 -0.043215815 0.039200168
0.037274197 -0.08734968 0.0011968751 -0.0027293877 -0.05764335 0.014873764 0.0803194 -0.11016184
0.02542827 -0.023476431 -0.067795195 0.045735016 -0.065550186 0.08545652 -0.0084502995 0.034303937
0.06532683 -0.02457154 0.037250973 -0.062198337 0.024253739 -0.017237673 -0.053515747 0.028732639
0.0792689 -0.09395581 0.023924408 -0.027942494 -0.08054269 0.051339384 -0.09465793 0.09712092
-0.0050261607 0.031112831 0.061825477 -0.040590726 0.048551947 -0.09133331 0.00945374 -0.04261814
-0.06812637 0.020987865 0.018954528 -0.064480655 0.010179131 -0.009840758 -0.013002964 0.0045385133
-0.07921206 0.09778986 -0.028131913 0.02402451 0.049351934 -0.04419447 -0.048305232 0.09807221
0.0037626938 0.036686726 0.08098625 0.002804877 -0.043852784 0.0863226 -0.013031884 0.029056137
00000000: 5bfb 2e3d 9ccc a4bd 94cf fd3c b2de 15bd
00000010: 3905 89bd 60e3 823c 6a3a 513c 5d15 3fbc
00000020: f6ac 9a3b 497a 493d 8485 8fbb fad8 0c3c
00000030: 6e37 66bd bf23 ad3d 973f 95bc ce5b 05bc
00000040: 2c1b 6d3d 36af 09bd 2523 42bd dafb 193d
00000050: e886 86bc d119 90bc 9c49 9a3c 51d3 3abd
00000060: 6cc2 5a3d bd84 a6bd d800 763c 6cda febb
00000070: 3867 fdbc 0c9e a43c e5d5 3d3d f63c 64bd
00000080: 1c29 363c 12e7 e3bc 3e79 f0bc 7b66 a33c
00000090: 6e46 c7bc 4887 883d 1c1a ecbc 2c5c 533b
000000a0: 9061 663d df0c 72bd 12c1 a73d 71ae cebd
000000b0: a49f 6c3c 0965 59bd 9002 b1bd 5b13 e43c
000000c0: 29b8 723d 2a48 d8bd c407 153c d98b 98bc
000000d0: 7d69 72bd be8e c93c c873 3f3c 6394 8abd
000000e0: a2b4 0f3a 57f0 1bbd f8bb 90bd ec4e 9fbc
000000f0: b1d2 acbc 8b1e 0e3d e45a a4bc 3e90 fe3c
00000100: af4f 633c b301 d0bc 25bd 8bbd 7200 b33d
00000110: 66aa adbc 8f11 4e3d f731 833d 7c97 c3bc
00000120: e938 503d afce 98bd f5bb 0d3c 1e79 5fbd
00000130: eedd 8fbd 8b4f 8b3c 5acd cb3d 5732 b1bd
00000140: 254f d53c 791c 22bd c576 92bd d95e fe3c
00000150: 0d8a 93bd 8758 c03d d148 8fbc 3d34 083d
00000160: 686e a33d 955d 0dbd dc8b a7bd 3305 c73d
00000170: f641 93bc 154e 373d 5c95 623d 1c0c f2bc
00000180: 7537 44bd b044 453d 1005 063b c582 af3c
00000190: 2924 263d bc02 88bc 7b6c 8b3d 679c c3bd
000001a0: e4e2 f13c 421d 2fbd 530b 52bd 4c81 793d
000001b0: 6a54 84bd b8a7 b53d 135a 83bc f5a4 c83c
000001c0: 4dfb 4b3d ee4c b3bc 02c0 a03d 5533 d1bd
000001d0: cdf5 ae3c 5a62 1cbd 86c2 70bd 1f31 5a3d
000001e0: 4bd5 913d 169a e9bd c191 313c 165e d1bc
000001f0: a0db 9dbd 42ce 083d 281c a33d 2038 b8bd
00000200: f981 ca3c 9b45 96bc 0db6 8bbd f622 c83c
00000210: ab40 aa3d adee adbd 4d1e f43c da84 d1bb
00000220: df7b 31bd 8e22 6b3d 4bfe a63d 1a8c a1bd
00000230: 69f1 d23b c80f 63bc 37b7 7abd 061b 303d
00000240: 856a c43d f812 bcbd 9e7b 0a3d 04ff cbbc
00000250: 0ae8 48bd e519 413d d7b8 a43d a4d2 e2bd
00000260: b2e5 393c 8204 26bd 0636 8dbd ea0f 033d
00000270: ffa0 b53d 08e9 b1bd 693a 833c 3a9e 41bd
00000280: c607 9cbd 8652 ae3c 64de bebd 1ae2 8e3d
00000290: a037 c9bc 6c98 ed3c ef67 513d aa00 10bd
000002a0: 8a39 0dbd a637 b63d 5434 b0bb e2ac 2a3d
000002b0: 9d46 833d d969 10bd d559 b2bd 85ac c43d
000002c0: 5011 cebc 2b0d 2b3d a628 853d 7595 23bd
000002d0: e0db 763d 3e6e b9bd 2a60 863c 0b71 81bc
000002e0: 5e84 71bd e4e8 f73c 3ba2 c03d 866d c0bd
000002f0: ebab e63c 7134 c1bc 1103 31bd 5b90 203d
00000300: d4ac 183d 64e4 b2bd 77e0 9c3a 87df 32bb
00000310: 6f1b 6cbd 16b1 733c 7f7e a43d 889c e1bd
00000320: f34e d03c a551 c0bc 35d8 8abd a454 3b3d
00000330: 2d3f 86bd d403 af3d 2073 0abc 4982 0c3d
00000340: 13ca 853d 414a c9bc 7a94 183d afc3 7ebd
00000350: c7af c63c 0536 8dbc 5433 5bbd b660 eb3c
00000360: bc57 a23d e76b c0bd 1ffd c33c a8e7 e4bc
00000370: 91f3 a4bd 3f49 523d 04dc c1bd 55e7 c63d
00000380: 7eb2 a4bb 56e0 fe3c b63c 7d3d 7642 26bd
00000390: 68de 463d f50c bbbd dce3 1a3c 5c90 2ebd
000003a0: d785 8bbd beee ab3c 8746 9b3c 6f0e 84bd
000003b0: 5fc6 263c 213b 21bc 620a 55bc cfb7 943b
000003c0: ef39 a2bd 0d46 c83d e674 e6bc 0dcf c43c
000003d0: 4125 4a3d 4305 35bd b5db 45bd 15da c83d
000003e0: 8797 763b d244 163d 1edc a53d 07d2 373b
000003f0: fa9e 33bd e7c9 b03d af83 55bc 2307 ee3c

action_input.bias f4 [128]
-0.004528767 0.09669166 -0.105909236 -0.06135935 0.04625326 0.07000052 -0.11622477 0.03442802
0.06425767 -0.07055971 -0.080262445 -0.015874298 -0.016275698 0.00023440766 -0.01055311 -0.009203802
-0.086958826 0.005359019 -0.09646475 0.0016200121 0.034798827 -0.0054630316 0.102058575 0.10322594
0.04329421 0.040714376 0.086574584 0.039435655 0.025424961 -0.037727144 -0.018029174 -0.008846748
-0.051706705 0.07823441 -0.050576974 0.0430142 0.05829094 0.0032440266 0.0049387706 0.10648995
0.013204843 -0.068772614 -0.07364353 -0.015570777 0.032746553 0.020069221 -0.060500592 0.051831853
0.10399657 0.103653654 -0.081083305 -0.081352115 -0.094718084 -0.038912687 0.07076014 0.012172081
-0.00018586719 -0.11256581 -0.08427188 -0.05702454 -0.014318257 -0.004005341 -0.0049424926 -0.11584914
-0.071722455 0.0017171996 -0.036706 -0.06947864 -0.05903951 0.018777596 0.02664007 0.06296035
0.04444083 -0.11023688 0.04645418 0.06535576 -0.055911284 0.055740476 0.07389322 0.017725838
-0.032770105 -0.07625184 -0.11423401 -0.083427414 0.07043848 0.09627799 0.057969216 0.04363533
-0.10177165 -0.035846405 -0.078575194 -0.08096023 -0.11113994 -0.10621366 -0.035373356 -0.029179245
0.04129551 -0.10775013 0.10499955 0.004514397 0.065243594 0.012944664 0.07721377 0.12679587
0.0034189315 0.1044744 0.018930364 -0.05066009 -0.00478153 0.07546637 0.08129569 -0.001680602
-0.008061282 0.07787726 0.03161829 0.033427905 0.07874011 -0.08259571 0.013010899 0.09071187
-0.07521285 0.0015377686 -0.118116885 0.023099706 -0.03286522 -0.024509445 -0.08689615 0.057173133
00000000: 0d66 94bb 4706 c63d f1e6 d8bd f153 7bbd
00000010: 0f74 3d3d 6f5c 8f3d 4107 eebd 6504 0d3d
00000020: 8699 833d 9c81 90bd a360 a4bd d10a 82bc
00000030: 9d54 85bc 54cb 7539 f4e6 2cbc 8bcb 16bc
00000040: 7817 b2bd b69a af3b 508f c5bd 9656 d43a
00000050: 3789 0e3d 3b03 b3bb 1604 d13d 1f68 d33d
00000060: 4555 313d 1ec4 263d 044e b13d 4887 213d
00000070: 0248 d03c c787 1abd ebb1 93bc f3f1 10bc
00000080: 69ca 53bd 5d39 a03d cd29 4fbd a82f 303d
00000090: 7bc2 6e3d bc99 543b 69d5 a13b 6717 da3d
000000a0: 2059 583c a8d8 8cbd 6bd2 96bd 921c 7fbc
000000b0: 4021 063d 3568 a43c 78cf 77bd a34d 543d
000000c0: 27fc d43d 5e48 d43d 010f a6bd f09b a6bd
000000d0: 8efb c1bd e962 1fbd b1ea 903d 686d 473c
000000e0: 58e5 42b9 e788 e6bd bc96 acbd 9092 69bd
000000f0: 1f97 6abc 3c3f 83bb a2f4 a1bb 5042 edbd
00000100: 39e3 92bd a813 e13a 0859 16bd d14a 8ebd
00000110: 6ad3 71bd 79d3 993c 473c da3c 5bf1 803d
00000120: 9607 363d e0c3 e1bd bd46 3e3d 3ed9 853d
00000130: 3b03 65bd 2050 643d 5455 973d c735 913c
00000140: f239 06bd ed29 9cbd 85f3 e9bd fedb aabd
00000150: 0d42 903d 652d c53d 2171 6d3d f6ba 323d
00000160: a86d d0bd aed3 12bd 08ec a0bd 7ace a5bd
00000170: 569d e3bd 8c86 d9bd a7e3 10bd 5009 efbc
00000180: 7b25 293d 1aac dcbd 010a d73d 82ed 933b
00000190: 6f9e 853d db15 543c 4122 9e3d c7d6 013e
000001a0: 2710 603b adf6 d53d da13 9b3c f480 4fbd
000001b0: 61ae 9cbb 1d8e 9a3d 5b7e a63d a547 dcba
000001c0: 7813 04bc 1d7e 9f3d 2e82 013d b3eb 083d
000001d0: 7f42 a13d f127 a9bd aa2b 553c 25c7 b93d
000001e0: 3209 9abd f48e c93a 44e7 f1bd 983b bd3c
000001f0: ae9d 06bd 08c8 c8bc 9cf6 b1bd 602e 6a3d

layers.0.weight f4 [256, 256]
0.0030807338 -0.013166379 -0.011894928 -0.0055880747 0.008266934 0.009212871 0.0230316 0.002781753
-0.01684595 -0.0049229013 -0.004919882 -0.0045737014 -0.0054199053 0.017178383 -0.0065768925 -0.0055037844
0.04371188 0.02120086 -0.00548582 0.017713511 -0.034202006 0.009545765 0.0045874277 -0.0075574755
0.0014571628 0.008375092 0.02032191 0.01132232 0.014936025 0.007858946 -0.0007139123 -0.005778099
0.032036595 0.015398826 0.028799897 -0.021419076 0.0034233462 -0.004893962 0.008901262 -0.0013009339
0.003074784 0.0031928914 -0.009950473 0.005526113 -0.0028665802 -0.01793903 -0.0058408794 -0.010117279
0.01156683 -0.013337313 -0.021085506 0.019457158 -0.0012663258 0.009385994 -0.016273066 0.011256242
-0.0035487828 -0.01785536 0.009156441 -0.003165684 -0.001677874 0.004370127 -0.007675897 -0.021649798
7.280465e-05 0.0028037408 -0.0051562316 -0.025569398 0.0048647514 -0.0027758856 0.0029019646 0.018098261
-0.014061881 0.040362544 0.0065193186 -0.010891354 0.036278237 0.011233841 -0.0043915673 0.0007539319
-0.008482874 0.007622884 0.014747259 0.0030952208 -0.0095305 0.0039609126 0.008440738 -0.027229542
0.0021072295 -0.019611742 0.010075403 -0.009068204 -0.0041733873 0.030049782 0.00052079314 0.006577876
-0.020252343 0.006187327 0.024231134 -0.008413546 -0.030494692 -0.017443277 0.0019209723 -0.0057201623
-0.009373125 -0.016111884 0.0091673825 -0.030753022 0.0052820975 -0.0015899489 -0.0054947603 -0.0017558397
0.007277952 -0.0013839854 0.00081652927 0.009382428 -0.015762672 -0.018926302 0.012924829 0.00048941
-0.00017754514 -0.0064431103 -0.0039947773 -0.009925079 -0.0011587341 0.019837702 -0.00264665 0.0025353483
0.027220218 0.015998106 0.0026268924 -0.02406336 0.0049457606 0.004775958 0.0013672516 0.024404047
0.022036964 -0.009565039 -0.010036783 -0.02415611 0.016409576 0.04610519 -0.04837114 -0.011731612
-0.0062726885 0.049539164 0.018487541 0.049995326 0.027153905 -0.00495016 0.014920177 0.017726688
0.029254291 0.023848036 0.024047976 -0.027173001 -0.04056644 -0.01500735 0.033506025 0.030666146
0.011721358 0.042274244 -0.013794725 0.020016558 0.031548545 -0.03799316 0.055537537 -0.00943731
-0.062967785 -0.02407221 0.0035415662 0.034042425 0.013559253 -0.03226231 -0.020483525 -0.008875368
0.008160262 0.009569561 -0.01897707 -0.01095452 -0.031473406 -0.0092277 0.022729792 0.027722998
0.028467143 -0.0019644033 -0.022127187 0.009389201 -0.043830343 0.029812938 -0.024400452 -0.013011105
0.0036088526 0.043880858 0.03347998 -0.027418416 -0.012192327 -0.023480117 -0.0104162805 0.026659656
0.025485082 -0.012352339 0.020119214 0.0019081497 -0.0061697513 -0.009892413 0.010649671 0.032002363
0.008572669 0.005387146 -0.01369462 -0.019869806 0.027631938 -0.019891584 0.031199306 -0.033973746
-0.008320487 -0.023946177 -0.024322927 -0.021650534 -0.016590858 -0.0042314758 -0.0359257 0.015159235
-0.010111276 0.00046683892 0.016486252 0.0074438285 0.018681824 0.043215774 0.004444028 0.013733544
-0.008708679 0.01825488 -0.043352354 -0.047727916 -0.030002426 -0.010287325 -0.011786657 0.0011313622
0.04686054 0.023327865 -0.03519483 0.03516162 0.018646892 -0.018357243 0.040427003 0.018007506
-0.016352236 0.042344313 -0.01110667 0.023937194 0.037829384 -0.026571669 -0.016418999 0.013530256
00000000: 23e6 493b ccb7 57bc f2e2 42bc 2b1c b7bb
00000010: 0972 073c 95f1 163c c4ac bc3c 124e 363b
00000020: 8500 8abc 4a50 a1bb f636 a1bb fdde 95bb
00000030: 7699 b1bb aeb9 8c3c f982 d7bb 1759 b4bb
00000040: 3a0b 333d 6dad ad3c 65c2 b3bb ed1b 913c
00000050: 6717 0cbd d765 1c3c 2252 963b b3a4 f7bb
00000060: 45fe be3a af37 093c 227a a63c 4181 393c
00000070: 3bb6 743c cfc2 003c d825 3bba 3556 bdbb
00000080: ce38 033d 5c4b 7c3c c3ed eb3c 0f77 afbc
00000090: 385a 603b 875d a0bb 99d6 113c 1984 aaba
000000a0: 5182 493b d43f 513b 4f07 23bc 6514 b53b
000000b0: 3cdd 3bbb dff4 92bc d964 bfbb f2c2 25bc
000000c0: cd82 3d3c bf84 5abc 83bb acbc 9e64 9f3c
000000d0: d8fa a5ba b6c7 193c 184f 85bc 1a6c 383c
000000e0: b292 68bb 6745 92bc e604 163c 5d77 4fbb
000000f0: 1cec dbba 4833 8f3b 1786 fbbb eb5a b1bc
00000100: b3ae 9838 f7be 373b 9bf5 a8bb ea76 d1bc
00000110: 7e68 9f3b a2eb 35bb e32e 3e3b ce42 943c
00000120: ce63 66bc 3253 253d 02a0 d53b a671 32bc
00000130: 7d98 143d 250e 383c 23e7 8fbb 83a3 453a
00000140: c1fb 0abc 63c9 f93b 7d9e 713c 30d9 4a3b
00000150: d025 1cbc 8bca 813b 054b 0a3c 7d10 dfbc
00000160: 7219 0a3b cea8 a0bc 4e13 253c ce92 14bc
00000170: e9c0 88bb f62a f63c d685 083a 398b d73b
00000180: 3ee8 a5bc 10bf ca3b 5f80 c63c f8d8 09bc
00000190: 01d0 f9bc 34e5 8ebc 22c9 fb3a 3370 bbbb
000001a0: bc91 19bc 12fd 83bc ca32 163c c3ed fbbc
000001b0: 7215 ad3b d565 d0ba 640d b4bb 3424 e6ba
000001c0: e37b ee3b d866 b5ba 5a0c 563a c1b8 193c
000001d0: b820 81bc 550b 9bbc a9c2 533c c04b 003a
000001e0: 692b 3ab9 ba20 d3bb 9fe6 82bb cc9c 22bc
000001f0: aae0 97ba ad82 a23c 6b73 2dbb 1628 263b
00000200: effc de3c 760e 833c f127 2c3b 8620 c5bc
00000210: 0c10 a23b a47f 9c3b 5a35 b33a ffea c73c
00000220: dd86 b43c aeb6 1cbc 5271 24bc 09e3 c5bc
00000230: 606d 863c ccd8 3c3d d120 46bd f235 40bc
00000240: 208b cdbb 94e9 4a3d 2f73 973c e6c7 4c3d
00000250: de71 de3c f434 a2bb c273 743c 8f37 913c
00000260: b2a6 ef3c f55c c33c 4300 c53c ea99 debc
00000270: ff28 26bd 63e1 75bc 9d3d 093d 9237 fb3c
00000280: f00a 403c c227 2d3d 4503 62bc c4f9 a33c
00000290: 0c39 013d b79e 1bbd 547b 633d f29e 1abc
000002a0: 41f5 80bd 1533 c5bc 9f19 683b 1270 0b3d
000002b0: a127 5e3c 7c25 04bd 11cd a7bc fe69 11bc
000002c0: 9fb2 053c a6c9 1c3c cd75 9bbc 967a 33bc
000002d0: 42ea 00bd c72f 17bc d433 ba3c 571b e33c
000002e0: ed33 e93c 38bd 00bb 1344 b5bc 2ad5 193c
000002f0: 7287 33bd 433a f43c 75e3 c7bc 882c 55bc
00000300: 8082 6c3b 6abc 333d 4e22 093d 969c e0bc
00000310: 53c2 47bc 6059 c0bc 0ca9 2abc 5a65 da3c
00000320: 17c6 d03c 7761 4abc 0dd1 a43c e11a fa3a
00000330: a02b cabb ca13 22bc f57b 2e3c e914 033d
00000340: 6174 0c3c a886 b03b 665f 60bc 01c6 a2bc
00000350: 605c e23c adf3 a2bc b095 ff3c 0e28 0bbd
00000360: a752 08bc c62a c4bc e040 c7bc 765c b1bc
00000370: 8de9 87bc 31a8 8abb d426 13bd 715e 783c
00000380: c4a9 25bc 0fc2 f439 2d0e 873c 5ceb f33b
00000390: a00a 993c 0603 313d 359f 913b a902 613c
000003a0: d9ae 0ebc 428b 953c 3d92 31bd 597e 43bd
000003b0: a6c7 f5bc 2b8c 28bc d31c 41bc 374a 943a
000003c0: d6f0 3f3d 141a bf3c 7428 10bd a105 103d
000003d0: 5ec1 983c ee61 96bc c996 253d 7a84 933c
000003e0: 20f5 85bc 3b71 2d3d c0f8 35bc ef17 c43c
000003f0: fcf2 1a3d d4ac d9bc 2381 86bc 02ae 5d3c

layers.0.bias f4 [256]
0.020248361 0.019711874 0.004178227 0.05165094 -0.05815652 -0.056858473 0.03606262 -0.07778771
0.008669399 -0.08910574 -0.0918778 -0.074629664 -0.074484356 -0.026616454 -0.018448161 0.029009458
-0.10467116 -0.04808699 -0.098888636 0.075325176 -0.02369216 0.04579521 0.022097705 -0.10974906
-0.030723734 -0.0042708516 -0.044991158 0.087255195 0.08007015 -0.056944307 0.06709604 0.0098321745
-0.042991843 0.04903072 -0.092716046 0.031271096 0.05903761 -0.027040634 0.003399886 -0.07666512
0.08088348 -0.07574774 0.008096886 -0.08196388 0.101889655 -0.07387688 0.006110586 0.002213474
-0.06799459 -0.05116058 -0.05028439 -0.06273685 0.0893318 -0.06930966 -0.068641886 0.018187009
0.08156579 -0.09727762 -0.0057329745 0.058946755 0.031824857 -0.00084693014 -0.047748182 0.08726482
-0.1016767 -0.017868148 0.051535584 -0.054609112 -0.04923568 -0.100020885 -0.07904491 -0.094810136
-0.048374116 0.013136748 -0.03387429 0.09775212 0.097300395 -0.014507344 -0.10272333 -0.09664106
0.08148804 -0.0060782135 -0.006918318 -0.07836527 -0.07174903 -0.064552955 0.0635035 0.006530955
0.06556039 -0.09095952 0.025355052 0.06639069 0.027162246 0.02734926 -0.022775883 0.055547155
-0.0711691 0.0074277925 -0.053823598 -0.022389166 -0.06150303 -0.119749755 -0.077857815 0.056704275
-0.062246233 0.022229549 -0.053460922 -0.019783465 0.059270706 -0.014862284 -0.033949405 -0.04406238
0.053862117 -0.07785307 -0.0633141 0.028130414 0.024005814 0.039377622 0.020743389 -0.05599935
-0.019237822 -0.063146174 0.0026970375 -0.050400306 -0.012038386 0.07949865 0.07558473 -0.074847266
0.09512465 -0.06491765 0.071361184 -0.015701864 -0.02974046 -0.04214074 0.10586077 0.006705332
-0.04031166 -0.08193429 0.08055314 0.008082021 0.07286197 0.060658485 0.03357268 -0.021480318
0.068818286 -0.03378602 -0.03780096 0.042068392 -0.08266493 -0.08325003 -0.062420744 -0.082219884
0.057955015 0.037676603 -0.03766491 0.06462372 -0.07904422 -0.0116696935 -0.09895193 -0.036863886
0.11094505 0.0220766 -0.026991764 0.040583104 0.042509086 0.07206515 0.098277554 -0.08437109
-0.06222709 -0.08986853 -0.043202676 0.07463921 0.09503926 0.07106934 -0.00091201684 -0.0100119
-0.029672185 -0.07733615 0.009265995 0.03498776 -0.07383406 -0.016117325 -0.010619833 -0.058831528
-0.03189166 -0.03505619 0.09644082 0.032825075 0.040221505 0.062317178 0.034441903 -0.027005242
-0.08415622 0.08711388 -0.098487034 -0.010952071 -0.08193499 0.093220435 0.06338327 0.037858523
0.016263997 -0.101403825 -0.009285456 0.025334725 0.011517199 -0.09515596 -0.042247217 0.0027460228
-0.024578962 0.03381232 0.039393973 -0.05270058 -0.073727444 -0.021818642 0.06545838 -0.04222308
-0.029623607 0.03342861 0.03717695 0.112819485 0.10232218 0.079358056 0.03077541 -0.07954912
-0.10458136 -0.09198215 -0.09079173 -0.07102684 0.10306162 0.023368247 -0.011033755 -0.022635568
0.061463863 0.11495191 -0.06770803 -0.072222576 0.03337933 0.023520984 -0.06787497 0.07587868
0.069731034 0.07419824 -0.007201185 -0.05908295 0.04807985 0.0785241 -0.07803163 0.056788355
-0.072113775 0.070950575 0.021272268 -0.043489356 -0.08641662 -0.08476328 -0.055562355 0.03462052
00000000: e4df a53c cc7a a13c 82e9 883b f08f 533d
00000010: 8835 6ebd 6ee4 68bd 66b6 133d 2a4f 9fbd
00000020: 180a 0e3c 127d b6bd 6e2a bcbd 70d7 98bd
00000030: 418b 98bd c00a dabc 9920 97bc 3ea5 ed3c
00000040: d55d d6bd ddf6 44bd 2086 cabd 1644 9a3d
00000050: 1016 c2bc c293 3b3d 3f06 b53c 1dc4 e0bd
00000060: 57b0 fbbc 80f2 8bbb a648 38bd dab2 b23d
00000070: d2fb a33d 6f3e 69bd a669 893d 2117 213c
00000080: 3718 30bd 70d4 483d e9e1 bdbd 1f16 003d
00000090: 6cd1 713d 5284 ddbc 9fd0 5e3b 9a02 9dbd
000000a0: 3da6 a53d a221 9bbd cda8 043c aedc a7bd
000000b0: 86ab d03d c34c 97bd 503b c83b ee0f 113b
000000c0: bf40 8bbd c28d 51bd 01f7 4dbd 2d7c 80bd
000000d0: 97f3 b63d 39f2 8dbd 1e94 8cbd ecfc 943c
000000e0: f70b a73d 7d39 c7bd addb bbbb 2772 713d
000000f0: c85a 023d 8504 5eba 9993 43bd e6b7 b23d
00000100: e03b d0bd 3960 92bc fa16 533d cead 5fbd
00000110: 5aab 49bd c0d7 ccbd 4ce2 a1bd d12b c2bd
00000120: f023 46bd 843b 573c c4bf 0abd 4332 c83d
00000130: 6e45 c73d 36b0 6dbc 9c60 d2bd c0eb c5bd
00000140: 34e3 a63d c02b c7bb 0fb3 e2bb f87d a0bd
00000150: 28f1 92bd 5734 84bd 1f0e 823d 9f01 d63b
00000160: 8744 863d fc48 babd 66b5 cf3c d8f7 873d
00000170: 5c83 de3c 8e0b e03c 7d94 babc 6a85 633d
00000180: 1bc1 91bd d764 f33b 2276 5cbd 7c69 b7bc
00000190: 9aea 7bbd 5c3f f5bd eb73 9fbd be42 683d
000001a0: e8f5 7ebd be1a b63c d7f9 5abd ef10 a2bc
000001b0: d7c5 723d f080 73bc 880e 0bbd c17a 34bd
000001c0: 869e 5c3d 6e71 9fbd d3aa 81bd c171 e63c
000001d0: d7a7 c43c 6e4a 213d 0aee a93c 935f 65bd
000001e0: a398 9dbc c852 81bd c8c0 303b 8d70 4ebd
000001f0: a73c 45bc 30d0 a23d 2bcc 9a3d 8649 99bd
00000200: b6d0 c23d 8bf3 84bd d025 923d 32a1 80bc
00000210: 44a2 f3bc c59b 2cbd 88cd d83d 67b8 db3b
00000220: d71d 25bd 2acd a7bd 0bf9 a43d 746a 043c
00000230: a838 953d 0875 783d 8283 093d 7ef7 afbc
00000240: 9af0 8c3d 3663 0abd 2ed5 1abd e84f 2c3d
00000250: 3b4c a9bd fe7e aabd e5ac 7fbd e662 a8bd
00000260: 3d62 6d3d c852 1a3d 8546 1abd 7159 843d
00000270: f0e1 a1bd 3e32 3fbc 4fa7 cabd 96fe 16bd
00000280: 2937 e33d fcd9 b43c d51d ddbc 783a 263d
00000290: 021e 2e3d e596 933d be45 c93d c0ca acbd
000002a0: d5e1 7ebd fe0c b8bd 4af5 30bd 71dc 983d
000002b0: f2a3 c23d cd8c 913d 6a14 6fba f408 24bc
000002c0: 1513 f3bc 6a62 9ebd 66d0 173c 534f 0f3d
000002d0: 5036 97bd 7b08 84bc cffe 2dbc 54f9 70bd
000002e0: d4a0 02bd 1497 0fbd c482 c53d 9673 063d
000002f0: 4ebf 243d 4c40 7f3d f412 0d3d 193a ddbc
00000300: 195a acbd c368 b23d 92b3 c9bd 5170 33bc
00000310: 88cd a7bd 5bea be3d 16cf 813d 8a11 1b3d
00000320: 133c 853c cfac cfbd 0622 18bc c58a cf3c
00000330: a2b2 3c3c 21e1 c2bd 6b0b 2dbd 9ef6 333b
00000340: d259 c9bc ca7e 0a3d 935b 213d 90dc 57bd
00000350: 6afe 96bd 02bd b2bc 0b0f 863d 1cf2 2cbd
00000360: 35ad f2bc 70ec 083d dc46 183d e70d e73d
00000370: 4b8e d13d 7a86 a23d b61c fc3c a6ea a2bd
00000380: c12e d6bd 2361 bcbd 04f1 b9bd 8576 91bd
00000390: f811 d33d c46e bf3c ecc6 34bc 3a6e b9bc
000003a0: 88c1 7b3d e86b eb3d 82aa 8abd 6ee9 93bd
000003b0: c4b8 083d 14af c03c 0802 8bbd 4866 9b3d
000003c0: 25cf 8e3d 3ff5 973d ebf7 ebbb f700 72bd
000003d0: 60ef 443d 3ed1 a03d 0ccf 9fbd e89a 683d
000003e0: 63b0 93bd 894e 913d 2e43 ae3c e521 32bd
000003f0: 32fb b0bd 5f98 adbd 5a95 63bd 3fce 0d3d

layers.3.weight f4 [256]
0.9996067 0.9949675 0.9998088 0.9895461 1.0020307 1.0172423 1.0083455 0.98087007
0.9918964 0.98790437 1.0108515 1.0014894 1.014291 0.9586131 0.97111785 1.0007241
1.0093184 1.0023588 0.9852789 1.0216442 0.9891018 0.9743335 0.97436976 1.0049239
1.0290475 1.0286233 1.0053111 1.001797 0.99935657 0.9836122 1.0103335 1.0324185
0.96746004 0.99695605 1.0135285 1.0328982 1.0121207 0.99618584 0.9791216 1.0192009
1.0125842 1.0091399 0.9659625 1.0174375 1.0173126 0.99944115 0.9962243 1.0034157
1.0039017 0.9812295 0.9801718 1.0128492 0.9931956 0.96698296 0.9929072 1.0088722
1.0113229 1.0028822 1.0004921 0.98765385 0.989009 1.0068156 1.0074682 0.99821085
1.0081272 0.9680984 0.9763194 1.0354643 0.997721 0.96535367 0.98499733 1.0067359
0.98662573 0.9807571 1.0010892 0.9982763 0.9884293 0.9810332 1.0140804 1.0077181
1.0158 0.992058 1.0007421 0.99062264 1.0203991 1.0133238 1.0179604 1.0138433
0.9989701 0.9743816 0.9815805 0.9994755 1.0148263 1.0039268 0.99093753 0.99225414
1.0049908 0.9924061 0.9992766 1.0112209 0.9984538 0.9776312 0.9935834 1.0074534
1.0014234 1.0043898 0.9963567 0.99236524 1.0037501 0.99577105 0.9892748 0.98534566
1.0113142 1.0328315 0.9803938 0.97387505 0.98946685 0.99522007 1.0086945 0.99492043
1.0222484 0.99457717 0.97227716 1.0027195 1.0121641 0.99351543 1.0069294 0.994237
1.0103457 1.0134468 0.99723935 0.9839814 0.9728713 1.0009096 1.0202125 0.99294287
0.9949564 1.0052981 0.9731215 0.99694383 0.9920785 1.0019221 0.9922743 0.9865774
0.9852208 0.9784595 1.0110626 1.0099797 0.99255306 1.0020611 0.9811406 1.0070925
1.0117247 0.9857858 0.9973662 0.99387074 1.0053949 0.9756159 1.0232587 1.0124966
0.99828327 1.0071887 0.9972336 1.0004244 1.0295311 0.9788613 0.9817588 1.0132588
1.0175644 0.99718535 0.99817127 1.0178057 0.9977002 0.9828576 0.99827856 0.9915141
1.0117313 0.99986285 0.9847694 0.9733129 0.98551977 1.0057691 0.97196096 0.9949533
1.001394 0.9980618 1.0170934 0.9947944 1.0329453 0.98944616 0.9710358 1.0130382
0.99498135 0.99757826 0.9788137 0.9866572 1.005212 1.01042 1.0075147 0.9991519
0.9872488 1.003657 0.98242384 1.014896 0.98659134 1.0006593 0.9695004 1.0242113
0.9805238 1.0064459 0.98256356 1.0093142 1.0094776 1.0221589 0.9734231 0.97936594
0.97525644 0.95533806 0.9975837 1.0230756 0.9619617 0.995146 0.99005073 1.0077139
0.9769749 1.0155963 0.9865821 0.9725462 0.99334896 1.004977 0.9988192 0.9878714
0.9737957 1.0151784 1.0002776 0.9930626 0.98761064 1.0131934 1.0073389 1.0056083
1.000513 1.0307587 1.0028955 1.003296 0.98570323 0.99944896 0.9941834 0.9925126
1.0198557 0.9932804 1.007694 1.0027286 0.98241234 1.0300862 1.0177784 1.0107613
00000000: 3ae6 7f3f 31b6 7e3f 78f3 7f3f e552 7d3f
00000010: 8b42 803f ff34 823f 7711 813f 4d1a 7b3f
00000020: ecec 7d3f 4de7 7c3f 9563 813f ce30 803f
00000030: 4ad4 813f ab67 753f 2e9b 783f ba17 803f
00000040: 5831 813f 4b4d 803f 3d3b 7c3f 3dc5 823f
00000050: c735 7d3f ec6d 793f 4c70 793f 59a1 803f
00000060: d4b7 833f eea9 833f 09ae 803f e23a 803f
00000070: d5d5 7f3f 02ce 7b3f 9c52 813f 4a26 843f
00000080: 76ab 773f 8338 7f3f 4dbb 813f 0236 843f
00000090: 2c8d 813f 0906 7f3f b7a7 7a3f 2d75 823f
000000a0: 5c9c 813f 7f2b 813f 5249 773f 643b 823f
000000b0: 4d37 823f 60db 7f3f 8e08 7f3f ed6f 803f
000000c0: da7f 803f db31 7b3f 8aec 7a3f 0ba5 813f
000000d0: 1142 7e3f 328c 773f 2b2f 7e3f b922 813f
000000e0: 0773 813f 725e 803f 2010 803f e2d6 7c3f
000000f0: b22f 7d3f 55df 803f b8f4 803f bf8a 7f3f
00000100: 500a 813f 4cd5 773f 11f0 793f 188a 843f
00000110: a56a 7f3f 6b21 773f c928 7c3f b9dc 803f
00000120: 8193 7c3f e612 7b3f b123 803f 098f 7f3f
00000130: b409 7d3f fe24 7b3f 63cd 813f e8fc 803f
00000140: bc05 823f 83f7 7d3f 5118 803f 7299 7d3f
00000150: 709c 823f 98b4 813f 874c 823f 9ec5 813f
00000160: 81bc 7f3f 1371 793f dc48 7b3f a0dd 7f3f
00000170: d4e5 813f ac80 803f 15ae 7d3f 5e04 7e3f
00000180: 8aa3 803f 530e 7e3f 97d0 7f3f b06f 813f
00000190: ab9a 7f3f 0a46 7a3f 7b5b 7e3f 3cf4 803f
000001a0: a42e 803f d88f 803f 3c11 7f3f a60b 7e3f
000001b0: e27a 803f daea 7e3f 1d41 7d3f 9d3f 7c3f
000001c0: be72 813f d333 843f 17fb 7a3f e04f 793f
000001d0: b34d 7d3f bec6 7e3f e71c 813f 1bb3 7e3f
000001e0: 09d9 823f 9c9c 7e3f 28e7 783f 1d59 803f
000001f0: 988e 813f 0757 7e3f 10e3 803f 5186 7e3f
00000200: 0253 813f a0b8 813f 144b 7f3f 34e6 7b3f
00000210: 180e 793f ce1d 803f 5396 823f 8131 7e3f
00000220: 76b5 7e3f 9cad 803f 7e1e 793f b637 7f3f
00000230: dbf8 7d3f fc3e 803f b005 7e3f 5690 7c3f
00000240: 6e37 7c3f 527c 7a3f 806a 813f 0447 813f
00000250: f517 7e3f 8a43 803f 082c 7b3f 68e8 803f
00000260: 3280 813f 755c 7c3f 6453 7f3f 506e 7e3f
00000270: c8b0 803f f7c1 793f 24fa 823f 7d99 813f
00000280: 7e8f 7f3f 8feb 803f b44a 7f3f e80d 803f
00000290: adc7 833f a796 7a3f 8b54 7b3f 77b2 813f
000002a0: 8d3f 823f 8a47 7f3f 2788 7f3f 7547 823f
000002b0: 4869 7f3f 8e9c 7b3f 2f8f 7f3f ded3 7d3f
000002c0: 6980 813f 03f7 7f3f d919 7c3f 092b 793f
000002d0: 064b 7c3f 0bbd 803f 6fd2 783f 42b5 7e3f
000002e0: ae2d 803f fa80 7f3f 1e30 823f d9aa 7e3f
000002f0: 8d37 843f 584c 7d3f cd95 783f 3cab 813f
00000300: 19b7 7e3f 4a61 7f3f 8993 7a3f 9195 7c3f
00000310: c9aa 803f 7155 813f 3ef6 803f 6bc8 7f3f
00000320: 56bc 7c3f d577 803f 2180 7b3f 1de8 813f
00000330: 4091 7c3f 9b15 803f 2e31 783f 5b19 833f
00000340: 9c03 7b3f 38d3 803f 4989 7b3f 3531 813f
00000350: 9036 813f 1ad6 823f 4232 793f bab7 7a3f
00000360: 68aa 793f 0991 743f a561 7f3f 24f4 823f
00000370: 1f43 763f e3c1 7e3f f773 7d3f c5fc 803f
00000380: 071b 7a3f 0fff 813f a590 7c3f caf8 783f
00000390: 1e4c 7e3f 16a3 803f 9db2 7f3f 24e5 7c3f
000003a0: ad4a 793f 5ef1 813f 1909 803f 5a39 7e3f
000003b0: 0dd4 7c3f 52b0 813f 7bf0 803f c6b7 803f
000003c0: cf10 803f e7ef 833f e15e 803f 016c 803f
000003d0: 0c57 7c3f e3db 7f3f ce82 7e3f 4e15 7e3f
000003e0: a28a 823f a047 7e3f 1efc 803f 6959 803f
000003f0: 607f 7b3f ddd9 833f 9046 823f a060 813f

layers.3.bias f4 [256]
-0.0033167778 0.00024416595 0.009129 -0.0012844444 0.0036225414 0.018338151 -0.001223311 0.0051792637
-0.012847348 -0.026976436 0.009389769 0.0002795809 -0.014298137 0.008862276 0.018561853 -0.012832258
-0.0004387952 0.009483219 -0.002819616 -0.01188384 0.010654177 0.002950619 -0.0074362806 0.016023314
-0.030971825 -0.016516367 0.0012331135 0.0047886265 -0.01251865 -0.005184381 -0.021438273 -0.0014449677
-0.020162378 -0.010059883 -0.029025149 -0.03231092 0.00016769196 -0.0025017944 -0.025422722 -0.019048898
-0.003132758 -0.0022829908 0.025499916 -0.009619521 -0.0077373027 0.0064566033 0.017536702 0.006511979
-0.000383431 0.00848253 0.008599747 -0.008705199 0.002779392 -0.010628841 0.008886671 0.008620444
-0.026055612 0.0022360452 -0.017556429 0.00960328 0.021512488 -0.008309292 0.013664678 0.018998249
-0.01377166 0.0141627425 -0.009696624 -0.03591539 0.01320077 -0.0027125375 -0.0018346079 -0.017783461
-0.02554058 0.0051622647 0.01265453 -0.027506188 0.010250792 0.024032617 0.016809983 -0.032403097
-0.009648539 -0.008124677 0.015406845 0.009034821 -0.00028552292 -0.013807561 0.00046785653 0.02341467
-0.0134626245 0.021759182 -0.01778014 0.019858077 0.007950545 -0.015281672 -0.005384039 -0.02564588
0.007317236 0.003925111 0.012578196 0.0041040108 0.019311862 0.015523264 -0.0015300016 -0.02089381
0.00023040036 0.009404526 -0.0025126492 -0.020732764 -0.012505437 -0.0040420964 -0.0032998002 -0.013778108
-0.020753497 0.0083683785 -0.03590208 -0.0031306366 0.0031401457 -0.008087644 -0.0008041363 0.0013158559
-0.003996717 -0.0119620105 0.007381082 -0.016368361 -0.0013761228 -0.028336054 -0.014486682 0.013403248
0.02917717 -0.007155794 0.001603023 -0.012064947 -0.01462308 2.4039546e-05 0.0023123568 0.005503054
-0.026927087 0.0135013 0.0015848657 0.014528493 -0.011514007 -0.02760776 0.018732406 -0.003269203
0.004321236 0.0032653615 -0.013613447 0.010693434 0.0069679134 -0.00022882255 0.00085670536 0.009284647
0.022236321 0.033030637 0.01817519 -0.007899141 -0.019697508 0.02892289 -0.0069218557 0.020453772
0.014413819 -0.0014662126 -0.020872835 -0.011256372 -0.0042736293 0.018910527 0.010389121 0.0029944708
-0.018884126 0.021657478 -0.0005868846 0.012386251 0.0013537806 0.025651347 0.016749775 -0.0015577711
0.0018042664 -0.0064847018 -0.03696454 -0.011157246 -0.0011417987 -0.0039212895 0.018789543 -0.028141879
-0.01000784 -0.002910126 0.008785005 -0.011464317 -0.023876306 -0.007387319 -0.004836659 -0.009314752
0.009670316 0.019833332 -0.019893551 0.030195117 -0.0060408064 -0.0091769835 0.004934732 -0.026058165
0.015130846 -0.0072726565 0.0008619907 -0.018043546 0.023275817 0.016116284 0.01982901 -0.010025428
-0.010155802 -0.005890585 0.020546077 -0.0038725692 0.0030216915 -0.006542722 0.0009884333 0.009814756
-0.017635055 -0.02946557 -0.023928558 -0.019223103 -0.008822238 0.03016816 -0.00084730395 0.0041963803
-0.012567248 0.023188563 -0.01820013 -0.00088653894 -0.02392386 -0.014171344 0.0020498368 0.011574437
0.00059835764 0.0041482872 -0.01608445 -0.011172708 -0.0020827698 -0.016991 0.012101813 -0.017724365
-0.010203345 -0.014030244 -0.012932833 0.0057441583 0.011287616 0.0035257477 -0.015847504 -0.008132079
-0.02113248 -0.0034158146 -0.00031951728 -0.0149471415 -0.009730964 0.009555552 -0.015217683 0.015512424
00000000: 4c5e 59bb 6603 8039 cd91 153c cd5a a8ba
00000010: 2968 6d3b e439 963c 8157 a0ba d0b6 a93b
00000020: af7d 52bc b0fd dcbc 8cd7 193c b794 9239
00000030: bc42 6abc 1433 113c 070f 983c 643e 52bc
00000040: 180e e6b9 815f 1b3c 4fc9 38bb 70b4 42bc
00000050: db8e 2e3c 2c5f 413b 0bac f3bb 5343 833c
00000060: a0b8 fdbc 554d 87bc 6ca0 a13a e9e9 9c3b
00000070: 061b 4dbc bde1 a9bb 519f afbc 1265 bdba
00000080: 922b a5bc 35d2 24bc 26c6 edbc 7558 04bd
00000090: 78d6 2f39 25f5 23bb 5043 d0bc 6f0c 9cbc
000000a0: f54e 4dbb 3b9e 15bb 33e5 d03c 329b 1dbc
000000b0: 3389 fdbb ea91 d33b 21a9 8f3c 7062 d53b
000000c0: 3d07 c9b9 4ffa 0a3c f4e5 0c3c 40a0 0ebc
000000d0: 7626 363b 9724 2ebc 6699 113c c33c 0d3c
000000e0: 9472 d5bc 9d8a 123b 80d2 8fbc 1357 1d3c
000000f0: f53a b03c b223 08bc d0e1 5f3c 37a2 9b3c
00000100: 87a2 61bc d90a 683c 97de 1ebc 041c 13bd
00000110: 0b48 583c d4c4 31bb 3a77 f0ba 9fae 91bc
00000120: 7a3a d1bc 3728 a93b f254 4f3c a854 e1bc
00000130: f0f2 273c 0de0 c43c 17b5 893c 1cb9 04bd
00000140: e814 1ebc 5e1d 05bc fe6c 7c3c c906 143c
00000150: 3db2 95b9 1c39 62bc a44a f539 1fd0 bf3c
00000160: 5792 5cbc 5040 b23c a8a7 91bc 68ad a23c
00000170: 0143 023c fa5f 7abc 986c b0bb 4f17 d2bc
00000180: 6dc5 ef3b 389e 803b c714 4e3c f07a 863b
00000190: e933 9e3c 4a55 7e3c 568a c8ba 7f29 abbc
000001a0: a097 7139 7115 1a3c 42ab 24bb c2d7 a9bc
000001b0: 9be3 4cbc 9073 84bb 7641 58bb 93bd 61bc
000001c0: 3d03 aabc 861b 093c 0f0e 13bd 5e2b 4dbb
000001d0: e7ca 4d3b 0a82 04bc accc 52ba cc78 ac3a
000001e0: e4f6 82bb 4ffc 43bc 01dd f13b f116 86bc
000001f0: 055f b4ba 0321 e8bc 8c59 6dbc 4c99 5b3c
00000200: f604 ef3c 277b eabb 871c d23a 0eac 45bc
00000210: a595 6fbc 88a8 c937 e98a 173b f652 b43b
00000220: 3296 dcbc 8e34 5d3c 45bb cf3a eb08 6e3c
00000230: 3fa5 3cbc ab29 e2bc b474 993c 2040 56bb
00000240: 2899 8d3b adff 553b ef0a 5fbc 8333 2f3c
00000250: 1853 e43b 16f0 6fb9 8694 603a a21e 183c
00000260: f228 b63c 224b 073d 23e4 943c 666b 01bc
00000270: ab5c a1bc b2ef ec3c bcd0 e2bb ab8e a73c
00000280: f027 6c3c ee2d c0ba 82fd aabc a56c 38bc
00000290: cd09 8cbb 40ea 9a3c 2237 2a3c e23e 443b
000002a0: e2b2 9abc 066b b13c 29d9 19ba b4ef 4a3c
000002b0: 5771 b13a c622 d23c d336 893c 202e ccba
000002c0: 227d ec3a 9f7d d4bb 2168 17bd e2cc 36bc
000002d0: 68a8 95ba 297e 80bb 87ec 993c cc89 e6bc
000002e0: ecf7 23bc d0b7 3ebb fbee 0f3c d5d4 3bbc
000002f0: 3e98 c3bc 5311 f2bb d67c 9ebb e79c 18bc
00000300: 3f70 1e3c 8379 a23c cdf7 a2bc c05b f73c
00000310: f5f1 c5bb 0f5b 16bc 88b3 a13b ef77 d5bc
00000320: 5ee7 773c 774f eebb 37f7 613a 0fd0 93bc
00000330: edac be3c 4c06 843c 7370 a23c b141 24bc
00000340: 8564 26bc cf05 c1bb 3f50 a83c eeca 7dbb
00000350: 9207 463b 5564 d6bb 518e 813a 12ce 203c
00000360: 6477 90bc c761 f1bc d305 c4bc c579 9dbc
00000370: 268b 10bc 3823 f73c 9b1d 5eba ca81 893b
00000380: dce6 4dbc f1f5 bd3c 7018 95bc 9f66 68ba
00000390: f9fb c3bc ed2e 68bc 8e56 063b b5a2 3d3c
000003a0: 1adb 1c3a 5bee 873b 89c3 83bc bc0d 37bc
000003b0: 147f 08bb b630 8bbc af46 463c b032 91bc
000003c0: ee2b 27bc 1cdf 65bc 3ce4 53bc 7e39 bc3b
000003d0: b1ef 383c 3b10 673b a0d2 81bc 693c 05bc
000003e0: 061e adbc dcdb 5fbb e284 a7b9 dbe4 74bc
000003f0: 9f6e 1fbc e48e 1c3c 9753 79bc d227 7e3c
