ddpg/model_params/twitter_ddpg_28_135_critic.pth (torch, 390114 bytes, 17 tensors)

state_input.weight f4 [128, 65]
000000 b3 c2 82 3c f3 c5 82 3c fd c5 82 3c fb c5 82 bc
       0.01596198 0.01596353 0.015963549 -0.015963545
000010 da a2 6a 3c da c5 82 3c d0 a8 82 bc fc c5 82 3c
       0.014321053 0.015963484 -0.015949637 0.015963547
000020 01 c6 82 bc 94 c5 82 3c de ab 82 bc 94 c5 82 bc
       -0.015963556 0.015963353 -0.015951093 -0.015963353
000030 5e 88 82 bc 4d 28 81 3c 55 49 38 a9 0f c5 82 3c
       -0.015934166 0.015766287 -4.0919813e-14 0.015963105
000040 fa c5 82 3c d7 c5 82 3c 98 5f 01 29 23 d9 87 aa
       0.015963543 0.015963478 2.872667e-14 -2.4131486e-13
000050 60 bb 82 bc 08 bb ab a8 5e 6b 82 3c 42 0e 45 29
       -0.015958488 -1.9065926e-14 0.015920337 4.3755154e-14
000060 6d 57 5d 3c 43 ab 82 bc c3 2b 7a 2a 20 05 61 a7
       0.013509613 -0.015950805 2.2219643e-13 -3.12278e-15
000070 a5 67 c0 aa ce 2f 54 28 81 27 3b aa e8 ab 82 bc
       -3.417797e-13 1.177873e-14 -1.6622642e-13 -0.015951112
000080 12 c5 27 2a 2c 6e 82 3c 0f 52 7b 3c b2 b9 76 3c
       1.4900952e-13 0.015921675 0.0153393885 0.015058922
000090 c1 d3 99 28 cc 03 86 a9 76 a3 82 3c 9c 67 26 a9
       1.7078246e-14 -5.951454e-14 0.015947085 -3.694927e-14
0000a0 a2 ba a0 a9 5b bd 2a ab a6 8c bb 28 5d 30 0f a8
       -7.137803e-14 -6.0658916e-13 2.0822167e-14 -7.948582e-15
0000b0 31 c5 82 3c 6b 81 9b a9 fb 3a 95 a9 9b c9 2b 2a
       0.015963169 -6.905833e-14 -6.627161e-14 1.5257797e-13
0000c0 80 f1 fb 25 62 0c c0 a9 40 13 95 26 ec 4b 41 2a
       4.3705206e-16 -8.528661e-14 1.034417e-15 1.7168184e-13
0000d0 88 a7 57 a7 a4 c5 82 3c 63 35 b6 a9 0d 53 82 3c
       -2.9928063e-15 0.015963383 -8.091685e-14 0.015908742
0000e0 0e 6a 82 3c 92 aa 81 3c d5 c5 82 3c 3a 97 82 bc
       0.015919711 0.015828405 0.015963474 -0.015941251
0000f0 f2 c5 82 3c 0d 6a 82 3c 9f c6 55 29 af 1f 81 a9
       0.015963528 0.01591971 4.7467777e-14 -5.734247e-14
000100 78 fa 64 27 28 c9 77 bc cf c9 77 bc d1 c9 77 bc
       3.1777136e-15 -0.015123643 -0.0151237985 -0.0151238
000110 c9 c9 77 3c 27 3f 75 bc db c9 77 bc 2a c4 77 3c
       0.015123793 -0.01496867 -0.01512381 0.015122453
000120 d5 c9 77 bc d1 c9 77 3c b1 c9 77 bc 70 c4 77 3c
       -0.015123804 0.0151238 -0.015123771 0.015122518
000130 9d c9 77 3c 0e bc 77 3c 1f 74 77 bc c4 ee 02 29
       0.015123752 0.015120519 -0.015103369 2.9072895e-14
000140 90 c9 77 bc cf c9 77 bc d8 c9 77 bc 4a 37 78 29
       -0.01512374 -0.0151237985 -0.015123807 5.5115018e-14
000150 f6 6a 61 a9 7b c7 77 3c c1 7c 31 28 27 b8 77 bc
       -5.005281e-14 0.015123243 9.8525255e-15 -0.015119589
000160 97 a2 15 28 85 59 73 bc 3c c4 77 3c 9f 66 a0 a8
       8.306418e-15 -0.014852886 0.0151224695 -1.7808073e-14
000170 52 9f a0 a9 32 a0 c9 a9 81 36 52 aa 40 42 ab a7
       -7.133065e-14 -8.9539826e-14 -1.8670657e-13 -4.7533863e-15
000180 61 c4 77 3c 66 48 2d 2a a5 b8 77 bc 17 b7 76 bc
       0.015122504 1.5390605e-13 -0.015119706 -0.0150583
000190 9c 38 76 bc e6 53 a0 a8 f7 41 8d a7 d7 c3 77 bc
       -0.015028145 -1.7799954e-14 -3.920688e-15 -0.015122375
0001a0 76 85 25 aa 80 e5 0d 29 7a 10 71 3c 60 1e 64 3c
       -1.4701247e-13 3.150735e-14 0.014713401 0.013923258
0001b0 54 ff 77 27 f2 c4 77 bc 47 a1 6b a9 75 0f 05 28
       3.441655e-15 -0.015122639 -5.2320368e-14 7.386335e-15
0001c0 c5 77 e5 27 b2 1f 03 a9 3f 38 b6 29 a8 de 2e a9
       6.3690123e-15 -2.9115335e-14 8.092181e-14 -3.8828885e-14
0001d0 d6 22 49 25 be 2f 0d a8 df c9 77 bc eb 48 fb aa
       1.7445774e-16 -7.837425e-15 -0.015123813 -4.4637154e-13
0001e0 1f b4 77 bc 91 b7 77 bc 1a 8a 77 bc c9 c9 77 bc
       -0.015118628 -0.015119449 -0.01510861 -0.015123793
0001f0 46 c0 77 3c d1 c9 77 bc 90 b7 77 bc 36 79 5d 29
       0.015121525 -0.0151238 -0.015119448 4.917699e-14
000200 80 4f 82 aa f3 d4 92 28 1a ce 89 3c 2f ce 89 3c
       -2.3147803e-13 1.6301608e-14 0.01682191 0.016821949
000210 2f ce 89 3c 2e ce 89 3c ee 7c 89 3c 2f ce 89 3c
       0.016821949 0.016821947 0.016783204 0.016821949
000220 ed a0 89 3c 2f ce 89 bc 2e ce 89 bc 2f ce 89 bc
       0.016800368 -0.016821949 -0.016821947 -0.016821949
000230 67 cd 89 bc 25 ce 89 bc 06 ce 89 bc 2f ce 89 bc
       -0.016821576 -0.01682193 -0.016821872 -0.016821949
000240 00 2f 10 a7 26 ce 89 3c 2f ce 89 3c 2e ce 89 3c
       -2.0009493e-15 0.016821932 0.016821949 0.016821947
000250 2f ce 89 bc 64 b0 6f 2a ca cd 89 bc fc e3 a7 a8
       -0.016821949 2.1288662e-13 -0.01682176 -1.8639597e-14
000260 fa cc 89 3c 40 31 c4 29 a4 a8 88 3c 02 cd 89 bc
       0.016821373 8.712692e-14 0.016681977 -0.016821388
000270 7e 07 2c 2a bf 98 89 a9 0b a4 18 2b 24 32 8b 28
       1.5279268e-13 -6.1105194e-14 5.4228903e-13 1.5453845e-14
000280 03 bc 19 a9 a0 cd 89 bc 8d 13 88 3c 0b cd 89 3c
       -3.41359e-14 -0.016821682 0.016610885 0.016821405
000290 08 9f 89 3c 44 89 89 3c a0 c7 fa 29 d0 b5 03 29
       0.016799465 0.016789086 1.113686e-13 2.924554e-14
0002a0 22 ce 89 bc 16 b6 ac a6 62 91 23 a9 a8 1f 09 29
       -0.016821925 -1.1984252e-15 -3.631937e-14 3.0447568e-14
0002b0 13 d2 09 28 80 29 56 a7 2e ce 89 3c 02 96 ae 29
       7.65058e-15 -2.9720963e-15 0.016821947 7.7531745e-14
0002c0 3b ce b2 a9 24 85 9e 28 33 d2 41 a8 f6 50 18 a9
       -7.940563e-14 1.7599264e-14 -1.0759232e-14 -3.3821002e-14
0002d0 80 55 62 a7 f5 8f 16 aa 29 29 78 29 2d ce 89 3c
       -3.141015e-15 -1.3372621e-13 5.5102763e-14 0.016821945
0002e0 ec 4c 46 a9 95 cb 89 3c fa cc 89 3c 18 cd 89 3c
       -4.403155e-14 0.016820708 0.016821373 0.01682143
0002f0 2e ce 89 3c 1b cd 89 3c 2f ce 89 3c fa cc 89 3c
       0.016821947 0.016821435 0.016821949 0.016821373
000300 a0 87 46 27 96 56 94 29 01 f3 c3 a9 b7 8d 86 bc
       2.7551542e-15 6.5875406e-14 -8.701894e-14 -0.016424997
000310 b9 8d 86 bc b8 8d 86 bc b9 8d 86 3c 54 6f 86 bc
       -0.016425 -0.016424999 0.016425 -0.016410507
000320 b9 8d 86 bc 2e 8d 86 3c ba 8d 86 3c b9 8d 86 3c
       -0.016425 0.016424742 0.016425002 0.016425
000330 b9 8d 86 3c 81 8d 86 3c b8 8d 86 3c bb 8c 86 3c
       0.016425 0.016424896 0.016424999 0.016424527
000340 b9 8d 86 3c f4 0e bf 28 b8 8d 86 bc ba 8d 86 bc
       0.016425 2.1211745e-14 -0.016424999 -0.016425002
000350 ba 8d 86 bc ba 8d 86 3c 25 14 1a a9 22 8d 86 bc
       -0.016425002 0.016425002 -3.4212342e-14 -0.01642472
000360 df 79 35 a9 20 8d 86 bc 04 12 0c a8 96 c5 85 3c
       -4.029578e-14 -0.016424716 -7.775468e-15 0.016329568
000370 3c 8d 86 3c cc d0 85 a7 53 55 1e a8 76 06 b3 a9
       0.016424768 -3.7141294e-15 -8.789264e-15 -7.9503177e-14
000380 5c a0 c8 a9 f9 42 7d a9 3d 8d 86 3c e3 d6 35 2a
       -8.909602e-14 -5.6235375e-14 0.01642477 1.6150583e-13
000390 23 8d 86 bc b9 7d 86 bc 50 76 86 bc f1 8e 16 a9
       -0.016424721 -0.016417371 -0.016413838 -3.3430673e-14
0003a0 4f eb 06 29 b0 8d 86 3c c7 15 32 29 01 0e d5 2a
       2.9958075e-14 0.016424984 3.954283e-14 3.7846118e-13
0003b0 d1 5a 55 29 90 05 d9 a7 c9 6d 76 a9 b9 8d 86 3c
       4.737427e-14 -6.023563e-15 -5.4718196e-14 0.016425
0003c0 6d c6 d8 2a 39 ac 06 aa 3e d1 38 a9 48 f6 b2 a8
       3.8506993e-13 -1.1961343e-13 -4.1037696e-14 -1.9868777e-14
0003d0 dc b8 a4 29 da 7d b2 a8 cd 2d 10 a9 d4 6a 93 28
       7.315131e-14 -1.981655e-14 -3.201415e-14 1.6366608e-14
0003e0 b9 8d 86 bc 10 29 12 a6 1c 8d 86 bc 1e 8d 86 bc
       -0.016425 -5.0709576e-16 -0.016424708 -0.016424712
0003f0 19 8d 86 bc bb 8d 86 bc 91 72 86 3c ba 8d 86 bc
       -0.016424702 -0.016425004 0.016412051 -0.016425002

state_input.bias f4 [128]
000000 00 64 92 32 df da 11 34 f8 6e e0 35 80 24 0c 3b
       1.7042112e-08 1.3583802e-07 1.6721597e-06 0.002138406
000010 d5 d7 fd 34 e8 ef 90 3b 5b 04 06 b4 c9 95 b2 36
       4.728196e-07 0.0044231303 -1.2481307e-07 5.3222507e-06
000020 5a 4c 6e 2b 52 1c 38 32 19 e4 28 bc fe 0a 59 bb
       8.4660545e-13 1.0716649e-08 -0.010308289 -0.0033118124
000030 7a 8c c2 b0 03 7a 7f b4 68 71 af ab 0e 08 6c 34
       -1.4155284e-09 -2.3793113e-07 -1.2465974e-12 2.1982143e-07
000040 3e 42 8c b0 2c 7d d9 ad 2c e9 67 b6 48 81 07 30
       -1.0205168e-09 -2.4725631e-11 -3.4557406e-06 4.9296434e-10
000050 08 46 33 af 92 4a 72 34 be d5 88 ba b4 1c 36 bc
       -1.6304835e-10 2.2565135e-07 -0.0010439677 -0.011115242
000060 85 ea 8c 2d 76 10 db 31 eb d2 7d 30 fe c5 57 2e
       1.6020305e-11 6.3756103e-09 9.2340596e-10 4.9061193e-11
000070 8d 36 36 ae 01 bc 3a 32 bf 69 e9 38 fe d0 c3 2c
       -4.143046e-11 1.0869372e-08 0.000111300025 5.565436e-12
000080 f0 6c 3d 31 8a 02 64 b9 08 ef 00 b3 8e db 1a 2b
       2.7565044e-09 -0.0002174472 -3.001972e-08 5.5016484e-13
000090 64 88 98 30 4f 5e 20 3a fa ce 59 2f 42 b6 2b b1
       1.109822e-09 0.00061175687 1.9809568e-10 -2.4987377e-09
0000a0 4c f4 c7 2f ef d1 d6 36 3b d5 49 b0 c5 58 dc ad
       3.6371473e-10 6.4021365e-06 -7.342639e-10 -2.5050526e-11
0000b0 b8 bc 6b ad f8 34 e3 b1 3a 1e 52 b2 27 a3 81 31
       -1.3400107e-11 -6.6125914e-09 -1.22304815e-08 3.7729424e-09
0000c0 6a 50 c9 b0 1f 6f f6 ad 92 58 b4 33 3a 41 86 af
       -1.464753e-09 -2.801631e-11 8.398014e-08 -2.4420804e-10
0000d0 f2 bf 5a 34 d6 01 5a b4 5b 45 00 b7 34 11 00 b1
       2.0372661e-07 -2.03035e-07 -7.645543e-06 -1.863623e-09
0000e0 e8 e3 a1 36 77 b0 7f af 94 8c 93 35 ed 25 3e 31
       4.8247057e-06 -2.3254808e-10 1.0993267e-06 2.7670197e-09
0000f0 d0 72 83 2e 80 c6 b4 b9 d2 f3 43 b0 10 62 c3 2b
       5.977585e-11 -0.0003448017 -7.1287076e-10 1.3882801e-12
000100 7e ba 37 b1 fa d3 40 34 87 65 66 30 d9 df da 2c
       -2.6736013e-09 1.795851e-07 8.381779e-10 6.2207847e-12
000110 2d 3e b2 b1 4a 2a cf b0 e7 69 15 af 78 aa 7c 3c
       -5.1875504e-09 -1.5073252e-09 -1.3589095e-10 0.015421502
000120 4e b8 13 2e 4e 84 c2 3b aa a7 db 32 5c eb f3 33
       3.3587626e-11 0.005936182 2.55712e-08 1.1358381e-07
000130 d5 ff dc ad 2a 99 2e b3 c4 ad f6 2e 36 5a 62 bc
       -2.5124717e-11 -4.0651834e-08 1.1217652e-10 -0.013815453
000140 0f f0 94 2f 31 c7 65 b3 cd 2a 50 b3 af 51 9e bb
       2.7091615e-10 -5.349938e-08 -4.84677e-08 -0.004831515
000150 1e 73 0a ae 6e 57 93 2d f3 a8 8a 31 ca 99 82 30
       -3.1479812e-11 1.6750792e-11 4.035536e-09 9.502454e-10
000160 42 cf 20 2f 11 e1 4e 3c 24 d0 25 b4 88 8c 9c a8
       1.4625548e-10 0.012626902 -1.5442544e-07 -1.7380425e-14
000170 4c 8d 46 3b 9f fb 60 ad b0 aa 30 af 84 21 5c ad
       0.0030296622 -1.2788797e-11 -1.6067747e-10 -1.2512994e-11
000180 34 1d ea 2c b3 19 9a 2c d2 29 01 31 bd fd e0 32
       6.653922e-12 4.3797964e-12 1.8795743e-09 2.6192419e-08
000190 8c eb bf 32 87 6d d5 3b e6 6d a3 ad b5 e8 02 b1
       2.234244e-08 0.006513301 -1.857976e-11 -1.9049768e-09
0001a0 a4 f5 be 32 f7 89 3e ab 67 9d 6e 31 38 3f 3f 2d
       2.2230616e-08 -6.7693025e-13 3.4723031e-09 1.087113e-11
0001b0 a0 26 f9 aa 28 81 e8 bb 72 4d 51 b2 49 d8 83 af
       -4.4258087e-13 -0.0070954747 -1.218301e-08 -2.398244e-10
0001c0 4c 49 62 b3 3c eb 12 2f 0b cc 61 3a 14 42 88 30
       -5.268639e-08 1.3362195e-10 0.00086134736 9.914083e-10
0001d0 fa bb 04 af 90 ee 5d b0 72 53 2c 32 f9 00 e7 3a
       -1.2072113e-10 -8.073835e-10 1.0030691e-08 0.0017624191
0001e0 24 36 43 2e 72 4a a9 31 0f 3b 11 af 51 79 37 34
       4.4385953e-11 4.927011e-09 -1.3208655e-10 1.7087338e-07
0001f0 64 18 b0 ae 61 a5 1c 39 33 8d 03 39 3a 07 89 39
       -8.007886e-11 0.00014938928 0.00012545734 0.0002613606

action_input.weight f4 [128, 28]
000000 65 2e 8d bc e1 5d dc 3b 54 13 8d ba 1d 9f 82 3a
       -0.017234037 0.0067250584 -0.0010763207 0.0009965632
000010 9c ec 34 bd 3d 72 21 3d 46 70 45 3c fe 72 72 3d
       -0.04417096 0.039415587 0.012050694 0.059191696
000020 b0 fb d1 3b 0a 26 75 bd bd 08 d1 3c eb 2d b6 3c
       0.0064081773 -0.05985073 0.025516862 0.022238692
000030 ee 44 aa 3c dd 93 74 3c 12 7f 8c bd ff 10 c3 3c
       0.020784821 0.0149278315 -0.06860174 0.023811815
000040 34 a0 b2 bc c3 f0 78 bb e5 b0 a3 bc 78 eb bf 3a
       -0.021804906 -0.0037985302 -0.01998181 0.0014642319
000050 0b 8e 1c bd ce cb 81 3c 1a 88 31 3c f8 d0 99 bc
       -0.0382214 0.015844252 0.010835672 -0.018776402
000060 48 f1 98 3c 6b 77 ae 3c 8a 21 50 bd a8 0c e6 bc
       0.01866974 0.021297177 -0.050813235 -0.028082207
000070 51 e1 a5 bc 33 34 35 3c b9 82 c1 bb 8b 40 47 39
       -0.02024904 0.011059809 -0.005905476 0.00019002163
000080 e5 95 51 bd 7f b2 16 3d be 6c 90 3c 94 53 de 3d
       -0.05116834 0.03679132 0.017629977 0.10855785
000090 3f 74 5c bb 24 95 68 bd e6 67 30 3d 5e 90 e5 3c
       -0.0033638624 -0.056782857 0.043067835 0.028022941
0000a0 23 a4 f1 3b 62 a7 da 3a 38 d3 c0 bd ce d3 55 3d
       0.007374303 0.0016681964 -0.09415287 0.052203946
0000b0 00 f6 a5 bc 54 e4 c9 bc a7 64 6a bd 8f 6c b9 bc
       -0.020258904 -0.024645008 -0.057224896 -0.022634773
0000c0 13 cb 88 bd 2f f3 23 3d 48 3e 20 39 8d 4e 4f bc
       -0.06679358 0.04002684 0.0001528199 -0.012653005
0000d0 9b 2f bc 3c 39 95 51 3c cf 18 a1 bd e7 8c 1c bd
       0.022971919 0.012791925 -0.0786606 -0.038220312
0000e0 12 2f 60 bd 33 a9 0c 3d 39 d7 1a bc 6a 71 c3 3c
       -0.05473239 0.03434105 -0.009450727 0.023857791
0000f0 a7 cd 7a bd e3 fc 92 3c bd 02 d7 3c ec e5 a5 3d
       -0.06123128 0.017942851 0.026246423 0.08100495
000100 70 52 04 bc 25 fa 53 bd 22 01 99 3d 3e c0 1d 3d
       -0.008076295 -0.05175223 0.07470919 0.038513415
000110 82 8d 62 3c f4 05 ef 3b c9 92 c5 bd ba ff 4d 3d
       0.013827683 0.007294411 -0.09647138 0.050292708
000120 3f 1d b3 bd 83 b3 c5 bc aa b9 a0 bd 0b ea 1f bc
       -0.087458126 -0.02413345 -0.078479126 -0.00976039
000130 7d 25 c9 bd 98 e2 62 3d ad a0 33 3c ff 95 f7 bc
       -0.098216034 0.055391878 0.010963601 -0.03022289
000140 96 65 8c 3c c3 6c 64 3c 8d 15 87 bd 53 ff 1e bc
       0.017138284 0.013941946 -0.06595907 -0.009704429
000150 a3 c9 25 3d 33 0e c9 bd 5e b5 05 3d 6a cf 16 3d
       0.0404755 -0.098171614 0.03264367 0.0368189
000160 fc 26 9a 3d 06 85 04 bd 80 b7 a0 bd 9e dd 56 bc
       0.07526967 -0.032353424 -0.078475 -0.013114361
000170 63 8e 4b 3d e1 94 11 bd fd 23 53 bd 80 16 d3 bc
       0.049696337 -0.035542373 -0.051547993 -0.025767565
000180 4c 64 fb bc 7f 34 38 bd c4 02 7d 3c a0 b2 11 bd
       -0.030687474 -0.04497194 0.015442554 -0.03557074
000190 11 a2 00 3e 41 57 ae 3d 37 f0 0d 3e 36 76 4b bd
       0.12561823 0.08512736 0.13861166 -0.04967328
0001a0 6b 6d 1e 3e 2d 59 3b bd ea cc 04 bd 76 f1 c4 3d
       0.15471427 -0.04573934 -0.032421984 0.096163675
0001b0 9c 25 e6 bc 83 39 45 3d f5 3a 7c 3c 5d cf 29 3c
       -0.028094105 0.04815055 0.015394916 0.010364381
0001c0 28 d4 bf 3c 23 1a dd bb 3c fb 4c 3b 87 d8 3d bc
       0.023416594 -0.0067475005 0.0031277677 -0.011587269
0001d0 ff 4e fc 3c e7 ab 77 bd 31 ab 18 bd 10 5a bc bd
       0.030799387 -0.060466673 -0.037272636 -0.091968656
0001e0 be 57 de bc 30 3f 8d 3d 1e f4 f1 bc be 34 08 bd
       -0.027141448 0.06896818 -0.02953535 -0.033253424
0001f0 e0 ab 22 bc fd b4 5b bc 2d 5b a1 3d c2 7d 9b bc
       -0.0099286735 -0.01340985 0.078787185 -0.018980864
000200 a9 69 f4 3c 48 d5 d8 3a 79 a0 8e 3c 6c 56 fd 3b
       0.029835539 0.0016543055 0.017410504 0.0077312496
000210 b7 a4 99 3c 2c 24 e4 bb 84 f2 36 bc 15 f1 e3 bb
       0.0187553 -0.00696232 -0.011166219 -0.0069562295
000220 18 98 92 bc 63 26 af bc 7e b1 a0 3d a9 2d 9d 3b
       -0.01789479 -0.021380609 0.07846354 0.004796703
000230 a1 50 2b 3d 7d 01 a2 bd 44 68 14 3d 0c d8 db 3c
       0.04182494 -0.0791044 0.036232248 0.026836418
000240 76 2f 40 3d 77 42 1b 3b 6e 50 5c bd 24 5e d9 bc
       0.046920262 0.002369074 -0.05378764 -0.026534148
000250 37 67 47 3d fa 7b 90 bc 52 91 62 bd ab 7b 50 3c
       0.048682418 -0.017637242 -0.05531437 0.012724797
000260 f4 0e c7 bc e7 64 58 39 40 17 ac 3c b6 bb 23 bd
       -0.024299122 0.00020636954 0.02100718 -0.039973937
000270 bf 39 dd 3d 0b 24 3f 3d 17 38 c8 3d 47 3b dd bc
       0.1080203 0.046665233 0.09776323 -0.027005805
000280 2e 8c f9 3d b1 61 41 bd 43 7d 17 bd c0 fd 61 3d
       0.1218494 -0.047212306 -0.036984693 0.055173635
000290 fe e3 ac bc 54 1e 11 3d 4c 77 c2 3c 46 b6 8c bb
       -0.021104809 0.035429314 0.023738526 -0.0042941896
0002a0 ae 7d bf 39 63 a5 26 bd 03 3a ba bc 8f 74 ca bc
       0.00036523998 -0.04068507 -0.02273274 -0.024713783
0002b0 6d 1e 1f 3d 93 79 0d bd 03 ad de bc 03 76 b3 bd
       0.038847376 -0.03453977 -0.027182108 -0.08762743
0002c0 69 be a7 ba e5 ac 67 3d 82 22 37 bd 0d ac 3f bc
       -0.0012797836 0.05656137 -0.044710644 -0.011698735
0002d0 ba 51 dc bc d7 83 1e bd 95 57 94 3d 1e aa 38 bd
       -0.026894439 -0.03869995 0.072432674 -0.04508411
0002e0 39 98 57 3d 8d da 09 3d 1f 90 54 3d 74 a9 55 3c
       0.052635405 0.033655692 0.051895257 0.013040889
0002f0 e0 f0 3f 3d 24 d7 10 bd 86 51 c0 bc ea a1 e3 3c
       0.046860576 -0.035361424 -0.023476373 0.027787168
000300 b2 51 49 bd 4a 19 8b bc d3 61 51 3d 80 cc e6 bb
       -0.049150176 -0.016979832 0.051118683 -0.0070434213
000310 49 39 93 3c f7 3b cc bc db 87 f5 bb 3f 09 96 3b
       0.017971652 -0.024930937 -0.007493002 0.004578739
000320 58 e4 2f 3d a2 cb 91 bd e6 e9 a0 bc 39 3c 90 bd
       0.042942375 -0.07118918 -0.019642781 -0.070427366
000330 e9 22 69 3b cc 68 22 3d 4e 98 5c bd 98 4a dd bc
       0.0035573787 0.039650723 -0.053856187 -0.027013108
000340 1f 1f 9d bc 16 75 22 bc db 88 b3 3d e9 15 30 bd
       -0.019179879 -0.009915611 0.087663375 -0.042989645
000350 25 c3 66 3d de 78 72 3c ea 24 77 3d fa af a8 3c
       0.056338448 0.014799325 0.06033794 0.020591725
000360 5a 1c 87 3d 0a 1c 13 bd 81 c2 88 bc eb 88 7f 3c
       0.065972045 -0.035915412 -0.01669431 0.015596609
000370 13 9c 05 bd d6 57 b4 3b 68 79 1b 3d f5 0b 0f 3d
       -0.032619547 0.005503635 0.03795758 0.034923512
000380 ea 09 4a 3c 36 d0 8c bd 9a 0e 48 3d 98 27 e4 3c
       0.012331465 -0.068756506 0.04884205 0.027850911
000390 3c d4 60 3d 9c ed cb ba 14 e8 a2 bd 25 50 cf 3c
       0.054889902 -0.0015558484 -0.07954422 0.02530677
0003a0 30 1b a5 3d ad de ec bc e6 42 43 bd 9b 1d c2 bc
       0.08061826 -0.028914774 -0.04767122 -0.023695758
0003b0 01 cf b3 bc 1a 50 39 bd 78 f5 8f bc c6 db 26 bd
       -0.021949293 -0.045242406 -0.017573103 -0.040736936
0003c0 c8 36 d8 3d 21 8f c1 3d 41 25 ff 3d d1 b8 68 bd
       0.10557324 0.09451128 0.124582775 -0.05681688
0003d0 b7 8a e7 3d 19 be 26 bb 42 5f 75 bc c1 0e cd 3d
       0.11305755 -0.0025442897 -0.0149763245 0.1001258
0003e0 58 a7 4c bd a9 73 19 3d 68 bc d8 3b da b0 db 3b
       -0.04996428 0.037463818 0.0066142567 0.006704432
0003f0 bf 8d 34 bb d1 f7 b7 3c 4e 8d 11 3c 5c 34 3a 3c
       -0.0027550308 0.022457035 0.008883787 0.0113650225

action_input.bias f4 [128]
000000 91 89 c0 bc 41 ff a4 3d 8f 3e 20 3c 50 46 58 3d
       -0.023503097 0.08056498 0.00978054 0.05280143
000010 42 01 a0 bd cb f8 8e 3d 00 ab dd 3c 52 b0 00 bd
       -0.0781274 0.06981047 0.027059078 -0.031418152
000020 af ec d1 3c cc 7f 6c 3d e9 44 50 3d 30 ce 8b 3d
       0.025625555 0.057739064 0.050846968 0.068264365
000030 19 79 f7 3c 70 fc d6 3d f2 e1 bc bc 5d ed f8 bc
       0.030209111 0.104973674 -0.023056958 -0.030386621
000040 ea ea 38 bd 3d 56 95 bc c0 79 0e 3d ea 1e 9c 3d
       -0.045145907 -0.018229598 0.03478408 0.07623084
000050 6a 5b 6f bc b2 e7 6a bd 8a 77 43 3d 1f c9 e5 bd
       -0.014609197 -0.057349868 0.047721423 -0.112200014
000060 d7 aa 14 be f4 ef 9d bc 1d 20 05 be 1b 46 c8 bd
       -0.14518295 -0.019279458 -0.13000531 -0.097789966
000070 0c d2 6a bb 8f 28 c0 3d 7f 31 3c bd 41 22 1d 3e
       -0.0035830764 0.09382736 -0.04594564 0.15345098
000080 43 ef e8 bd e9 1a b6 bd d9 7d 77 3d d2 f9 4d 3d
       -0.113737606 -0.088918515 0.060422752 0.050287075
000090 c7 95 82 bd 21 56 8b 3d ac 15 a0 bd 13 ee a5 bd
       -0.06376224 0.06803537 -0.078166336 -0.0810205
0000a0 47 ab f4 bd 98 18 6d bd 6b b3 bd bb 1f 98 c8 3d
       -0.11946731 -0.057884783 -0.0057892106 0.0979464
0000b0 7b 4a e5 3d bc 5a 8b 3c 66 b0 9a 3d a0 f7 dd bb
       0.11195847 0.017011039 0.075531766 -0.006773904
0000c0 4a ca a5 3d ae d2 03 bd fb a4 2a bd 12 3f 82 3d
       0.08095224 -0.03218334 -0.041661244 0.06359686
0000d0 ef df 82 bd 19 0e 9e 3d 13 ae 40 3c 2b 91 00 bd
       -0.06390368 0.07717533 0.0117602525 -0.031388443
0000e0 b0 80 4c 3c 54 3f 41 bc 54 6d 40 bc de f9 b0 3d
       0.012481853 -0.011794884 -0.011744816 0.086414084
0000f0 34 89 ae 3c 6c 47 5a bd 53 ce 70 3c bb a2 95 3d
       0.021305658 -0.05329077 0.014697629 0.07306429
000100 84 d2 4d 3d 9e 3c 28 3d 4e 8d 50 3c bf da da bd
       0.05024959 0.041073434 0.012729002 -0.10686254
000110 f8 d4 00 be 80 aa da bc 8f d6 41 3d c0 af eb 3d
       -0.12581241 -0.026692629 0.04732376 0.11508131
000120 e8 28 ff bd 48 d5 66 3d 8b 98 ac bd a8 f5 a5 bd
       -0.12458974 0.056355745 -0.08427533 -0.08103496
000130 6a 25 eb bd e8 93 7e bd c0 5d 96 3d c7 44 81 bd
       -0.114817455 -0.062152773 0.073421 -0.06311946
000140 d0 fd b1 3d a1 56 a5 bc ec 20 73 3d 3b 26 f8 3d
       0.08690989 -0.02018291 0.05935757 0.12116667
000150 ac 5d d5 3d 04 aa 8a 3d 7c b1 b8 3d 22 f3 f1 bd
       0.10418257 0.06770709 0.090182275 -0.11813952
000160 28 83 4f 3c 6e 09 b3 bc 3f 50 88 bd ca df 51 bd
       0.012665547 -0.021855082 -0.06655931 -0.051238813
000170 df e5 06 be fa da cf bc 53 d0 cc 3d 3f 05 67 3c
       -0.13173626 -0.02537297 0.10000672 0.014100372
000180 dd 5d bb bb 0a 36 2a bd 06 24 16 bd 95 7e 31 3c
       -0.0057179765 -0.041555442 -0.03665545 0.010833402
000190 df b6 5d 3d 02 60 56 3d fb af 52 3d 10 a6 fc 3d
       0.054129478 0.052337654 0.05143736 0.123363614
0001a0 f0 6f 35 3d 1f 48 b9 bb b2 27 f1 ba f5 34 88 bc
       0.044296205 -0.0056543495 -0.0018398671 -0.016626814
0001b0 6c 33 dc bd 4c 85 6d bc ac 0c 00 3e 76 de 09 be
       -0.107519954 -0.0144971125 0.12504834 -0.13463768
0001c0 94 5b 8b bc 68 da a6 bd 4c 28 df bc d7 27 79 bb
       -0.017011441 -0.081471264 -0.027240895 -0.003801813
0001d0 83 c9 3c ba 8b 4b 07 3b 25 2d c3 bd 0e ab 50 3d
       -0.00072016584 0.0020644392 -0.09530095 0.05094438
0001e0 e0 66 6e 3c 05 8f bf bc a1 ee 48 bd 14 78 dd 3d
       0.0145508945 -0.023383627 -0.0490557 0.10813919
0001f0 97 db fb 3d 3b db cf bd 6b 4b f4 3c 71 bb 89 bd
       0.12297743 -0.10149237 0.029821118 -0.06725205

layers.0.weight f4 [256, 256]
000000 d1 92 d7 3c 42 d0 e8 3b a8 6a 4a bc 20 1c 2e 3c
       0.026315125 0.0071049044 -0.01235453 0.010626823
000010 f4 ce e8 3b 31 ee 66 bb ee 82 ad 3b 39 cd eb 3a
       0.007104749 -0.0035237188 0.005295149 0.0017990238
000020 62 46 5d 3c 24 a8 86 3a 6f 1e 6e bc ab 5d f9 bb
       0.01350555 0.0010273498 -0.014533623 -0.007610043
000030 9b ad 13 bc 07 3f fb bb ad 1a cd 3c d9 0c 3b bc
       -0.009013559 -0.0076674256 0.025037134 -0.011416637
000040 81 dd 26 bb 59 91 a4 3c 76 fd 0b 3c f1 2c b8 bc
       -0.0025461616 0.020088838 0.0085443165 -0.022482367
000050 38 2f 00 bc 56 d9 77 3c aa 6a 09 3b ab a7 a0 ba
       -0.007823758 0.0151275005 0.0020968118 -0.0012257
000060 d3 28 9d 3c 9a f1 f9 3b 2c e5 c1 bb e1 d8 9b bc
       0.019184506 0.007627678 -0.005917212 -0.019024314
000070 17 fc a3 bc 0a b5 94 bc 3c 97 fd 3b d5 11 53 bc
       -0.020017667 -0.018152732 0.007738976 -0.012882669
000080 0a ba a4 3a 45 fe ea 3a 31 5a b4 3c bb 19 a1 3c
       0.0012567651 0.0017928561 0.022015663 0.01966559
000090 30 ad 33 ba 64 20 98 3a 61 ea 6f bc d1 48 5c 3c
       -0.0006854115 0.0011606333 -0.014643283 0.013445095
0000a0 76 4e d8 bc b3 d5 3c 3b 5c ab 3d 3a 4b fd b0 3b
       -0.0264046 0.0028813898 0.00072353124 0.0054012886
0000b0 1b b1 13 3a 43 06 69 bc 43 19 20 3b cb f1 05 3b
       0.0005633996 -0.014222684 0.002442912 0.002043831
0000c0 e3 ef 97 3c ba a4 ac 3c e1 82 2d 3c 1b 59 3f 3c
       0.018547004 0.021074641 0.010590286 0.011678959
0000d0 7b ef 95 3c 70 6e 84 bb bd eb 1c bc 5f 0e 66 3b
       0.01830267 -0.0040414855 -0.009577689 0.003510378
0000e0 9b e5 ad 3b 97 30 a5 bc 01 d6 38 bc 1a 95 9a 3c
       0.005306912 -0.020164771 -0.011281491 0.018869925
0000f0 84 3a 2b bb 78 70 bc ba c4 6c 68 3c be af 55 bc
       -0.0026127407 -0.001437678 0.014186088 -0.0130423885
000100 35 46 82 3b a5 f0 c6 3a 5c 68 de 3b 39 de 5b bc
       0.0039756545 0.0015177919 0.006787343 -0.013419681
000110 fd 3f af 3c 2d 13 57 bc 7b 1b 5c bc 58 72 91 bb
       0.021392817 -0.01312713 -0.013434286 -0.0044386797
000120 9b 3f 5a bc be 2c df ba 7d 14 05 3c 11 9e 76 3c
       -0.013320829 -0.0017026884 0.008122561 0.015052334
000130 12 96 55 3a 3a aa 38 3c c4 d8 8e bc 4e 75 69 bc
       0.00081476674 0.011271054 -0.017437346 -0.014249159
000140 ac fa 3d 3a d9 4f 84 bc 40 7f b8 bc 95 1c a4 3c
       0.0007247131 -0.016151356 -0.022521615 0.02003316
000150 d3 2a aa 3b 1f 2c 9d 3c 6c e9 09 bc c3 c0 18 3c
       0.0051930933 0.019186078 -0.0084174685 0.009323302
000160 d3 d4 69 3c d8 ed aa 3b be 49 f6 ba 82 23 67 bc
       0.014271933 0.0052163415 -0.0018790287 -0.014107587
000170 11 ac e9 3a e5 28 02 bc 58 c0 aa bc 65 e6 8b bc
       0.0017827769 -0.00794432 -0.02084367 -0.017077634
000180 52 53 f9 3a 0f 06 c4 bb 60 ec 72 bc 9e ff c2 bb
       0.0019022024 -0.0059821676 -0.014826864 -0.005950882
000190 b1 29 3c 3c c1 c7 32 bc 91 66 da 3c 55 83 7e 3c
       0.011484549 -0.010911883 0.026660236 0.015534242
0001a0 2e 78 b2 3b 05 cd 0a 3c 93 3e 9f bb 36 3a e1 3b
       0.0054464554 0.008471732 -0.0048597544 0.0068733944
0001b0 64 ea d3 bb 2e 71 28 bb 03 5a 78 bc 37 e0 d3 b9
       -0.0064671505 -0.0025702226 -0.015158179 -0.0004041211
0001c0 99 00 9d 3c e1 fb ec ba ec 0b dd 3a 9b 52 0f bc
       0.019165324 -0.0018080437 0.0016864515 -0.008747722
0001d0 b7 d5 2b bc b2 ed 3f 3b a4 6f d8 bb c5 1f 48 3c
       -0.010487965 0.0029285965 -0.0066051055 0.012214606
0001e0 9d fc bf ba ac f4 14 3c 8d 6e d9 bb fb fb 05 3b
       -0.0014647428 0.009091537 -0.006635493 0.0020444382
0001f0 78 d2 d8 bb e5 49 d5 3b 01 5c 06 3c 5a be 19 3c
       -0.0066168867 0.006509053 0.008200646 0.009383762
000200 68 15 bf bc 9e 9d 3b bd 52 1d 1e bc 47 bc 4a bc
       -0.023325637 -0.045804612 -0.009650545 -0.01237399
000210 5a 9b d2 3c a8 00 8f 3c c4 e4 73 3c 79 30 35 3c
       0.025708843 0.017456368 0.014886085 0.01105892
000220 87 72 e1 bb 29 8e 33 bd 47 01 77 bc 6d 77 aa bc
       -0.006880108 -0.043836746 -0.015075988 -0.0208089
000230 ec 5f 26 3c 36 7d 0d bd 24 3c 65 3c 71 fb fa bb
       0.0101547055 -0.03454324 0.013991389 -0.0076593687
000240 37 09 d3 bc 2a 45 97 3c 0f 67 f5 bb ff 79 2f bd
       -0.02576123 0.018465597 -0.007489092 -0.042840954
000250 0c 92 71 bb 35 43 e9 3c 1e 67 e4 bc 32 e9 15 3d
       -0.0036860732 0.02847443 -0.027881201 0.036599346
000260 2c b4 d0 3c 03 2b 1d bd 47 16 81 3b 99 b7 51 3d
       0.025476538 -0.038371097 0.0039394232 0.051200483
000270 63 5b d7 3c 9e 29 e7 bc de d8 82 3b 98 82 54 bd
       0.026288694 -0.028218087 0.0039931377 -0.051882356
000280 9e 5b 0d 3d 3f 59 a2 3c 9e 7b 4e bd c5 ac 15 bd
       0.0345112 0.019817946 -0.05041086 -0.03654172
000290 8a 3b 9a 3c 04 2f 2e bd fb a4 20 3c 09 c7 e3 3c
       0.018827219 -0.042525306 0.009804959 0.027804868
0002a0 49 90 22 3c 11 51 9c 3c 80 09 4c bb 9f 34 17 bd
       0.009922096 0.019081624 -0.0031133592 -0.036915418
0002b0 76 ff 23 bc ca 17 08 bd d8 a3 9a bc b9 27 a1 bc
       -0.010009637 -0.033225812 -0.018876955 -0.019672262
0002c0 f3 8c 1a bd 38 58 17 bd eb 25 30 bc 05 8c a7 bb
       -0.037732076 -0.036949366 -0.010751228 -0.005113127
0002d0 18 9b a4 3c 3e d6 df bc 1e 4c 37 bc d8 60 9e 3b
       0.020093486 -0.027323838 -0.011187581 0.004833322
0002e0 07 63 ce 3b 40 ed 83 3b b5 35 12 3d 47 13 33 bd
       0.006298426 0.004026085 0.03569575 -0.043719556
0002f0 56 02 90 bc 8a f8 f1 3c 81 d9 2a bd 0c 9d c1 b8
       -0.017579239 0.029537458 -0.041711334 -9.2322094e-05
000300 31 62 8a bc 29 c2 0b 3d 0f 7b 63 bd 45 56 e5 3c
       -0.016892524 0.034120712 -0.05553728 0.027995238
000310 5a 62 1c 3c 04 c0 e0 ba c1 77 bd bc a4 6c 4b bc
       0.009544933 -0.0017147069 -0.023128392 -0.012416039
000320 db 31 2d 3d 5a 2c f2 bc c9 44 ff bb 22 0f 61 3d
       0.042283874 -0.029562164 -0.0077901823 0.054946072
000330 94 83 b6 3c 17 3d cb bc fe de b8 bc f7 db 92 3c
       0.022279538 -0.024809403 -0.022567268 0.017927153
000340 a7 63 90 bb 96 20 28 3a 32 1e 84 bb 29 d0 2a bd
       -0.0044064107 0.0006413547 -0.00403192 -0.041702423
000350 c0 c1 c8 bc 06 05 05 bd f9 7e 45 bd ae 72 41 3d
       -0.02450645 -0.032475494 -0.048216794 0.047228508
000360 a9 3f 9b bb 08 0f 4f bc fe b5 5e 3c fc 9c b7 3c
       -0.0047378135 -0.012637861 0.013593195 0.022413723
000370 01 2b fd 3c b9 54 ab bc f7 f7 2c bb d7 39 da bb
       0.030904295 -0.020914422 -0.0026392916 -0.006659727
000380 01 cb a7 bb e9 43 9c 3c 1f ac fa 3c ac 90 9e 3c
       -0.0051206355 0.01907535 0.030599652 0.019356094
000390 7f a8 9b bc 2a b2 82 bc 86 66 26 3b d6 73 f2 bb
       -0.019001244 -0.015954096 0.0025390699 -0.0073990626
0003a0 83 c0 e3 bc 6e aa b0 bc 9e dc b6 3c e9 18 7a 3b
       -0.027801758 -0.021565642 0.022321995 0.003816182
0003b0 69 8e 1e 3c f3 48 23 bc 92 5f 50 bd a2 42 17 3d
       0.009677508 -0.009966123 -0.050872393 0.03692878
0003c0 6f fd ed 3c 26 34 a4 3c b4 d4 c3 3c 3a c2 8d bc
       0.02905151 0.020044398 0.023905136 -0.017304529
0003d0 ee c7 e4 bc 7a 33 8a bd 26 84 31 3d f6 8e f7 bb
       -0.027927365 -0.067480996 0.043338917 -0.007554884
0003e0 4c ce 50 3c 77 1c 2a bd 4b 0b 60 bc bf 67 ea bc
       0.0127444975 -0.041531052 -0.013674567 -0.028613923
0003f0 f1 29 9a bc 4b ec c0 3c ed 81 03 bc 1d 30 9d 3c
       -0.018818827 0.023550173 -0.008026582 0.019187981

layers.0.bias f4 [256]
000000 73 98 79 bd 85 a3 3b bd 64 49 22 3c b9 03 95 bd
       -0.060936403 -0.04581024 0.009905193 -0.07276101
000010 cd c9 99 3d 7f 5b 8b bc e4 30 7c bd a6 85 92 bd
       0.075091936 -0.017011402 -0.061570063 -0.07154398
000020 c0 69 9c 3d 11 ba 66 bd 93 8f 91 3b 75 16 02 3d
       0.07637358 -0.05632979 0.004442164 0.031759698
000030 02 8e 8e 3b 29 ee 29 bd f5 b8 ed bc 5d b4 11 3d
       0.0043504247 -0.041486893 -0.029018858 0.0355724
000040 04 c5 7b bd 55 b0 06 bd 9e be 26 3d 1c 69 19 bc
       -0.061467186 -0.032883007 0.04070913 -0.009363439
000050 26 d9 3a 3d dd 91 19 3d ec 19 f3 bd 8c 5b 06 3a
       0.045617245 0.03749262 -0.118701786 0.0005125336
000060 70 e1 52 3d 48 70 41 bd 0f 1c 8e bb 56 e6 44 bd
       0.051484525 -0.04722622 -0.004336841 -0.048071228
000070 55 d7 95 bc 43 fe 6b bd 40 2e 1f bd f5 44 8f bc
       -0.018291155 -0.05761553 -0.038862467 -0.017488936
000080 6e b9 d9 ba a2 71 c2 3d 18 32 51 3d f3 57 2e 3d
       -0.0016611048 0.0949433 0.051073164 0.042564344
000090 4c d8 23 bd dc 9a 69 bc a4 b9 46 3d e6 13 96 3d
       -0.0400012 -0.014258113 0.048516884 0.07328014
0000a0 63 13 18 bd f6 b7 1c 3d 9f 23 73 bd 89 00 c7 3d
       -0.037127864 0.038261376 -0.059360143 0.09716899
0000b0 4f 72 95 3c 36 1c 5c 3d a4 fe c1 3d 12 7d 99 3d
       0.018242983 0.05373784 0.09472397 0.074945584
0000c0 98 9a ab bc 3e 64 3d bc 8e 82 3a bb 3c 91 c8 3c
       -0.02094774 -0.011559544 -0.0028459164 0.024483316
0000d0 89 6e ac bd 7c a1 c7 3c 61 7d b6 3c c4 e9 be 3d
       -0.084195204 0.024368994 0.022276582 0.09321931
0000e0 73 06 87 bd 67 62 1e 3d 5c eb 23 3d bc bd af 3d
       -0.06593027 0.038668063 0.040019378 0.08581111
0000f0 c5 8d ff bc 32 29 9a bd 9b 46 dc bc 46 54 8d bc
       -0.03119553 -0.07527389 -0.026889136 -0.017252099
000100 a5 a1 9b bd 22 75 20 3d 65 d5 c1 3d b9 e0 bc 3d
       -0.075991906 0.039174207 0.0946453 0.0922255
000110 21 ff 46 bd 62 cc 98 bd 94 bd 94 bc 73 8f a7 bd
       -0.048583154 -0.07460858 -0.018156804 -0.08181658
000120 83 b6 3f bd 5f 9a d4 3c 45 71 2d 3d ff c7 1b bd
       -0.046804916 0.025952516 0.04234435 -0.038032528
000130 7e e1 55 bc 35 bf b3 bb 83 92 12 bd ba 35 d8 bc
       -0.01305425 -0.00548544 -0.035784256 -0.026392806
000140 0d 2c 98 bc 60 4a 1d bb 06 b4 99 bb 4d 96 21 bd
       -0.018575693 -0.002400063 -0.00469065 -0.03944998
000150 9d 78 c4 3d 72 b0 90 bd f2 9e a2 bd bd dd 9a bd
       0.09593318 -0.07064904 -0.07940473 -0.075618245
000160 6f 30 30 3c ba 97 fb 3d a1 cf 4c bc 16 7d 81 3d
       0.010753735 0.12284799 -0.012500674 0.063226864
000170 f8 ea af bd 65 93 bb 3c 65 38 dd 3d 76 d4 e2 3c
       -0.085897386 0.022897432 0.10801772 0.0276892
000180 c0 e2 02 bd 5c 9f 39 3d 4a 0e e3 39 31 22 11 bd
       -0.031954527 0.045317993 0.0004330746 -0.035432998
000190 cc 0a 51 bd f6 a0 7a 3d 6f 5c 99 3c 99 49 f4 bc
       -0.051035687 0.06118866 0.018720834 -0.02982025
0001a0 b4 25 bf 3d 50 e8 7b 3d 2c 1f 4c bd 40 52 b3 3d
       0.09333363 0.061500847 -0.049834415 0.08755922
0001b0 5e 28 b1 bd 4e e9 e5 bd a1 0b 58 3c 05 4f d1 bd
       -0.086502776 -0.1122614 0.013186366 -0.1022015
0001c0 39 eb b2 bd 57 2a 9f 3d 68 19 d2 3c 11 1d 54 bd
       -0.087362714 0.077717476 0.02564688 -0.051785532
0001d0 9f 9d ec bd a3 76 eb 3d 11 33 c6 3d 1b 52 32 3d
       -0.11553501 0.114972375 0.09677709 0.043535333
0001e0 72 17 99 bd 15 f9 2c 3d f0 b2 4c bd 36 38 cb bd
       -0.07475175 0.04222973 -0.049975336 -0.09922831
0001f0 ca 07 57 3b 37 a0 fb 3c ce 86 71 3d cb b1 5d 3c
       0.003281104 0.030716045 0.05896645 0.013531159
000200 af 2f ae 3a d8 6e 8c 3d 34 df e2 3c 6b a1 6e 3c
       0.0013289357 0.06857079 0.027694322 0.014564852
000210 44 8f 4c 3d 58 92 d3 bd 45 51 03 bd b8 58 9e bd
       0.049941316 -0.10330647 -0.032059927 -0.077317655
000220 bf bf 6f 3d 02 25 41 3d 98 3f 86 3d df e1 16 3d
       0.058532473 0.047154434 0.06555098 0.0368365
000230 83 67 b4 bd d1 c3 eb 3d e4 ec c0 bd 6e 50 5b bc
       -0.08808806 0.115119584 -0.09420183 -0.013385875
000240 05 9d 23 3d 7b 4d be bd 83 eb 44 3d ee 91 15 bd
       0.039944667 -0.09292122 0.048076164 -0.036516123
000250 06 55 c1 bd 5e 87 77 3c d1 61 ed bc 3a 69 9a bd
       -0.09440045 0.015107958 -0.028977307 -0.075396016
000260 2b 33 3b bc 83 79 a4 3c 91 f6 ae 3a a2 9a c7 bd
       -0.011425774 0.020077473 0.0013348629 -0.09746291
000270 00 64 fa 3c 09 ec 84 3d 45 c8 a3 bc e7 9b af bc
       0.030565262 0.06490333 -0.019992957 -0.021436645
000280 35 11 4f 3d 1d 11 83 3d 09 6c 2e bd ff 01 8c 3d
       0.05055352 0.063997485 -0.0425835 0.06836318
000290 d7 21 52 3d b9 e6 b1 3d c0 d5 85 3d 1a 9d 06 3d
       0.051301803 0.08686585 0.0653491 0.032864667
0002a0 ac d0 65 3d 4b e2 ed 3d 15 43 84 3c 55 50 3c bd
       0.056107208 0.116154276 0.016145268 -0.045975048
0002b0 a3 c6 db 3d cf 8e 37 bd 56 78 08 bc 5b 17 6d 3d
       0.10731246 -0.044813927 -0.008329472 0.0578836
0002c0 83 c3 ef 3c d1 1d cd bc ba a3 2b bd fa 8b 9e 3c
       0.029268032 -0.025038632 -0.04190419 0.019353855
0002d0 f2 33 82 bd 6e 66 42 3d c3 91 9e 3d d2 eb e0 bd
       -0.06357564 0.047460966 0.077426456 -0.10982479
0002e0 2a b3 b4 bd 41 df 40 3c 8e 21 d8 bc 20 d5 d7 bc
       -0.08823235 0.011771978 -0.026383188 -0.026346743
0002f0 11 0b 26 3d 71 e7 63 bd 55 7b c3 3c ab 1c b7 3b
       0.040537897 -0.05564064 0.02386252 0.0055881343
000300 5a d3 8c ba 0a 70 36 bc 4d c8 ac bd ff f4 d2 3d
       -0.001074414 -0.011135111 -0.08436642 0.103006355
000310 a3 6c 56 3d 66 61 77 3d 1c 9f 4f 3d 2f 66 f8 3c
       0.052349698 0.06039562 0.050688848 0.030322162
000320 4d b9 8e bd 91 96 8e 3d 19 18 a1 bd 46 73 62 bd
       -0.06968937 0.06962312 -0.078659244 -0.055285715
000330 82 99 83 bd c3 91 78 bc d9 24 88 bd 85 73 5b 3d
       -0.06425764 -0.015171471 -0.06647653 0.053576965
000340 95 72 2f bd b6 2b 0b bc b7 2d 38 bd bd 7a 86 3d
       -0.042833883 -0.008494308 -0.044965472 0.06566379
000350 03 d4 4d bd 72 1e 46 bd 76 28 79 bb 16 b3 2b bc
       -0.05025102 -0.04836888 -0.0038018501 -0.010479709
000360 77 08 a1 bd 41 a1 94 3d ec 27 75 bc 2b 4e dd 3c
       -0.07862943 0.07257319 -0.014963131 0.027014812
000370 ab a9 9b 3c 78 99 bb 3d a1 fc b9 3b b2 b7 c0 3d
       0.019001802 0.09160131 0.0056758677 0.09410037
000380 f7 55 84 3b 7e 21 17 bd 26 3f 5f b9 a2 95 b8 3d
       0.004038568 -0.036897175 -0.00021290462 0.09012915
000390 f8 97 cc 3c c9 e2 ae bd cf 3a a7 3d cc ed ba 3c
       0.024974808 -0.085393496 0.08165514 0.022818469
0003a0 e9 e3 c6 3d 5e 1b 5f bd db d1 70 bc 70 28 5d bc
       0.09711439 -0.05446946 -0.014698471 -0.013498411
0003b0 f2 d6 65 ba a3 72 93 bd 6f 94 19 bd e0 a3 99 bd
       -0.0008767686 -0.071995996 -0.037495073 -0.0750196
0003c0 76 9a 5e bd 98 f4 92 3d cd f2 ba bd e5 11 8b 3d
       -0.054346524 0.07175559 -0.09128342 0.067905225
0003d0 f8 3e ef 3c 3f d8 02 bd c4 e4 a2 bb 3f cc 23 3d
       0.02920483 -0.03194451 -0.0049711186 0.039989706
0003e0 61 f6 bb 3d 1e b1 b8 3a e8 5b cc 3d 96 55 99 bd
       0.091778524 0.0014090871 0.09978467 -0.07487027
0003f0 6f a7 c8 bb fe 18 26 bd 41 df 70 3d 31 c6 bc bd
       -0.0061234753 -0.04055118 0.05880666 -0.092174895

layers.3.weight f4 [256]
000000 d0 f7 7e 3f 7a a1 6e 3f 78 ca 7d 3f 34 75 76 3f
       0.9959688 0.93215144 0.9913707 0.9627259
000010 25 d2 7b 3f ad 89 75 3f a2 bb 76 3f a2 ee 76 3f
       0.9836753 0.959132 0.96380055 0.96457875
000020 54 28 7c 3f f9 e2 72 3f 53 d5 6b 3f bb 82 7b 3f
       0.98499036 0.9487758 0.9212238 0.98246354
000030 01 25 85 3f 4a 9e 70 3f 02 41 7d 3f a2 d4 7d 3f
       1.0401918 0.9399153 0.9892732 0.99152577
000040 54 3e 82 3f f2 a6 7e 3f 55 9c 77 3f b5 6b 80 3f
       1.0175271 0.9947349 0.9672292 1.003287
000050 2e dc 7d 3f 0f 5c 76 3f 67 5d 76 3f b5 c9 78 3f
       0.9916409 0.9623422 0.9623627 0.9718278
000060 b4 72 7c 3f df bc 7f 3f 06 70 7f 3f 59 9b 76 3f
       0.98612523 0.9989757 0.9978031 0.9633079
000070 1c d7 7b 3f 26 88 6f 3f 14 05 77 3f 77 a3 81 3f
       0.98375106 0.9356712 0.96492124 1.012801
000080 41 f4 7f 3f 25 a6 7c 3f 5d da 7a 3f 2b 93 7e 3f
       0.99982077 0.98691016 0.97989446 0.9944331
000090 09 85 81 3f 56 d3 75 3f 13 3e 7d 3f 7c 6c 70 3f
       1.0118724 0.960256 0.9892284 0.93915534
0000a0 5c 2a 80 3f 24 a8 7d 3f e1 54 73 3f 39 21 7f 3f
       1.0012927 0.9908469 0.9505139 0.9966007
0000b0 07 26 7d 3f b9 26 7e 3f db 1d 76 3f 77 5d 80 3f
       0.9888615 0.99277836 0.96139306 1.0028523
0000c0 5a ba 76 3f c0 2f 74 3f cb 60 6f 3f e8 ed 80 3f
       0.963781 0.9538536 0.9350707 1.0072603
0000d0 0a 80 7a 3f 60 a8 7b 3f ee 33 7a 3f 5b d9 70 3f
       0.9785162 0.98303795 0.9773549 0.9408166
0000e0 12 71 7c 3f ef f7 84 3f f2 0a 7b 3f c1 de 7a 3f
       0.9861003 1.0388163 0.98063576 0.97996145
0000f0 8a b6 7c 3f 48 a1 81 3f 4e e6 74 3f 92 76 78 3f
       0.9871603 1.0127344 0.9566392 0.97055924
000100 cc c4 78 3f 81 ec 7a 3f 66 4c 7b 3f 8c 9b 78 3f
       0.9717529 0.98017126 0.9816345 0.97112346
000110 1d cf 7c 3f 05 0f 81 3f 36 df 79 3f 40 21 7c 3f
       0.9875353 1.0082709 0.9760622 0.98488235
000120 a8 59 76 3f ca c5 72 3f f1 58 79 3f 70 f4 77 3f
       0.96230555 0.9483305 0.9740134 0.9685736
000130 a8 61 7c 3f 37 5b 80 3f 26 93 85 3f ae 04 76 3f
       0.9858651 1.0027837 1.0435531 0.9610089
000140 89 0d 82 3f e7 df 77 3f 5a 72 72 3f 5d ac 71 3f
       1.0160381 0.9682602 0.94705737 0.9440363
000150 9d 9f 80 3f a1 c7 7c 3f 95 04 81 3f 70 d9 77 3f
       1.004871 0.9874211 1.0079523 0.9681616
000160 33 dc 80 3f b0 c6 6f 3f 80 72 78 3f 68 5b 80 3f
       1.00672 0.9366255 0.97049713 1.0027895
000170 29 2a 80 3f cc 8a 7e 3f 9e ac 7e 3f 8b af 7b 3f
       1.0012866 0.9943054 0.9948214 0.9831473
000180 57 27 72 3f f3 61 80 3f 97 f3 6f 3f 26 5c 80 3f
       0.9459128 1.0029892 0.93731064 1.0028121
000190 34 79 7b 3f 98 16 7c 3f c9 52 80 3f 56 cf 7b 3f
       0.98231816 0.98471975 1.0025264 0.98363245
0001a0 9b e9 82 3f 4d 0f 7d 3f 64 45 74 3f 1a 65 7c 3f
       1.0227541 0.9885147 0.9541838 0.9859177
0001b0 c5 b6 74 3f 15 6e 81 3f 2c 1b 74 3f fd 83 7b 3f
       0.95591384 1.0111719 0.9535396 0.98248273
0001c0 34 6c 7a 3f 01 48 7f 3f 67 f6 84 3f 7d de 7c 3f
       0.97821355 0.99719244 1.0387696 0.9877699
0001d0 53 8f 79 3f a3 69 7c 3f 7a d6 81 3f d7 55 75 3f
       0.9748432 0.9859869 1.0143578 0.95834106
0001e0 ab bf 7f 3f e9 de 84 3f 1a c0 7c 3f 88 51 7b 3f
       0.9990184 1.0380527 0.98730624 0.9817128
0001f0 9a dd 7a 3f ab 80 7e 3f b8 ca 7c 3f 94 1a 78 3f
       0.9799439 0.9941508 0.98746824 0.96915555
000200 25 86 78 3f 9d da 7a 3f 6f 39 7f 3f 1e 1b 73 3f
       0.9707969 0.9798983 0.9969701 0.9496325
000210 f4 72 78 3f 65 21 78 3f 50 94 73 3f 8a 3e 70 3f
       0.97050405 0.96925956 0.9514818 0.9384543
000220 4e e6 78 3f 9a e8 70 3f da ab 81 3f 3d 54 73 3f
       0.9722642 0.9410492 1.013057 0.9505041
000230 77 09 77 3f b9 1c 76 3f ee e0 7b 3f a7 12 75 3f
       0.9649882 0.9613758 0.9839009 0.95731586
000240 f0 69 7f 3f 4a 59 79 3f b1 6e 76 3f e4 88 81 3f
       0.9977102 0.9740187 0.9626265 1.0119901
000250 01 b9 7a 3f 87 50 7b 3f 6a 1d 83 3f c8 c9 75 3f
       0.97938544 0.9816975 1.0243351 0.9601102
000260 30 70 79 3f 3d c1 78 3f 7e 86 78 3f c6 5c 7b 3f
       0.9743681 0.9716986 0.9708022 0.98188436
000270 79 8e 7c 3f 03 25 84 3f 20 9f 78 3f eb 1f 72 3f
       0.98654896 1.0323795 0.97117805 0.9457995
000280 b7 97 7c 3f b8 68 71 3f 38 21 78 3f eb 5e 6e 3f
       0.98669 0.94300413 0.9692569 0.93113583
000290 d3 0a 81 3f 51 2c 84 3f 95 62 76 3f bd 21 76 3f
       1.0081428 1.0326024 0.96244174 0.9614523
0002a0 fe e1 82 3f 05 dd 73 3f 76 90 85 3f 2e 22 79 3f
       1.0225217 0.95259124 1.0434711 0.9731778
0002b0 55 c9 7f 3f 04 de 7e 3f ac 92 7a 3f 73 24 80 3f
       0.99916583 0.9955752 0.97880054 1.0011123
0002c0 d9 73 7b 3f 65 b8 7d 3f 80 29 7e 3f fc c5 7a 3f
       0.98223644 0.9910949 0.99282074 0.9795835
0002d0 69 96 79 3f 8d d3 74 3f b6 57 7d 3f 8d a1 7a 3f
       0.9749513 0.956353 0.9896196 0.97902757
0002e0 59 7c 81 3f 26 ff 7e 3f 07 45 76 3f 8a 12 7a 3f
       1.0116073 0.99608076 0.9619908 0.9768454
0002f0 95 dd 85 3f a3 15 7e 3f 11 bb 78 3f d3 33 7b 3f
       1.0458246 0.99251765 0.9716044 0.9812595
000300 c2 ef 79 3f ae b2 74 3f 86 91 71 3f df f1 7a 3f
       0.97631466 0.95585144 0.94362676 0.98025316
000310 9e c8 80 3f 1f b5 77 3f dc 39 7f 3f e7 27 75 3f
       1.0061224 0.96760744 0.9969766 0.9576401
000320 a8 03 7b 3f 7a a9 82 3f a5 af 81 3f ea 84 78 3f
       0.98052454 1.020797 1.0131727 0.9707781
000330 10 06 82 3f b7 68 7d 3f 0c 5c 80 3f 43 de 6f 3f
       1.01581 0.9898791 1.002809 0.9369852
000340 fc b9 74 3f c3 8e 73 3f ed d0 7d 3f cc 3f 7c 3f
       0.9559629 0.9513971 0.9914692 0.98534846
000350 1c 50 80 3f 1b d9 7b 3f db 01 79 3f a2 53 77 3f
       1.0024447 0.9837815 0.97268456 0.9661199
000360 21 87 80 3f a8 6c 7a 3f 17 6f 72 3f b7 81 6e 3f
       1.0041238 0.97822046 0.9470076 0.9316668
000370 9e fb 77 3f 9a dc 78 3f 80 0f 7c 3f 3d 0d 74 3f
       0.9686831 0.9721161 0.9846115 0.953327
000380 01 a3 73 3f ea b2 7d 3f f2 26 74 3f 91 06 7f 3f
       0.951706 0.99101126 0.95371926 0.99619395
000390 ee 71 84 3f b9 41 7d 3f 00 f6 73 3f 13 e3 71 3f
       1.0347269 0.9892841 0.9529724 0.9448711
0003a0 1a 9d 81 3f 0f b0 7d 3f de 20 7d 3f c3 82 81 3f
       1.0126069 0.9909677 0.98878276 1.011803
0003b0 6f 27 74 3f 49 2d 7c 3f 12 f3 73 3f d0 a3 75 3f
       0.9537267 0.985066 0.9529277 0.95953083
0003c0 0b df 7b 3f 2f 35 7d 3f af 20 76 3f 99 d4 73 3f
       0.9838721 0.98909277 0.9614362 0.95246273
0003d0 bd ba 75 3f 24 59 76 3f 81 da 75 3f b9 aa 80 3f
       0.95988065 0.9622977 0.96036536 1.00521
0003e0 96 60 7a 3f 85 53 77 3f c8 00 6f 3f 4a c7 7e 3f
       0.9780363 0.96611816 0.9336057 0.9952284
0003f0 8f 37 79 3f 48 1c 79 3f d1 fd 7d 3f 84 27 7c 3f
       0.973504 0.9730878 0.9921542 0.98497796

layers.3.bias f4 [256]
000000 50 bb 00 3c 55 b8 36 3c 24 a8 95 bd 68 fb bc 3b
       0.007857159 0.011152347 -0.07307461 0.0057672746
000010 2b f9 26 bd 55 07 56 bd 43 d0 a7 bd 94 96 03 3c
       -0.04076497 -0.052253086 -0.0819402 0.008031506
000020 2f f4 13 3d 77 65 a0 3c e3 d3 d4 bb 4e fe 44 bd
       0.036121543 0.019579632 -0.0064949854 -0.048094086
000030 8d ed 8e 3d 70 28 b8 3c 1a e3 9d bc 97 47 6a 3c
       0.06978903 0.02248022 -0.01927333 0.014299295
000040 38 c3 20 3d 8e f3 ea 3c d1 e9 95 3b a4 ee 34 bd
       0.039248675 0.028680589 0.004574992 -0.044172898
000050 b4 24 86 bd 60 ef 21 3d 4c f2 46 bd 46 b2 85 3a
       -0.06549969 0.039534926 -0.048570916 0.0010200224
000060 03 11 42 bd 58 8f a4 bc ea 8d 76 bc 72 cb f4 bc
       -0.047379505 -0.020087883 -0.015048483 -0.029882167
000070 e2 55 1e bd d4 4e e9 ba 19 6e 9c bd e7 84 8f bd
       -0.038656123 -0.0017799982 -0.07638187 -0.07007771
000080 17 0c a0 3b b3 50 3b bd b0 88 0c bc 11 11 23 bd
       0.0048842537 -0.045731258 -0.008577511 -0.039811198
000090 5d 55 7d 3d e0 e6 78 bd b1 f3 4f 3b 98 08 0a 3d
       0.061848987 -0.060767055 0.0031730945 0.033699602
0000a0 cf a4 f3 bb 43 43 53 3d 60 0b 9a 3c 76 54 e0 bc
       -0.007435418 0.051577818 0.018804252 -0.027384024
0000b0 5d 0b ad bc 7f 86 65 bd c4 1a 01 bd 1e c2 81 bd
       -0.021123582 -0.05603647 -0.031519666 -0.06335853
0000c0 45 14 8a bd 39 f4 c5 bc 93 1e 36 bd 2e 9e 27 bd
       -0.06742147 -0.024164306 -0.04446275 -0.040922336
0000d0 8d 5f 10 bd 8d ee 78 bd a2 4a fe bc 0f a6 a3 bd
       -0.035247374 -0.060774375 -0.031041447 -0.079906575
0000e0 11 e6 0d bc 84 fe ec bd 11 1e 04 bd 89 05 c1 bd
       -0.008660809 -0.115719825 -0.032255236 -0.09424884
0000f0 e8 31 8a bc 5c 28 66 bd d0 f6 54 3d aa 96 e3 bb
       -0.0168695 -0.056190833 0.05199319 -0.006945451
000100 06 b7 85 3c 95 0f c9 bc 02 07 50 bd c7 8a 71 bd
       0.016322624 -0.024543563 -0.050787933 -0.05897024
000110 7c 5c ac 3d 6f 13 14 bd a1 3d 80 3c 0b 36 c7 3a
       0.084160775 -0.036151346 0.015654387 0.0015198601
000120 8e 42 93 3c bd 8d bb ba 8f 04 1f 3d 59 5a 88 bc
       0.017976072 -0.0014309209 0.038822707 -0.016644644
000130 bb 50 75 bc b3 e0 6e bd d7 d3 3c 3d d8 7c 14 bd
       -0.014972861 -0.05831976 0.046100464 -0.036251873
000140 17 29 da 3c 5f a6 dc bc c7 f9 bc bc 8f 4b bb bc
       0.026630921 -0.0269348 -0.023068322 -0.022863178
000150 81 ee 47 bd 1e e0 22 bd bd f1 24 3b 40 0c 92 3d
       -0.04881144 -0.039764516 0.0025168501 0.07131243
000160 e6 a7 2a bd a3 48 30 3d 5d 9f 80 3a b9 7a 00 bd
       -0.041664027 0.04303802 0.0009813119 -0.031367037
000170 ba f2 77 bc e6 3f 21 bd 07 92 65 bd 0a 1e a0 bd
       -0.015133554 -0.03936758 -0.056047466 -0.078182295
000180 05 68 3a 3d 8c 89 34 bc d0 07 af bc 32 e1 b9 3c
       0.045509357 -0.011019122 -0.02136603 0.02269039
000190 02 3f 2d bd b7 b8 2b bd 26 f0 86 3c 2f 8e 3d bd
       -0.042296417 -0.041924205 0.016471934 -0.046278175
0001a0 05 f4 69 bd c3 e1 64 bc fd 28 01 bc 3d 84 0e 3c
       -0.05711748 -0.013969841 -0.0078833075 0.00869852
0001b0 f5 bf a6 3b c0 85 a2 bd 07 d8 73 3c 2d dc 0f bd
       0.005088801 -0.07935667 0.014883048 -0.035122085
0001c0 20 a5 71 bc 22 e4 af bc 40 d1 dd 3c d5 4a ad 3b
       -0.0147488415 -0.021471087 0.027077317 0.0052884617
0001d0 29 42 28 3c 97 04 3d bd 4f d6 49 bd 9a 3d 67 bd
       0.01026968 -0.046146955 -0.049276646 -0.056455232
0001e0 e0 62 7e bd 13 20 ba bd 9a 85 5d bd 36 76 92 bb
       -0.062106013 -0.09088149 -0.05408249 -0.0044696582
0001f0 82 14 83 bb b7 c5 3e bd b3 e2 8b bb 91 4f 48 bd
       -0.0040002475 -0.046575274 -0.004268968 -0.048904005
000200 21 8a a0 bd f1 f7 8c bc ee 34 6d bd 44 14 36 3d
       -0.07838846 -0.017208071 -0.057911806 0.04445292
000210 27 81 b2 bd 73 b9 1e 3d fb c2 10 3c d5 ca 90 3c
       -0.0871604 0.038751077 0.0088355495 0.017674843
000220 30 16 ec bc 9d de 02 bd 2e ce 88 bd e6 23 d8 3c
       -0.028819174 -0.03195058 -0.06679951 0.026384305
000230 e4 6d 3f bc 28 2c 98 bd d3 d9 60 bd 3d a5 f9 bc
       -0.011683915 -0.07430297 -0.054895233 -0.0304743
000240 b0 d1 c3 bc 3c b0 a1 bc 2c 08 bf bc c4 8c 13 bd
       -0.023903698 -0.019737355 -0.023319326 -0.036022916
000250 0d c0 37 3b 5c 12 9f bc 6c 3e 9e bd 8d ad 2d bd
       0.0028038055 -0.019417934 -0.0772675 -0.04240184
000260 61 a1 6d bd 4a 13 0e bd a3 a8 71 bd 88 25 53 3c
       -0.05801523 -0.034686364 -0.058998715 0.012887366
000270 28 5a af bd 5d 0d 63 bd f9 3a 8c bc 29 73 3e bd
       -0.08562118 -0.055432666 -0.017117964 -0.046496544
000280 99 6c 6c 3d 18 b1 98 bc 90 99 15 bd 13 b3 de bc
       0.057720754 -0.018639132 -0.0365234 -0.027184999
000290 a5 85 ef 3c e5 1d e8 bc 32 a5 bf 3c b4 7c 56 3c
       0.029238531 -0.028334567 0.023394201 0.013091255
0002a0 50 69 3d bd f6 db 36 bd a7 95 7a bd 2a 16 84 bd
       -0.046243012 -0.044643365 -0.061177876 -0.0644954
0002b0 d5 d9 1e bd 9c 46 a8 bd 4b b1 b7 bd c1 cf 9d bd
       -0.03878196 -0.08216593 -0.08969363 -0.077056415
0002c0 a3 b7 22 3d 9a 87 56 3d 51 2d 89 bc c2 3a b5 bc
       0.03972591 0.052375413 -0.016745241 -0.022122744
0002d0 89 f1 0c bd 09 f5 86 bc e0 b5 fb bc 1f 4a 63 bc
       -0.034410033 -0.016474264 -0.030726373 -0.013872652
0002e0 a4 63 21 3d 0e b3 ca bc 29 a5 96 bc 12 f5 25 bb
       0.039401665 -0.024743583 -0.018389301 -0.0025323075
0002f0 6d d9 8c 3d aa cd ad 3d c0 69 95 bb 5c 0e b5 bd
       0.06877408 0.08486493 -0.0045597255 -0.088406295
000300 3e 3d 79 3c 91 09 90 bd c4 52 85 bd 41 7c 9f bc
       0.015212355 -0.07033075 -0.06509927 -0.019468429
000310 36 23 5a 3d 21 93 02 bd 64 fc 92 bd b7 02 0c bd
       0.053256236 -0.031878594 -0.07177046 -0.034182277
000320 0b 41 8e bd 66 52 7b 3d 15 b9 08 3c ae 70 c9 bd
       -0.06946 0.06135788 0.008344908 -0.09835945
000330 00 4d 71 bd c1 d7 20 bd 56 1e e7 bc a9 dc 85 3d
       -0.058911324 -0.03926826 -0.028212707 0.06536228
000340 96 4b 2d bd a4 28 b3 3c 5c a8 80 bd f7 56 be bc
       -0.042308412 0.021869965 -0.06282112 -0.023234827
000350 ac 12 8a bd 28 a4 8a bd 1f 61 21 3c f0 f6 9a 3a
       -0.06741843 -0.067695916 0.009849816 0.0011822861
000360 e7 8d 84 bd 43 32 ac 3a e5 0c a8 bb 2f d6 92 bc
       -0.06472378 0.0013137538 -0.0051284903 -0.017924396
000370 c0 76 1a bd 72 3d 11 ba 70 e1 cd bc 07 14 30 3d
       -0.037710905 -0.0005540467 -0.025131911 0.04298785
000380 30 39 29 bd b5 5f 1f 3d 7b fa 95 bb 65 ab 6b bd
       -0.041314304 0.038909633 -0.0045769787 -0.0575365
000390 a5 b0 96 3d 8d 7b 62 bd a4 2a 46 3d 7c 9d 48 3a
       0.07357911 -0.05529361 0.04838051 0.00076528615
0003a0 e0 d1 0e bd c8 20 8e bd 06 02 8b bd 13 2b 82 bd
       -0.03486812 -0.06939846 -0.06787495 -0.06355872
0003b0 e9 ff 32 bd 6a ec 48 3d db b0 15 bd 89 fa 71 bd
       -0.043701086 0.049053587 -0.036545616 -0.05907682
0003c0 b5 c1 45 bd 98 ea 93 3c f8 74 d1 bc 42 20 2c bc
       -0.048280437 0.018056199 -0.02556847 -0.010505738
0003d0 0c 72 63 ba 5c f6 02 3d a1 0b 74 3d 64 45 a1 bd
       -0.0008676357 0.031973228 0.059581403 -0.07874563
0003e0 16 35 c2 3c e8 c1 da bc 9c 35 8b 3c 1a 0e 2f bb
       0.023706954 -0.02670379 0.016993336 -0.0026711286
0003f0 cd 7c 9f bb de d3 0b 3c 3f 21 75 bd 9a d1 b9 bc
       -0.0048671723 0.0085344 -0.05984616 -0.022682954
