ddpg/model_params/twitter_ddpg_47_30_actor.pth (torch, 158108 bytes, 20 tensors)

layers.0.weight f4 [128, 65]
00000000: 8e50 43ba 7940 873b 2b0e ce3b faef 293c
00000010: 1c73 0339 3c65 80ba 3858 bc38 2c57 99bc
00000020: db2b 693b 3e92 bbba 20cd c5b8 8a37 c83a
00000030: 801d 0e3a 7ecc 2c39 248e 3738 2bfb f638
00000040: ce37 8a3b 9460 9fba c951 d2ba 9213 b037
00000050: d3d6 c1b9 5760 253a 23e1 9339 3ffc 1c39
00000060: 3cd1 4439 7acb 86b8 3034 81b6 3102 1db9
00000070: c0df 9fb3 44a6 f838 9edd 2539 a357 7bb9
00000080: 725d 11b8 0824 00ba 7b4c 5439 a0a2 d9b7
00000090: b64d 0eb9 23eb 64ba 59dd fcb9 00c1 afb8
000000a0: c82a 03ba 1682 f038 a148 1bb9 b200 9239
000000b0: c0e4 0cbc 5900 d838 4c82 4c35 3298 6d39
000000c0: 68ca bb39 db3e bb38 9d6f d33a 6fff 0339
000000d0: 4ab0 f138 90b4 b23b 5c1b 6239 8924 34b9
000000e0: 06b2 85b9 2a20 adba e7be b9ba 6802 9eb8
000000f0: e238 ea3b 9567 d738 049d e3b9 1f95 c338
00000100: c7a3 aaba 7fa7 c1b9 5da6 5fbb 967f daba
00000110: bc5c c4bb aba9 1bb9 7aba d13a 62fe d438
00000120: e22a c63c 7ef3 a5bb 62e0 273b 4c15 80b9
00000130: 2c50 df38 a87a 0839 66bf fb39 6c07 b837
00000140: 1323 2dba d82c cbbb 8f44 263b f0ee 4d3a
00000150: 7cab 30b6 34fe aab8 d7b4 14ba 1a24 0639
00000160: fa2d 0339 702f 00b7 2475 8a38 de00 1f3a
00000170: 7fdf 9bb9 83b1 b33a fe1e 1939 f06f 28ba
00000180: 2260 41ba fd43 65b7 56cd e638 401d 82b7
00000190: 2c89 b838 2aa2 5bb8 fa6b a638 a05b 453a
000001a0: ae12 a1b9 2c8f 0eb7 e81e ef37 d3d8 90b9
000001b0: c215 8838 e8f9 b93b f921 48b7 ca73 1eba
000001c0: b8b9 d336 18ea 5639 3a72 75b9 8e43 1eb9
000001d0: dd05 ebb8 d4c4 8e39 0fa0 92bb b37b 1339
000001e0: dea7 7439 f8dd 90b7 b004 6a38 817f 193b
000001f0: 8134 25b9 29ff febb ee95 0fba ebdc e1b9
00000200: 2631 c239 4b0c c73a 8ef7 223a 40b2 a73b
00000210: 85fc d8ba d588 253c 92bc 55b9 11c9 feba
00000220: 9b39 96ba 8d31 f8bc a6b3 88b9 3dc4 fcba
00000230: 1281 8238 e152 b43a ca04 1438 9833 a23a
00000240: f4a7 68b8 1a98 3239 31bf 923b f766 07bb
00000250: 2622 e639 0e3f 2d39 a62c 2b3a 9aeb 52b8
00000260: 8037 5db9 38b0 1ab9 55af f439 2a32 9239
00000270: 5465 9db8 8ba9 0038 69b0 1dba a584 70b8
00000280: 064e 243a e5d8 2539 c74f 05b8 33a9 53b9
00000290: fcc1 6e39 821f f238 eeea 3f37 594c 183a
000002a0: f0ff d1b8 9011 063a cc8c 4837 ac51 2bb8
000002b0: 0b83 1ab9 5ee9 ceb8 aee4 2ebc d02e 4f37
000002c0: 00f6 c2b7 cebb 39b9 41a8 233a 036e ad38
000002d0: ed1d 80b7 f503 16ba a674 9338 8d17 1b3c
000002e0: 70fb 9739 580c d837 17ba 7ab9 9c65 7638
000002f0: d4fc 03bb 2307 0439 98a5 0c3c be57 2bb9
00000300: 357f 8438 ddd3 16b9 a3e6 d939 af44 1339
00000310: 5dec d6ba 87b7 23bc 93bc a9bb 8401 b3b8
00000320: b6bf 6739 d0ef a0b8 f5ed 453c ccf7 3cbb
00000330: 2cde bf3a 6506 4538 bdde a5ba 0c04 0a39
00000340: 4683 05ba 6e21 123a 141f b937 90fe 89bb
00000350: 1248 1039 11be 033b c142 a1b9 1072 9bb9
00000360: 8ce0 b438 c235 6738 a8c2 9d39 be6c 1739
00000370: 54c2 8138 6859 5fb8 0088 afb9 0721 e637
00000380: c0da be37 2ce6 e837 a020 49b8 545b b338
00000390: 1857 9e39 eb0e b53a afe4 1b39 58bd 8339
000003a0: 7661 ab38 d180 94b9 b84e 083a 2e68 8738
000003b0: e077 f2b6 8ba4 d039 38da 253a a6a8 873b
000003c0: 6cb2 baba b4e5 8bb7 9684 8935 3b34 3f37
000003d0: 7bb9 6438 4c6f 55b9 3ebe 1e38 dbac 8bb9
000003e0: 6f64 8abb a600 1339 3edf 2d38 9849 13b7
000003f0: a0be fcb8 30e2 6b39 d055 21b7 4372 03bc
-0.0007450663 0.004127559 0.00628831 0.010372156 0.00012536015 -0.0009795795 8.9809706e-05 -0.018718325
0.0035579118 -0.0014310551 -9.4318995e-05 0.0015275341 0.0005421266 0.00016479378 4.376298e-05 0.00011776978
0.004218078 -0.001215952 -0.0016046102 2.0989948e-05 -0.00036971885 0.0006308606 0.00028205765 0.00014971288
0.00018769962 -6.4275184e-05 -3.850575e-06 -0.00014973503 -7.4447144e-08 0.00011856531 0.00015818185 -0.00023969873
-3.465772e-05 -0.00048881816 0.00020246387 -2.5944144e-05 -0.00013571125 -0.0008732548 -0.00048230102 -8.380599e-05
-0.00050036283 0.00011468322 -0.00014809008 0.00027847808 -0.00859946 0.000102997474 7.618553e-07 0.00022658778
0.00035818224 8.9285626e-05 0.0016131286 0.0001258829 0.00011524612 0.0054536536 0.00021563232 -0.00017179748
-0.00025500375 -0.0013208438 -0.0014171273 -7.534475e-05 0.0071478942 0.000102712926 -0.000434138 9.3261006e-05
-0.001301878 -0.00036936623 -0.003412626 -0.0016670104 -0.0059925 -0.00014845158 0.0016001009 0.0001015633
0.02419037 -0.005064427 0.002561592 -0.0002442993 0.00010648402 0.00013015664 0.00048017054 2.1937965e-05
-0.0006604653 -0.006200414 0.0025370454 0.0007855734 -2.632586e-06 -8.153581e-05 -0.0005672699 0.00012792685
0.00012510261 -7.640439e-06 6.602172e-05 0.0006065498 -0.0002973042 0.0013709519 0.00014602763 -0.00064253714
-0.00073766906 -1.3665293e-05 0.000110055014 -1.5510828e-05 8.799354e-05 -5.2364696e-05 7.935609e-05 0.0007528607
-0.0003072223 -8.497194e-06 2.8505412e-05 -0.00027627367 6.489038e-05 0.005675543 -1.1928839e-05 -0.00060444756
6.3099105e-06 0.00020495837 -0.00023407573 -0.0001509322 -0.00011206765 0.00027231 -0.004474647 0.00014065094
0.00023332189 -1.72695e-05 5.5794313e-05 0.0023421946 -0.00015755185 -0.0077818823 -0.00054773584 -0.0004307994
0.00037039182 0.0015186159 0.0006216698 0.0051176846 -0.0016554749 0.010103424 -0.00020383511 -0.0019438585
-0.001146126 -0.030297065 -0.0002607379 -0.0019284558 6.222924e-05 0.001375761 3.529041e-05 0.0012374995
-5.546953e-05 0.00017032065 0.004478358 -0.0020660737 0.0004389446 0.00016522055 0.00065297855 -5.0287323e-05
-0.00021096878 -0.00014752231 0.0004666994 0.00027884665 -7.505217e-05 3.0675477e-05 -0.0006015362 -5.7343994e-05
0.000626773 0.00015816426 -3.178397e-05 -0.0002018556 0.00022769714 0.00011545328 1.1439186e-05 0.00058097165
-0.00010013569 0.00051143114 1.1953711e-05 -4.084564e-05 -0.00014735402 -9.8663135e-05 -0.010674639 1.2349061e-05
-2.3241155e-05 -0.00017712938 0.00062430283 8.269774e-05 -1.5272724e-05 -0.00057226355 7.031234e-05 0.009466064
0.000289883 2.5754955e-05 -0.00023911182 5.87456e-05 -0.002013971 0.0001259116 0.0085844025 -0.00016340517
6.317945e-05 -0.0001438404 0.00041561303 0.00014044599 -0.0016397346 -0.009992487 -0.0051799505 -8.5356674e-05
0.00022101295 -7.674063e-05 0.012080659 -0.0028834222 0.0014638356 4.6974415e-05 -0.0012654882 0.00013162213
-0.00050931086 0.00055744394 2.206819e-05 -0.0042112544 0.00013759758 0.0020102302 -0.00030758049 -0.00029648887
8.624894e-05 5.5124758e-05 0.00030090404 0.00014440992 6.187396e-05 -5.325061e-05 -0.0003347993 2.7433516e-05
2.2751628e-05 2.7763737e-05 -4.795252e-05 8.552396e-05 0.00030200998 0.001381365 0.00014867143 0.0002512734
8.172069e-05 -0.00028324735 0.0005199718 6.4567066e-05 -7.2261173e-06 0.00039795446 0.00063267676 0.0041399775
-0.0014243848 -1.6677055e-05 1.0245883e-06 1.1396648e-05 5.453218e-05 -0.00020354724 3.7847312e-05 -0.00026640933
-0.0042233984 0.00014019254 4.1454325e-05 -8.779018e-06 -0.00012051803 0.00022495608 -9.616328e-06 -0.008022848

layers.0.bias f4 [128]
00000000: 6a4b e0bc 9e4c 1339 36c9 ed35 b8d4 13b9
00000010: b323 54bc a556 8e3c af34 b53a 62e5 0c3c
00000020: eca1 143c 35b3 30bd 2593 023d 004d 1b3d
00000030: 77ab d23a 7ac0 e8bc c562 d9bb 277e cf3a
00000040: 883f 1e39 f44a 183a fe8d f03c 0efb be38
00000050: 29d6 5c3c c0b4 2f37 9658 da3b caab ecbc
00000060: 682c 8ebc 4c36 53bc ef03 ce3a 0b96 6f3c
00000070: bcf2 e3bc b418 cab8 a1d4 de39 00c0 1b3a
00000080: d48c d2ba 7219 1abc ea93 d8b5 1980 ff3a
00000090: 1032 24bc 949a 8d3a 45fc b73b a84f 7ab9
000000a0: 120b 04b9 77dc d0ba 4886 0b3d fcce 81bc
000000b0: cc29 14bd 69f1 f13b 0be7 aabc 63a6 dfbb
000000c0: c41e 17bd 4ee6 81bc 919c 0dbd f149 793a
000000d0: 4275 92ba ea2b 3abd f299 d63c d32d c73c
000000e0: 5a84 363b ac05 c43a 85d2 533c 21b8 763b
000000f0: e548 033a 66ad 6639 e809 dabc c535 d23a
00000100: 5f74 5f3a 3e6e c03a 993b 5838 89eb 573c
00000110: 81c6 ca3a 70f8 8f3c 5213 b1ba 7132 83ba
00000120: 44e8 b1b9 6228 36bd 27b2 72bb 0d49 743c
00000130: 02f2 e03c 5b1a 21bd 1561 e23c fb27 d6bc
00000140: c1ee 1a3c 4182 05bd 18b0 95ba cdc3 ebbc
00000150: 45e2 0a3d 8816 1a3b e5b7 483b f3d9 153b
00000160: c379 3ebd 6295 ad3c a4a1 d939 4fd0 d1bb
00000170: 8589 153d 42b8 03bd bf65 61bc 3020 ffb9
00000180: d703 c138 377e a1bb e9db 26bc 3893 b1ba
00000190: 9eff c3ba 8416 49bd 0c35 81bc e890 d1bb
000001a0: 8a1f d33a 7345 0ebd 9d36 d0ba 32df 1cba
000001b0: af1a 14ba 78d4 89bc dcd0 a53a 4c3b 13bd
000001c0: 0657 cdbb 0a19 7c39 3e86 aebc 0b1e 64bc
000001d0: c915 57ba 56eb 0ebd 9443 103a c36a 07b9
000001e0: 89a9 aebc 1b00 aebc 6ce8 f3bc eab0 47bd
000001f0: a8be 403a 071d 753a 50c4 9c37 f064 05bd
-0.02737971 0.00014047555 1.7716436e-06 -0.00014098256 -0.0129479645 0.0173753 0.0013824905 0.008599611
0.009071808 -0.043139655 0.03187861 0.03791523 0.0016072829 -0.028412092 -0.0066340887 0.0015830443
0.00015091721 0.0005809509 0.029364582 9.1066686e-05 0.013478794 1.0472897e-05 0.0066633923 -0.02889051
-0.017355159 -0.012891363 0.0015717725 0.014623175 -0.027825706 -9.636712e-05 0.0004250156 0.0005941391
-0.0016063699 -0.009405481 -1.6136303e-06 0.0019493132 -0.010021701 0.0010803514 0.0056147897 -0.00023871532
-0.00012592625 -0.0015934844 0.034063607 -0.015845768 -0.036172673 0.0073835147 -0.020862123 -0.0068252548
-0.036894575 -0.015856888 -0.03457314 0.00095096143 -0.0011173862 -0.045452036 0.026196454 0.024313843
0.0027849884 0.0014955304 0.01292861 0.003764637 0.00050081155 0.00021999105 -0.026616052 0.0016037753
0.00085241155 0.0014681292 5.1553918e-05 0.013178715 0.0015470536 0.017574519 -0.0013509786 -0.001000954
-0.00033933122 -0.044472106 -0.0037032457 0.014909995 0.027459148 -0.039331775 0.027634183 -0.026142111
0.009456337 -0.032594923 -0.0011420278 -0.028779889 0.033907194 0.0023511965 0.0030627188 0.0022865504
-0.04650284 0.021189395 0.00041509897 -0.006403006 0.036508102 -0.032158144 -0.013757168 -0.00048661372
9.2036724e-05 -0.004928376 -0.010184267 -0.0013547903 -0.0014953499 -0.04909374 -0.015772365 -0.006395448
0.0016107422 -0.0347342 -0.0015885417 -0.00059841864 -0.0005649728 -0.016824946 0.0012650746 -0.03594522
-0.0062664775 0.0002404192 -0.021304246 -0.013923178 -0.00082048454 -0.034892403 0.0005503234 -0.00012914375
-0.021321075 -0.021240285 -0.029773913 -0.048752703 0.0007352629 0.0009350334 1.8688064e-05 -0.032566965

layers.2.weight f4 [128]
00000000: 89e6 723f b803 743f bba4 743f 9a62 723f
00000010: e858 723f fd44 743f 72c9 753f fb46 753f
00000020: 9831 753f d867 763f 4b09 743f 826d 773f
00000030: 4bdb 723f 3ca6 733f 35dc 723f 3a52 713f
00000040: 6b1d 753f 39fb 753f b662 743f 7476 753f
00000050: 70c5 763f 642f 753f 9710 743f 7213 713f
00000060: e16d 713f 9f21 723f 16b3 753f aab3 723f
00000070: 9692 743f c127 713f a230 763f f0de 753f
00000080: ef0f 723f d4f9 713f ec20 733f bb62 723f
00000090: 4cac 733f 044e 783f 709c 723f 5c10 723f
000000a0: 23bc 743f 091a 753f 7cdf 723f 2adc 733f
000000b0: 78ad 723f 427b 713f 379d 733f 9416 723f
000000c0: 6c48 733f 0a1d 743f f769 713f aa21 753f
000000d0: 2eb8 743f 6ae2 743f 9109 763f 5f92 743f
000000e0: b0da 743f a903 723f ebc4 713f 1a92 743f
000000f0: 8599 723f 53d8 743f 8ab2 763f 56a2 753f
00000100: 40a4 773f 60d5 763f a85a 713f dcf4 773f
00000110: 445d 713f fc76 733f 3ba9 743f dfd9 733f
00000120: 2319 723f 9f0b 783f cfbf 753f b449 713f
00000130: c452 773f 491f 733f 44bb 743f ee55 733f
00000140: 1b32 743f bd80 723f ce5a 723f 326f 743f
00000150: 4d80 733f 9f5e 763f 3cd4 743f 20ef 723f
00000160: 4e4c 743f bc61 733f 9989 733f 4f41 753f
00000170: 11ea 733f 2428 783f 0379 753f 83df 713f
00000180: 87da 703f 62eb 723f 024c 713f 9478 723f
00000190: 7b2f 733f 4e69 723f a878 723f a236 733f
000001a0: 63b4 753f 6240 743f 3d31 733f 14c2 723f
000001b0: 1cd4 713f f33d 733f 9172 733f 4f2e 733f
000001c0: 822d 753f f510 793f 4375 763f 348a 723f
000001d0: b7fa 773f 6ef1 763f 70e0 773f 0756 753f
000001e0: 0bbd 783f 70e0 703f ecbb 703f 1f49 723f
000001f0: bce7 703f 8739 743f da3f 743f 26af 753f
0.9488302 0.95318174 0.9556386 0.94681704 0.9466691 0.9541777 0.96010506 0.9581143
0.957788 0.96252203 0.9532668 0.9665147 0.94865865 0.9517553 0.9486726 0.9426609
0.95748013 0.9608646 0.9546312 0.9588387 0.96395016 0.9577544 0.95337814 0.94170296
0.94308287 0.9458255 0.9597639 0.94805396 0.9553617 0.94201285 0.9616796 0.960433
0.9455556 0.9452183 0.9497211 0.946819 0.9518478 0.9699404 0.94769955 0.9455621
0.95599574 0.9574285 0.9487226 0.9525782 0.9479594 0.943287 0.95161766 0.945657
0.9503238 0.9535681 0.94302315 0.9575449 0.95593536 0.9565798 0.9610835 0.95535845
0.9564619 0.94536835 0.944411 0.95535433 0.947655 0.95642585 0.9636618 0.9595083
0.96735 0.96419334 0.94278955 0.96858 0.9428294 0.9510343 0.95570725 0.9525432
0.94569606 0.9689273 0.959958 0.9425309 0.96610665 0.9496961 0.95598245 0.95052993
0.95388955 0.9472769 0.94669807 0.9548217 0.95117646 0.9623813 0.95636344 0.94896126
0.9542893 0.95071006 0.9513183 0.9580278 0.9527903 0.9693625 0.95887774 0.94481677
0.94083446 0.94890416 0.94256604 0.9471524 0.94994324 0.9469193 0.94715357 0.9500524
0.95978373 0.9541074 0.94997007 0.9482739 0.9446428 0.950164 0.9509669 0.94992536
0.95772564 0.972915 0.9627268 0.9474213 0.96866935 0.9646214 0.9682684 0.9583439
0.97163457 0.94092464 0.94036746 0.94642824 0.941036 0.9540028 0.9540993 0.9597038

layers.2.bias f4 [128]
00000000: 5c5a 4fbc ed36 7d3c 03e4 60bc 3f64 9d3c
00000010: 08af a3bc 8709 a6bc 196f cb3c 4900 68bc
00000020: 557b 9cbc a70e 5dbc 4d62 65bc 7d91 b9bc
00000030: 5092 4c38 fb4b 443c fab0 78bc 92e2 a33c
00000040: c1a3 afbc d501 603c 2466 a03c 0930 45bc
00000050: 0c5d 963c ca87 80bc f742 1abc 2498 0fbb
00000060: e521 f63b 92f6 cc39 b3d0 a4bc 51a7 46bc
00000070: d437 b5bc 728c ebbb 8c5f b2bc 0ab7 89bc
00000080: bdf4 67bb 04e7 ff38 b4db ad3c a43b 393c
00000090: 51db 723c edec b93c 24ed 993c c31a 883c
000000a0: 088e 533c e485 8b3c aac9 84bc ecef 60bc
000000b0: 077f 0a3c 24ed a53b 4bd3 32bc 4353 9e3c
000000c0: 2033 6fbc e875 56bc c8bd 9d3c bc77 99bc
000000d0: 0ff6 27ba 626e 843c 4c4a a1bc 3834 c83c
000000e0: 20fd 97bc 66f1 f33b 4c0f 583b 27b4 a8bc
000000f0: cac9 373c c50b 96bc 7a9b 723c 1059 823c
00000100: 7828 a4bc 8fda 923c ec72 4bbb 24c4 8d3c
00000110: 70c4 8eba 5940 92bc cbc0 8f3c d316 cabc
00000120: ad3c a03c c305 9abc dbcb b0bc 386a e03b
00000130: 7ca4 713c a4ba a7bc c2ca a4bc c363 6b3c
00000140: ec63 883c ddff 88bc f99a 8dbc cb65 7abc
00000150: 5225 bebc 87bc 78bc 3ed1 86bc 87f9 8a3c
00000160: 189a 033a 070c c4bc 4876 333c 2d64 a33c
00000170: 22cc 89bc 13ba f2bb 6570 93bc e56f 73bc
00000180: 0339 a63b b4b5 4d3c 4c2e c03a 6798 5e3c
00000190: bae0 a93c a090 e83b a32d 49bc ecbb aebc
000001a0: 462f 183c 8ff0 76bc 4a16 49bc e6db 09bc
000001b0: ee7a 5d3c b8a8 c03a 6984 abbc ea15 763c
000001c0: a3db 913c 447d 95bc fbd9 bdbc 6237 f0ba
000001d0: 65ec 87bc 24bb 9cbc 1853 9fbc 211e 51bc
000001e0: 75cf 923c 9547 e33a 4e4d 37bc 2e30 e73b
000001f0: b30d ca3b 2add 5fbc 5c4a 63bc 1f16 e9bb
-0.012655821 0.01545499 -0.013726237 0.01921284 -0.019980922 -0.020268215 0.024833249 -0.014160224
-0.019101778 -0.013492263 -0.0140004875 -0.022652382 4.8773654e-05 0.011981006 -0.015178913 0.020005498
-0.021440389 0.013672312 0.019579954 -0.012035378 0.018354915 -0.01568975 -0.00941538 -0.0021910751
0.0075113648 0.0003909362 -0.020119047 -0.012124852 -0.022121347 -0.0071883732 -0.021774076 -0.016810913
-0.0035393678 0.000122023775 0.021222927 0.011305723 0.014822797 0.022695983 0.018789835 0.016614323
0.012912281 0.017031617 -0.016209442 -0.013729077 0.008453137 0.0050636698 -0.010914634 0.019326812
-0.0145995915 -0.0130896345 0.019255534 -0.018733852 -0.000640721 0.016165916 -0.019688748 0.024438962
-0.018553317 0.0074445484 0.0032968102 -0.020593716 0.011217544 -0.018316159 0.014807576 0.015911609
-0.020038828 0.017926482 -0.003104384 0.017305441 -0.0010892283 -0.017852949 0.017547986 -0.024669087
0.019560182 -0.018801576 -0.02158158 0.0068485998 0.014748689 -0.02047474 -0.020116214 0.014367047
0.016649209 -0.016723568 -0.01728581 -0.015283058 -0.023211155 -0.015181667 -0.016457196 0.016964687
0.0005020215 -0.023931516 0.010953493 0.019945228 -0.01682097 -0.0074074357 -0.01799793 -0.014858221
0.0050727143 0.012555528 0.0014662235 0.01358614 0.02073704 0.007097319 -0.012278947 -0.021329843
0.009288615 -0.015072002 -0.0122733805 -0.008414244 0.013518078 0.001469872 -0.020937162 0.015019873
0.017804926 -0.018248208 -0.02317523 -0.0018327052 -0.016592214 -0.019132204 -0.019448802 -0.012763531
0.017921189 0.0017340059 -0.0111878645 0.007055304 0.006166184 -0.013663569 -0.013872709 -0.0071132327

layers.2.running_mean f4 [128]
00000000: 9d3c 9bcf 76d4 9d50 fec0 59cf 7507 c150
00000010: 07c9 76cf f43f 05d0 afdc a050 950c dfcf
00000020: bad4 98cf 57f4 87cf 2266 7ccf dc10 8050
00000030: e84a 10d0 f63d b550 1f4f 9fcf fac3 e550
00000040: eb50 a3cf f8da 1ccf 1ae3 a050 e026 1acf
00000050: 56e6 d0ce 23a6 21cf fc03 84cf b304 e750
00000060: c6c1 5351 b3f8 e550 96f5 32cf 18bf afcf
00000070: 3690 7ecf 1bee 2551 caba 75cf 672a 3acf
00000080: 8936 1cd0 4fdd 26d0 cbfa ae50 2f6e e550
00000090: ea4d eb50 b79d 7750 5423 f350 db44 ed50
000000a0: de07 9050 2cbd b750 fa69 a9cf 59ff 09d0
000000b0: 8ee5 db50 08d1 0c51 fcb1 bccf 9afe e350
000000c0: 3434 a4cf f51a dbcf 34b9 d350 cc13 8ecf
000000d0: b133 e54f aed0 8c50 c3d7 4a50 53df a050
000000e0: d368 24d0 2d54 d0cf 33b1 d150 f376 8ecf
000000f0: 4bf9 e450 a553 86cf be86 9d50 6592 8550
00000100: 4eb4 00cf 7955 9bce fe44 f3cf 42f5 0e50
00000110: 8625 bdcf e584 efcf a472 7d50 0944 bbcf
00000120: 1a3d bf50 73a0 0ecf 4519 41cf df9d c050
00000130: 15e4 5b50 ad6f 73cf e995 4ccf f9c5 8d50
00000140: 681e 0551 ba95 fb50 914b a0cf 4d42 84cf
00000150: 2c4a e8cf 03c5 46cf 3327 82cf 22a3 c750
00000160: 1cb3 a74f da37 b8cf 3a51 a150 e636 8650
00000170: c02f c5cf 08be 31cf debf 8ecf 8bcc 01d0
00000180: 9212 e7cf b9d1 ba50 8ca6 4351 3911 8d50
00000190: 47e1 b650 60e3 e050 91dd 9fcf 250f a9cf
000001a0: e435 9650 f8b4 76cf cb96 3650 c541 c3cf
000001b0: c194 3051 16ae f150 03b5 a6cf 0a8d f050
000001c0: 5c56 9450 134d 0bcf 05d9 7ccf 1a2a efcf
000001d0: b193 afce 72c0 8d50 3981 42cf cafd 7b50
000001e0: cd4d 0150 0862 a3cf fbcc c8cf e220 7ccf
000001f0: 28f3 3a51 2bd4 b550 df14 8acf b6ff 0acf
-5.2088817e+09 2.1183574e+10 -3.6533038e+09 2.5907931e+10 -4.1403697e+09 -8.942244e+09 2.1590538e+10 -7.4842875e+09
-5.128156e+09 -4.5618744e+09 -4.2345518e+09 1.7188708e+10 -9.683313e+09 2.4325894e+10 -5.345525e+09 3.0838608e+10
-5.4799785e+09 -2.631596e+09 2.1593903e+10 -2.586239e+09 -1.7523781e+09 -2.7120197e+09 -4.4297073e+09 3.1006759e+10
5.6843067e+10 3.086625e+10 -3.0024392e+09 -5.8970726e+09 -4.270864e+09 4.454152e+10 -4.1226593e+09 -3.123341e+09
-1.0483279e+10 -1.1198086e+10 2.3485372e+10 3.0793628e+10 3.1582015e+10 1.6617233e+10 3.263343e+10 3.1845702e+10
1.9331478e+10 2.4661025e+10 -5.6845896e+09 -9.260852e+09 2.9514035e+10 3.780015e+10 -6.331562e+09 3.0600909e+10
-5.509769e+09 -7.351954e+09 2.841704e+10 -4.767324e+09 7.69074e+09 1.889989e+10 1.3612551e+10 2.1591923e+10
-1.1033333e+10 -6.990355e+09 2.8144409e+10 -4.7803203e+09 3.0732343e+10 -4.5072573e+09 2.1142827e+10 1.792771e+10
-2.1593e+09 -1.303035e+09 -8.16277e+09 9.593752e+09 -6.346706e+09 -8.036928e+09 1.7008595e+10 -6.2835963e+09
2.566762e+10 -2.3928799e+09 -3.2396588e+09 2.5852574e+10 1.4756632e+10 -4.0841823e+09 -3.4323766e+09 1.9028494e+10
3.57338e+10 3.376715e+10 -5.378614e+09 -4.437875e+09 -7.79435e+09 -3.3348001e+09 -4.367214e+09 2.6794856e+10
5.6270664e+09 -6.181336e+09 2.165164e+10 1.8013958e+10 -6.616482e+09 -2.982021e+09 -4.789878e+09 -8.710663e+09
-7.753508e+09 2.5074452e+10 5.251955e+10 1.893373e+10 2.4545737e+10 3.0183981e+10 -5.364196e+09 -5.672684e+09
2.0160913e+10 -4.139055e+09 1.2253343e+10 -6.551735e+09 4.740062e+10 3.2437744e+10 -5.5937613e+09 3.22862e+10
1.99095e+10 -2.3370842e+09 -4.242081e+09 -8.0250276e+09 -1.472846e+09 1.9025596e+10 -3.2632486e+09 1.6910854e+10
8.677438e+09 -5.4822216e+09 -6.7377536e+09 -4.2300134e+09 5.0183963e+10 2.4404646e+10 -4.633247e+09 -2.332014e+09

layers.2.running_var f4 [128]
00000000: 5743 a55d 42c4 b05f 130e 3e5d 517d 0360
00000010: 7654 575d 6fbe 625e d486 cd5f 7843 715e
00000020: 5177 a55d 37c6 805e 02e8 625d 8133 b25f
00000030: 4168 955e d782 e15f e055 a95d 26de 3860
00000040: bb86 c65d 615b 0a5d c736 c45f e967 cf5c
00000050: e684 5b5c 2206 eb5c e89b 805d bb7b 4460
00000060: ed3a 1361 8876 3560 767b 075d 7861 de5d
00000070: f97c 735d 3e87 aa60 eeb5 665d 4d27 0b5d
00000080: 9ff7 9c5e 7646 bb5e 2f4c d05f e797 3a60
00000090: 8460 4b60 05e6 745f dede 4960 9b6b 3a60
000000a0: a5a4 995f 3c3e ef5f 5656 ba5d 2bda b85e
000000b0: 9fe8 2760 dd88 8960 3d70 e35d ee3f 2f60
000000c0: d19c b75d b7bb 495e 0739 1d60 6fb5 bd5d
000000d0: e721 3b5e b3df 8f5f 2847 395f 9434 c05f
000000e0: 0eed b45e fd6a 085e d8c8 2160 b3fb 8e5d
000000f0: bec4 3860 67af 8c5d 9826 ad5f cab4 965f
00000100: 5154 965c 3b3c 855c f9b9 475e bc10 c35e
00000110: 8115 ff5d 5ae8 565e 478c 815f 656e f25d
00000120: 8a07 f45f 88d7 b15c d365 155d 08ee 0560
00000130: 75f8 515f cced 505d ce1f 305d 07c0 8e5f
00000140: d1f2 bc60 9284 4660 a366 b05d 3141 8c5d
00000150: 28cd 3c5e 3ecd 1d5d 3d6b 865d 6017 0260
00000160: e7ef 895e 6b09 f15d cc0e bb5f 6102 935f
00000170: 888a 075e 72b8 b15d ee16 995d c0b0 625e
00000180: 6644 375e 35fe 0460 38b5 fc60 08a5 915f
00000190: 0413 e55f bb5f 2960 0565 a55d cc52 c05d
000001a0: 1daf fa5f 1f78 595d e5f2 bf5e 6183 025e
000001b0: 8904 c360 4f54 3e60 7800 b85d c5fe 6260
000001c0: 9bda b35f 0530 a85c a9a2 7d5d b124 3a5e
000001d0: 5790 2e5c d14c fc5f c7bb 195d d860 315f
000001e0: ba63 aa5e 3876 b15d a941 ff5d b250 715d
000001f0: 073a e760 cacc d45f e7fa 815d 3c2f 465d
1.4885572e+18 2.5474756e+19 8.559315e+17 3.7899273e+19 9.697598e+17 4.0846546e+18 2.9619515e+19 4.3462177e+18
1.490386e+18 4.6395823e+18 1.02189504e+18 2.5681498e+19 5.382963e+18 3.2499574e+19 1.5252381e+18 5.3284506e+19
1.7881659e+18 6.231043e+17 2.8277414e+19 4.6703656e+17 2.4715657e+17 5.292269e+17 1.158407e+18 5.663246e+19
1.6974484e+20 5.2303152e+19 6.101579e+17 2.0030276e+18 1.09657325e+18 9.830287e+19 1.03902846e+18 6.2669173e+17
5.655342e+18 6.7473015e+18 3.0018847e+19 5.3781877e+19 5.8619433e+19 1.7646798e+19 5.818523e+19 5.3732003e+19
2.214231e+19 3.4478565e+19 1.6783767e+18 6.660003e+18 4.839638e+19 7.928331e+19 2.0485833e+18 5.0512294e+19
1.653835e+18 3.6341034e+18 4.5316376e+19 1.7087443e+18 3.3710782e+18 2.0734403e+19 1.3350684e+19 2.7699715e+19
6.518546e+18 2.4574868e+18 4.663122e+19 1.2878782e+18 5.32559e+19 1.2671793e+18 2.4953654e+19 2.1719053e+19
3.3851163e+17 3.0001917e+17 3.597952e+18 7.0279706e+18 2.2975924e+18 3.8714316e+18 1.8669828e+19 2.1836264e+18
3.516835e+19 4.004644e+17 6.7282766e+17 3.860264e+19 1.5129972e+19 9.409321e+17 7.9319305e+17 2.0572458e+19
1.08921395e+20 5.7218875e+19 1.5888783e+18 1.2633016e+18 3.4011435e+18 7.106758e+17 1.2107378e+18 3.7496267e+19
4.9697084e+18 2.1710664e+18 2.695787e+19 2.1186272e+19 2.441692e+18 1.6007639e+18 1.3789083e+18 4.0836917e+18
3.301448e+18 3.833262e+19 1.4567618e+20 2.0989607e+19 3.3013083e+19 4.8818716e+19 1.4897422e+18 1.7322954e+18
3.6127377e+19 9.793943e+17 6.9156846e+18 2.3511168e+18 1.1242006e+20 5.4858695e+19 1.6573412e+18 6.542691e+19
2.5919683e+19 3.7872475e+17 1.14227225e+18 3.35326e+18 1.965414e+17 3.6360271e+19 6.9235416e+17 1.2781453e+19
6.138931e+18 1.5984337e+18 2.299146e+18 1.0867871e+18 1.332931e+20 3.0667706e+19 1.1707565e+18 8.925437e+17

layers.3.weight f4 [128, 128]
00000000: 3052 23bb d6de ba3b 8121 15bc 2180 e83a
00000010: f290 08bb 3225 67bb 0506 51b9 56da abbb
00000020: 2e48 11bc da13 16bb 8658 82bb b6ee 73bb
00000030: fac6 023b 061b 043b 332a c5ba d2c3 f1ba
00000040: d263 0bbc 6045 983b c5dc 333c e092 b0ba
00000050: ff88 553b 9037 8cbb 7a41 493b 12e2 6bbb
00000060: 1920 963a 5c8a f1b9 3111 6eb9 63aa f83a
00000070: 8139 17bc 1d95 983b bfc7 13bc 761f 10bc
00000080: fb46 fc39 9a2f 53ba 2c6b d538 bad8 2cba
00000090: f430 073a 7de5 023c e4c7 ec3b 2ebe c5bb
000000a0: b50f 7fba 5d96 103c 3b05 44bb 1056 73bc
000000b0: e3f7 333b a095 89bb fe79 f5ba e009 90ba
000000c0: 8ea9 a5ba 9db7 ba3a 4845 03bb bbf4 53bb
000000d0: 7324 9dba 7cd6 2bbb ce29 82bb ceb6 d83b
000000e0: 33a0 143b c5dc 343b 5a98 f0b9 7bdf 17bc
000000f0: 825b 80bb 5db5 87bb cf7c 3e3b 5209 6f3a
00000100: 2493 d1ba a090 063b 3249 d53a b807 633b
00000110: 2445 c33a 9082 8bba f0b1 3fbb 9392 9ebb
00000120: c208 753b dd3a a9ba d0cc 37bc 9cf1 23ba
00000130: e270 073b 11ef 26bc 3c3e bebb cec7 d03b
00000140: 03ad 633b c2a2 bcba 2c28 2cbc 19a5 c0bb
00000150: 1636 f0ba a2e7 83b9 d2d5 18ba efe0 fa3a
00000160: 6a28 453a e1b0 56bb ec3b 5d3a d450 0a3c
00000170: 6ca8 7ebb b0b5 97bb d153 b6bb 1c2b 9a3b
00000180: 2eef d83a 9313 04bc 1162 2dbb 85f5 963b
00000190: 18f5 c93b a8ba 8f39 3e9d 6ebb 90a7 913a
000001a0: 46ad f23a 2fdc e6ba f44c ca3a b49d e53b
000001b0: 406f 6c3b 071a beb9 ed09 88bb 29e4 0c3b
000001c0: dc9d bc3b f788 44bb 6aee 1dbc 9ffe 3eba
000001d0: 9722 0dbb ee1a 11ba 7d5a cfbb d35b c4bb
000001e0: a1b3 d13b 1547 7d3a d808 d3ba 869a cf39
000001f0: 1292 28ba 2171 d7bb 23aa 0abb d81e 1cba
00000200: 7776 38bc 0a7b fd3b 5447 a1bb 3dad 973b
00000210: fdb2 90bb 715e e9bb 7651 05ba d6f2 6839
00000220: 3824 babb 2efe 183b e993 2cbc 18a6 23bb
00000230: 4aff 04bc 8c29 223c 4881 f0bb c849 11b9
00000240: 00f7 5638 d706 6a39 1fbf b83b db7e a7b9
00000250: 73bc 903a 0e38 8abb 10c1 aabb 6ec3 923b
00000260: f1ac 243c 98c7 ef3b a35d 9539 08d4 dbbb
00000270: 14aa 81bb 907f c13b 3dda 38bb b59b abba
00000280: 1f9c d4bb 5d4f 87bb 486c 0d3c 9c36 533b
00000290: 102b 29b9 fc2c c83b 92e3 ae3b ad8c ea3b
000002a0: 8126 a03b 4608 c13b 4597 cfbb a83e ee3a
000002b0: 278c c83b 440c 813b a2f1 2dbc b14d c23b
000002c0: 854e e4bb c438 053a a2af 9b3b f537 9139
000002d0: 8df3 843b 7caa 253c 4a9f c8b9 0265 c939
000002e0: 47f2 d6bb 4c68 22bc d037 e13b 1852 dabb
000002f0: 880d 123c 9ef3 133b 63a0 4e3c 5f73 b03b
00000300: e393 8bbb b99a 8dba 2ba5 b6bb 4106 1d3b
00000310: 28da 82bb dace 85ba e4a4 4b3b 53af 9cbb
00000320: f698 ca3b 304e 5ebb 2450 9bb9 64b9 ad3b
00000330: 2b72 703b 53e8 29bb dcae f2bb 7131 fd3b
00000340: 1fd6 50bb 85ac cd3b 2510 c1bb cd2e 1dbc
00000350: 058b 55bb 2e82 0fbc b02b ebb9 5ca1 d93b
00000360: 3821 aa3a 7c48 32bb b310 263c c924 003c
00000370: fee0 2bbb 97d2 61bb 8e8c 6cbc a435 a6bb
00000380: 30c8 ccbb 7593 073c efe2 993b 9545 023c
00000390: f59e 323b 9aa4 d33b 1e00 08bc c658 c2bb
000003a0: 701b b7ba a0b5 17bc 0e77 dc3b 6ae6 a0bb
000003b0: 4627 b93b 9ae7 1f3c df09 cfbb 34ef d3b9
000003c0: 304c 8dba 34e6 c1bb 900e a7ba 2af2 99bb
000003d0: e21a 48bb b106 6fbb 6e59 c5bb b3a5 d93b
000003e0: 864d 453b 72c4 71bc 53b0 dfbb 5c44 8fbb
000003f0: a515 f33b 546d b73b 2e98 41bc 646a 1739
-0.0024920814 0.0057028336 -0.009102226 0.0017738381 -0.0020838347 -0.0035269973 -0.00019934036 -0.0052445335
-0.008867307 -0.0022900016 -0.003977838 -0.003722114 0.0019955025 0.0020157709 -0.0015042484 -0.00184452
-0.008507686 0.004646942 0.0109779285 -0.0013471507 0.0032582877 -0.0042790845 0.0030709193 -0.0035992903
0.0011453658 -0.00046070188 -0.00022703853 0.0018971678 -0.009230019 0.0046564476 -0.009019791 -0.008796563
0.0004811807 -0.00080561044 0.00010176594 -0.0006593574 0.0005157136 0.007989285 0.0072259773 -0.006034634
-0.00097298186 0.008824912 -0.0029910344 -0.014852062 0.0027460984 -0.004198745 -0.0018728373 -0.0010989271
-0.0012639032 0.0014245395 -0.0020030309 -0.0032341916 -0.0011989012 -0.0026220372 -0.0039722687 0.006613589
0.0022678494 0.002759741 -0.00045889878 -0.0092695905 -0.0039171586 -0.0041414932 0.002906609 0.00091185153
-0.0015989286 0.002053298 0.0016272424 0.0034642052 0.0014897925 -0.0010643769 -0.0029250346 -0.0048392504
0.0037389253 -0.0012911219 -0.011218265 -0.0006253959 0.0020666649 -0.010188834 -0.0058057588 0.006371475
0.0034740574 -0.0014391767 -0.010507625 -0.005879056 -0.0018326666 -0.00025158847 -0.00058302016 0.0019140522
0.0007520976 -0.0032759237 0.000843941 0.0084421225 -0.0038857711 -0.004629813 -0.005564191 0.004704846
0.0016550773 -0.0080613075 -0.0026456157 0.004606905 0.0061632507 0.00027414155 -0.0036409642 0.001111256
0.0018514774 -0.0017613227 0.0015434311 0.007007325 0.0036077052 -0.00036259016 -0.004151574 0.0021498299
0.005756123 -0.0029988864 -0.009639362 -0.00072858663 -0.002153551 -0.0005535324 -0.0063279257 -0.0059923916
0.0063995873 0.0009661776 -0.0016100658 0.00039597246 -0.00064304576 -0.0065747653 -0.0021158538 -0.0005955524
-0.011258713 0.0077356147 -0.004921833 0.004628806 -0.0044158683 -0.007121854 -0.0005085686 0.00022215708
-0.005680587 0.0023344862 -0.010533311 -0.0024970826 -0.008117506 0.009897601 -0.0073396303 -0.00013855763
5.1251613e-05 0.00022318527 0.005638018 -0.00031947237 0.001104249 -0.004218108 -0.005211003 0.0044788634
0.010050998 0.0073174946 0.0002848926 -0.0067086257 -0.0039570425 0.005905099 -0.0028206252 -0.0013092669
-0.0064883376 -0.004129334 0.008631773 0.0032228595 -0.00016133138 0.006108878 0.005337187 0.007157883
0.0048874025 0.005890879 -0.0063351714 0.0018176632 0.006120223 0.0039382298 -0.010616692 0.0059296717
-0.006967368 0.0005082006 0.0047511617 0.00027698246 0.004057354 0.010111447 -0.00038265652 0.00038412964
-0.0065596434 -0.009912562 0.0068731084 -0.0066626184 0.008914359 0.0022575627 0.012611481 0.005384847
-0.004259573 -0.0010803557 -0.005573889 0.0023960026 -0.0039932914 -0.0010208741 0.0031073624 -0.0047816425
0.006182785 -0.0033921115 -0.00029623613 0.0053016413 0.0036689143 -0.002592583 -0.007406099 0.007726841
-0.0031865907 0.0062766694 -0.005891817 -0.009593678 -0.0032584083 -0.008759065 -0.00044855243 0.00664155
0.0012979871 -0.0027203849 0.010135817 0.00782127 -0.0026226635 -0.0034457797 -0.014437808 -0.0050723124
-0.00624945 0.008274903 0.004696242 0.00795116 0.002725539 0.006458831 -0.008300809 -0.005930993
-0.0013969969 -0.009259611 0.0067280596 -0.00491028 0.0056504337 0.009759808 -0.0063183154 -0.00040423276
-0.0010780152 -0.005917335 -0.0012745429 -0.0046980577 -0.0030533602 -0.0036472494 -0.0060226237 0.0066420673
0.0030106022 -0.014756309 -0.0068264394 -0.0043721627 0.0074183517 0.0055977497 -0.011816068 0.00014440116

layers.3.bias f4 [128]
00000000: d74a 513d 88b6 743d 5c54 ad3c 5107 7dbc
00000010: 9967 6bbd b53a c53b 573e 6dbd 20f7 94bd
00000020: 2be0 263d cff2 583c 899d 70bd 5f5e be3b
00000030: 0071 97bd 63ed 313d 9273 5f3d aaa1 ca3b
00000040: 43ff 05bd f0e0 3dbc 835a 293d c8b6 d03b
00000050: ca88 933d f870 2bbd 3be2 8ebc 7e30 913d
00000060: 1a44 f83c 2781 27bd 2c64 8a3c 75fa 9fbc
00000070: 6b8c a8bc c1f6 86bd fd6c f63b ac42 82bd
00000080: e0d4 91bd b758 b43d cb48 033d 50c1 1ebd
00000090: b79f a53c ac7a 7c3d 416b 193d 4568 a3bc
000000a0: 38ba 803d 3cce 69bc a15d 87bc b084 223d
000000b0: 9305 dabc 2146 fa3a de65 91bd aa7d 2c3d
000000c0: 676c 58bd 62b0 f8bb 29d6 863d 0c6c 94bb
000000d0: 182a 0cbd d866 453d d93d 633d 17fe afba
000000e0: b50a 98bd e25b 40bd a6c9 743c fc08 283d
000000f0: 2a0e 67bd ca1b 863b 24ab 88bb e971 743d
00000100: 7b36 8fbd cb3b e8bb 3050 cf3c d9d7 2f3d
00000110: f34d 05bd e2bd 23bd f832 34bd edb2 133c
00000120: abf4 50bd 4e2a 3fbd 14d9 4abb 69da 71bb
00000130: 2fef e53c 4ad4 d43c d1f4 a43d ee62 933d
00000140: 769e 863d 626c 82bd 6a41 853d 4bc4 673c
00000150: 90dd 873c 603b c3bc 374d 533c f26c 22bd
00000160: a1c0 053d cc79 90bd 0e98 2d3d 43c5 d53a
00000170: 029e 85bd 8abf f53c 4350 733d d3ea 013d
00000180: 5485 11bd 2fb9 073d 2863 953d 1442 8dbb
00000190: 25e5 0ebd e809 813d 0558 8f3d 7b13 cf3b
000001a0: 9c64 14bc 050c 183c 64c1 05bd 897d 24bb
000001b0: e8eb 63bb c861 d6ba 9475 223d 690c 8c3d
000001c0: e291 5abc 52ad 8b3d 375e 03bd a09f 8e3d
000001d0: 4e06 94bd a0fb 253c 4e0c f6bb 92e8 55bd
000001e0: 1b4b 8a3c 457d 5d3d 2948 5abd 3f22 64bc
000001f0: 3652 f33c bbd4 04bd c686 203d 2f67 cbbc
0.051096763 0.059744388 0.02115839 -0.015443639 -0.057471845 0.0060189613 -0.05792078 -0.07273698
0.040741127 0.013241484 -0.058743987 0.0058095898 -0.073946 0.04343928 0.054553576 0.0061838226
-0.03271414 -0.011589274 0.041346084 0.0063694455 0.07203825 -0.041855782 -0.01744186 0.07089327
0.03030591 -0.040894654 0.016893469 -0.019528607 -0.020574769 -0.06590033 0.0075203166 -0.06360373
-0.07120681 0.088059835 0.032051843 -0.038758576 0.02021776 0.061640427 0.0374558 -0.01994718
0.062855184 -0.0142703615 -0.016524138 0.039677322 -0.026613986 0.0019094386 -0.07099508 0.04211203
-0.052837756 -0.007589386 0.065838166 -0.0045294818 -0.03421983 0.048193783 0.055478904 -0.0013427165
-0.07423917 -0.046962626 0.014940655 0.041024193 -0.056409992 0.004092668 -0.004170792 0.059678946
-0.06992813 -0.007087206 0.025306791 0.042930458 -0.03254504 -0.03997601 -0.04399392 0.009014827
-0.051014584 -0.046671204 -0.0030952143 -0.0036903864 0.028068153 0.025980134 0.080545075 0.07196604
0.06573193 -0.06368329 0.06506617 0.014145921 0.016585141 -0.023832023 0.012896827 -0.03965468
0.03265441 -0.07054481 0.04238134 0.0016309399 -0.06524278 0.02999856 0.059402715 0.031718086
-0.035527542 0.03313559 0.07294303 -0.0043108556 -0.034886498 0.063007176 0.0699921 0.006319461
-0.00905719 0.009280209 -0.032655135 -0.002509924 -0.0034778062 -0.0016356045 0.039662912 0.068383045
-0.013340445 0.068201676 -0.032072272 0.0696404 -0.07227765 0.010130793 -0.007508791 -0.05222375
0.016881516 0.054074544 -0.053291474 -0.0139241805 0.029702287 -0.032429438 0.03919103 -0.024829475

layers.6.weight f4 [128]
00000000: 27d8 723f bbc3 733f 0d92 743f 4879 723f
00000010: 4b3e 733f 8104 773f f6d7 763f 7085 733f
00000020: a25d 753f 7894 743f 4f9c 743f 7992 733f
00000030: 4908 753f 9005 743f f389 733f 60f5 743f
00000040: eb92 743f df0c 743f b38f 713f cfe1 723f
00000050: 8f1d 733f d602 753f 1915 743f c0f6 733f
00000060: e4a0 743f d594 743f 6da3 753f 4684 723f
00000070: ca6f 723f ba2b 743f 1682 733f 5efb 733f
00000080: 188e 773f 329f 733f eb9a 743f 7962 733f
00000090: b920 763f 84f3 733f e64d 753f a163 723f
000000a0: 87e8 723f a0eb 743f 0110 763f 991d 743f
000000b0: cf4c 753f 1899 753f 4dff 723f 36df 753f
000000c0: 048d 773f fed3 743f a62f 743f c8af 733f
000000d0: 5c2e 773f 395b 713f e6fe 753f 814d 733f
000000e0: 06c4 773f 5350 733f 003c 723f 0e37 743f
000000f0: 1b06 743f 9fc7 743f fa92 753f f98e 723f
00000100: 1591 743f df6f 733f e62f 773f 3b6b 763f
00000110: e422 743f 03e1 743f 2fc0 763f b0b1 773f
00000120: 9169 733f f4b8 733f d6a5 783f 0410 753f
00000130: 217a 723f 1c46 783f c630 753f cab7 733f
00000140: 3153 733f 7b1c 753f e88a 753f 18d2 753f
00000150: 0bc0 723f 1f67 743f 88c7 713f 1ee4 743f
00000160: b240 743f 1d5a 723f 2c2f 733f 35b9 783f
00000170: eec6 763f a774 753f ede4 753f 7231 783f
00000180: ea4b 753f 1ed1 763f 807e 753f fbf1 713f
00000190: 41b5 733f b829 743f 4805 773f fa42 743f
000001a0: 3432 753f f38a 793f 21c1 723f 382d 753f
000001b0: b50d 743f 94a9 773f 7bfb 713f 2a06 753f
000001c0: 787e 773f 1eb6 733f 5e92 743f 0e50 733f
000001d0: 5166 733f dd77 723f eb35 743f 0a6f 773f
000001e0: 1128 773f 3b8e 713f 3228 753f 3a27 733f
000001f0: 95c2 763f 9145 773f 62e4 723f 59f1 723f
0.9486107 0.95220536 0.95535356 0.9471631 0.95016927 0.9649125 0.9642328 0.95125484
0.95846 0.95539045 0.9555101 0.95145375 0.9571577 0.9532099 0.9513237 0.9568691
0.9553668 0.9533214 0.9435989 0.94875807 0.9496698 0.9570745 0.9534469 0.95298386
0.95558 0.955396 0.9595249 0.94733083 0.94701827 0.9537922 0.9512037 0.9530543
0.9670119 0.9516479 0.95548886 0.9507213 0.9614368 0.9529345 0.9582199 0.9468327
0.9488606 0.95672035 0.9611817 0.9535766 0.95820326 0.9593673 0.9492081 0.9604372
0.9669955 0.95635974 0.95385206 0.95190096 0.96555114 0.9427982 0.9609207 0.95040137
0.96783483 0.9504444 0.946228 0.95396507 0.95321816 0.956171 0.95927393 0.9474941
0.9553388 0.95092577 0.9655746 0.9625737 0.9536574 0.9565584 0.96387 0.96755505
0.95082957 0.9520409 0.97128046 0.9572756 0.94717604 0.9698198 0.9577755 0.95202315
0.95048815 0.9574658 0.9591508 0.960237 0.94824284 0.9546985 0.94445086 0.9566058
0.9541122 0.9466875 0.94993854 0.97157604 0.9639729 0.9588112 0.9605244 0.9695045
0.9581896 0.9641284 0.9589615 0.9450986 0.95198447 0.9537616 0.96492434 0.954147
0.9577973 0.97477645 0.9482594 0.95772123 0.95333415 0.9674313 0.94524354 0.9571253
0.9667735 0.95199764 0.9553584 0.9504403 0.95078 0.94714147 0.9539477 0.9665381
0.9654551 0.9435765 0.9576446 0.9498173 0.9639066 0.96590525 0.94879735 0.9489952

layers.6.bias f4 [128]
00000000: 6535 da3c 8025 063d 9b46 063d 42d0 dc3c
00000010: 5e4e febc 9bc6 123d 7a7b 0dbd 13c5 5bbc
00000020: 5516 d4bc d0d6 ecbc acb2 ca3c d741 18bd
00000030: a46b 12bd 2134 1c3d ace6 5f3c d68c ee3c
00000040: b411 c83c ee81 1abd ddb2 523c db09 ccbc
00000050: 7302 f03c be94 00bd edc6 be3c a23b cc3c
00000060: a818 f33c f6a1 03bd 2cc7 c63c a214 133c
00000070: 9c64 04bd e596 2d3c 6836 1d3c 0794 f4bc
00000080: df4b 08bd 0975 e9bc b88a ba3c 4ecb f9bc
00000090: 59e7 b6bc bd34 ee3c 24e2 0bbd 235b d23c
000000a0: e744 0c3d 37c9 f3bc 738f de3b 71fb d3bc
000000b0: b716 debc 87f0 b8bc 9767 c93c aee6 b7bc
000000c0: 521e 12bd 6254 ffbc 45a0 f53c c19c 0a3d
000000d0: 370b 1a3d 9b12 45bc 59e4 f6bc 61bc b93c
000000e0: 8ccb 113d 44c8 d73c 6df5 a13c ba9d 12bd
000000f0: b961 01bd e125 e33c 0309 0fbd cf23 2bbb
00000100: 77e4 f73c 8472 c23c 36b8 14bd 7e96 15bd
00000110: bafe 96bc b2d7 fd3c 892c 11bd c122 0f3d
00000120: c436 0cbd 28e2 b1bc 2cc4 07bd 10a3 fa3c
00000130: e464 abbc 4fe4 02bd 2ee1 0f3d b59c bf3c
00000140: a59f dc3c fc76 b53c fad2 da3c ce28 093d
00000150: ea68 343c db2f cf3c 6f47 3e3c 1086 1b3d
00000160: bd11 0cbd 4966 ebbc 3c86 6a3c 5ec0 d83c
00000170: 88dc 113d bbf1 90bc 8897 0e3d f641 04bd
00000180: bdc1 c8bc 98c3 0e3d bbea ca3c 2200 b53c
00000190: c2b6 0c3d 693e de3c 7237 133d 337b 043d
000001a0: 2a75 053d 57ef 043d af89 ee3c 379b fabc
000001b0: dfe7 083d c96e eabc 485e b83c 53a3 bb3c
000001c0: 13f7 0b3d 403f a8bc b27d 793c 3ed0 023d
000001d0: e3c3 eabc 6bb4 ac3c e487 b5bc 474e 12bd
000001e0: f830 0c3d 7ca5 283c fe4b 0b3d 1846 b3bc
000001f0: b458 13bd 0f33 f63c 1adf 01bb e896 8cbc
0.026636789 0.032750607 0.03278218 0.026954774 -0.031043228 0.035833936 -0.034541585 -0.013413685
-0.025889555 -0.028911024 0.0247434 -0.037172165 -0.035747185 0.03813565 0.013665836 0.02911989
0.024422504 -0.037721567 0.012860027 -0.024907043 0.029298043 -0.03139185 0.023288215 0.024930779
0.029674843 -0.03213688 0.024264894 0.008977087 -0.03232251 0.010595058 0.009595491 -0.029855741
-0.03327548 -0.02849819 0.022771224 -0.030492451 -0.022327112 0.029077882 -0.03415121 0.025678223
0.034245398 -0.029759033 0.006792003 -0.025876733 -0.02711044 -0.02257563 0.024585528 -0.022448864
-0.035673447 -0.031168167 0.029983649 0.0338409 0.03760835 -0.012028362 -0.030138182 0.022672834
0.035594508 0.026340611 0.019770348 -0.03579495 -0.031587336 0.027728023 -0.034920704 -0.0026113873
0.030260308 0.023736246 -0.03630849 -0.036520474 -0.01843201 0.03098664 -0.035442863 0.034945253
-0.034231916 -0.021714285 -0.03314607 0.030595332 -0.020922132 -0.031956013 0.035126857 0.023390153
0.026931593 0.022151463 0.02671193 0.03348618 0.011011342 0.025291374 0.011613711 0.03796965
-0.034196604 -0.028735297 0.0143142305 0.026458915 0.035610706 -0.017693391 0.03481248 -0.032289468
-0.024506444 0.0348545 0.024770131 0.02209479 0.03435398 0.027129369 0.03594155 0.032344054
0.03258244 0.032454815 0.029118387 -0.03059159 0.033424255 -0.02861728 0.022505894 0.022905027
0.034171175 -0.020537972 0.015227722 0.031936876 -0.02865786 0.021082124 -0.022159524 -0.035719182
0.034226388 0.010293361 0.03400802 -0.02188401 -0.035973266 0.030053644 -0.0019816817 -0.017161801

layers.6.running_mean f4 [128]
00000000: 155d 853d e621 5b3d b001 85bd 24fc 813c
00000010: ced1 7fbd 5e46 e53c 02e0 8dbd 7ec0 433e
00000020: c956 253d 72c6 0fbd 9b9e 2e3c b6c9 12bd
00000030: c526 e0bd 9476 933d 4e39 ad3d 1131 a3bb
00000040: 587b 783c e93a 3fbd b609 4d3c e832 493d
00000050: 0a84 dc3d 0e8e 9bbd 340d 8c3d bf67 c13d
00000060: 85b3 5b3d 4f8c 74bd c488 9d3c 972c 9dbd
00000070: b042 94bd 18df b73c bcfe c6bc a6f0 abbd
00000080: b63c a7bd ac5e 983d 0674 383d c4b2 98bd
00000090: 39d6 29bc 85ba d73d 6b86 29bd 7a8a 543c
000000a0: 8cd9 b63d cae1 66bd 0206 51be 0ec3 0a3c
000000b0: 69ec 283c 2559 61bd 6140 60bd 766d e73c
000000c0: 3be6 8fbd 767f f13d 0302 8b3d 10eb 943c
000000d0: 1dd5 da3d d981 ba3d 90b0 6f3c 6ad0 523c
000000e0: f299 77bd feb4 e6bb 6335 e1bd 5fc6 5d3c
000000f0: 06f5 97bd 5bc5 963c 84a7 2cbd f135 7e3d
00000100: dd1b 25bd 5c26 0c3d cc98 adba e09f 803b
00000110: c6d4 19bd fce7 3ebb aade 93bd fdac 373d
00000120: 2fcd 8abd 15ff 52bd 46df a4bc e843 233d
00000130: 56da 2bbc 03a1 993c 3175 bf3d 590d a43d
00000140: febb ae3d 74d0 f4bc 8782 af3d 24e0 613c
00000150: 5292 cb3c a242 9c3b 6b74 a03d d2d9 b1bc
00000160: 004d 353d 0890 75bd 91b4 a63d 0a1e fb3c
00000170: b3f2 57bd d870 893c b8ba bf3d 4f87 9e3c
00000180: 5cd3 2bbd de6e e43d 968f b03d 2ca0 fbbd
00000190: caac 963b 90e4 9b3d feb6 d83d 0e50 fcbd
000001a0: 0406 b8bd cce5 a23d deba e9bd b29c 4fbc
000001b0: 202b 673c 0e1a 88bc 7e81 af3d 5767 8c3d
000001c0: bb83 463d e55e 42bd 244f dfbb fe37 f33d
000001d0: 5c35 d2bd 4184 3d3d 4e44 62bc b7d2 a4bc
000001e0: 3995 2b3d eafe 91bd 23bc fabd 41b3 55bd
000001f0: 8a9b 843c a394 bdbc 75af 8c3d 6f16 8c3d
0.065118946 0.053499125 -0.064944625 0.0158673 -0.062455945 0.027987655 -0.06927492 0.19116399
0.040365968 -0.03510136 0.010657932 -0.035836898 -0.10944895 0.07200351 0.084581956 -0.0049802144
0.015166126 -0.04668704 0.012514522 0.049120814 0.10767372 -0.07595454 0.06838456 0.09443616
0.053638 -0.05970412 0.019230254 -0.076745205 -0.07239282 0.022445247 -0.024291389 -0.083955094
-0.081658766 0.07439932 0.045032524 -0.07455972 -0.010366016 0.10533623 -0.041387957 0.0129724685
0.089282125 -0.056367673 -0.20412448 0.008469356 0.010310271 -0.055016655 -0.054748897 0.028250437
-0.07026335 0.11791889 0.06787493 0.018178493 0.106851794 0.09106798 0.014629498 0.012867073
-0.060449548 -0.007040619 -0.10996511 0.013536065 -0.074197814 0.018404653 -0.042151943 0.06206316
-0.040309776 0.03421627 -0.001324439 0.0039253086 -0.037556432 -0.0029129973 -0.07220204 0.04484271
-0.06777417 -0.051512796 -0.020125996 0.039859682 -0.010489067 0.018753534 0.09348524 0.08010358
0.085319504 -0.029884554 0.08569818 0.013786349 0.024850044 0.0047686854 0.07834705 -0.02171031
0.044262886 -0.059951812 0.08139909 0.030653972 -0.05272169 0.01677744 0.09361786 0.01935163
-0.041949615 0.11153959 0.08621137 -0.1228641 0.004598235 0.07611954 0.10581778 -0.12319957
-0.089855224 0.079539865 -0.11412595 -0.012671636 0.014109403 -0.016613986 0.085696205 0.06855648
0.04846547 -0.04745378 -0.006814854 0.11875914 -0.10264084 0.046268705 -0.01381023 -0.020120008
0.041890357 -0.07128699 -0.122429155 -0.052172903 0.016187448 -0.023142165 0.06869403 0.06840216

layers.6.running_var f4 [128]
00000000: ae33 043e 3b1f 233e 7430 8c3e c22a 033e
00000010: 2e8f be3d 44fa 2d3e 525b cc3d 0490 133f
00000020: df30 203e 9b1c 243e abd5 423e d6ca 2b3e
00000030: e595 493e bf24 193e 2ee5 923e 7c46 da3d
00000040: 79be 403e 0a8c 2d3e 4d3a b33d ff0a 133e
00000050: fd20 c13d 2444 d93d 1e50 683e e72d 353e
00000060: e847 113e 3e07 393e f3f8 1e3e 23d6 9d3e
00000070: 2f60 083e 50a9 6f3e 07b3 583e 7a2f 0a3e
00000080: 9e96 bb3d 928e e13c 6e35 1b3e 031a 213e
00000090: 13e7 cc3d de36 6e3e 376a 6b3e 05c2 d13d
000000a0: 6123 c23d ae90 233e b5c5 273f dc8e e73d
000000b0: ed4a 6a3e 9aa4 023e aed5 883d 138d 483d
000000c0: fca6 5c3e ec3b e33e 39e9 3b3d 3d3f 6f3e
000000d0: b6d6 9c3e 6058 493e 5e07 f13d 0351 d63d
000000e0: 3495 ea3d 7371 1a3e 637f c53e 57be 9f3d
000000f0: bba3 1c3e 6382 e13d eff1 623e 5c6d 4e3e
00000100: 5375 223e d5a3 563e 48ba 023e 5a34 223e
00000110: a904 d43d 8de9 163e 8aa0 1a3e 550c 973e
00000120: 7007 f13d 696e 2f3d c8c8 2a3e 9487 1c3e
00000130: 5976 2b3e 9e41 393d 85f4 3f3e 8072 4b3e
00000140: f692 363e 2426 713e 91b9 183e 7f87 d93d
00000150: cef3 a03d 0b35 a63d 6911 5c3e d373 a83d
00000160: 6839 023e 4d75 813d 6ab3 283e 1f0d 223e
00000170: 8166 293d ba3f a23d 763d 8f3e 02ea 5a3d
00000180: 8632 023e 3837 813e 032c a33d 2a42 bf3e
00000190: b783 0a3e 2b3f 863d 395f 503e f672 0d3f
000001a0: c68c ca3e df12 ae3e 5184 eb3e 4670 8a3d
000001b0: 9e60 993d bfc2 bf3d eb2a 793e dafd 923d
000001c0: 7053 2c3e d9c5 8b3e 2f6b ac3d 8aad 613e
000001d0: 2b58 013e 51ae 483e ca4c 0f3e 86d3 803e
000001e0: 5e38 093e 49fb b83e 468b b43e 7dc4 a13d
000001f0: 01f4 c83d 8b74 3a3e 12cc 353e 25a8 a03e
0.12910339 0.15929882 0.27380717 0.1280928 0.09304653 0.1699 0.099783555 0.57641625
0.15643643 0.16026537 0.1902682 0.16776595 0.19686086 0.14955424 0.28690475 0.10657975
0.1882266 0.16947952 0.08751354 0.14359663 0.0943012 0.106087 0.22686812 0.17693292
0.14187586 0.18069169 0.15524654 0.30827436 0.13317941 0.23404431 0.21162044 0.13494673
0.09159587 0.027533803 0.151571 0.15732579 0.100050114 0.23263118 0.22989736 0.102420844
0.09479404 0.1597316 0.6553605 0.11306545 0.22880144 0.12758103 0.06681381 0.048962664
0.21548074 0.44381654 0.045876715 0.23363967 0.3063256 0.19662619 0.11768983 0.104646705
0.114542395 0.1508234 0.3857375 0.07799976 0.15296833 0.110111974 0.22162603 0.20158905
0.15865068 0.20960934 0.12766373 0.15840283 0.10352451 0.1473753 0.15100303 0.29501596
0.11768997 0.042829905 0.16678154 0.15286094 0.16744365 0.045228593 0.1874562 0.19867897
0.17829499 0.23549706 0.14914538 0.10621547 0.07859002 0.08115586 0.21491016 0.08225217
0.12717211 0.063212015 0.16474691 0.15825318 0.04135752 0.07922311 0.27976578 0.053445823
0.12714586 0.2523744 0.07967379 0.37355167 0.13526808 0.06555017 0.20348825 0.5525354
0.39560527 0.33998773 0.45999387 0.06759696 0.074891314 0.09363317 0.24332778 0.071773246
0.16828704 0.27299383 0.08418881 0.22038856 0.1263129 0.19597746 0.13994136 0.2516138
0.13400409 0.36129215 0.35262507 0.07898805 0.09812165 0.1820852 0.17753628 0.31378284
