ddpg/model_params/twitter_ddpg_28_110_critic.pth (torch, 390114 bytes, 17 tensors)

state_input.weight f4 [128, 65]
000000 e4 c2 82 3c 33 c4 82 3c 38 c4 82 3c 36 c4 82 bc
       0.015962072 0.015962696 0.015962705 -0.015962701
000010 42 6e 7a 3c 28 c4 82 3c 8e b8 82 bc 37 c4 82 3c
       0.015285077 0.015962675 -0.015957143 0.015962703
000020 3c c4 82 bc 14 c4 82 3c c6 b9 82 bc 14 c4 82 bc
       -0.015962712 0.015962638 -0.015957724 -0.015962638
000030 8f ab 82 bc 27 1e 82 3c 99 20 a8 ad db c3 82 3c
       -0.015950946 0.015883518 -1.9113865e-11 0.015962532
000040 36 c4 82 3c 25 c4 82 3c ae 95 b9 ad 2b 59 20 2d
       0.015962701 0.01596267 -2.1098536e-11 9.114746e-12
000050 fc bf 82 bc 0c 5e 47 2b f2 9f 82 3c d8 96 48 2e
       -0.015960686 7.082952e-13 0.015945408 4.560871e-11
000060 22 ac 74 3c 89 b9 82 bc d5 72 3c 2e 70 2f d2 29
       0.014933618 -0.01595761 4.2848242e-11 9.3341025e-14
000070 c3 72 d6 ae fb 26 17 2c 4c bd 3e ad ca b9 82 bc
       -9.751979e-11 2.148003e-12 -1.0842282e-11 -0.015957732
000080 c0 54 c1 a9 12 a1 82 3c a3 b2 80 3c 3a 81 7f 3c
       -8.5856235e-14 0.015945945 0.01571018 0.015594775
000090 50 d7 32 ac 50 c1 09 2d 68 b6 82 3c 9f ef 12 2e
       -2.5414844e-12 7.830472e-12 0.015956119 3.3409383e-11
0000a0 ad d7 55 ad d8 88 fc ae f7 2e 4a 2d 5a d1 08 ac
       -1.2155538e-11 -1.14839416e-10 1.1492799e-11 -1.9442976e-12
0000b0 e3 c3 82 3c 24 76 65 ad a4 c9 69 ad 36 84 d1 ad
       0.015962547 -1.3043375e-11 -1.328929e-11 -2.3819263e-11
0000c0 2c 3d a6 ad 23 f6 1a 2e c0 a9 14 2e c7 2f 57 2e
       -1.889918e-11 3.523416e-11 3.3802072e-11 4.8927775e-11
0000d0 ad 3b 3b 2d 18 c4 82 3c c9 f4 82 ad 35 96 82 3c
       1.064297e-11 0.015962645 -1.4887995e-11 0.015940765
0000e0 6f 9f 82 3c 9a 52 82 3c 23 c4 82 3c 84 b1 82 bc
       0.015945164 0.015908528 0.015962666 -0.015953787
0000f0 33 c4 82 3c 6e 9f 82 3c 5a 99 cb ac 53 26 10 2d
       0.015962696 0.015945163 -5.7866325e-12 8.193962e-12
000100 59 c8 3e 2c 70 c9 77 bc b9 c9 77 bc ba c9 77 bc
       2.711184e-12 -0.01512371 -0.015123778 -0.015123779
000110 b2 c9 77 3c e5 8e 76 bc c7 c9 77 bc 1f c7 77 3c
       0.0151237715 -0.015048717 -0.015123791 0.015123158
000120 be c9 77 bc ba c9 77 3c 9e c9 77 bc 2a c7 77 3c
       -0.015123783 0.015123779 -0.015123753 0.015123168
000130 8a c9 77 3c 2c c3 77 3c 70 a0 77 bc 17 91 31 2d
       0.015123734 0.015122216 -0.015113935 1.00935016e-11
000140 80 c9 77 bc b8 c9 77 bc c4 c9 77 bc 64 ad 4d ab
       -0.015123725 -0.015123777 -0.015123788 -7.307126e-13
000150 56 64 02 ac 90 c8 77 3c 35 0f 99 ac 3a c1 77 bc
       -1.8529809e-12 0.015123501 -4.35021e-12 -0.015121752
000160 2b 3f bf 2c c4 a2 75 bc 0b c7 77 3c 69 06 ad 2c
       5.4355596e-12 -0.01499242 0.015123139 4.9176674e-12
000170 52 fd 57 ad ac c1 89 2b 3b b0 35 ad d5 85 cb ad
       -1.22775835e-11 9.78819e-13 -1.032779e-11 -2.3137861e-11
000180 1b c7 77 3c 58 e8 47 2e 70 c1 77 bc fe 44 77 bc
       0.015123154 4.5453724e-11 -0.015121803 -0.015092133
000190 c6 07 77 bc 86 eb 85 2c 89 8b 50 ab d6 c6 77 bc
       -0.015077537 3.8062357e-12 -7.409009e-13 -0.01512309
0001a0 55 8a 0f ae 3a af 0e 2c 4c 85 74 3c ed 18 6e 3c
       -3.26373e-11 2.0276684e-12 0.014924359 0.01453231
0001b0 3c 8a 28 ac 66 c7 77 bc f4 a3 79 2d 32 db 09 2c
       -2.3950971e-12 -0.015123224 1.4190416e-11 1.9590549e-12
0001c0 60 f7 78 ac e3 b3 22 2d 35 a9 94 2d 31 2f 11 2d
       -3.538024e-12 9.248577e-12 1.6900795e-11 8.252774e-12
0001d0 22 82 02 2a 9f dc b2 2d cb c9 77 bc 86 1a 0b ae
       1.1591468e-13 2.0334233e-11 -0.015123795 -3.16285e-11
0001e0 4c bf 77 bc ee c0 77 bc fa aa 77 bc b5 c9 77 bc
       -0.015121292 -0.015121682 -0.015116448 -0.015123774
0001f0 22 c5 77 3c bb c9 77 bc f6 c0 77 bc 95 64 30 2d
       0.015122684 -0.01512378 -0.015121689 1.0026775e-11
000200 90 54 15 ae 8f 0c 37 2d 88 6e 89 3c 90 6e 89 3c
       -3.3953784e-11 1.0405134e-11 0.016776338 0.016776353
000210 90 6e 89 3c 8f 6e 89 3c 7d 59 89 3c 90 6e 89 3c
       0.016776353 0.016776351 0.016766304 0.016776353
000220 d6 62 89 3c 90 6e 89 bc 8f 6e 89 bc 90 6e 89 bc
       0.016770761 -0.016776353 -0.016776351 -0.016776353
000230 5c 6e 89 bc 8a 6e 89 bc 86 6e 89 bc 90 6e 89 bc
       -0.016776256 -0.016776342 -0.016776334 -0.016776353
000240 f7 ce cd ad 8c 6e 89 3c 90 6e 89 3c 8f 6e 89 3c
       -2.3397713e-11 0.016776346 0.016776353 0.016776351
000250 90 6e 89 bc 00 d4 34 2e 77 6e 89 bc 4a db b0 2c
       -0.016776353 4.1115555e-11 -0.016776307 5.026567e-12
000260 40 6e 89 3c 46 a8 43 2d 3e 22 89 3c 41 6e 89 bc
       0.016776204 1.1121831e-11 0.01673996 -0.016776206
000270 7d cf e5 ad e8 4b 9a ad be f4 15 2f 3a e7 06 ad
       -2.612643e-11 -1.7541482e-11 1.3638421e-10 -7.668361e-12
000280 1f 20 e4 2c 6b 6e 89 bc 56 fb 88 3c 43 6e 89 3c
       6.483716e-12 -0.016776284 0.016721409 0.01677621
000290 55 62 89 3c b2 5c 89 3c 90 11 07 ad 7b 01 4a 2d
       0.016770521 0.016767833 -7.677761e-12 1.1482699e-11
0002a0 8b 6e 89 bc 28 ca ce aa ef 3f ad 2d 25 36 cd ac
       -0.016776344 -3.6733225e-13 1.9696215e-11 -5.8324617e-12
0002b0 0e 21 da aa da 48 32 ab 8f 6e 89 3c 18 b0 fe ad
       -3.8747515e-13 -6.3339405e-13 0.016776351 -2.8954658e-11
0002c0 09 23 88 ad 15 0f ac ac 1a 97 d3 2b dc 63 8c 2b
       -1.5476969e-11 -4.8902085e-12 1.5034391e-12 9.975315e-13
0002d0 9a 21 41 ad fc ba e6 2d 38 41 54 ab 8e 6e 89 3c
       -1.0978241e-11 2.623101e-11 -7.540804e-13 0.01677635
0002e0 00 80 c1 2d e5 6d 89 3c 3f 6e 89 3c 49 6e 89 3c
       2.1998403e-11 0.016776035 0.016776202 0.01677622
0002f0 8f 6e 89 3c 4b 6e 89 3c 90 6e 89 3c 3f 6e 89 3c
       0.016776351 0.016776225 0.016776353 0.016776202
000300 99 44 3e 2c ee b2 9c ad 81 92 8b ad 40 7f 86 bc
       2.7038703e-12 -1.7814607e-11 -1.5867531e-11 -0.0164181
000310 40 7f 86 bc 3f 7f 86 bc 40 7f 86 3c 16 75 86 bc
       -0.0164181 -0.016418098 0.0164181 -0.016413253
000320 40 7f 86 bc 12 7f 86 3c 41 7f 86 3c 40 7f 86 3c
       -0.0164181 0.016418014 0.016418101 0.0164181
000330 41 7f 86 3c 28 7f 86 3c 40 7f 86 3c ec 7e 86 3c
       0.016418101 0.016418055 0.0164181 0.016417943
000340 41 7f 86 3c b5 d6 98 ac 40 7f 86 bc 41 7f 86 bc
       0.016418101 -4.343937e-12 -0.0164181 -0.016418101
000350 41 7f 86 bc 41 7f 86 3c 82 a1 f0 2c 0d 7f 86 bc
       -0.016418101 0.016418101 6.8391412e-12 -0.016418004
000360 9d 1f 44 ad 0c 7f 86 bc 7d 43 09 ac 40 3c 86 3c
       -1.114833e-11 -0.016418003 -1.9506334e-12 0.016386151
000370 19 7f 86 3c 0f 3d 3f ac 3d 81 9c 2c 11 25 88 ad
       0.016418027 -2.7176627e-12 4.448135e-12 -1.547787e-11
000380 ee 1a 57 ad 0a dc 26 ad 19 7f 86 3c 71 f9 df ad
       -1.2227315e-11 -9.484866e-12 0.016418027 -2.5462939e-11
000390 0e 7f 86 bc e8 79 86 bc 6a 77 86 bc 00 43 ee 2c
       -0.016418006 -0.016415551 -0.016414363 6.7718053e-12
0003a0 50 a4 b0 ac 3a 7f 86 3c 66 cb 16 2d 01 ff 97 ae
       -5.020463e-12 0.016418088 8.571676e-12 -6.911983e-11
0003b0 44 02 ce ac ac 94 b6 ab f6 da be ab 40 7f 86 3c
       -5.8551237e-12 -1.2973143e-12 -1.3561086e-12 0.0164181
0003c0 58 85 15 ae 58 05 b9 2d 00 bb 0a 2d 34 55 70 2b
       -3.399711e-11 2.1034438e-11 7.885914e-12 8.538337e-13
0003d0 ec c1 8d 2d 16 89 2e 2c ab a7 50 ad 2c 96 a8 2a
       1.6115963e-11 2.4802985e-12 -1.1860661e-11 2.9946998e-13
0003e0 41 7f 86 bc 3a ef db ab 0a 7f 86 bc 0a 7f 86 bc
       -0.016418101 -1.5627285e-12 -0.016417999 -0.016417999
0003f0 07 7f 86 bc 42 7f 86 bc 2b 76 86 3c 41 7f 86 bc
       -0.016417993 -0.016418103 0.016413769 -0.016418101

state_input.bias f4 [128]
000000 da da a1 b7 5c 7a db 37 8b 5a 71 bb 9b b3 0b 3c
       -1.9294606e-05 2.6163812e-05 -0.003682765 0.008526708
000010 2d 8e d4 38 41 52 1e 3c c9 10 d3 37 32 6f 6a 3a
       0.0001013543 0.009663166 2.5160976e-05 0.0008942961
000020 5e 60 6c 2f 9e c4 60 36 35 f0 68 bc 86 33 d2 bb
       2.1498311e-10 3.3493047e-06 -0.014217426 -0.0064148335
000030 66 c0 80 34 08 d2 fb b6 fa 44 18 b1 23 f3 5e 38
       2.3981846e-07 -7.504834e-06 -2.215812e-09 5.3155363e-05
000040 31 83 f9 32 5c a5 44 b3 10 b2 86 3a d5 fb ca b3
       2.9047074e-08 -4.57852e-08 0.0010276455 -9.452166e-08
000050 89 7e 0c b5 74 23 6a 38 f3 cd 2d bc 38 5e 5f bc
       -5.2338197e-07 5.5822966e-05 -0.010608184 -0.013633303
000060 76 ec 1a 31 2d 6f a9 b5 8a fb 31 b4 8e 33 68 b3
       2.2544362e-09 -1.2623838e-06 -1.6575919e-07 -5.4063598e-08
000070 26 94 26 b2 25 9f a8 b6 7e cb 70 3b 8f 06 8f 2f
       -9.696157e-09 -5.025317e-06 0.0036742385 2.601621e-10
000080 5a d4 13 b6 2b 7c b2 bb d2 3f 07 39 be 36 31 2f
       -2.2028312e-06 -0.005446931 0.00012898378 1.6117505e-10
000090 f3 c1 5e 34 90 af a3 3b bd 6e 3c 33 20 52 ec b4
       2.074592e-07 0.004995294 4.3872877e-08 -4.401818e-07
0000a0 b9 5c ba 33 63 35 5e 3a 76 79 1d 34 94 02 4e b1
       8.678166e-08 0.0008476583 1.4665952e-07 -2.997841e-09
0000b0 76 1e 0f b2 a9 05 3a 36 40 f1 33 35 5b 39 5e 35
       -8.3306215e-09 2.7719454e-06 6.703376e-07 8.278491e-07
0000c0 46 72 d2 34 5b f3 44 31 aa 1c 9f b6 aa a8 a6 b3
       3.9198693e-07 2.8660085e-09 -4.741906e-06 -7.760657e-08
0000d0 6a 9c 67 b9 a4 ad 42 b7 90 4f d2 3a a5 13 bd 34
       -0.00022088145 -1.160373e-05 0.001604544 3.5218287e-07
0000e0 0a 71 37 b9 e0 9d 0c 34 be a3 f4 b9 bb b7 84 34
       -0.0001749435 1.309595e-07 -0.00046661304 2.4720597e-07
0000f0 b0 52 c7 30 3a ba 95 bb 52 4a 13 b4 f4 d0 15 af
       1.4502657e-09 -0.004569319 -1.371748e-07 -1.3625706e-10
000100 05 96 bb b4 a3 46 ce b7 fb 51 f8 33 54 bd b5 2d
       -3.4940618e-07 -2.4590006e-05 1.1563312e-07 2.0661396e-11
000110 3e 54 44 b5 5a 95 4b 35 67 63 06 b3 61 23 87 3c
       -7.313828e-07 7.584073e-07 -3.1289712e-08 0.016496362
000120 16 57 52 32 2f 66 36 3c 77 12 2a b7 81 07 26 38
       1.224341e-08 0.011132761 -1.0137089e-05 3.9584473e-05
000130 7e 14 53 31 90 bd 73 35 68 9d e1 b2 a9 fc 81 bc
       3.071619e-09 9.0800404e-07 -2.6265027e-08 -0.015867548
000140 65 f1 73 b3 17 9b d2 36 d3 07 4a 37 7a 53 29 bc
       -5.6797393e-08 6.2765425e-06 1.204196e-05 -0.010334844
000150 0f e4 c9 b1 fe 8e 82 31 95 53 d1 b6 ea 35 3e b4
       -5.875797e-09 3.7997543e-09 -6.2384156e-06 -1.7714743e-07
000160 ca de 9b b3 92 dc 68 3c 43 96 8d 37 c4 28 74 2e
       -7.258275e-08 0.014212744 1.687848e-05 5.5515384e-11
000170 85 f7 1f 3c 47 95 89 b0 e4 fa be b2 37 7f fc 32
       0.009763603 -1.0010489e-09 -2.2233003e-08 2.9394512e-08
000180 f8 e2 92 b2 40 65 71 b0 d2 4d b8 b4 31 f3 12 36
       -1.709985e-08 -8.7819174e-10 -3.4329292e-07 2.1897251e-06
000190 fd e9 02 b9 14 b8 51 3c af 1d 5c 31 d0 1c 31 b3
       -0.00012484934 0.012800235 3.2031087e-09 -4.123723e-08
0001a0 96 7c 8e 36 e6 f6 8c 2f d7 54 33 35 ae 7a 1d 31
       4.2464335e-06 2.5641284e-10 6.6806155e-07 2.2916242e-09
0001b0 94 d4 fa ae e5 f1 31 bc 1d 2a 32 b6 84 67 40 b3
       -1.1406445e-10 -0.010860895 -2.654858e-06 -4.479763e-08
0001c0 ac ce 0c b8 f7 f5 05 33 fc 8e a5 3b e8 e8 2a b4
       -3.357108e-05 3.119018e-08 0.0050524455 -1.5917215e-07
0001d0 cd 67 7b b4 6c d9 b4 b4 d2 f9 30 b7 9d fe bb 3b
       -2.3413959e-07 -3.3685808e-07 -1.0548583e-05 0.0057371394
0001e0 a6 41 5b 32 33 e0 a9 34 0b 43 a8 32 90 27 cf b7
       1.27624045e-08 3.164183e-07 1.9588262e-08 -2.4694746e-05
0001f0 2e c4 02 33 1d 9d 97 3b 73 f2 c9 3b 55 02 35 3b
       3.0446408e-08 0.0046268837 0.0061629354 0.0027619798

action_input.weight f4 [128, 28]
000000 d4 3f 7a bc 8e 39 3b bc 67 32 ef 3b 1f 18 72 3b
       -0.015274007 -0.011427296 0.0072997096 0.0036940647
000010 b7 3b 13 bd d3 20 04 3d e5 20 a7 b9 2c 77 45 3d
       -0.03594562 0.032257866 -0.0003187723 0.048209354
000020 d6 97 ab 3c 47 a7 9c bd 52 99 a8 3c 15 c5 7b 3c
       0.020946424 -0.07649093 0.020580921 0.015366812
000030 f0 0e 97 3c 15 4b 3f bc bd 06 88 bd 29 e1 6b 3c
       0.01843974 -0.011675616 -0.0664191 0.014396944
000040 b2 53 5d bc 4f ab ac 3c 30 7f 24 bb 87 9d 66 bc
       -0.013508724 0.02107778 -0.0025100224 -0.014075643
000050 55 c5 9a bc 9b 24 4c 3b b1 bc 37 3b 39 ff 9a ba
       -0.018892923 0.0031149748 0.0028036053 -0.001182533
000060 7d 6d 5c 3c 72 ce e4 3c 9a 08 6f bd ae fd 09 bd
       0.013453838 0.027930472 -0.058357812 -0.033689193
000070 29 68 89 bc 68 60 18 bc 94 5d 9f 3b 70 ee 81 3b
       -0.0167733 -0.009300329 0.0048634503 0.0039651915
000080 65 e1 12 bd 24 c8 e0 3c 14 ed 95 b9 1f b4 bb 3d
       -0.035859484 0.027439184 -0.00028596132 0.09165215
000090 fb 33 93 3c 39 d2 9d bd ec 03 13 3d f4 c9 a2 3c
       0.017969122 -0.077061124 0.035892412 0.01987169
0000a0 e9 aa 6f 3b 4e 23 ef bc 00 c0 b6 bd 80 85 0f 3d
       0.0036570376 -0.02919164 -0.0892334 0.035039425
0000b0 00 68 1a bc a6 94 ce 3b 49 20 15 bd 0a af 2f bd
       -0.00942421 0.0063043414 -0.036407743 -0.04289154
0000c0 1b 13 30 bd 0c 05 e6 3c 25 13 ff bb 5c 28 44 3c
       -0.04298697 0.028078578 -0.0077842646 0.011972513
0000d0 fb f5 7b 3c 8a df b5 3c 1a c2 ad bd f0 ae 31 bd
       0.0153784705 0.022201318 -0.084842876 -0.043379724
0000e0 ae fc 57 bd a9 11 6c 3c ed fc 3f 3c b0 fe 1b 3d
       -0.05273121 0.014408507 0.011718017 0.038084686
0000f0 34 72 0d bd 1f 6d 43 3b bc 21 8b bb c5 35 76 3d
       -0.03453274 0.002981968 -0.004245965 0.060109872
000100 40 bf f1 3c 41 9b 98 bd 11 57 83 3d 58 e2 ce 3c
       0.02951014 -0.07451487 0.06413091 0.025254413
000110 52 fe 51 3b cf 57 0f bd 8e 90 ae bd 8d 85 b6 3c
       0.0032042456 -0.03499585 -0.08523665 0.022280479
000120 7f 5c 97 bd 91 0b a4 3c 1b 25 5d bd 49 4d 53 bd
       -0.07390689 0.020025047 -0.053990465 -0.051587377
000130 9b 91 96 bd e0 0b 38 3d a1 86 63 bb ec 8b 39 3c
       -0.07351991 0.0449332 -0.0034717696 0.011324864
000140 ed c8 c9 3b a8 f5 e1 3c e2 ca 8a bd 51 9a 76 bc
       0.0061579854 0.027582958 -0.06776978 -0.01505144
000150 fd 49 0d 3d 59 74 ad bd 0c b2 b3 bc 24 9d 10 3b
       0.03449439 -0.08469457 -0.021935485 0.002206632
000160 42 44 8c 3c f5 3d dd ba 58 02 3d bc e8 c3 8e 3c
       0.017122392 -0.0016879427 -0.011536203 0.0174274
000170 60 90 e7 bc 93 3e 87 b9 d2 ef da bc fc 80 d9 39
       -0.028267086 -0.00025795828 -0.026725683 0.00041485566
000180 ed 55 6b ba 4c f7 fb 3b 98 c3 30 bb c6 ef c5 3c
       -0.00089773425 0.007689392 -0.0026972052 0.024162184
000190 f3 6e d4 3d 55 fd a0 3b ec 0b c6 3d 7b 0e eb 3c
       0.103727244 0.004913012 0.09670243 0.028693428
0001a0 ad 6f f6 3d 8e 8d 38 bd b1 56 8c bc 99 86 86 3b
       0.12033019 -0.045056872 -0.017131181 0.0041054008
0001b0 57 91 f9 39 24 28 f2 3c 82 dd 19 3b 64 9a 87 3c
       0.00047601268 0.029560156 0.0023477976 0.016553111
0001c0 92 8a a3 3c 78 4b 30 3c 19 88 ae 3b 1d 00 2f bc
       0.019963536 0.010760181 0.0053262827 -0.010681179
0001d0 a6 07 ba 3c b7 ff 65 bd 02 e6 fc bc 33 53 a4 bd
       0.022708725 -0.05615207 -0.030871395 -0.080236815
0001e0 d5 d1 09 bd 89 fa a7 3d 62 f9 c5 bc d5 8d f5 bc
       -0.033647377 0.08202083 -0.024166767 -0.029974857
0001f0 bd af 45 bc 09 ce 04 3c f7 73 96 3d 01 6b 33 bc
       -0.012065825 0.008105763 0.07346337 -0.010950805
000200 a3 81 a8 3c 3a 8c 70 bc e0 45 33 3b 3b 1f 21 3c
       0.020569628 -0.01468187 0.0027354881 0.009834106
000210 c8 f7 37 ba 97 47 36 3b 83 43 a4 bb 10 b5 80 bc
       -0.0007017818 0.0027813667 -0.005012931 -0.015711337
000220 1b 83 63 bc 1a 43 fe bc db 85 ac 3d 08 13 cb 3b
       -0.013886238 -0.031037856 0.084239684 0.006197337
000230 e1 86 20 3d 38 ed 81 bd bf bf b9 bb e5 f6 53 3a
       0.03919113 -0.06344074 -0.00566861 0.00080858014
000240 9a 36 4b 3c 9c 1a db 3c d4 19 86 ba 6a 73 d9 b9
       0.012403155 0.026746087 -0.0010231086 -0.00041475456
000250 df 82 1f bc 28 b4 2f 3c 12 c7 1a bd 6e ca 11 3d
       -0.009735792 0.010724105 -0.037787504 0.035593443
000260 40 ab 95 b8 67 82 47 3d 67 f4 44 3c 64 e3 b6 3b
       -7.1367715e-05 0.048708346 0.012021161 0.0055813063
000270 0e e8 be 3d 19 6a 74 bc f7 91 8d 3d c1 e9 2a 3d
       0.09321605 -0.014917874 0.06912606 0.04172683
000280 5c 81 c8 3d ae 43 26 bd f0 33 ae bc 6f bd 6a bc
       0.09790298 -0.040591888 -0.021265 -0.014327391
000290 61 07 49 ba 46 4f b6 3c c4 82 aa 3c 8d 4f 82 3b
       -0.0007668641 0.022254597 0.020814307 0.0039767683
0002a0 82 b9 8c bb 27 ae 19 bc 27 1b 14 bd cd 32 dc bc
       -0.004294575 -0.0093799 -0.036158707 -0.026879692
0002b0 ee 4e 00 3d 04 a8 a6 bc 15 98 82 bb 92 6c 88 bd
       0.031325273 -0.020343788 -0.0039854147 -0.06661333
0002c0 8d cd ae bc 0c 5b b8 3d 93 bc 0b bd 00 db 3f 38
       -0.021338249 0.09001741 -0.034115385 4.574191e-05
0002d0 b2 d3 a3 bc de 17 7b 3b 58 4c 98 3d 94 ab cc bc
       -0.019998405 0.0038313786 0.074364364 -0.024984159
0002e0 99 b9 2a 3d 3e 1d 55 3b 20 51 fa 3c 3e 49 2a 3d
       0.041680906 0.003251865 0.030556262 0.041573755
0002f0 ad fe af 3c b4 8c 3e bc 0d e2 1b bc 2c 72 bd 3b
       0.021483744 -0.011630226 -0.009514344 0.0057814326
000300 09 b6 1a bd 94 1c c0 bc b8 7c 8b 3d e8 ad 99 3b
       -0.03777126 -0.023451127 0.068108976 0.0046899207
000310 aa a7 7e 3c eb 60 ad bb 5a f1 be bc 67 fe e8 ba
       0.015542904 -0.0052910945 -0.023308445 -0.0017776013
000320 fa 4b c7 3c 17 0b 74 bd 04 70 71 3a 68 30 5a bd
       0.02432822 -0.05958089 0.0009210112 -0.05326882
000330 55 8a bd bc b8 07 79 3d fe e9 3c bd b4 92 82 bc
       -0.02313725 0.060798377 -0.04612159 -0.015939094
000340 31 71 59 bc 80 b1 dc 3c b2 60 a3 3d 18 f5 bc bc
       -0.013271616 0.026940107 0.079774275 -0.023066089
000350 98 bd 38 3d b6 98 a7 bc 15 dd 1e 3d ce 47 42 3d
       0.045102686 -0.02045856 0.03878506 0.04743176
000360 83 2b 2b 3d c2 ca bb bc da 90 e5 bb 00 ea 64 bc
       0.041789543 -0.02292383 -0.007005793 -0.013971806
000370 8e 9d c5 bc 92 95 63 bb 35 23 33 3d 25 68 27 3d
       -0.02412298 -0.0034726602 0.043734748 0.040870804
000380 50 53 01 3c c9 9a 7e bd d9 ff f3 bb 35 6b 97 bb
       0.007893398 -0.062159333 -0.007446271 -0.0046209344
000390 e5 1c 81 3b 56 3c e8 3c 68 41 97 bc 3f d9 59 3d
       0.003940212 0.028349083 -0.018463805 0.053185698
0003a0 0e 0b dd 3b 00 cb d5 ba 6a 8a c2 bc 24 cc 58 3b
       0.0067457026 -0.0016311109 -0.023747642 0.0033080662
0003b0 4e 8a a2 3b 8a 9e 83 3a 0a 7f 00 bd 21 82 05 3c
       0.004960335 0.0010041755 -0.031371154 0.008148701
0003c0 35 4f b8 3d e6 32 9b 3c c2 bd b6 3d f1 d2 91 3c
       0.089994825 0.018945169 0.08922912 0.01780078
0003d0 fc 5f ad 3d 2c de f6 bb 7d 30 87 bb 84 f0 38 3c
       0.08465573 -0.007533809 -0.0041256533 0.011287812
0003e0 38 71 bc bc 2f 03 c3 3c f4 b3 10 bc 7a 44 24 3c
       -0.023003206 0.023805229 -0.008831967 0.010026092
0003f0 09 85 06 3a 56 39 8f 3a ff b0 51 3c 68 e9 39 3c
       0.0005131518 0.0010927122 0.012798547 0.011347152

action_input.bias f4 [128]
000000 5d 64 21 bd 24 88 82 3d fc 8b 0f bc e2 23 85 3d
       -0.039402355 0.06373623 -0.008761402 0.06500985
000010 e1 e6 88 bd 02 82 ad 3d 98 49 60 3d d0 3b 41 bc
       -0.06684662 0.08472063 0.054757684 -0.011794046
000020 e3 18 03 3d 61 8f 21 3d cc be f1 3c 28 57 5e 3d
       0.032006156 0.039443377 0.029509924 0.054282337
000030 2c cf 39 3d bf 33 b9 3d 61 be fc bb 80 42 22 bd
       0.04536359 0.09043073 -0.0077131246 -0.0396142
000040 98 6b 84 bd 2e b9 c5 bb 51 c7 ba 3c 61 f0 70 3d
       -0.064658344 -0.006034038 0.02280012 0.058822993
000050 c2 56 da bc dd ce 8a bd ab c7 0c 3d 90 0f c7 bd
       -0.026652697 -0.06777737 0.034370106 -0.09719765
000060 a8 50 f9 bd a8 91 28 bd 9f 30 ef bd 66 f4 ae bd
       -0.12173587 -0.041154534 -0.116791956 -0.08542709
000070 be 10 b5 3c f8 31 ab 3d 5e cf 88 bd 47 7f 0b 3e
       0.02210271 0.0835914 -0.06680177 0.13622771
000080 7d f1 c7 bd 4b 6d 90 bd 05 60 2b 3d 26 09 04 3d
       -0.09762857 -0.07052096 0.04183962 0.032235287
000090 18 4b 34 bd aa 16 59 3d e7 3c 9d bd fa b9 96 bd
       -0.044016927 0.05300013 -0.07677632 -0.07359691
0000a0 de 05 cf bd 09 d8 36 bd 83 29 8f bc a2 40 a3 3d
       -0.10108541 -0.04463962 -0.017475849 0.07971312
0000b0 13 49 d0 3d 06 33 47 bb 89 37 68 3d 0c 58 59 bc
       0.10170188 -0.0030395403 0.056693587 -0.013265621
0000c0 64 e7 87 3d 3a 62 24 bd 8e 7b 72 bd a5 e0 97 3d
       0.06635931 -0.04013274 -0.059199862 0.074158944
0000d0 97 2a 38 bd 6f 63 7f 3d 94 b9 6d 3b 37 9b 02 bd
       -0.04496249 0.062350687 0.0036273943 -0.031886306
0000e0 56 1e c7 3c 10 4e ec 3b 64 99 17 3c bd 03 86 3d
       0.024306457 0.007211454 0.00925288 0.06543682
0000f0 9f 96 f7 ba f8 6a 12 bd 13 ec 22 3b 0b 30 90 3d
       -0.0018889493 -0.035746545 0.002485995 0.070404135
000100 35 bd bf 3c dc ed 64 3d dd 71 13 bb 4b 73 bb bd
       0.02340565 0.055890903 -0.0022498288 -0.0915285
000110 0c 8d f8 bd d1 1b e1 bc b3 98 04 3d 1c dc e8 3d
       -0.121362776 -0.027479084 0.032372188 0.113701075
000120 77 4e d1 bd df f2 1e 3d 8f d3 92 bd ce 5a 87 bd
       -0.10220044 0.03880584 -0.07169258 -0.066091165
000130 ed 07 eb bd d0 c9 a8 bd a3 b1 6a 3d 57 7e 02 bd
       -0.11476121 -0.08241618 0.057298314 -0.03185877
000140 29 dd a3 3d af 70 14 bd 28 d9 8e 3d 3f 57 ee 3d
       0.08001167 -0.036240276 0.06975013 0.116377346
000150 48 ff d3 3d 38 fb 40 3d b6 2c a1 3d c1 41 c5 bd
       0.103514254 0.04711458 0.07869856 -0.09631682
000160 f5 d6 09 bc a8 5c 1f bd 33 26 64 bd 45 2f 0a bd
       -0.008413066 -0.038906723 -0.055700492 -0.033736486
000170 60 d8 fc bd f0 78 e6 bc b2 d7 bd 3d ba 46 36 3c
       -0.12345958 -0.02813384 0.09269656 0.011125261
000180 ad f2 84 bc 61 7d b2 bc 87 2f a1 bc 13 b0 04 3d
       -0.016228998 -0.021788301 -0.019675983 0.03239448
000190 aa 46 0f 3d b4 72 15 3d 4e ed ed 3c 15 c5 ef 3d
       0.0349795 0.036486343 0.02904382 0.11707512
0001a0 a6 15 a0 3c 6e 0d dd bc d9 a6 88 3c ec 8e 8f 3b
       0.019541573 -0.026983943 0.016681122 0.0043810513
0001b0 4f 1f af bd 1c 20 0a bd 32 e3 d7 3d 18 2a f3 bd
       -0.085508935 -0.033722028 0.10541381 -0.11873263
0001c0 9f 03 53 ba 40 f5 aa bd a2 02 30 bc d5 b4 88 bc
       -0.0008049551 -0.08347559 -0.010742815 -0.01668779
0001d0 96 bd de bc 5d cb 88 bc 5f 1c 9e bd f5 72 7a 3d
       -0.027190011 -0.016698534 -0.07720255 0.061144788
0001e0 e9 95 1a 3d d3 25 26 bd 4e 5d 78 bd 35 ea d5 3d
       0.03774062 -0.040563416 -0.060635857 0.10445062
0001f0 4f ec d4 3d 21 7f a0 bd 31 6c 1e 3d e7 82 3f bd
       0.10396635 -0.07836748 0.038677398 -0.046755698

layers.0.weight f4 [256, 256]
000000 c3 7a da 3c 9b 45 de 3b 0e 7a 23 bc 4a 29 0a 3c
       0.026669865 0.0067832 -0.009977831 0.008432696
000010 5b 16 f3 3b 37 cd 7a bb 2a 05 4d 3b 7d 3b 9d b9
       0.0074184365 -0.003826929 0.0031283596 -0.00029989696
000020 43 60 58 3c 47 72 29 3a 11 37 69 bc 32 dd ee bb
       0.013206544 0.0006463867 -0.01423432 -0.007289552
000030 b4 2e 0f bc 6b 6c f0 bb 92 21 d0 3c 91 c5 40 bc
       -0.008739162 -0.007337143 0.025406633 -0.0117658535
000040 0f a7 10 bb b4 e6 93 3c 98 68 dd 3b ce d2 ba bc
       -0.002207223 0.018054344 0.0067568533 -0.022805598
000050 a4 01 bd bb 1f e9 72 3c 87 0c 80 3b 76 ce 6a ba
       -0.005768018 0.014826088 0.0039077434 -0.00089571567
000060 32 85 9a 3c 2b db 1a 3c 41 bf cc bb 3c d3 8b bc
       0.01886234 0.009451668 -0.006248385 -0.017068498
000070 eb 95 a6 bc bb 15 97 bc 09 e2 f4 3b f3 7f 36 bc
       -0.020335158 -0.01844298 0.0074732346 -0.011138904
000080 7e 0b 79 3a 47 0c 0c 3b dc fe a2 3c fb 8f 9e 3c
       0.00095003087 0.0021369623 0.019896917 0.019355765
000090 26 76 34 bb f7 21 57 3a 1b 13 6b bc f3 d7 56 3c
       -0.0027536242 0.000820666 -0.014347817 0.01311301
0000a0 4d af d5 bc 93 f8 a4 3b 51 9f 8b 3a 57 f8 a5 3b
       -0.026084566 0.005034515 0.0010652338 0.005065005
0000b0 a7 d2 67 3a da a2 6e bc bd da 97 3b e0 6d 1b 3b
       0.00088433403 -0.014565194 0.00463423 0.0023716614
0000c0 bb c2 95 3c 51 13 9c 3c 1a ac 0d 3c 53 f2 44 3c
       0.018281331 0.01905218 0.008646989 0.012020665
0000d0 f0 2a 86 3c 80 63 73 bb b0 e8 3d bc 42 d0 b3 3b
       0.016377896 -0.0037138164 -0.011591122 0.0054874728
0000e0 6b ba e9 3b 06 97 94 bc e8 73 33 bc 92 07 98 3c
       0.0071328185 -0.01813842 -0.010952927 0.018558297
0000f0 c1 db 14 bb b5 ec 8f ba f5 34 48 3c 56 31 32 bc
       -0.0022713991 -0.0010980578 0.012219657 -0.01087602
000100 dc aa c5 3b a2 ea 9b 3a c0 b8 d3 3b 1a 99 3c bc
       0.006032331 0.0011895488 0.006461233 -0.011511112
000110 87 c5 b2 3c 49 d7 3a bc 83 a5 61 bc 8e aa d9 bb
       0.021822704 -0.011403867 -0.013772371 -0.006642646
000120 4a 50 78 bc 7b 40 4d bb d0 b4 0a 3c a9 17 59 3c
       -0.015155861 -0.003131895 0.008465961 0.01325027
000130 c5 d9 93 3a 55 39 16 3c e7 41 8c bc 6e 33 4f bc
       0.001128011 0.009168942 -0.017121268 -0.012646539
000140 11 55 42 ba f9 11 65 bc fa e9 b5 bc 1b dc a6 3c
       -0.00074131886 -0.013981336 -0.022206295 0.020368626
000150 79 6d 61 3b a0 38 8c 3c 78 0b 05 bc d0 f0 1d 3c
       0.0034397526 0.017116845 -0.00812041 0.009639934
000160 f5 a3 65 3c 0c 6b 62 3b 06 78 11 bb 65 8d 4c bc
       0.014016141 0.0034548668 -0.0022196784 -0.012484883
000170 90 3d 47 b6 b8 fc c3 bb f4 28 b9 bc bf 30 98 bc
       -2.9689145e-06 -0.005981054 -0.022602536 -0.018577931
000180 96 50 ce 3a 85 09 b9 bb 5e 7e 6d bc 4c 57 b8 bb
       0.0015740569 -0.005646887 -0.01449546 -0.005625641
000190 1c c6 5e 3c b2 e1 37 bc 08 2e c3 3c 31 80 5b 3c
       0.013597038 -0.011223244 0.02382566 0.013397262
0001a0 4b 18 72 3b 3a 0f d4 3b 15 9d 4d bb c7 c8 eb 3b
       0.003694075 0.0064715417 -0.0031374146 0.0071955654
0001b0 7a 3c 07 bc 87 17 53 ba d5 22 7e bc 57 85 1d bb
       -0.008254165 -0.0008052517 -0.015511234 -0.0024035776
0001c0 63 c2 a0 3c 3e 49 80 bb 37 2a b1 3a 7f 64 30 bc
       0.01962394 -0.003914981 0.0013516609 -0.010766148
0001d0 dd 2c 10 bc 2d 06 2c 3b ae 66 e3 bb 4d 23 43 3c
       -0.008799759 0.0026248798 -0.0069397306 0.011910272
0001e0 83 7f 95 ba 51 9c 0f 3c 64 e7 c8 bb 00 ed 9a b8
       -0.0011405799 0.008765296 -0.0061310995 -7.387437e-05
0001f0 1e c4 ce bb 24 83 ca 3b 72 e8 b2 3b ec 82 14 3c
       -0.00631 0.006180184 0.0054598385 0.009064417
000200 d1 db c0 bc bb 52 47 bd d2 41 19 bc 26 10 e2 bb
       -0.023542317 -0.048662882 -0.009354072 -0.0068988977
000210 3a 70 f1 3c 1c 52 8b 3c 12 97 7d 3c 77 e2 18 3c
       0.02947246 0.017006926 0.0154779125 0.009331337
000220 ea 02 ee 3a 4c 25 42 bd 68 ff 7d bc 40 12 c6 bc
       0.0018158827 -0.04739885 -0.015502788 -0.024178624
000230 ba 54 23 3c 2b 55 1d bd c4 a8 f8 3b 81 71 e4 bb
       0.009968931 -0.0384113 0.007588478 -0.0069715385
000240 8f 3f d6 bc 86 66 83 3c 98 4d fa bb 4b df 3c bd
       -0.026153354 0.016040098 -0.0076386444 -0.046111386
000250 c0 e6 90 bb ad 1e d5 3c ae ea c6 bc aa cc 02 3d
       -0.004422039 0.026015604 -0.024281826 0.031933464
000260 a6 18 d9 3c 2a 69 13 bd bc 04 cf 3b 4a 77 60 3d
       0.026501011 -0.035988964 0.006317703 0.054801263
000270 1a 5e e7 3c c6 bd f2 bc fb 6f 50 3b f3 65 60 bd
       0.028243113 -0.029631507 0.0031805027 -0.054784726
000280 b8 7e 1a 3d 9f 98 bf 3c 37 75 5b bd 8e 13 15 bd
       0.037718505 0.023388205 -0.05357858 -0.036395602
000290 81 67 a2 3c 54 36 2a bd c0 00 1c 3c a4 1d db 3c
       0.019824745 -0.041555718 0.009521663 0.026747532
0002a0 55 1a 80 3c a8 51 97 3c f1 67 0d bb 0d 6f 25 bd
       0.015637556 0.018471554 -0.0021576846 -0.04038911
0002b0 b3 0a 3b bc af c6 0a bd 93 19 c7 bc ea 21 9e bc
       -0.011416125 -0.033880886 -0.024304187 -0.01930328
0002c0 f8 91 28 bd 6d b5 05 bd 98 6d 2a bc 54 d8 db bb
       -0.04115483 -0.032643724 -0.010402106 -0.006709138
0002d0 a8 00 a6 3c b1 75 f3 bc 30 bd 1b bc a9 7a 5a bb
       0.020263985 -0.029719206 -0.009505555 -0.0033337271
0002e0 1d 36 c0 3b d5 96 67 3b 9c 30 11 3d 61 38 40 bd
       0.005865826 0.0035337706 0.03544675 -0.046928767
0002f0 36 1a 95 bc ab 08 f7 3c aa 28 10 bd eb 40 f0 3a
       -0.018200975 0.0301555 -0.03519503 0.0018329894
000300 b6 df 92 bc 97 da f2 3c 74 38 61 bd ef 5c fb 3c
       -0.01792894 0.029645247 -0.05498548 0.030683963
000310 8b 29 1a 3c 59 a4 9e 38 7d 51 cb bc b5 79 54 bc
       0.009409319 7.564639e-05 -0.02481913 -0.01296847
000320 fd bb 4c 3d 7b 0a f5 bc 86 7e 46 bb 82 f7 65 3d
       0.049983967 -0.029912224 -0.0030287816 0.056144245
000330 c6 96 be 3c bd 67 cb bc 68 95 d5 bc d1 62 bc 3c
       0.023265254 -0.02482974 -0.026072219 0.022996338
000340 9c 6e b7 bb 40 81 9d 3a d4 70 ab bb ab a5 2c bd
       -0.0055979025 0.0012016669 -0.005231956 -0.04215018
000350 f8 c5 b2 bc d5 ec 0c bd c6 0a 50 bd 4d 8e 4c 3d
       -0.021822914 -0.034405548 -0.050791524 0.049940396
000360 e2 d3 9d bb 55 22 3d bc 87 b6 71 3c 1f 3e b5 3c
       -0.004816518 -0.01154383 0.014752991 0.022124348
000370 df db 00 3d 02 27 96 bc 2a ef 8c bb e3 a5 8e bb
       0.031459685 -0.018329147 -0.0043009715 -0.0043532713
000380 b1 c4 83 bb 02 db a5 3c 19 5d 09 3d d3 e8 97 3c
       -0.00402125 0.020246033 0.03353605 0.018543636
000390 14 20 8f bc d3 b8 85 bc 84 b8 45 3b 23 f2 14 bc
       -0.01747135 -0.016323483 0.0030169794 -0.009090933
0003a0 3e 5e d8 bc da 40 8b bc c5 c7 c4 3c 79 38 a6 3b
       -0.026412126 -0.016998697 0.024021039 0.00507265
0003b0 5f f2 32 3c 93 f5 18 bc f2 b8 69 bd d6 90 22 3d
       0.010922044 -0.009335893 -0.057061143 0.039688908
0003c0 fc f4 f5 3c d1 c5 a0 3c db 55 c2 3c e8 8b 87 bc
       0.030024044 0.019625576 0.02372258 -0.016546205
0003d0 a0 e4 de bc 63 62 84 bd 05 6d 48 3d b0 48 11 bc
       -0.027208626 -0.06464078 0.048932094 -0.008867428
0003e0 8c 55 56 3c c2 44 1f bd 88 af 3c bc 50 63 ec bc
       0.013081919 -0.038883932 -0.011516459 -0.02885595
0003f0 df a6 8c bc f3 b5 f9 3c b8 be 04 bc 2f eb b6 3c
       -0.017169414 0.030482268 -0.0081021115 0.022328941

layers.0.bias f4 [256]
000000 1c 34 7b bd c3 d3 40 bd ce c4 13 3c e4 2b 98 bd
       -0.061328992 -0.04707695 0.00901909 -0.074302465
000010 4e 0c 98 3d 9e fa c1 bc bd f3 41 bd 2d 58 89 bd
       0.07424222 -0.023679074 -0.047351588 -0.06706271
000020 3f b0 a1 3d 2e a1 7f bd 6f 9a 92 bb b6 e9 13 3d
       0.078949444 -0.062409572 -0.0044739763 0.036111556
000030 a2 64 70 3c f7 46 2a bd 66 fb 6b bc ac 8d 15 3d
       0.01467243 -0.041571584 -0.0144032 0.036512062
000040 98 e1 6b bd 42 ef f9 bc ba ad 32 3d 56 ae 52 bc
       -0.05758819 -0.030509595 0.04362271 -0.012858948
000050 ae b7 3f 3d 9d 48 1d 3d ff 12 ee bd 0f e8 46 3b
       0.04680603 0.038399328 -0.11624717 0.003035072
000060 ac 3a 7b 3d 75 6f 41 bd 02 87 7a bb 7a b1 3c bd
       0.06133525 -0.047225434 -0.0038227444 -0.046067692
000070 a2 e0 8b bc b8 0b 69 bd b9 af 1e bd 04 44 7e bc
       -0.017074887 -0.05689594 -0.0387418 -0.015519146
000080 41 95 26 bb 44 5e bb 3d df 29 53 3d c7 bc 30 3d
       -0.0025418552 0.09148839 0.051553603 0.043148782
000090 d3 69 2a bd f2 4a 65 bc 05 b2 44 3d 56 9e 8d 3d
       -0.041604828 -0.013994919 0.048021335 0.06914966
0000a0 47 7a 27 bd 67 3c 22 3d 86 35 56 bd 24 37 c3 3d
       -0.040888097 0.039608385 -0.052297138 0.095320016
0000b0 4e 39 b7 3c 23 4e 4f 3d 40 39 c6 3d 59 fe a5 3d
       0.022366192 0.050611626 0.09678888 0.081051536
0000c0 1d 5c 98 bc 31 bd 1b bc aa 15 06 ba 03 c5 ac 3c
       -0.01859861 -0.009505556 -0.00051149225 0.021090036
0000d0 2f 53 ae bd c1 35 c5 3c fb 1b b1 3c 38 ec ba 3d
       -0.0851196 0.024073483 0.021619787 0.091270864
0000e0 ac 66 91 bd e8 3d 42 3d 70 c6 14 3d 28 d5 ae 3d
       -0.07099661 0.04742232 0.036322057 0.0853675
0000f0 4b 86 09 bd de 06 9d bd 70 1d f4 bc c0 03 8b bc
       -0.033575337 -0.076673254 -0.029799193 -0.016969562
000100 e4 cd 9e bd 68 19 17 3d 20 05 bd 3d 97 8e c0 3d
       -0.07754114 0.036889464 0.09229493 0.09402197
000110 e5 f6 3d bd 0f db 76 bd 03 5e 5d bc 13 cd aa bd
       -0.046378035 -0.060267504 -0.013511184 -0.08339896
000120 5a 11 52 bd 53 bc a8 3c 08 96 38 3d 6e c6 17 bd
       -0.05128608 0.020597612 0.045064956 -0.03705447
000130 eb e1 48 bc 03 2c f2 bb 46 d4 14 bd 5b 1c db bc
       -0.012260894 -0.0073905005 -0.036335252 -0.02674692
000140 d2 f7 8b bc c1 6f a6 3a 70 96 ae bb 4c 9c 21 bd
       -0.017085943 0.00126981 -0.005327992 -0.039455697
000150 16 3d bc 3d 65 80 85 bd 5d 8e bf bd 89 33 95 bd
       0.09191339 -0.0651863 -0.093533255 -0.0728522
000160 de 4c 68 3c 67 73 fc 3d 57 9d 4b bc 44 5c 7a 3d
       0.014178483 0.12326699 -0.012427649 0.061123148
000170 39 29 ac bd 24 0d c7 3c 3c 85 d9 3d 68 f1 e5 3c
       -0.084063 0.024298258 0.106211156 0.028069213
000180 d1 d1 0c bd 4f d5 4d 3d 21 91 d7 3a 08 03 fc bc
       -0.034379784 0.050252255 0.001644645 -0.030763164
000190 d0 7b 48 bd cf 58 7e 3d 01 15 c1 3c 9b ce fb bc
       -0.0489462 0.062096413 0.023569586 -0.030738166
0001a0 59 ce b8 3d b0 7e 7a 3d 4f a0 4c bd 38 a1 b3 3d
       0.09023733 0.061155975 -0.04995757 0.087709844
0001b0 2b be ae bd f0 b2 ee bd 2b a8 3a 3c e6 e4 d3 bd
       -0.085323654 -0.11655223 0.011392633 -0.10346393
0001c0 40 48 ca bd 5d 18 99 3d af 34 13 3d d8 bf 67 bd
       -0.09877062 0.0747535 0.035938915 -0.05657944
0001d0 6f 36 ef bd 8f a7 e5 3d 6c 6f c8 3d bf b5 36 3d
       -0.11680304 0.112136 0.09786877 0.04460692
0001e0 4f a4 97 bd 33 56 30 3d 9c fe 42 bd 3f b9 c0 bd
       -0.07404386 0.043050956 -0.047606096 -0.09410333
0001f0 02 91 43 3b 54 74 04 3d 0a 04 81 3d 4f cb 57 3c
       0.002984107 0.0323375 0.062995985 0.013171031
000200 52 85 86 3a eb eb 87 3d 4c 23 03 3d 50 6d 6a 3c
       0.0010263121 0.06636795 0.032016084 0.014308289
000210 46 d4 46 3d c2 2c c7 bd 18 3a 00 bd c9 48 89 bd
       0.048542283 -0.09725334 -0.031305403 -0.06703336
000220 47 66 73 3d c1 ad 36 3d 52 03 7d 3d d2 8c 16 3d
       0.05942371 0.0445993 0.061770745 0.03675539
000230 06 17 b9 bd f3 53 ef 3d 4b 29 c8 bd 8c 0d 71 bc
       -0.090375945 0.11685934 -0.09773501 -0.0147127025
000240 f1 15 05 3d 13 bb b4 bd 0c 1b 2e 3d 22 cd 0b bd
       0.032491628 -0.08824744 0.042506263 -0.034131177
000250 1b 27 c6 bd cc 31 4d 3c f4 7a fb bc 03 45 90 bd
       -0.096754275 0.0125240795 -0.030698277 -0.07044413
000260 41 90 3b bc 22 fe c4 3c f5 f2 a3 3b c6 f8 b9 bd
       -0.011447967 0.024046961 0.005003328 -0.09080653
000270 cc ba fa 3c 2a 2b 92 3d 23 5a c5 bc 5c 36 9a bc
       0.03060665 0.07137139 -0.024090832 -0.018824749
000280 df e6 59 3d 9e d5 97 3d eb 6e 2d bd 29 c3 8f 3d
       0.05319869 0.07413791 -0.042342108 0.07019646
000290 38 a8 4e 3d 7c 9e ab 3d 65 84 83 3d ec f7 23 3d
       0.050453395 0.08379838 0.06421737 0.04003136
0002a0 59 39 4c 3d 5a ca ec 3d db fe 92 3c 19 76 45 bd
       0.04985938 0.11562033 0.01794379 -0.04820833
0002b0 de da cf 3d 4e de 3b bd 83 e6 29 bc 1a dc 72 3d
       0.101491675 -0.045866303 -0.0103699 0.059291936
0002c0 9c 3e 08 3d 5c 9d c9 bc ac b8 2f bd 62 d4 ab 3c
       0.033262834 -0.024611168 -0.042900726 0.020975295
0002d0 ef 18 8c bd 7f 98 48 3d c8 5e 92 3d 78 7f dd bd
       -0.06840693 0.048973557 0.07146984 -0.10815328
0002e0 9b 7b c4 bd 10 a9 18 3c 19 bc d3 bc 86 7b cf bc
       -0.09593888 0.009317651 -0.025846528 -0.025327455
0002f0 a4 24 3b 3d e1 ab 6b bd 69 e9 c4 3c 99 55 4f 3b
       0.04568924 -0.057536963 0.02403708 0.0031636714
000300 5c 99 8d bb eb 62 60 bc 72 30 ab bd 49 32 d9 3d
       -0.0043212604 -0.013695459 -0.083588496 0.10605294
000310 29 15 5e 3d 90 2c 78 3d 8e b4 35 3d b4 55 e5 3c
       0.0542194 0.060589373 0.044361643 0.027994968
000320 0f 48 94 bd f4 a9 8b 3d a9 39 8e bd 5a 51 37 bd
       -0.072403066 0.06819525 -0.069445916 -0.044755317
000330 97 e3 77 bd f6 4d a0 bc 88 a8 86 bd b2 d4 62 3d
       -0.06051978 -0.019568425 -0.065751135 0.055378623
000340 b9 36 1c bd b7 0c aa bb e1 da 3b bd 42 a2 8c 3d
       -0.038138125 -0.005189504 -0.045863036 0.06866886
000350 c1 a6 3c bd 86 67 42 bd 37 f0 bb bb 2b 4f 05 bc
       -0.046057466 -0.04746201 -0.005735423 -0.008136551
000360 74 9b 9a bd ec 7f 9d 3d da d3 80 bc c6 a9 ad 3c
       -0.075491816 0.07690415 -0.015726019 0.021199118
000370 7d 77 c6 3c 19 bf bc 3d a5 bf 09 3c 1a 2b c5 3d
       0.024226898 0.092161365 0.008407508 0.096273616
000380 fc 1d cd 3b d5 9b 17 bd f2 b2 3f bb 00 70 b8 3d
       0.006259678 -0.037013847 -0.0029250947 0.09005737
000390 7f bb b2 3c 94 27 a9 bd bd 2e ae 3d 08 38 b7 3c
       0.02181792 -0.08259502 0.08505008 0.022365585
0003a0 1d 15 bc 3d a0 f8 56 bd 6c bf 75 bc f1 57 7d bc
       0.091837145 -0.0524832 -0.014999252 -0.015462861
0003b0 86 c6 ba 3b f0 19 88 bd 9f 29 20 bd c9 72 9e bd
       0.0056999354 -0.06645572 -0.039102193 -0.07736737
0003c0 46 65 6a bd bc 15 a1 3d 6f 34 b4 bd ad 65 9a 3d
       -0.057225488 0.07865474 -0.087990634 0.07538924
0003d0 9b a8 0c 3d c7 fb 09 bd 9b 00 6e bb 32 ec 19 3d
       0.034340482 -0.03368738 -0.003631628 0.03757877
0003e0 69 3a bd 3d c0 44 70 ba 20 63 c7 3d 2e 2e 9a bd
       0.092396565 -0.0009165518 0.097357035 -0.07528339
0003f0 cc a8 89 bc 9b d0 19 bd 72 40 64 3d 74 71 b7 bd
       -0.016804121 -0.037552457 0.055725522 -0.08957186

layers.3.weight f4 [256]
000000 f9 79 7d 3f 60 d8 6f 3f ff 45 7d 3f 24 a7 79 3f
       0.9901424 0.9368954 0.9893493 0.9752066
000010 8e 06 7e 3f 6b 62 75 3f 73 b2 7b 3f 97 2e 7b 3f
       0.9922875 0.958533 0.98319167 0.98117965
000020 01 96 79 3f d0 bc 75 3f 5a 65 75 3f 7e 06 7c 3f
       0.9749451 0.9599123 0.95857775 0.98447406
000030 7a d2 82 3f c1 bd 75 3f b2 56 7b 3f ec ce 7d 3f
       1.0220482 0.95992666 0.9817916 0.9914386
000040 bb 39 80 3f aa 2d 80 3f 2f 4f 76 3f f6 bf 77 3f
       1.0017618 1.0013936 0.96214575 0.96777284
000050 79 ac 81 3f 9c 38 79 3f d3 02 7b 3f a5 f0 7e 3f
       1.013076 0.97352004 0.98051184 0.99585944
000060 7b 20 7f 3f 6a a3 81 3f 22 f4 7e 3f b6 1d 79 3f
       0.99658936 1.0127995 0.9959127 0.9731096
000070 0b 3d 7e 3f 76 d6 72 3f b8 45 7b 3f bf 8b 81 3f
       0.99311894 0.9485849 0.9815326 1.0120772
000080 a0 31 7e 3f d8 05 7c 3f 47 8e 7e 3f 9c 69 81 3f
       0.9929447 0.98446417 0.9943585 1.0110354
000090 33 17 80 3f 55 0b 75 3f 33 6d 7e 3f c5 5b 75 3f
       1.000708 0.95720416 0.99385375 0.95843154
0000a0 22 8c 7e 3f e0 7d 7e 3f bd f8 75 3f e5 40 7c 3f
       0.99432576 0.9941082 0.9608267 0.9853652
0000b0 80 ae 7d 3f f3 c9 80 3f af cc 77 3f a9 0e 81 3f
       0.9909439 1.006163 0.967967 1.0082599
0000c0 3a 20 7a 3f 4b db 75 3f 4f fe 70 3f 4f 88 7f 3f
       0.97705424 0.9603774 0.94138044 0.99817365
0000d0 9c 94 7b 3f 88 a1 7b 3f ea 2a 7b 3f 06 73 75 3f
       0.98273635 0.9829335 0.98112357 0.95878637
0000e0 8e eb 80 3f a5 11 85 3f 26 21 7d 3f 67 38 7a 3f
       1.0071886 1.039601 0.98878706 0.97742313
0000f0 40 1e 7e 3f 1b 42 81 3f dc 60 79 3f 75 79 79 3f
       0.9926491 1.0098299 0.9741342 0.97450954
000100 f3 04 79 3f 18 c7 7c 3f 71 b9 7b 3f 5d c4 7a 3f
       0.97273177 0.9874129 0.98329836 0.97955877
000110 63 24 7c 3f 26 ee 7b 3f 3e d8 7b 3f 06 b4 7b 3f
       0.9849302 0.9841026 0.98376834 0.9832157
000120 95 4a 78 3f 36 97 75 3f 51 03 7b 3f f2 d9 7a 3f
       0.96988803 0.95933855 0.98051935 0.9798881
000130 c4 c9 7c 3f 9f 70 80 3f 84 7d 82 3f c2 de 76 3f
       0.9874537 1.0034369 1.0194554 0.9643365
000140 ed 7b 81 3f d0 0c 7a 3f 68 01 75 3f 4b 3f 75 3f
       1.0115944 0.976758 0.9570527 0.957997
000150 95 70 81 3f 43 aa 7e 3f a7 3e 76 3f e6 07 76 3f
       1.0112482 0.9947855 0.9618935 0.961058
000160 2f 6c 82 3f 1e ae 75 3f 25 6e 7b 3f 7d 79 80 3f
       1.0189265 0.95968807 0.9821494 1.0037075
000170 ce 5a 7a 3f a4 3b 7e 3f 4c fc 7f 3f 5d 31 7c 3f
       0.97794807 0.99309754 0.9999435 0.9851282
000180 70 e4 71 3f f4 07 80 3f 90 67 72 3f 99 ea 7c 3f
       0.9448919 1.0002427 0.94689274 0.9879547
000190 8b 60 7d 3f 22 03 80 3f 42 a7 80 3f 15 33 7e 3f
       0.9897544 1.0000956 1.0051043 0.99296695
0001a0 77 37 82 3f 33 1a 7e 3f 63 92 76 3f 76 c8 7d 3f
       1.0173177 0.99258727 0.9631712 0.99134004
0001b0 49 02 77 3f 51 26 80 3f da 1c 75 3f ec 26 7a 3f
       0.9648786 1.0011693 0.9574715 0.9771564
0001c0 2c cd 76 3f 18 46 7e 3f 5a 92 83 3f f6 52 7d 3f
       0.9640682 0.99325705 1.0279038 0.98954713
0001d0 8c 19 7b 3f ff a6 7c 3f b1 2f 82 3f da 25 78 3f
       0.98085856 0.98692316 1.0170804 0.96932757
0001e0 fc bf 80 3f 0c 75 86 3f 39 52 78 3f 96 ba 7b 3f
       1.0058589 1.050447 0.9700046 0.9833158
0001f0 b0 78 7e 3f c9 e6 7e 3f 82 88 7e 3f 73 02 77 3f
       0.99402905 0.995709 0.99427044 0.9648811
000200 42 2b 7d 3f 99 2f 7c 3f 9d 05 80 3f eb 4e 78 3f
       0.9889413 0.9851013 1.0001713 0.9699542
000210 77 48 7c 3f 7a 7e 7a 3f 08 53 77 3f 0b 5e 71 3f
       0.9854807 0.9784924 0.9661107 0.94284123
000220 18 0a 7c 3f 59 ca 72 3f c3 9d 7e 3f f9 23 77 3f
       0.984529 0.9484001 0.99459475 0.96539265
000230 a5 d4 78 3f f6 41 79 3f 09 9a 79 3f dd df 77 3f
       0.9719947 0.97366273 0.97500664 0.96825963
000240 92 15 7f 3f 97 e6 79 3f d6 b0 75 3f d1 71 81 3f
       0.9964229 0.9761748 0.95972955 1.0112859
000250 77 ad 78 3f f6 1d 7c 3f 7f 23 84 3f b5 98 78 3f
       0.97139686 0.98483217 1.0323333 0.9710801
000260 51 d1 7d 3f f2 a4 79 3f 46 14 7a 3f c7 42 79 3f
       0.99147516 0.9751731 0.97687185 0.9736752
000270 6b 00 7f 3f db e8 81 3f 87 f4 79 3f 29 19 75 3f
       0.9961001 1.0149187 0.97638744 0.95741516
000280 e3 a6 7b 3f bb ce 70 3f 4a 69 79 3f 73 a7 73 3f
       0.98301524 0.94065446 0.97426283 0.9517738
000290 dd 6d 80 3f e5 4f 83 3f 39 4c 77 3f 1f 63 79 3f
       1.0033528 1.0258757 0.9660068 0.9741687
0002a0 11 16 82 3f 51 21 79 3f 48 84 83 3f 67 f9 79 3f
       1.0162984 0.9731646 1.0274744 0.9764618
0002b0 dd 3e 81 3f 08 10 80 3f d4 50 80 3f c8 f9 80 3f
       1.0097309 1.0004892 1.0024667 1.0076227
0002c0 46 06 7a 3f e5 54 7e 3f c1 8e 7f 3f 7c 38 7c 3f
       0.9766582 0.9934829 0.998272 0.9852369
0002d0 78 cc 7a 3f 05 6f 75 3f 0a 22 7b 3f b6 d2 76 3f
       0.97968245 0.9587253 0.98098814 0.9641527
0002e0 21 d1 7d 3f 53 d0 80 3f d8 fc 77 3f e3 39 7b 3f
       0.9914723 1.0063576 0.96870184 0.98135203
0002f0 cf 85 84 3f 70 0d 7f 3f a6 76 77 3f 18 83 7d 3f
       1.0353335 0.9962988 0.9666542 0.9902816
000300 7c c6 7a 3f 21 3f 79 3f 45 c8 73 3f bb f0 7a 3f
       0.97959113 0.9736195 0.9522746 0.98023576
000310 91 87 7e 3f 05 fa 79 3f 6e 0f 7f 3f 68 43 76 3f
       0.9942561 0.97647125 0.9963292 0.96196604
000320 c6 89 7c 3f 4d 3f 81 3f e0 09 85 3f 34 3e 7d 3f
       0.98647726 1.0097443 1.0393639 0.9892304
000330 91 49 83 3f 5b 3d 7f 3f e0 75 7c 3f db 95 74 3f
       1.0256826 0.99702996 0.9861736 0.9554116
000340 cb 8d 79 3f c3 99 75 3f 2d 49 7f 3f 4a 88 7d 3f
       0.97481984 0.95937747 0.9972103 0.99036086
000350 f4 73 82 3f 6c ff 7a 3f 0a d6 7a 3f 61 40 78 3f
       1.0191636 0.9804599 0.9798285 0.96973234
000360 75 82 7e 3f 04 c7 7a 3f 9c 36 75 3f 08 0f 6f 3f
       0.9941781 0.97959924 0.9578645 0.9338231
000370 89 65 7a 3f 45 7e 7a 3f 69 bb 7c 3f a9 a5 75 3f
       0.9781118 0.9784892 0.98723465 0.959559
000380 f9 f6 75 3f 0e f3 7a 3f 4c f2 76 3f f2 32 81 3f
       0.96079975 0.9802712 0.96463466 1.0093672
000390 8d 8f 84 3f 39 b5 7f 3f ef 97 77 3f c7 43 75 3f
       1.0356308 0.998859 0.9671621 0.95806545
0003a0 40 61 81 3f ef 0f 80 3f a0 48 7e 3f d3 47 83 3f
       1.0107803 1.0004863 0.99329567 1.0256294
0003b0 0e 2b 77 3f ca 95 7d 3f 33 5d 77 3f ac 51 76 3f
       0.9655007 0.99056685 0.96626586 0.9621837
0003c0 92 ee 7d 3f 04 ef 79 3f 8e eb 79 3f b6 ac 74 3f
       0.99192154 0.97630334 0.9762505 0.95576036
0003d0 eb 4f 78 3f b9 29 7b 3f eb 8c 77 3f 66 98 80 3f
       0.96996945 0.9811054 0.966994 1.0046508
0003e0 f9 92 7b 3f 4e 30 7a 3f 14 04 74 3f 9b 9a 7b 3f
       0.9827114 0.9772996 0.9531872 0.98282784
0003f0 84 40 77 3f a6 2a 7a 3f 61 97 7a 3f 38 ad 7a 3f
       0.9658282 0.97721326 0.97887236 0.9792056

layers.3.bias f4 [256]
000000 9d 07 19 3d 10 31 97 3b eb 41 99 bd bc 9c fa bb
       0.037360776 0.004614003 -0.07483276 -0.0076480787
000010 ef 88 39 bd b5 fb 3a bd c3 c8 77 bd f5 de e0 3c
       -0.045296606 -0.045650203 -0.060494196 0.027450064
000020 32 f8 3c 3d 31 f3 3f bb 9a 98 eb 3a 65 a8 56 bd
       0.046135135 -0.002928924 0.0017974556 -0.052406687
000030 94 65 9d 3d d5 63 a5 3c e9 32 8a bc 2e 4a 08 3d
       0.0768539 0.020189205 -0.016869979 0.03327387
000040 c5 e1 8e 3d 6d 39 19 3d 0e 60 23 3d 1b 2c 06 3c
       0.06976656 0.03740828 0.039886527 0.0081892265
000050 94 df 81 bd 0c b9 3a 3d 20 e0 12 bd 18 e7 d0 bc
       -0.06341472 0.04558663 -0.035858274 -0.02550082
000060 cc 47 71 bd 70 48 f3 bc 47 7a f3 3c d5 d3 50 bd
       -0.05890636 -0.029697627 0.029721392 -0.05098327
000070 c3 27 80 bd 5e c4 65 3b 3d 7e 17 bd f6 e1 9b bd
       -0.06257584 0.003505967 -0.036985625 -0.07611458
000080 79 05 17 3d ae c8 75 bd c5 b5 5f 3c f9 e3 4a bd
       0.036870454 -0.060005836 0.013654177 -0.049533818
000090 41 54 8a 3d 80 04 89 bc 1e ff 03 bd fe 9e 80 3c
       0.067543514 -0.016725779 -0.03222572 0.015700813
0000a0 e0 95 96 bc c8 b8 94 3d 10 eb 0d 3d 9f 0b 1b bd
       -0.018382013 0.07261807 0.034648 -0.03785288
0000b0 bd c9 38 bd 16 2e 69 bd 34 9c d1 bc f7 23 80 bd
       -0.045114268 -0.056928717 -0.025587179 -0.0625686
0000c0 15 4e 26 bd fb 58 d7 bc f6 b4 fe bc 84 1c 28 bd
       -0.04060181 -0.026287546 -0.031092148 -0.04104282
0000d0 5a 6b 5a bd b3 83 6e bd 57 14 45 bd fc 89 73 bd
       -0.053325035 -0.058231067 -0.0481151 -0.059457764
0000e0 4a 4b c4 bc f3 f3 c5 bd f7 c9 ff bc b5 cd 9e bd
       -0.023961682 -0.0966567 -0.031224234 -0.07754079
0000f0 2e ce 12 bd cb c8 70 bd be b4 54 3c 6a a9 24 3d
       -0.03584116 -0.05878524 0.012982545 0.04020063
000100 2b 67 6f bc 9d 4e 8d bd 6d 33 80 bd 3a 03 8d bd
       -0.0146119995 -0.0689976 -0.06259809 -0.06885381
000110 67 ee c4 3d ff dc 8c ba 44 7a 05 3d 85 ec 84 3c
       0.09615784 -0.0010747014 0.032587305 0.016226063
000120 24 b1 c5 3a 94 c3 01 bd ac 56 84 3d ca 0f 9a bc
       0.0015082699 -0.03168066 0.06461844 -0.018806357
000130 cf b2 09 bd ca 0a 94 bd 5d b7 74 3d 41 81 d5 bc
       -0.03361779 -0.0722862 0.05974518 -0.02606261
000140 01 41 81 3d 36 ac 3b bd aa 7d 0b bd 24 33 b0 ba
       0.06311227 -0.04581853 -0.03405539 -0.0013442975
000150 e8 69 3a bd 8a 2a 2a bd 6d b1 fa 3c 6f d0 9c 3d
       -0.045511156 -0.041544475 0.030602181 0.07656943
000160 9b 16 4d bd 04 de 63 3b a4 ea 12 bc b7 9d 5a bd
       -0.050070386 0.0034769783 -0.0089670755 -0.053373065
000170 08 c5 73 3c 42 42 72 bd 30 b6 71 bd b5 5c a1 bd
       0.014878519 -0.05914522 -0.05901164 -0.078790106
000180 c7 aa a1 3c b3 52 9b bc 4a c4 6d bc 4f 30 00 3d
       0.019734753 -0.018960332 -0.014512131 0.03129607
000190 a0 3b 25 bc 71 f3 44 bd 77 b1 61 3d 35 d3 4f bc
       -0.0100850165 -0.048083726 0.055100884 -0.012684633
0001a0 b5 64 89 bd 7e 94 aa 3c 9a 26 d2 3c 12 67 fd 3c
       -0.067086615 0.02082276 0.025653172 0.030932937
0001b0 a6 19 ec bc 61 75 3a bd 74 d7 00 bc 29 5f 41 3c
       -0.028820824 -0.045522097 -0.007863868 0.011802473
0001c0 be 0f 31 bb 69 67 e7 b9 b0 24 16 3d 94 96 ee bc
       -0.002701744 -0.000441368 0.03665608 -0.029124536
0001d0 50 5f 88 39 fd c3 5d bd 12 18 7f bd 6b 06 15 bd
       0.00026010955 -0.054141987 -0.062278815 -0.036383074
0001e0 ce 12 4c bd 05 4c b9 bd c0 a7 31 3b ec ec d5 bc
       -0.04982262 -0.09047703 0.0027108043 -0.02611395
0001f0 24 e8 02 bd 54 10 80 bd 2a a7 c5 3c c5 ff 69 bd
       -0.031959668 -0.06253114 0.024127562 -0.057128686
000200 fa 42 77 bd 4d 60 c3 bc da 7a 79 bd af 0a 60 3d
       -0.06036661 -0.02384963 -0.060908176 0.05469769
000210 7b af 06 bd 54 3c 3e 3d 9e 1e e5 ba 53 ce 80 3c
       -0.032882195 0.046444252 -0.0017480438 0.015723383
000220 e7 6d 02 bd da 83 0c bd c4 81 39 bd f4 95 ce 3c
       -0.031843092 -0.03430543 -0.04528977 0.025217988
000230 1e 8e 05 bd 80 5f 84 bd 4d ac c6 bc 29 34 cf bc
       -0.032606237 -0.06463528 -0.024252081 -0.025293427
000240 1f 12 2e bd 07 08 57 bd 75 5b a5 3c f2 48 76 bd
       -0.04249775 -0.05249789 0.020185212 -0.06012816
000250 8f 66 cd 3c 9d 36 fc bc 35 41 9f bd 4c c5 79 bd
       0.025073318 -0.03078776 -0.07776109 -0.060979173
000260 ef c6 36 bd b7 11 30 bd fd b5 83 bd b4 90 e6 3c
       -0.04462331 -0.042985644 -0.06431196 0.028145172
000270 69 94 97 bd d6 1b 33 bd c2 85 36 bd c2 52 fb bc
       -0.07401354 -0.04372772 -0.044561155 -0.03067911
000280 b5 17 81 3d 6d 6d 4e 3c 7a 20 46 bd 7a 67 3a 3c
       0.0630335 0.012599331 -0.048370816 0.01137721
000290 01 ec c4 3c 33 bd 4b bd c3 af f0 3a 29 28 21 3d
       0.024038317 -0.04974098 0.0018362928 0.03934494
0002a0 71 79 37 bd b2 d6 2c bd aa 72 53 bd f9 69 81 bd
       -0.04479355 -0.042196937 -0.051623024 -0.06319041
0002b0 13 90 6c bd d9 61 89 bd 7c b5 84 bd 13 f1 98 bd
       -0.057754587 -0.06708116 -0.06479928 -0.07467856
0002c0 61 89 8e 3d 8d 8d 72 3d ca e8 45 bd e2 cc 40 bd
       0.06959797 0.059217025 -0.048317708 -0.04707039
0002d0 7a 22 3f bd 2c 65 27 bd 0a 3b f8 bc df e6 19 bb
       -0.04666374 -0.04086797 -0.03030159 -0.0023483557
0002e0 c4 b5 17 bc 17 33 33 bd 78 1c 04 bd a1 ec ef 3c
       -0.009259645 -0.043749895 -0.032253712 0.029287638
0002f0 1e 02 a1 3d 7f b3 4f 3d a8 f7 13 3d dc 69 6e bd
       0.07861732 0.05070829 0.036124855 -0.058206424
000300 6a a0 f0 bc d3 72 81 bd e9 1e 36 bd ec 75 bd 3c
       -0.029373366 -0.06320729 -0.044463072 0.023127519
000310 1e c6 75 3d 21 77 ad bc 1c b6 85 bd 83 3f a1 bc
       0.060003392 -0.02117497 -0.06528875 -0.019683605
000320 b8 00 ef bc e9 a4 a4 3d 86 74 54 3c 44 0e 74 bd
       -0.029175147 0.080392666 0.0129672345 -0.059583917
000330 57 30 5b bd 9b be 32 bd 2e bd 0e bd f8 2b 57 3d
       -0.053512897 -0.043638807 -0.034848385 0.052532166
000340 28 3e 4b bd e7 55 2c 3d 78 40 80 bd 0b 6e 1e bd
       -0.049619824 0.04207411 -0.062622964 -0.038679164
000350 2d e9 9a bd 16 36 67 bd b1 e1 ca 3c 85 8c 22 3d
       -0.07564006 -0.056448065 0.024765821 0.03968479
000360 c0 2a 85 bd d1 f2 b0 bc a1 c2 bb 3c 42 89 1d bb
       -0.065022945 -0.021600159 0.022919955 -0.002403811
000370 e2 4d f6 3b 08 12 ae 3c 00 b3 d9 bc 2d 8e da 3c
       0.0075166086 0.021248832 -0.026574612 0.026679123
000380 5a 72 19 bd de e8 52 3d 72 dc 3b 3c 5c 6f 86 bd
       -0.03746257 0.05149161 0.0114661325 -0.06564209
000390 92 2b b1 3d 65 65 3c bd 2e 23 0e 3d 44 f5 6a bc
       0.086508885 -0.045995135 0.03470152 -0.014340702
0003a0 a0 32 46 bd 68 7c 6b bd c2 bd 87 bd d6 4c a2 bd
       -0.048388124 -0.05749169 -0.0662799 -0.079248115
0003b0 5d 0b c2 3b 2c 45 80 3d ec f8 36 bd bf 69 36 bc
       0.0059217648 0.062631935 -0.044670984 -0.01113361
0003c0 50 db 33 bd c8 61 21 3d de 15 10 bd cd 67 bf bb
       -0.043910325 0.039399892 -0.035177104 -0.0058412314
0003d0 ff 38 49 3b 9f 3e bc 3a 69 e6 f6 3c ba 3e 93 bd
       0.0030704138 0.0014361924 0.030139165 -0.071896985
0003e0 53 a2 01 3d 1c 52 34 bd db 8e ad 3b 20 15 96 bc
       0.031648945 -0.044023618 0.0052965707 -0.01832062
0003f0 ab 58 5e bb 42 a6 72 bc 26 f5 cc bc 95 6b 32 bd
       -0.0033927362 -0.014810147 -0.02501924 -0.04355963
