ddpg/model_params/twitter_ddpg_47_25_actor.pth (torch, 158108 bytes, 20 tensors)

layers.0.weight f4 [128, 65]
00000000: dc0d aa38 e8f2 123b 5b84 dd3b 103e ef3b
00000010: db4a 48b9 9e3d 48b9 f552 193b fc32 1bbc
00000020: 3fe6 07bb 69f9 aeba c000 2d3a 7b0d d73a
00000030: f640 133b 26b4 a4ba 1824 b839 e232 09b9
00000040: cc03 ba3a 57c0 38b9 a250 23bb 0588 a538
00000050: f5b3 4f3a a57d f3ba d410 3fba 3a13 1cb8
00000060: b510 5db9 eef0 34b9 1308 e839 d054 2038
00000070: 0088 b033 be5d b9b9 b4f1 21b9 86c6 293a
00000080: 9eae 013a c9b2 0e3b fe39 f1b9 76d6 3939
00000090: 0522 2b39 ab88 e6ba 50f9 fdb9 8b51 1a3b
000000a0: 3305 0e3b ce4b 1abb caad c238 b559 18bb
000000b0: 8d30 99bb 0bb7 75b9 b4c0 0736 3f62 11ba
000000c0: 186e 14ba 4ecb 183b db14 73ba a414 0639
000000d0: 899e 20ba 7f70 e23a ec00 3fba 4d59 1a3a
000000e0: 2ae1 183b 5ce7 59ba c0e8 6d37 3522 6b38
000000f0: 1022 203b 461d 4db9 188a 433a 3a0f 7539
00000100: 08ad 80ba 984c a23a 2cbd 01bb 97d1 b0bb
00000110: 3aaa 9bbb 7543 8c38 bdf4 2c39 e48f 21ba
00000120: abdd 483c 93d6 373b a796 a6b9 a68c 2d39
00000130: 0f3a d839 5820 a5b8 6d5c a2b9 642c 93b9
00000140: 9ba0 15b9 d894 8fbb 57a9 2bba aea5 be39
00000150: f356 94b8 ee57 65b9 8403 073b 6d9d b1b9
00000160: fbfe 23ba fc31 7c38 f857 ccb8 5e6c 00bb
00000170: 5a4f 3a3a f62a 4e3a 984b 9337 0eb6 ca3a
00000180: e7b2 b03a 823a 4f38 bbeb 1fb8 d8bc a839
00000190: 6753 85b9 d842 1db8 80b2 c6b6 dcc6 4eb9
000001a0: 907b 4a3a 2252 a8b7 f41f 1abb 8374 4b3a
000001b0: a8be cc38 49a4 0d3b ee78 f2b7 3df5 a83a
000001c0: 8874 de39 495f 163b df98 15bb c273 2c3a
000001d0: 2026 3ab9 e87c 18bb 3cb0 04ba 8527 29ba
000001e0: b46c 8e38 7af4 87b8 75f3 fcb9 7a1a 6cba
000001f0: c462 043a 8e38 5dbb cf4e abb9 785a 413a
00000200: 2caf 1bba 6c02 4d39 fbb0 cb3a 056a 243b
00000210: 0bd5 523a a255 dd3b 91c4 3b3a 04f9 efb9
00000220: ce27 a2ba 19df 8ebc 3059 c0bb 8f2b e7ba
00000230: 6c0f db37 2d23 b239 200c 443a b8a2 0b3a
00000240: b8f6 aab9 7eca b639 2933 bf3a d828 5238
00000250: 794f 53ba 6802 e6b9 b65b a53a b00d 69b9
00000260: 6cce 5fb9 0590 cf38 f799 10bb 1ea1 aab9
00000270: 7af7 113a 43b1 8439 032e a73a ebf3 6ab8
00000280: 80f0 b8ba 752c 30b9 f174 003a 5401 e538
00000290: f0fc 60b8 4ee1 28ba 6a61 92b9 e909 05bb
000002a0: a421 6c3a 994f 7aba 1eee a438 c842 7bb9
000002b0: a0ce 8db6 ccbe 7b39 8417 d0bb d4e3 fb37
000002c0: 6717 1a3b 3c44 4839 69e1 f7ba c055 4bb7
000002d0: 591e 20b8 d5cb 07bb 2924 10ba d71f 8f3b
000002e0: e4c3 4cba 0942 bfb9 b6a8 b638 f74e 13bb
000002f0: 5415 2039 09d0 2dba 16f6 3e3b 83da 833a
00000300: fe30 193b 15d7 0439 7c4c 0f3b e78f 343a
00000310: a2ae d73a bd63 cabb b4e4 83bb 8c1d 85b9
00000320: 64b6 dcb8 8a71 3c39 b405 783b 94e7 3d3b
00000330: 57ba 1ab9 01e8 7439 7a74 ceb9 c47e d8b9
00000340: b34c a93a df64 90ba 69b7 7639 0b40 5dba
00000350: 1872 f038 747a 873b 7a2d 4a3a 9e6a a739
00000360: d762 8439 ca37 3138 7b32 3dba e6d4 fdb8
00000370: 888c 83b6 1203 2ab8 f4d0 063a e93e 93b9
00000380: 6df8 9938 9026 c939 8c65 1abb cd74 85b9
00000390: 84e2 e9b9 f64f 443a 387a 38b7 e330 47ba
000003a0: b380 8a39 0ce3 903a a281 80ba f743 c738
000003b0: 6fdc 8db7 9e79 2cba d05f beba fc28 a838
000003c0: c085 1fba 10b2 31b8 78b6 3036 7f35 a438
000003d0: 3931 3d38 7fc3 053a 51c1 92b9 369d 183b
000003e0: 4cdb f9ba 5901 29ba 4b7e e4b9 9397 75b9
000003f0: c490 d335 2e13 0cb9 4e3d 99b8 ba93 8cbb
8.108813e-05 0.0022422615 0.0067601628 0.0073010996 -0.00019101372 -0.0001909644 0.0023395394 -0.009472605
-0.0020736603 -0.0013349477 0.0006599538 0.0016407216 0.002246914 -0.0012565895 0.00035122107 -0.00013084293
0.0014191805 -0.0001761926 -0.0024919887 7.893149e-05 0.0007923239 -0.0018576874 -0.00072885794 -3.7211204e-05
-0.00021082426 -0.00017255891 0.00044256504 3.822596e-05 8.220377e-08 -0.00035355793 -0.00015444198 0.00064764207
0.00049469795 0.0021774045 -0.0004601031 0.00017722868 0.00016320504 -0.0017588338 -0.00048441673 0.0023547139
0.002167058 -0.0023543718 9.2830116e-05 -0.002324683 -0.004674977 -0.0002343321 2.0228736e-06 -0.0005545951
-0.0005662157 0.0023314538 -0.0009272822 0.00012786925 -0.0006127139 0.0017275958 -0.0007286209 0.00058879406
0.0023327568 -0.00083123683 1.4180492e-05 5.6060224e-05 0.0024434365 -0.00019561229 0.0007459237 0.00023370693
-0.0009817192 0.0012382446 -0.0019796593 -0.005396079 -0.004750517 6.688285e-05 0.0001649437 -0.0006163104
0.012259881 0.002805148 -0.00031774232 0.00016550961 0.00041241987 -7.8738376e-05 -0.0003096791 -0.00028071098
-0.00014269578 -0.004381757 -0.0006548366 0.00036363065 -7.0733855e-05 -0.00021871898 0.002060146 -0.00033877362
-0.00062559516 6.0128034e-05 -9.7438635e-05 -0.0019595842 0.0007107161 0.0007864678 1.7558967e-05 0.0015465633
0.0013481051 4.9407136e-05 -3.8128095e-05 0.00032184157 -0.00025429876 -3.749397e-05 -5.92164e-06 -0.00019719772
0.0007724101 -2.0065407e-05 -0.002351758 0.0007761197 9.7629905e-05 0.0021612814 -2.890496e-05 0.001289047
0.00042429962 0.0022944978 -0.0022826714 0.00065785286 -0.00017752545 -0.002326781 -0.00050616614 -0.0006452727
6.791335e-05 -6.482839e-05 -0.00048246575 -0.0009006631 0.00050501176 -0.0033755633 -0.0003267438 0.00073758466
-0.00059388834 0.00019551226 0.0015540415 0.0025087607 0.000804261 0.006754593 0.00071627746 -0.00045771163
-0.0012371482 -0.017440366 -0.005870007 -0.0017636883 2.6114016e-05 0.00033977014 0.00074786134 0.0005326676
-0.00032608747 0.00034864614 0.001458739 5.010594e-05 -0.00080608536 -0.0004387081 0.0012615833 -0.0002222571
-0.00021343835 9.897355e-05 -0.0022064426 -0.00032544968 0.0005568188 0.00025309072 0.0012754801 -5.6017114e-05
-0.001410976 -0.0001680123 0.0004900238 0.00010919818 -5.3641328e-05 -0.00064422644 -0.0002791987 -0.0020300096
0.00090076984 -0.0009548604 7.864482e-05 -0.00023962103 -4.2261818e-06 0.00024008303 -0.0063504595 3.0027622e-05
0.0023512484 0.00019098906 -0.0018911782 -1.2119708e-05 -3.8175236e-05 -0.0020720859 -0.00054985523 0.0043678093
-0.00078111724 -0.0003647956 8.709861e-05 -0.0022477487 0.00015266734 -0.0006630426 0.0029138378 0.0010059628
0.002337515 0.00012668625 0.0021865657 0.0006887898 0.0016455243 -0.0061764405 -0.0040250663 -0.0002538975
-0.000105243904 0.00017971374 0.0037845196 0.0028977143 -0.00014756001 0.00023356082 -0.00039378164 -0.00041293178
0.0012916535 -0.001101639 0.00023528714 -0.0008440024 0.000114653434 0.0041344706 0.0007712465 0.00031932158
0.00025250643 4.2252046e-05 -0.00072173 -0.000121036355 -3.920464e-06 -4.0534018e-05 0.0005142831 -0.00028084897
7.3418814e-05 0.0003836644 -0.0023559062 -0.0002545476 -0.0004460999 0.0007488722 -1.0995711e-05 -0.0007598532
0.000264173 0.0011053993 -0.0009804259 9.501719e-05 -1.6911157e-05 -0.00065794017 -0.0014524404 8.018498e-05
-0.0006085299 -4.2365922e-05 2.6332254e-06 7.830094e-05 4.5106954e-05 0.00051026786 -0.00027991322 0.0023287064
-0.0019062548 -0.0006447039 -0.00043581644 -0.00023421487 1.5762857e-06 -0.00013358585 -7.3070274e-05 -0.0042900713

layers.0.bias f4 [128]
00000000: 60a1 2cbd 06f1 7238 c6ce 8136 d3a7 1439
00000010: b70d d2bc fdfc fc3c 7fea 3fbb c58b a53c
00000020: 6d89 aa3c e60b 72bd f3bb 403d 9750 5b3d
00000030: e108 9fba 3745 31bd cc33 90bc fc45 d2ba
00000040: 8a72 2cba be0a 05bb 5589 353d 0356 7b39
00000050: cb4d d73c 5403 e2bb 4087 903c 376a 33bd
00000060: f8cb fcbc e87d d1bc bb6f e2ba a684 e23c
00000070: 17a3 2ebd 9083 1d38 4de7 0e3b c2dd a2ba
00000080: 520d 1e3a 4909 aebc 197b 86b6 90f7 2d3c
00000090: 9e71 b4bc 0911 be3a dbaf 843c e7a9 173a
000000a0: 2844 4939 f161 cc39 9d66 4a3d 645b eebc
000000b0: 52ae 53bd a775 983c 45dd 0ebd fc52 92bc
000000c0: d5d8 56bd d176 eebc aca5 4cbd c5c3 d83a
000000d0: cb64 b5ba 270b 7cbd 4b4a 273d 88bd 1e3d
000000e0: cd79 443c 0e04 18bb 8ddc d13c 545f 5d3c
000000f0: df32 72ba 4005 0eba cc2f 29bd 73f2 0fba
00000100: 257b 9dbb 03d9 22bb 8a72 af39 0057 d43c
00000110: cadc ffba 6ee1 fe3c 51df 1cbc 02cc 8e3b
00000120: 7f6d 093a b5cf 77bd cbd9 5bbc d94e e53c
00000130: f2fc 2c3d 0780 61bd 95c6 2d3d 5c0b 27bd
00000140: 5991 ae3c d6e8 43bd 1af3 7e3b 5beb 32bd
00000150: f0b5 493d bdf6 383c 36ad 4b3c c537 373c
00000160: a049 80bd d861 103d 873e 37ba 559f 8dbc
00000170: 1527 553d 5df9 41bd 660b dabc a391 bd3b
00000180: 9ef7 81b9 da6c 79bc 731f b6bc 00fc 1cbc
00000190: 4417 183b 41dc 85bd 6ca6 edbc a789 8dbc
000001a0: 06cc 3eba 4d5b 4dbd b0ca ac39 703e b43b
000001b0: a6e2 933a b8be f7bc 6200 61bb b0ae 52bd
000001c0: 0c17 8cbc 1d1c 19bb 09ea 10bd c7ac dbbc
000001d0: 8c7c a03b a20d 4ebd 8cf7 083b 747f 4039
000001e0: fafd 10bd 329e 10bd 995d 37bd be20 85bd
000001f0: 7c8e fb3a 7ab6 db3a 6cf0 4c38 24c9 43bd
-0.042146087 5.7921767e-05 3.868571e-06 0.000141769 -0.025641305 0.030882353 -0.0029284058 0.020208249
0.020817483 -0.05909338 0.047054242 0.053543653 -0.0012133383 -0.0432789 -0.017602824 -0.0016042585
-0.0006578347 -0.0020300592 0.044320423 0.00023969267 0.026282212 -0.0068973694 0.017642617 -0.043802466
-0.030858979 -0.025572732 -0.001727573 0.027651142 -0.042636003 3.7554244e-05 0.0021805346 -0.0012425708
0.00060292066 -0.021244662 -4.0078417e-06 0.0106181055 -0.022026833 0.0014500926 0.016197136 0.00057855103
0.00019194244 0.00038982884 0.049414266 -0.029096313 -0.051679917 0.018610789 -0.034878988 -0.017861836
-0.05245288 -0.02910939 -0.049962685 0.0016537836 -0.0013839243 -0.061534073 0.040842336 0.03875497
0.01199193 -0.0023195776 0.025617862 0.0135114975 -0.0009239148 -0.00054176524 -0.04130535 -0.0005491145
-0.0048059397 -0.0024848587 0.0003346394 0.025920391 -0.0019520756 0.031113353 -0.009574727 0.0043578157
0.00052424514 -0.06050082 -0.013418625 0.027991699 0.042233415 -0.055053737 0.04242571 -0.040782318
0.021309542 -0.04782947 0.0038902224 -0.043681484 0.049245775 0.011289296 0.012431433 0.01118273
-0.06264043 0.03524956 -0.00069902133 -0.01728789 0.052039225 -0.047356952 -0.026616763 0.0057851835
-0.00024789287 -0.015223706 -0.022231793 -0.009581566 0.0023207227 -0.06536151 -0.02901002 -0.017277552
-0.00072783267 -0.0501359 0.0003295741 0.005500607 0.0011282756 -0.030242309 -0.0034332504 -0.051436126
-0.017100833 -0.0023362704 -0.035379443 -0.026815785 0.0048976596 -0.05030597 0.0020899503 0.00018358027
-0.03539846 -0.035307117 -0.044766996 -0.06500386 0.0019192244 0.0016762756 4.88613e-05 -0.047799245

layers.2.weight f4 [128]
00000000: e5d5 763f c907 773f c13b 773f ffe2 763f
00000010: e7d3 763f 23e6 763f a92f 773f a12a 773f
00000020: 7152 773f 259c 773f 2816 773f f1d6 773f
00000030: ac8b 763f fcbf 763f 60d8 763f d7e4 763f
00000040: 5933 773f b382 773f 6411 773f 16d5 763f
00000050: e289 773f b80d 773f 4406 773f b4c6 763f
00000060: a4a9 763f 85c0 763f 0535 773f 92cb 763f
00000070: 0227 773f a3c7 763f 256c 773f 1454 773f
00000080: aecb 763f 6ecc 763f deca 763f 3bcb 763f
00000090: d1ce 763f c092 773f f50c 773f 8ade 763f
000000a0: 212a 773f 9f45 773f 2be9 763f 0a09 773f
000000b0: 79ca 763f 22ca 763f bee5 763f fbb2 763f
000000c0: e1d8 763f b900 773f 64bf 763f 9922 773f
000000d0: 261f 773f e61e 773f d145 773f f72e 773f
000000e0: a06b 773f 7ee9 763f e2c6 763f 7d33 773f
000000f0: b0d7 763f b441 773f 4ea9 773f 076a 773f
00000100: a4e5 773f 2471 773f 4cb7 763f dbaa 773f
00000110: 03c1 763f de1a 773f 881b 773f 3e08 773f
00000120: 26c2 763f ebfc 773f a04d 773f c9c5 763f
00000130: e99d 773f 66f6 763f eff4 763f 4fea 763f
00000140: d81b 773f 84e9 763f 96db 763f 7416 773f
00000150: 7606 773f 6d96 773f de14 773f 69cb 763f
00000160: f3fa 763f 69f6 763f b9de 763f 1503 773f
00000170: cb24 773f d558 773f 3739 773f 7bc0 763f
00000180: 57c6 763f 3bc5 763f 84c4 763f 8ccf 763f
00000190: 4138 773f fecb 763f 8ae3 763f 59e7 763f
000001a0: 4c6f 773f 5633 773f c1db 763f c5e4 763f
000001b0: 18c9 763f 97d2 763f 7822 773f b61b 773f
000001c0: d735 773f 378f 773f 5e45 773f 0fcb 763f
000001d0: daf0 773f 01ce 773f a64c 773f 1458 773f
000001e0: 6e3d 783f b3b0 763f 29cb 763f 46ee 763f
000001f0: 2bb1 763f ad04 773f 1c00 773f b4e9 763f
0.9642013 0.96496254 0.9657555 0.9644012 0.9641709 0.9644491 0.965571 0.9654942
0.9661017 0.9672263 0.9651818 0.9681235 0.9630687 0.96386695 0.9642391 0.9644293
0.96562725 0.96683806 0.9651091 0.96418893 0.9669477 0.9650531 0.96493936 0.96396947
0.963526 0.9638751 0.96565276 0.96404374 0.96543896 0.9639837 0.9664939 0.9661267
0.9640454 0.96405685 0.964033 0.96403855 0.96409327 0.967083 0.96504146 0.9643332
0.9654866 0.9659061 0.96449536 0.9649817 0.964027 0.9640218 0.9644431 0.9636685
0.9642468 0.9648548 0.9638579 0.96537167 0.96531904 0.9653152 0.96590906 0.9655604
0.966486 0.9645003 0.9639722 0.9656294 0.96422863 0.9658463 0.96742713 0.9664616
0.9683478 0.96657014 0.9637344 0.9674508 0.9638826 0.9652537 0.96526384 0.9649695
0.96389997 0.968703 0.9660282 0.96395546 0.96725327 0.96469724 0.9646749 0.96451277
0.9652686 0.96450067 0.9642881 0.96518636 0.96494234 0.96713907 0.96516216 0.9640413
0.9647667 0.9646974 0.964336 0.9648908 0.96540517 0.9661992 0.9657168 0.9638745
0.9639639 0.963947 0.9639361 0.9641044 0.9657021 0.9640502 0.9644095 0.9644676
0.966542 0.9656271 0.9642907 0.96442825 0.96400595 0.96415085 0.9653697 0.9652666
0.9656653 0.96702904 0.9659022 0.9640359 0.96851885 0.9679871 0.9660133 0.9661877
0.96968734 0.9636337 0.9640375 0.96457326 0.96364087 0.9649151 0.9648454 0.9645035

layers.2.bias f4 [128]
00000000: 5603 bcbb 2637 133c 6baa 80bb 9205 083c
00000010: 7f8c 3bbc 389e 1cbc 728c 213c b292 15bb
00000020: 24bd 16bc 1065 deba 8f42 e7bb 992d 29bc
00000030: e672 b2ba 40e0 663b 54bb 08bc 3a55 e43b
00000040: 262b 1ebc 0093 923b 6674 133c b68e 52bb
00000050: d83a f93b a53c f4bb 37bf 7039 eef1 193b
00000060: 3b1b ec3b bf9d 9c3b 8d5d 27bc 1789 aebb
00000070: c3a8 4cbc c849 9eb9 6b9d 2dbc ce69 01bc
00000080: a79a b8bb e366 c1bb ca93 313c 6dac 4c3b
00000090: 03aa 933b 84f7 503c 6c02 003c 5881 2b3c
000000a0: 48ec b83b 5a1b d53b 9bf0 0bbc be0e 8cbb
000000b0: 6166 753b a54a 833a fca0 acbb ee7b 3f3c
000000c0: ef8b e7bb 6b85 acbb 2437 3c3c 088e 0fbc
000000d0: 5034 c43b b132 0a3c c7db 03bc 57a7 4f3c
000000e0: dea2 28bc cff9 dbbb df2c 4d3b 94df 40bc
000000f0: a236 213b 6e45 c7bb 8e27 ec3b 84d9 d23b
00000100: 4886 27bc 134c d13b bd64 02bc 4208 f83b
00000110: 9305 a1bb 0c86 e1bb 5785 063c 3c2e 2abc
00000120: ad2c 203c 2ba5 24bc 12e6 34bc 6a03 133c
00000130: 0c8b b93b d6a3 02bc 5ea9 35bc e917 163c
00000140: 11bd 8b3b f6aa e3bb 8f3f f4bb a3c6 edbb
00000150: 4e45 32bc bd77 eebb d018 87bb 0095 203c
00000160: ddd7 5a3b 618c 2ebc 43b6 bb3b e2bb 313c
00000170: 6a1c bdbb ded2 9f3a aa58 10bc 2a68 cabb
00000180: 7847 0d39 0905 a33b 6ab8 3d3b a532 de3b
00000190: 8b8b 2a3c 1ca8 dd3b b130 febb 5101 3cbc
000001a0: e571 423b 3bf0 17bc 1c78 30bb 0b54 f7b9
000001b0: 08e8 213c 4e83 043a b051 41bc 35c7 a13b
000001c0: 2dd3 e93b 765f 05bc 97db 5dbc ef65 eb3a
000001d0: 026f e2bb 31e8 0bbc 41dc 18bc ae65 3dbb
000001e0: c517 073c e651 f9ba 59c2 c6bb 8245 803b
000001f0: 2447 ab3b 0fd6 2fbb 995c e1bb 3072 993a
-0.0057377024 0.008985316 -0.0039265654 0.008302109 -0.011447071 -0.009559207 0.009860145 -0.0022823033
-0.009200368 -0.0016967375 -0.007057495 -0.010325813 -0.0013614565 0.0035228878 -0.008345444 0.0069681676
-0.009653842 0.00447309 0.0089999195 -0.003212852 0.0076058917 -0.0074535185 0.00022959417 0.0023490149
0.0072053946 0.004779547 -0.010215175 -0.005326401 -0.012491408 -0.0003019108 -0.010596613 -0.007898761
-0.0056336704 -0.0059021576 0.010838458 0.0031230703 0.004506351 0.012754325 0.007813077 0.01046785
0.0056434013 0.0065035047 -0.0085412515 -0.0042742183 0.0037445056 0.0010016753 -0.0052682143 0.011687262
-0.007066242 -0.005264928 0.011487756 -0.00876189 0.0059876814 0.008434937 -0.0080480045 0.012674174
-0.010292737 -0.006713129 0.0031307263 -0.011772055 0.0024599214 -0.0060812747 0.0072068637 0.0064346213
-0.010224886 0.0063872426 -0.007958588 0.007569344 -0.0049139946 -0.0068824347 0.008210502 -0.010387
0.009776277 -0.010049145 -0.011041181 0.008972982 0.0056623276 -0.007973632 -0.011087744 0.009160974
0.004264482 -0.0069478704 -0.007453866 -0.0072563454 -0.010880781 -0.0072774575 -0.004122831 0.009801149
0.0033392825 -0.010653586 0.0057285144 0.010848017 -0.0057712095 0.0012193581 -0.008810202 -0.006176968
0.00013473432 0.0049749655 0.002894903 0.0067809396 0.010409246 0.006764425 -0.0077572693 -0.011474923
0.0029669937 -0.009273584 -0.002692706 -0.00047174128 0.009881981 0.00050549663 -0.011799261 0.0049370774
0.00713577 -0.008140435 -0.013541124 0.0017959456 -0.006910206 -0.008539245 -0.009329856 -0.0028899717
0.008245413 -0.00190216 -0.0060656485 0.003914536 0.0052269865 -0.002683047 -0.0068774936 0.0011707004

layers.2.running_mean f4 [128]
00000000: 56a5 54cf 33a9 7550 f6bd 0ecf beb9 6750
00000010: fa3a 2acf e5c4 f7cf 7e2c 6e50 b0a3 9ccf
00000020: 258b 85cf 07f7 adce 3fa5 6fcf 0515 68ce
00000030: 6298 3ccf 171c 9350 6c6f 79cf 096e 9d50
00000040: 9466 7dcf 34a4 0cce 2f71 6e50 dcff 66ce
00000050: d67e 57ce 0cbe b2ce 93f0 ffce 20f2 9450
00000060: 9285 ea50 dcef 9050 38ba d0ce 5add 5fcf
00000070: a665 41cf 452e da50 217f 57cf 4640 d0ce
00000080: b600 b3cf 6bd8 aacf a5b6 6f50 0d14 a450
00000090: ad97 9450 2d50 4250 2dca b850 37c1 9f50
000000a0: 23ae 2450 aed8 9f50 fdf2 91cf eb79 abcf
000000b0: 2c3c 9150 6796 b050 deb8 80cf ac46 8d50
000000c0: 3bf2 57cf 53dc 94cf 1c86 8a50 12f0 21cf
000000d0: 6e1f 2c50 0e38 2150 b94e ee4f f514 6850
000000e0: fe00 15d0 c11f 68cf 3f05 8650 798c 66cf
000000f0: 9fbe 8450 b8f2 26cf 895f 7150 491f 0950
00000100: c78a b2ce 9fe4 eacc d6d9 8acf deb9 c04f
00000110: 8e6b 59cf 33d0 aacf 7c0d 1050 9f2b 91cf
00000120: fa25 9450 5f7e 99ce 5bbc d1ce b225 7050
00000130: a26e de4f b65e 24cf b09f e1ce c53a 6e50
00000140: 015a a650 cc61 8b50 e0b8 55cf be82 44cf
00000150: d2ed aecf 2bba eece ae0b 19cf 0a50 9750
00000160: 44f5 9d50 358a 87cf f015 4050 15a6 2950
00000170: f512 9bcf de4f a54f e971 6ccf 1b29 8fcf
00000180: 8856 8acf 316f 4a50 eb86 cb50 810e 5350
00000190: aeda 8550 f51d a250 e0b7 86cf 6aaa 56cf
000001a0: 988d 1250 5c37 36cf 7593 4c50 38b6 65cf
000001b0: 72df 0451 52fc 9150 c325 7ecf 0aa0 9e50
000001c0: ec6c 2b50 414c 8cce 7c18 4bcf 44d7 b2cf
000001d0: 7abc 93ce f812 bece 7ce4 11cf f039 3a50
000001e0: 9c2e b74f c95f 46cf c381 96cf cc46 18cf
000001f0: 7e69 d250 2308 2f50 bad4 32cf 9669 6e4f
-3.5676052e+09 1.6486026e+10 -2.394814e+09 1.5550839e+10 -2.8559918e+09 -8.313752e+09 1.5983573e+10 -5.255946e+09
-4.4809774e+09 -1.4593238e+09 -4.0205842e+09 -9.734229e+08 -3.1641032e+09 1.9744733e+10 -4.184829e+09 2.1129873e+10
-4.2513582e+09 -5.8989286e+08 1.600158e+10 -9.688819e+08 -9.0385344e+08 -1.4993997e+09 -2.1469782e+09 1.9991167e+10
3.1476978e+10 1.9453108e+10 -1.7509325e+09 -3.7558257e+09 -3.2446643e+09 2.9283723e+10 -3.615433e+09 -1.7469366e+09
-6.0063365e+09 -5.73262e+09 1.6086898e+10 2.202222e+10 1.9943746e+10 1.3040137e+10 2.480206e+10 2.1441919e+10
1.1051503e+10 2.1454221e+10 -4.8972416e+09 -5.753788e+09 1.9493118e+10 2.3701174e+10 -4.319198e+09 1.8961752e+10
-3.6229763e+09 -4.9949343e+09 1.8592358e+10 -2.716865e+09 1.1550964e+10 1.0819222e+10 7.996273e+09 1.557475e+10
-9.999481e+09 -3.8943951e+09 1.7987926e+10 -3.8679657e+09 1.781668e+10 -2.8009247e+09 1.619828e+10 9.202116e+09
-1.4977197e+09 -1.2315161e+08 -4.659064e+09 6.466813e+09 -3.6477046e+09 -5.7315425e+09 9.667211e+09 -4.87111e+09
1.9884134e+10 -1.287598e+09 -1.7593911e+09 1.6116009e+10 7.463585e+09 -2.7576704e+09 -1.8926694e+09 1.5987316e+10
2.232733e+10 1.8707538e+10 -3.585663e+09 -3.2969027e+09 -5.869643e+09 -2.002589e+09 -2.5676795e+09 2.030884e+10
2.1200773e+10 -4.5479634e+09 1.2890653e+10 1.1384935e+10 -5.2034217e+09 5.5469496e+09 -3.9668882e+09 -4.8036716e+09
-4.6418534e+09 1.3585139e+10 2.7316935e+10 1.4163772e+10 1.7965609e+10 2.1758978e+10 -4.520395e+09 -3.6014925e+09
9.835012e+09 -3.0570813e+09 1.3728863e+10 -3.8539244e+09 3.566778e+10 1.959386e+10 -4.2638876e+09 2.1290308e+10
1.1504169e+10 -1.1769038e+09 -3.4073795e+09 -6.000904e+09 -1.2393014e+09 -1.5944571e+09 -2.4476703e+09 1.2497437e+10
6.14657e+09 -3.3281661e+09 -5.050173e+09 -2.5547766e+09 2.8241031e+10 1.1746184e+10 -3.0002857e+09 3.999897e+09

layers.2.running_var f4 [128]
00000000: d8d3 a45c 75da d25e 3dd9 0d5c d69a ca5e
00000010: 4e3d 745c 0551 f05d e3ff dc5e 332e 755d
00000020: d90c fe5c 88fd ea5c 2a49 fb5c f1ea 495b
00000030: 6354 b45c f36f 185f 4bad e55c 21ca 3b5f
00000040: 5728 f85c bc67 e85c c9dd c95e 641a 215c
00000050: 5c20 ed5c cf3e 865b 2663 145c 9256 2c5f
00000060: 6190 dc5f 24b3 275f a3f5 af5b e631 bf5c
00000070: 7fda 835c a305 bb5f e6b8 a75c eea5 b85b
00000080: a5bc 795d 49bb b95d 1bf8 d35e 2de8 4a5f
00000090: 6f1c 3b5f cbbd 855e 0237 7c5f 1b62 565f
000000a0: b221 5c5e 983e 5b5f fcea 195d eef4 cd5d
000000b0: 7780 1e5f 11ca 725f 288b fe5c aae1 1a5f
000000c0: 4db1 a75c 4f71 4f5d d5b0 115f b9a9 965c
000000d0: 67a3 865e 7db9 505e f1ba 325e a233 c65e
000000e0: 4474 2e5e 43d2 d55c d83e 0d5f 76cd bc5c
000000f0: 9029 085f fa65 cc5c 5252 d55e d884 125e
00000100: c2a9 a05b 8afa 635c 6b6d 165d 7a4a c65d
00000110: 8128 bd5c 9d39 825d fe15 4c5e 4b4c 265d
00000120: 6eaa 205f 5b20 455b 8d59 c25b 2160 df5e
00000130: 07cc d45d aa60 4c5c 2b56 b95b 657b eb5e
00000140: 7dd9 9e5f 8746 215f 5d1b a55c 66dc 8d5c
00000150: 879c 695d 1b30 de5b fec2 405c a4b0 225f
00000160: 0988 5b5f 26b9 095d 9444 965e a074 4d5e
00000170: 3314 445d 9572 bf5d fda6 d75c 33df 225d
00000180: 36f7 125d 9eba 9f5e 5409 a25f 8dc8 a25e
00000190: 15de 025f 00cd 4d5f 4fee 045d 05bc c55c
000001a0: 66c1 875e e202 685c 2a00 a95e 047e c85c
000001b0: 9f82 0260 6246 275f 3788 e45c 1f4c 5a5f
000001c0: f111 855e d0a0 1e5b 6f3f 9e5c b3ff 685d
000001d0: 6227 975b 1541 485c 3782 3f5c 143e b15e
000001e0: 3c8f a45d 57ea 985c a614 2b5d b769 5b5c
000001f0: 953c ad5f 9a1c a75e 9482 6b5c 61e5 e15d
3.7115857e+17 7.5967925e+18 1.5970731e+17 7.299608e+18 2.749892e+17 2.1645784e+18 7.962348e+18 1.10419465e+18
5.7207016e+17 5.2915124e+17 5.658453e+17 5.683479e+16 4.0606624e+17 1.0984265e+19 5.1718646e+17 1.3531664e+19
5.588012e+17 5.2333e+17 7.2730017e+18 1.8138595e+17 5.339612e+17 7.557341e+16 1.6706925e+17 1.2418274e+19
3.178662e+19 1.2084042e+19 9.90564e+16 4.3053268e+17 2.969077e+17 2.6952713e+19 3.7767695e+17 1.03947675e+17
1.124715e+18 1.6729214e+18 7.636994e+18 1.4620986e+19 1.3482773e+19 4.818541e+18 1.8173997e+19 1.5447939e+19
3.9655388e+18 1.5798232e+19 6.931846e+17 1.8550935e+18 1.142126e+19 1.7494814e+19 5.731812e+17 1.1160388e+19
3.7761012e+17 9.342385e+17 1.0498125e+19 3.3926287e+17 4.8508556e+18 3.7600475e+18 3.2197178e+18 7.1409685e+18
3.1426868e+18 4.8148284e+17 1.017781e+19 4.2514562e+17 9.811532e+18 4.6026416e+17 7.6857193e+18 2.6394502e+18
9.044529e+16 2.5668116e+17 6.7746485e+17 1.7860459e+18 4.2594644e+17 1.172963e+18 3.6764849e+18 7.489397e+17
1.1577187e+19 5.5486146e+16 1.09409215e+17 8.0479507e+18 1.9167048e+18 2.3010871e+17 1.0433523e+17 8.4841335e+18
2.2892635e+19 1.1621124e+19 3.7178766e+17 3.1944242e+17 1.0520924e+18 1.25080675e+17 2.1703037e+17 1.172305e+19
1.5818904e+19 6.202503e+17 5.413971e+18 3.7011584e+18 8.830609e+17 1.7244066e+18 4.856058e+17 7.335097e+17
6.618745e+17 5.754843e+18 2.3351912e+19 5.86489e+18 9.429998e+18 1.4829509e+19 5.986675e+17 4.452584e+17
4.891106e+18 2.6122146e+17 6.08889e+18 4.514684e+17 3.7617015e+19 1.2053429e+19 5.146085e+17 1.5729982e+19
4.794355e+18 4.464986e+16 3.5634234e+17 1.0493334e+18 8.509205e+16 2.2546622e+17 2.1561957e+17 6.385834e+18
1.4822203e+18 3.4433485e+17 7.704788e+17 2.4703702e+17 2.4966032e+19 6.0208344e+18 2.6516077e+17 2.0346904e+18

layers.3.weight f4 [128, 128]
00000000: 92cf 93bb 71ff 813b c21c 4fbb b9f0 103c
00000010: 5ef5 26bb 35a5 e0bb 6c66 5bbb 2f24 0fbc
00000020: e60b c3bb 0422 74bb 3cf8 c3ba 0c32 5b3b
00000030: cac1 da3a b82c 0b3a d3af 37bb ff3c b73b
00000040: 13b8 28bc 122d 85ba cb51 d53b fbba 873b
00000050: 3d21 3abb 7808 983a a48d f83a d883 943b
00000060: 46f8 313b 7f97 da3b 6f2f ac3b 6cf0 9dbb
00000070: 5043 a4bb 3a95 203c b7f7 4ebb 235b 8dbb
00000080: c763 03bb 227a 87ba 706b 9db9 ec91 fb3b
00000090: ca79 da3b 861d be3a 60fc 573c 85e6 213b
000000a0: 20a7 cbba eb15 ef3b e036 8ebb 8be1 99bc
000000b0: 02b2 c53b 4a06 823b fc33 fcb9 ff74 103a
000000c0: 96a8 9fbb 81b1 43bb 1b69 df3b 47e6 76bb
000000d0: d35c b73b dfaf 87bb 49b4 ec3a 023b af3b
000000e0: fcfe 34bb 4df9 223a 2a32 043c 067e f4bb
000000f0: c6d8 233a baeb 16bb 768d 98b9 104b 6ebb
00000100: 2133 633b fef9 1ebb 485b 34bb 544d 14bb
00000110: 0991 f5bb a079 d4bb f11c a7bb 4163 07bc
00000120: 46c3 aa3b 7d16 813b a224 f4bb 5c1e 093c
00000130: 39ae 59bb 77d1 15bc 12a4 a7b9 0d7a 613b
00000140: c018 c93b 16e7 e339 ea12 68bc 68d0 93ba
00000150: 80d5 efbb c273 473b d039 d9ba 9dcc 433b
00000160: 8cad 0b3c 771c fabb 60c6 91b8 3966 2b3b
00000170: c3d2 13bc 7825 013b 36d5 75ba 1e25 45ba
00000180: 5ba3 a8bb 024f 59bb 3287 0f3b c44c 0b3b
00000190: 29f8 dd3b d1fc e33a 2c8b 49bb e41e 0739
000001a0: 8199 033b f8d9 3f3a 0c69 ff3b ab94 6b3b
000001b0: d3b2 c33b aece 283a 3d62 e9bb 07ba d03b
000001c0: 4ca2 2f3b dd13 513b 3c76 aebb 3ff2 8ebb
000001d0: 327c 753b e90b 9f3b 1821 b3b8 63ac 96bb
000001e0: 8843 21ba ef11 523a f648 c0bb 785f 10bc
000001f0: 1699 fc3a 610f 50bb 6e4a 0bba a5c2 c33b
00000200: 1f46 30bc c2c7 703b 4dc9 19bb c419 bb3b
00000210: b3f2 9fbb 1934 dcbb df62 4cba 1ac9 edb9
00000220: d247 99bb ca22 5a3a 1b09 a1bb 0682 c3ba
00000230: 30ac 3abb 8ed8 853b 0b5d bbbb 92c1 293a
00000240: ecbe 2839 64ac 5839 3ef1 8c3b 1ff9 a23a
00000250: 2d44 6a3a 22e9 efba c270 58bb 44f1 933b
00000260: e8b2 d13b c716 f23b 7db3 753b c73c dcbb
00000270: baa1 44bb e17f ab3b b01f 0abb 3637 e8b9
00000280: 4966 6dbb 7780 5f3a e0e5 833b f3d3 823b
00000290: e249 273a 4b2c 2d3b 9e4d c63b 81ea 0e3c
000002a0: b7a4 123b b9aa af3b 15da 97bb 5e63 9e3a
000002b0: 7ca3 c73b 32d3 833b 7406 81bb 1f64 613b
000002c0: c95c e8bb 8642 0bb9 a5b6 aa3b b84e 4aba
000002d0: 02f5 623b 9683 653b eef1 12ba 8166 a3b9
000002e0: feba ddbb 5ca0 e3bb 4992 f93b 2953 c4bb
000002f0: 32cc 073c e1e7 353b c35b 903b 62b1 a239
00000300: 0373 6fba b2a0 f8b9 a057 8cbb a256 4a3a
00000310: 871b 8dbb 3359 ccba 182d 903a 947d aabb
00000320: cc57 af3b 1cf5 2539 1576 be39 9b7c c83b
00000330: 62f1 d9b9 948f 22bb 98d7 56bb c648 c23b
00000340: b0e3 11bb 58c8 503b c42d d5bb 3e18 a0bb
00000350: d098 79bb 24ab 48bb 00c1 03ba a78a 9a3b
00000360: e93e 323b 6887 4ebb 794f a33b cfd2 823b
00000370: 9c15 58bb 46a8 633b 6718 dbbb 9ffb 89bb
00000380: d0e5 c3bb 6bc0 f93b 8da6 5f3b 6dbd c33b
00000390: d8a5 3a3b 1d5a 853b 6653 85bb fdb4 21bb
000003a0: e416 0f39 648f 18bb abe7 da3b c48c 74bb
000003b0: 20e5 783b 5705 e63b eabb d5bb 40d6 ff35
000003c0: cb14 94ba 7c86 99bb 1f1d 89ba d2ac 7dbb
000003d0: affc 1fbb 7e34 77bb d295 21bb 4be4 153b
000003e0: b199 593b 56dd 2dbc 2e97 ccbb 8d0e c1bb
000003f0: 402a 993b cf2a 293b 78fc a0bb e145 313b
-0.0045108283 0.0039672186 -0.0031602834 0.008846455 -0.002547584 -0.0068556317 -0.0033477796 -0.008736654
-0.005952346 -0.003725172 -0.0014951299 0.0033446578 0.0016689834 0.0005309093 -0.0028028383 0.005591988
-0.010297793 -0.0010160527 0.0065099946 0.004142163 -0.002840116 0.0011599204 0.0018963111 0.0045323186
0.002715604 0.006670892 0.005254678 -0.0048199203 -0.005012907 0.009801203 -0.0031580755 -0.004313843
-0.0020048486 -0.0010336081 -0.0003002542 0.0076773074 0.0066673504 0.0014504648 0.0131827295 0.002470405
-0.0015537478 0.007296314 -0.0043400377 -0.018784305 0.006033183 0.003968035 -0.00048103917 0.0005510598
-0.004872392 -0.002986044 0.0068179495 -0.0037673877 0.0055957823 -0.0041408385 0.00180591 0.0053476105
-0.0027617803 0.0006216958 0.008068601 -0.007461312 0.00062502583 -0.0023028688 -0.00029097096 -0.0036360659
0.0034667926 -0.0024257894 -0.0027520228 -0.00226291 -0.007494096 -0.0064842254 -0.0050998856 -0.00826341
0.0052112667 0.0039394484 -0.007450656 0.008369055 -0.0033215417 -0.009144179 -0.00031974964 0.0034405023
0.0061369836 0.00043468986 -0.014164666 -0.001127732 -0.0073191524 0.0030433987 -0.0016573016 0.0029876598
0.0085252635 -0.007632788 -6.951089e-05 0.0026153459 -0.0090224175 0.001970617 -0.0009377779 -0.00075204845
-0.0051464266 -0.0033158665 0.002190065 0.0021255473 0.0067739678 0.0017394071 -0.003075312 0.00012886111
0.002008051 0.00073185517 0.007794505 0.0035946767 0.0059722452 0.0006439489 -0.0071223066 0.0063698324
0.0026799617 0.0031902709 -0.005324153 -0.004362374 0.003745806 0.0048537147 -8.541549e-05 -0.004598187
-0.00061517255 0.00080135366 -0.0058680726 -0.008811824 0.0019271697 -0.0031747448 -0.000531352 0.005974131
-0.010758906 0.0036740159 -0.0023465932 0.0057098586 -0.004881227 -0.0067200777 -0.00077967154 -0.00045353995
-0.004677751 0.0008321224 -0.0049144155 -0.0014916069 -0.002848398 0.004084653 -0.0057178787 0.00064756826
0.00016092852 0.00020663586 0.0043012192 0.0012433863 0.00089365506 -0.0018303732 -0.0033026193 0.004514845
0.006399501 0.007387969 0.0037491017 -0.0067211124 -0.0030003623 0.00523375 -0.0021076016 -0.00044291624
-0.0036224297 0.00085259177 0.004025206 0.0039925515 0.0006381554 0.0026424106 0.006051733 0.008722902
0.002237601 0.005360928 -0.0046341517 0.0012084057 0.006092487 0.004022979 -0.003937537 0.0034391952
-0.007091139 -0.00013280855 0.005209761 -0.00077174185 0.00346309 0.0035021058 -0.00056055083 -0.00031166154
-0.006766676 -0.0069466066 0.0076163155 -0.005991359 0.00828843 0.0027756619 0.00440547 0.00031031208
-0.00091342645 -0.00047421973 -0.0042829067 0.0007718598 -0.00430626 -0.0015590548 0.0010999767 -0.0052029584
0.0053510424 0.00015826937 0.00036327602 0.0061183698 -0.0004156931 -0.0024804818 -0.0032782312 0.0059290854
-0.0022260956 0.0031857695 -0.0065057 -0.0048857024 -0.0038085468 -0.0030619586 -0.00050260127 0.0047162357
0.0027198142 -0.0031513814 0.004983839 0.0039924155 -0.0032971865 0.003473775 -0.0066862586 -0.004210904
-0.0059783235 0.007621815 0.0034126372 0.005973509 0.0028480198 0.00406958 -0.0040687798 -0.0024674528
0.0001364607 -0.0023278827 0.006680449 -0.0037315348 0.0037978366 0.0070196795 -0.0065226452 1.9061335e-06
-0.0011297701 -0.0046852212 -0.0010460949 -0.0038707745 -0.0024412086 -0.0037720497 -0.002465595 0.002287167
0.003320318 -0.010611853 -0.006243608 -0.005891627 0.004674226 0.002581287 -0.004912909 0.0027049708

layers.3.bias f4 [128]
00000000: ae9c 413d 46e4 6e3d c315 843c 1231 c8bc
00000010: ea46 5cbd e81f 2e3b 09a6 5dbd a1ae 8ebd
00000020: 63a4 3a3d 2272 983c 4875 89bd d8e3 1e3c
00000030: 5671 95bd 15a0 1c3d 1727 5b3d 83cb 6a3b
00000040: ef5c 11bd 3515 d5bb 38b6 143d 038c c4ba
00000050: 898c 8f3d 18bb 15bd b8fb debc bf7b 9a3d
00000060: 3f11 843c ae86 04bd 8c5d 523c dd4b d8bc
00000070: 8bdc d0bc 33df 90bd f79e 5d3b 743d 7bbd
00000080: d28b 7ebd 0c41 9b3d 5b77 093d 9f24 54bd
00000090: a32b 993c 69f0 5e3d 66a2 343d 5b20 d8bc
000000a0: 8ffa 683d 8e40 c7bb e976 e5bc 5244 203d
000000b0: c575 dfbc c484 fa3b 11ef 8bbd a734 293d
000000c0: 114a 32bd 43a2 8a3b a54d 7f3d d2c4 02bc
000000d0: 553b 2abd 550a 393d 86e2 663d f1ba ab3a
000000e0: 4d9d 9cbd 9fd3 36bd 433a b43b 7540 213d
000000f0: 06dc 58bd 82da 19bb 3d57 4fbb ef85 753d
00000100: 99b6 96bd e62e f8bb 0076 093d a635 293d
00000110: a6a4 0abd 84f1 29bd de5e 1cbd 3d6c 2e3b
00000120: dd1b 55bd e47e 1bbd 99d9 953b b44a 7f39
00000130: 5146 ed3c e10f da3c 5cc2 9f3d 35f3 8e3d
00000140: fcff 8b3d 8ff2 99bd e6cd 4d3d 9fce a93b
00000150: ebd9 c93b b64b a6bc 742d 3e3c 3f95 29bd
00000160: d88d 113d 1509 82bd e087 1b3d 143c d8bb
00000170: 4ae8 6abd e27d e43c d836 4e3d 97f0 013d
00000180: c52d 06bd a500 eb3c 8161 953d 062d 553a
00000190: c000 20bd cea5 813d fb53 813d 94f4 cbba
000001a0: e505 58bc f88f 7e3c 13a0 28bd d7e4 16bb
000001b0: 70aa cabb 95b2 ba3b 4eb2 0f3d 922f 783d
000001c0: b0b1 9fbc 99d0 913d 87d5 23bd c332 823d
000001d0: 26c2 88bd 78b9 c33a 4ace 1f3b 1b04 2cbd
000001e0: 2e4d 343c b8d2 4c3d a1fc 7cbd a665 d6bb
000001f0: b4e5 153d 0f6c 0dbd 813d 0a3d 9c70 dabc
0.047268562 0.058323167 0.016123658 -0.024437461 -0.053778566 0.002656931 -0.05411342 -0.069669016
0.045566928 0.01860911 -0.06711823 0.009697877 -0.07297008 0.038238604 0.053504076 0.003582687
-0.03548902 -0.006502772 0.03630659 -0.001499534 0.07009227 -0.03655538 -0.027219638 0.07543134
0.016121505 -0.032355003 0.012839686 -0.026403362 -0.025495788 -0.07073822 0.0033816674 -0.061337903
-0.06214506 0.07580766 0.033561092 -0.051792737 0.018697565 0.05442849 0.044100188 -0.026382616
0.056879576 -0.0060806936 -0.028010802 0.039127655 -0.027277837 0.0076452214 -0.06832708 0.04130998
-0.043527666 0.004230769 0.062329907 -0.007981496 -0.04156049 0.04517587 0.056368373 0.0013101978
-0.0764719 -0.04463541 0.0055001094 0.03936811 -0.052944206 -0.0023476188 -0.0031637691 0.059942182
-0.073590465 -0.00757395 0.0335598 0.04131093 -0.033848427 -0.041490093 -0.03817641 0.0026614808
-0.052028526 -0.03796281 0.004573059 0.00024346524 0.028964194 0.0266189 0.07800743 0.06979982
0.068359345 -0.075169675 0.05024519 0.005182102 0.006160011 -0.020299774 0.011607517 -0.041402098
0.035535663 -0.063493885 0.037971377 -0.0065989587 -0.057350434 0.027892057 0.05034527 0.031723585
-0.032758493 0.02868683 0.07293988 0.0008132014 -0.039063215 0.06330453 0.06314846 -0.0015560561
-0.013184999 0.0155372545 -0.041168284 -0.0023024583 -0.0061848685 0.005697558 0.035082154 0.06059224
-0.019493908 0.07119865 -0.039998557 0.06357338 -0.06677656 0.0014932593 0.0024384432 -0.041996103
0.011004729 0.050005645 -0.061764363 -0.006542879 0.036596015 -0.03452688 0.03375006 -0.026665024

layers.6.weight f4 [128]
00000000: 13e7 763f fdea 763f f9e6 763f 26cd 763f
00000010: 9fe5 763f dff6 763f 11d1 773f f0b4 763f
00000020: 0b3a 773f 30eb 763f 5139 773f 60e9 763f
00000030: 343e 773f fd05 773f 5ca9 763f 2c96 773f
00000040: e022 773f e133 773f 44b7 763f 40b1 763f
00000050: f7a5 763f c488 773f 57c0 763f 81f8 763f
00000060: e73e 773f e60a 773f 9769 773f 75b4 763f
00000070: 9cd6 763f 11c5 763f f6dc 763f 17ed 763f
00000080: 808e 773f 1950 773f c83a 773f faf6 763f
00000090: 7bcd 773f 84f8 763f d2de 773f d5bb 763f
000000a0: 7cba 763f 3084 773f 39c2 763f a66d 773f
000000b0: 59eb 763f f0b2 773f fbe2 763f 0ae7 763f
000000c0: 5f83 773f ef0f 773f 15ef 763f 174b 773f
000000d0: 14c3 773f c3ae 763f 807a 773f 46dd 763f
000000e0: e4dd 773f d7c1 763f 52a9 763f 961b 773f
000000f0: 02f4 763f add5 763f 2ae0 763f adb6 763f
00000100: c42f 773f 7cd8 763f aeb8 773f c911 783f
00000110: 0f52 773f db98 773f 1d7e 773f f983 773f
00000120: a1e7 763f 63b8 763f b881 773f ced3 773f
00000130: 53b8 763f 0aaa 773f e781 773f 411a 773f
00000140: 5604 773f 7a4f 773f dda1 763f 3bcb 773f
00000150: 7cb9 763f 28c4 763f 9abf 763f 221b 773f
00000160: f26a 773f 6de2 763f 3314 773f 72d6 773f
00000170: e18b 773f dde3 763f a562 773f b9d5 773f
00000180: e97c 773f c1be 773f 2cbb 763f 03b3 763f
00000190: 86f2 763f de48 773f ba46 773f aff3 763f
000001a0: 2908 773f 04ad 773f 6715 773f baac 773f
000001b0: 4337 773f 2a41 773f 26cf 763f 4c35 773f
000001c0: a829 783f 41c6 763f 24ce 763f b2be 763f
000001d0: f7cb 763f f7bb 763f 5327 773f 0c47 773f
000001e0: c052 773f 97a8 763f f145 773f e3f5 763f
000001f0: ccb8 773f d58c 773f 2e9e 763f a1a0 763f
0.9644634 0.96452314 0.96446186 0.9640678 0.96444124 0.96470445 0.96803385 0.9636984
0.9657294 0.9645262 0.9657183 0.9644985 0.9657929 0.9649351 0.9635217 0.9671352
0.9653759 0.96563536 0.9637339 0.9636421 0.9634699 0.9669306 0.9638724 0.96472937
0.96580356 0.96501005 0.9664549 0.96369106 0.9642122 0.9639445 0.9643091 0.9645552
0.9670181 0.96606594 0.9657407 0.96470606 0.96797913 0.96472955 0.9682437 0.9638036
0.963783 0.9668608 0.9639011 0.96651685 0.9645286 0.9675741 0.96440095 0.9644629
0.9668483 0.9650869 0.9645856 0.96598953 0.9678204 0.96360415 0.96671295 0.96431386
0.96822953 0.96389526 0.9635211 0.9652647 0.96466076 0.96419793 0.964358 0.9637249
0.9655726 0.9642408 0.96766174 0.9690214 0.96609586 0.96717614 0.9667681 0.9668575
0.9644719 0.963751 0.9668231 0.96807563 0.96375006 0.96743834 0.9668259 0.96524435
0.9649099 0.96605647 0.96340734 0.9679448 0.96376777 0.9639306 0.9638611 0.96525776
0.9664756 0.9643925 0.96515197 0.9681159 0.96697813 0.9644144 0.96634895 0.9681049
0.9667497 0.9677544 0.9637935 0.963669 0.9646381 0.9659556 0.96592295 0.9646558
0.96496826 0.96748376 0.9651703 0.96747935 0.965687 0.9658381 0.96409833 0.965657
0.9693856 0.9639626 0.96408296 0.9638473 0.96404976 0.9638056 0.9654438 0.96592784
0.9661064 0.96351 0.965911 0.96468943 0.9676635 0.9669927 0.96335113 0.9633885

layers.6.bias f4 [128]
00000000: 3403 f53b 9b13 253c 774b 4f3c e6db 173c
00000010: 70ed 6fbc a191 6e3c 65eb 6ebc 0372 9a3a
00000020: 579c aabb 623c 0fbc 5210 8d3b 1965 7ebc
00000030: 924a 84bc da6c 873c 89f8 883b cf0c 323c
00000040: 7921 b53b 00ae 72bc 5fe2 323a 5a75 1abc
00000050: d312 603c a996 35bc 852d bd3b 66d3 c33b
00000060: 6045 363c 24a5 5fbc 690a d33b 64ac a13a
00000070: de38 8bbc ebc7 13bc 735c 1f3c e4b3 22bc
00000080: d57c 86bc 1a99 41bc 3efa 033c a987 5ebc
00000090: 1aac 2fbb 6411 373c f1cf 56bc ff87 253c
000000a0: 2d9f 483c b966 36bc bb17 e8bb 529a e8bb
000000b0: 49db f7bb e31d 8dbb f0b0 233c 9c2f e2bb
000000c0: 574c 72bc 25f6 3bbc db50 513c f459 8e3c
000000d0: ecc4 863c b44c 91bb 966e 2ebc 5a3f cf3b
000000e0: 8fde 773c b112 413c 788b 803c 0201 60bc
000000f0: 1ddc 79bc 4693 0d3c 51e7 59bc 0e5d db3a
00000100: f97c 373c 066e b33b 561a 66bc 5a12 79bc
00000110: 52ce 0ebb 4535 413c ebf3 46bc 9829 663c
00000120: 0314 59bc fa33 01bb 5c40 50bc 7ec4 353c
00000130: b6c4 cbbb ef71 32bc 02ba 773c 82e1 6c3b
00000140: fc49 1d3c 57de b83b 9023 b93b 3df2 613c
00000150: 4103 b2bb e09c a63b 12d0 eb3b 977d 833c
00000160: 9380 3fbc 3cb5 49bc 33bb d13b c197 ab3b
00000170: d1d4 713c 989c 9db9 7b94 633c 62e0 2cbc
00000180: a90c efbb a6cd 753c 9999 213c f841 0e3c
00000190: 061d 6e3c 5e01 223c bd7a 6f3c 74e9 4f3c
000001a0: 8aba 433c a869 243c b6f1 6a3c eef6 43bc
000001b0: 5052 793c ec91 bdbb 667c 0d3c 34cf d33b
000001c0: 736c 5b3c 0660 0fbc 2c85 66bb a37f 443c
000001d0: b34b 60bc dd99 2e3c a7ab 17bc 3e6e 74bc
000001e0: a5d5 623c caf0 a139 388f 613c 6b1f 7ebb
000001f0: 7d98 82bc 468d ff3b b595 50bc 5d9b d6ba
0.0074771885 0.010075475 0.01265227 0.0092687365 -0.014644012 0.014561088 -0.01458249 0.0011783246
-0.0052066254 -0.008742424 0.004304924 -0.015527033 -0.01614884 0.016531397 0.0041800183 0.010867312
0.005527672 -0.014811993 0.0006823893 -0.009427393 0.013676363 -0.011083283 0.0057732486 0.0059761284
0.011124939 -0.013650212 0.00644045 0.0012334702 -0.01699489 -0.009019832 0.009726631 -0.009930585
-0.016416946 -0.011816287 0.008055268 -0.013582149 -0.0026805461 0.01117358 -0.0131111005 0.010103225
0.012244982 -0.011132889 -0.007082907 -0.0070984745 -0.0075639826 -0.0043065413 0.009990916 -0.006902648
-0.014788709 -0.01147226 0.012775625 0.017376877 0.016451322 -0.0044341926 -0.010646483 0.0063246908
0.015128746 0.011784242 0.015691504 -0.013672115 -0.015250233 0.00864107 -0.013299779 0.0016736106
0.011199229 0.0054757623 -0.014044365 -0.015202129 -0.0021790457 0.011792486 -0.0121431155 0.014048003
-0.0132494 -0.0019714818 -0.012710657 0.011094211 -0.006218518 -0.010891422 0.015120031 0.0036145155
0.009600159 0.0056417393 0.0056499913 0.013790664 -0.005432517 0.005084619 0.007196435 0.016051097
-0.011688369 -0.012311276 0.0064004897 0.0052365963 0.014760212 -0.00030062045 0.013890381 -0.010551544
-0.0072952104 0.015002644 0.009863281 0.00868272 0.014533287 0.009888021 0.014616665 0.012689937
0.01194633 0.010034956 0.014339855 -0.011960728 0.015217379 -0.0057852175 0.008635616 0.0064639095
0.0133925555 -0.008750921 -0.0035174591 0.011993322 -0.013689923 0.010656801 -0.009257234 -0.014918862
0.013844882 0.00030887715 0.013767056 -0.003877605 -0.015941853 0.0077988235 -0.012731005 -0.0016373206

layers.6.running_mean f4 [128]
00000000: cc79 a33d 63e8 9d3d cebc 7b3c f841 a3b9
00000010: 3b8d a3bd 09ab 053c b08f c7bd b38f ffbc
00000020: d026 dc3c 23f3 e03b 984b 84bd 68f9 b93b
00000030: 76c9 9cbd 821a 803d 41bc 853d 36bd d63b
00000040: 3754 bbbc 97fc 35bc 231f 30bd 8acd 3cbc
00000050: 1700 013e 3ecb 87bd dcdf 6fbc 3b6d 883d
00000060: af49 673c f803 28bd c55f 863c 83a8 6cbd
00000070: 5115 24bd 289d 34bd 0152 b3bb 4fd2 70bd
00000080: ff80 94bd 1db1 913d 2cef 803d de12 7dbd
00000090: b454 1ebc 6ab7 4b3d b291 cb3c d7ba e7bb
000000a0: 0c97 8c3d 9020 eabc 3b7c a5bd 7a56 e03c
000000b0: 7724 c8bc 744a c2bb 1226 7dbd 6f56 843c
000000c0: 458f 47bd 925c dc3c 55b5 8a3d 9462 f6ba
000000d0: d788 08bd 8d4a ce3d f922 ef3c 6f68 e33c
000000e0: d6e0 7fbd 03fd cfbc 864e 17bc 609b de3c
000000f0: fcb4 a5bd 07b4 d93c 70f8 ffbc 1850 123d
00000100: a5b1 45bd ed47 063c 42a5 dc3c 3229 063d
00000110: 38a6 6ebd 48f5 9bbc d90c 32bd fd42 bd3c
00000120: 8a23 64bd 574f 8bbd f83d 7c3a 5a65 5c3c
00000130: 759a 8dbc 5843 cf3c 84a0 a13d 0f21 b73d
00000140: c3a6 9d3d 97b7 98bd ca58 843d d053 423c
00000150: d4c5 d33c 1e03 65bc dac4 c13c 0532 65bc
00000160: b2cc 023c eae6 a7bd ada5 573d 27f8 063c
00000170: 7186 44bd 684f a3bb c8d9 533d 1129 043d
00000180: a5f9 9fbd e447 833d 49ae ba3d 9ec9 eabc
00000190: 0ea3 77bc d907 a53d 124c 8c3d 38df d9bc
000001a0: 2a06 56bc 4a99 d13c a640 9bbd be89 d6bb
000001b0: 2631 da3b 4c8f ecbb 795f 4b3d 0991 903d
000001c0: db14 c4bc 8689 703d 12e6 02bd 16f2 b83d
000001d0: a083 a1bd 3cee e03c 4d0a ddbc 9691 27bd
000001e0: 079e 2e3d 6644 013d 158f 5dbd 438c 52bd
000001f0: 3549 933c de59 18bd db96 663d 3dca 743c
0.07982215 0.0771034 0.015364839 -0.00031138933 -0.07985922 0.008158454 -0.09744203 -0.03119645
0.026873976 0.0068649217 -0.06459731 0.0056754835 -0.07655613 0.06255056 0.06530047 0.0065533174
-0.022867305 -0.011107585 -0.042998444 -0.011523614 0.1259769 -0.06630562 -0.014640775 0.06661459
0.014116689 -0.04101941 0.016403088 -0.057777893 -0.04005939 -0.04409519 -0.005472422 -0.058794316
-0.072511666 0.0711386 0.062956184 -0.06178557 -0.0096637495 0.049735464 0.024849746 -0.0070718336
0.068647474 -0.02857998 -0.08080336 0.027384985 -0.02443145 -0.0059292857 -0.061803885 0.016154496
-0.048720617 0.02689961 0.067728676 -0.0018797689 -0.033333626 0.10072813 0.029191481 0.027759759
-0.06247028 -0.0253892 -0.00923503 0.027173698 -0.08091161 0.026575102 -0.031246394 0.035720915
-0.04826512 0.008195859 0.02693427 0.03275413 -0.058263987 -0.019037858 -0.043469284 0.023103232
-0.055697955 -0.06802242 0.0009622271 0.0134518985 -0.017285565 0.025300667 0.07891944 0.08941852
0.07697823 -0.07456892 0.06462248 0.011860803 0.025851168 -0.013977794 0.023653436 -0.013988976
0.0079833735 -0.0819834 0.052648235 0.008237875 -0.047979776 -0.004983831 0.051721364 0.032265726
-0.07811288 0.064101964 0.091152735 -0.028660592 -0.015114559 0.080581374 0.06850447 -0.026595697
-0.013062993 0.02558579 -0.0758069 -0.006547182 0.006658691 -0.0072192308 0.049651597 0.07058913
-0.023935726 0.058724903 -0.031957693 0.09030549 -0.078864336 0.027457349 -0.02698245 -0.040910326
0.042631175 0.03155937 -0.05409153 -0.051403295 0.017979244 -0.03719508 0.05629621 0.0149407955

layers.6.running_var f4 [128]
00000000: 7eea 1a3e 275c 033e f6b8 c13d a8a4 033e
00000010: f8f2 f13d 28f5 c13d 1f41 243e 2262 3b3e
00000020: 3676 e53d e258 093e fc2d c43d 64b2 ba3d
00000030: 9ce2 003e 0f13 e73d d416 a63d ea79 703d
00000040: ff10 fa3d 9d3a d73d f92f 003e 8cb2 1d3e
00000050: 6212 de3d ffdd 033e 6eb1 333e 5563 cc3d
00000060: 5472 d83d 106b 103e e6a7 1e3d 4474 bd3d
00000070: 6d27 fa3d bc4b 963d 2925 d83d 311a c63d
00000080: 99fb 4f3d 2e5e 0e3e b63e 203e d83d d33d
00000090: d95b 283e 6f02 6c3d d389 ef3d bdef 3f3e
000000a0: cd8d cb3d 03d0 0a3e 8c9f ed3d 903a d23d
000000b0: a166 da3d 692e b43d d3ab a53d 220d e53d
000000c0: 10af 913d 5429 c33d 2827 153e 1d7a 573d
000000d0: 4373 5e3d 192a 443e b10a a93d 6801 dc3d
000000e0: 9e71 fa3d d7e6 d43d b7c1 3c3e dd5f e73d
000000f0: 2320 8d3d a134 313e 2ea1 133e 5b98 db3d
00000100: e68b dd3d b6a5 2a3e c415 e93d 3b39 ac3d
00000110: c5a6 0d3e 252c db3d 31cc 1b3e 03e6 063e
00000120: 3408 223e 859d 0a3e 0395 4f3d 7c11 793d
00000130: 9581 153e 19c0 563d f440 003e 2340 253e
00000140: f491 ac3d cb30 b83d 7cef bf3d 3645 e73d
00000150: 74bb 063e 0570 083e 7b79 053e b49e b63d
00000160: f59d e93d 2bb8 ec3d 3454 fd3d e658 293e
00000170: f849 703d 7c4f f03d 2145 be3d 9cb1 f83d
00000180: e656 f33d c803 3b3e c4e3 8b3d 1909 233e
00000190: c2c8 0c3e 973f 0d3e 1d01 e53d 2e80 e93d
000001a0: aecb c63d 3419 963d 3417 573e c562 e03d
000001b0: 9a15 d53d ff5e c53d 21fb 0e3e 1135 0a3e
000001c0: e2ef 893d 220e da3d deae c83d 0176 003e
000001d0: 091a a83d d268 ba3d f028 113e 291b 093e
000001e0: 69a3 c73d 2f97 ec3d f1bd 033e 20d5 0f3e
000001f0: dff9 d43d 09f8 903d c0bc 303e 80fa f93d
0.15128514 0.12828122 0.094591066 0.1285578 0.11813921 0.09470588 0.16040467 0.18299153
0.112041876 0.13412812 0.09579083 0.091160566 0.12586445 0.11282932 0.08109823 0.058710016
0.12210273 0.105092265 0.125183 0.15400141 0.1084335 0.12877654 0.17548153 0.099798836
0.10568681 0.14103341 0.03873434 0.092506915 0.12214551 0.07338664 0.10553963 0.09672964
0.05077705 0.13903114 0.15648922 0.1031453 0.16441287 0.05761951 0.1169621 0.18743797
0.09939156 0.13555913 0.11602697 0.10265076 0.10664106 0.087979145 0.080894135 0.111841455
0.07113469 0.09529367 0.14565718 0.05260669 0.05430914 0.19156684 0.08253992 0.10742456
0.12228702 0.10395592 0.18433271 0.11297581 0.06890895 0.17305233 0.14416954 0.10722419
0.10817699 0.16664776 0.113811046 0.08409353 0.13833149 0.10701779 0.15214612 0.1317368
0.15823442 0.13536651 0.050679218 0.06080769 0.14600213 0.052429292 0.12524778 0.16137747
0.08426276 0.089936815 0.0937185 0.11292498 0.13157445 0.13323982 0.13034622 0.08916989
0.11407081 0.11558565 0.12369576 0.16537818 0.058664292 0.117339104 0.09290529 0.12143251
0.11881809 0.18263161 0.06830552 0.15921439 0.13748458 0.13793789 0.11181853 0.114014015
0.097068176 0.07329026 0.21004945 0.10956339 0.10404511 0.0963726 0.13962986 0.13496806
0.06735207 0.10647227 0.09798978 0.12545015 0.08208091 0.09102024 0.14175773 0.13389267
0.09747965 0.115522735 0.12865426 0.14046144 0.10399222 0.07078559 0.17259502 0.12205982
