ddpg/model_params/twitter_ddpg_3_90_critic.pth (torch, 377266 bytes, 17 tensors)

state_input.weight f4 [128, 65]
000000 2f 5d 77 bc 1b 5d 77 bc 27 5d 77 bc 28 5d 77 3c
       -0.0150979 -0.015097882 -0.015097893 0.015097894
000010 7e 43 77 bc 28 5d 77 bc 83 5a 77 3c 0b 5d 77 bc
       -0.015091775 -0.015097894 0.015097263 -0.015097867
000020 39 5d 77 3c e1 5c 77 bc 02 5a 77 3c d5 5c 77 3c
       0.01509791 -0.015097828 0.015097143 0.0150978165
000030 58 5c 77 bc de 58 77 bc d0 04 50 b1 59 5d 77 bc
       -0.0150977 -0.015096871 -3.027072e-09 -0.015097939
000040 15 5d 77 bc 2d 5d 77 bc ce 6f c6 2f a8 09 d0 ae
       -0.015097876 -0.015097898 3.6095432e-10 -9.46046e-11
000050 15 5d 77 bc f5 ff c2 2f 91 5c 77 bc a6 23 92 2d
       -0.015097876 3.5470263e-10 -0.015097753 1.661411e-11
000060 9d a4 76 bc bc 55 77 3c 06 94 70 af 2d 63 b2 2f
       -0.015053895 0.015096124 -2.1880461e-10 3.244848e-10
000070 2b 55 4a 2f 0e 47 b2 30 30 a3 92 af 11 58 77 3c
       1.8402051e-10 1.29714e-09 -2.6673197e-10 0.01509668
000080 80 63 70 ac 81 5c 77 bc 67 5a 77 3c a3 23 77 3c
       -3.4161285e-12 -0.015097738 0.015097237 0.01508418
000090 23 48 34 31 74 bc 99 30 1e 5d 77 bc 74 cd 2b b0
       2.6234452e-09 1.1185777e-09 -0.015097884 -6.2501404e-10
0000a0 28 cb 6f b0 bc 68 37 b0 e8 64 1d b1 e5 c0 ff b0
       -8.7236396e-10 -6.672385e-10 -2.2903865e-09 -1.8608516e-09
0000b0 2b 5d 77 3c 4e 9f 50 b0 94 a5 90 ae 3c d6 d8 2e
       0.015097897 -7.5896345e-10 -6.5777744e-11 9.8605984e-11
0000c0 48 b1 51 ad 8e 93 15 31 90 6f 6c 2f 0d 34 ee 2f
       -1.1919639e-11 2.1766229e-09 2.150371e-10 4.3328932e-10
0000d0 f0 d3 05 2d 25 5d 77 bc de 50 91 af 85 5c 77 bc
       7.607234e-12 -0.015097891 -2.6432806e-10 -0.015097742
0000e0 8f 5c 77 bc a4 5c 77 bc 1e 5d 77 bc 77 5c 77 bc
       -0.015097751 -0.015097771 -0.015097884 -0.015097729
0000f0 16 5d 77 bc 81 5c 77 bc 90 da a2 af 6a 28 1e af
       -0.015097877 -0.015097738 -2.9622926e-10 -1.4384374e-10
000100 53 17 f9 30 53 92 69 3c 4b 92 69 3c 97 92 69 3c
       1.8123764e-09 0.014256078 0.01425607 0.014256141
000110 b8 92 69 bc 05 86 61 3c 8a 92 69 3c 34 81 69 bc
       -0.014256172 0.013764863 0.014256129 -0.014251996
000120 26 92 69 3c f9 91 69 bc 57 8e 69 3c f9 85 69 bc
       0.014256036 -0.014255994 0.014255128 -0.014253133
000130 69 8f 69 bc 34 87 69 3c f7 50 69 3c b8 ea 04 b1
       -0.014255383 0.014253426 0.014240495 -1.934195e-09
000140 e9 92 69 3c 07 93 69 3c 4e 92 69 3c 6f 68 68 31
       0.0142562175 0.014256245 0.014256073 3.3819807e-09
000150 72 da 11 2f af 90 69 3c ff 42 16 30 0b 89 69 3c
       1.326528e-10 0.014255687 5.466489e-10 0.014253865
000160 51 fc ce 2f f1 74 5f 3c ff 7a 69 bc 56 b5 cc ae
       3.7650463e-10 0.013638721 -0.014250516 -9.309058e-11
000170 d2 c7 66 2d 75 a6 09 30 1e 75 07 b0 72 b2 c0 2d
       1.3118355e-11 5.007686e-10 -4.927915e-10 2.1907118e-11
000180 54 7e 69 bc 98 ee da 30 82 88 69 3c 51 81 69 bc
       -0.01425131 1.59294e-09 0.014253737 -0.014252023
000190 19 3f 69 bc cd f7 32 b0 9d 24 29 2d bd 90 69 3c
       -0.014236235 -6.510817e-10 9.614668e-12 0.0142557
0001a0 ba 91 9b b0 12 56 ca 30 10 89 4d 30 c8 69 52 b0
       -1.1319152e-09 1.4721897e-09 7.4773343e-10 -7.654788e-10
0001b0 c9 c9 87 b0 cb 91 69 bc 4a 12 38 2e 52 1d 38 af
       -9.879894e-10 -0.014255951 4.1853e-11 -1.6745119e-10
0001c0 b0 a3 19 30 a9 cf f7 b0 3a 3e f9 30 d2 c2 02 b1
       5.589369e-10 -1.8030636e-09 1.813482e-09 -1.9028232e-09
0001d0 66 40 92 30 02 a6 9a 30 a7 92 69 3c 12 b7 5d af
       1.0641201e-09 1.1252157e-09 0.014256156 -2.0164873e-10
0001e0 35 87 69 3c fa 88 69 3c 6d 87 69 3c 9a 92 69 3c
       0.014253427 0.014253849 0.014253479 0.014256144
0001f0 3c 7c 69 3c af 92 69 3c 3c 89 69 3c 6c 68 cc b0
       0.014250811 0.0142561635 0.014253911 -1.4872632e-09
000200 6e 92 2d ae d3 51 a2 2e 8c 9c df 30 dc 83 88 2f
       -3.94657e-11 7.381442e-11 1.6269879e-09 2.4831948e-10
000210 1e 1d 90 af 8e 58 b3 2e 83 6a 11 b0 2f c1 4f b1
       -2.6214136e-10 8.155708e-11 -5.2902055e-10 -3.0232277e-09
000220 f8 d4 be ae c1 2e c5 2f 70 22 3e 2e d0 b3 7c 30
       -8.6780305e-11 3.5867312e-10 4.3231585e-11 9.1932595e-10
000230 94 32 8e ae 2c 1c 9a 30 1a 32 10 2f 4d 37 a1 2a
       -6.466397e-11 1.1212982e-09 1.3114523e-10 2.8637718e-13
000240 00 44 de 30 ec 11 a6 30 74 d9 c6 b0 77 46 48 b0
       1.6171953e-09 1.2083183e-09 -1.44682e-09 -7.285971e-10
000250 40 07 de b0 d9 86 3f 30 66 46 81 ae 23 da d8 ac
       -1.6154686e-09 6.9677025e-10 -5.878746e-11 -6.1633073e-12
000260 0b fc ec b1 e8 41 31 b0 c0 09 fe 2d f7 f1 9e 30
       -6.897158e-09 -6.4485883e-10 2.8880787e-11 1.1564784e-09
000270 9b 3b d8 b0 e7 80 4f b1 5c e9 8f b0 77 14 52 31
       -1.5733009e-09 -3.0195737e-09 -1.0470944e-09 3.0570655e-09
000280 50 c1 50 2f 02 78 69 af e8 6c 76 b1 59 c5 54 ae
       1.8986168e-10 -2.1233862e-10 -3.5859617e-09 -4.83785e-11
000290 2c 8e 91 ae 6f a4 bf af 60 d2 26 b0 37 0e 30 b0
       -6.6190914e-11 -3.4859535e-10 -6.068941e-10 -6.404863e-10
0002a0 07 6f 82 b1 cd 97 e9 2e cf ac a2 b0 88 56 d1 af
       -3.7961203e-09 1.06225785e-10 -1.1836166e-09 -3.8078363e-10
0002b0 10 1a c6 2f 0e 5a 15 af 60 7e 06 2f 92 09 11 b1
       3.603451e-10 -1.3583465e-10 1.2232126e-10 -2.1105717e-09
0002c0 af 96 86 af 1d c9 1a 30 5d ab db b0 88 3c 4c af
       -2.4481525e-10 5.6310673e-10 -1.5983052e-09 -1.8575197e-10
0002d0 a2 ae e1 ae f8 ce cb ad e8 24 0e 2f 45 8c 1f 2f
       -1.02628364e-10 -2.317034e-11 1.2927936e-10 1.45108e-10
0002e0 4b 90 41 b1 c0 d3 93 ab 01 aa 84 af 87 f1 ae 31
       -2.8167217e-09 -1.0503751e-12 -2.4131455e-10 5.091525e-09
0002f0 b2 d8 18 30 00 b9 9a 2e 5b bb eb 2f 22 e3 ac 30
       5.560522e-10 7.035972e-11 4.2879375e-10 1.2579202e-09
000300 aa 81 be 30 e3 69 a1 b0 c7 9e bb 30 7c d4 b1 2f
       1.3861172e-09 -1.1744387e-09 1.3651168e-09 3.2347092e-10
000310 e6 91 fe 30 2c 26 83 ae 99 f9 d1 b0 f6 68 d9 af
       1.8522399e-09 -5.963971e-11 -1.5277691e-09 -3.954665e-10
000320 44 a2 15 af 04 1d 1c b0 00 69 1a b1 d2 55 da b0
       -1.360912e-10 -5.6793703e-10 -2.2469635e-09 -1.5885979e-09
000330 a8 39 e1 af 7e 0a 0b b1 a4 cd 8c af 84 26 97 b0
       -4.096823e-10 -2.0233126e-09 -2.5611968e-10 -1.0997643e-09
000340 93 ec 0a 31 fb b9 7a 2e 4c 6f 3c b0 b8 09 5b ae
       2.021612e-09 5.7008603e-11 -6.8552164e-10 -4.9803467e-11
000350 f3 69 21 31 50 95 2d b0 38 be ab 2e 16 03 a7 30
       2.3488809e-09 -6.314922e-10 7.809969e-11 1.2151726e-09
000360 61 ae df 30 e0 6c 3a b0 f9 09 0d 30 00 d7 9a 2f
       1.6274947e-09 -6.7821126e-10 5.1309673e-10 2.8165204e-10
000370 7b f6 f6 2f b6 b7 22 30 a4 c9 52 2e a5 45 c3 2f
       4.4922274e-10 5.9196326e-10 4.7927565e-11 3.551978e-10
000380 49 b2 f4 30 d3 c7 26 b1 84 8d 60 30 6c 0d e4 ae
       1.7804008e-09 -2.4269766e-09 8.169183e-10 -1.0370624e-10
000390 df 75 6c af a8 45 bb b0 8e 71 65 30 f8 8c 3b b0
       -2.1505951e-10 -1.3625838e-09 8.3471086e-10 -6.823053e-10
0003a0 b4 57 64 2f 3f ed 14 31 45 68 be af fd 36 17 30
       2.0767638e-10 2.1671693e-09 -3.4634887e-10 5.5011623e-10
0003b0 72 7e 49 b1 4a f7 4d 31 d8 a1 f8 af 5a 93 63 30
       -2.9321225e-09 2.9971994e-09 -4.5225934e-10 8.279152e-10
0003c0 a6 5b bc 30 90 80 a4 af 6b f4 b8 b0 ec ff c3 ac
       1.3704848e-09 -2.9922775e-10 -1.345723e-09 -5.5706464e-12
0003d0 f1 d3 a7 af bf 82 06 2f f6 81 a4 30 5e d3 0e 30
       -3.0527716e-10 1.223368e-10 1.1969508e-09 5.195967e-10
0003e0 88 2b cc 30 7a 07 c0 af fc a0 eb 2f 96 f9 24 2f
       1.4855326e-09 -3.492991e-10 4.2860637e-10 1.5004384e-10
0003f0 70 0f 5a 2f c7 18 c6 2d 1f 84 6a 30 61 52 d2 2f
       1.9832469e-10 2.2520997e-11 8.531646e-10 3.825731e-10

state_input.bias f4 [128]
000000 d1 0f af 3b 9d 9d c9 38 ee f1 b9 b5 6d 5b c8 35
       0.0053424616 9.613785e-05 -1.3853985e-06 1.492777e-06
000010 fc 8a 08 33 95 c3 05 3c 98 82 3e 33 a9 e5 2d 34
       3.1791373e-08 0.008164306 4.4356597e-08 1.619543e-07
000020 1d 03 96 b2 b0 55 cf b5 74 f4 8d b4 8c e5 9d 36
       -1.7463714e-08 -1.544764e-06 -2.644116e-07 4.7056874e-06
000030 f5 75 ae 34 ce c2 1a 37 e4 60 57 34 05 d6 93 b2
       3.249585e-07 9.224472e-06 2.0058684e-07 -1.7210377e-08
000040 2b 4c 00 b2 ad af a5 32 74 10 a8 3b d0 08 95 31
       -7.467899e-09 1.9288416e-08 0.0051289145 4.3374726e-09
000050 c2 7a 1b 34 df 94 1c 35 0a b3 aa bb 46 03 cd b6
       1.4480159e-07 5.8331165e-07 -0.0052093314 -6.109857e-06
000060 d6 e4 89 b2 fa 76 23 b4 12 70 c7 32 31 31 52 b4
       -1.6052962e-08 -1.5223841e-07 2.3217613e-08 -1.957567e-07
000070 b0 2c 3a b0 5e 49 56 b1 e5 a9 b7 b5 da 62 c9 33
       -6.772991e-10 -3.1182803e-09 -1.3684008e-06 9.377773e-08
000080 0c 1a be 3b 95 90 c1 38 74 5d d7 34 a8 11 97 33
       0.005801445 9.229888e-05 4.0114867e-07 7.034697e-08
000090 6b a2 4f 34 b4 2e b1 37 44 ac a9 b2 d3 ca 2d 32
       1.9337465e-07 2.1121792e-05 -1.9752527e-08 1.0116042e-08
0000a0 1f 6a 27 3c a1 7a 73 b0 13 cf 2c bc 32 11 45 b1
       0.010218172 -8.857715e-10 -0.010547417 -2.8677047e-09
0000b0 1c 00 a7 b5 55 a5 44 35 9d 34 72 b3 30 4b 17 3c
       -1.2442501e-06 7.325628e-07 -5.6392867e-08 0.009234235
0000c0 46 ca a5 32 ba 04 39 34 c9 3c 15 3a 0a 38 fb 30
       1.9300511e-08 1.7231187e-07 0.00056929566 1.8278581e-09
0000d0 08 83 08 34 44 2d e9 b2 78 b4 d0 b6 9e 73 19 31
       1.2713656e-07 -2.7145354e-08 -6.2198924e-06 2.233015e-09
0000e0 8a a4 a5 b1 31 3b 64 34 97 0a a7 b5 1b e3 30 bc
       -4.820838e-09 2.1255688e-07 -1.2445552e-06 -0.010796334
0000f0 5d 16 0c 33 51 0d b9 35 94 51 f1 b2 4c ad f2 30
       3.261663e-08 1.378745e-06 -2.809319e-08 1.7657071e-09
000100 d2 30 cf 31 7a eb 26 31 37 6f 10 b2 6d eb 31 3c
       6.030043e-09 2.4290032e-09 -8.4071905e-09 0.010859353
000110 f6 94 8f 31 3b 25 91 b2 61 91 7f 32 67 e4 bd 37
       4.1787827e-09 -1.6897152e-08 1.4876009e-08 2.2636914e-05
000120 24 8c 97 b3 0c a0 64 af 45 35 37 b5 8a b5 32 35
       -7.056977e-08 -2.0793339e-10 -6.825033e-07 6.657434e-07
000130 8c 49 81 3a cc 89 ad 31 ee 2a 16 3a 3c e7 4b 3c
       0.0009863838 5.0506284e-09 0.0005728443 0.012445267
000140 f2 55 a1 b2 3c 20 66 b2 34 6e 04 35 a2 38 8b 2e
       -1.878195e-08 -1.3395091e-08 4.93342e-07 6.331048e-11
000150 c4 5e b2 39 af 93 25 b5 ea 18 ac 37 f1 9a 8e 31
       0.00034021412 -6.16822e-07 2.05156e-05 4.1503587e-09
000160 20 60 45 32 c0 77 de ae 90 7d a2 b2 f4 5b ed b8
       1.14887655e-08 -1.0116663e-10 -1.8916381e-08 -0.00011318168
000170 b0 d2 45 30 d2 89 fb b1 72 9f 06 b8 df cd 90 b2
       7.196759e-10 -7.32073e-09 -3.2096585e-05 -1.6857426e-08
000180 e0 31 ea b5 50 ef 57 b7 26 10 6b 34 08 1f 93 37
       -1.7448874e-06 -1.2870718e-05 2.1891955e-07 1.7538216e-05
000190 1e 68 01 3c aa 36 71 b2 b9 20 74 b4 7c 02 1e b8
       0.007898359 -1.40404754e-08 -2.2736175e-07 -3.767245e-05
0001a0 35 09 a2 bb 6c 65 36 b4 76 5f 86 b0 69 72 61 32
       -0.004944945 -1.6986968e-07 -9.776915e-10 1.3122738e-08
0001b0 62 c7 1f 32 97 a9 4a 32 08 09 e0 2f 75 c4 04 3c
       9.3003525e-09 1.1796508e-08 4.075178e-10 0.00810348
0001c0 36 9a 41 b3 dc 8b 5b b3 c6 22 8e 32 03 5a fc 32
       -4.507657e-08 -5.1117112e-08 1.6546789e-08 2.9377594e-08
0001d0 08 cd 92 37 fe 37 17 b2 86 f2 2e 31 ed 44 fc b7
       1.7500031e-05 -8.802088e-09 2.5458191e-09 -3.0072837e-05
0001e0 64 42 d3 3b 70 06 0a ba b2 b4 48 3c 97 75 c9 b5
       0.0064471234 -0.00052652415 0.012250112 -1.500989e-06
0001f0 23 35 a7 33 22 ba 36 b0 54 75 22 34 64 14 00 b2
       7.786209e-08 -6.6475725e-10 1.513011e-07 -7.455217e-09

action_input.weight f4 [128, 3]
000000 b4 d5 21 3c 1d e3 c7 3c 43 d2 f9 bc 20 6c ec bb
       0.009877611 0.024400288 -0.030495768 -0.007215038
000010 d7 c9 a5 bc c6 f9 fc b9 81 78 36 bc de 4c 6a ba
       -0.020237846 -0.0004825128 -0.011137129 -0.00089378457
000020 6e d3 ca bb 2f 57 91 bc e9 6a f6 bb 06 cf 9c 3c
       -0.006189755 -0.017741768 -0.007520069 0.019141685
000030 2a 93 0b bc 28 34 94 3b 0c 52 ae 3b cf 21 12 bc
       -0.008518973 0.004522819 0.0053198393 -0.008919193
000040 de 26 ac bc 68 d5 03 bb 09 05 3b 3c 04 85 b0 3b
       -0.021014627 -0.0020116214 0.011414775 0.0053869504
000050 5b b9 64 bc e1 c7 22 bc e3 33 01 bb b7 8d 98 bb
       -0.013960208 -0.00993535 -0.0019714765 -0.0046555656
000060 53 ee 91 3c b3 41 82 bc 86 9e 4b 3b a6 47 f0 3a
       0.017813837 -0.015900468 0.003106983 0.00183319
000070 c8 6f bb ba 60 74 83 3c d2 fb a2 3b c7 76 a5 3a
       -0.0014300281 0.016046703 0.004973867 0.0012623899
000080 51 1c 66 3c 5d 60 aa 3c 82 b8 c2 3c 03 24 64 bc
       0.014044837 0.020797903 0.02376962 -0.0139246015
000090 bc 07 ed bb cb 35 73 bc f2 b9 a8 3b b3 24 f1 bb
       -0.007233588 -0.014844368 0.0051491195 -0.007359111
0000a0 6c a9 ab bb f1 1c 45 3c 1f 1e 9a 3c 0a 56 ba 3b
       -0.0052387025 0.012030826 0.018813191 0.005686526
0000b0 df 45 e5 3b f3 3a 8d 3c 45 e7 6d 3c b9 56 09 bc
       0.0069968547 0.017240023 0.014520471 -0.008382493
0000c0 c0 55 5f bc 29 5b a1 bb 9a 02 87 bc b5 ec 42 bc
       -0.013631284 -0.004924197 -0.016480733 -0.011897256
0000d0 f1 79 e1 bb f0 4d 0b 3c 83 59 ea bc 10 e1 97 bc
       -0.0068809916 0.0085024685 -0.028607136 -0.018539935
0000e0 57 16 63 bb 0a cc 3d 3b f9 93 0a bc bc 0d df 3c
       -0.0034650767 0.0028960728 -0.008458131 0.027228229
0000f0 ea 59 e1 bb f9 04 f3 3b e1 c0 cb bb 3f 96 14 bc
       -0.0068771737 0.0074163643 -0.0062180613 -0.009069025
000100 a1 38 51 bc 99 90 59 3b 3e 1b 47 bc d0 67 83 3c
       -0.012769849 0.003319776 -0.012152491 0.016040713
000110 ee 54 91 3c fd 02 8e bc 77 9e 54 bc 8b c7 56 3c
       0.017740693 -0.01733541 -0.012977234 0.013109098
000120 5c 30 e9 3c fa 0f 4f 3c 0b 99 f2 3b 5f 4d 02 3d
       0.028465442 0.012638086 0.007403498 0.031812068
000130 d2 4d 95 3c ad 09 07 3b f4 b5 20 3c b1 b0 b4 3c
       0.018225584 0.0020605132 0.009809006 0.02205691
000140 88 77 6a 3b 1c ea 6b 3c b0 c9 2e 3c 28 33 45 3b
       0.0035776813 0.014399078 0.010668203 0.0030090306
000150 65 27 c1 bc 68 77 95 bc 86 76 22 bc 93 56 bf bc
       -0.023578355 -0.018245414 -0.0099159535 -0.023356711
000160 f1 30 18 bc 0a 20 14 bc 3e 14 c3 bc 03 cf a0 bc
       -0.009289012 -0.009040842 -0.023813363 -0.01962996
000170 e0 50 5a bc b7 5b 95 bc c9 45 77 bc 19 41 b9 39
       -0.013324946 -0.01823221 -0.015092322 0.0003533445
000180 e6 b1 99 bc 04 f6 00 bd 9c 65 1c 3c 1f 7b 6b 3c
       -0.018761586 -0.03148462 0.00954571 0.014372616
000190 1c 48 d5 3b f5 57 6d 3c 3c 74 1a bc 70 bf c2 bb
       0.0065088402 0.014486303 -0.0094271265 -0.0059432313
0001a0 c0 ab ea bc 81 86 87 39 f7 97 88 3c 4f b1 09 bc
       -0.02864635 0.0002584942 0.016674025 -0.00840409
0001b0 69 dc ae 3c 44 2a a5 3c da 5e 49 bc 47 49 a5 bc
       0.021345334 0.020161755 -0.012290681 -0.020176543
0001c0 78 7a 6e bc 7f f1 a8 3c 2d a6 d3 3c a6 b0 8a 3b
       -0.014555566 0.020622967 0.025836075 0.004232484
0001d0 b5 33 ba bb 36 3b e9 bc 19 55 87 bc a8 c2 69 bc
       -0.0056824335 -0.028470617 -0.01652007 -0.014267601
0001e0 9d 14 8a 3c a8 b4 23 3c 3e da 91 bb 54 90 80 3c
       0.016855532 0.009991802 -0.0044510653 0.015693821
0001f0 c0 f4 7a 3b 5f b8 fa 3b 9a 7c e6 3c fe 60 9f bb
       0.0038292855 0.0076513733 0.028135587 -0.0048638573
000200 26 90 50 bb 76 23 a6 39 af a2 7f bc 8d b1 e7 3b
       -0.00318242 0.00031688408 -0.015602752 0.0070707262
000210 0c 7e a7 bc 5a 27 5b 3c f9 d3 6f 3c 41 b8 0d 3c
       -0.020445846 0.013376081 0.014637941 0.008649887
000220 82 40 b4 3c 53 5e 9b bb 82 55 2b bb 2e 8f e2 b9
       0.022003416 -0.004741469 -0.0026143496 -0.00043212756
000230 a4 bf 2f 3c 2d 91 e5 3b 90 f5 2c bb bb d4 f6 ba
       0.010726843 0.0070058317 -0.0026391484 -0.0018831709
000240 19 4d 9c 3c bc 02 c7 3c 89 46 a7 ba 40 42 b4 3b
       0.019079732 0.024293296 -0.001276211 0.0055010617
000250 a5 58 5b ba 37 2b a9 3b 6d dc 41 bc 9f 9a d5 bc
       -0.0008367396 0.0051626223 -0.011832339 -0.026074706
000260 19 c2 63 bc 01 82 39 3c f1 be a5 bc f2 5b 81 3c
       -0.013901257 0.011322499 -0.02023265 0.015790913
000270 89 ec 70 b9 2b b4 98 3c a3 d0 a8 bb 28 e8 8e bc
       -0.000229763 0.018640598 -0.0051518246 -0.017444685
000280 ba 3d 18 bb 2f f9 a6 3b 05 6f db 3c 15 88 ae 3c
       -0.0023230151 0.005095623 0.026786337 0.021305123
000290 16 78 e3 3b 08 2f e1 ba 27 3c e8 3b 4f d1 7d 3c
       0.0069418056 -0.0017180154 0.007087249 0.015491798
0002a0 bf cd de ba 62 cc 8d 3c 81 f2 99 3c fa 4d 8b bc
       -0.0016998573 0.017309371 0.018792393 -0.017004956
0002b0 47 dc 82 bc f1 13 90 bb b8 19 29 3c a4 21 62 3b
       -0.015974177 -0.0043969085 0.010321073 0.0034504915
0002c0 1a f5 f1 ba 53 b2 66 3a 50 0b 95 bc 5d 5a 6b 3c
       -0.0018459887 0.0008800376 -0.01819387 0.014364806
0002d0 22 ee 64 3b d1 82 80 bb da 14 ff 3b 7a 60 c0 bb
       0.0034931977 -0.0039218445 0.007784468 -0.005870876
0002e0 5a 36 cc ba eb 13 44 3b a4 34 d4 39 e3 50 24 3b
       -0.0015580163 0.0029919099 0.0004047501 0.0025072626
0002f0 9b 51 83 3c a9 c5 d9 3b 5e 0b 85 3c 85 9a 75 3b
       0.016030123 0.0066458774 0.016240772 0.0037476134
000300 8d 48 f2 3b 70 4b c2 3c 78 47 45 3c 09 6b 94 bc
       0.0073939026 0.023717612 0.012040965 -0.018117445
000310 bd 57 05 bc 68 c7 7f 3c 7a db 7f 3b df e4 7f 3a
       -0.008138594 0.015611507 0.003904073 0.00097615825
000320 f2 04 0a bb da 63 c5 bb 64 27 70 3c 0c 4e 63 bb
       -0.0021060077 -0.006023866 0.014657829 -0.003468397
000330 9e 53 bd 3c e9 d4 e9 3b bd 2b 1f 3a 47 14 84 bc
       0.02311116 0.0071359766 0.0006071886 -0.01612295
000340 20 c8 90 bc d4 72 76 3c e2 f2 d8 3c 77 cd 43 3c
       -0.017673552 0.015042026 0.026483003 0.011950842
000350 82 55 48 bc ad eb 8b ba 6a af 21 bd bf db 06 3b
       -0.012227418 -0.0010675095 -0.03947393 0.0020577756
000360 15 53 b5 bc ea ad de bb 03 b9 19 3c a3 50 87 3b
       -0.022134343 -0.0067956345 0.009382489 0.0041294857
000370 c1 22 fc 3c 57 c0 d2 3b 84 55 40 3b 2a 12 ff 3b
       0.03077829 0.00643162 0.0029347846 0.0077841477
000380 b2 07 24 3b 0b 82 87 3b 57 e3 06 3c d7 c0 93 bc
       0.0025029 0.0041353754 0.008232913 -0.01803629
000390 b5 19 ab bb fc de d1 3a 14 cb 0f 3a 76 54 a3 3c
       -0.0052215704 0.0016011889 0.0005485278 0.019937735
0003a0 59 14 a5 3c f7 36 83 ba 63 2a 91 3b dc 63 8a 3b
       0.020151304 -0.0010010888 0.0044301017 0.00422333
0003b0 e7 ef 1e bc 9b ee 50 3c 4f 04 99 3c b9 cc b2 bc
       -0.009700752 0.0127522005 0.018678812 -0.021826135
0003c0 be 5b 69 bb 0f 95 3b 3c 31 b8 14 bc 42 e3 6d 3c
       -0.003560766 0.011449113 -0.009077118 0.0145195145
0003d0 10 29 37 3c 74 36 90 bb 24 79 cf b8 55 5f 24 3d
       0.011179224 -0.0044010226 -9.8930934e-05 0.04012998
0003e0 04 8f 5b bc 95 ee 39 3b 9d 16 ff bb 03 75 10 bc
       -0.013400797 0.0028370966 -0.007784678 -0.00881696
0003f0 bb 37 68 3b 51 ab 4b 3c 26 89 1a 3b 17 64 3f bc
       0.0035433609 0.012430982 0.0023580282 -0.011681578

action_input.bias f4 [128]
000000 b6 5a b5 3d df f7 8e bc 1d 46 9e bd 07 03 bc bd
       0.08855192 -0.017452179 -0.07728217 -0.09180265
000010 9a c5 c6 3d 98 0e 9b bc 97 a5 4c ba e1 1b 67 bc
       0.09705658 -0.018927857 -0.0007806657 -0.014105768
000020 36 6f 8b 3c 81 cc dd 3d d0 ce 45 3d 64 b1 99 3d
       0.017020803 0.10830022 0.048292935 0.07504538
000030 44 78 69 bd 96 0e d1 bd fb ab 24 bb 41 6b d7 bc
       -0.05699946 -0.1020786 -0.0025126922 -0.02629626
000040 58 39 66 bc af 3c d6 bd 8f 8a 22 bc f5 0d c3 bd
       -0.014051758 -0.10460793 -0.00992073 -0.095241465
000050 74 3b 2f 3d 4d f8 89 bc 13 f7 a3 bd 7b 51 83 3d
       0.04278131 -0.016842032 -0.0800611 0.064120255
000060 08 95 30 3d 0c 15 fb 3d b1 09 16 bd af 55 81 3d
       0.043110877 0.12259874 -0.036630336 0.06315171
000070 68 68 cf bd ce 8d 57 bc ec 04 1e bd 97 0c 45 bd
       -0.10127336 -0.0131563675 -0.038578913 -0.04810771
000080 c2 31 57 bc eb c2 9d 3d d6 af ae bc 31 8b 94 3c
       -0.013134422 0.07703193 -0.02132408 0.018132778
000090 eb 08 f0 3a 77 bf 2b bd 7d 1d c0 3d 2f ca 6b bd
       0.0018313205 -0.041930642 0.093806244 -0.057565864
0000a0 7d 87 b1 3d 3e d7 d4 3d 06 7a 3f 3d cb 7c 83 39
       0.086684205 0.10392617 0.04674723 0.00025079245
0000b0 75 9f be bd c4 8b 90 3d 94 7c 57 3d c1 43 12 3c
       -0.09307758 0.07057908 0.05260904 0.008927287
0000c0 51 48 0c 3d 73 d5 9d bd 19 db b5 bc 6e 55 58 bd
       0.034248654 -0.07706728 -0.0221992 -0.052815847
0000d0 9d 99 a5 3d 62 d3 a3 bd c3 4c 6b 3d c1 ae b4 ba
       0.0808594 -0.079993024 0.057446253 -0.0013784991
0000e0 fc 16 4b bc dc 92 80 bd 08 3d 02 3d 3d 15 08 bd
       -0.012395617 -0.06278011 0.031796485 -0.03322338
0000f0 1b 68 6d 3d d7 a3 f0 bc 4f d1 a7 bc cd c8 27 3d
       0.05796061 -0.029375 -0.020485548 0.040962983
000100 c1 77 44 3c 0c 88 ca 3c f2 75 2a 3d 47 44 92 3d
       0.011991442 0.024723075 0.041616388 0.07141929
000110 58 98 cf bd 0b 9e 10 bd 9a 82 62 3b f8 c3 86 bd
       -0.10136479 -0.03530697 0.0034562708 -0.06580347
000120 68 45 ba bd 8a 80 ba 3d 4b aa 63 bd 91 4f 13 bc
       -0.090952694 0.09106548 -0.055582326 -0.008991138
000130 f8 7b 67 bd d5 c2 96 3d c0 54 f6 3c ce 37 56 3d
       -0.05651471 0.0736138 0.030069709 0.052299313
000140 6f c4 0e bd 6f 04 bc 3d 59 e0 a7 3d 7f ce 9d bd
       -0.034855302 0.09180533 0.08197088 -0.07705402
000150 84 8a d5 3d f7 e9 cf bc f7 ef a9 3d c0 df 69 3d
       0.104268104 -0.025380118 0.08297723 0.05709815
000160 f0 8f 70 3b ae 14 80 bb 75 44 93 3d e5 40 7c bd
       0.0036706887 -0.003908715 0.071907915 -0.061585326
000170 9f 0d 30 bd a0 87 ce 3d f9 19 58 3d b4 f0 05 be
       -0.04298174 0.10084462 0.052759144 -0.13080102
000180 34 d4 c2 bc a1 5f e0 bd b9 23 b7 bd a0 27 e9 3d
       -0.023782827 -0.1095574 -0.089423604 0.11384511
000190 a6 22 ae bd 9e 38 b4 bd 19 25 a5 3d e1 b6 32 3d
       -0.085027024 -0.08799861 0.080637164 0.04363144
0001a0 fe 1b 01 bd 47 20 f4 3c 30 1c af bd b5 85 9b bd
       -0.031520836 0.029800547 -0.08550298 -0.07593862
0001b0 9c 4c 9d 3d 83 51 b5 bd b0 c1 43 3b a5 d9 1a 3d
       0.07680628 -0.08853438 0.0029870085 0.03780522
0001c0 34 87 c9 bd 22 01 71 bd e2 eb ab bd ef 51 93 3d
       -0.09840241 -0.05883897 -0.083946005 0.07193362
0001d0 66 c8 be bd 81 1e b9 bd aa bc b0 bd 59 07 81 3c
       -0.09315567 -0.09039021 -0.08629735 0.015750574
0001e0 30 32 51 bc 98 63 bb bd 15 73 1a 3c 78 cf 75 3d
       -0.012768313 -0.091498554 0.009426852 0.06001231
0001f0 9f c9 68 bd db f8 c1 bd 28 fe aa 3c 20 88 f9 36
       -0.056832906 -0.094712935 0.020873144 7.4366253e-06

layers.0.weight f4 [256, 256]
000000 de de 66 bc eb f2 6e bc b8 26 8a bc ea b3 8c bc
       -0.014091222 -0.014584283 -0.016864166 -0.017175633
000010 24 29 f1 bc ee 0e 7f 3c f3 43 0a 3d a8 fa 6c 3c
       -0.029438563 0.015567524 0.033756208 0.014464058
000020 d7 f0 44 bc 28 6e eb ba 14 e0 6c 3c 2f 91 de bb
       -0.012020311 -0.0017961906 0.014457721 -0.0067922096
000030 f0 4f d1 bc 14 92 81 ba 90 fd 54 bc db 06 65 3b
       -0.025550812 -0.0009885454 -0.012999907 0.0034946713
000040 07 f5 a1 3c ae 53 f3 bc 4a 44 e2 bc 31 e8 db 3b
       0.019770158 -0.029702988 -0.027620453 0.006711029
000050 7c 8b d8 3c d5 ba 5a 3c 60 af b5 3c 08 4b 1b 3c
       0.026433699 0.013350208 0.022178352 0.009478338
000060 dd a3 f1 bc 9a b2 88 b9 79 3e 97 3c 38 9c f8 bc
       -0.029497081 -0.0002607301 0.018462406 -0.030347928
000070 0f 78 3b 3c 10 f2 83 3c 4f 7a 48 ba d6 d9 9c bc
       0.011442198 0.016106635 -0.000764762 -0.019146841
000080 18 71 95 3c 21 92 ed 3b 0e 12 72 3a cf 8d 65 3b
       0.018242404 0.007250086 0.0009234258 0.0035027151
000090 24 59 0c 3c 7e 46 5c 3b a4 6a 88 bc 40 34 73 bb
       0.008566175 0.0033611353 -0.016652413 -0.003711
0000a0 7b de 37 bc 25 c9 8c bc 93 65 9e bb 2b 24 9b 3b
       -0.011222477 -0.017185757 -0.004833886 0.004734536
0000b0 a6 cb 67 bc 07 67 1d bc d4 42 f8 bc cc 8b a5 bc
       -0.014147675 -0.009607083 -0.030305304 -0.020208262
0000c0 5d c8 05 3c 95 0b c7 3c d7 71 7d 3c 54 a3 ac bc
       0.008165446 0.024297515 0.015469036 -0.021073975
0000d0 28 14 91 bc 9a ac dd 39 f7 ea ee 3b ac 2f 43 bb
       -0.017709807 0.00042281003 0.0072911936 -0.0029783053
0000e0 b2 12 47 bc 3f ae 5c 3c 16 0f e4 bc 78 35 b8 3c
       -0.012150453 0.013469278 -0.027839225 0.022486433
0000f0 8a f2 a0 bc d1 07 15 bc 31 4a 15 39 c3 4c 70 bb
       -0.019646902 -0.009096102 0.00014237386 -0.0036666847
000100 a8 9d 03 3d 49 8e 02 3b 30 ba 2b bc 96 41 db bb
       0.032132775 0.0019921234 -0.010481402 -0.006691168
000110 88 b8 53 bc f4 cf 48 bc c1 b9 2a bc 2a 01 9a bc
       -0.012922414 -0.012256611 -0.010420264 -0.018799383
000120 8d 87 e1 3b ab ba 04 3b 87 f3 0f 3c 23 9e 73 3c
       0.006882614 0.0020252864 0.008786089 0.014869246
000130 57 b6 90 3c 98 b9 ea bc 99 4f b2 3c 2b 09 03 3c
       0.017665071 -0.028652951 0.02176647 0.007997791
000140 8b 56 37 bb 24 8c cc 3c 0f ac 9a ba 3c 29 a7 3b
       -0.0027975168 0.024969168 -0.0011800545 0.005101351
000150 0a ee 93 bb 00 5d 98 ba 80 6d 78 bc 43 3a 41 bc
       -0.0045144605 -0.0011624396 -0.015162826 -0.011793676
000160 c0 68 6e 3c a8 bb 4b b9 03 d3 9d 3c a3 7b 86 bc
       0.0145513415 -0.00019429496 0.019265657 -0.016416376
000170 3d ef 24 bc d5 ac bd bc cd f7 1a 3c 14 8d 3a bc
       -0.0100668045 -0.023153702 0.009458494 -0.011386175
000180 13 e8 2f 3d bd cb 6e 3c d2 47 04 bc f8 55 bd 39
       0.042945933 0.014574942 -0.008073764 0.0003611294
000190 0d 4e 56 3c 36 0a 2c 3c 8e fd 99 3c a4 6d 89 38
       0.013080132 0.010500481 0.018797662 6.553091e-05
0001a0 70 f0 9f bb 12 21 06 b7 2e 84 03 3d f1 f8 9f 3c
       -0.0048809573 -7.994722e-06 0.03210848 0.019527884
0001b0 43 a1 ab bb 8f 94 3b bb 20 fc a5 3b a1 50 70 bb
       -0.0052377298 -0.0028622483 0.005065456 -0.0036669152
0001c0 3b 7e 62 bc 1d ea 11 ba 97 0a ad bb 9b 17 53 3c
       -0.013824041 -0.00055661966 -0.0052808034 0.012884046
0001d0 33 93 0e 3d d4 23 a5 3c 1f 0a a1 bc 46 df de 3c
       0.03480835 0.020158686 -0.019658146 0.027206074
0001e0 62 96 39 3a ec 19 02 3c 37 ae c7 bb c6 a4 2f bc
       0.0007079599 0.007940751 -0.006093766 -0.010720437
0001f0 17 d1 85 bc 7c b2 e9 3b 52 f0 fb bc cc a6 24 bc
       -0.016335053 0.0071318727 -0.030754242 -0.010049533
000200 5e 60 cb bb 93 ba f6 bb 65 c4 38 3a e1 67 46 3c
       -0.006206556 -0.0075295656 0.0007048308 0.012109728
000210 4e ba ef 38 79 8f d5 bb 43 c7 95 3c e9 c0 88 bc
       0.0001143111 -0.0065173474 0.018283492 -0.01669355
000220 e2 2c 85 bc 60 6e 91 ba c5 3d 15 3c f9 01 40 3c
       -0.016256753 -0.0011095516 0.009108965 0.01171922
000230 67 fa e2 3b 8e 03 8e ba dc 62 66 3c c8 06 e3 3b
       0.006926823 -0.00108348 0.014061656 0.0069282986
000240 f9 80 f0 bb a4 3b 9d bc 7b 8c 0b bc a0 65 f7 ba
       -0.0073395935 -0.019193478 -0.00851738 -0.0018874891
000250 6a 89 f0 bc dd 0f 1c bc 73 d3 59 3b 4c 92 9a 3b
       -0.0293624 -0.0095252665 0.0033237606 0.004717147
000260 72 a9 c7 3a 9a 2c 8f bc 05 ec 6b 3c 40 4e 2a bb
       0.0015232994 -0.017477322 0.014399533 -0.0025986582
000270 c0 1d 79 bb b4 d9 99 bc 28 7b a9 bc f9 4d 59 b9
       -0.0038012117 -0.018780567 -0.020688608 -0.0002072378
000280 fc 35 cd bc 25 5e 75 bc 57 f4 25 3c d8 d4 62 b8
       -0.025050156 -0.014976059 0.010129056 -5.4080825e-05
000290 c6 6b 87 3c d5 88 0d bc 35 b9 ab bb 36 d1 ee 3a
       0.016530883 -0.00863858 -0.0052405843 0.0018220309
0002a0 01 b0 c2 3b 3b 4a 89 bb e7 ac 2d bc c1 da c9 bb
       0.0059413915 -0.004189757 -0.010600305 -0.0061601107
0002b0 5f e1 d1 3b 6d b5 8f 3b 33 7b 8c bb 32 43 68 3b
       0.00640504 0.0043856413 -0.0042871474 0.0035440442
0002c0 6c ff c3 3b 71 ef fd 3b 0d 19 6c bc 2f 90 7f bb
       0.0059813764 0.007749491 -0.014410269 -0.0038995852
0002d0 ee 77 89 3b e7 ac 8b 3a 3a 98 4d 3c 5c e7 7d ba
       0.004195205 0.0010656387 0.012548501 -0.00096856593
0002e0 21 cb 23 3c 5b 66 2c 3b d2 16 8d bc cb 21 db ba
       0.00999716 0.0026306126 -0.017222796 -0.0016718445
0002f0 c5 55 a6 3b ea 88 06 bc 67 ed 27 3b 7a 21 bc bc
       0.0050761425 -0.008211354 0.002562368 -0.022965182
000300 74 04 2d 3c ce f1 21 3b 68 e8 84 ba 94 c7 a4 3c
       0.010560144 0.0024710777 -0.0010140063 0.020114698
000310 ed 2e 86 3c 18 1e 0c bc 7d f7 7d 3c 9e fc f3 bc
       0.016379798 -0.008552097 0.0155009 -0.029783543
000320 df ca 9c 3c fa 85 d4 3b 70 0a 20 b9 70 e0 16 3c
       0.019139705 0.006485698 -0.00015262677 0.0092087835
000330 ba 20 06 bb 00 25 9c 3c a6 0d 76 39 d4 f1 82 3b
       -0.0020466284 0.019060612 0.00023465473 0.0039961133
000340 db d0 20 bc c1 ba 8d bc f2 44 3f ba ff dd db bb
       -0.00981542 -0.017300965 -0.00072963454 -0.0067098136
000350 0e c1 61 bc ee aa 3e 3b 6c 16 d1 b8 a7 b3 35 3c
       -0.013778938 0.0029093581 -9.970073e-05 0.011090196
000360 74 74 11 3d e8 2d 02 bc cd 7d 3f 3c cb 4a b0 3b
       0.03551145 -0.007945515 0.011687708 0.0053800098
000370 91 67 ba 3b 63 97 a8 3b 62 26 c6 bb d5 01 3a bc
       0.0056886156 0.005145 -0.006047056 -0.011352976
000380 ac fc 80 bc c4 8f 78 bc 91 63 48 bb 92 3e 81 3c
       -0.015745483 -0.015170995 -0.0030576924 0.015776906
000390 17 fb da 3a 23 48 02 3c 8f a6 ed bc a3 b7 63 bc
       0.0016706911 0.007951769 -0.029010085 -0.013898763
0003a0 63 c5 39 3c 14 65 54 3c f6 7b 9e bb c1 e1 90 3b
       0.011338565 0.012963552 -0.0048365546 0.004421443
0003b0 64 66 fc 3b 46 a3 c3 ba fc 55 8d 3b 6e 76 62 3b
       0.0077026356 -0.0014925979 0.0043132287 0.0034555453
0003c0 b8 1c 69 3b 7a cf 0b bc fd 46 ba 3a e5 3d 84 bc
       0.0035570096 -0.008533353 0.001421183 -0.016142795
0003d0 a6 2b 6e bc 31 35 94 3c a1 4f 5a 3c 73 a4 03 3c
       -0.014536774 0.01809177 0.013324649 0.008034813
0003e0 b0 f6 9b bb d3 c2 8f 3c 97 47 aa 3c 79 f2 4f bc
       -0.004759632 0.017548954 0.02078609 -0.012692087
0003f0 e7 b0 ae bb c7 5c 2f 3c bc 80 f5 3a 19 31 ae 3c
       -0.005331147 0.010703272 0.0018730382 0.021263646

layers.0.bias f4 [256]
000000 24 45 49 ba 3c fa 57 bd f3 f1 06 bc dc 76 89 bd
       -0.0007677844 -0.052728876 -0.008236396 -0.06712124
000010 c4 e6 da bd 46 7c aa 3d ff b6 99 3d c1 12 ed bc
       -0.10688546 0.083244845 0.07505607 -0.028939607
000020 70 c7 93 bd 72 d8 37 3b f7 c7 87 3d 52 3f ef bc
       -0.07215774 0.0028052595 0.06629937 -0.029204998
000030 f3 86 90 3d 8c ee a8 3d 93 3a 88 bc 94 91 96 bc
       0.070569895 0.08248624 -0.016629493 -0.018379964
000040 6e a0 f2 bc 05 45 08 3d 70 56 5d bc b3 dd 92 3c
       -0.029617514 0.033268947 -0.013509378 0.01792798
000050 83 c1 b1 3d e5 0d f4 bc 3f 4d 39 bd da df b9 3c
       0.086794876 -0.029791782 -0.045239683 0.022689749
000060 ad 2d a6 3d b7 43 90 bd 92 92 ed bb 10 9d f6 bd
       0.08114181 -0.070441656 -0.0072501386 -0.12041676
000070 a6 64 e4 ba e8 a6 ce 3d eb 47 7f bb d4 e4 d3 3d
       -0.0017425015 0.100904286 -0.0038952779 0.1034638
000080 b3 8f d0 3c c2 f2 0b 3d 14 1b 60 3d a0 50 bf 3d
       0.025459146 0.03416706 0.054713324 0.0934155
000090 89 b7 dd bd 5b 88 ac 3d b5 de a5 3d 48 d1 85 bd
       -0.10826022 0.08424445 0.080991186 -0.06534058
0000a0 8e 0a ac 3a ec 5b 40 3c 00 9e 32 bd ec 8a 46 3d
       0.0013125704 0.011740666 -0.04360771 0.04847233
0000b0 7e 2f 1d 3d 4b 93 fa bd f4 3a 0a bd 6a 9e 99 bc
       0.03837537 -0.12235125 -0.03374763 -0.018752296
0000c0 a0 3d aa 3d 79 39 2e 3a ca 83 55 3a 21 f9 df bb
       0.08312535 0.00066461373 0.0008144943 -0.0068351184
0000d0 22 7f 9a bd a7 4d a5 bd d6 90 89 3d 79 a3 ba 3d
       -0.0754378 -0.08071452 0.067170784 0.09113211
0000e0 8a 05 8a bd 2a 69 8a 3d d0 84 6e 3c 48 37 52 bd
       -0.06739338 0.0675834 0.014558032 -0.05132225
0000f0 46 40 dd 3c 8e 49 14 3b 3d a5 34 3d f7 8e c7 3c
       0.027008187 0.002262685 0.044102896 0.024360163
000100 ef 45 8e bd ab 28 2a bd f4 b6 d7 3c 5d e9 94 3c
       -0.069469325 -0.04154269 0.026332356 0.018177683
000110 d6 a7 7d 3d fb a9 d5 bd 8f ce d4 3c 7f af d6 bd
       0.06192764 -0.10432812 0.025977401 -0.10482692
000120 e0 f1 aa 3d 44 63 8d bb 1b 25 91 3d c8 11 8b 3d
       0.08346915 -0.004314812 0.070871554 0.06790501
000130 57 29 0a be 9d b6 b5 3c 84 37 70 bd 8e 0c 50 bd
       -0.13492332 0.022181803 -0.058646694 -0.050793223
000140 50 00 93 bd 30 7c dd 3c f0 91 bc 3d e3 0a 8e bc
       -0.07177794 0.027036756 0.09207523 -0.017339176
000150 f3 79 a7 3d 96 b0 b4 3d d3 42 64 3d c4 03 cd bc
       0.08177557 0.088227436 0.05572779 -0.02502621
000160 81 db f2 3c 16 81 06 3d fb 85 a3 bd 36 0e 02 3d
       0.029645683 0.03283795 -0.07984539 0.031751834
000170 e8 89 ab 3d f8 3d 0c 3d 05 a8 e9 3c 37 dc 7b 3d
       0.08375913 0.034238786 0.0285225 0.06148931
000180 d8 09 1c 3c 49 07 1c 3d ea 63 82 bc 13 c9 a7 3c
       0.009523831 0.038092885 -0.015916783 0.020481622
000190 fc c7 98 bb da 6e be bc b4 fa 93 bc 43 f8 a1 3d
       -0.004662512 -0.023246218 -0.01806388 0.0790868
0001a0 3f c1 05 bd 1c 30 94 bc f7 3d cb bd 7b 3c 22 bd
       -0.032654997 -0.018089347 -0.09923928 -0.03960846
0001b0 d3 2e 1f 3d 0e cc 11 bc ee 66 93 3d fa ce 92 3d
       0.038863014 -0.008898748 0.07197367 0.07168384
0001c0 7f 4c 25 3c 5a 7d 93 3d 14 ad ca 3d f2 3b 5e bd
       0.010089039 0.07201643 0.09896293 -0.054256387
0001d0 73 3b a9 bd 8f ac d8 bd 06 ec b3 3d 6c 7f b3 bd
       -0.08263292 -0.10579788 0.08785252 -0.08764538
0001e0 1b 2a bf 3d bd 33 53 3d 70 32 0b b9 d6 eb cb bd
       0.09334203 0.051563013 -0.00013274862 -0.099570915
0001f0 b9 c1 a7 bc 00 72 a1 3d ae 51 b8 3d 80 4c 9a bd
       -0.020478116 0.07883072 0.08999954 -0.075341225
000200 da b4 37 bd b4 f9 9e bd 21 f4 0c bd 90 6d 96 3d
       -0.044850208 -0.07762471 -0.034412507 0.07345116
000210 7c 0c 62 3c dc e1 7c 3d 7b 69 3e bd 3e a7 ab bd
       0.013796922 0.061738834 -0.046487313 -0.08381508
000220 5e 67 56 3d bc e5 82 bd 33 1d 04 3b f4 63 a9 3d
       0.052344672 -0.063914746 0.0020159006 0.08271018
000230 e7 01 77 bd e3 b5 b7 bc a2 49 bf 3d 7c df a3 3d
       -0.06030455 -0.022425598 0.09340216 0.08001611
000240 c2 b0 dd bc 0e 6e 92 3d 74 29 48 bd 10 b0 5a bd
       -0.027061824 0.071498975 -0.048867658 -0.053390563
000250 47 7f 96 bc fb e2 7d 3d 96 de 4b 3d 3c 57 df bc
       -0.018371237 0.061984044 0.04977282 -0.027263276
000260 85 8c 07 bd b4 08 22 bd e0 ea b1 bd cb f9 af 3d
       -0.033092994 -0.03955908 -0.08687377 0.08592566
000270 60 c7 a7 bc 15 d9 7f 3d ca 31 ff 3c 1e a5 1c 3d
       -0.020480812 0.062462885 0.031151671 0.038243406
000280 27 55 49 3d 0e 35 87 3d 9d 81 d7 3c f6 4d c7 3c
       0.049153473 0.06601916 0.026306922 0.024329167
000290 b2 53 89 bd e2 8d 57 bd 6a 15 1d 3d 5f be 7c 3d
       -0.06705417 -0.052625544 0.0383505 0.06170499
0002a0 59 e3 e3 bc 10 70 47 bc 1f 73 a4 3d 09 6e 87 3b
       -0.027818369 -0.012172714 0.0802977 0.0041329903
0002b0 3b bc 9c 3c d6 4f 2f bc fb 5f 30 bd fb f9 dd bd
       0.019132724 -0.010700187 -0.043060284 -0.108386956
0002c0 3f 26 8c bc 3c 06 2f bd 8e 09 d1 3c cd 43 a2 bd
       -0.01710808 -0.042730555 0.025517251 -0.07923088
0002d0 5d f2 c5 3d 24 f7 23 3c a6 ec 06 b9 89 8f 48 bd
       0.09665368 0.010007653 -0.00012867394 -0.04896501
0002e0 30 a3 67 3d 55 b4 77 bc 0f b6 8e bd c1 05 8d 3d
       0.056552112 -0.015118678 -0.06968319 0.06885863
0002f0 16 d0 60 3d 68 52 c8 3d 5c d1 e4 3d 6a 94 59 bd
       0.054885946 0.09781343 0.11172745 -0.053120054
000300 2e bb d6 bd 42 9b ad bd b8 e7 06 3d e7 f0 c6 3d
       -0.104849204 -0.08476879 0.032935828 0.09713917
000310 3e 95 b4 bd c1 ec 4d bd 21 67 1e 3d 91 87 b8 bd
       -0.08817528 -0.050274614 0.03867257 -0.09010232
000320 33 e4 40 bd f0 56 42 3d 34 ef 38 3b 75 00 90 bd
       -0.047092628 0.04744619 0.0028218748 -0.07031337
000330 ae 2c b8 3c 61 06 8f bc 19 b7 23 bd ae 03 80 3d
       0.022482242 -0.017459096 -0.039969537 0.06250702
000340 c6 1d 3b bd 91 33 7b 3d a5 a6 a4 3d 7f 15 48 bd
       -0.04568269 0.061328474 0.080395974 -0.048848625
000350 ed 02 10 bd 6c 4c 4e bd 4b 65 70 3d c5 ee 86 3d
       -0.03515904 -0.05036585 0.05869035 0.065885104
000360 1c fc 91 3d 5b 02 18 3c f7 bf 5a 3d 49 ec c1 bd
       0.07128164 0.009277905 0.05340573 -0.09468896
000370 6e 74 bd 3d 66 b7 f3 3b 2c 24 91 bb da a2 38 3d
       0.09250723 0.0074376343 -0.004429361 0.045077182
000380 f8 ea 71 bd bf d2 c6 bc f2 4f c3 bd 5c ad 87 bd
       -0.059061974 -0.024270413 -0.09536733 -0.066248626
000390 3d d6 1d 3d 38 0c b0 3d e9 18 75 bd 55 84 a6 bd
       0.03853439 0.085960805 -0.05983821 -0.08130709
0003a0 f9 67 f2 3c 7e a5 9b 3d 47 e9 b9 3d 6e aa b2 3d
       0.029590594 0.075999245 0.09077697 0.08723913
0003b0 85 e6 b8 3d d6 e7 bf 3b 49 3a 8a bd e2 a7 f4 bb
       0.09028343 0.0058564944 -0.06749398 -0.0074663023
0003c0 71 0e 91 bd 6d 20 1c 3d 05 08 b2 bd d3 03 e9 bc
       -0.070828326 0.03811686 -0.08692936 -0.028444206
0003d0 a8 36 26 bd 5c e5 48 3c 42 f2 12 3c d2 33 af bd
       -0.040579468 0.012261715 0.008968892 -0.08554806
0003e0 fe 22 ee 3c fb e3 bc bd 2b c8 9d 3d 14 de 83 3d
       0.02906942 -0.09223171 0.07704195 0.064388424
0003f0 88 46 8e bd 43 3d 9f 3d 78 7f 88 bd 76 c3 70 3d
       -0.069470465 0.077753566 -0.06664938 0.058780156

layers.3.weight f4 [256]
000000 21 44 79 3f 3d 2b 75 3f b1 88 70 3f 83 49 7b 3f
       0.9736958 0.957691 0.93958575 0.98159045
000010 25 65 74 3f da 17 76 3f 9d 29 79 3f 97 2c 77 3f
       0.95466834 0.96130145 0.9732912 0.96552414
000020 20 9e 7a 3f a6 36 74 3f 34 5a 77 3f df 19 79 3f
       0.9789753 0.95395887 0.96622014 0.973051
000030 bb 52 7b 3f d1 c9 75 3f dc 54 7b 3f 47 54 75 3f
       0.9817311 0.9601107 0.9817636 0.9583172
000040 e3 a3 7e 3f c6 66 7b 3f f9 a2 77 3f b5 11 76 3f
       0.9946882 0.98203695 0.9673305 0.9612077
000050 e1 31 77 3f e1 ba 75 3f f2 7e 7c 3f 0c a8 76 3f
       0.96560484 0.9598828 0.98631203 0.9635017
000060 e3 7f 7a 3f 56 d0 78 3f 5f 96 7c 3f 6f 56 75 3f
       0.9785139 0.97192895 0.9866695 0.9583501
000070 a6 74 7b 3f 0c 01 7d 3f 41 9c 78 3f 8c 12 74 3f
       0.98224866 0.9882972 0.97113425 0.953408
000080 db 0a 7d 3f 42 45 78 3f 13 0c 7a 3f 12 c8 75 3f
       0.9884469 0.9698068 0.97674674 0.9600841
000090 d2 12 7b 3f 2d a7 73 3f a0 62 76 3f da 45 78 3f
       0.9807559 0.95176965 0.9624424 0.96981585
0000a0 d5 02 79 3f d9 0a 76 3f 64 80 7b 3f bf 4c 78 3f
       0.97269946 0.961103 0.98242784 0.96992105
0000b0 ee 49 77 3f d0 1e 74 3f f9 74 77 3f 12 6a 7c 3f
       0.9659718 0.95359516 0.9666286 0.9859935
0000c0 37 83 79 3f d7 23 78 3f 02 ae 7a 3f 63 68 79 3f
       0.9746584 0.9692969 0.97921765 0.97424906
0000d0 c9 e7 7a 3f cb 5e 77 3f d5 cd 78 3f c4 89 79 3f
       0.98009926 0.9662902 0.97189075 0.9747584
0000e0 7a 56 75 3f e4 6b 78 3f 4e bc 74 3f c2 9b 78 3f
       0.9583508 0.9703963 0.9559983 0.9711267
0000f0 f4 90 71 3f 8c 02 76 3f 49 a6 79 3f 68 b8 76 3f
       0.94361806 0.96097636 0.97519356 0.9637513
000100 ba 6f 7c 3f 90 67 78 3f 9a ff 7a 3f b1 03 77 3f
       0.9860798 0.97033024 0.9804627 0.9649001
000110 67 67 7b 3f f8 40 7b 3f f7 f9 74 3f fd 21 75 3f
       0.98204654 0.9814601 0.95693916 0.95754987
000120 a6 83 77 3f 31 73 72 3f ec d5 73 3f 3c 00 77 3f
       0.96685255 0.9470702 0.95248294 0.9648473
000130 39 df 76 3f 34 2d 7c 3f e3 f9 77 3f ca f1 72 3f
       0.9643436 0.98506474 0.9686567 0.9490019
000140 db 23 7c 3f 15 0c 78 3f 19 00 79 3f 57 c7 7b 3f
       0.9849221 0.96893436 0.97265774 0.98351043
000150 be 2c 75 3f a8 69 7a 3f f4 d2 74 3f 29 23 7c 3f
       0.95771396 0.9781747 0.9563439 0.9849115
000160 16 34 74 3f d1 9d 7c 3f 16 38 78 3f 4b 38 7a 3f
       0.95391977 0.9867831 0.9696058 0.97742146
000170 02 98 78 3f 7e a4 7a 3f 08 eb 7a 3f bc 30 7a 3f
       0.97106946 0.97907245 0.9801488 0.9773061
000180 61 b5 75 3f 36 cd 7b 3f cb 37 75 3f 02 70 76 3f
       0.9597989 0.9836 0.9578826 0.9626466
000190 7b 7f 75 3f 7a e2 75 3f fe 4b 7b 3f c5 03 75 3f
       0.95897645 0.960487 0.9816283 0.95708877
0001a0 61 80 79 3f 76 2c 77 3f f3 50 7a 3f d9 5c 77 3f
       0.97461516 0.96552217 0.9777977 0.9662605
0001b0 63 9a 7c 3f ea 14 79 3f 11 94 79 3f 0a d9 6d 3f
       0.98673075 0.9729754 0.97491556 0.929093
0001c0 18 c0 75 3f f3 66 75 3f ad 98 7a 3f 70 54 76 3f
       0.95996237 0.95860213 0.97889215 0.9622259
0001d0 e2 be 7b 3f cd ee 77 3f a1 d6 79 3f 51 b1 79 3f
       0.9833814 0.96848756 0.9759312 0.9753619
0001e0 bc 92 76 3f 16 86 74 3f e2 d2 77 3f a5 d6 74 3f
       0.9631765 0.955171 0.96806157 0.9564002
0001f0 78 0a 7b 3f bf 8c 77 3f 34 9c 76 3f 53 9b 73 3f
       0.9806285 0.96699136 0.963321 0.9515888
000200 c1 1f 78 3f d0 45 7d 3f 19 04 77 3f 7e 66 77 3f
       0.9692345 0.9893465 0.9649063 0.96640766
000210 81 dc 78 3f 49 57 78 3f 42 57 78 3f ed d4 74 3f
       0.9721146 0.97008187 0.97008145 0.956374
000220 50 4e 74 3f 77 72 79 3f 49 e2 78 3f ab 26 7f 3f
       0.95431995 0.97440284 0.97220284 0.9966838
000230 80 8e 7a 3f fc 88 76 3f 90 48 7d 3f 61 ed 7c 3f
       0.9787369 0.9630277 0.98938847 0.9879971
000240 26 32 76 3f 5c 70 7a 3f 7f 1d 77 3f 07 52 74 3f
       0.9617027 0.97827697 0.9652938 0.95437664
000250 1f 7e 7c 3f 86 96 7b 3f 1d 99 79 3f a8 67 77 3f
       0.98629946 0.98276556 0.9749926 0.9664254
000260 5d 8e 7a 3f 59 bc 7a 3f e2 c5 79 3f b7 d4 73 3f
       0.9787348 0.97943646 0.9756757 0.9524645
000270 81 03 76 3f 2a e8 76 3f d0 a5 76 3f 64 8f 75 3f
       0.96099097 0.96448004 0.9634676 0.9592192
000280 01 1c 77 3f 01 99 79 3f 5b 00 7d 3f c5 dc 77 3f
       0.96527106 0.9749909 0.9882867 0.9682124
000290 e9 eb 74 3f e8 89 79 3f ca 50 77 3f 60 c5 7b 3f
       0.9567247 0.97476053 0.9660765 0.98348045
0002a0 0e 51 79 3f 9c ae 76 3f 94 7d 7a 3f 0c b6 76 3f
       0.97389305 0.9636018 0.97847867 0.9637153
0002b0 e0 34 7b 3f b1 81 78 3f 5a bf 78 3f cd f7 7a 3f
       0.98127556 0.97072893 0.9716698 0.98034364
0002c0 58 e2 79 3f 31 20 79 3f ad 9d 75 3f 7c dc 77 3f
       0.97611 0.97314745 0.9594372 0.9682081
0002d0 85 fd 78 3f 26 fd 75 3f 8a f9 75 3f f9 ea 77 3f
       0.9726184 0.960894 0.9608389 0.96842915
0002e0 8e 66 79 3f 3e 6c 78 3f 75 5b 75 3f 7e 25 7a 3f
       0.9742211 0.97040164 0.9584268 0.9771346
0002f0 1e b9 7b 3f 0a 59 78 3f 38 80 71 3f e0 99 74 3f
       0.9832934 0.9701086 0.9433627 0.95547295
000300 c4 05 7a 3f d9 4b 78 3f 6c e5 7a 3f 84 24 75 3f
       0.9766505 0.96990734 0.9800632 0.95758843
000310 b3 36 7a 3f 93 7f 75 3f c4 8b 78 3f 84 e0 74 3f
       0.97739714 0.9589779 0.97088265 0.95655084
000320 bd 7e 79 3f d0 c2 7a 3f 14 86 75 3f 17 65 79 3f
       0.9745901 0.9795351 0.9590771 0.97419876
000330 9f c4 77 3f 10 86 74 3f 85 e0 77 3f d6 b8 7b 3f
       0.96784395 0.95517063 0.96826965 0.9832891
000340 1e 90 7a 3f 6c e7 7b 3f 2e fe 77 3f cc d2 79 3f
       0.97876155 0.98399997 0.9687222 0.97587276
000350 90 c4 79 3f 78 8b 7b 3f c6 02 7a 3f 55 31 78 3f
       0.97565556 0.9825969 0.9766048 0.96950275
000360 9d 22 7b 3f e4 7e 74 3f 2c 0f 7c 3f 48 19 79 3f
       0.9809969 0.9550612 0.9846065 0.973042
000370 a0 b5 7c 3f f7 ce 7a 3f 02 44 77 3f ad 80 7c 3f
       0.9871464 0.97972053 0.96588147 0.98633844
000380 aa 5b 7b 3f 10 3c 7b 3f 41 76 77 3f cb 1f 75 3f
       0.98186743 0.98138523 0.96664816 0.9575164
000390 5c e6 78 3f b9 1b 75 3f 8b 2b 7b 3f ab 2a 78 3f
       0.972265 0.95745426 0.98113316 0.96940106
0003a0 f1 61 77 3f fe 83 7c 3f da 9e 78 3f c9 22 76 3f
       0.9663382 0.98638904 0.9711739 0.9614683
0003b0 66 db 7b 3f b6 a8 79 3f b6 4e 7a 3f 91 d7 76 3f
       0.9838165 0.9752306 0.97776353 0.9642268
0003c0 78 82 76 3f df 26 78 3f 8e 89 7a 3f 91 21 7c 3f
       0.9629283 0.9693431 0.9786614 0.9848872
0003d0 df c6 77 3f 89 63 74 3f 80 e6 76 3f ca 7b 78 3f
       0.9678783 0.9546438 0.96445465 0.9706389
0003e0 9e 32 7a 3f 99 e9 76 3f 08 74 7d 3f a6 c0 72 3f
       0.97733486 0.9645019 0.99005175 0.9482521
0003f0 fb 3b 79 3f a1 2a 78 3f 76 75 77 3f 7d 27 78 3f
       0.9735715 0.96940047 0.96663606 0.96935254
