ddpg/model_params/twitter_ddpg_3_120_actor.pth (torch, 146652 bytes, 20 tensors)

layers.0.weight f4 [128, 65]
2.7037036e-05 0.00064873125 0.00587909 0.008611446 -2.5588986e-07 7.214767e-07 9.254262e-07 0.06666847
0.0035610767 2.7457602e-06 7.813189e-06 1.6301225e-05 6.783194e-06 4.774143e-06 3.1299442e-13 -0.00019371716
-0.0006042214 -3.367046e-05 -2.8686675e-12 3.930806e-12 -2.4230896e-05 -1.445251e-12 -6.3014595e-06 1.1026523e-12
6.031148e-13 -1.7346163e-06 -2.3163346e-12 5.100063e-13 1.8837765e-13 -1.3992648e-13 5.308067e-14 3.3523838e-07
-3.5579866e-12 -2.4208525e-06 1.1710518e-06 -3.5038778e-07 3.941791e-12 9.379735e-13 2.832456e-05 2.1387602e-13
1.4407344e-12 -2.7146123e-06 -3.1128606e-09 -6.257047e-09 0.00059897115 -2.684634e-13 1.4931455e-12 2.8779504e-13
-1.4492181e-12 5.2021457e-13 7.7387424e-13 2.6178598e-13 -3.019561e-13 -0.0012860816 1.4548091e-12 -6.1486294e-06
-5.2678674e-06 -3.1214977e-06 -1.0568981e-05 1.627993e-06 -0.0025780832 -2.0888988e-06 1.4344585e-08 1.9250322e-12
-4.379449e-12 -0.00013138345 -0.00014975232 0.02403222 -0.0077235983 -4.713799e-07 0.00013487505 9.921856e-06
0.036678027 -0.008802503 -1.019358e-05 1.354061e-05 -6.4803544e-07 5.3501817e-06 -8.717471e-08 -3.1382425e-12
8.809987e-05 -0.0006328693 -2.8544591e-05 1.2039293e-13 1.8571585e-13 3.4401808e-05 -9.95083e-13 -2.3010195e-06
1.2587273e-12 2.5202804e-12 3.0232663e-06 1.0158712e-12 -2.2988425e-13 -5.0557033e-12 -8.416434e-13 1.8823953e-12
4.5312822e-06 9.627851e-14 1.0214457e-06 -2.271721e-06 -7.555604e-07 -1.339665e-13 1.699673e-13 3.284799e-05
-3.5982784e-13 1.4753589e-12 -5.570798e-06 -1.878254e-09 1.9090592e-10 0.00042808373 -1.7862207e-12 1.8923925e-12
2.6329817e-13 8.7997605e-13 1.1058633e-13 -8.007967e-13 -9.760965e-13 1.2080971e-12 -0.001444807 -6.6865074e-13
-5.507876e-06 1.171937e-06 3.307409e-06 -9.470203e-05 1.1247566e-05 -0.0024555644 1.0326715e-06 1.22609e-08
-6.1868358e-12 -1.6782897e-12 -7.653492e-05 6.2889834e-05 -0.018677507 0.0031570466 -1.3653471e-07 -7.3137094e-06
-2.8434952e-06 0.017658658 0.0012729894 1.5155139e-05 4.8694133e-06 -8.75091e-06 -1.1108924e-07 -4.7192572e-07
-1.6362348e-12 3.2003485e-05 0.00044295102 -1.2249925e-06 -1.8245008e-14 -8.697952e-13 2.3745339e-05 1.7402125e-12
9.564743e-07 -7.6034475e-14 -1.0525483e-13 -2.2351837e-06 2.503813e-13 2.6796703e-12 -1.1170184e-11 6.356124e-13
5.6637455e-12 4.6613063e-06 1.1335191e-12 9.432985e-07 9.874118e-07 7.5276836e-07 1.1907103e-12 2.266001e-12
5.0775575e-06 4.5646077e-14 2.5492466e-12 -5.504976e-07 -4.4881636e-09 5.2056676e-10 0.0005816345 1.0896233e-12
8.51965e-13 9.847591e-13 2.2952923e-13 -1.1233748e-12 1.2563515e-12 1.874232e-12 5.9822034e-12 0.00016059421
6.004012e-14 3.1983002e-06 4.2073586e-07 2.113497e-06 1.6089212e-05 -3.5558644e-06 -0.0012234586 -2.60934e-07
-1.9865212e-09 -3.9418132e-13 1.0405058e-12 3.971715e-06 -6.631306e-05 -0.014022171 0.004647465 2.5025603e-08
9.615146e-07 -1.0721482e-06 -0.014201463 0.002366518 4.322826e-06 -5.8742614e-07 -5.997714e-06 -1.1933871e-06
-8.524646e-07 -2.8631584e-13 3.6703295e-05 -0.00015218272 -1.2066656e-06 4.209987e-14 -5.033248e-13 6.7207066e-06
2.1024477e-13 8.9902585e-07 -2.05558e-12 3.9786696e-13 -4.5112708e-07 -4.725593e-13 -6.1881706e-12 1.0427197e-12
5.256575e-13 -3.8285473e-12 -4.2808483e-07 -1.1356812e-12 1.0493553e-06 -1.2054056e-06 -1.0421244e-07 9.200052e-15
-3.0437976e-12 -5.651197e-06 1.8252097e-12 -5.0993465e-13 1.7606203e-06 -5.435466e-10 4.4736354e-11 0.0011542576
5.1938624e-13 -7.264998e-14 -4.7634713e-12 -1.639221e-12 2.796502e-12 1.8840372e-13 -4.835622e-13 -1.7192951e-12
0.0007244148 3.806408e-12 1.7767857e-06 1.0216619e-06 1.1657297e-07 -3.037921e-06 -4.9950876e-07 0.00083774945
00000000: 98cd e237 9e0f 2a3a 62a5 c03b 0617 0d3c
00000010: 3c61 89b4 80ab 4135 ce6a 7835 7b89 883d
00000020: f460 693b cd43 3836 6415 0337 9dbe 8837
00000030: 319b e336 9331 a036 4033 b02a 8e20 4bb9
00000040: 9d64 1eba 6239 0db8 52dd 49ac 8e4d 8a2c
00000050: 7443 cbb7 a866 cbab 2071 d3b6 3c2f 9b2b
00000060: 00c3 292b f6d0 e8b5 60ff 22ac d48d 0f2b
00000070: 2918 542a 108b 1daa d90d 6f29 d0fa b334
00000080: fd5e 7aac ee75 22b6 092d 9d35 ee1c bcb4
00000090: 7fb0 8a2c 0f02 842b 889a ed37 91cd 702a
000000a0: edc3 ca2b af2c 36b6 06ea 55b1 91fd d6b1
000000b0: 4604 1d3a a721 97aa 3c24 d22b a303 a22a
000000c0: 96f5 cbab 696d 122b 84d3 592b 565f 932a
000000d0: 76fc a9aa bd91 a8ba 06bf cc2b 5350 ceb6
000000e0: a3c2 b0b6 ec7a 51b6 6e51 31b7 6a81 da35
000000f0: 0ff5 28bb 022f 0cb6 2770 7632 4c76 072c
00000100: 9216 9aac fac3 09b9 d506 1db9 38df c43c
00000110: 3d16 fdbb f611 fdb4 3f6d 0d39 0c76 2637
00000120: b33b 163d 6038 10bc 1805 2bb7 7a2c 6337
00000130: a8f4 2db5 b685 b336 ce34 bbb3 8dd5 5cac
00000140: 42c2 b838 24e7 25ba 0b73 efb7 e68c 072a
00000150: f318 512a a94a 1038 a50b 8cab 376b 1ab6
00000160: 6e26 b12b 5659 312c 52e3 4a36 9ef8 8e2b
00000170: d069 81aa bae1 b1ac cce6 6cab 3876 042c
00000180: 6b0b 9836 c8cc d829 9b18 8935 df73 18b6
00000190: b7d1 4ab5 37d5 16aa bd5d 3f2a 43c6 0938
000001a0: a890 caaa 68a3 cf2b caec bab6 9812 01b1
000001b0: 3de7 512f 6d70 e039 6263 fbab 502a 052c
000001c0: 4439 942a f5b0 772b ae04 f929 7c67 61ab
000001d0: 955f 89ab 4906 aa2b ae5f bdba 5d35 3cab
000001e0: 4bd0 b8b6 734b 9d35 dbf4 5d36 c49a c6b8
000001f0: eeb3 3c37 89ed 20bb 539a 8a35 02a4 5232
00000200: 10ae d9ac c232 ecab 5f81 a0b8 b9e3 8338
00000210: 9201 99bc 74e6 4e3b 609a 12b4 4968 f5b6
00000220: e0d2 3eb6 e4a8 903c 70da a63a d442 7e37
00000230: f163 a336 dfd0 12b7 f58f eeb3 fa5c fdb4
00000240: 9247 e6ab 7b3b 0638 e13b e839 6c6a a4b5
00000250: 2056 a4a8 59d3 74ab ba30 c737 c3e9 f42b
00000260: 3560 8035 e436 aba9 4703 eda9 2a00 16b6
00000270: c0f3 8c2a a690 3c2c 0982 44ad b3e8 322b
00000280: 7c46 c72c 5168 9c36 5487 9f2b fb36 7d35
00000290: 3687 8435 d911 4a35 dc93 a72b a574 1f2c
000002a0: e35f aa36 5892 4d29 2563 332c e8c5 13b5
000002b0: 4e36 9ab1 a117 0f30 d578 183a d159 992b
000002c0: 8cce 6f2b b097 8a2b a636 812a d819 9eab
000002d0: d5d0 b02b 2ae3 032c e67a d22c 2e65 2839
000002e0: c632 8729 61a2 5636 7fe1 e134 9ad5 0d36
000002f0: 52f7 8637 49a1 6eb6 755c a0ba 7f16 8cb4
00000300: 4083 08b1 84e7 ddaa 2c70 922b c644 8536
00000310: 8e11 8bb8 3fbd 65bc c349 983b e2f7 d632
00000320: 640d 8135 bbe6 8fb5 41ad 68bc 9517 1b3b
00000330: cb0c 9136 9eaf 1db5 f93f c9b6 782c a0b5
00000340: ecd4 64b5 762e a1aa ddf1 1938 3d93 1fb9
00000350: b7f4 a1b5 d899 3d29 60ac 0dab 6e82 e136
00000360: eeb6 6c2a 9654 7135 0aa6 10ac acfa df2a
00000370: 6f32 f2b4 7c03 05ab 16ba d9ac f0bf 922b
00000380: 9df5 132b 7db4 86ac 88d3 e5b4 3ad5 9fab
00000390: 93d7 8c35 6cc9 a1b5 65cb dfb3 c0bb 2528
000003a0: 2f30 56ac 6a9f bdb6 0e70 002c aa88 0fab
000003b0: 744e ec35 b168 15b0 a8c0 442e 754a 973a
000003c0: b931 122b dd97 a3a9 8999 a7ac 29b3 e6ab
000003d0: 4dc9 442c ad1f 542a 541c 08ab 22f8 f1ab
000003e0: a7e6 3d3a 13ed 852c e479 ee35 0920 8935
000003f0: ab56 fa33 16df 4bb6 fb15 06b5 6a9c 5b3a

layers.0.bias f4 [128]
1.4635962e-12 6.610655e-13 6.334776e-13 6.016054e-09 -5.4441065e-12 -3.499738e-08 1.04868215e-11 -6.6732025e-10
-8.3614726e-11 -1.8544713e-11 -7.900234e-12 -5.9222676e-09 1.0620848e-11 -1.7265445e-13 2.356745e-11 -5.008042e-08
-2.8692217e-11 6.832852e-11 1.6797035e-10 3.1413238e-12 -3.3025313e-10 -9.704758e-11 -9.321275e-10 -5.4120757e-12
2.2374662e-09 1.5187047e-10 -1.0338938e-11 -5.7919567e-09 6.0928714e-13 -1.221634e-09 -8.689311e-11 -3.4132325e-11
-2.3183911e-11 -2.0726977e-11 3.9686427e-12 -3.2188214e-11 -2.8799229e-13 -1.6582342e-10 6.584187e-11 -2.518658e-10
-2.281799e-11 -3.2797722e-09 -4.7248676e-09 -2.8283272e-11 8.264007e-11 -5.047282e-09 -3.0209132e-10 3.3294077e-12
-4.251428e-12 1.3966747e-10 6.251669e-10 -3.855003e-10 8.358456e-12 6.451482e-10 -8.3501484e-11 -5.111785e-08
5.259506e-08 -1.03529574e-10 3.0672148e-10 -1.7029433e-09 2.1567177e-12 -1.2739486e-10 -1.5989639e-12 2.6828875e-10
1.2328972e-09 4.287188e-12 5.0982264e-11 -8.611609e-11 -1.08822e-12 -1.8383775e-12 5.6117773e-09 -4.7145754e-08
5.364628e-08 -7.1019315e-11 4.7841516e-13 7.0896435e-13 -8.947426e-12 -1.2089333e-11 -3.886942e-10 6.863239e-12
-9.359498e-12 6.9975627e-12 -1.8748414e-11 -5.9533463e-12 8.493148e-11 1.4957329e-11 -1.0268926e-11 -1.06937195e-10
-5.4545028e-11 1.1679678e-09 -9.546338e-11 -5.2836565e-08 -9.1766435e-11 4.5861604e-12 6.3071784e-11 -8.3374335e-11
2.8392848e-13 -5.5303615e-09 9.003991e-11 1.5097402e-12 4.244951e-14 -8.118645e-12 2.2172653e-09 3.8446768e-10
4.0170315e-12 -6.301325e-10 -1.7610525e-12 -2.7877242e-11 1.0343668e-11 8.381142e-12 5.4677964e-11 6.064719e-12
7.130147e-11 5.9845315e-09 4.7067164e-09 1.9583512e-08 -1.4477317e-12 -2.911365e-12 9.9062564e-11 5.4914127e-09
1.3988941e-11 2.1403232e-11 1.8712724e-10 -2.735509e-11 -1.426505e-11 -2.9611075e-12 6.949265e-10 -6.332158e-10
00000000: 9cfb cd2b ca12 3a2b df4e 322b c5b5 ce31
00000010: 278c bfac 0750 16b3 727c 382d 7d6e 37b0
00000020: e8de b7ae fb1e a3ad 7efb 0aad d17c cbb1
00000030: 0cd8 3a2d 4264 42aa 2e4d cf2d 0118 57b3
00000040: 2161 fcad 8a41 962e 73af 382f 0f0d 5d2c
00000050: ff8e b5af ee68 d5ae 521c 80b0 a56b beac
00000060: ecc1 1931 bdfb 262f 70e2 35ad 9702 c7b1
00000070: c47f 2b2b 6de6 a7b0 7914 bfae 951d 16ae
00000080: 87ed cbad 0151 b6ad 5ba2 8b2c b590 0dae
00000090: 1020 a2aa 2553 36af adc9 902e f676 8aaf
000000a0: 8cb5 c8ad 5d62 61b1 6058 a2b1 44c8 f8ad
000000b0: 39ba b52e 5d6c adb1 9313 a6af 4749 6a2c
000000c0: 7695 95ac e690 192f 36d8 2b30 58ee d3af
000000d0: 240b 132d 4556 3130 289f b7ae ac8c 5bb3
000000e0: e1e4 6133 f8a9 e3ae 369f a82f fe0c eab0
000000f0: f9c3 172c 7712 0caf bf08 e1ab 497e 932f
00000100: b772 a930 8ed7 962c ed38 602e 0d5f bdae
00000110: 4227 99ab 445d 01ac b7d1 c031 4e7d 4ab3
00000120: b568 6633 522c 9cae 72a9 062b 448e 472b
00000130: a067 1dad 84ad 54ad d8af d5af 907a f12c
00000140: 6fa7 24ad 7134 f62c ade9 a4ad fa76 d1ac
00000150: 2cc4 ba2e e990 832d 22a7 34ad 4a28 ebae
00000160: 3ee4 6fae 3786 a030 1bed d1ae 6bee 62b3
00000170: e9cb c9ae 765c a12c 42b2 8a2e 9457 b7ae
00000180: 68d6 9f2a 9305 beb1 f7ff c52e 207a d42b
00000190: f42c 3f29 20d3 0ead 8b5e 1831 045d d32f
000001a0: 3456 8d2c a235 2db0 9ad8 f7ab f835 f5ad
000001b0: bdf7 352d 4f71 132d ea79 702e 2262 d52c
000001c0: 29cb 9c2e 7fa0 cd31 b7b8 a131 9938 a832
000001d0: 08c0 cbab 7dde 4cac 44d7 d92e faae bc31
000001e0: 9718 762d cb43 bc2d a3bf 4d2f 309e f0ad
000001f0: 13f4 7aad 925e 50ac 1b05 3f30 9a0e 2eb0

layers.2.weight f4 [128]
0.62682235 0.626722 0.62458485 0.62469345 0.624567 0.62524545 0.62602186 0.62547004
0.6260478 0.62597543 0.6249542 0.6257305 0.62536657 0.62576604 0.62492585 0.62547785
0.62508786 0.6248794 0.62497514 0.6246641 0.6250256 0.62480617 0.62494147 0.62565273
0.6259763 0.6259644 0.6252053 0.62527114 0.62536323 0.62513787 0.62505925 0.62524825
0.62522775 0.6252916 0.6248228 0.6250179 0.62530655 0.62657267 0.62631804 0.6248445
0.62921053 0.6251455 0.6250682 0.62485784 0.6248305 0.6254723 0.62584823 0.62490577
0.6267303 0.62550104 0.62457985 0.6255752 0.6257647 0.6251686 0.6255999 0.6245533
0.62512517 0.625225 0.6249164 0.6245857 0.625021 0.62493944 0.6251959 0.6248019
0.6248428 0.62546766 0.626363 0.6257622 0.62527144 0.62522006 0.62496835 0.62497973
0.6261517 0.6251914 0.6248338 0.6273382 0.62568635 0.625449 0.625113 0.62495756
0.62463486 0.62522703 0.62475485 0.62492067 0.62567025 0.6267324 0.62515813 0.6247792
0.6246492 0.62598646 0.6254742 0.6249405 0.62664205 0.6250435 0.62922704 0.62543505
0.6247143 0.62517357 0.62585384 0.62535185 0.62505877 0.6267285 0.6253405 0.62474376
0.6250488 0.6242904 0.62537324 0.62549657 0.62602836 0.62518615 0.6249606 0.62583447
0.6252389 0.6250439 0.6252702 0.6249448 0.6250703 0.6258421 0.6252919 0.6257975
0.6254584 0.62527514 0.6251669 0.6248984 0.62550503 0.6247487 0.62618566 0.6249623
00000000: 6e77 203f da70 203f cbe4 1f3f e9eb 1f3f
00000010: 9fe3 1f3f 1610 203f f842 203f ce1e 203f
00000020: ab44 203f ed3f 203f 00fd 1f3f e02f 203f
00000030: 0618 203f 3432 203f 24fb 1f3f 511f 203f
00000040: c205 203f 19f8 1f3f 5ffe 1f3f fde9 1f3f
00000050: ad01 203f 4cf3 1f3f 2afc 1f3f c72a 203f
00000060: fc3f 203f 343f 203f 740d 203f c511 203f
00000070: ce17 203f 0909 203f e203 203f 4510 203f
00000080: ed0e 203f 1c13 203f 63f4 1f3f 2c01 203f
00000090: 1714 203f 1167 203f 6156 203f cff5 1f3f
000000a0: f113 213f 8909 203f 7804 203f aff6 1f3f
000000b0: e4f4 1f3f f41e 203f 9737 203f d3f9 1f3f
000000c0: 6671 203f d620 203f 77e4 1f3f b225 203f
000000d0: 1e32 203f 0d0b 203f 5127 203f bae2 1f3f
000000e0: 3408 203f bf0e 203f 85fa 1f3f d9e4 1f3f
000000f0: 6001 203f 08fc 1f3f d70c 203f 04f3 1f3f
00000100: b3f5 1f3f a61e 203f 5359 203f f431 203f
00000110: ca11 203f 6c0e 203f edfd 1f3f acfe 1f3f
00000120: 7a4b 203f 8b0c 203f 1cf5 1f3f 3c99 203f
00000130: fb2c 203f 6d1d 203f 6807 203f 38fd 1f3f
00000140: 12e8 1f3f e10e 203f efef 1f3f cdfa 1f3f
00000150: ed2b 203f 8971 203f 5d0a 203f 88f1 1f3f
00000160: 03e9 1f3f a640 203f 141f 203f 1afc 1f3f
00000170: 9d6b 203f da02 203f 0615 213f 831c 203f
00000180: 47ed 1f3f 600b 203f f537 203f 0f17 203f
00000190: da03 203f 4771 203f 5116 203f 35ef 1f3f
000001a0: 3303 203f 7fd1 1f3f 7618 203f 8b20 203f
000001b0: 6543 203f 330c 203f 6bfd 1f3f b036 203f
000001c0: a80f 203f e102 203f b511 203f 62fc 1f3f
000001d0: 9b04 203f 3037 203f 2113 203f 4434 203f
000001e0: 0b1e 203f 0812 203f f00a 203f 57f9 1f3f
000001f0: 1921 203f 88ef 1f3f b44d 203f 87fd 1f3f

layers.2.bias f4 [128]
-0.06952095 -0.031343814 0.0021380251 0.014673789 -0.00016925586 -0.03666803 -0.04422315 0.024599444
0.048392244 0.057583556 -0.02433662 -0.04519798 -0.040969346 -0.011337193 0.027571725 -0.040417682
0.03193407 0.02185388 0.024173317 -0.006382444 -0.026403267 0.0132766105 0.026216388 0.06103614
0.013817464 -0.018132867 0.036431853 -0.038354687 0.01000863 -0.02906588 -0.034597162 0.05150795
0.038254447 -0.04775983 -0.015175943 -0.031631924 0.039195087 -0.061031755 -0.05734088 0.016984459
-0.069125116 -0.034214564 -0.056910936 0.01933987 -0.018833956 -0.04806672 -0.01726005 -0.018545106
0.061582822 0.0015168628 0.0017569675 -0.0077411234 0.05950682 -0.03745604 -0.057801604 0.0010406475
-0.036116403 -0.032652833 -0.023487823 -0.0018942783 0.028088983 0.025006367 -0.05646975 0.023492757
0.013742494 0.055902187 -0.026109373 0.046643555 -0.040382996 0.03571787 -0.02639955 -0.028802488
-0.027216878 0.035070606 -0.018482648 0.0673618 0.05984857 -0.050296705 -0.029831003 -0.022598047
-0.0034668366 -0.056539394 -0.011126312 0.02360563 -0.052425217 0.061892346 0.02908942 -0.012467345
0.009365133 -0.018593205 -0.045667253 -0.02400555 -0.06202496 -0.029018734 0.07577281 -0.0486353
-0.0077932063 -0.039444637 0.01714632 -0.0075254412 0.028111998 0.033224016 0.035780042 -0.010083307
0.03089527 0.03675358 0.043545533 -0.0586981 -0.018293163 -0.03069488 0.027018407 -0.046879463
-0.017763052 -0.03136905 -0.033069767 0.02411096 -0.032502804 0.054925147 -0.016281018 -0.01118359
0.053752072 0.04052647 0.043902338 0.021441137 0.0030861064 0.0128553845 0.055730954 -0.026375376
00000000: 0061 8ebd 5f62 00bd 1c1e 0c3b 556a 703c
00000010: 467a 31b9 3731 16bd 5523 35bd c684 c93c
00000020: f236 463d bcdc 6b3d 975d c7bc 8421 39bd
00000030: 79cf 27bd a2bf 39bc 19de e13c 038d 25bd
00000040: 4dcd 023d e806 b33c 1f07 c63c d223 d1bb
00000050: aa4b d8bc 2486 593c c0c3 d63c 0801 7a3d
00000060: a562 623c 618b 94bc 9139 153d ce19 1dbd
00000070: 3dfb 233c 921b eebc c1b5 0dbd 00fa 523d
00000080: b2b0 1c3d d09f 43bd 85a4 78bc 7a90 01bd
00000090: 078b 203d 6ffc 79bd 45de 6abd fe22 8b3c
000000a0: 7891 8dbd 9224 0cbd 711b 69bd a66e 9e3c
000000b0: ab49 9abc 9ce1 44bd f364 8dbc e8eb 97bc
000000c0: 453e 7c3d 78d1 c63a 0c4a e63a 40a9 fdbb
000000d0: 6cbd 733d 816b 19bd 60c1 6cbd 5666 883a
000000e0: cbee 13bd fabe 05bd 8969 c0bc 6f49 f8ba
000000f0: de1a e63c 27da cc3c d34c 67bd e273 c03c
00000100: 3328 613c b1f9 643d 53e3 d5bc 500d 3f3d
00000110: a468 25bd e74c 123d de43 d8bc 32f3 ebbc
00000120: eef5 debc 32a6 0f3d ec68 97bc fcf4 893d
00000130: c623 753d eb03 4ebd 2660 f4bc 8a1f b9bc
00000140: de33 63bb da95 67bd 234b 36bc 9860 c13c
00000150: d3bb 56bd d482 7d3d ef4c ee3c d643 4cbc
00000160: 3770 193c c750 98bc 960d 3bbd 4aa7 c4bc
00000170: e20d 7ebd b2b8 edbc c62e 9b3d cf35 47bd
00000180: 275e ffbb b390 21bd 7076 8c3c fa97 f6bb
00000190: 224b e63c e815 083d 188e 123d 7434 25bc
000001a0: 1418 fd3c ec8a 163d cd5c 323d 6b6d 70bd
000001b0: 8bdb 95bc d473 fbbc b555 dd3c ae04 40bd
000001c0: d283 91bc d57c 00bd 2a74 07bd 5984 c53c
000001d0: a921 05bd 31f9 603d c55f 85bc 603b 37bc
000001e0: 222b 5c3d 15ff 253d f0d2 333d 53a5 af3c
000001f0: 4640 4a3b 649f 523c 2446 643d 2c11 d8bc

layers.2.running_mean f4 [128]
-1.1688118e+09 -2.828626e+09 1.084974e+10 1.0260151e+10 1.0051782e+10 -1.1333906e+09 -1.1303533e+09 9.623514e+09
1.057697e+10 7.112055e+09 -9.835078e+08 7.9964846e+09 -8.645311e+08 -1.6192108e+09 5.762899e+09 -1.094049e+09
8.532848e+09 5.8783135e+09 4.543719e+09 -1.6379132e+09 4.1679217e+09 7.1229983e+09 9.482549e+09 -2.7434634e+09
1.1019782e+10 -2.3116946e+09 -5.3395462e+08 -1.2599177e+09 -2.9035185e+09 -1.362668e+09 -9.6801914e+08 -1.8293106e+09
7.960401e+09 1.1938571e+10 -1.2541619e+09 -1.05613894e+09 4.3242363e+09 6.6175596e+09 7.2497336e+09 5.0487117e+09
-2.095892e+09 -1.7634377e+09 -2.437749e+09 4.649392e+09 -1.1491841e+09 4.7531054e+09 -1.8620951e+09 -1.00828614e+09
-7.573367e+08 1.3426164e+10 1.0288843e+10 -3.027022e+09 -1.7603005e+09 -1.7542968e+09 1.4195105e+10 9.55863e+09
-1.8542002e+09 -1.3292489e+09 -1.8701676e+09 -2.0552792e+09 5.308529e+08 9.465902e+09 -2.6284367e+09 5.7242604e+09
5.2952044e+09 -2.653642e+09 -7.0291405e+08 3.0245455e+09 -1.7461997e+09 4.456882e+09 -1.8763661e+09 -1.9022158e+09
-1.9921021e+09 -2.942989e+08 -1.9953441e+09 -4.987584e+08 -2.0754985e+09 8.292767e+09 -7.234759e+08 -8.129433e+08
-2.4218696e+09 -2.63878e+09 -2.0033964e+09 9.434168e+09 -2.61533e+09 7.0643743e+09 4.1702612e+09 -1.6188124e+09
9.887492e+09 -1.6604896e+09 -8.777738e+08 -1.0331163e+09 -2.1287274e+09 -9.6081504e+08 9.999291e+09 -1.7709015e+09
-1.7438108e+09 -2.1729797e+09 1.0672351e+10 1.4088163e+10 4.8124506e+08 1.5330556e+10 4.1975987e+09 -1.8385921e+09
4.810496e+09 1.0431581e+10 5.490242e+09 1.1166043e+10 -7.436724e+08 4.3805363e+09 9.508806e+09 8.841006e+09
1.4041347e+10 -1.5990575e+09 -1.324607e+09 1.0479846e+10 -1.8378185e+09 1.0248138e+10 -3.44903e+09 -1.3915488e+09
-2.5363123e+09 1.4437695e+10 1.0828476e+10 5.378104e+09 1.4972711e+10 5.503202e+09 3.4285972e+09 -1.8825402e+09
00000000: 4e55 8bce 6899 28cf 79ac 2150 5fe3 1850
00000010: 81c8 1550 561c 87ce a5bf 86ce cb66 0f50
00000020: f09b 1d50 acf4 d34f 8d7c 6ace 5650 ee4f
00000030: ca1e 4ece 6406 c1ce 6ebf ab4f ba6b 82ce
00000040: 774c fe4f f92f af4f d369 874f 2541 c3ce
00000050: 706d 784f 2a48 d44f 0e4d 0d50 ee85 23cf
00000060: 2235 2450 a9c9 09cf 029c fecd a331 96ce
00000070: 2d10 2dcf 5471 a2ce 33cb 66ce 2112 dace
00000080: 0a3d ed4f 09e6 3150 fc81 95ce 9bcd 7bce
00000090: 4edf 804f f937 c54f 140f d84f 9d76 964f
000000a0: 8cd9 f9ce d937 d2ce 194d 11cf 0c90 8a4f
000000b0: 51fe 88ce 51a7 8d4f a2fa ddce e764 70ce
000000c0: 2a90 34ce c010 4850 d250 1950 b16c 34cf
000000d0: 1cd8 d1ce e420 d1ce 0786 5350 486f 0e50
000000e0: b309 ddce 7575 9ece fcf0 dece 2502 f5ce
000000f0: 6121 fd4d 8d0d 0d50 c3aa 1ccf a498 aa4f
00000100: 34cf 9d4f 5d2b 1ecf 7896 27ce e746 344f
00000110: c929 d0ce 50d3 844f 26ae dfce 05c3 e2ce
00000120: 227a edce 2955 8ccd 12dd edce 98d3 edcd
00000130: 306b f7ce cb24 f74f 777d 2cce 1fd2 41ce
00000140: cc5a 10cf 9648 1dcf ced2 eece 7f94 0c50
00000150: c5e2 1bcf e688 d24f 2391 784f 3cfa c0ce
00000160: ca55 1350 1ff2 c5ce 1047 51ce 6a50 76ce
00000170: 9bc3 fdce 7f13 65ce 4500 1550 a01b d3ce
00000180: e2e0 cfce 0a85 01cf ca07 1f50 14ee 5150
00000190: bc79 e54d 6e71 6450 4632 7a4f 612d dbce
000001a0: 2c5d 8f4f 5371 1b50 399f a34f 1363 2650
000001b0: 294e 31ce d78c 824f 37b1 0d50 c3bd 0350
000001c0: 7d3b 5150 5d9f bece cce7 9dce 7129 1c50
000001d0: c515 dbce 8bb5 1850 0594 4dcf b3e2 a5ce
000001e0: 0e2d 17cf 7023 5750 5c5b 2150 ad47 a04f
000001f0: 5c1c 5f50 1902 a44f 3e5c 4c4f 916a e0ce

layers.2.running_var f4 [128]
8.1870323e+15 5.6553973e+16 7.4869245e+17 5.9102564e+17 6.644548e+17 7.2192946e+15 1.5712849e+16 5.1711313e+17
6.7884054e+17 4.2744126e+17 5.3385595e+15 4.063125e+17 4.2890123e+15 1.6380693e+16 2.5398268e+17 6.752598e+15
4.0515024e+17 2.4795578e+17 1.1419754e+17 1.6009472e+16 2.368905e+17 2.8558676e+17 5.0352884e+17 5.685779e+16
7.7451956e+17 3.29896e+16 4.1042725e+16 8.8353496e+15 5.2372616e+16 1.032411e+16 7.0406964e+15 3.1202134e+16
3.5244395e+17 9.291916e+17 8.7567887e+15 8.31429e+15 1.2234397e+17 4.2565528e+17 5.055154e+17 1.4048424e+17
2.7015286e+16 1.8058912e+16 3.8864996e+16 1.1908652e+17 7.337967e+15 1.5442268e+17 2.1292425e+16 5.666601e+15
3.744153e+16 1.0484574e+18 6.8286255e+17 5.5984577e+16 2.8909225e+16 1.7090665e+16 1.2902945e+18 6.125501e+17
1.9187133e+16 1.2613455e+16 1.9586178e+16 2.7285912e+16 3.4470188e+16 5.02032e+17 4.494556e+16 2.5473748e+17
1.5644657e+17 5.4472585e+16 4.1604978e+15 6.3831465e+16 1.7956389e+16 1.1962639e+17 1.9726682e+16 2.0256367e+16
2.4196697e+16 3.4870058e+16 2.2395486e+16 9.505542e+15 3.620244e+16 4.46567e+17 3.073014e+15 3.745491e+15
3.6509305e+16 4.52047e+16 2.3219416e+16 4.9830764e+17 4.2288068e+16 3.8550654e+17 9.777422e+16 1.49261e+16
5.569506e+17 1.7268654e+16 4.705189e+15 5.886853e+15 2.8148125e+16 5.256642e+15 6.141257e+17 1.8573893e+16
1.7981785e+16 2.9165094e+16 6.4741286e+17 1.1594875e+18 3.4091494e+16 1.485115e+18 1.0027716e+17 1.905877e+16
1.6864625e+17 6.8500626e+17 1.84558e+17 8.208862e+17 4.4749058e+15 1.2767209e+17 5.0608816e+17 7.096955e+17
1.160101e+18 1.433308e+16 1.24077e+16 6.378837e+17 1.8852729e+16 6.3977565e+17 6.705977e+16 1.2486576e+16
5.444702e+16 1.158501e+18 7.187703e+17 1.5986002e+17 1.3061195e+18 1.6940542e+17 7.611472e+16 1.9832767e+16
00000000: 80b0 e859 8aeb 485b 3d3e 265d eb3b 035d
00000010: e289 135d 482f cd59 034b 5f5a f5a4 e55c
00000020: 9ebb 165d 72d2 bd5c 22bb 9759 6270 b45c
00000030: 58cd 7359 9dc8 685a fa94 615c 9eeb bf59
00000040: 40ec b35c 9e3a 5c5c 07db ca5b 1f82 635a
00000050: aa66 525c e9a6 7d5c 9a9c df5c dcff 495b
00000060: 57fa 2b5d bc67 ea5a 24d0 115b a11d fb59
00000070: 9e10 3a5b e5b6 125a cf1b c859 5ab4 dd5a
00000080: 3d84 9c5c 6d52 4e5d 06e2 f859 6c4e ec59
00000090: 9953 d95b 6707 bd5c 727e e05c d68c f95b
000000a0: 85f4 bf5a f850 805a 8213 0a5b 488a d35b
000000b0: bd8e d059 a727 095c b24a 975a f30d a159
000000c0: e004 055b e7cd 685d 3ea0 175d ade5 465b
000000d0: 9369 cd5a 7adf 725a 6040 8f5d 7103 085d
000000e0: 3155 885a 7b3f 335a 0d2b 8b5a c9e0 c15a
000000f0: e8ec f45a 6ef2 de5c c0ad 1f5b 9940 625c
00000100: d5f3 0a5c 8786 415b 367f 6c59 61c6 625b
00000110: f62c 7f5a c97f d45b a02a 8c5a 1eee 8f5a
00000120: 89ed ab5a 44c4 f75a 2721 9f5a f614 075a
00000130: ed9d 005b ca50 c65c 3dae 2e59 11e8 5459
00000140: 05b5 015b 6f99 205b dffb a45a 054b dd5c
00000150: c63c 165b 0533 ab5c 91ae ad5b d61c 545a
00000160: f455 f75c ff66 755a c1ba 8559 7e50 a759
00000170: 2401 c85a 1b67 9559 015d 085d b7f9 835a
00000180: 5a89 7f5a ff3a cf5a 29c1 0f5d 9eba 805d
00000190: 113c f25a 82e1 a45d c620 b25b b36b 875a
000001a0: b8c9 155c 191a 185d a1eb 235c fa45 365d
000001b0: 735e 7e59 8bca e25b 90bf e05c 8595 1d5d
000001c0: 0ecc 805d 71af 4b5a f352 305a 7ea3 0d5d
000001d0: eaf4 855a 090f 0e5d 813e 6e5b e671 315a
000001e0: 476f 415b 949e 805d 5c99 1f5d f6fb 0d5c
000001f0: 2602 915d 5576 165c f834 875b 98eb 8c5a

layers.3.weight f4 [128, 128]
0.028427662 0.006343794 -0.0009431002 -0.003999973 0.0014162774 0.010429556 0.017565783 -0.0150886355
-0.014357105 -0.018642671 0.0074010445 0.018993834 0.01126127 0.0025625008 -0.0061875377 0.011968648
-0.008816653 -0.0056612277 -0.0074448204 0.002137336 0.008097781 -0.0045398274 -0.00455151 -0.019400844
-0.00084131886 0.002264317 -0.011359278 0.01087833 0.0009598171 0.008444824 0.009056646 -0.017730275
-0.013490608 0.015266618 0.0047892365 0.008270715 -0.011357907 0.021150885 0.019549813 -0.0055706603
0.030427393 0.008755286 0.009391447 -0.0061166626 0.005549718 0.015044713 0.0037715037 0.006124119
-0.020603273 -0.0060321335 -0.0006498774 0.00025474932 -0.018741373 0.011906603 0.01860328 0.0011473501
0.0081904465 0.010155061 0.0039510154 0.0006672421 -0.008352301 -0.004448078 0.0084069725 -0.0047956416
-0.005242753 -0.017281113 0.008160062 -0.013898177 0.009968147 -0.009782836 0.00570495 0.0055626244
0.0056232107 -0.0109473895 0.0018005839 -0.029455964 -0.018990906 0.01583746 0.008864214 0.0070580887
0.0018217324 0.008693938 0.0041238363 -0.003548247 0.010106612 -0.02275222 -0.009291993 0.0040338933
-0.002208488 0.0040022773 0.013333947 0.007274063 0.013238892 0.00852809 -0.03273959 0.012070787
0.0028952053 0.008531038 -0.0032568166 -0.0027718325 -0.008513606 -0.0073951613 -0.011396749 -0.00044899876
-0.008616677 -0.004487263 -0.013224424 0.018846143 0.0062401625 0.011022777 -0.0045842654 0.019080723
-0.0017465227 0.010081169 0.0104691 -0.0067585814 0.0073956153 -0.013003494 0.013435318 0.0030034336
-0.017882943 -0.014883099 -0.008683382 -0.0064150873 -6.473632e-05 -0.0042349123 -0.017341323 0.004673377
0.0320841 0.0027636 -0.0015570234 -0.0045261015 0.0012753978 0.011908643 0.018923799 -0.024010802
-0.014682526 -0.018987129 0.008886213 0.020253275 0.013377932 0.027088055 -0.0087164715 0.013837957
-0.010716486 -0.007775275 -0.008888837 0.0038816293 0.010234026 -0.0055077597 -0.0100356005 -0.020919168
0.0024724267 0.030744256 -0.012569637 0.01307817 0.018332828 0.01040142 0.011090596 -0.019314168
-0.015640033 0.017210115 0.006578082 0.010366554 -0.012516123 0.01773337 0.017113905 -0.006993015
0.0353365 0.010709003 0.015635872 -0.0075817527 0.0073070056 0.016228681 0.029372778 0.007138459
-0.020329375 -0.017517483 -0.0011903978 0.020750139 -0.021217437 0.012597645 0.021143654 0.0002213775
0.01275815 0.010590187 0.00901407 0.0012982897 -0.0106547335 -0.009409103 0.015135172 -0.007849576
-0.00574787 -0.0184649 0.03197875 -0.015944501 0.012628546 -0.011544466 0.009241973 0.010640021
0.031141615 -0.012111349 0.00843787 -0.035933312 -0.020466244 0.017001918 0.010404196 0.008365878
0.0016521626 0.014466347 0.004575033 -0.009561292 0.014863506 -0.024277415 -0.010365118 0.005364766
-0.002518838 0.029948695 0.015449588 0.008770171 0.01655735 0.010034646 -0.036263254 0.015408918
0.003683853 0.011876279 -0.028376512 -0.016834887 -0.010680329 -0.0036854385 -0.012453268 0.0064749247
-0.010166355 -0.0138864145 -0.014521351 0.020565523 0.029231494 0.011627252 -0.010497546 0.021660881
-0.0031814098 0.010761758 0.010776552 -0.008396358 0.011324779 -0.017395262 0.018367717 0.028019806
-0.017401496 -0.019324731 -0.014594044 -0.00806325 -0.023466263 -0.005609687 -0.015779538 0.010024091
00000000: 21e1 e83c 9adf cf3b 623a 77ba 3512 83bb
00000010: 62a2 b93a bae0 2a3c 1ee6 8f3c 5336 77bc
00000020: 103a 6bbc 84b8 98bc 7684 f23b f598 9b3c
00000030: 3181 383c a1ef 273b d4c0 cabb 2618 443c
00000040: b973 10bc d281 b9bb aef3 f3bb 8c12 0c3b
00000050: 8eac 043c d5c2 94bb d524 95bb 85ee 9ebc
00000060: f48b 5cba ef64 143b 441c 3abc 063b 323c
00000070: 3c9c 7b3a 295c 0a3c 5462 143c 153f 91bc
00000080: b607 5dbc d620 7a3c 07ef 9c3b e581 073c
00000090: 8416 3abc 9f44 ad3c ee26 a03c 168a b6bb
000000a0: de42 f93c 5572 0f3c 95de 193c 496e c8bb
000000b0: 69da b53b 1a7e 763c 552b 773b d5ac c83b
000000c0: 32c8 a8bc 34a9 c5bb 895c 2aba e08f 8539
000000d0: 8287 99bc ea13 433c e865 983c ae62 963a
000000e0: 3931 063c 6a61 263c 8577 813b dce9 2e3a
000000f0: 17d8 08bc 2fc1 91bb 66bd 093c c224 9dbb
00000100: 66cb abbb 1f91 8dbc c8b1 053c 2eb5 63bc
00000110: 7051 233c 3048 20bc 97f0 ba3b ad46 b63b
00000120: e942 b83b ae5c 33bc 9201 ec3a a24d f1bc
00000130: d192 9bbc 90bd 813c 353b 113c 8a47 e73b
00000140: 32c7 ee3a 0571 0e3c 3f21 873b b589 68bb
00000150: 3496 253c dd62 babc 723d 18bc c02e 843b
00000160: 48bc 10bb 8925 833b a176 5a3c 435b ee3b
00000170: f0e7 583c 67b9 0b3c f319 06bd 8dc4 453c
00000180: 7cbd 3d3b c4c5 0b3c 5170 55bb a2a7 35bb
00000190: a77c 0bbc 1c53 f2bb 6eb9 3abc 9867 ebb9
000001a0: f62c 0dbc e409 93bb 41ab 58bc 3a63 9a3c
000001b0: 477a cc3b e198 343c 9b37 96bb 2d4f 9c3c
000001c0: 94eb e4ba 7d2b 253c 9786 2b3c 1777 ddbb
000001d0: eb56 f23b 9b0c 55bc cf1f 5c3c 41d5 443b
000001e0: 407f 92bc 3ed8 73bc be44 0ebc a735 d2bb
000001f0: 0cc3 87b8 05c5 8abb 640f 8ebc 2123 993b
00000200: 9e6a 033d 841d 353b 0915 ccba b14f 94bb
00000210: 402b a73a 781c 433c 1506 9b3c 4db2 c4bc
00000220: fa8e 70bc e58a 9bbc 7b97 113c 32ea a53c
00000230: 1d2f 5b3c c5e7 dd3c 88cf 0ebc 99b8 623c
00000240: 3394 2fbc bcc7 febb 7ca2 11bc ef62 7e3b
00000250: 9eac 273c 707a b4bb 5c6c 24bc ad5e abbc
00000260: 7008 223b 61db fb3c e1f0 4dbc d245 563c
00000270: ba2e 963c b86a 2a3c 55b5 353c bf38 9ebc
00000280: 871f 80bc 3afc 8c3c f48c d73b 7bd8 293c
00000290: 6d10 4dbc 9345 913c 7632 8c3c a925 e5bb
000002a0: 01bd 103d d074 2f3c cd16 803c 5a70 f8bb
000002b0: 9b6f ef3b 03f2 843c 2e9f f03c bce9 e93b
000002c0: ca89 a6bc d380 8fbc 1f07 9cba 32fc a93c
000002d0: 31d0 adbc 5a66 4e3c 7535 ad3c 9221 6839
000002e0: 8f07 513c 7782 2d3c c0af 133c 602b aa3a
000002f0: 3191 2ebc a328 1abc 83f9 773c 829b 00bc
00000300: a158 bcbb b443 97bc 26fc 023d 0b9e 82bc
00000310: f6e7 4e3c 0025 3dbc a56b 173c 7c53 2e3c
00000320: b31c ff3c ae6e 46bc fe3e 0a3c cf2e 13bd
00000330: d3a8 a7bc 9b47 8b3c 5c76 2a3c 0911 093c
00000340: 618d d83a 4204 6d3c 29ea 953b f7a6 1cbc
00000350: 1086 733c 6ee1 c6bc 75d2 29bc ebca af3b
00000360: 1713 25bb f756 f53c 4520 7d3c c3b0 0f3c
00000370: 48a3 873c 5b68 243c c788 14bd b075 7c3c
00000380: cc6c 713b b994 423c dc75 e8bc 51e9 89bc
00000390: 8cfc 2ebc 6687 71bb cb08 4cbc 9b2b d43b
000003a0: c990 26bc d883 63bc f6ea 6dbc 0779 a83c
000003b0: e376 ef3c 3b80 3e3c e6fd 2bbc 2972 b13c
000003c0: 337f 50bb 1652 303c 2390 303c e190 09bc
000003d0: 918b 393c 8280 8ebc e577 963c cb89 e53c
000003e0: 958d 8ebc e64e 9ebc db1b 6fbc b91b 04bc
000003f0: 523c c0bc 77d1 b7bb 1744 81bc 163c 243c

layers.3.bias f4 [128]
-0.03776566 -0.010718336 -0.013917655 -0.019457987 -0.011863274 -0.015711058 -0.007265958 -0.010962145
-0.02182873 -0.0046263277 0.018207185 -0.0027694928 0.035758033 0.008758305 -0.030459091 0.03354892
-0.015160827 0.012980601 0.01998269 -0.031154107 0.00980154 0.047865946 0.04084712 -0.03517951
0.014928308 -0.026170963 0.018922472 0.020551953 -0.020954179 -0.0042217467 0.018865986 0.00064098195
-0.030021856 0.024147253 0.006749044 0.0030306363 -0.02820708 -0.011458069 0.054807708 0.04559501
0.01727859 -0.01800165 0.00049689645 0.013267415 -0.0040063886 -0.024400596 0.021337058 -0.0012754478
-0.004218059 -0.0040731654 0.013172171 0.03442016 0.01053176 -0.025287878 0.018432248 0.0031854087
0.007112785 -0.016791167 -0.021585118 0.031345405 -0.04597582 0.005935969 0.0014780252 -0.015957052
-0.008780055 0.022687908 -0.0028790657 0.023530427 0.013149746 -0.016021628 -0.005620509 -0.0019432588
0.033415534 -0.014980318 -0.005596653 -0.012064079 -0.032468278 -0.041230913 0.038565915 0.01812804
0.02020812 -0.025464054 -0.010018634 0.007819602 0.0020716556 0.0048949844 0.008768015 -0.018758727
-0.016315883 0.0028748822 0.0065261032 -0.014133591 -0.017193208 0.010653476 0.0049633803 -0.017254513
0.014302387 -0.010234726 -0.001408701 0.029468574 -0.04955005 0.005218284 -0.02544326 0.03995715
-0.018524535 0.007065245 0.014067137 -0.007240536 -0.0024591647 0.031907734 -0.0034488528 0.0009911306
0.0020958802 -0.01326876 -0.007508143 -0.012691276 0.038383592 -0.030798886 -0.0076473397 0.008108103
0.0070868586 -0.0026137938 -0.0074880477 -0.017683927 -0.016430808 0.007002259 -0.027053727 0.032891255
00000000: 2ab0 1abd f69b 2fbc e006 64bc 5b66 9fbc
00000010: 2d5e 42bc 7ab4 80bc 4617 eebb 929a 33bc
00000020: 2ad2 b2bc 7398 97bb 3c27 953c 6180 35bb
00000030: 0477 123d fe7e 0f3c 5885 f9bc 986a 093d
00000040: 1e65 78bc 96ac 543c bdb2 a33c e636 ffbc
00000050: a396 203c 150f 443d 4f4f 273d 6418 10bd
00000060: dd95 743c 7d64 d6bc 4d03 9b3c 925c a83c
00000070: 19a8 abbc 9456 8abb d78c 9a3c 9207 283a
00000080: 65f0 f5bc 76d0 c53c 1627 dd3b a49d 463b
00000090: 8912 e7bc a0ba 3bbc 0c7e 603d d5c1 3a3d
000000a0: d48b 8d3c 3278 93bc 2842 023a 925f 593c
000000b0: 0648 83bb c2e3 c7bc 0ecb ae3c ed2c a7ba
000000c0: a537 8abb 3078 85bb 17d0 573c 27fc 0c3d
000000d0: 678d 2c3c 8628 cfbc 3aff 963c 4ac2 503b
000000e0: 5d12 e93b a18d 89bc 46d3 b0bc 0a64 003d
000000f0: 2451 3cbd 8482 c23b 4cba c13a 5db8 82bc
00000100: 38da 0fbc fedb b93c b5ae 3cbb e2c2 c03c
00000110: 0872 573c ca3f 83bc 3f2c b8bb f2b4 feba
00000120: bade 083d 0270 75bc 2164 b7bb 6aa8 45bc
00000130: 75fd 04bd bfe1 28bd 4bf7 1d3d 4181 943c
00000140: 808b a53c fe99 d0bc 3225 24bc ca1d 003c
00000150: 9dc4 073b 1b66 a03b b8a7 0f3c e7ab 99bc
00000160: e3a8 85bc 8568 3c3b ecd8 d53b 9490 67bc
00000170: c5d8 8cbc eb8b 2e3c daa3 a23b 5659 8dbc
00000180: 8f54 6a3c 8daf 27bc 29a4 b8ba 1468 f13c
00000190: fef4 4abd 24fe aa3b 626e d0bc 1caa 233d
000001a0: c4c0 97bc 9283 e73b d979 663c 0542 edbb
000001b0: f029 21bb afb1 023d 2606 62bb d3e8 813a
000001c0: 095b 093b 3765 59bc de06 f6bb 12ef 4fbc
000001d0: 1d38 1d3d f24d fcbc 8996 fabb d9d7 043c
000001e0: e138 e83b 2f4c 2bbb 4c5e f5bb e2dd 90bc
000001f0: e799 86bc 3573 e53b c79f ddbc fbb8 063d

layers.6.weight f4 [128]
0.62877244 0.6291759 0.6241457 0.62411827 0.62404245 0.6242132 0.6277792 0.623141
0.6240982 0.6242816 0.62524897 0.6299598 0.6278309 0.6260647 0.6278397 0.62505084
0.6238702 0.6233065 0.6242698 0.627466 0.6258594 0.62699825 0.6291822 0.6243645
0.6259983 0.624013 0.62560886 0.62539446 0.6290395 0.6234674 0.623837 0.6249572
0.62642455 0.6250717 0.62373334 0.6256027 0.6256868 0.6246801 0.6271295 0.62310636
0.6252829 0.6271688 0.6256967 0.6245782 0.62586063 0.6266471 0.62955743 0.6237386
0.62628263 0.6238153 0.62617576 0.62694085 0.62429225 0.62478 0.62524676 0.6274189
0.62647665 0.6254396 0.62406653 0.6246791 0.6276183 0.6253715 0.62756985 0.6254869
0.62370145 0.62760824 0.6243244 0.6248301 0.6269377 0.6258143 0.6275248 0.6255911
0.6288816 0.6260002 0.62949544 0.62550324 0.6249303 0.62415826 0.6254596 0.6288992
0.623997 0.6251851 0.6258647 0.62655777 0.62430894 0.6256255 0.6241004 0.62500393
0.6234178 0.6238599 0.62468153 0.6228209 0.6241073 0.62565315 0.6249187 0.62457055
0.625909 0.6268001 0.62427175 0.6267749 0.63029575 0.62254363 0.6250622 0.6244385
0.62320477 0.6296263 0.62404126 0.62554455 0.6245947 0.631224 0.625154 0.62409216
0.62459654 0.63597083 0.6277505 0.6249655 0.6249023 0.6264148 0.62517035 0.6282832
0.6241712 0.6252125 0.6279818 0.6327251 0.62722903 0.6241411 0.6240681 0.6306696
00000000: 3bf7 203f ac11 213f 03c8 1f3f 37c6 1f3f
00000010: 3fc1 1f3f 70cc 1f3f 23b6 203f 2b86 1f3f
00000020: e6c4 1f3f ebd0 1f3f 5110 203f 0c45 213f
00000030: 87b9 203f c745 203f 1aba 203f 5503 203f
00000040: f5b5 1f3f 0491 1f3f 25d0 1f3f 9da1 203f
00000050: 5238 203f f582 203f 1612 213f 5ad6 1f3f
00000060: 6d41 203f 51bf 1f3f e727 203f da19 203f
00000070: bc08 213f 8f9b 1f3f c8b3 1f3f 32fd 1f3f
00000080: 5c5d 203f b304 203f fdac 1f3f 8027 203f
00000090: 032d 203f 09eb 1f3f 8f8b 203f e683 1f3f
000000a0: 8a12 203f 228e 203f a92d 203f 5be4 1f3f
000000b0: 6738 203f f26b 203f ad2a 213f 55ad 1f3f
000000c0: 0f54 203f 5cb2 1f3f 0e4d 203f 327f 203f
000000d0: 9ed1 1f3f 95f1 1f3f 2c10 203f 869e 203f
000000e0: c660 203f cf1c 203f d3c2 1f3f f8ea 1f3f
000000f0: 98ab 203f 5918 203f 6ba8 203f e91f 203f
00000100: e6aa 1f3f efaa 203f b9d3 1f3f def4 1f3f
00000110: fd7e 203f 5e35 203f 77a5 203f bd26 203f
00000120: 62fe 203f 8d41 203f 9d26 213f fb20 203f
00000130: 6ffb 1f3f d6c8 1f3f 1f1e 203f 8aff 203f
00000140: 44be 1f3f 210c 203f ab38 203f 1766 203f
00000150: b6d2 1f3f fe28 203f 0bc5 1f3f 4200 203f
00000160: 4f98 1f3f 48b5 1f3f 21eb 1f3f 3171 1f3f
00000170: 7fc5 1f3f ce2a 203f acfa 1f3f dbe3 1f3f
00000180: 923b 203f f975 203f 46d0 1f3f 5274 203f
00000190: 105b 213f 055f 1f3f 1404 203f 34db 1f3f
000001a0: 598a 1f3f 302f 213f 2bc1 1f3f b023 203f
000001b0: 70e5 1f3f e597 213f 180a 203f 81c4 1f3f
000001c0: 8fe5 1f3f fcce 223f 42b4 203f bdfd 1f3f
000001d0: 99f9 1f3f b85c 203f 2a0b 203f 2bd7 203f
000001e0: afc9 1f3f ed0d 203f 6ac3 203f 46fa 213f
000001f0: 1592 203f b6c7 1f3f edc2 1f3f 9073 213f

layers.6.bias f4 [128]
-0.032759637 -0.032005753 -0.0055146613 -0.018692093 -0.012763562 -0.016114606 -0.024458986 0.005352393
-0.025632735 -0.014373428 0.016835343 -0.0464844 0.029385045 0.01612728 -0.0248175 0.020472927
0.0051826327 0.011700181 0.011794049 -0.030533731 0.0076995715 0.024604995 0.025310572 -0.02872848
0.018434063 -0.007730733 0.01297974 0.018183857 -0.032918047 -0.019791393 0.027237717 -0.0072566126
-0.02231327 0.008300763 0.02351066 0.0032164077 -0.027721655 -0.012578839 0.030307362 0.015341962
0.00044222304 -0.030721853 2.594589e-05 0.018560065 0.0037918936 -0.046064653 0.014883087 0.0059079225
0.009677916 0.023012985 0.027048446 0.015462543 0.028821534 -0.017545462 -0.029585721 0.017904555
-0.019428832 -0.008222926 0.008196772 0.030475453 -0.041942794 0.012606637 -0.024196245 -0.011974628
0.034735072 0.02271956 -0.004717495 0.019837819 0.025738727 -0.016141526 -0.033296775 -0.014609227
0.027478073 0.052268438 -0.029707812 -0.012123406 0.0144745745 -0.018709002 0.026127826 0.02845686
-0.0042546075 -0.025132084 -0.025296565 0.020426022 -0.0016987637 -0.017772887 -0.02054403 -0.0086061405
-0.0013189628 -0.004753553 0.009730388 -0.008569849 -0.031582057 0.016896179 -0.0167228 -0.008249979
-0.025928011 -0.01733453 -0.022866357 0.022926213 -0.042155355 0.006113969 -0.031113803 -0.017110186
-0.015150166 -0.015695121 -0.0071095275 0.021574587 0.017423375 0.043296244 -0.017379498 -0.012545876
0.014373553 -0.0412078 -0.024037272 0.0031899696 0.0027881688 -0.026100535 0.043839574 0.028784262
-1.0435702e-05 0.0062942347 -0.017657738 -0.042050548 -0.03312917 0.012815005 0.00024239646 0.0422019
00000000: f82e 06bd 7718 03bd 55b4 b4bb 2920 99bc
00000010: 421e 51bc c702 84bc 365e c8bc 2063 af3b
00000020: befb d1bc 877e 6bbc 46ea 893c 6d66 3ebd
00000030: e8b8 f03c 5c1d 843c 124e cbbc d7b6 a73c
00000040: 13d3 a93b 1eb2 3f3c d43b 413c e021 fabc
00000050: b04c fc3b 6a90 c93c 1e58 cf3c fd57 ebbc
00000060: 0803 973c 1752 fdbb faa8 543c 50f6 943c
00000070: 13d5 06bd 8f21 a2bc a221 df3c e1c8 edbb
00000080: 52ca b6bc ecff 073c 6d99 c03c 5eca 523b
00000090: 8618 e3bc 7a17 4ebc 2547 f83c da5c 7b3c
000000a0: 2cda e739 65ac fbbc 60a6 d937 470b 983c
000000b0: 6b81 783b 4aae 3cbd 31d8 733c 3f97 c13b
000000c0: 1f90 1e3c ba85 bc3c b494 dd3c 9b56 7d3c
000000d0: 231b ec3c 80bb 8fbc c15d f2bc 93ac 923c
000000e0: 3729 9fbc 74b9 06bc c14b 063c a8a7 f93c
000000f0: 35cc 2bbd 118c 4e3c 3437 c6bc 3b31 44bc
00000100: 5d46 0e3d 5f1e ba3c 3795 9abb ec82 a23c
00000110: 06da d23c 3c3b 84bc 3362 08bd 8a5b 6fbc
00000120: b219 e13c 6e17 563d cc5d f3bc 40a1 46bc
00000130: c426 6d3c 9f43 99bc 060a d63c 5c1e e93c
00000140: 3c6a 8bbb cde1 cdbc be3a cfbc 7954 a73c
00000150: 0da9 deba 7298 91bc f44b a8bc c500 0dbc
00000160: 0ce1 acba b1c3 9bbb 356c 1f3c 8d68 0cbc
00000170: 305c 01bd db69 8a3c 41fe 88bc eb2a 07bc
00000180: fb66 d4bc 2501 8ebc 3a52 bbbc c1cf bb3c
00000190: 18ab 2cbd b057 c83b 60e2 febc a92a 8cbc
000001a0: 6738 78bc 0e93 80bc 0af7 e8bb 30bd b03c
000001b0: 77bb 8e3c 6757 313d 735f 8ebc 388d 4dbc
000001c0: 0d7f 6b3c 83c9 28bd d0e9 c4bc cf0e 513b
000001d0: b6b9 363b cad0 d5bc 2091 333d f9cc eb3c
000001e0: 0015 2fb7 de3f ce3b f6a6 90bc 323d 2cbd
000001f0: 74b2 07bd 07f6 513c ce2b 7e39 e6db 2c3d

layers.6.running_mean f4 [128]
-0.098132886 -0.12032948 -0.08380573 -0.0033999467 0.0015919469 -0.104353435 -0.05221585 -0.011961402
-0.052129753 0.020914175 0.054742873 -0.077918634 0.075593114 0.0534935 -0.063289225 -0.01037875
0.02440043 0.00043756538 0.09797768 -0.10724675 0.06829854 0.11956317 0.07691382 -0.0006574048
0.07021826 -0.038944937 0.060567986 0.10017049 -0.024997275 0.017745867 -0.020185463 -0.04523354
-0.047023844 0.064529344 0.041745275 -0.02793644 -0.05515105 -0.06720149 0.049501445 0.034225594
0.062402878 -0.07103155 0.010397278 0.095242605 0.025208706 -0.09918681 0.08615273 0.03154891
0.03023566 -0.024327502 0.10515545 0.065619946 -0.07358295 -0.08411351 -0.020221436 0.071336485
-0.034918718 -0.05557024 0.017215876 0.07279026 -0.030577255 0.07348631 -0.051842008 -0.028433632
0.08165389 0.034369696 -0.008172343 0.06768921 0.09652684 0.07666209 -0.04294184 -0.086052336
0.10204624 -0.039037596 -0.049054977 0.016770463 0.003847443 0.027317185 -0.019748922 0.061391756
-0.030004064 -0.11044911 0.038861804 0.021797683 0.07750909 -0.052098718 -0.036594503 -0.038097598
-0.02437275 -0.04104882 -0.05075711 -0.035904188 -0.01770184 0.08623926 -0.04278309 0.03855379
-0.031652164 -0.10582466 0.06285499 0.056865584 -0.107339114 -0.0060237194 0.024762612 0.008440837
-0.061657563 -0.022356085 0.055313174 -0.05306281 0.033071633 0.10717928 -0.018934026 -0.013363351
0.042127356 -0.08558187 0.009736681 -0.0466696 0.09249358 -0.039550643 -0.018364474 0.08992976
-0.05440792 0.013804849 -0.030819278 -0.1103193 -0.05485209 0.046298802 0.0025775093 0.069997266
00000000: e5f9 c8bd 4d6f f6bd 57a2 abbd a4d1 5ebb
00000010: e0a8 d03a 41b7 d5bd 4ae0 55bd c2f9 43bc
00000020: 0286 55bd 3454 ab3c 103a 603d ce93 9fbd
00000030: 90d0 9a3d 001c 5b3d c89d 81bd a20b 2abc
00000040: 69e3 c73c 0869 e539 86a8 c83d 2fa4 dbbd
00000050: 1be0 8b3d 89dd f43d fe84 9d3d b055 2cba
00000060: 97ce 8f3d ba84 1fbd 2316 783d 3026 cd3d
00000070: 16c7 ccbc c85f 913c fc5b a5bc ce46 39bd
00000080: 139c 40bd f627 843d 18fd 2a3d f6da e4bc
00000090: 11e6 61bd efa0 89bd 07c2 4a3d 2330 0c3d
000000a0: 299a 7f3d fd78 91bd 5859 2a3c 8e0e c33d
000000b0: 7d82 ce3c 7422 cbbd d870 b03d 6e39 013d
000000c0: c6b0 f73c 784a c7bc be5b d73d c063 863d
000000d0: a8b2 96bd b443 acbd 6da7 a5bc dd18 923d
000000e0: ee06 0fbd 9f9d 63bd 4f08 8d3c 0f13 953d
000000f0: 277d fabc fe7f 963d 4958 54bd a6ed e8bc
00000100: 283a a73d 3dc7 0c3d 4ae5 05bc a4a0 8a3d
00000110: ddaf c53d 0401 9d3d c8e3 2fbd 353c b0bd
00000120: 9efd d03d e3e5 1fbd dfed 48bd 3662 893c
00000130: 6225 7c3b 4ac8 df3c 7ec8 a1bc ec75 7b3d
00000140: 15cb f5bc 2533 e2bd 8e2d 1f3d 0e91 b23c
00000150: 16bd 9e3d 7765 55bd 1ee4 15bd 3a0c 1cbd
00000160: 5da9 c7bc cf22 28bd b0e6 4fbd 4510 13bd
00000170: 7303 91bc 369e b03d 523d 2fbd 94ea 1d3d
00000180: b3a5 01bd 99ba d8bd 1eba 803d e3eb 683d
00000190: 9cd4 dbbd 9f62 c5bb f6da ca3c 704b 0a3c
000001a0: a48c 7cbd 1c24 b7bc 1190 623d 6458 59bd
000001b0: 1f76 073d cf80 db3d 881b 9bbc f5f1 5abc
000001c0: bc8d 2c3d 8c45 afbd 9a86 1f3c 9f28 3fbd
000001d0: 466d bd3d dbff 21bd 1871 96bc 182d b83d
000001e0: d7da 5ebd bc2d 623c b678 fcbc 16ef e1bd
000001f0: 96ac 60bd d0a3 3d3d 6eeb 283b ba5a 8f3d

layers.6.running_var f4 [128]
0.19185819 0.40447408 0.567388 0.46061614 0.103527285 0.5407128 0.12168558 0.0659389
0.114554204 0.19002458 0.13348438 0.1963992 0.17055309 0.16277881 0.08050059 0.2795402
0.14497563 0.029467773 0.30878633 0.6091485 0.16983488 0.72473115 0.32684427 0.22912277
0.21521695 0.10237879 0.4925618 0.44725323 0.16249348 0.51848334 0.5240458 0.37875283
0.08317556 0.13223441 0.10361159 0.19250414 0.07503773 0.19638078 0.113309555 0.041694127
0.18614313 0.44828987 0.030899974 0.6491742 0.07412709 0.7064476 0.25154215 0.04405698
0.18291163 0.22375444 0.18686259 0.40579972 0.5449774 0.542891 0.045662083 0.23984745
0.11509888 0.07390528 0.10925254 0.39676246 0.16576998 0.22309561 0.21160142 0.14405264
0.6207998 0.09942647 0.27707765 0.67209464 0.55523974 0.5076677 0.27793512 0.50820506
0.343606 0.27000743 0.5641663 0.1706521 0.24615347 0.52007127 0.4769423 0.19399184
0.1858877 0.42536452 0.5392304 0.18589076 0.6547662 0.4831639 0.36091307 0.16845682
0.036690302 0.1868283 0.68258315 0.048950125 0.14371456 0.2193921 0.31135792 0.39007223
0.44855016 0.67095995 0.6286274 0.21944831 0.14136216 0.12508124 0.5866365 0.056664746
0.23859623 0.4405113 0.4332389 0.44945538 0.095485955 0.46387118 0.028069122 0.07770162
0.6379083 0.32229504 0.5061021 0.13850172 0.59346 0.36061376 0.47463548 0.27427292
0.16989808 0.50206476 0.38663903 0.25419232 0.38326114 0.2986626 0.044247556 0.11090949
00000000: 7976 443e 3a17 cf3e 5740 113f e1d5 eb3e
00000010: 1d06 d43d 276c 0a3f 4a36 f93d f90a 873d
00000020: 659b ea3d ce95 423e 21b0 083e df1c 493e
00000030: 78a5 2e3e 7daf 263e 7edd a43d e51f 8f3e
00000040: 7e74 143e 6666 f13c 3e19 9e3e 28f1 1b3f
00000050: 32e9 2d3e fb87 393f 2258 a73e 299f 6a3e
00000060: d561 5c3e f9ab d13d 0f31 fc3e 60fe e43e
00000070: b164 263e 53bb 043f de27 063f e4eb c13e
00000080: f357 aa3d 7568 073e 5032 d43d ce1f 453e
00000090: 62ad 993d 0b18 493e d70e e83d 76c7 2a3d
000000a0: 4e9c 3e3e 4086 e53e f121 fd3c 4830 263f
000000b0: f2cf 973d c0d9 343f 22ca 803e 1875 343d
000000c0: 304d 3b3e e21f 653e e858 3f3e fbc4 cf3e
000000d0: a483 0b3f e8fa 0a3f 2a08 3b3d 929a 753e
000000e0: f6b8 eb3d a75b 973d ccbf df3d 7324 cb3e
000000f0: 9bbf 293e 2d73 643e 0bae 583e 8982 133e
00000100: bcec 1e3f 1ba0 cb3d 1fdd 8d3e 650e 2c3f
00000110: 3124 0e3f 83f6 013f 834d 8e3e ba19 023f
00000120: 20ed af3e 6a3e 8a3e 346d 103f 6dbf 2e3e
00000130: a80f 7c3e 6423 053f c831 f43e cca5 463e
00000140: 5859 3e3e 61c9 d93e 010b 0a3f 265a 3e3e
00000150: c29e 273f 4261 f73e 99c9 b83e f27f 2c3e
00000160: 9248 163d eb4f 3f3e c5bd 2e3f ed7f 483d
00000170: e929 133e 53a8 603e 4e6a 9f3e 8cb7 c73e
00000180: 5ea8 e53e 08c4 2b3f baed 203f 0fb7 603e
00000190: 3ec1 103e 4c15 003e cf2d 163f 4b19 683d
000001a0: 9252 743e b28a e13e 7dd1 dd3e 041f e63e
000001b0: 248e c33d 8680 ed3e 37f1 e53c 0722 9f3d
000001c0: f54d 233f db03 a53e e88f 013f 65d3 0d3e
000001d0: ffec 173f 5ea2 b83e 6c03 f33e 806d 8c3e
000001e0: c3f9 2d3e 5187 003f 8df5 c53e 7f25 823e
000001f0: ce3a c43e 4eea 983e ed3c 353d 8424 e33d
