ddpg/model_params/twitter_ddpg_45_15_critic.pth (torch, 398794 bytes, 17 tensors)

state_input.weight f4 [128, 65]
000000 0c 07 f6 3b 72 68 55 bc ab be b5 3b 50 45 ab 39
       0.0075081643 -0.01302539 0.005546411 0.00032667303
000010 b7 1f 62 bb f2 24 1c bb 4f 23 db 3b 75 8a f9 bb
       -0.0034503767 -0.0023825732 0.0066875587 -0.0076153823
000020 14 84 99 bb d4 ac 93 3a 2f 72 d2 bb f2 5d 25 bc
       -0.0046849344 0.0011266717 -0.006422303 -0.010093199
000030 89 57 84 bc fb 92 4c 3c d0 7a 31 bc 8e de f3 bb
       -0.016155021 0.012486215 -0.010832503 -0.007442302
000040 0a 2b 8a 3c 1d 48 33 bc ca d3 2b bc 3b c2 b9 3c
       0.016866226 -0.010942486 -0.010487506 0.022675624
000050 6d fb a3 3b 2f 29 7b 3b 74 1b fa 3b c0 66 3f 3c
       0.0050043375 0.0038324108 0.007632667 0.011682212
000060 fb 90 3b 3c d1 bf 89 3a 15 79 5b bb 7b cd 25 3c
       0.01144814 0.0010509436 -0.0033488919 0.010119791
000070 b4 d6 fd ba 4b 61 1e 3c 5b 4c 3f bc 3e 88 71 3c
       -0.0019366355 0.009666751 -0.011675919 0.014741955
000080 90 7b 47 3c 55 ef 86 bc cb d0 32 3c ea b9 ba 3c
       0.012175456 -0.016471544 0.010914038 0.022793729
000090 ac 1e ed 3b 5f cf 0d 3c 4a a2 3f bc c9 69 94 3b
       0.0072363224 0.008655398 -0.011696408 0.004529212
0000a0 ea 72 b5 3a e9 06 3b 3c 8e 30 68 3b a1 bd a7 39
       0.0013843451 0.011415222 0.0035429331 0.00031994007
0000b0 87 20 19 bb 39 11 83 bb a0 7f 61 3b ab f7 cb bb
       -0.0023365335 -0.003999856 0.0034408346 -0.0062245927
0000c0 4a fa f9 bb c2 33 0d bc e4 35 d7 bb 40 b2 41 3c
       -0.0076287137 -0.008618297 -0.0065677036 0.011822283
0000d0 4d e7 9a 3b 6d 17 0d 3b 86 d3 f1 3b 97 a1 26 3c
       0.0047272802 0.0021528855 0.007379952 0.010170362
0000e0 7c 9d 8c bc 1d ad c6 3a f8 27 37 bc 5d ba c4 3b
       -0.017164938 0.0015157793 -0.011178963 0.0060036615
0000f0 94 0a ea 3b 79 e7 35 bb 0b 4c cb 3b 9d 88 29 bc
       0.0071423743 -0.0027756377 0.0062041334 -0.010347513
000100 f1 b8 9b 3a cc 6a 61 3b 24 75 3e bb 8e 15 83 bb
       0.0011880678 0.0034395931 -0.002906152 -0.0040003723
000110 46 af 7d 3b 77 d7 98 3b 58 7c 26 bc d2 02 92 3a
       0.0038709207 0.0046643573 -0.010161482 0.0011139757
000120 50 a9 8e 3b 2e a8 6a 3c f2 6a 74 3c f6 07 27 b9
       0.0043536797 0.014322324 0.014918076 -0.00015929327
000130 0c ff d0 3b a5 0b 55 3c 69 7d 89 3c c0 b6 de ba
       0.00637806 0.013003265 0.016783433 -0.001699172
000140 9b 3e d9 3a a1 4b f9 3b 0a 44 67 bc 05 e7 06 bb
       0.0016574444 0.0076078926 -0.014115343 -0.0020584476
000150 fb 3f 81 3b 37 d0 70 3b 40 1c 37 3c 62 d2 15 bc
       0.0039443946 0.00367452 0.011176169 -0.009144397
000160 58 da 23 3c 87 63 95 bb e4 ad 03 bc 6c 81 66 3c
       0.010000788 -0.0045589837 -0.008037064 0.0140689425
000170 67 e4 69 ba 0a 5e 82 3b 90 e2 c3 3a 7f 83 08 bc
       -0.0008922279 0.0039784955 0.001494484 -0.008332132
000180 c2 17 21 bb 01 60 7a b9 f3 02 c9 bb ea 0d fa 39
       -0.002458081 -0.00023877622 -0.006134385 0.00047694083
000190 15 28 71 bb 10 5e 67 bb 80 61 be 3c fd c4 54 bc
       -0.0036797572 -0.0035303868 0.023239851 -0.012986419
0001a0 74 2f 4c 3c 9b 46 18 bc d7 b5 cb 3a 5d be a2 3a
       0.012462486 -0.009294177 0.0015541863 0.0012416352
0001b0 cd 61 c9 3b 92 44 bf 3b e4 06 0e bc 58 05 34 3c
       0.006145692 0.0058370316 -0.008668635 0.010987602
0001c0 38 d2 f9 bc 8d ab 0e bc d4 8a 9c 3c c9 43 89 3a
       -0.030495748 -0.008707893 0.019109167 0.0010472472
0001d0 05 64 25 bc 70 85 9f bb 14 0b 06 bc 4e 94 a3 39
       -0.010094647 -0.004868202 -0.008181352 0.00031200278
0001e0 e4 7d 65 bb 94 c4 04 3c 0a 41 d4 3c 67 a7 a6 3b
       -0.0035017664 0.0081035085 0.02590992 0.005085874
0001f0 b7 cb 34 bb 4c bb f9 ba 55 3e 4f bc 0e 55 03 3c
       -0.0027587244 -0.0019053011 -0.012649138 0.008015884
000200 aa b9 36 3b 5a 87 93 bc 10 83 2a 3b 6a a7 a8 3c
       0.002788166 -0.018008877 0.002601806 0.020587642
000210 46 e9 c1 bb 26 a2 e1 3b 12 85 81 3b 59 7f cf 3c
       -0.005917701 0.0068857847 0.003952631 0.025329279
000220 93 14 f9 3b 9d 9c 0a ba 74 0a 31 3b c6 7e d6 bc
       0.0076013296 -0.00052876194 0.0027014287 -0.026183497
000230 ca e5 db bb 3b 5f c9 3b e1 32 3a bc dc b3 4d bc
       -0.0067107426 0.0061453856 -0.01136467 -0.012555089
000240 92 d1 d4 3c 58 f2 6e 3c 06 ed 3a 3b 46 77 a4 3b
       0.025978837 0.014584146 0.0028522625 0.0050191013
000250 b5 3d 91 ba f3 d2 91 3c 74 50 6e bc a6 01 14 bb
       -0.0011081012 0.017800784 -0.014545549 -0.002258399
000260 20 76 4a bb c5 84 ba 3a d3 80 7a 3c 10 8b 2f 3c
       -0.0030893162 0.0014230242 0.015289503 0.010714307
000270 e0 ea 9b bb ce e5 40 3c ae 3d f6 bb fb 5c 98 b9
       -0.004758224 0.01177354 -0.007514677 -0.00029060975
000280 1d 9c fc bb 8a 3a 3d 3a 1c e1 38 bc 8a f6 20 bc
       -0.00770904 0.0007218501 -0.011284139 -0.0098244045
000290 13 27 4c bb 29 12 a6 3b 82 21 f0 bb 52 f2 42 3c
       -0.003115122 0.005068083 -0.007328213 0.011898594
0002a0 2f 90 94 3c e6 c2 92 bc dc 5b 33 bc 55 de 7d bb
       0.018135158 -0.0179152 -0.010947194 -0.0038737257
0002b0 b4 46 88 38 d8 82 63 bc f2 e9 13 3c 54 c5 f8 ba
       6.498155e-05 -0.013886176 0.009027945 -0.0018979707
0002c0 b7 6f 21 bc 90 cb a3 3c d0 e6 8e 3c 9e 7d 56 bc
       -0.009853295 0.019994527 0.017444044 -0.013091473
0002d0 4e d6 40 3b 05 3a 2f bc 07 7a 52 bc 47 c3 a4 3c
       0.002942461 -0.010694985 -0.012846476 0.020112647
0002e0 4a 1e 75 3b 2e 01 ec 3b 4e 33 55 3b 12 88 62 bc
       0.0037402087 0.007202289 0.00325318 -0.013826387
0002f0 cd 2f bb bc c0 a0 62 bc e6 e7 0e 3c dc cf 11 bc
       -0.022849942 -0.013832271 0.008722281 -0.008899655
000300 92 0b 90 bc 5d 6f f8 3b c7 20 73 ba 21 74 e1 bb
       -0.017583642 0.007581635 -0.00092745986 -0.0068802987
000310 27 05 d2 3b 00 52 5c 3b 0e 78 f5 bb d0 54 38 3c
       0.0064093056 0.0033618212 -0.0074911183 0.01125069
000320 9b 8f 2f bc 35 3a 36 bc 4f 1f 74 bc f0 72 dc bb
       -0.010715391 -0.011122276 -0.014900043 -0.006727569
000330 f7 23 c2 bb 07 83 05 bc f3 67 76 3c e4 b9 9b 3c
       -0.0059246975 -0.008148915 0.015039432 0.019009538
000340 c7 94 39 3c d3 30 7d ba ab 0c 7b bb db 5b de bb
       0.011326975 -0.00096584595 -0.0038307111 -0.0067858524
000350 b6 b7 1d 3b 4f 9d 47 3c b0 89 1e 3b e7 e1 62 bc
       0.00240658 0.012183501 0.0024190955 -0.013847805
000360 e6 f1 8c bb f3 68 6b ba d9 ef ce 3b c7 73 27 bc
       -0.0043012975 -0.0008980177 0.006315213 -0.010220475
000370 54 fb 56 3c c0 2b 41 ba 3d 16 36 3b 28 24 20 3c
       0.013121445 -0.0007368885 0.002778425 0.009774245
000380 8f 44 5d bc c4 ce 24 bb 29 fd 19 3c e0 ac a8 ba
       -0.013505115 -0.0025147656 0.009398737 -0.0012868904
000390 c1 e7 24 3a 2f 71 39 ba cb 1b 2c 3c ca aa 04 b9
       0.00062906375 -0.00070740556 0.010504673 -0.00012652125
0003a0 7e eb c6 3b d9 91 94 bb 72 ba 37 ba b0 a6 2a 3c
       0.0060705533 -0.004533988 -0.00070086785 0.010415718
0003b0 ec 12 a0 bb 7e 2c ed bb bd 39 8d 3c 80 cb cb bb
       -0.004885068 -0.00723797 0.017239446 -0.0062193274
0003c0 5c b1 f3 3b be 93 a9 bb a2 28 c8 ba 81 97 eb 3b
       0.0074369144 -0.005175083 -0.0015270899 0.0071896915
0003d0 1f 38 87 3b 98 5c 1d bc 46 0f 83 3b 10 5c 61 bc
       0.004126563 -0.009604596 0.0039996235 -0.01375486
0003e0 56 32 81 3b 04 1a 24 3b d7 83 63 bc 7d 26 07 3c
       0.003942768 0.002503992 -0.013886414 0.008248922
0003f0 ee 0a 25 b9 69 27 75 3b ce b5 54 bc ef 14 6d 3c
       -0.00015739698 0.0037407523 -0.012982799 0.014470323

state_input.bias f4 [128]
000000 ac a4 0d bd f4 05 8d bc 58 58 6a bc 06 56 73 3d
       -0.03458087 -0.017214753 -0.014303289 0.05940821
000010 8a 38 77 bd 1a 84 48 3d ce 53 47 3d 18 70 84 3c
       -0.060356654 0.048954107 0.048663907 0.016166732
000020 57 1a 7f bd fa da b9 bd ba 75 79 bd a3 00 65 bd
       -0.06228098 -0.090749696 -0.06090329 -0.05590881
000030 02 95 11 3d 96 07 19 3d f8 a2 b6 3c f0 0e 5f bd
       0.035542496 0.03736075 0.022294506 -0.054457605
000040 0d 1a b6 bd 40 cd 59 bb bb 62 8e bd 22 18 73 3d
       -0.088916875 -0.003323391 -0.06952425 0.059349187
000050 28 18 72 3c f4 c5 9e bc 23 59 40 bd 70 94 50 bd
       0.014776267 -0.0193815 -0.046960007 -0.05092281
000060 80 10 4a 3c 04 96 f7 3c 36 96 26 3d d8 19 88 bd
       0.0123330355 0.0302229 0.040670596 -0.06645554
000070 d8 7d ee bc 67 78 9e 3d 30 e2 64 3c 28 ef 62 bc
       -0.029112741 0.07737809 0.013969943 -0.013850965
000080 37 84 c9 3d ed b4 99 3d 1a 7f 09 3d de be a1 bd
       0.09839671 0.07505212 0.03356848 -0.07897733
000090 2e f7 73 3d 28 af 75 3c 82 c3 b9 bd 87 13 c2 3d
       0.0595619 0.014995374 -0.09070493 0.09476381
0000a0 b0 44 28 3c 54 92 8e 3c 52 58 4f 3d b4 ce ea bc
       0.010270283 0.017403759 0.05062134 -0.028663017
0000b0 c6 ca 87 bd 83 b8 96 3d b0 46 5d bc d8 6f 5a bc
       -0.06630473 0.073594116 -0.013505623 -0.01333233
0000c0 06 24 05 bd 2c 89 b6 3c 32 9d a6 bd 2a 7f 13 bd
       -0.032505058 0.022282206 -0.081354514 -0.036009945
0000d0 1a 44 7b bd 30 de 0f 3c 68 6c a8 bc 20 4d a4 bd
       -0.061344244 0.008781001 -0.020559505 -0.08022523
0000e0 49 a4 c0 3d aa 05 21 3d ac ab a8 bc 7b 6a ac 3d
       0.09406335 0.039312042 -0.020589672 0.08418747
0000f0 e3 26 b8 bd 51 21 9a 3d 7a 1e 93 bd 94 6e d9 bc
       -0.08991792 0.07525886 -0.07183547 -0.026541986
000100 49 81 a8 3d 26 58 ab bd 2e 4c 7f 3d d9 99 a7 3d
       0.08227784 -0.08366422 0.06232851 0.08183641
000110 fd 5e ab bd 56 32 25 3d d2 a9 54 3d 09 b2 af 3d
       -0.08367727 0.040331207 0.051919766 0.085788794
000120 bd 58 b6 bd 1d b6 54 bd 34 28 81 bc ef 3b 98 3d
       -0.08903644 -0.05193149 -0.01576624 0.074333064
000130 dd e5 5a bd 44 93 e2 3c e0 9a 8a 3b 35 22 87 bd
       -0.05344187 0.027658112 0.0042298883 -0.06598321
000140 fa 8f 36 3d 35 f4 99 bd 90 06 69 bd ba 91 7f 3d
       0.0445709 -0.07517282 -0.056891024 0.062394835
000150 59 f2 c8 3d 10 00 26 bc 00 b4 8a 38 e6 1d 30 3d
       0.09811849 -0.010131851 6.6138804e-05 0.042997263
000160 70 0f 06 bd f2 52 86 bd 50 80 ba bd a0 fb 8f bc
       -0.032729566 -0.06558789 -0.09106505 -0.017576039
000170 30 95 12 bd 48 74 b0 3c 14 99 80 3c ec 12 bb 3c
       -0.035786808 0.021539822 0.015697993 0.022836171
000180 d8 52 18 bc e6 7e 42 3d b8 51 9f bc b5 7f 97 bd
       -0.009297095 0.0474843 -0.019448146 -0.07397405
000190 fa 1f 67 bd 9a 18 38 3d 3d 8c 28 bd 48 3f a2 3c
       -0.05642698 0.044945337 -0.041149367 0.019805565
0001a0 2a 10 bc bd 7a ab 15 3d f0 9c 15 3c 20 00 e2 bb
       -0.091827706 0.036540486 0.009131655 -0.0068969876
0001b0 8d 0c 86 bd e6 a0 38 3d 23 a5 22 bd 9f c5 c5 bd
       -0.065453626 0.04507532 -0.039708268 -0.09656834
0001c0 ca 3f 37 bd 66 d6 71 3d 9c e4 f5 3c 39 41 84 3d
       -0.04473857 0.059042357 0.030016236 0.06457753
0001d0 38 d0 94 3c 38 22 b9 bc 28 30 87 bd 2a 16 81 bd
       0.018165693 -0.022599325 -0.06600982 -0.063030556
0001e0 2a 98 67 3d 00 fb 17 bd 2c 7b 0c bd ca cf 12 3d
       0.0565416 -0.037104607 -0.034297153 0.035842694
0001f0 a7 8c 5b bd 5a ad 2a 3d e5 ce b9 bd 92 6b 35 3d
       -0.053600933 0.041669227 -0.09072665 0.04429204

action_input.weight f4 [128, 45]
000000 09 5e 30 3b 14 ae 03 3c c2 97 32 3c 13 d3 7d 3c
       0.0026911518 0.008037109 0.01090044 0.015492219
000010 6f 03 af bc fe b9 ad 3c 9e 93 49 3c 27 75 9d bc
       -0.021363942 0.021206852 0.012303261 -0.019220902
000020 49 f1 a2 3c d4 06 2e b9 f2 b7 43 bc 35 81 a1 3b
       0.019890444 -0.00016596477 -0.011945711 0.0049287328
000030 68 f8 8a 3b ae 41 44 3c cb a6 e3 3b 30 1b 6a bb
       0.004241038 0.01197855 0.0069473735 -0.0035721771
000040 13 9f 82 b9 10 b9 26 bc 26 f5 d0 3b 7e 12 43 3b
       -0.00024914052 -0.010175958 0.00637688 0.002976566
000050 b4 b3 ad bb 5b 2b 4f 3c 30 94 23 bc db 53 c0 ba
       -0.0053009633 0.012644614 -0.009984061 -0.0014673428
000060 59 06 1d bc 89 cc 92 bb d2 b4 85 39 4a 17 26 3c
       -0.009584033 -0.004479949 0.00025502458 0.0101373885
000070 fd 16 84 3c b7 8b 6a bc d6 39 10 bc 90 7b 37 3c
       0.016124243 -0.014315537 -0.008802852 0.011198893
000080 d4 6c d1 3c 4e 01 b6 bc a6 dc 5b 3c 91 70 1f bb
       0.025564589 -0.022217419 0.013419306 -0.002432857
000090 9e dc a5 bb 5e 0b 71 ba f0 97 1a 3c b2 ec 96 ba
       -0.0050617 -0.0009195114 0.009435639 -0.0011514632
0000a0 17 16 da 3c 87 20 f7 39 c6 36 d6 bc af 8c 93 bb
       0.026621861 0.00047135746 -0.026149165 -0.004502855
0000b0 5d b8 00 ba c2 b9 6f bc ab f2 29 3b f3 9c 12 3b
       -0.0004910285 -0.01463169 0.0025931995 0.002237138
0000c0 fa 93 93 3c 90 51 9a bc 20 6b 0a 3c f7 b4 d4 bb
       0.018014897 -0.01883772 0.008448392 -0.0064912993
0000d0 00 7d e6 3b af b8 df 3b 4b 6a 34 3c 6c 9c 52 3b
       0.007033944 0.006827436 0.01101167 0.0032136692
0000e0 a2 08 73 3c 53 d6 ac bc c2 5b 99 bb 21 95 c5 3b
       0.014833601 -0.021098292 -0.004680128 0.0060297404
0000f0 4d b0 ca 3b a3 bf 0e bc 69 8d 02 3c c4 94 b4 3b
       0.0061855675 -0.008712682 0.007968285 0.0055108983
000100 00 67 9d bc de dd 71 3b 47 3e 15 bc 0d 73 41 bc
       -0.019214153 0.0036905925 -0.009109086 -0.011807215
000110 54 a1 86 38 8f 69 33 bc 65 f4 83 3c 12 c2 0d bc
       6.4196676e-05 -0.01095046 0.016107747 -0.008652227
000120 fe 01 6f 3c d5 27 ff 3b 22 2c a2 bb c4 38 84 3b
       0.014587877 0.007786731 -0.0049491087 0.0040350873
000130 10 e6 32 bb 55 5c bc 3a 2a 75 e0 3b 1b d2 53 bc
       -0.0027297772 0.0014370779 0.0068499045 -0.012928511
000140 5d ec 03 3b 97 e1 ce 3b d9 f4 bc bb 24 c4 da bb
       0.0020129897 0.0063135135 -0.005766493 -0.006676214
000150 b9 a2 31 bc 39 fe 0e 3c cb c7 2c bc c2 00 02 bc
       -0.010842019 0.008727604 -0.010545681 -0.007934751
000160 ef 52 71 3b 44 81 38 bb c4 13 bd 3c 1a 9e 81 bc
       0.0036823114 -0.002815322 0.023080714 -0.015822459
000170 e5 15 3d bb a5 b7 b0 bc 29 36 14 bc b8 d4 b0 3c
       -0.0028852161 -0.021571944 -0.009046116 0.021585807
000180 d4 ba 3e 3c db 34 bf bb f9 8e 49 3b 35 ba be 3a
       0.011641223 -0.0058351583 0.0030755384 0.0014551344
000190 99 01 c7 3b fd e4 29 bc 05 c1 bf bb ba 90 87 3b
       0.0060731885 -0.0103695365 -0.005851867 0.004137126
0001a0 4d 58 83 b8 b7 de b5 bb 97 e7 16 3c 18 44 73 bc
       -6.263014e-05 -0.0055502313 0.009210489 -0.014847778
0001b0 64 11 e1 3b 92 bd b7 3b 78 5f b6 3a d3 12 56 bc
       0.006868528 0.0056073153 0.001391395 -0.0130660115
0001c0 db 74 bb 3b 34 ec 4a 3c 72 a0 6f 3b 32 04 12 bb
       0.0057207174 0.012385417 0.0036564139 -0.0022280333
0001d0 26 e7 07 3c 18 9f 37 3c 45 84 e4 bb 82 64 79 bb
       0.008294856 0.0112073645 -0.0069737756 -0.0038054292
0001e0 60 f4 6b bc cf ae 00 bc e9 b0 25 3c db ca 41 3c
       -0.014401525 -0.007854178 0.010112979 0.01182815
0001f0 1e ba c7 ba e0 0c e0 bb 82 e1 b6 3b a9 eb f6 bb
       -0.0015237962 -0.0068374723 0.005581082 -0.007535417
000200 8b 10 60 bb f6 4f 17 3c 69 d1 03 bb f5 11 ed bb
       -0.0034189548 0.009235373 -0.0020113832 -0.0072348067
000210 a7 72 0d bc a0 ba 09 3c a0 88 9e 3c 80 23 16 bb
       -0.008633292 0.008406311 0.019352257 -0.0022909343
000220 e9 fa 15 ba d0 1b 8a 3c ac bf 1f bc 09 8f d5 3b
       -0.00057212875 0.016858965 -0.009750288 0.0065172953
000230 2a b9 9b 3c c6 4e c6 3b 21 17 8b ba 51 bf 84 3b
       0.019009192 0.006051871 -0.0010611751 0.004051127
000240 47 33 8f 39 a0 eb 0e bb 3d 91 20 3c cd 60 cb bb
       0.0002731329 -0.0021807924 0.0098002525 -0.006206608
000250 e6 27 14 3c 82 53 6f bc ce e8 ce bb 90 b6 2d 3c
       0.009042716 -0.014607312 -0.0063143736 0.010602608
000260 29 5a 89 3c 16 73 8f bb eb ed be bb 5c 3f 15 bb
       0.016766625 -0.004377733 -0.005826702 -0.002277336
000270 ea ca 06 3b 46 bb 7e 3a ad c0 1e bc 92 ac 0b 3a
       0.0020567724 0.0009717237 -0.009689492 0.0005328144
000280 b9 06 66 bb 99 6c 30 bb 84 f2 86 bc 90 3e 3e 3b
       -0.0035099222 -0.0026920198 -0.016473062 0.002902899
000290 86 af 55 bc 26 cd 9f bb e4 03 38 3c 1d 44 91 bc
       -0.013042336 -0.0048767505 0.011231396 -0.017732674
0002a0 07 81 7a b9 69 b9 e3 3b 35 d7 68 3b 9c 6c 99 bb
       -0.00023889924 0.006949593 0.0035528664 -0.0046821367
0002b0 e8 20 1a 3c d5 14 6a 3c 14 d2 58 3c c6 54 a2 3b
       0.0094072595 0.014287193 0.01323368 0.0049539534
0002c0 6b a4 a0 3c ce 4f 74 3b 8b d8 82 3b d1 69 18 3c
       0.01960965 0.0037279013 0.003993099 0.009302572
0002d0 54 ed dd 3b 39 15 bb 3b 4f 9c ee 3b 3d 7e 80 3b
       0.0067726765 0.005709317 0.007281817 0.003921299
0002e0 6f 9d 13 bc 56 92 80 bc 2b 54 cf 3b f7 c3 00 bc
       -0.009009703 -0.015694778 0.0063271723 -0.007859222
0002f0 aa 70 2d 3a 12 08 a3 bc 12 25 8b ba c2 53 ee 3b
       0.00066162145 -0.01990131 -0.0010615906 0.0072731683
000300 c9 b8 15 ba a0 e9 fa 3b 69 71 56 3b 1d 87 2f bc
       -0.0005711434 0.007657245 0.0032721406 -0.010713366
000310 25 9b 6e bc e6 cd 1f bc 4c 10 f2 3b f3 f4 35 3c
       -0.0145633565 -0.00975368 0.0073871966 0.011105764
000320 75 0b db bb 02 c0 a6 3c 97 d3 3f bc 06 fc 76 3b
       -0.0066847154 0.020355228 -0.011708162 0.0037686839
000330 8a b8 bd 3b ea ec 48 3c 19 4d b0 3a a2 57 cb 3b
       0.005789821 0.012263516 0.0013450711 0.006205515
000340 c0 b5 5b bc ea 0d d8 3c b0 4a 75 bb a5 bc c7 bb
       -0.013410032 0.026373822 -0.003742855 -0.006095486
000350 fd 06 de 3b 9e 7a 58 3b 45 7a ab 3b 26 f9 4c bb
       0.0067757354 0.003303207 0.0052330815 -0.0031276434
000360 fb 8d 31 3c 84 ca 30 3c d4 48 20 bb 78 e8 49 3b
       0.010837073 0.010790471 -0.0024457471 0.0030808728
000370 dd 3f 45 3b 26 9b b7 3b 17 87 0d bc fc 44 b6 3b
       0.003009788 0.005603212 -0.008638165 0.005562423
000380 10 45 bb b9 7d a1 2a bc bc f5 e9 bc dd 57 8e 3c
       -0.00035718875 -0.010414478 -0.028559558 0.01737588
000390 07 d1 ae 3b 73 ab bc b8 05 8c 58 3c 4e 27 4f ba
       0.0053349766 -8.9964735e-05 0.013216977 -0.000790228
0003a0 10 4b 22 3c 9d af ee 3b d3 c6 f7 3b 27 df 2b 3c
       0.009905592 0.0072841183 0.0075615435 0.010490215
0003b0 53 b1 b9 3a a3 1a 07 bc ec 7f dd bb b8 d3 3e 3c
       0.0014167227 -0.008246097 -0.0067596342 0.011647157
0003c0 b7 7a 09 bc a0 af 87 3c ac 59 5b 39 cc a8 5c bc
       -0.008391074 0.016563237 0.00020918873 -0.013467979
0003d0 ba eb 86 bc 9e fe 28 3c 6f 29 52 bc 50 3a ec bb
       -0.016469825 0.010314612 -0.012827261 -0.0072091
0003e0 d4 51 66 3b f4 0a 4d 3b e1 23 c5 bb f0 bf 62 bc
       0.0035143988 0.0031287046 -0.00601624 -0.013839707
0003f0 e0 f4 f4 3b 33 8f fa ba b4 b1 c6 bb 6a f2 99 3b
       0.0074754804 -0.0019116163 -0.0060636643 0.0046980875

action_input.bias f4 [128]
000000 01 d6 94 3d 28 73 a9 bc ae 90 99 bd a8 c6 42 3c
       0.072673805 -0.020684794 -0.074982986 0.011888184
000010 40 6f 7e bb 5f f4 b6 bd 62 7d 83 bd 0a 5a 02 3d
       -0.0038823634 -0.08933329 -0.06420399 0.03182415
000020 22 d7 67 3d b2 e9 19 3d a0 93 bb 3c 83 b5 39 bd
       0.05660165 0.037576385 0.022897542 -0.04533912
000030 ee fe 10 3d 6c 8d 8b 3c 27 b5 43 bd dc fd fc 3c
       0.03539937 0.017035209 -0.047780182 0.030882768
000040 50 7b 91 3b 42 77 60 3d 42 4d 3e 3d c0 df 43 bb
       0.004439749 0.054801233 0.046460398 -0.0029888004
000050 a0 61 5f bb 4d 45 23 bd 45 12 bf bd 9a 4f 36 3d
       -0.0034085289 -0.039861012 -0.093296565 0.044509508
000060 6b 43 ca 3d 14 5c 91 bc 82 0a b7 bd 40 3f e7 3a
       0.0987614 -0.017744102 -0.08937551 0.0017642751
000070 8e df 5f 3d 33 6a aa 3d 49 f0 8b 3d 90 b7 4f 3c
       0.054656558 0.08321037 0.0683294 0.012678042
000080 9e 0d 57 3d ca 83 11 bd 22 2b 45 3d 80 a3 50 3c
       0.05250322 -0.035526074 0.048136838 0.012734294
000090 45 38 94 bd 70 7a 07 bc ca 77 0d 3d 62 0b 1f 3d
       -0.07237295 -0.0082689375 0.034538068 0.038829215
0000a0 21 0c b4 3d 63 35 c8 3d 06 4d 5f 3d 28 d2 19 3c
       0.08791376 0.09775808 0.054516815 0.009388484
0000b0 8a 9a 0c 3d e0 e6 8b bd 2a af 7b bd 19 35 b5 3d
       0.034327067 -0.06831145 -0.061446346 0.08848018
0000c0 c0 67 e1 bc b0 22 1a 3c d3 0b 5f bd 23 72 94 bd
       -0.027515292 0.009407684 -0.054454636 -0.07248332
0000d0 e6 87 9f bd 60 df cb bc 02 62 42 3d 8c c9 8a 3c
       -0.077895924 -0.024886787 0.04745675 0.016941808
0000e0 35 4b 89 3d fd 10 9f 3d 36 d5 14 bd 90 67 56 bd
       0.06703798 0.07766912 -0.036336146 -0.05234486
0000f0 13 ae 24 bd d8 85 6b 3c d0 bc d3 3b 85 7b bb 3d
       -0.040205073 0.014375173 0.006461717 0.09154419
000100 a4 40 16 bd 48 f0 b7 bd 82 5e af bd 0e 88 82 bd
       -0.03668274 -0.08981377 -0.08562948 -0.063736066
000110 a2 f4 5d 3d 53 03 7e bd 00 00 54 b8 09 62 b8 3d
       0.05418838 -0.06201489 -5.054474e-05 0.09003074
000120 a0 33 50 bd b7 05 cc 3d aa 8a 62 3d 97 b8 c1 bd
       -0.050830483 0.099620275 0.05530802 -0.09459036
000130 68 f1 9e 3c 40 eb 30 3b 11 33 bd 3d 4e 5f 2d 3d
       0.01940222 0.0026995689 0.09238256 0.042327218
000140 40 07 e5 3a 80 ee 84 3c 04 7f d1 3c 60 1a bc 3c
       0.0017473474 0.016227007 0.025573261 0.022961795
000150 79 2a 8e 3d 25 8d c2 bd 00 0e 1d 3b 18 f6 b1 bc
       0.06941695 -0.094995774 0.0023964643 -0.021723792
000160 41 17 97 3d 20 1a 2c bd 1a 76 ad bd fa 74 65 bd
       0.07377482 -0.042017102 -0.08469792 -0.05601976
000170 59 43 be 3d 27 6c bf 3d 42 49 30 3d 80 68 aa 3b
       0.09290189 0.093468 0.043038614 0.0052004457
000180 37 12 a4 3d 50 9b f5 3b cd ea ba bd 46 22 a7 bd
       0.08011287 0.0074953213 -0.09126816 -0.08160834
000190 3a 36 02 bd 92 6d 7a 3d 5e 91 1a 3d 45 2a 98 bd
       -0.031789996 0.06113965 0.03773629 -0.07429937
0001a0 b7 b2 ba bd 2a 3d 06 bd e2 e2 3a 3d 65 79 8c 3d
       -0.091161184 -0.032773174 0.04562653 0.06859092
0001b0 c4 89 d9 3c d7 31 33 bd 1b 60 92 3d 69 f8 ba 3d
       0.02655495 -0.043748703 0.07147237 0.09129412
0001c0 49 24 94 3d 80 51 14 bd fa a4 5f 3d d4 6b 11 bd
       0.07233483 -0.036210537 0.054600693 -0.035503224
0001d0 d1 75 86 3d 1e b9 76 3d 68 2c 84 3c 6a b3 44 3d
       0.065654404 0.060235135 0.016134456 0.048022665
0001e0 65 f0 b3 3d fb 8f 9e bd 06 2e 91 bd c8 fa b9 bd
       0.08786086 -0.07742306 -0.070888564 -0.09081036
0001f0 ac 0b 93 bc 4a 73 00 3d ba 60 af bd 92 96 1e 3d
       -0.017949902 0.03135995 -0.08563371 0.038717814

layers.0.weight f4 [256, 256]
000000 4a c8 5e ba a2 ef ad 3b b6 ac 9a 3c 4b fe 0c 3a
       -0.00084984733 0.0053081075 0.018881183 0.0005378469
000010 74 8c 5b 3b 95 62 60 ba de 76 58 bc 89 9d c9 bb
       0.0033500465 -0.0008559612 -0.013211934 -0.006152813
000020 14 45 82 3b 25 de 59 3c 04 3a a7 3c 7b 6e 2d bb
       0.00397552 0.013297592 0.020413406 -0.0026463557
000030 3d 31 e2 3b 04 cd 2c ba 78 7b 8f bb e5 d4 02 bc
       0.0069028423 -0.0006591829 -0.0043787323 -0.007985328
000040 ea dc 2d 3c b3 0b 66 3a 40 68 75 bc d3 d9 cf bc
       0.010611752 0.0008775547 -0.014978468 -0.025372421
000050 d0 99 48 3c fb 99 61 3b 41 15 86 3c 1e 01 b8 bb
       0.012243703 0.0034424055 0.016367557 -0.0056153676
000060 e5 81 72 bc 3b d2 a2 3a fc 90 5d b9 0e 77 86 bc
       -0.014801477 0.0012422273 -0.00021130213 -0.016414192
000070 94 86 e0 ba c2 74 5d bc ae 12 88 3c 5c fc 84 bc
       -0.0017129951 -0.013516607 0.01661047 -0.016233616
000080 53 52 32 bc 1d 05 3d 3a f2 2a 78 bb 8b 21 bf bb
       -0.010883885 0.000721054 -0.0037867394 -0.005832856
000090 0a 31 5e bc 92 78 a5 bc 45 61 74 3c 39 80 df bb
       -0.0135614965 -0.020199094 0.014915769 -0.0068207053
0000a0 1c 76 2b bc e6 7f 42 bc de 97 63 ba d6 04 04 bc
       -0.010465171 -0.011871314 -0.0008681993 -0.008057794
0000b0 d4 58 00 bc dd cd 7a 3c 7d 46 85 bc 64 08 32 3c
       -0.007833678 0.015307871 -0.016268963 0.010866258
0000c0 90 ff 31 ba 92 ce 01 3c 35 31 94 3b 42 bc c2 bb
       -0.0006790096 0.007922785 0.0045224675 -0.0059428522
0000d0 bf cb 11 bc ca 9c ea 39 29 b3 59 bc 13 a6 5a bb
       -0.0088986745 0.00044748775 -0.013287344 -0.0033363148
0000e0 17 af fb ba 9e 75 2c 3c a9 d0 92 bb 50 33 77 bc
       -0.0019201961 0.010526089 -0.0044804406 -0.015087917
0000f0 44 80 b4 bb d9 1b 6b 3b 3f 38 19 bc d3 c2 f8 3b
       -0.0055084545 0.0035874753 -0.009351789 0.007591584
000100 76 00 a2 3b e4 2a d3 bb 42 8e 1d bc 3b fd b9 3b
       0.0049439026 -0.006444322 -0.009616436 0.0056759394
000110 25 5c 25 bc 4f 3b 56 3a 37 27 47 bc 30 04 f4 39
       -0.01009277 0.000817229 -0.012155346 0.00046542427
000120 0f 4b 5e bc be 57 99 bc 25 42 c0 bc ce f2 03 3a
       -0.0135677 -0.018718597 -0.02346904 0.0005033434
000130 a5 3f 23 bc cb c6 84 bb bd 60 3b 3c 14 12 75 3b
       -0.0099639045 -0.0040520183 0.011436638 0.0037394809
000140 3f 6f 04 bb 85 1b 83 3c 00 d8 1b 3c 2b 40 2e bc
       -0.002020791 0.016004333 0.009511948 -0.010635416
000150 58 ad a6 3b 3a cf 1f bb 47 a3 b8 3b 52 b9 a3 b9
       0.005086582 -0.0024384991 0.0056346986 -0.00031227857
000160 1e 61 15 bc a8 7d 82 ba 1e 79 52 bc 8a 0d 76 bb
       -0.009117393 -0.0009955661 -0.012846259 -0.003754469
000170 89 6e 24 bb e1 01 60 ba f8 90 ec 3b cf f9 eb bb
       -0.0025090298 -0.0008545202 0.00721943 -0.0072014104
000180 a7 70 49 bc 05 31 96 3b 90 6e 85 bb 89 c7 81 3c
       -0.012294925 0.0045834803 -0.004072018 0.015842216
000190 37 b1 2c 3c 83 ec 0e bc 2d 27 cb 3b f4 76 03 3c
       0.010540298 -0.008723381 0.0061997385 0.008023966
0001a0 bb 37 fe ba 1d 7a 0b 3b 66 6a 41 3a 4b bd 53 ba
       -0.0019395271 0.0021282502 0.00073782203 -0.0008077218
0001b0 bb ef 26 bc 97 b9 5e 39 c1 d9 dd 3b af f8 df bb
       -0.010188992 0.00021240707 0.006770343 -0.0068350653
0001c0 d9 13 0a bb 5a 27 23 3c a6 86 6d ba 1b 90 4e 3b
       -0.002106896 0.009958113 -0.00090608967 0.0031519
0001d0 59 4d 64 3c 6f f3 a5 bb f4 1f 18 3a 8a 0b a4 3c
       0.013934457 -0.00506442 0.0005803101 0.020025034
0001e0 b3 f0 20 3c 73 7c e1 3b d6 0f 8e bc d7 2f 19 3c
       0.009823012 0.0068812906 -0.017341536 0.009349785
0001f0 09 00 30 3c 35 c8 3b bb d7 96 18 39 4a 75 cf bc
       0.010742196 -0.0028653268 0.00014552042 -0.025324482
000200 2e d0 a9 3b ba 17 86 3b 66 dc 8f 3c 2a 28 fa ba
       0.0051822877 0.004092184 0.017561149 -0.0019085456
000210 26 9e 9a bc 61 8f e4 bb 01 17 1a 3c ae 0c 5d 3b
       -0.01887424 -0.0069751 0.009404899 0.0033729482
000220 06 c1 58 3b aa a1 5a bb ee 47 49 bb 20 d3 4c bb
       0.0033074035 -0.003336052 -0.003071304 -0.003125377
000230 5b d6 00 bb 72 fc 61 3c f3 81 f7 3b cf 61 9a 3b
       -0.0019659016 0.013793098 0.007553333 0.0047113667
000240 db fd ab 3b 90 a7 a0 3b c0 94 84 3c 00 10 ac bb
       0.005248768 0.0049027875 0.01618421 -0.005250931
000250 d0 46 0e bc 2a 73 df 3b 82 30 88 bb b9 b1 6b 3b
       -0.008683875 0.0068191485 -0.004156173 0.0035964085
000260 fc 9c 43 ba 99 ab 7e 3a 21 0b 2d bb f2 bf 0f bc
       -0.0007462052 0.0009714901 -0.0026404338 -0.008773791
000270 36 3f 16 ba f5 50 35 3c fb 3f e6 bb d8 1c 3f 3c
       -0.0005731465 0.011066665 -0.00702667 0.011664592
000280 53 f8 d5 3b be 03 53 3c 9e 59 bd bc b4 1c 24 bc
       0.0065298467 0.01287931 -0.023114022 -0.010016609
000290 e6 4d 0f 3c e7 c1 cc bb db f5 a0 bb 17 1c b7 bb
       0.0087466 -0.006248701 -0.0049121208 -0.0055880654
0002a0 c5 32 35 bc b2 f7 a0 ba 29 60 c7 ba b3 5a 6a 3b
       -0.011059468 -0.001228085 -0.0015211153 0.0035759627
0002b0 e3 fe 71 bc 99 a9 79 bc cd 7a be bb 1c 26 ee ba
       -0.014770242 -0.015238189 -0.005812979 -0.0018169316
0002c0 bb 65 6c bb 7e 8d 40 3b 3e 80 0c 3c 15 70 a1 3b
       -0.0036071378 0.002938121 0.008575497 0.0049266913
0002d0 f4 85 18 ba ad ed 04 3a 85 87 28 3c b0 0a a6 3b
       -0.00058183004 0.0005070817 0.010286217 0.005067192
0002e0 4b d0 09 bc 8d bc ae 3b bc 36 8a 3b 79 a9 26 bc
       -0.008411477 0.0053325356 0.0042179506 -0.010172241
0002f0 12 bb d8 bb b4 4f eb 3b 12 4e 5e bc 17 50 77 bc
       -0.0066140974 0.007181132 -0.013568418 -0.0150947785
000300 5c 02 ef 39 3d b9 4c 3b 58 70 33 bc a2 d0 8b bc
       0.0004558739 0.003123834 -0.010952078 -0.017067257
000310 76 88 97 ba ca bc 7e 39 de b7 cd 3b 32 16 83 3a
       -0.0011561054 0.00024293657 0.006278022 0.0010001122
000320 65 04 ed bb 24 3a dd 3b 3e c8 ed bb f8 81 e0 3a
       -0.00723319 0.0067513157 -0.0072565367 0.0017128577
000330 66 fa 28 3a 86 e0 aa 3b 0e 6d 8e 3b 2a 7b 4b 3c
       0.00064460037 0.0052147536 0.0043464964 0.012419501
000340 ea a7 b7 bb 1c ad 38 3a d2 d3 82 3c 41 8b 51 3c
       -0.0056047337 0.0007044838 0.015970144 0.012789548
000350 a4 bd a4 ba 9e ff c3 ba 82 c0 82 bc 24 d2 97 3b
       -0.0012568724 -0.0014953499 -0.015960936 0.004633205
000360 86 ba 53 ba 53 b5 d5 bb 95 94 3e 3c c5 e9 93 3b
       -0.00080768054 -0.0065218597 0.011632104 0.0045139515
000370 de a3 a7 39 c4 57 8d ba 47 a0 7f 3c 02 dc 9d 3b
       0.00031974813 -0.0010783602 0.015602178 0.0048174867
000380 f7 3c 8e bb 89 63 81 bc bf 9f 05 bc e7 41 47 3c
       -0.0043407637 -0.015794532 -0.008155762 0.012161708
000390 81 b4 ca bc 2f 39 45 3c 93 a9 a9 3b 6f 18 f8 3a
       -0.024744274 0.012037559 0.0051776855 0.001892818
0003a0 bb 44 f0 bb 70 52 2b bc 1d 00 b0 bb f3 e6 a9 3b
       -0.007332412 -0.010456666 -0.0053711073 0.005185002
0003b0 18 2f 90 3c 26 59 ae bb be 30 13 bc 05 af 54 3a
       0.017600581 -0.005320686 -0.008983789 0.0008113238
0003c0 6c 54 f9 3b 8b 72 06 bc 00 41 ab 3b 85 43 20 3c
       0.007608941 -0.00820602 0.0052262545 0.009781723
0003d0 33 98 62 3b bb 19 b8 bb 46 11 ba ba c2 55 71 3b
       0.003457558 -0.0056183017 -0.0014195822 0.0036824797
0003e0 22 97 8d 3b 72 19 00 3c e2 d5 eb 3b 87 71 94 bb
       0.004320995 0.007818567 0.0071971277 -0.004530135
0003f0 92 23 7a 3c 12 fb 61 bc 20 e9 d2 bb 6e 13 ea 3b
       0.01526727 -0.01379277 -0.006436482 0.0071434295

layers.0.bias f4 [256]
000000 60 48 5d 3b 40 e1 7f bb 6e fd a5 bd c0 0a c8 ba
       0.0033765063 -0.0039044172 -0.081049785 -0.0015261993
000010 40 2b c8 bd d1 3e af 3d b1 0a a8 3d d8 60 ba bc
       -0.09773874 0.08556903 0.08205164 -0.022751257
000020 2e 54 10 3d 48 8c 99 bd 4c 08 f3 bc a0 57 05 bd
       0.03523653 -0.0749746 -0.029667042 -0.03255427
000030 87 43 7e bd 40 a4 00 bd b8 ad fe bc 7e 64 7c 3d
       -0.062076118 -0.03140664 -0.031088695 0.061619274
000040 40 2b b8 3c 89 bc a1 3d 60 b3 39 bb ae b0 66 3d
       0.02248156 0.07897288 -0.0028335676 0.05632084
000050 86 d7 8a bd 08 c8 8a 3c b8 bb 84 3c db 97 b7 3d
       -0.06779389 0.016941085 0.016202793 0.08964511
000060 ee 2b 6d 3d 66 7e a4 bd b0 dd 62 3c d0 6b 13 bc
       0.057903223 -0.08031921 0.0138468 -0.0089978725
000070 0c c6 e6 bc 12 92 a8 bd 88 b1 91 bc d5 2a bb 3d
       -0.028170608 -0.08230986 -0.017784849 0.09139029
000080 f3 c6 4f bd 24 14 f3 3c 4d de 6d bd 89 fd a9 3d
       -0.050726842 0.02967269 -0.05807333 0.08300311
000090 21 e2 aa 3d 87 78 4b bd 68 a3 5b bc 40 ac 6b bb
       0.08343912 -0.04967549 -0.013405658 -0.0035960823
0000a0 d4 af 9d 3c 9d 38 c0 3d 38 f1 a4 bd 6a c5 2e 3d
       0.01924888 0.09385798 -0.08053821 0.042668737
0000b0 84 62 05 bd 19 de 92 3d 72 6c 8d bd 66 e0 68 3d
       -0.032564655 0.07171268 -0.0690545 0.056854628
0000c0 82 cd 50 3d 97 45 99 3d 8d 5c a4 bd a0 f5 05 bb
       0.050977238 0.07483976 -0.08025465 -0.0020440593
0000d0 a2 64 27 3d c7 53 c7 bd f8 cc c1 bc e8 a7 90 3c
       0.040867455 -0.09732776 -0.023657307 0.017658189
0000e0 39 20 b9 3d 70 ec bb bd 6d 8b b3 bd d8 02 c3 bd
       0.09039349 -0.09175956 -0.08766828 -0.09522027
0000f0 60 02 80 bc 60 af 2a bb 49 b1 9a 3d 8a cd 9e bd
       -0.015626132 -0.0026044473 0.07553346 -0.07754047
000100 80 d3 55 3c ae a0 35 3d b6 a6 21 3d 18 1a 32 bc
       0.013050914 0.04434269 0.03946563 -0.010870479
000110 03 b0 4b bd 84 88 d5 3c 37 3c 53 bd 6e 10 02 3d
       -0.049728405 0.026066072 -0.051571097 0.03175395
000120 9d f0 ba bd 2a 63 59 3d 6b 21 b3 bd cc 97 e6 bc
       -0.091279246 0.053073086 -0.08746608 -0.028148554
000130 a0 20 0e bd e8 6a e9 bc db 4d bf bd b7 36 b9 bd
       -0.034699082 -0.02849336 -0.093410216 -0.09043639
000140 c7 8f 1f bd 00 10 57 bc 0c 73 a0 3c 20 b0 a6 bc
       -0.038955476 -0.013126373 0.019586109 -0.020347655
000150 a0 4b 0c bd 6b c3 91 bd f3 14 4f bd 2a 72 6c 3d
       -0.03425181 -0.07117351 -0.050557088 0.057726063
000160 6a ca 3a 3d cb cf bf 3d 21 47 8c 3d 98 a4 14 bc
       0.045603193 0.09365805 0.06849504 -0.009072445
000170 e0 9b 87 bc 92 da 3e 3d 20 b1 01 bd 58 c8 82 bc
       -0.01655382 0.046595164 -0.03166306 -0.015964672
000180 a0 73 51 3b f4 dc c0 3c 98 3b 06 3c 43 67 30 bd
       0.0031959787 0.023542859 0.008192919 -0.043067228
000190 35 67 92 3d d0 59 02 bd bd dc 2e bd a8 7e 1c 3c
       0.071485914 -0.031823933 -0.04269098 0.009551682
0001a0 ce 27 05 3d ec d3 cb bc 66 b3 32 3d 78 04 98 bd
       0.032508664 -0.024881326 0.04362812 -0.07422727
0001b0 19 e2 c5 3d 2c 7c d2 3c 4c 62 e9 3c 1a 69 06 3d
       0.09662265 0.025693975 0.028489254 0.032815076
0001c0 6c bd db bc c0 6f 2d bd 68 33 31 3c 47 46 b0 3d
       -0.026823722 -0.0423429 0.010815479 0.08607154
0001d0 37 5a 59 bd 16 8a 84 bd 60 66 08 bb ea 0f 3e 3d
       -0.05306455 -0.0647165 -0.0020812973 0.046401896
0001e0 40 71 a2 3a da e9 1b bd 0d 92 9c 3d 58 0d 3c 3c
       0.001239337 -0.038064815 0.076450445 0.011477791
0001f0 fa dc b3 bd 50 ad 53 3c 16 56 5e 3d db dc ae 3d
       -0.08782382 0.012919739 0.054281317 0.085382186
000200 60 8b 10 bd b4 4c 8f bc 00 bf 99 bc 8d 57 80 bd
       -0.03528917 -0.01749263 -0.018767834 -0.06266699
000210 71 0a c8 3d 9a 1f 0c 3d d2 13 13 3d c4 11 01 bd
       0.097676165 0.034209825 0.035907574 -0.031511083
000220 2a 41 0c 3d 1a 90 8a bd 00 0c a6 b8 99 3e c8 3d
       0.034241833 -0.067657664 -7.917732e-05 0.097775646
000230 92 b7 2a 3d c9 55 96 3d 13 b5 ba bd 9a 69 11 bd
       0.041678973 0.07340581 -0.091165684 -0.0355011
000240 d0 a9 48 bc 10 7d 23 bd f6 ef a1 bd ac 26 93 3c
       -0.012247518 -0.03991419 -0.07907097 0.017962776
000250 62 27 26 3d 48 55 9e 3c a4 b8 cd 3c 82 63 98 bd
       0.040564902 0.019327775 0.025112458 -0.074408546
000260 e9 81 90 3d eb 57 c8 3d d0 56 fe bb d2 30 24 3d
       0.070560284 0.09782394 -0.0077618137 0.04008562
000270 7b 7f c3 3d f8 d1 bd bd 50 e7 12 3c d6 c7 7b 3d
       0.09545799 -0.09268564 0.008966282 0.061469875
000280 ba bd 34 3d ad 61 9c bd 73 04 67 bd 54 c5 db bc
       0.04412625 -0.07635818 -0.056400727 -0.026827492
000290 a7 16 4a bd 00 b7 05 bb ac 56 b5 3c 44 76 e7 3c
       -0.04933801 -0.0020403266 0.022136055 0.028254636
0002a0 60 fa 29 bb a7 7c 31 bd c0 3a 39 3b 30 15 b7 bb
       -0.0025936589 -0.04333177 0.0028263777 -0.0055872425
0002b0 98 e5 8d 3c 40 29 fe 3a 7d ae 6a bd b0 f6 70 bd
       0.017321393 0.0019390956 -0.05729531 -0.05882901
0002c0 b1 c5 c3 3d d0 5a 46 bd c0 1b 9c bc 92 2e 10 3d
       0.09559191 -0.04842645 -0.019056201 0.035200663
0002d0 d0 8b 7f 3c 4f b8 c2 bd a0 5a 30 bb 20 40 be bb
       0.015597299 -0.0950781 -0.0026909485 -0.005805984
0002e0 65 87 aa 3d 30 ac 59 3c aa 03 43 bd aa fa 54 3d
       0.08326606 0.013285682 -0.047610916 0.051996864
0002f0 90 48 45 bc 39 b7 bc 3d 30 1e b4 bd 26 e6 0f 3d
       -0.012041226 0.092146344 -0.0879482 0.035131596
000300 35 eb b9 3d e8 8d d6 bc 5c 3e ed 3c 80 77 b7 3a
       0.09078065 -0.026190713 0.0289604 0.0013997406
000310 0c 82 be 3c d0 41 5c 3c 97 c4 b4 bd a0 45 35 bd
       0.02325537 0.013443425 -0.08826559 -0.044255853
000320 7b 73 c4 3d 60 e1 87 bc 54 ad ea 3c 1f f2 b8 bd
       0.09592339 -0.01658696 0.028647102 -0.09030556
000330 79 dc b6 3d 88 21 b5 bc 09 ab aa 3d 00 7b f8 b9
       0.089287706 -0.022110716 0.083334036 -0.00047393888
000340 e2 eb 29 3d bf 08 8f 3d f4 48 fb bc 79 81 a2 3d
       0.04148472 0.0698409 -0.030674435 0.07934851
000350 54 24 f0 3c 76 6e 8b bd fd 56 4d bd 00 da 53 bd
       0.029314198 -0.06808178 -0.050131787 -0.051721573
000360 23 28 9d bd 60 d0 d1 3b b5 6a a6 3d 53 ce 79 bd
       -0.07673671 0.006403014 0.081258215 -0.06098778
000370 2a 5b 76 3d 58 ec 15 bc 0b 79 a2 3d c6 7b 1f 3d
       0.060145535 -0.009150587 0.07933243 0.0389364
000380 fa d4 30 3d 32 83 4d 3d ef df c8 bd 8c b4 de bc
       0.04317186 0.050173946 -0.09808337 -0.0271857
000390 58 27 bb bc c8 6e cc bd ba 12 65 3d 37 45 95 3d
       -0.022845909 -0.09982067 0.055926062 0.07288592
0003a0 fa 4a 71 bd 66 7f 72 3d 68 48 12 bc 5a 68 22 bd
       -0.058909394 0.059203528 -0.008928396 -0.0396503
0003b0 76 ab 53 3d d8 f1 d4 bc f0 80 c8 bd ea 17 c5 bd
       0.05167719 -0.025994226 -0.09790218 -0.09623702
0003c0 f8 a6 c4 3c 50 08 9d 3b 72 59 02 3d b0 14 f1 bb
       0.024005398 0.0047922507 0.031823583 -0.0073572025
0003d0 ec cf e8 bc b4 8b ac 3c 32 c0 ca bd b2 92 cb bd
       -0.028419457 0.02106271 -0.098999396 -0.09940089
0003e0 ea 5c 97 bd 73 26 72 bd 34 09 86 bd e2 f5 8c bd
       -0.07390769 -0.0591187 -0.06544724 -0.06882836
0003f0 a9 a1 a7 3d e2 95 40 3d 00 07 ec bb d7 e5 94 3d
       0.08185131 0.04701794 -0.007202983 0.07270401

layers.3.weight f4 [256]
000000 00 00 80 3f 00 00 80 3f 00 00 80 3f 00 00 80 3f
       1.0 1.0 1.0 1.0
000010 00 00 80 3f 00 00 80 3f 00 00 80 3f 00 00 80 3f
       1.0 1.0 1.0 1.0
000020 00 00 80 3f 00 00 80 3f 00 00 80 3f 00 00 80 3f
       1.0 1.0 1.0 1.0
000030 00 00 80 3f 00 00 80 3f 00 00 80 3f 00 00 80 3f
       1.0 1.0 1.0 1.0
000040 00 00 80 3f 00 00 80 3f 00 00 80 3f 00 00 80 3f
       1.0 1.0 1.0 1.0
000050 00 00 80 3f 00 00 80 3f 00 00 80 3f 00 00 80 3f
       1.0 1.0 1.0 1.0
000060 00 00 80 3f 00 00 80 3f 00 00 80 3f 00 00 80 3f
       1.0 1.0 1.0 1.0
000070 00 00 80 3f 00 00 80 3f 00 00 80 3f 00 00 80 3f
       1.0 1.0 1.0 1.0
000080 00 00 80 3f 00 00 80 3f 00 00 80 3f 00 00 80 3f
       1.0 1.0 1.0 1.0
000090 00 00 80 3f 00 00 80 3f 00 00 80 3f 00 00 80 3f
       1.0 1.0 1.0 1.0
0000a0 00 00 80 3f 00 00 80 3f 00 00 80 3f 00 00 80 3f
       1.0 1.0 1.0 1.0
0000b0 00 00 80 3f 00 00 80 3f 00 00 80 3f 00 00 80 3f
       1.0 1.0 1.0 1.0
0000c0 00 00 80 3f 00 00 80 3f 00 00 80 3f 00 00 80 3f
       1.0 1.0 1.0 1.0
0000d0 00 00 80 3f 00 00 80 3f 00 00 80 3f 00 00 80 3f
       1.0 1.0 1.0 1.0
0000e0 00 00 80 3f 00 00 80 3f 00 00 80 3f 00 00 80 3f
       1.0 1.0 1.0 1.0
0000f0 00 00 80 3f 00 00 80 3f 00 00 80 3f 00 00 80 3f
       1.0 1.0 1.0 1.0
000100 00 00 80 3f 00 00 80 3f 00 00 80 3f 00 00 80 3f
       1.0 1.0 1.0 1.0
000110 00 00 80 3f 00 00 80 3f 00 00 80 3f 00 00 80 3f
       1.0 1.0 1.0 1.0
000120 00 00 80 3f 00 00 80 3f 00 00 80 3f 00 00 80 3f
       1.0 1.0 1.0 1.0
000130 00 00 80 3f 00 00 80 3f 00 00 80 3f 00 00 80 3f
       1.0 1.0 1.0 1.0
000140 00 00 80 3f 00 00 80 3f 00 00 80 3f 00 00 80 3f
       1.0 1.0 1.0 1.0
000150 00 00 80 3f 00 00 80 3f 00 00 80 3f 00 00 80 3f
       1.0 1.0 1.0 1.0
000160 00 00 80 3f 00 00 80 3f 00 00 80 3f 00 00 80 3f
       1.0 1.0 1.0 1.0
000170 00 00 80 3f 00 00 80 3f 00 00 80 3f 00 00 80 3f
       1.0 1.0 1.0 1.0
000180 00 00 80 3f 00 00 80 3f 00 00 80 3f 00 00 80 3f
       1.0 1.0 1.0 1.0
000190 00 00 80 3f 00 00 80 3f 00 00 80 3f 00 00 80 3f
       1.0 1.0 1.0 1.0
0001a0 00 00 80 3f 00 00 80 3f 00 00 80 3f 00 00 80 3f
       1.0 1.0 1.0 1.0
0001b0 00 00 80 3f 00 00 80 3f 00 00 80 3f 00 00 80 3f
       1.0 1.0 1.0 1.0
0001c0 00 00 80 3f 00 00 80 3f 00 00 80 3f 00 00 80 3f
       1.0 1.0 1.0 1.0
0001d0 00 00 80 3f 00 00 80 3f 00 00 80 3f 00 00 80 3f
       1.0 1.0 1.0 1.0
0001e0 00 00 80 3f 00 00 80 3f 00 00 80 3f 00 00 80 3f
       1.0 1.0 1.0 1.0
0001f0 00 00 80 3f 00 00 80 3f 00 00 80 3f 00 00 80 3f
       1.0 1.0 1.0 1.0
000200 00 00 80 3f 00 00 80 3f 00 00 80 3f 00 00 80 3f
       1.0 1.0 1.0 1.0
000210 00 00 80 3f 00 00 80 3f 00 00 80 3f 00 00 80 3f
       1.0 1.0 1.0 1.0
000220 00 00 80 3f 00 00 80 3f 00 00 80 3f 00 00 80 3f
       1.0 1.0 1.0 1.0
000230 00 00 80 3f 00 00 80 3f 00 00 80 3f 00 00 80 3f
       1.0 1.0 1.0 1.0
000240 00 00 80 3f 00 00 80 3f 00 00 80 3f 00 00 80 3f
       1.0 1.0 1.0 1.0
000250 00 00 80 3f 00 00 80 3f 00 00 80 3f 00 00 80 3f
       1.0 1.0 1.0 1.0
000260 00 00 80 3f 00 00 80 3f 00 00 80 3f 00 00 80 3f
       1.0 1.0 1.0 1.0
000270 00 00 80 3f 00 00 80 3f 00 00 80 3f 00 00 80 3f
       1.0 1.0 1.0 1.0
000280 00 00 80 3f 00 00 80 3f 00 00 80 3f 00 00 80 3f
       1.0 1.0 1.0 1.0
000290 00 00 80 3f 00 00 80 3f 00 00 80 3f 00 00 80 3f
       1.0 1.0 1.0 1.0
0002a0 00 00 80 3f 00 00 80 3f 00 00 80 3f 00 00 80 3f
       1.0 1.0 1.0 1.0
0002b0 00 00 80 3f 00 00 80 3f 00 00 80 3f 00 00 80 3f
       1.0 1.0 1.0 1.0
0002c0 00 00 80 3f 00 00 80 3f 00 00 80 3f 00 00 80 3f
       1.0 1.0 1.0 1.0
0002d0 00 00 80 3f 00 00 80 3f 00 00 80 3f 00 00 80 3f
       1.0 1.0 1.0 1.0
0002e0 00 00 80 3f 00 00 80 3f 00 00 80 3f 00 00 80 3f
       1.0 1.0 1.0 1.0
0002f0 00 00 80 3f 00 00 80 3f 00 00 80 3f 00 00 80 3f
       1.0 1.0 1.0 1.0
000300 00 00 80 3f 00 00 80 3f 00 00 80 3f 00 00 80 3f
       1.0 1.0 1.0 1.0
000310 00 00 80 3f 00 00 80 3f 00 00 80 3f 00 00 80 3f
       1.0 1.0 1.0 1.0
000320 00 00 80 3f 00 00 80 3f 00 00 80 3f 00 00 80 3f
       1.0 1.0 1.0 1.0
000330 00 00 80 3f 00 00 80 3f 00 00 80 3f 00 00 80 3f
       1.0 1.0 1.0 1.0
000340 00 00 80 3f 00 00 80 3f 00 00 80 3f 00 00 80 3f
       1.0 1.0 1.0 1.0
000350 00 00 80 3f 00 00 80 3f 00 00 80 3f 00 00 80 3f
       1.0 1.0 1.0 1.0
000360 00 00 80 3f 00 00 80 3f 00 00 80 3f 00 00 80 3f
       1.0 1.0 1.0 1.0
000370 00 00 80 3f 00 00 80 3f 00 00 80 3f 00 00 80 3f
       1.0 1.0 1.0 1.0
000380 00 00 80 3f 00 00 80 3f 00 00 80 3f 00 00 80 3f
       1.0 1.0 1.0 1.0
000390 00 00 80 3f 00 00 80 3f 00 00 80 3f 00 00 80 3f
       1.0 1.0 1.0 1.0
0003a0 00 00 80 3f 00 00 80 3f 00 00 80 3f 00 00 80 3f
       1.0 1.0 1.0 1.0
0003b0 00 00 80 3f 00 00 80 3f 00 00 80 3f 00 00 80 3f
       1.0 1.0 1.0 1.0
0003c0 00 00 80 3f 00 00 80 3f 00 00 80 3f 00 00 80 3f
       1.0 1.0 1.0 1.0
0003d0 00 00 80 3f 00 00 80 3f 00 00 80 3f 00 00 80 3f
       1.0 1.0 1.0 1.0
0003e0 00 00 80 3f 00 00 80 3f 00 00 80 3f 00 00 80 3f
       1.0 1.0 1.0 1.0
0003f0 00 00 80 3f 00 00 80 3f 00 00 80 3f 00 00 80 3f
       1.0 1.0 1.0 1.0

layers.3.bias f4 [256]
000000 00 00 00 00 00 00 00 00 00 00 00 00 00 00 00 00
       0.0 0.0 0.0 0.0
000010 00 00 00 00 00 00 00 00 00 00 00 00 00 00 00 00
       0.0 0.0 0.0 0.0
000020 00 00 00 00 00 00 00 00 00 00 00 00 00 00 00 00
       0.0 0.0 0.0 0.0
000030 00 00 00 00 00 00 00 00 00 00 00 00 00 00 00 00
       0.0 0.0 0.0 0.0
000040 00 00 00 00 00 00 00 00 00 00 00 00 00 00 00 00
       0.0 0.0 0.0 0.0
000050 00 00 00 00 00 00 00 00 00 00 00 00 00 00 00 00
       0.0 0.0 0.0 0.0
000060 00 00 00 00 00 00 00 00 00 00 00 00 00 00 00 00
       0.0 0.0 0.0 0.0
000070 00 00 00 00 00 00 00 00 00 00 00 00 00 00 00 00
       0.0 0.0 0.0 0.0
000080 00 00 00 00 00 00 00 00 00 00 00 00 00 00 00 00
       0.0 0.0 0.0 0.0
000090 00 00 00 00 00 00 00 00 00 00 00 00 00 00 00 00
       0.0 0.0 0.0 0.0
0000a0 00 00 00 00 00 00 00 00 00 00 00 00 00 00 00 00
       0.0 0.0 0.0 0.0
0000b0 00 00 00 00 00 00 00 00 00 00 00 00 00 00 00 00
       0.0 0.0 0.0 0.0
0000c0 00 00 00 00 00 00 00 00 00 00 00 00 00 00 00 00
       0.0 0.0 0.0 0.0
0000d0 00 00 00 00 00 00 00 00 00 00 00 00 00 00 00 00
       0.0 0.0 0.0 0.0
0000e0 00 00 00 00 00 00 00 00 00 00 00 00 00 00 00 00
       0.0 0.0 0.0 0.0
0000f0 00 00 00 00 00 00 00 00 00 00 00 00 00 00 00 00
       0.0 0.0 0.0 0.0
000100 00 00 00 00 00 00 00 00 00 00 00 00 00 00 00 00
       0.0 0.0 0.0 0.0
000110 00 00 00 00 00 00 00 00 00 00 00 00 00 00 00 00
       0.0 0.0 0.0 0.0
000120 00 00 00 00 00 00 00 00 00 00 00 00 00 00 00 00
       0.0 0.0 0.0 0.0
000130 00 00 00 00 00 00 00 00 00 00 00 00 00 00 00 00
       0.0 0.0 0.0 0.0
000140 00 00 00 00 00 00 00 00 00 00 00 00 00 00 00 00
       0.0 0.0 0.0 0.0
000150 00 00 00 00 00 00 00 00 00 00 00 00 00 00 00 00
       0.0 0.0 0.0 0.0
000160 00 00 00 00 00 00 00 00 00 00 00 00 00 00 00 00
       0.0 0.0 0.0 0.0
000170 00 00 00 00 00 00 00 00 00 00 00 00 00 00 00 00
       0.0 0.0 0.0 0.0
000180 00 00 00 00 00 00 00 00 00 00 00 00 00 00 00 00
       0.0 0.0 0.0 0.0
000190 00 00 00 00 00 00 00 00 00 00 00 00 00 00 00 00
       0.0 0.0 0.0 0.0
0001a0 00 00 00 00 00 00 00 00 00 00 00 00 00 00 00 00
       0.0 0.0 0.0 0.0
0001b0 00 00 00 00 00 00 00 00 00 00 00 00 00 00 00 00
       0.0 0.0 0.0 0.0
0001c0 00 00 00 00 00 00 00 00 00 00 00 00 00 00 00 00
       0.0 0.0 0.0 0.0
0001d0 00 00 00 00 00 00 00 00 00 00 00 00 00 00 00 00
       0.0 0.0 0.0 0.0
0001e0 00 00 00 00 00 00 00 00 00 00 00 00 00 00 00 00
       0.0 0.0 0.0 0.0
0001f0 00 00 00 00 00 00 00 00 00 00 00 00 00 00 00 00
       0.0 0.0 0.0 0.0
000200 00 00 00 00 00 00 00 00 00 00 00 00 00 00 00 00
       0.0 0.0 0.0 0.0
000210 00 00 00 00 00 00 00 00 00 00 00 00 00 00 00 00
       0.0 0.0 0.0 0.0
000220 00 00 00 00 00 00 00 00 00 00 00 00 00 00 00 00
       0.0 0.0 0.0 0.0
000230 00 00 00 00 00 00 00 00 00 00 00 00 00 00 00 00
       0.0 0.0 0.0 0.0
000240 00 00 00 00 00 00 00 00 00 00 00 00 00 00 00 00
       0.0 0.0 0.0 0.0
000250 00 00 00 00 00 00 00 00 00 00 00 00 00 00 00 00
       0.0 0.0 0.0 0.0
000260 00 00 00 00 00 00 00 00 00 00 00 00 00 00 00 00
       0.0 0.0 0.0 0.0
000270 00 00 00 00 00 00 00 00 00 00 00 00 00 00 00 00
       0.0 0.0 0.0 0.0
000280 00 00 00 00 00 00 00 00 00 00 00 00 00 00 00 00
       0.0 0.0 0.0 0.0
000290 00 00 00 00 00 00 00 00 00 00 00 00 00 00 00 00
       0.0 0.0 0.0 0.0
0002a0 00 00 00 00 00 00 00 00 00 00 00 00 00 00 00 00
       0.0 0.0 0.0 0.0
0002b0 00 00 00 00 00 00 00 00 00 00 00 00 00 00 00 00
       0.0 0.0 0.0 0.0
0002c0 00 00 00 00 00 00 00 00 00 00 00 00 00 00 00 00
       0.0 0.0 0.0 0.0
0002d0 00 00 00 00 00 00 00 00 00 00 00 00 00 00 00 00
       0.0 0.0 0.0 0.0
0002e0 00 00 00 00 00 00 00 00 00 00 00 00 00 00 00 00
       0.0 0.0 0.0 0.0
0002f0 00 00 00 00 00 00 00 00 00 00 00 00 00 00 00 00
       0.0 0.0 0.0 0.0
000300 00 00 00 00 00 00 00 00 00 00 00 00 00 00 00 00
       0.0 0.0 0.0 0.0
000310 00 00 00 00 00 00 00 00 00 00 00 00 00 00 00 00
       0.0 0.0 0.0 0.0
000320 00 00 00 00 00 00 00 00 00 00 00 00 00 00 00 00
       0.0 0.0 0.0 0.0
000330 00 00 00 00 00 00 00 00 00 00 00 00 00 00 00 00
       0.0 0.0 0.0 0.0
000340 00 00 00 00 00 00 00 00 00 00 00 00 00 00 00 00
       0.0 0.0 0.0 0.0
000350 00 00 00 00 00 00 00 00 00 00 00 00 00 00 00 00
       0.0 0.0 0.0 0.0
000360 00 00 00 00 00 00 00 00 00 00 00 00 00 00 00 00
       0.0 0.0 0.0 0.0
000370 00 00 00 00 00 00 00 00 00 00 00 00 00 00 00 00
       0.0 0.0 0.0 0.0
000380 00 00 00 00 00 00 00 00 00 00 00 00 00 00 00 00
       0.0 0.0 0.0 0.0
000390 00 00 00 00 00 00 00 00 00 00 00 00 00 00 00 00
       0.0 0.0 0.0 0.0
0003a0 00 00 00 00 00 00 00 00 00 00 00 00 00 00 00 00
       0.0 0.0 0.0 0.0
0003b0 00 00 00 00 00 00 00 00 00 00 00 00 00 00 00 00
       0.0 0.0 0.0 0.0
0003c0 00 00 00 00 00 00 00 00 00 00 00 00 00 00 00 00
       0.0 0.0 0.0 0.0
0003d0 00 00 00 00 00 00 00 00 00 00 00 00 00 00 00 00
       0.0 0.0 0.0 0.0
0003e0 00 00 00 00 00 00 00 00 00 00 00 00 00 00 00 00
       0.0 0.0 0.0 0.0
0003f0 00 00 00 00 00 00 00 00 00 00 00 00 00 00 00 00
       0.0 0.0 0.0 0.0
