ddpg/model_params/ycsb_ddpg_7_10_critic.pth (torch, 379178 bytes, 17 tensors)

state_input.weight f4 [128, 65]
0	0xbca1c188	-0.019745603
1	0xba34625e	-0.0006881113
2	0xbbd199e5	-0.0063965195
3	0x3b9b3004	0.0047359485
4	0xbafc2438	-0.0019236868
5	0xbbc5c57e	-0.006035506
6	0x3bf4058c	0.0074469503
7	0xbc9bbed1	-0.019011887
8	0x3b1164ad	0.0022185252
9	0xb844c044	-4.6909103e-05
10	0x3acaab70	0.0015462469
11	0xbb7f9c20	-0.003900297
12	0x3b4a183e	0.0030837203
13	0x3b23c1ed	0.0024987415
14	0xbc22a5fe	-0.009927271
15	0xbb9a61f4	-0.004711384
16	0x39fb36f9	0.00047915409
17	0xbbc99b26	-0.0061525283
18	0x3b47d2f8	0.0030490737
19	0xbbbf3f6b	-0.0058364174
20	0x3c18847b	0.00930893
21	0x39e59ce0	0.00043795165
22	0xbc8f434e	-0.017488148
23	0xbb3c09b8	-0.0028692316
24	0x3c4249d7	0.011858425
25	0xbbade85c	-0.0053072404
26	0x3a6d918e	0.0009062522
27	0xbc2639f6	-0.010145655
28	0xbb8dbdca	-0.004325603
29	0xbb8b3497	-0.0042482126
30	0x39c4292f	0.00037414717
31	0x3c9bbc62	0.019010726
32	0xbc0e4fbf	-0.008686005
33	0xbc7923d7	-0.015206299
34	0xba791a0e	-0.00095024786
35	0x3b3fd824	0.0029273117
36	0x3bfb3683	0.0076664104
37	0x3b048a8a	0.0020224177
38	0x3c2d63c2	0.010582866
39	0x3bc4b061	0.0060024713
40	0xbc0f6485	-0.008751993
41	0xbbc07085	-0.0058727884
42	0x3c27fed3	0.010253626
43	0x3cc3deef	0.023910014
44	0x3c97e5b4	0.018542148
45	0x39833d1f	0.00025031806
46	0xbbf3f987	-0.0074455175
47	0xbbca461d	-0.006172909
48	0x3c469e09	0.012122639
49	0x3bd4bae0	0.006492004
50	0xbc3ec1bc	-0.01164287
51	0xba8e4d04	-0.0010856693
52	0xbc4b011b	-0.0123904
53	0x3b9e6ed9	0.0048349914
54	0xbbc14479	-0.005898055
55	0xbbd890eb	-0.0066090724
56	0xbbaa1cea	-0.005191435
57	0x3a40f91e	0.000736134
58	0xbc175984	-0.009237651
59	0xbbb5a1ee	-0.005542985
60	0xbbad7feb	-0.00529479
61	0xbbe3a220	-0.006946817
62	0x3b9d4314	0.004799256
63	0x3a2f5aa9	0.00066892296
64	0x3c1d295b	0.009592379
65	0x3c829597	0.01594047
66	0xbc0a21bb	-0.0084308935
67	0xbbfe2beb	-0.0077567003
68	0x3c70c378	0.014695041
69	0xbc7dcc49	-0.0154906
70	0x3c8cd277	0.017190201
71	0x3b210916	0.0024572066
72	0x3b5a7cc2	0.0033338522
73	0x3b0c232c	0.0021383269
74	0x3ab31a70	0.0013664495
75	0xbb4a6ab4	-0.0030886354
76	0x3c0f6d5f	0.008754103
77	0xbc4c12e9	-0.01245568
78	0xbc8a455b	-0.016878774
79	0xbbff211d	-0.00778593
80	0x3b3397aa	0.0027403631
81	0x3b0c8028	0.0021438692
82	0x3c1cc27b	0.009567852
83	0x3cb6db34	0.022321321
84	0x3ba06430	0.004894756
85	0xbba482e9	-0.0050204885
86	0x3cb0aa52	0.02156559
87	0xb9f27ef9	-0.0004625244
88	0x3cc0cc67	0.023534967
89	0xbc1a226d	-0.009407622
90	0x3c190a3b	0.009340818
91	0xbb391f2f	-0.0028247347
92	0xbbcebfb9	-0.006309476
93	0x39cf3b70	0.000395264
94	0x3acc72ef	0.0015598218
95	0xbc88fd9a	-0.01672249
96	0x3ba29632	0.0049617523
97	0x3bf8e5ac	0.0075957384
98	0xbc0167ef	-0.007898315
99	0xbba382be	-0.004989951
100	0xbc847a77	-0.016171677
101	0xbc5a0b79	-0.013308399
102	0x399869de	0.00029070576
103	0x3bae6e8a	0.005323236
104	0x3c4c64dd	0.01247522
105	0x3c30f309	0.010800132
106	0xbb881eab	-0.0041540465
107	0xbb2166e8	-0.0024627987
108	0x3b7150d0	0.003682185
109	0x3cb478a4	0.022030182
110	0x3c649502	0.013951542
111	0x3ab6e16f	0.0013952682
112	0x3c5ac2db	0.013352121
113	0x3b10973e	0.0022062804
114	0x3c28c3b9	0.01030057
115	0xbbd38fea	-0.006456365
116	0x3bb6889d	0.005570485
117	0xbb5b540a	-0.003346684
118	0xbb803f20	-0.003913775
119	0x3be11fb0	0.0068702325
120	0xbc5a3fe7	-0.0133209
121	0xba1c6486	-0.0005965907
122	0xbb60cdbe	-0.003430232
123	0x3b9c2192	0.004764744
124	0xbbcd94d0	-0.0062738433
125	0xbbdbab44	-0.006703766
126	0xbc5b0000	-0.013366699
127	0xbb5234f2	-0.0032075015
128	0xba5fca20	-0.0008536894
129	0xbb9cd76d	-0.004786423
130	0x3c569aeb	0.013098459
131	0xbae3e479	-0.0017386816
132	0x3be4b2b7	0.0069793123
133	0x3a826cfd	0.0009950694
134	0xbb7f8682	-0.0038990085
135	0x3bcdffea	0.006286611
136	0x3bbfc070	0.0058517978
137	0xbb90442d	-0.0044026584
138	0x3c91c63c	0.01779472
139	0xbb1191d2	-0.002221216
140	0x3b13f78d	0.0022577972
141	0xbbfdb90f	-0.007743008
142	0x3ba4c85c	0.0050287675
143	0xbac5ac40	-0.0015081242
144	0xbc89a4d6	-0.016802233
145	0x3c284606	0.010270601
146	0xbbd0c08e	-0.0063706106
147	0xbb5dbea6	-0.003383556
148	0x3b7485dd	0.0037311234
149	0xbb092406	-0.0020926013
150	0x3c04aacc	0.008097362
151	0xbc55571e	-0.013021259
152	0xbc0be7b2	-0.008539127
153	0xbbfcc103	-0.0077134385
154	0x3b0c22e6	0.0021383106
155	0x397eaaeb	0.00024287
156	0xbaecbe3c	-0.0018062065
157	0xb98795f2	-0.00025860925
158	0x3bba12d4	0.005678514
159	0x3c9235b0	0.017847866
160	0x3c06d0a0	0.008228451
161	0x3b294e2f	0.0025833955
162	0xbb8b84d6	-0.0042577786
163	0xbc81e4bd	-0.015856141
164	0x3c1edc84	0.00969613
165	0x3cc58aea	0.024114091
166	0x3b075c5f	0.0020654423
167	0xbc69827b	-0.0142523
168	0xbc14f4d9	-0.009091579
169	0xbccb5b97	-0.024823947
170	0xbb32edd8	-0.002730241
171	0x3c319a44	0.010840002
172	0x3c573bcc	0.013136815
173	0xbad4be0c	-0.0016230955
174	0x3c2df756	0.0106180515
175	0x3bea337b	0.00714725
176	0xbc05dc37	-0.008170179
177	0x3bd74d3b	0.006570486
178	0x3c2680ee	0.010162575
179	0xbbf83042	-0.007574112
180	0x3b0e21d7	0.002168765
181	0xbc516f07	-0.012782819
182	0xb912014b	-0.00013924127
183	0xbb993f01	-0.0046767
184	0xbb09d759	-0.0021032898
185	0xba7ff274	-0.00097636064
186	0xbc0392c9	-0.008030602
187	0x3b82c266	0.0039904593
188	0xbba9e482	-0.005184711
189	0xbbca5249	-0.00617436
190	0x3aafc7c1	0.0013410972
191	0xbc5a0f1d	-0.013309267
192	0xbbca19ee	-0.006167642
193	0xbb0de56c	-0.0021651639
194	0x3c8f882e	0.01752099
195	0x3cc66c8a	0.024221677
196	0xbbac70c2	-0.005262465
197	0x3b378a17	0.0028005892
198	0x3c75fca0	0.015013844
199	0x39b7a33e	0.00035026105
200	0xbb18fec3	-0.002334521
201	0x3c4cffd8	0.01251217
202	0x3b5cac41	0.0033672007
203	0xbb87d8f1	-0.0041457345
204	0xbc9da5fb	-0.019244185
205	0xbb3b90bd	-0.0028620206
206	0xbc3b60ee	-0.011436684
207	0xbb2411ca	-0.0025035017
208	0x3ba87b98	0.0051416866
209	0x3cbf4c40	0.023351789
210	0xbc1bf666	-0.009519195
211	0x3b523d00	0.0032079816
212	0xbc55834e	-0.013031794
213	0x3bc76193	0.00608463
214	0xbb2a0d3d	-0.0025947832
215	0x3aabc507	0.0013104983
216	0x3c6c6c13	0.014430064
217	0xbbdfef25	-0.006833928
218	0xbc0ce767	-0.0086000925
219	0x3b561342	0.0032665287
220	0x3c43c1b9	0.011948043
221	0x3b47bf6a	0.0030479082
222	0x3a905b60	0.001101356
223	0xbc89ba80	-0.016812563
224	0x3c1dd922	0.009634288
225	0x3b0eee7a	0.0021809624
226	0x3bebac34	0.007192159
227	0x3ac27fc7	0.0014839106
228	0x3a080ee8	0.00051902095
229	0x3c0a0db3	0.008426118
230	0x3b69384f	0.003558654
231	0x3a63de4f	0.00086924894
232	0xbbfadabe	-0.0076554706
233	0x3bee342b	0.0072694025
234	0xbbcb14f3	-0.0061975657
235	0x3993d6e3	0.00028198128
236	0x3bbbfe5d	0.0057371096
237	0xbaa47472	-0.001254691
238	0x3b5ec4c7	0.00339918
239	0xbb28b889	-0.0025744757
240	0xbc51f12a	-0.012813846
241	0x3c2cca9c	0.010546353
242	0xbc3649b8	-0.011125974
243	0xb8962c23	-7.1607785e-05
244	0x3c108702	0.008821251
245	0xbc588ccf	-0.013217165
246	0xbc471080	-0.01214993
247	0x3ba3d7b8	0.005000081
248	0x3b598d06	0.0033195629
249	0x3beeb439	0.007284668
250	0x3c5e01b0	0.013550207
251	0xbb1ca178	-0.0023899954
252	0x3ab52de4	0.001382288
253	0x3bd6416a	0.0065385597
254	0x3c71aa86	0.014750129
255	0x3ac2dd01	0.001486689

state_input.bias f4 [128]
0	0xbb52ec00	-0.0032184124
1	0xbd0664a4	-0.032810822
2	0xbd3679fd	-0.04454993
3	0x3d50874e	0.050910287
4	0x3dbac1f9	0.091190286
5	0xbbb52530	-0.0055281147
6	0x3dc1fe31	0.09472311
7	0x3da718c1	0.08159018
8	0x3db71951	0.089403756
9	0x3dc08a8b	0.09401425
10	0x3db05e8d	0.08611784
11	0x3c660f50	0.014041737
12	0xbd850a6c	-0.064961284
13	0x3d8ec937	0.069719724
14	0xbdc8617a	-0.09784217
15	0x3d4f914a	0.050675668
16	0x3c052950	0.008127525
17	0xbd3ea490	-0.046543658
18	0xbd01dd3a	-0.03170512
19	0x3a629980	0.0008644089
20	0xbd4ac40d	-0.049503375
21	0xbd48e58a	-0.04904703
22	0x38aa5400	8.121878e-05
23	0x3db6b60d	0.08921442
24	0xbd80bd95	-0.0628616
25	0x3d4c77c6	0.049918912
26	0xbd59ec90	-0.05320412
27	0xbd28d0f0	-0.041214883
28	0xbdb208f0	-0.08693111
29	0x3d33f402	0.043933876
30	0x3d920075	0.071289934
31	0x3d6b7cb2	0.057491966
32	0x3d35b19e	0.044358842
33	0xbdb32038	-0.087463796
34	0xbd52ddaa	-0.051480927
35	0x3cbbf280	0.022942781
36	0xbbb6a5a0	-0.0055739433
37	0xbd8bcf6c	-0.06826672
38	0xbd87c61e	-0.06629585
39	0xbdbbf2f7	-0.09177201
40	0x3d8036a1	0.0626042
41	0x3cd6a02c	0.026199423
42	0x3dc026f1	0.093824275
43	0x3c30e090	0.010795727
44	0x3d6a6e06	0.057233833
45	0x3dbfa761	0.09358097
46	0xbd73ebe0	-0.05955112
47	0xbdbfd708	-0.09367186
48	0x3d5b1df2	0.053495355
49	0x3d819873	0.063279055
50	0xbd353857	-0.044243183
51	0x3d1be8ce	0.038063817
52	0x3c02fc80	0.007994771
53	0xbd3afffd	-0.045654286
54	0x3dc85431	0.09781683
55	0xbc61a5b0	-0.013772413
56	0xbd0c809c	-0.03430234
57	0xbc938c38	-0.018011197
58	0xbc3b3830	-0.01142697
59	0x3db951f7	0.09048837
60	0xbdbdb3e5	-0.09262828
61	0x3da12759	0.07868833
62	0xbd4d5727	-0.050131943
63	0xbdc1d7e7	-0.09465008
64	0x3d878f75	0.06619159
65	0xbbec1bb0	-0.007205449
66	0xbdc8c86f	-0.09803855
67	0xbd692c27	-0.056926873
68	0xbd97f24a	-0.0741926
69	0xbb8bdde0	-0.004268393
70	0x3ca1416c	0.019684516
71	0xbd4191a0	-0.04725802
72	0xbd56eec7	-0.05247381
73	0xbcbb55a0	-0.022867978
74	0x3d7a232a	0.06106869
75	0x3d82339b	0.06357499
76	0xbd1c5687	-0.038168456
77	0xbd8261e5	-0.06366328
78	0xbd162ef0	-0.036665857
79	0x3dbc0ca3	0.09182098
80	0x3d941b6d	0.072317936
81	0xbd2d0df3	-0.04224963
82	0xbd6f0337	-0.058352675
83	0x3d1a025e	0.037599914
84	0x3d93ca73	0.072163485
85	0x3bf4ab80	0.0074667335
86	0xba0bf500	-0.0005338937
87	0xbdaf620b	-0.08563622
88	0x3dcbbd63	0.09948232
89	0xbd32c780	-0.04364729
90	0x3dbb3c41	0.09142352
91	0x3cfe67e4	0.031055398
92	0x3bc9cb80	0.0061582923
93	0xbda998f0	-0.08281124
94	0xbcea31d8	-0.02858822
95	0xbd769623	-0.060201775
96	0xbc68ef58	-0.01421722
97	0xbd56cced	-0.052441526
98	0x3a8ffc00	0.0010985136
99	0xbd9fa590	-0.077952504
100	0xbc5223e8	-0.0128259435
101	0xbb917230	-0.004438661
102	0xbda7655d	-0.081736304
103	0x3d1dcb72	0.0385241
104	0x3d5eb196	0.054368578
105	0x3da729e9	0.081622906
106	0x3d31e972	0.04343552
107	0x3d050602	0.032476433
108	0xbc957eb8	-0.0182489
109	0x3cd9242c	0.026506506
110	0x3d2e4a5a	0.042551376
111	0xbcc9bf60	-0.024627388
112	0xbd494df3	-0.049146604
113	0xbd7038a3	-0.058647763
114	0x3c5f54a8	0.0136310235
115	0x3c9fe748	0.019519463
116	0x3d16178e	0.036643557
117	0x3c66e470	0.01409255
118	0x3cf25e2c	0.02958592
119	0xbc9e8100	-0.019348621
120	0x3d45576a	0.048179068
121	0xbd16977c	-0.03676556
122	0x3d379dc6	0.0448282
123	0xbd8fea56	-0.07027118
124	0xbc6fc7c0	-0.014635026
125	0xbd5409e0	-0.05176723
126	0x3d41dff6	0.047332726
127	0x3cd8815c	0.02642887

action_input.weight f4 [128, 7]
0	0xbc39d5ae	-0.011342449
1	0x3ab18949	0.0013544942
2	0xbcbe75d0	-0.023249537
3	0xb9f1f458	-0.00046149152
4	0xbc8e7967	-0.017391874
5	0xbb4ca3ea	-0.003122563
6	0xbb8d5def	-0.0043141763
7	0x3ab22baa	0.0013593335
8	0xbb46b6e4	-0.0030321414
9	0xba3011e7	-0.0006716535
10	0xbb901c6f	-0.004397921
11	0xbb88fbd4	-0.004180411
12	0x3b5d2c62	0.0033748378
13	0x3b3679ae	0.0027843523
14	0xbc0a6aeb	-0.008448343
15	0x3c61ebec	0.013789158
16	0x3c5026fe	0.012704609
17	0xbc3c61a0	-0.011497885
18	0x3c2ae6b8	0.010430984
19	0x3c7fde7e	0.015617011
20	0xbcb8fee4	-0.022582479
21	0xbcac4a05	-0.021031389
22	0x3c1f6cb0	0.009730503
23	0x3c72c42a	0.014817277
24	0x3b429d14	0.0029695677
25	0xbb829bf2	-0.0039858753
26	0xbb217b9d	-0.002464033
27	0xbcc57047	-0.02410139
28	0xbbb64f72	-0.00556367
29	0xbc49b92f	-0.012312218
30	0xbc41703e	-0.011806546
31	0xbbf3d202	-0.0074408064
32	0x3a9d646a	0.0012008075
33	0x3ba2311c	0.004949702
34	0x3c495cb3	0.012290168
35	0x3a5ab2e1	0.0008342695
36	0xbc07ce66	-0.008288955
37	0xbc6582b4	-0.014008213
38	0xb866da8a	-5.5039804e-05
39	0xbbd26deb	-0.0064217946
40	0x3b2cd92d	0.0026374564
41	0xbbaa664a	-0.005200182
42	0x3c4e5b8a	0.012595067
43	0xbc62076a	-0.013795713
44	0xbc0d3cde	-0.008620469
45	0xbc7c93d4	-0.015416104
46	0x3abf689e	0.0014603322
47	0x3c224a1f	0.009905367
48	0xb9b23cee	-0.00033996202
49	0xbc21c5fe	-0.009873865
50	0x3b8266c4	0.003979536
51	0xba9dfb83	-0.0012053106
52	0x3b0ececf	0.0021790748
53	0xbc473aa4	-0.012159977
54	0x3c861c5d	0.016370947
55	0x3cc10178	0.02356027
56	0xbb208574	-0.0024493607
57	0xbb5e6d8a	-0.0033939802
58	0x3bd869c1	0.0066044037
59	0xbc01df29	-0.007926741
60	0x3c6964f4	0.0142452605
61	0x3b07021b	0.002060062
62	0xbc8ae74b	-0.016955992
63	0xbc140e57	-0.009036622
64	0x3c1f36d0	0.009717658
65	0xbce3c106	-0.027802002
66	0x3ab04152	0.0013447201
67	0xbc072560	-0.008248657
68	0x3a4c4b06	0.0007793162
69	0x3ca8f4ee	0.020624604
70	0xbb036639	-0.0020049943
71	0xba5f5d15	-0.0008520645
72	0xb8e99989	-0.00011138904
73	0xbbaf0cb3	-0.00534209
74	0x3b673fc2	0.0035285805
75	0x3c90b8fc	0.017666332
76	0xbac67629	-0.0015141416
77	0x3c0c6e9b	0.008571292
78	0xbacb324f	-0.0015502664
79	0x3b71f899	0.0036921857
80	0xbb47a34a	-0.0030462318
81	0x3b4211a2	0.002961256
82	0x3c85a060	0.016311824
83	0xbbdff2f7	-0.0068343836
84	0xbaa5428e	-0.0012608336
85	0xbbdbaefd	-0.00670421
86	0x3c2bc870	0.0104848
87	0x3b9495af	0.0045344452
88	0x3c7755f4	0.015096176
89	0xbc17d307	-0.009266621
90	0xbb9e7caf	-0.004836641
91	0x3ca9aba1	0.020711722
92	0x3c37217e	0.011177419
93	0x3c88fb0f	0.016721277
94	0xbc104d0f	-0.008807435
95	0xbcd63357	-0.026147528
96	0xbbf3bf86	-0.007438603
97	0x3b0b6616	0.0021270565
98	0xbc2d8240	-0.010590136
99	0xbc2fa3e9	-0.010720232
100	0xbad46518	-0.0016204445
101	0xbbae3ce4	-0.0053173173
102	0x3c9637cd	0.018337155
103	0xbc22251d	-0.009896544
104	0x3b7c331d	0.0038482614
105	0x3bf56855	0.007489244
106	0x3abb4378	0.0014287075
107	0x3c0c331d	0.008557108
108	0xbb3c3ccd	-0.0028722764
109	0x3bbd6324	0.0057796407
110	0xbb2f47f7	-0.0026745775
111	0x3bc47960	0.0059959143
112	0xbc7bedea	-0.015376547
113	0x3b28c622	0.0025752862
114	0x3bb0b342	0.005392463
115	0x3ac01678	0.0014655134
116	0xbc4b3289	-0.012402185
117	0xbc1abe66	-0.009444809
118	0x39d9c467	0.00041535796
119	0xbb079cee	-0.0020692903
120	0x3b133829	0.0022463894
121	0xb8eb608c	-0.000112236565
122	0x3c214002	0.009841921
123	0xbafdea20	-0.0019372143
124	0x3bbc0830	0.0057382807
125	0xbc8682fb	-0.016419878
126	0x3b0de9f4	0.002165434
127	0x3c132ab7	0.008982352
128	0x3c2aebef	0.0104322275
129	0xbbf66e4f	-0.007520474
130	0x3be2fc4c	0.006927049
131	0xbb229d14	-0.0024812864
132	0x3b3d56dc	0.0028890884
133	0xbbc8b03e	-0.0061245253
134	0xba53e3f9	-0.0008082982
135	0xbc909b6f	-0.017652242
136	0xbc163074	-0.009166826
137	0x3c1b7436	0.009488156
138	0x397ac3c7	0.0002391479
139	0x3b4cd13d	0.0031252645
140	0xbb077a27	-0.0020672174
141	0xbbdb86f8	-0.006699439
142	0x3bcd782c	0.006270429
143	0xbc0a53c9	-0.0084428275
144	0xbbbae6aa	-0.005703767
145	0xbc0127c8	-0.00788302
146	0x3c22512e	0.00990705
147	0x3b4286ed	0.0029682473
148	0xbbf13ace	-0.0073617464
149	0x3b9da148	0.004810486
150	0xba6d688a	-0.000905641
151	0x3c2f16e9	0.010686615
152	0xbc036cbf	-0.008021533
153	0xbc54ca22	-0.012987645
154	0xbae32095	-0.0017328436
155	0xbc41ff2e	-0.011840625
156	0x3bea4f55	0.0071505704
157	0x3c85c33f	0.016328452
158	0xbbd835ab	-0.0065981946
159	0x3c3979fc	0.011320587
160	0xbc1a6cbb	-0.009425337
161	0x3a8eaa19	0.0010884433
162	0x3c1ed6d7	0.0096947765
163	0x3c219584	0.009862307
164	0x3c95d510	0.018290073
165	0xbb8200b9	-0.0039673713
166	0x3b26546b	0.0025379907
167	0xbc2477a6	-0.010038292
168	0xba535a35	-0.0008062453
169	0xbbadf2f6	-0.005308504
170	0x3ccce538	0.025011644
171	0x3c39900b	0.011325846
172	0xbc7c9337	-0.015415958
173	0x3ba9a784	0.00517744
174	0xbb7ec4f9	-0.003887473
175	0x3a9715b1	0.001152685
176	0x3b8dfffc	0.004333494
177	0x3c29949e	0.0103503745
178	0xbbee05e3	-0.0072638853
179	0xbbb48d12	-0.005509981
180	0x3c4151ab	0.011799256
181	0xbc47f2e2	-0.012203904
182	0xbc8aea74	-0.0169575
183	0xbbaadb06	-0.005214098
184	0xbc413fc2	-0.011794986
185	0xbba021fc	-0.0048868638
186	0xbb06a0d2	-0.0020542634
187	0xbc1e39c1	-0.009657324
188	0x3c26caae	0.010180159
189	0x3a97342b	0.0011535933
190	0xbb8c090b	-0.004273539
191	0xba5241e0	-0.00080206804
192	0x3c8fa8d8	0.017536566
193	0xbaa7c6ef	-0.0012800376
194	0xbb696127	-0.0035610886
195	0x3c1ca436	0.009560635
196	0xbc1abd58	-0.009444557
197	0xbbd87939	-0.0066062477
198	0x3c43bcf2	0.011946904
199	0x3adc527d	0.0016809251
200	0xbbbc0ad7	-0.005738597
201	0x38e87af0	0.00011085521
202	0xbc506b22	-0.012720855
203	0x3c159c71	0.009131537
204	0xbc5f696a	-0.0136359725
205	0xbac31999	-0.0014884948
206	0xbb03e0d8	-0.002012303
207	0xbb4a0ff9	-0.0030832274
208	0xbc368bcd	-0.01114173
209	0x3c2c6816	0.010522863
210	0x3c9f8df9	0.019476878
211	0xbc44c334	-0.012009431
212	0x3c5bc98f	0.0134147545
213	0x3aa4bb27	0.0012567983
214	0x3c399edd	0.01132938
215	0x3be3eb2b	0.0069555244
216	0x3c0c8104	0.008575682
217	0xba8bd9f6	-0.0010669816
218	0xbb0802d6	-0.0020753643
219	0xbbaa5078	-0.005197581
220	0xbbd303f8	-0.006439682
221	0xbc8cab52	-0.017171536
222	0x3bceaf6f	0.0063075344
223	0xba141fb9	-0.0005650479
224	0xbba3d22b	-0.004999419
225	0xbae3e264	-0.0017386195
226	0x3bf33ece	0.0074232584
227	0xbc417fb3	-0.011810231
228	0x3c4c0490	0.01245226
229	0xbc2d2a3b	-0.010569151
230	0x3cab710a	0.020927925
231	0x3c4e75c4	0.01260132
232	0x3c01c4e3	0.007920477
233	0x3c6c03e2	0.014405223
234	0xbb17b8ea	-0.002315099
235	0xbc70ccc1	-0.014697255
236	0x3c3bb806	0.011457449
237	0xbbb91b89	-0.0056490344
238	0x3c1a62fe	0.009423016
239	0xbb7b3f83	-0.0038337416
240	0xbbf75fae	-0.0075492477
241	0xbbc89955	-0.006121794
242	0x3c587597	0.013211629
243	0xbccd6fae	-0.025077667
244	0x3b145e37	0.0022639164
245	0x3c841607	0.016123785
246	0x3a5ab887	0.0008343537
247	0x3b96cd2b	0.0046020946
248	0xbc0edbff	-0.008719443
249	0x3b4cef33	0.0031270504
250	0xbbf5afbb	-0.0074977553
251	0x3b86ac3f	0.004109889
252	0xbc8c03e2	-0.017091695
253	0x3c11ba46	0.008894509
254	0x3a640a65	0.00086990587
255	0x39669658	0.00021990517

action_input.bias f4 [128]
0	0xbb907d00	-0.0044094324
1	0x3c974af8	0.018468365
2	0x3d9acfd9	0.07559175
3	0xbd0a2e16	-0.033735357
4	0x3d80ce79	0.062893815
5	0xbca08328	-0.01959379
6	0x3cc3b174	0.023888327
7	0x3c6b5790	0.014364138
8	0x3d841ba9	0.06450588
9	0x3dc50cb9	0.09621567
10	0x3d84f3dd	0.06491826
11	0x3d8e2c9d	0.06942103
12	0x3c027b18	0.007963918
13	0x3da79c19	0.0818407
14	0xbca4542c	-0.020059668
15	0xbcf1ea68	-0.029530719
16	0xbcb259e8	-0.021771386
17	0xbdb8ede7	-0.09029751
18	0xbdb57022	-0.08859278
19	0xbbf6dca0	-0.007533625
20	0xbd5edbba	-0.054408766
21	0xbdca1dc2	-0.09868957
22	0x3d49ff8a	0.049315967
23	0xbd2eb54d	-0.04265337
24	0x3d8ab169	0.067721196
25	0x3c2ed4d8	0.010670863
26	0x3d6237ae	0.05522888
27	0xbd138254	-0.036012962
28	0x3dcaefed	0.099090435
29	0x3d6ee402	0.058322914
30	0xbd52442d	-0.05133455
31	0x3c3d4570	0.0115522
32	0xbd124e96	-0.035719477
33	0xbcdadd94	-0.026716985
34	0xbc8bb920	-0.017056048
35	0x3c9247b4	0.017856456
36	0x3d6e1936	0.05812951
37	0xbdc3cac5	-0.095601596
38	0x3c076f28	0.008266248
39	0xbcc7bf8c	-0.024383329
40	0xbc0d8800	-0.008638382
41	0xbdcc5e35	-0.09978906
42	0x3d8fe779	0.07026572
43	0x3bff44a0	0.007790163
44	0xbd9965d2	-0.07490124
45	0x3d9152f5	0.07095901
46	0xbd08bef4	-0.033385232
47	0x3da736cf	0.08164751
48	0x3d7f0232	0.062257953
49	0x3d8de925	0.069292344
50	0xbd14ae3c	-0.036298975
51	0xbd4e4833	-0.050361823
52	0xbdb01a2a	-0.085987404
53	0x3d807c55	0.062737145
54	0xbda87363	-0.08225133
55	0x3d9b9559	0.07596845
56	0xbd57912a	-0.052628674
57	0x3db5d30b	0.08878144
58	0x3b75ce60	0.0037507042
59	0x3d297cb2	0.041378684
60	0x3d9f3621	0.07773996
61	0x3d78aad2	0.060709782
62	0x3dbe0de9	0.09279997
63	0x3d2e1cee	0.04250806
64	0xbdcbb29f	-0.09946179
65	0x3d2b3912	0.041802473
66	0xbdb92dcd	-0.09041939
67	0xbdbe8362	-0.09302403
68	0x3dc9aa71	0.09846962
69	0x3c980228	0.018555716
70	0x3db553f9	0.08853907
71	0x3d4a76e6	0.049429797
72	0xbc317b80	-0.010832667
73	0x3d393492	0.04521615
74	0x3d5a382a	0.05327622
75	0xba44d300	-0.0007508248
76	0xbd9d4788	-0.07679659
77	0xbdb3e722	-0.087843195
78	0x3bc2b4b0	0.00594195
79	0xbd113826	-0.035453938
80	0xbdbeaec8	-0.09310681
81	0x3db3d1d1	0.08780254
82	0xbd65bc17	-0.05608758
83	0xbd9a5ab5	-0.07536832
84	0xbc873fb8	-0.016509876
85	0x3da4ba87	0.0804339
86	0xbcee0008	-0.02905275
87	0xbd06b1ca	-0.032884397
88	0x3d9499e1	0.072559126
89	0x3d886fc7	0.06661945
90	0xbd03ea14	-0.032205656
91	0x3d2930d2	0.041306324
92	0x3cee5564	0.029093452
93	0x3db5a9bb	0.08870264
94	0x3d29464e	0.041326813
95	0xbd728c30	-0.059215724
96	0xbb1032c0	-0.0022002906
97	0xbdb27b93	-0.08714976
98	0xbd39dda3	-0.045377385
99	0x3cd28804	0.025699623
100	0xbdaf669f	-0.08564495
101	0x3d14f0da	0.036362506
102	0xbd10fab4	-0.03539534
103	0x3dba2ed7	0.09090965
104	0x3b03a140	0.0020085126
105	0x3d6b7aae	0.057490043
106	0xbd0102ba	-0.03149674
107	0x3db7da39	0.089771695
108	0x3d8644f3	0.0655612
109	0x3da9626f	0.08270728
110	0x3d288342	0.041140802
111	0x3cf5e114	0.030014552
112	0xbaf67880	-0.0018804222
113	0xbd905200	-0.0704689
114	0xbdbd9f15	-0.09258858
115	0xbd811ae8	-0.0630396
116	0x3c5bd358	0.0134170875
117	0x3d872a67	0.065998845
118	0x3d4b7b52	0.049678154
119	0xbdb42012	-0.087951794
120	0xbd9c2dc6	-0.07625918
121	0x3d41b662	0.047293074
122	0x3b8da030	0.0043220744
123	0xbda5da1b	-0.08098241
124	0x3c41af28	0.011821546
125	0xbbeba860	-0.0071917027
126	0xbd3f42b3	-0.04669447
127	0x3d558592	0.052129336

layers.0.weight f4 [256, 256]
0	0x3c38c38d	0.011277092
1	0x3bcbfffd	0.0062255845
2	0x3c0f4657	0.008744798
3	0xbc80e01f	-0.01573187
4	0x3c38f02a	0.011287728
5	0x3bb30def	0.0054643075
6	0xbbc3ceb4	-0.0059755687
7	0xbbde0627	-0.0067756358
8	0x3b7158ae	0.003682654
9	0xbc0aba7b	-0.008467312
10	0xbb879ccc	-0.0041385647
11	0xbc53837c	-0.012909766
12	0xbc052451	-0.008126334
13	0x3c584040	0.013198912
14	0xbc5de69b	-0.01354375
15	0xbbefdaca	-0.007319783
16	0x3bd364c6	0.006451222
17	0xba8e18fe	-0.0010841188
18	0xbc1e9b2e	-0.009680552
19	0x3aa97c6d	0.0012930759
20	0xbaeb9d5d	-0.0017975975
21	0xbbb5dce7	-0.0055500153
22	0x3aa8ecd6	0.0012887965
23	0x3b880586	0.004151049
24	0xbbb16157	-0.005413215
25	0x3bc4ba3e	0.006003647
26	0x3b5045c6	0.003177987
27	0xb9f598fd	-0.00046844027
28	0xbc0fab86	-0.008768922
29	0x3a571014	0.0008203995
30	0x3b1c567e	0.0023855264
31	0x3c28d25e	0.010304062
32	0xbc1948f2	-0.00935577
33	0x3c34ad64	0.011027668
34	0x3ca5c5fc	0.020236008
35	0x3b50c40f	0.0031855141
36	0xbb937dbe	-0.0045010736
37	0x3c45b21d	0.012066391
38	0xbc361e98	-0.011115693
39	0x3c2b61b4	0.010460306
40	0x3cb573bb	0.022149911
41	0xbc855d79	-0.016279923
42	0xbc388d4e	-0.011264158
43	0x3b08a4b9	0.0020850135
44	0x3c1996fe	0.009374378
45	0x3bd54433	0.006508374
46	0x3aa1e77e	0.0012352315
47	0x3c31d000	0.010852814
48	0xbc74f3e0	-0.014950722
49	0xbc40cbb5	-0.011767318
50	0x3b514b93	0.0031935915
51	0xbc0b86ff	-0.008516072
52	0x3b2d3a0b	0.0026432301
53	0xbbbe3e1e	-0.005805745
54	0xbc2174f7	-0.009854547
55	0xbc05bc5a	-0.008162582
56	0x3c01edf6	0.007930269
57	0x3bd16ce6	0.0063911555
58	0xba83fa6b	-0.0010069137
59	0xbba46d32	-0.0050179
60	0xbbf19933	-0.007372999
61	0x3c2f990d	0.0107176425
62	0x3b33ec7d	0.002745419
63	0x3bb11ff6	0.0054054214
64	0x3934e970	0.000172531
65	0x3b066a6b	0.0020510207
66	0x3b93f6e8	0.0045155175
67	0xbc409ebb	-0.011756594
68	0xbc6340f0	-0.013870463
69	0xbbb33794	-0.005469272
70	0x3c3fa1f7	0.01169633
71	0xbc811f21	-0.015761914
72	0x3c9a2f93	0.018821513
73	0xbc5c1bae	-0.013434334
74	0xbcbed8d7	-0.023296757
75	0x3b123792	0.0022310955
76	0xbad869ef	-0.0016511063
77	0x3ca5aea4	0.020224877
78	0xbbb12d27	-0.005406994
79	0xbb66dee0	-0.0035228059
80	0xbc352afe	-0.011057613
81	0x3b2f7b74	0.0026776465
82	0x3c146920	0.009058267
83	0x3b04b88b	0.0020251598
84	0x3bde3faf	0.006782494
85	0x3c271526	0.010197913
86	0x3c8266c2	0.01591814
87	0xbb8edd31	-0.004359864
88	0x3c6031fc	0.013683792
89	0xbc32710d	-0.010891211
90	0x3a808edb	0.0009808199
91	0xbc18a71b	-0.009317185
92	0xba89503f	-0.0010476186
93	0x3c8b5950	0.017010361
94	0xbc1d69db	-0.009607757
95	0xbc32c28a	-0.01091064
96	0x3c8304c2	0.01599348
97	0x3c152050	0.009101942
98	0xbca1c86d	-0.01974889
99	0xbc0cc172	-0.008591043
100	0xbb1b7872	-0.0023722914
101	0x3bfee1bd	0.007778375
102	0xbc929acf	-0.017896084
103	0x3ca87025	0.020561287
104	0x3c726461	0.01479444
105	0x3c5f5cf5	0.0136330025
106	0xbb286afe	-0.0025698538
107	0x3b78d7ee	0.00379705
108	0x3aa4f06d	0.001258386
109	0x3bdca9eb	0.006734123
110	0xbbbf4f21	-0.0058382903
111	0xbb35d364	-0.0027744407
112	0xbc9e5646	-0.019328248
113	0x3b579ea2	0.003290095
114	0x3c4d2704	0.012521509
115	0x3b9c3291	0.00476677
116	0xbbce0e05	-0.0062882924
117	0xbc3d865d	-0.011567679
118	0xbb251307	-0.0025188343
119	0x3b900766	0.004395413
120	0xbaf4d790	-0.0018679965
121	0x3bf64729	0.007515807
122	0xbcb901d8	-0.022583887
123	0xbc82e6b0	-0.015979141
124	0xba86c367	-0.0010281623
125	0xbac260c7	-0.0014829867
126	0x39c48f57	0.0003749083
127	0xbb8af29e	-0.004240348
128	0x3b5345d8	0.0032237675
129	0x3b503d1d	0.0031774708
130	0xbc128424	-0.008942638
131	0xbc456137	-0.012047104
132	0x3c6667f5	0.014062871
133	0x3c95ae94	0.018271722
134	0xbc48aec5	-0.0122487
135	0x3b9f890f	0.0048686336
136	0x3b93e6d0	0.004513599
137	0xbae305eb	-0.0017320489
138	0xbbef6192	-0.0073053325
139	0xbb9c09ae	-0.004761896
140	0xbbc2a954	-0.0059405956
141	0x3ceee20b	0.02916052
142	0x3c5821a4	0.013191614
143	0xbc062090	-0.008186474
144	0xbc9e1743	-0.019298201
145	0xbc10781e	-0.008817701
146	0x3b972f0d	0.004613763
147	0x388bf6e4	6.6740235e-05
148	0xbb07ff97	-0.0020751709
149	0xbb625cbc	-0.0034540137
150	0xbc923e57	-0.017851992
151	0xbb0db9d7	-0.0021625662
152	0x3c0ba1f7	0.008522502
153	0xbbd9c29d	-0.006645514
154	0x3a6eaf52	0.0009105104
155	0xbc25795c	-0.010099735
156	0x3c3d3664	0.011548612
157	0x3bc682b7	0.006058063
158	0x3b71ec27	0.003691444
159	0x3b2d69ae	0.0026460695
160	0xbbb84549	-0.005623494
161	0x3bb50a55	0.0055249133
162	0xbbb51d09	-0.005527143
163	0xbb1ddc34	-0.002408755
164	0xbac59670	-0.0015074741
165	0xbc7a01cc	-0.0152592175
166	0x3c102b80	0.008799434
167	0x398ec00c	0.00027227437
168	0xbbdeddaf	-0.006801329
169	0x3b2501e7	0.0025178136
170	0x3caed100	0.021339893
171	0x3c5bca06	0.013414865
172	0xbb06473d	-0.0020489239
173	0xbd0a4b9b	-0.03376351
174	0xbc81f0ff	-0.015861986
175	0x3a6ce9c6	0.00090375205
176	0x39fb6db8	0.00047956198
177	0xba870a24	-0.0010302705
178	0xbc388113	-0.011261242
179	0x3b48eba0	0.0030658022
180	0xbc6f9423	-0.014622721
181	0xbcc22510	-0.023699313
182	0x3c068e87	0.008212692
183	0x3c4250e5	0.011860107
184	0x3befe3aa	0.007320841
185	0xbc6f7755	-0.014615853
186	0xbb9e724c	-0.0048354026
187	0x3b73b018	0.0037183817
188	0x3bee95e6	0.007281053
189	0x3c2dbf3c	0.010604676
190	0x3c87e93b	0.016590705
191	0xbc4a9a19	-0.012365841
192	0xba8f0e75	-0.0010914343
193	0x3bf01f3e	0.007327943
194	0x3bef7357	0.0073074508
195	0xbaaec598	-0.0013334034
196	0x3ca9a4a7	0.020708395
197	0x3c757257	0.014980874
198	0xbc8904e8	-0.016725972
199	0x3bca1f99	0.0061683175
200	0x3b08eb1f	0.0020892096
201	0x3a372dce	0.00069877214
202	0xbb1eaa3b	-0.0024210352
203	0xbc7da93c	-0.015482243
204	0xbc815419	-0.015787171
205	0xbc168957	-0.009188018
206	0x3c0391ab	0.008030335
207	0x3c3f75cb	0.011685799
208	0xbb017e01	-0.0019758942
209	0xbbc7a860	-0.00609307
210	0x39cce5ac	0.0003908103
211	0xbc54093c	-0.012941655
212	0x3a9c9851	0.0011947249
213	0x3b861f24	0.0040930677
214	0x3ba8d800	0.0051527023
215	0xbcd1973c	-0.02558481
216	0xb9ead0be	-0.00044787483
217	0x3b8c3164	0.0042783488
218	0xbc8e984a	-0.017406601
219	0xbb7c2e4c	-0.0038479744
220	0xba1947c8	-0.0005847183
221	0xbc228681	-0.009919764
222	0x3c2cc398	0.01054468
223	0xbc598927	-0.013277329
224	0xb9bb3af4	-0.00035711343
225	0xbbc9e5dc	-0.0061614346
226	0xbae4d91e	-0.0017459725
227	0xbc23450d	-0.009965193
228	0xbba3b492	-0.004995891
229	0xbc6cf582	-0.0144628305
230	0xbb05a309	-0.0020391366
231	0x3aeaf952	0.0017927086
232	0xbb7d0e0c	-0.003861311
233	0x3bd36e18	0.006452333
234	0x3b4be48f	0.0031111573
235	0xbaaca3f9	-0.0013171426
236	0xbb8f88ef	-0.0043803374
237	0xb941e5a1	-0.00018491458
238	0x3bab31c1	0.005224437
239	0x3b9f3dbd	0.0048596547
240	0x3bad1d8e	0.005283064
241	0x3cf4f3ca	0.029901404
242	0xbaf857af	-0.001894703
243	0x3b83e7d0	0.004025437
244	0xbb181640	-0.0023206621
245	0xbbdc44bc	-0.006722061
246	0x3b8cb602	0.004294158
247	0x3b412b27	0.0029475184
248	0xbb7d8cea	-0.0038688728
249	0xbb77bc50	-0.0037801452
250	0x3c740e01	0.014895917
251	0x3c326a6e	0.010889633
252	0xbc03cbd6	-0.008044204
253	0x3b58ce8b	0.0033082094
254	0x3bc4b7a1	0.0060033356
255	0xbb2b8fc1	-0.0026178213

layers.0.bias f4 [256]
0	0x3c27ce28	0.010242023
1	0xbd872d04	-0.06600383
2	0xbd5c1977	-0.053735223
3	0xbd9416b2	-0.07230891
4	0xbdcbfa5b	-0.09959861
5	0x3d815e3b	0.06316801
6	0x3d835a11	0.06413663
7	0xbd190a56	-0.037363373
8	0xb7a3d000	-1.9527972e-05
9	0xbdb5ad07	-0.08870893
10	0x3dab8b1d	0.08376143
11	0xbcad24f4	-0.021135785
12	0xbdb1cf2b	-0.08682092
13	0x3da5072f	0.08058011
14	0x3d751222	0.059831746
15	0x3d2e59d2	0.042566128
16	0xbd87b386	-0.06626038
17	0x3da1358f	0.078715436
18	0x3dcc1c11	0.09966291
19	0xbd9ee402	-0.07758333
20	0xbd92957d	-0.07157419
21	0x3d0dfca2	0.034664758
22	0xba999ac0	-0.0011719093
23	0x3dbcd471	0.092202075
24	0xbd8768fa	-0.066118196
25	0xbd5fdb73	-0.054652642
26	0xbd705a73	-0.05868001
27	0xbd00b170	-0.031419218
28	0xbd28fc5d	-0.041256297
29	0x3d111772	0.03542275
30	0x3c367998	0.011137389
31	0xbd93e2bb	-0.0722098
32	0x3cadae6c	0.021201335
33	0x3d033fe2	0.032043345
34	0xbc629930	-0.013830468
35	0xbdc3fb6d	-0.0956944
36	0x3c5020f0	0.012703165
37	0xbd06327c	-0.03276299
38	0xbbc42780	-0.005986154
39	0xbd0749b6	-0.03302928
40	0x3daf1f75	0.08550922
41	0xbd05cb24	-0.032664433
42	0xbd91e13e	-0.0712304
43	0x3c48e068	0.012260534
44	0xbdb607f7	-0.08888238
45	0x3da0ba6f	0.078480594
46	0xbd32025a	-0.043459274
47	0x3cac17e8	0.021007493
48	0x3da8d879	0.08244414
49	0xbd49eaaa	-0.04929606
50	0xbd4a4cd7	-0.049389686
51	0x3cc40f18	0.023932979
52	0xbd5d68da	-0.054055072
53	0xbd8b7c24	-0.06810787
54	0xbdc6bddf	-0.09704184
55	0x3d804973	0.06264009
56	0xbdc496aa	-0.095990494
57	0xbd854406	-0.06507115
58	0xbae35c00	-0.0017346144
59	0xbdad6f40	-0.08468485
60	0xbcfd0b08	-0.03088905
61	0x3b76eaa0	0.0037676468
62	0xbd494d07	-0.049145725
63	0xbc105c00	-0.008810997
64	0x3cbd9fe0	0.023147523
65	0xbcacd50c	-0.021097682
66	0x3dc12339	0.09430546
67	0x3d74c31e	0.05975639
68	0xbd30d84d	-0.04317503
69	0x3d881127	0.066438965
70	0xbd814a20	-0.06312966
71	0x3d7ba556	0.061436974
72	0xbc8bd774	-0.01707051
73	0xbd47bda7	-0.04876485
74	0x3ce360ec	0.027756177
75	0x3db6c809	0.089248724
76	0x3d99f285	0.0751696
77	0xbd867734	-0.06565705
78	0xbd4973ea	-0.04918281
79	0xbd0399aa	-0.032128967
80	0x3c5d5130	0.013508126
81	0x3d962fbd	0.07333324
82	0xbd932fb0	-0.0718683
83	0x3d23e122	0.040009625
84	0xbdcaca5b	-0.099018775
85	0x3d915149	0.07095582
86	0x3da69e99	0.08135719
87	0xbdb6c13a	-0.08923574
88	0xbd6e02b3	-0.058108043
89	0x3dc3ec51	0.09566558
90	0x3cd6e38c	0.02623155
91	0x3d81fe77	0.063473634
92	0xbd393863	-0.04521979
93	0xbd88f1d4	-0.0668675
94	0x3dbf8a7d	0.093525864
95	0x3d9d1d6d	0.07671628
96	0xbd9cb9a3	-0.07652595
97	0xbccb8e00	-0.024847984
98	0x3d9d4561	0.076792486
99	0x3ca2a78c	0.019855283
100	0xbc8cf7ac	-0.017207943
101	0xbd9f0c15	-0.07765976
102	0xbd5f66ba	-0.054541327
103	0xbda6d420	-0.081459284
104	0xbcd765f4	-0.026293732
105	0x3ca79998	0.020458981
106	0xbd97ad4d	-0.074061014
107	0xbd257300	-0.040392876
108	0xbd3a6780	-0.04550886
109	0x3d659772	0.056052633
110	0xbccec214	-0.025239028
111	0x3d924009	0.0714112
112	0xbd8151a5	-0.063144006
113	0xbd99194a	-0.07475527
114	0x3d5e8852	0.054329224
115	0x3d353a42	0.044245012
116	0xbd90a953	-0.07063546
117	0xbc90a1a0	-0.017655194
118	0xb9b29d00	-0.0003406778
119	0xbcbbf70c	-0.02294495
120	0xbdab70ca	-0.08371122
121	0xbd946662	-0.072460905
122	0xbda72e55	-0.08163134
123	0x3d682502	0.05667592
124	0x3c395a98	0.011313103
125	0x3da9d385	0.08292297
126	0x3daba9c1	0.08381987
127	0x3d935c49	0.07195336
128	0xbd9c61a6	-0.076358125
129	0xbc266b50	-0.010157421
130	0xbdbc8b67	-0.092062764
131	0xbcb6cb38	-0.0223137
132	0xbd1532fa	-0.03642557
133	0x3d61ed82	0.055158146
134	0x3c9b90a0	0.018989861
135	0xbd3919b7	-0.04519054
136	0x3d8afeb9	0.06786866
137	0x3d3bad1a	0.04581938
138	0xbcf9dfe0	-0.03050226
139	0x3d92a911	0.07161153
140	0xbdc8c5ef	-0.09803378
141	0xbd661e40	-0.056181192
142	0x3c168bb0	0.0091885775
143	0xbcc9a580	-0.02461505
144	0x3bcbabd0	0.00621555
145	0xbdb3750f	-0.087625615
146	0xbd751a03	-0.05983926
147	0x3dc6f429	0.097145386
148	0xbcfd4e68	-0.030921176
149	0xbd87435e	-0.06604646
150	0xbd914080	-0.070923805
151	0xbb013460	-0.0019715056
152	0x3d819e53	0.06329026
153	0x3dbf544b	0.093422495
154	0xbd44b78d	-0.04802661
155	0x3daee725	0.08540181
156	0xbdbc1bc7	-0.091849856
157	0x3cf05b1c	0.02934032
158	0x3da3db69	0.080008335
159	0x3da780ab	0.08178838
160	0xbceca720	-0.028888285
161	0x3dbdf5d1	0.092754014
162	0xbc8ea268	-0.017411426
163	0x3d76d086	0.060257457
164	0x3bbe7c80	0.0058131814
165	0x3d8f3387	0.0699225
166	0x3d842485	0.06452278
167	0xbd8eb350	-0.06967795
168	0x3db56e3f	0.088589184
169	0xbd93279d	-0.0718529
170	0x3d122de2	0.03568829
171	0xbd63e5e7	-0.055639174
172	0x3c74b530	0.014935777
173	0x3d711a32	0.058862872
174	0x3d79cc8e	0.060986094
175	0x3d9d459b	0.07679292
176	0xbdc621f8	-0.09674448
177	0x3d59faaa	0.053217568
178	0x3d3a2232	0.045442767
179	0x3d871bc7	0.06597095
180	0xbd9942ab	-0.07483419
181	0x3d5df84e	0.05419188
182	0x3d389e7a	0.04507301
183	0x3da7e4d9	0.08197946
184	0x3b01da40	0.0019813925
185	0x3d85f005	0.06539921
186	0xbda8ac8a	-0.08236034
187	0xbd1a62f7	-0.037692036
188	0xbdc0dcb8	-0.09417099
189	0x3dc74d63	0.09731557
190	0x3daae18f	0.08343803
191	0x3c8ff66c	0.017573558
192	0xbd9c3215	-0.0762674
193	0xbd4e289d	-0.0503317
194	0x3cb3870c	0.021914981
195	0x3d960977	0.07326024
196	0x3bed4080	0.007240355
197	0xbd80f815	-0.06297318
198	0x3c969214	0.018380202
199	0x3d536c3e	0.0516169
200	0x3d076e2e	0.03306406
201	0xbd31f8a3	-0.04345001
202	0x3d086de2	0.033307917
203	0xbd1ff113	-0.039048266
204	0xbc955d54	-0.018232979
205	0xbdc0509b	-0.09390374
206	0xbb2214c0	-0.0024731606
207	0x3c46dee8	0.012138106
208	0x3cf64024	0.030059882
209	0x3d25272a	0.040320553
210	0x3c861108	0.016365543
211	0xbda711bb	-0.08157679
212	0x3db6fcfb	0.08934971
213	0x3d07286e	0.03299754
214	0x3d0f684e	0.035011582
215	0xbc7ac5a8	-0.015305914
216	0x3d656e32	0.056013294
217	0xbd9f4c98	-0.07778281
218	0xbdb6ccda	-0.08925791
219	0x3da34981	0.07973004
220	0x3dc201d9	0.09473009
221	0xbd9428a3	-0.07234313
222	0x3d901609	0.07035453
223	0x3bf22e80	0.007390797
224	0x3cdead54	0.027182259
225	0x3da3afb9	0.07992501
226	0x3a8ff280	0.0010982305
227	0x3da0fa19	0.07860202
228	0x3b8d6c60	0.004315898
229	0xbaca3580	-0.0015427321
230	0x3d86b871	0.06578148
231	0x3d3974f2	0.045277543
232	0x3c1de170	0.009636268
233	0xbdc9e782	-0.0985861
234	0x3d770272	0.060305066
235	0xbd563e70	-0.05230564
236	0x3dba7409	0.09104163
237	0x3d419656	0.047262512
238	0x3d49f536	0.049306117
239	0xbd481b1d	-0.048853982
240	0xbd55cadd	-0.05219542
241	0xbce09468	-0.027414516
242	0xbdc50363	-0.096197866
243	0xbce8e278	-0.028428301
244	0xbd845908	-0.06462294
245	0x3d248672	0.04016728
246	0xbdab299d	-0.083575465
247	0x3dadb8e1	0.084825285
248	0xbcc0c04c	-0.023529194
249	0xbda138e2	-0.07872178
250	0xbd781c3a	-0.060573794
251	0x3d9e964d	0.07743511
252	0xbcf05e98	-0.02934198
253	0x3dc72f4d	0.09725819
254	0xbd242a57	-0.04007944
255	0xbd59e700	-0.053198814

layers.3.weight f4 [256]
0	0x3f800000	1.0
1	0x3f800000	1.0
2	0x3f800000	1.0
3	0x3f800000	1.0
4	0x3f800000	1.0
5	0x3f800000	1.0
6	0x3f800000	1.0
7	0x3f800000	1.0
8	0x3f800000	1.0
9	0x3f800000	1.0
10	0x3f800000	1.0
11	0x3f800000	1.0
12	0x3f800000	1.0
13	0x3f800000	1.0
14	0x3f800000	1.0
15	0x3f800000	1.0
16	0x3f800000	1.0
17	0x3f800000	1.0
18	0x3f800000	1.0
19	0x3f800000	1.0
20	0x3f800000	1.0
21	0x3f800000	1.0
22	0x3f800000	1.0
23	0x3f800000	1.0
24	0x3f800000	1.0
25	0x3f800000	1.0
26	0x3f800000	1.0
27	0x3f800000	1.0
28	0x3f800000	1.0
29	0x3f800000	1.0
30	0x3f800000	1.0
31	0x3f800000	1.0
32	0x3f800000	1.0
33	0x3f800000	1.0
34	0x3f800000	1.0
35	0x3f800000	1.0
36	0x3f800000	1.0
37	0x3f800000	1.0
38	0x3f800000	1.0
39	0x3f800000	1.0
40	0x3f800000	1.0
41	0x3f800000	1.0
42	0x3f800000	1.0
43	0x3f800000	1.0
44	0x3f800000	1.0
45	0x3f800000	1.0
46	0x3f800000	1.0
47	0x3f800000	1.0
48	0x3f800000	1.0
49	0x3f800000	1.0
50	0x3f800000	1.0
51	0x3f800000	1.0
52	0x3f800000	1.0
53	0x3f800000	1.0
54	0x3f800000	1.0
55	0x3f800000	1.0
56	0x3f800000	1.0
57	0x3f800000	1.0
58	0x3f800000	1.0
59	0x3f800000	1.0
60	0x3f800000	1.0
61	0x3f800000	1.0
62	0x3f800000	1.0
63	0x3f800000	1.0
64	0x3f800000	1.0
65	0x3f800000	1.0
66	0x3f800000	1.0
67	0x3f800000	1.0
68	0x3f800000	1.0
69	0x3f800000	1.0
70	0x3f800000	1.0
71	0x3f800000	1.0
72	0x3f800000	1.0
73	0x3f800000	1.0
74	0x3f800000	1.0
75	0x3f800000	1.0
76	0x3f800000	1.0
77	0x3f800000	1.0
78	0x3f800000	1.0
79	0x3f800000	1.0
80	0x3f800000	1.0
81	0x3f800000	1.0
82	0x3f800000	1.0
83	0x3f800000	1.0
84	0x3f800000	1.0
85	0x3f800000	1.0
86	0x3f800000	1.0
87	0x3f800000	1.0
88	0x3f800000	1.0
89	0x3f800000	1.0
90	0x3f800000	1.0
91	0x3f800000	1.0
92	0x3f800000	1.0
93	0x3f800000	1.0
94	0x3f800000	1.0
95	0x3f800000	1.0
96	0x3f800000	1.0
97	0x3f800000	1.0
98	0x3f800000	1.0
99	0x3f800000	1.0
100	0x3f800000	1.0
101	0x3f800000	1.0
102	0x3f800000	1.0
103	0x3f800000	1.0
104	0x3f800000	1.0
105	0x3f800000	1.0
106	0x3f800000	1.0
107	0x3f800000	1.0
108	0x3f800000	1.0
109	0x3f800000	1.0
110	0x3f800000	1.0
111	0x3f800000	1.0
112	0x3f800000	1.0
113	0x3f800000	1.0
114	0x3f800000	1.0
115	0x3f800000	1.0
116	0x3f800000	1.0
117	0x3f800000	1.0
118	0x3f800000	1.0
119	0x3f800000	1.0
120	0x3f800000	1.0
121	0x3f800000	1.0
122	0x3f800000	1.0
123	0x3f800000	1.0
124	0x3f800000	1.0
125	0x3f800000	1.0
126	0x3f800000	1.0
127	0x3f800000	1.0
128	0x3f800000	1.0
129	0x3f800000	1.0
130	0x3f800000	1.0
131	0x3f800000	1.0
132	0x3f800000	1.0
133	0x3f800000	1.0
134	0x3f800000	1.0
135	0x3f800000	1.0
136	0x3f800000	1.0
137	0x3f800000	1.0
138	0x3f800000	1.0
139	0x3f800000	1.0
140	0x3f800000	1.0
141	0x3f800000	1.0
142	0x3f800000	1.0
143	0x3f800000	1.0
144	0x3f800000	1.0
145	0x3f800000	1.0
146	0x3f800000	1.0
147	0x3f800000	1.0
148	0x3f800000	1.0
149	0x3f800000	1.0
150	0x3f800000	1.0
151	0x3f800000	1.0
152	0x3f800000	1.0
153	0x3f800000	1.0
154	0x3f800000	1.0
155	0x3f800000	1.0
156	0x3f800000	1.0
157	0x3f800000	1.0
158	0x3f800000	1.0
159	0x3f800000	1.0
160	0x3f800000	1.0
161	0x3f800000	1.0
162	0x3f800000	1.0
163	0x3f800000	1.0
164	0x3f800000	1.0
165	0x3f800000	1.0
166	0x3f800000	1.0
167	0x3f800000	1.0
168	0x3f800000	1.0
169	0x3f800000	1.0
170	0x3f800000	1.0
171	0x3f800000	1.0
172	0x3f800000	1.0
173	0x3f800000	1.0
174	0x3f800000	1.0
175	0x3f800000	1.0
176	0x3f800000	1.0
177	0x3f800000	1.0
178	0x3f800000	1.0
179	0x3f800000	1.0
180	0x3f800000	1.0
181	0x3f800000	1.0
182	0x3f800000	1.0
183	0x3f800000	1.0
184	0x3f800000	1.0
185	0x3f800000	1.0
186	0x3f800000	1.0
187	0x3f800000	1.0
188	0x3f800000	1.0
189	0x3f800000	1.0
190	0x3f800000	1.0
191	0x3f800000	1.0
192	0x3f800000	1.0
193	0x3f800000	1.0
194	0x3f800000	1.0
195	0x3f800000	1.0
196	0x3f800000	1.0
197	0x3f800000	1.0
198	0x3f800000	1.0
199	0x3f800000	1.0
200	0x3f800000	1.0
201	0x3f800000	1.0
202	0x3f800000	1.0
203	0x3f800000	1.0
204	0x3f800000	1.0
205	0x3f800000	1.0
206	0x3f800000	1.0
207	0x3f800000	1.0
208	0x3f800000	1.0
209	0x3f800000	1.0
210	0x3f800000	1.0
211	0x3f800000	1.0
212	0x3f800000	1.0
213	0x3f800000	1.0
214	0x3f800000	1.0
215	0x3f800000	1.0
216	0x3f800000	1.0
217	0x3f800000	1.0
218	0x3f800000	1.0
219	0x3f800000	1.0
220	0x3f800000	1.0
221	0x3f800000	1.0
222	0x3f800000	1.0
223	0x3f800000	1.0
224	0x3f800000	1.0
225	0x3f800000	1.0
226	0x3f800000	1.0
227	0x3f800000	1.0
228	0x3f800000	1.0
229	0x3f800000	1.0
230	0x3f800000	1.0
231	0x3f800000	1.0
232	0x3f800000	1.0
233	0x3f800000	1.0
234	0x3f800000	1.0
235	0x3f800000	1.0
236	0x3f800000	1.0
237	0x3f800000	1.0
238	0x3f800000	1.0
239	0x3f800000	1.0
240	0x3f800000	1.0
241	0x3f800000	1.0
242	0x3f800000	1.0
243	0x3f800000	1.0
244	0x3f800000	1.0
245	0x3f800000	1.0
246	0x3f800000	1.0
247	0x3f800000	1.0
248	0x3f800000	1.0
249	0x3f800000	1.0
250	0x3f800000	1.0
251	0x3f800000	1.0
252	0x3f800000	1.0
253	0x3f800000	1.0
254	0x3f800000	1.0
255	0x3f800000	1.0

layers.3.bias f4 [256]
0	0x00000000	0.0
1	0x00000000	0.0
2	0x00000000	0.0
3	0x00000000	0.0
4	0x00000000	0.0
5	0x00000000	0.0
6	0x00000000	0.0
7	0x00000000	0.0
8	0x00000000	0.0
9	0x00000000	0.0
10	0x00000000	0.0
11	0x00000000	0.0
12	0x00000000	0.0
13	0x00000000	0.0
14	0x00000000	0.0
15	0x00000000	0.0
16	0x00000000	0.0
17	0x00000000	0.0
18	0x00000000	0.0
19	0x00000000	0.0
20	0x00000000	0.0
21	0x00000000	0.0
22	0x00000000	0.0
23	0x00000000	0.0
24	0x00000000	0.0
25	0x00000000	0.0
26	0x00000000	0.0
27	0x00000000	0.0
28	0x00000000	0.0
29	0x00000000	0.0
30	0x00000000	0.0
31	0x00000000	0.0
32	0x00000000	0.0
33	0x00000000	0.0
34	0x00000000	0.0
35	0x00000000	0.0
36	0x00000000	0.0
37	0x00000000	0.0
38	0x00000000	0.0
39	0x00000000	0.0
40	0x00000000	0.0
41	0x00000000	0.0
42	0x00000000	0.0
43	0x00000000	0.0
44	0x00000000	0.0
45	0x00000000	0.0
46	0x00000000	0.0
47	0x00000000	0.0
48	0x00000000	0.0
49	0x00000000	0.0
50	0x00000000	0.0
51	0x00000000	0.0
52	0x00000000	0.0
53	0x00000000	0.0
54	0x00000000	0.0
55	0x00000000	0.0
56	0x00000000	0.0
57	0x00000000	0.0
58	0x00000000	0.0
59	0x00000000	0.0
60	0x00000000	0.0
61	0x00000000	0.0
62	0x00000000	0.0
63	0x00000000	0.0
64	0x00000000	0.0
65	0x00000000	0.0
66	0x00000000	0.0
67	0x00000000	0.0
68	0x00000000	0.0
69	0x00000000	0.0
70	0x00000000	0.0
71	0x00000000	0.0
72	0x00000000	0.0
73	0x00000000	0.0
74	0x00000000	0.0
75	0x00000000	0.0
76	0x00000000	0.0
77	0x00000000	0.0
78	0x00000000	0.0
79	0x00000000	0.0
80	0x00000000	0.0
81	0x00000000	0.0
82	0x00000000	0.0
83	0x00000000	0.0
84	0x00000000	0.0
85	0x00000000	0.0
86	0x00000000	0.0
87	0x00000000	0.0
88	0x00000000	0.0
89	0x00000000	0.0
90	0x00000000	0.0
91	0x00000000	0.0
92	0x00000000	0.0
93	0x00000000	0.0
94	0x00000000	0.0
95	0x00000000	0.0
96	0x00000000	0.0
97	0x00000000	0.0
98	0x00000000	0.0
99	0x00000000	0.0
100	0x00000000	0.0
101	0x00000000	0.0
102	0x00000000	0.0
103	0x00000000	0.0
104	0x00000000	0.0
105	0x00000000	0.0
106	0x00000000	0.0
107	0x00000000	0.0
108	0x00000000	0.0
109	0x00000000	0.0
110	0x00000000	0.0
111	0x00000000	0.0
112	0x00000000	0.0
113	0x00000000	0.0
114	0x00000000	0.0
115	0x00000000	0.0
116	0x00000000	0.0
117	0x00000000	0.0
118	0x00000000	0.0
119	0x00000000	0.0
120	0x00000000	0.0
121	0x00000000	0.0
122	0x00000000	0.0
123	0x00000000	0.0
124	0x00000000	0.0
125	0x00000000	0.0
126	0x00000000	0.0
127	0x00000000	0.0
128	0x00000000	0.0
129	0x00000000	0.0
130	0x00000000	0.0
131	0x00000000	0.0
132	0x00000000	0.0
133	0x00000000	0.0
134	0x00000000	0.0
135	0x00000000	0.0
136	0x00000000	0.0
137	0x00000000	0.0
138	0x00000000	0.0
139	0x00000000	0.0
140	0x00000000	0.0
141	0x00000000	0.0
142	0x00000000	0.0
143	0x00000000	0.0
144	0x00000000	0.0
145	0x00000000	0.0
146	0x00000000	0.0
147	0x00000000	0.0
148	0x00000000	0.0
149	0x00000000	0.0
150	0x00000000	0.0
151	0x00000000	0.0
152	0x00000000	0.0
153	0x00000000	0.0
154	0x00000000	0.0
155	0x00000000	0.0
156	0x00000000	0.0
157	0x00000000	0.0
158	0x00000000	0.0
159	0x00000000	0.0
160	0x00000000	0.0
161	0x00000000	0.0
162	0x00000000	0.0
163	0x00000000	0.0
164	0x00000000	0.0
165	0x00000000	0.0
166	0x00000000	0.0
167	0x00000000	0.0
168	0x00000000	0.0
169	0x00000000	0.0
170	0x00000000	0.0
171	0x00000000	0.0
172	0x00000000	0.0
173	0x00000000	0.0
174	0x00000000	0.0
175	0x00000000	0.0
176	0x00000000	0.0
177	0x00000000	0.0
178	0x00000000	0.0
179	0x00000000	0.0
180	0x00000000	0.0
181	0x00000000	0.0
182	0x00000000	0.0
183	0x00000000	0.0
184	0x00000000	0.0
185	0x00000000	0.0
186	0x00000000	0.0
187	0x00000000	0.0
188	0x00000000	0.0
189	0x00000000	0.0
190	0x00000000	0.0
191	0x00000000	0.0
192	0x00000000	0.0
193	0x00000000	0.0
194	0x00000000	0.0
195	0x00000000	0.0
196	0x00000000	0.0
197	0x00000000	0.0
198	0x00000000	0.0
199	0x00000000	0.0
200	0x00000000	0.0
201	0x00000000	0.0
202	0x00000000	0.0
203	0x00000000	0.0
204	0x00000000	0.0
205	0x00000000	0.0
206	0x00000000	0.0
207	0x00000000	0.0
208	0x00000000	0.0
209	0x00000000	0.0
210	0x00000000	0.0
211	0x00000000	0.0
212	0x00000000	0.0
213	0x00000000	0.0
214	0x00000000	0.0
215	0x00000000	0.0
216	0x00000000	0.0
217	0x00000000	0.0
218	0x00000000	0.0
219	0x00000000	0.0
220	0x00000000	0.0
221	0x00000000	0.0
222	0x00000000	0.0
223	0x00000000	0.0
224	0x00000000	0.0
225	0x00000000	0.0
226	0x00000000	0.0
227	0x00000000	0.0
228	0x00000000	0.0
229	0x00000000	0.0
230	0x00000000	0.0
231	0x00000000	0.0
232	0x00000000	0.0
233	0x00000000	0.0
234	0x00000000	0.0
235	0x00000000	0.0
236	0x00000000	0.0
237	0x00000000	0.0
238	0x00000000	0.0
239	0x00000000	0.0
240	0x00000000	0.0
241	0x00000000	0.0
242	0x00000000	0.0
243	0x00000000	0.0
244	0x00000000	0.0
245	0x00000000	0.0
246	0x00000000	0.0
247	0x00000000	0.0
248	0x00000000	0.0
249	0x00000000	0.0
250	0x00000000	0.0
251	0x00000000	0.0
252	0x00000000	0.0
253	0x00000000	0.0
254	0x00000000	0.0
255	0x00000000	0.0

layers.3.running_mean f4 [256]
0	0x00000000	0.0
1	0x00000000	0.0
2	0x00000000	0.0
3	0x00000000	0.0
4	0x00000000	0.0
5	0x00000000	0.0
6	0x00000000	0.0
7	0x00000000	0.0
8	0x00000000	0.0
9	0x00000000	0.0
10	0x00000000	0.0
11	0x00000000	0.0
12	0x00000000	0.0
13	0x00000000	0.0
14	0x00000000	0.0
15	0x00000000	0.0
16	0x00000000	0.0
17	0x00000000	0.0
18	0x00000000	0.0
19	0x00000000	0.0
20	0x00000000	0.0
21	0x00000000	0.0
22	0x00000000	0.0
23	0x00000000	0.0
24	0x00000000	0.0
25	0x00000000	0.0
26	0x00000000	0.0
27	0x00000000	0.0
28	0x00000000	0.0
29	0x00000000	0.0
30	0x00000000	0.0
31	0x00000000	0.0
32	0x00000000	0.0
33	0x00000000	0.0
34	0x00000000	0.0
35	0x00000000	0.0
36	0x00000000	0.0
37	0x00000000	0.0
38	0x00000000	0.0
39	0x00000000	0.0
40	0x00000000	0.0
41	0x00000000	0.0
42	0x00000000	0.0
43	0x00000000	0.0
44	0x00000000	0.0
45	0x00000000	0.0
46	0x00000000	0.0
47	0x00000000	0.0
48	0x00000000	0.0
49	0x00000000	0.0
50	0x00000000	0.0
51	0x00000000	0.0
52	0x00000000	0.0
53	0x00000000	0.0
54	0x00000000	0.0
55	0x00000000	0.0
56	0x00000000	0.0
57	0x00000000	0.0
58	0x00000000	0.0
59	0x00000000	0.0
60	0x00000000	0.0
61	0x00000000	0.0
62	0x00000000	0.0
63	0x00000000	0.0
64	0x00000000	0.0
65	0x00000000	0.0
66	0x00000000	0.0
67	0x00000000	0.0
68	0x00000000	0.0
69	0x00000000	0.0
70	0x00000000	0.0
71	0x00000000	0.0
72	0x00000000	0.0
73	0x00000000	0.0
74	0x00000000	0.0
75	0x00000000	0.0
76	0x00000000	0.0
77	0x00000000	0.0
78	0x00000000	0.0
79	0x00000000	0.0
80	0x00000000	0.0
81	0x00000000	0.0
82	0x00000000	0.0
83	0x00000000	0.0
84	0x00000000	0.0
85	0x00000000	0.0
86	0x00000000	0.0
87	0x00000000	0.0
88	0x00000000	0.0
89	0x00000000	0.0
90	0x00000000	0.0
91	0x00000000	0.0
92	0x00000000	0.0
93	0x00000000	0.0
94	0x00000000	0.0
95	0x00000000	0.0
96	0x00000000	0.0
97	0x00000000	0.0
98	0x00000000	0.0
99	0x00000000	0.0
100	0x00000000	0.0
101	0x00000000	0.0
102	0x00000000	0.0
103	0x00000000	0.0
104	0x00000000	0.0
105	0x00000000	0.0
106	0x00000000	0.0
107	0x00000000	0.0
108	0x00000000	0.0
109	0x00000000	0.0
110	0x00000000	0.0
111	0x00000000	0.0
112	0x00000000	0.0
113	0x00000000	0.0
114	0x00000000	0.0
115	0x00000000	0.0
116	0x00000000	0.0
117	0x00000000	0.0
118	0x00000000	0.0
119	0x00000000	0.0
120	0x00000000	0.0
121	0x00000000	0.0
122	0x00000000	0.0
123	0x00000000	0.0
124	0x00000000	0.0
125	0x00000000	0.0
126	0x00000000	0.0
127	0x00000000	0.0
128	0x00000000	0.0
129	0x00000000	0.0
130	0x00000000	0.0
131	0x00000000	0.0
132	0x00000000	0.0
133	0x00000000	0.0
134	0x00000000	0.0
135	0x00000000	0.0
136	0x00000000	0.0
137	0x00000000	0.0
138	0x00000000	0.0
139	0x00000000	0.0
140	0x00000000	0.0
141	0x00000000	0.0
142	0x00000000	0.0
143	0x00000000	0.0
144	0x00000000	0.0
145	0x00000000	0.0
146	0x00000000	0.0
147	0x00000000	0.0
148	0x00000000	0.0
149	0x00000000	0.0
150	0x00000000	0.0
151	0x00000000	0.0
152	0x00000000	0.0
153	0x00000000	0.0
154	0x00000000	0.0
155	0x00000000	0.0
156	0x00000000	0.0
157	0x00000000	0.0
158	0x00000000	0.0
159	0x00000000	0.0
160	0x00000000	0.0
161	0x00000000	0.0
162	0x00000000	0.0
163	0x00000000	0.0
164	0x00000000	0.0
165	0x00000000	0.0
166	0x00000000	0.0
167	0x00000000	0.0
168	0x00000000	0.0
169	0x00000000	0.0
170	0x00000000	0.0
171	0x00000000	0.0
172	0x00000000	0.0
173	0x00000000	0.0
174	0x00000000	0.0
175	0x00000000	0.0
176	0x00000000	0.0
177	0x00000000	0.0
178	0x00000000	0.0
179	0x00000000	0.0
180	0x00000000	0.0
181	0x00000000	0.0
182	0x00000000	0.0
183	0x00000000	0.0
184	0x00000000	0.0
185	0x00000000	0.0
186	0x00000000	0.0
187	0x00000000	0.0
188	0x00000000	0.0
189	0x00000000	0.0
190	0x00000000	0.0
191	0x00000000	0.0
192	0x00000000	0.0
193	0x00000000	0.0
194	0x00000000	0.0
195	0x00000000	0.0
196	0x00000000	0.0
197	0x00000000	0.0
198	0x00000000	0.0
199	0x00000000	0.0
200	0x00000000	0.0
201	0x00000000	0.0
202	0x00000000	0.0
203	0x00000000	0.0
204	0x00000000	0.0
205	0x00000000	0.0
206	0x00000000	0.0
207	0x00000000	0.0
208	0x00000000	0.0
209	0x00000000	0.0
210	0x00000000	0.0
211	0x00000000	0.0
212	0x00000000	0.0
213	0x00000000	0.0
214	0x00000000	0.0
215	0x00000000	0.0
216	0x00000000	0.0
217	0x00000000	0.0
218	0x00000000	0.0
219	0x00000000	0.0
220	0x00000000	0.0
221	0x00000000	0.0
222	0x00000000	0.0
223	0x00000000	0.0
224	0x00000000	0.0
225	0x00000000	0.0
226	0x00000000	0.0
227	0x00000000	0.0
228	0x00000000	0.0
229	0x00000000	0.0
230	0x00000000	0.0
231	0x00000000	0.0
232	0x00000000	0.0
233	0x00000000	0.0
234	0x00000000	0.0
235	0x00000000	0.0
236	0x00000000	0.0
237	0x00000000	0.0
238	0x00000000	0.0
239	0x00000000	0.0
240	0x00000000	0.0
241	0x00000000	0.0
242	0x00000000	0.0
243	0x00000000	0.0
244	0x00000000	0.0
245	0x00000000	0.0
246	0x00000000	0.0
247	0x00000000	0.0
248	0x00000000	0.0
249	0x00000000	0.0
250	0x00000000	0.0
251	0x00000000	0.0
252	0x00000000	0.0
253	0x00000000	0.0
254	0x00000000	0.0
255	0x00000000	0.0
