scripts/model_params/sbread_20_critic.pth (torch, 386226 bytes, 17 tensors)

state_input.weight f4 [128, 65]
00000000: 9b50 21bb f659 c8ba c551 733a 9409 a5ba
00000010: 5346 06bb 6f1e ce35 0cea 85b9 72d2 e0b9
00000020: c250 9339 8c93 a1bb 501f 52ba a686 a1b9
00000030: 65b9 06bb 300b 3cb9 5300 e0ba 7bd6 06bb
00000040: 32fc cf3a 0c9a 99b9 ec0c 01bb 7103 0d39
00000050: 8706 013b d027 aaba 98cb 2739 aaa4 793a
00000060: 386a a1ba c654 77ba 2804 a1b9 0482 0cba
00000070: 48ea f138 c4e7 b73c 7924 7e39 1cc8 b139
00000080: d9d7 05bb e85e 45b9 771e f9ba 8874 2ab9
00000090: 1ce4 e3ba 2676 883a 14ee 4aba d973 013b
000000a0: b1ef 353b d0b8 34b8 09c1 3e38 5868 b23a
000000b0: e8fd 5a39 7c64 c5b6 68d4 7c3a 9893 04bb
000000c0: 6c31 ed39 4b10 ee3a f6f5 e6ba 79b0 e03a
000000d0: f7a9 62ba a69e 2fbc b831 94b9 72cc 4e39
000000e0: 59d7 063b 8249 bf3a 76ae 9c39 b4ba af39
000000f0: 1c2c ae38 9eb1 16b7 9798 ac3a 4068 b4b7
00000100: f3f5 d13b 01c0 0839 e6ac e9ba 10e5 9bb9
00000110: 18bd 44bb fc17 2d39 405b b437 0408 b0ba
00000120: 02c7 013b 2b8d ef3a c24b de3a dcc8 c2b9
00000130: 286a aab8 5472 853a 0344 4db9 edd0 8aba
00000140: 055b 9e39 c97e d43a b957 de3a 4a70 923a
00000150: a878 f337 94d7 453a ce2e 39b9 be35 b939
00000160: 4f65 e0ba c6f8 c3b8 88fc 4d3b 8676 01bb
00000170: e4a6 51b8 3683 95b9 9849 3cba a084 fcba
00000180: f8c0 fbb8 8923 043b f2a6 153b 62fa 1839
00000190: 9d28 f4ba 100c 8738 357e 65ba 530e 993b
000001a0: 5cd4 113a caf8 013b 98e6 df3a 663e b5ba
000001b0: 54c3 373a 4ada c5ba bb0e 46bc 580f 303a
000001c0: 8c25 833a 58cb da37 880a 06bb 92fc af39
000001d0: 74c4 b23b 5bc8 fdba 9811 90b9 c446 fbba
000001e0: 5ff0 62ba 5259 b6ba 5732 01bb 9e83 d2ba
000001f0: b767 9539 63ff 06bb cfe8 b1b9 4c91 60b9
00000200: b0f9 7b39 e8a9 3ab9 9b75 abb9 3628 8f39
00000210: 043e 9aba 3625 0bbc d4fd d5ba 2889 b1b9
00000220: 5001 07bb 7acd 97b8 a0d2 05bb 081b b13a
00000230: bb56 01b5 5d74 34bb 381a 9a39 445d 82ba
00000240: e7f2 bb39 f53f 7bba 76e2 153a 3cef 50b8
00000250: 3d19 4c39 380d 9f37 8c13 b6ba 00e6 a1b7
00000260: b61a 043b 11a8 8239 fa11 acb9 2060 b9bb
00000270: b6b2 d8b9 0729 03bb 4e69 e23a a704 05bb
00000280: f869 b6b8 28c6 9dba ea19 e3ba 3f39 a43a
00000290: 7de6 06bb 7cd4 bf3a fb8f fe3a 11f4 1d3a
000002a0: 1c7b 0539 94c8 f03a f88f 10b9 aad4 8b3a
000002b0: 4ac1 aa39 00a7 e13a 1c2d 4dbc 107f 003b
000002c0: e0d4 84b7 74ca bab9 b5f9 0aba a12a a5b9
000002d0: c829 e738 bd1b aeba 8ae3 b63a 0e35 80bb
000002e0: 84f1 453a 4c44 ea3a bbe8 06bb 4b63 9f3b
000002f0: 5fdb 97b8 1081 b0ba 10c0 213a 8829 3db8
00000300: fbe3 5b3b 79bb f3ba 2809 4b3b 0781 ac3a
00000310: 8a31 fdba 12d2 633c 6008 acba 6abc 8039
00000320: 246a 37b9 7ef4 7dbb 0f05 9eb9 f161 9f3a
00000330: a6c1 a8ba b1be 2bbc ad5e df39 87b7 06bb
00000340: c979 75bb 6ca7 f73a d067 9eba 4bc1 4bbc
00000350: 5fd9 e73a 40e0 43ba 8f60 c5ba 0593 da3a
00000360: 2d54 063b 23da 4ab9 b6c5 fbba e0dc 233b
00000370: c05b 63b7 7389 0d39 591c 013b d15c b9ba
00000380: 9efc 07bc 1334 36ba c330 edba 1489 06bb
00000390: 5d5b 51b8 2acb cfb8 f672 a638 d491 bc3a
000003a0: b28d bfb9 b4ba 11bb 867e d63b 7ffa 063b
000003b0: 868f 663a b519 e2ba d21d 043b 77e5 a7bb
000003c0: 1e7a 8eb9 1005 58b9 e535 91ba e01e 0239
000003d0: 1d89 49ba 42a5 af3a 8764 953a c159 843a
000003e0: 9045 a4ba f232 68b9 8871 b9ba ee71 023b
000003f0: 3980 05bb 64dc 32bb 964b e338 01bd a7b9
-0.0024614695 -0.00152856 0.0009281899 -0.0012591355 -0.0020488694 1.5357053e-06 -0.00025542115 -0.00042881403
0.00028098194 -0.004930919 -0.000801553 -0.00030808634 -0.002055728 -0.00017933245 -0.001708994 -0.0020574618
0.0015868007 -0.00029297208 -0.001969154 0.0001344809 0.0019687728 -0.0012981836 0.00016002206 0.0009523133
-0.0012314981 -0.00094349345 -0.0003071141 -0.000535995 0.00011535414 0.022449382 0.00024236915 0.00033909164
-0.0020422845 -0.0001882274 -0.0019006272 -0.00016255875 -0.0017386707 0.0010411188 -0.0007741165 0.0019752888
0.0027761275 -4.3087464e-05 4.5479308e-05 0.0013611419 0.00020884688 -5.8827554e-06 0.0009644688 -0.0020229574
0.00045240985 0.0018162815 -0.001762091 0.0017142437 -0.00086465426 -0.010718977 -0.00028265803 0.00019721853
0.0020575135 0.0014594051 0.00029884622 0.00033517706 8.3051826e-05 -8.982051e-06 0.0013168034 -2.1506217e-05
0.0064074933 0.00013041498 -0.0017828017 -0.0002973457 -0.0030019935 0.000165075 2.1500164e-05 -0.0013430123
0.0019802456 0.0018276324 0.0016959833 -0.00037152215 -8.126005e-05 0.0010181167 -0.0001957566 -0.0010590829
0.00030203923 0.0016212101 0.0016963399 0.0011172381 2.9024042e-05 0.0007547077 -0.00017660411 0.0003532599
-0.0017120036 -9.344662e-05 0.0031431038 -0.0019754483 -4.9984912e-05 -0.00028517254 -0.0007182597 -0.00192656
-0.00012004556 0.0020162782 0.0022835103 0.00014589124 -0.0018627826 6.4395485e-05 -0.0008754463 0.004670897
0.0005562955 0.0019832128 0.0017082272 -0.00138278 0.0007010002 -0.0015094962 -0.012088473 0.00067161536
0.0010005697 2.6082314e-05 -0.0020453054 0.0003356678 0.005455548 -0.0019362079 -0.0002747893 -0.001917087
-0.0008657034 -0.0013912118 -0.0019713843 -0.0016060953 0.00028496768 -0.0020599 -0.00033933527 -0.00021416432
0.00024030241 -0.00017801637 -0.00032703285 0.00027305045 -0.001176775 -0.0084927585 -0.0016326257 -0.0003386226
-0.0020600148 -7.238514e-05 -0.0020419732 0.0013512084 -4.8182454e-07 -0.0027535178 0.00029392703 -0.0009946008
0.00035848396 -0.00095844205 0.0005717644 -4.981387e-05 0.00019464358 1.8960432e-05 -0.0013891323 -1.9299798e-05
0.0020157523 0.00024920751 -0.0003281979 -0.005657211 -0.0004133188 -0.0020013468 0.0017273815 -0.0020296962
-8.6981745e-05 -0.0012037205 -0.0017326449 0.0012529268 -0.002058416 0.0014635469 0.0019421572 0.00060254434
0.0001272973 0.0018370324 -0.00013786543 0.0010668237 0.00032568938 0.0017215908 -0.012522962 0.0019606985
-1.5834754e-05 -0.00035627524 -0.00053014915 -0.00031503013 0.00011022721 -0.0013283413 0.001395331 -0.0039125746
0.0007550942 0.0017873137 -0.0020585496 0.0048641316 -7.241102e-05 -0.0013466198 0.0006170282 -4.509979e-05
0.0033552635 -0.00185953 0.00309808 0.0013161012 -0.0019317132 0.013905065 -0.0013125055 0.00024554442
-0.0001749178 -0.0038750465 -0.00030139877 0.0012159926 -0.0012875095 -0.010482476 0.00042604413 -0.0020556168
-0.0037456623 0.00188945 -0.0012085382 -0.012436221 0.0017688683 -0.00074720755 -0.0015058684 0.0016675895
0.002049695 -0.00019345483 -0.0019208703 0.0025003478 -1.3551617e-05 0.00013498012 0.0019700734 -0.0014142041
-0.008299975 -0.00069505087 -0.0018096197 -0.0020528482 -4.991457e-05 -9.9083714e-05 7.93691e-05 0.0014386722
-0.0003653593 -0.0022236528 0.0065458445 0.0020596085 0.00087951904 -0.0017250093 0.0020159376 -0.00512379
-0.00027175335 -0.00020601251 -0.0011078684 0.00012409268 -0.0007687973 0.0013400691 0.0011397757 0.001009755
-0.0012532938 -0.00022144223 -0.0014148215 0.0019904333 -0.0020370616 -0.0027292008 0.000108382825 -0.0003199354

state_input.bias f4 [128]
00000000: bd4d b4bc d69c 3e3d 9403 053d 4aec a4bb
00000010: fdc1 5a3a 7505 643c 0105 5dbd fab6 b8bc
00000020: 67da 893d 0d33 94bd 389e 0e3c 2c23 25bd
00000030: 0c36 063b a7f0 0bbd a7ba 71bb 3d9c 03bb
00000040: aca5 6dbd 100c b537 0185 873d a965 223d
00000050: ec7b 1cbd 4d0d 74bd f1c1 efbb b49b 54b9
00000060: 69df c1bc b4f2 a1bd b295 133d c202 553b
00000070: abfb 85bd 82f2 9bbd b20b 2b3c 7166 9339
00000080: ac02 df3c 1883 6cbd b3f7 243d 7207 f6bb
00000090: 4797 a33d f6a0 0d3d 19cc 923d 2de5 a53c
000000a0: ad2a b0b9 463e 743d 9090 31bc da77 8a3d
000000b0: b2a3 47bd 0215 8a3d ed09 8f3d 2d7c 0a3d
000000c0: d7d7 0fbd 6b59 d53b e86a 893d 0444 23bd
000000d0: 389f 0d3d 0add fa3b 7c3e 8d3d 780a 443d
000000e0: 6e4f 373d 3cce 77bd 2fc2 34bd 39ea 8abd
000000f0: 6cc7 d13c 4992 2f3d 8c67 25bd 811c f03a
00000100: 8a6b 3ebd 657c 6c3d 7f65 0f3d bc47 133d
00000110: 30df 10bc 8a53 91bd e31a 9c3d 4323 2ebd
00000120: d44e 433d dd29 7bbc 7af1 7f3c e7a2 f63c
00000130: c222 9abb 0694 3bb9 3aa8 85bd c7a1 08bd
00000140: 55f7 903d 1585 fb3a ea61 a73c 2582 573d
00000150: 562f 45bb 71f1 9ebd 51aa 8cbd a186 8ebc
00000160: 08ef 48bc 79f3 55bc c483 97bd 9e98 573c
00000170: e2c0 313d 9f0a 1dbc 1c55 2c3c 81c3 10bc
00000180: 77eb 833d e4b6 85b9 cce8 92bd 4ef6 9dbc
00000190: 2939 90bc 846d 79bc 9f50 3f3c 2cfb d13b
000001a0: 52e6 743d 48db c53c 229d 88bd 09da 25bd
000001b0: f5e6 a7bd 6b91 90bd 2598 a63d ca8c 9fbc
000001c0: 692f 15bc 5046 a93d 3cce ffbc 5dcb 5abd
000001d0: 18d8 dd3a 817f 0d3d 806c 6c3d 51a7 e73c
000001e0: 325e 06bb bafc 09bc 2e19 673d fe64 8639
000001f0: 5a3f 5c3b 1220 2cbd a43b 823b a3d0 4d3d
-0.022009725 0.04653629 0.032474115 -0.0050330507 0.00083449465 0.013917317 -0.05395985 -0.022548188
0.0673111 -0.072363 0.0087047145 -0.040316746 0.0020478992 -0.03416505 -0.0036884935 -0.002008214
-0.058019325 2.1582498e-05 0.06617165 0.039647732 -0.03820412 -0.059582997 -0.007316821 -0.000202759
-0.0236661 -0.0790762 0.036031432 0.0032502864 -0.065421425 -0.07614614 0.0104398 0.0002811435
0.027222954 -0.05774221 0.040275287 -0.007508212 0.07987838 0.034577332 0.07167835 0.020250881
-0.00033601132 0.0596297 -0.010837689 0.06761141 -0.048740096 0.06742288 0.06984315 0.03380983
-0.03511795 0.0065109036 0.06709844 -0.039859787 0.03457567 0.0076557444 0.068966836 0.047861546
0.044753484 -0.060499415 -0.0441305 -0.06782956 0.025607787 0.042864118 -0.040381953 0.0018319042
-0.046489276 0.05773582 0.035008904 0.035957083 -0.008842275 -0.07096012 0.07622316 -0.042514097
0.0476826 -0.015329805 0.015621537 0.030106975 -0.0047038505 -0.00017888853 -0.06526227 -0.033357408
0.07078425 0.0019189442 0.020432431 0.05261435 -0.003008803 -0.07760895 -0.06868423 -0.01739818
-0.012264021 -0.013058537 -0.07398179 0.013158945 0.043396838 -0.009585052 0.0105183385 -0.008835674
0.06441396 -0.00025504 -0.07173309 -0.019282486 -0.017605381 -0.0152238645 0.011676936 0.006408116
0.059789963 0.024152413 -0.06670596 -0.040491138 -0.081983484 -0.07058986 0.08134488 -0.019476313
-0.009105542 0.08265364 -0.03122627 -0.0534166 0.0016925363 0.034545425 0.05772066 0.028278025
-0.0020502922 -0.008422071 0.056420498 0.00025633717 0.0033607096 -0.042022772 0.003974395 0.0502478

action_input.weight f4 [128, 21]
00000000: a24e 483a ac33 53ba 5247 4c3c b94d b4ba
00000010: 51f5 e93b 4e3c fdbb 50d0 2f3b fcfc 1fbc
00000020: 9902 183c 56c3 b63b 59df 9b3c e946 12bc
00000030: 28e0 14bc 6563 453b d030 053c 77fb 443c
00000040: 90d0 353a b576 b83b e223 533c b8ea 7dbb
00000050: 4f24 c13c 5586 48bc 1605 ccb9 9dc4 54bc
00000060: 6c73 9fbc ad46 fa39 831c 96bc d247 2bbc
00000070: 2a9d 15bc 9bac 91bc 68fa bbbb 4426 1fbc
00000080: 54af 8dbc 9fa5 d23c 517c 97bc d9d9 003b
00000090: 6432 60bc 96d5 23bc d35a 8abc b670 e4bb
000000a0: 3fa7 513c 7e11 7fbc 3089 adbb fd56 473b
000000b0: 3256 95bb e336 013c e978 95bb b64f 5fbc
000000c0: 6547 9e3b 5c0d 093c a55d cc3b 3453 163c
000000d0: 7a3a 5bbb 2257 993c c773 013c 5d4d 113c
000000e0: 801b be3b d802 ee3b add1 8b3c 02cc 933c
000000f0: b4c9 813b 2fcd 88b9 deda 383c 0e66 e7bb
00000100: 69eb 0bbc 982a 09bc 1071 613c fd21 42bc
00000110: b268 bebc c3d4 c43a a544 59bc 0d54 95bb
00000120: fb30 28bc 1e71 8b3c 5c35 7dbb e976 c6ba
00000130: 29ca eabb 82f5 1fbc 4657 c33a 81e4 49bb
00000140: 1112 8abb 66fa 8abb 954c 28bb 07a1 bc3b
00000150: 865d 233c b0d1 37bc 865f ba3b 4e29 133b
00000160: 9618 913a ab7e 8c3c f48f 0c3c 60ff 9339
00000170: 2e14 74bc e619 babb 8631 8a3b da35 36bc
00000180: 92a1 4d3c 0f3c 71bc 6590 1cbc c965 3ebc
00000190: ba14 aa3a 8e5e ad3b 2a44 c1bb eacb 14bc
000001a0: 7f9d 2cbb c1d1 b0bb 3d45 2fbc 8855 9639
000001b0: 9cd3 15bc 4757 89ba 56f5 cd3a d9bb 13bc
000001c0: 9fea cf3b 7f92 c83c 083c 45bc 935b 04bc
000001d0: bad2 93bb 33f8 0b3b 3193 6cba c7b9 27bc
000001e0: 9c7f 8e3c 1bb1 8d3c 6b11 843c 205b a53b
000001f0: d6c4 8f3c 144f 2abb aae4 42bc 74e8 ab3a
00000200: dba0 dc3b 2b21 7b3c 3913 e2bb 8d76 8c3c
00000210: 0abe 80bb a14d d8bc ee38 28bc abbd 5a3b
00000220: acbd c9bc e5f8 a03b 470c 1d3c 6111 a9bc
00000230: 58c3 9aba 018e c9bb 1012 70bc 7250 d93b
00000240: cc9e 43ba 82e5 523c 3ae3 b03b 120f d93b
00000250: a04f 023c 3158 3bbc ba13 d3bb c24b 4e3c
00000260: f0fa 6ebb 731d 60bc 56e0 90bb 8c50 dfbc
00000270: 4ff7 afbb 16bc edbb 867a 54bc d866 3d3c
00000280: 7bf6 ddbb 0428 f6bb 0314 e3ba 26ba 6dba
00000290: cc64 253c 5bd0 90bc f7b4 d8ba 42b1 12bd
000002a0: e706 97bb f652 0abc 3e48 e8bb 29df c53b
000002b0: 4d28 41bc 7bee f3bb d798 d83b 8020 2d3c
000002c0: e222 903b c5ed 2bbc 02c0 8bbb 68fe f1bb
000002d0: 82e0 693c 9f1b adbb f844 6fb8 e1ee 8fbb
000002e0: 9302 7dbc 265c 4aba 78a2 c8ba 7c0b c4ba
000002f0: e55e 343c 35dd 25bc 8f01 713c 81f4 443c
00000300: 2693 553b 517d 5cbc 4105 7bbc e84e 13bc
00000310: 2e22 10bc 4085 65ba c759 053c d5e6 03bc
00000320: 5126 9a3b ef7c a7bb 0aae 8bbb c869 19bb
00000330: ee50 2fbc be95 8dbb af5a 0fbc c78a 35bc
00000340: 789f 3b3c 72ca bbbb 922d 8dbc d563 2d3c
00000350: 0791 6b3c 0d0a 293c 5b7a 6bbc 53f4 cf3b
00000360: 831c 15bb ae8c 5b3c 5a9e 9b3b 7670 d7ba
00000370: 049c d2b9 df46 ab3c d25d 593c bc2a 1c3c
00000380: 2997 94bc 3c0b 3dbc 26df 1139 bd8f 663c
00000390: 68be c33b f3a3 19bc 0716 96bc c89b a037
000003a0: 8692 2dbc f491 e538 b695 d33b b394 673c
000003b0: c69f 1f3c 1c49 d6bb 63cf 493b 8722 3fbc
000003c0: a4e1 37bc 5c39 84bb 099f 7fbb 2d2b 823b
000003d0: 8f5f 843c 892b 7dbb 8a64 7f3c 34f4 dfbb
000003e0: e339 c2ba 4dfc be3b 2531 d33a 7edb 4f3b
000003f0: 0b12 37bb a8ef b4b8 d7e2 21bc 67c0 ec3c
0.0007641112 -0.0008056711 0.012468176 -0.0013756073 0.0071398397 -0.007728136 0.0026827045 -0.009764906
0.009277963 0.005577485 0.019027399 -0.008928039 -0.009086646 0.0030119058 0.008129314 0.0120228445
0.000693568 0.0056293854 0.012886973 -0.003874464 0.023576884 -0.0122390585 -0.000389137 -0.012986329
-0.019464217 0.00047736373 -0.018324142 -0.010454135 -0.009131709 -0.0177825 -0.005736638 -0.009713713
-0.017295517 0.02571374 -0.018491896 0.0019661097 -0.013683889 -0.009999653 -0.016889011 -0.006971444
0.012796222 -0.015568135 -0.005295895 0.003041684 -0.0045573944 0.007886621 -0.0045615328 -0.013629844
0.0048302882 0.0083650015 0.0062367492 0.009175111 -0.0033451603 0.018718306 0.007901139 0.0088685425
0.005801618 0.0072635226 0.017067755 0.018041614 0.0039608125 -0.00026092815 0.011282651 -0.0070617264
-0.008540013 -0.008371972 0.013759866 -0.011848924 -0.023243282 0.0015017021 -0.013260995 -0.004557139
-0.010265584 0.017021712 -0.003863654 -0.0015141639 -0.0071652126 -0.0097631235 0.0014903329 -0.0030806365
-0.0042135795 -0.0042412756 -0.0025680412 0.0057565006 0.009971028 -0.011219427 0.005687657 0.002245504
0.0011069949 0.017150244 0.008579243 0.00028228294 -0.014897389 -0.005679357 0.0042173294 -0.011121238
0.012550728 -0.014723792 -0.009555911 -0.011620947 0.0012976148 0.005290813 -0.0058980184 -0.00908182
-0.0026338992 -0.0053960984 -0.01069766 0.00028673955 -0.00914469 -0.0010478281 0.0015713375 -0.009016954
0.0063451077 0.024483917 -0.012038238 -0.008078474 -0.0045112045 0.0021357655 -0.0009024619 -0.010237164
0.017394833 0.017296365 0.016121587 0.0050462633 0.017549913 -0.0025987076 -0.011895338 0.0013115541
0.0067330427 0.015327732 -0.006899264 0.017146373 -0.0039289044 -0.026404204 -0.010267479 0.003337721
-0.024626575 0.004912483 0.009585447 -0.02063817 -0.0011807485 -0.0061509614 -0.014652744 0.0066319043
-0.0007462322 0.012872102 0.0053981813 0.006624111 0.007953554 -0.011434601 -0.0064415606 0.012591304
-0.0036465488 -0.013678896 -0.004421274 -0.027260087 -0.0053700577 -0.0072550876 -0.012968665 0.011560164
-0.0067737675 -0.0075120945 -0.001732469 -0.0009068571 0.010094833 -0.017677477 -0.0016533424 -0.035813577
-0.004608977 -0.008442631 -0.00708869 0.0060385657 -0.011789394 -0.0074442006 0.006610017 0.010566831
0.0043986896 -0.0104937 -0.0042648325 -0.007385064 0.014274718 -0.0052828337 -5.7046273e-05 -0.0043924903
-0.015442508 -0.00077194197 -0.0015307209 -0.0014957036 0.011008953 -0.010123541 0.014709844 0.012021185
0.0032588928 -0.013457612 -0.015321077 -0.008990981 -0.008797212 -0.00087555125 0.00813908 -0.00805064
0.0047042747 -0.005111329 -0.0042626904 -0.0023408998 -0.0107004475 -0.004320829 -0.008749648 -0.01108045
0.0114515945 -0.0057309205 -0.017233644 0.010582884 0.014377839 0.010317338 -0.014372434 0.0063462644
-0.002275259 0.01340024 0.0047491016 -0.0016436714 -0.00040170562 0.020907817 0.013266997 0.009531673
-0.018138485 -0.011538323 0.00013911407 0.014072356 0.005973626 -0.009377467 -0.01832105 1.9146028e-05
-0.010594016 0.00010946757 0.006457056 0.014134574 0.009742683 -0.006539477 0.0030793778 -0.011665947
-0.0112232305 -0.004035158 -0.0039004704 0.003972432 0.016158847 -0.0038630685 0.015587935 -0.006834531
-0.0014818277 0.0058284164 0.0016112669 0.003171652 -0.0027934338 -8.627708e-05 -0.009880743 0.028900338

action_input.bias f4 [128]
00000000: 9f9d 513d 934d 8fbd 382c af3c 7199 393d
00000010: 1e78 1ebb 284f ccbd b0a2 e9bc b412 543d
00000020: f3db 6d3d a697 13bd ee66 2fbd 9422 9f3d
00000030: 1aa8 23bd d844 3f3d f1ca ea3c 1003 16bd
00000040: 22ae e83c 0d51 e83c 4112 c7bd 8afc 893c
00000050: 1b75 b1bc df19 9a3d a55b 8bbd 8621 383c
00000060: 35f7 d1bd 3da8 bd3d f9e9 6d3d 2e59 6b3d
00000070: ab77 18bd 5b93 d73c 9ce4 763c 8a59 273d
00000080: 2096 92bd c80e 87bd 6b41 b83d 72f0 9d3d
00000090: 16b3 cdbd 26dd 15bd 3dfc c53d 352e cd3d
000000a0: 3bf2 033d a346 cfbc b19f 84bd 4069 28bd
000000b0: 6f56 47bd 9550 8d3d f11c 64bd 90ab cc3c
000000c0: 785b 6abb acb2 963d 2081 9abd 6cfc a83c
000000d0: 3ffc 4abd 05f4 9dbc 4d7d b1bc 2658 dc3c
000000e0: bc0d 2a3d 5b17 b43c aca1 9e3d 85e7 283a
000000f0: b640 79bd 822d 933c ba54 f5bc 4c74 68bd
00000100: c2bf cfbd 4bde 86bd 9b06 69bd f358 1d3d
00000110: ed18 e9bb e76f 95bd b4f4 a43d 0b42 073d
00000120: 4db2 9e3c f1b4 63bd cc26 343d 75cb e7bb
00000130: 94e3 6ebd 4760 a13d 30ae 5d3b 7185 053d
00000140: 0c99 75bc b3af e0bb 433a 01bc 5a84 a13d
00000150: 97fe a63d b0cb 3cbd fe36 a13d ae91 833d
00000160: 378f 533d e001 81bd a97c a2bd ffaf 71bd
00000170: 155d bd3d bf46 813d 1083 ec3c e2cb 053c
00000180: 7a05 693d 3603 333d 644a 433d 3409 bebd
00000190: 942d 5abd 0a6e e5bb c130 423a ef79 1f3c
000001a0: 3045 a43d 4aa7 cf3d 1f81 a9bd 2955 81bd
000001b0: fd95 753d b457 a1bd ef2f 8bbd c0e3 383d
000001c0: 9e6f eb3c 3582 c4bc 6a13 38bd cc94 ff3c
000001d0: 6a3d a03d 7025 90bd e2f5 12bd 0b66 9f38
000001e0: e759 b4bd e952 59bd 8b6e a9bd e1f2 afbc
000001f0: 674b 3e3d 6fff 1e3c 8aaf f0bb fb27 a9bd
0.05117571 -0.06997218 0.02138339 0.04531235 -0.0024180482 -0.09976035 -0.028519958 0.05177565
0.058071088 -0.036033295 -0.04282277 0.07770267 -0.039955236 0.046696514 0.028661223 -0.036624014
0.028403345 0.02835896 -0.097202785 0.016844053 -0.021662286 0.07524466 -0.06804589 0.011238461
-0.10252229 0.092606045 0.05808446 0.057458095 -0.0372235 0.026315382 0.015069153 0.040856875
-0.0715754 -0.06594616 0.089968525 0.07711877 -0.100439236 -0.036587857 0.09667251 0.10018579
0.03221343 -0.025302237 -0.06475771 -0.041116 -0.048666414 0.069001354 -0.055691663 0.024984151
-0.0035760086 0.07358298 -0.0754416 0.020628177 -0.049556967 -0.019281397 -0.021666193 0.026897501
0.041517004 0.021983793 0.0774568 0.00064431905 -0.06085273 0.017966036 -0.029947627 -0.056751534
-0.10143997 -0.06585368 -0.056891065 0.038414907 -0.007113567 -0.07296734 0.08054486 0.033021968
0.01937213 -0.05559248 0.043982312 -0.0070738145 -0.058322504 0.078796916 0.0033825748 0.032597963
-0.0149901025 -0.0068568825 -0.007887426 0.07886572 0.08154028 -0.04609269 0.07871817 0.064242706
0.051650252 -0.06299186 -0.07933933 -0.059005734 0.092462696 0.06312322 0.02887109 0.008166285
0.05688999 0.043704234 0.047678366 -0.09279099 -0.053266123 -0.007001643 0.00074077776 0.009733661
0.08021009 0.1013933 -0.08276581 -0.06315071 0.059957493 -0.07878056 -0.06796252 0.045139074
0.028739747 -0.023987869 -0.04494039 0.031198882 0.07824214 -0.07038391 -0.035879023 7.600718e-05
-0.0880621 -0.053057585 -0.082730375 -0.021478118 0.046458628 0.009704455 -0.0073451446 -0.08259579

layers.0.weight f4 [256, 256]
00000000: cbd6 4a3a f609 daba 6259 843a 68c2 16bc
00000010: d171 6d3c a22e 1d3c daff c93b d81d 90b8
00000020: 7f33 5f3b 3066 e8ba 45dc 843c 9f24 0fbb
00000030: b46f d33b 3c11 e2bc 432d 2dbc 9d7a 153b
00000040: c887 333c c928 5f3b 456b 96bc 8c59 383c
00000050: 455e a9bb 2a81 593c ca52 5b3c bdc0 843c
00000060: 7521 b4bb f4ea 64bc a906 533c 2d63 40bc
00000070: 285e ee3c 917c 01bc e361 6d3b ee0e adbc
00000080: 483c 16bc 8c95 f63b b771 5e3c e628 6d3b
00000090: 866a da3a 71b4 2dbc 2016 9fbb fc9b a63b
000000a0: d8c4 ac3b d6bf 0cba a43b 27bc a64c 1f3b
000000b0: 1332 56bc 98d0 0e3c 8433 8ebb 9763 03bc
000000c0: a016 e83b a61d e1ba 0231 3abc 0d13 62bc
000000d0: b628 953a ff5e 9abb 879e 7b3c a87d 23bc
000000e0: fd01 5b3b 0b05 853b ce65 d73b 4199 e73b
000000f0: c529 343c 77a4 453c 7a49 04bc a06d 483c
00000100: 53ca 90bc cc69 a53b f38c 3e3c 12f4 5bbc
00000110: b707 6a3c ce50 b1bb 8bda a7bb 5081 bcbc
00000120: d410 5bbb a3ee 0b3a bb64 a83b a748 20bc
00000130: 3fb0 c93b 38d0 03bc 1519 26bb c184 a9bc
00000140: 2bd4 8e3b faac 903b fe63 09bc 9d48 ac3b
00000150: 8d69 2cbc a4f0 cfb9 badc bf3a d766 97bb
00000160: 650d f53b 4c44 df3b 789a 683b 597b f0ba
00000170: c72e cebb 76bd 46bc d066 83bb ade9 a3bb
00000180: 63bb 84bb 0fb4 4e3c 23a2 c73b 7f5d 183c
00000190: 83ae dd3b 73a8 c8bc bccc 86bc a86a fdbb
000001a0: 842d a73b a110 be3c 49f3 fcbb db92 c03c
000001b0: 9433 813c c3d1 f6bc 0bb9 133b 880a fcbb
000001c0: 0412 afba 47a6 72bc 2765 7a3c d41f 2b3c
000001d0: 1a9c 17b9 1821 6eba f0a6 b43b 11b0 6a3c
000001e0: 54f4 ce3a 23e3 a3ba 288f 453b ae90 e8bc
000001f0: 8ca0 55bc f058 763b 63e8 c3bb 0220 afba
00000200: ee9a b03b 2da4 7cbc 07a5 da3b 2b6b ff3b
00000210: 4d1d 663c a688 afbc 0e29 a13b a83a a9b9
00000220: 1c8a b73c 8bc7 503c 32a1 c4ba 4661 63bb
00000230: 0ab7 f33b 640f 3b3b 23af b0bc 58d5 82bc
00000240: 4d40 133c 3817 28bc 38f1 22bc 17d4 87bb
00000250: 7fa4 b03c 8c40 043b 9af6 02ba 756b 0d3c
00000260: d167 8a3c a999 1a3c 7a0b c33b 5429 aebb
00000270: f00e 32bc 3619 8c3b 688a ed38 54e4 043b
00000280: 4c19 c3ba 5398 033c c571 203a f1ee 4ebc
00000290: 4b56 acbc 4726 b23b 0a69 073c 1f5f 863c
000002a0: d205 9e3b aa86 3abc c6f2 23bc 485d b8bb
000002b0: 8d7a 133c 4113 6abc c15c 8c3c c4c1 b8bc
000002c0: dd11 35bc e5ec df3c b59b c73b 7e46 83bc
000002d0: 2058 aabc 06bc 64bc 8e22 00bc dcb4 273c
000002e0: f347 2dbc 7de1 19bc 55b0 4cbc f201 d6bb
000002f0: f8b6 093c 8747 7e3c 0c69 553c 7157 1b3c
00000300: db06 7d3c 8b08 083c f353 973b 38b5 ed3b
00000310: 3d8e 00bc 3b1a dc3c 47ea 24bc 0c09 fe3b
00000320: c82d dbb9 04cf d53a 1585 41bc 1541 00bd
00000330: 386e 9e3b b32e 2d3c 4693 e23a 720f 1e3d
00000340: c8d5 593b 5a3e a3bc ce1a 8139 657e 833b
00000350: 15fe b8ba 46bb 3ebc 7bbf 8d3c 3219 edbb
00000360: 8a6f 85bb b0d0 4c3b beb5 083c 61ea c1bc
00000370: 960f 243b 63df b03b 36f1 f43b 2e67 ffba
00000380: 49b5 20bb f476 bbbb 382c 8dbc 5eff 52bb
00000390: d6d7 b03b 0622 c8ba a3f7 be3b cfc7 0ebc
000003a0: aedd 31ba 0e59 3a3c b080 b8bb 9a70 603c
000003b0: 9bf2 933c fd54 93bb 3db2 ce3c 57df b83b
000003c0: f8d9 103b 55a5 213c d3fe 9b3c 5026 1abc
000003d0: 8b25 90bc bf7c 8e3c 001e 07bb 5e93 1c3c
000003e0: ef9f 3bbb a0c7 ccbc 1300 89bc 2955 b63c
000003f0: 6e0d b73c a7dd f03b 3e71 8d3c 0bdc 8cba
0.0007737695 -0.0016635049 0.0010097439 -0.0092016235 0.014492468 0.009593638 0.006164533 -6.872014e-05
0.0034057794 -0.001773065 0.016218314 -0.0021841896 0.006452525 -0.027596109 -0.010569873 0.002280868
0.010957666 0.003405141 -0.018361697 0.011251818 -0.0051687085 0.013275424 0.013386438 0.016205186
-0.0054971525 -0.013972033 0.012880006 -0.011742395 0.029097632 -0.007903234 0.0036221675 -0.021125283
-0.009169646 0.0075251516 0.013576916 0.0036187707 0.0016663827 -0.010602103 -0.0048549324 0.0050845128
0.005272489 -0.0005369162 -0.0102070905 0.002430716 -0.013073462 0.008716725 -0.0043396372 -0.00801935
0.0070827752 -0.0017174974 -0.011364223 -0.013798487 0.0011379931 -0.0047110314 0.01535762 -0.009978689
0.0033417933 0.004059439 0.0065734154 0.00706783 0.010996287 0.012063137 -0.008074159 0.012233168
-0.0176746 0.0050480124 0.011630285 -0.01342489 0.014284066 -0.005411244 -0.005122488 -0.02301088
-0.0033426778 0.0005337989 0.005138961 -0.009782947 0.0061550434 -0.008045249 -0.002534454 -0.020693185
0.0043587885 0.0044151517 -0.008385656 0.0052576796 -0.010523212 -0.00039661408 0.0014637925 -0.0046204138
0.0074784034 0.0068135615 0.0035492461 -0.0018347307 -0.0062921974 -0.012130132 -0.004010059 -0.0050022216
-0.0040506586 0.0126161715 0.0060923262 0.009299635 0.006765188 -0.024494385 -0.016455047 -0.0077336617
0.0051018614 0.023201289 -0.0077194315 0.023507526 0.015771665 -0.030129319 0.0022540714 -0.007691685
-0.001335681 -0.014810151 0.015282906 0.0104446 -0.00014458635 -0.0009083911 0.0055130646 0.014324204
0.0015789368 -0.0012503605 0.0030145142 -0.028389301 -0.013038766 0.0037589632 -0.0059786304 -0.001336098
0.005389563 -0.015420002 0.006672505 0.007794758 0.014045072 -0.021427464 0.004918224 -0.00032277894
0.022404723 0.012742887 -0.0015001653 -0.003469543 0.0074375914 0.002854311 -0.021567887 -0.01597087
0.0089874985 -0.010259442 -0.009945206 -0.004145156 0.021562813 0.0020180074 -0.0004995853 0.008631577
0.016895207 0.0094360495 0.005952296 -0.0053149853 -0.010867819 0.0042754663 0.00011326821 0.0020277696
-0.0014884858 0.008031922 0.00061204686 -0.01263021 -0.021037241 0.005436692 0.008264789 0.01640278
0.004822471 -0.0113846455 -0.010006612 -0.0056263544 0.009001386 -0.014286817 0.017134072 -0.022553332
-0.011051622 0.02733464 0.00609156 -0.016024824 -0.020793974 -0.013960844 -0.0078207385 0.010235991
-0.010576236 -0.0093921395 -0.012493213 -0.0065309936 0.00840544 0.015519983 0.013025533 0.009481297
0.015443529 0.008302818 0.004618162 0.007254269 -0.007846412 0.026867976 -0.010065622 0.0077525433
-0.00041805045 0.0016312306 -0.011811514 -0.031312067 0.0048349164 0.010570216 0.0017286323 0.03858895
0.0033238996 -0.019927192 0.00024624768 0.00401287 -0.0014113808 -0.011641329 0.017303219 -0.0072356695
-0.0040721344 0.0031252317 0.008344112 -0.02367133 0.0025033704 0.0053977235 0.0074750436 -0.0019485706
-0.0024522117 -0.0057209674 -0.017233 -0.0032195668 0.0053968234 -0.0015268929 0.0058278604 -0.00871463
-0.0006785047 0.011373771 -0.005630575 0.013698721 0.01806002 -0.0044962154 0.025231475 0.0056418586
0.0022102576 0.009866078 0.019042408 -0.0094085485 -0.017596027 0.017393468 -0.0020617247 0.009556619
-0.0028629263 -0.024997532 -0.016723668 0.022257404 0.022345271 0.007350642 0.017265912 -0.001074673

layers.0.bias f4 [256]
00000000: 5892 bfbd 51f4 47bd eb65 e03c bab6 a0bd
00000010: 599c d7bc 4d7c 3b3d 60f8 b2bd 1612 0a3c
00000020: d8e4 dc3c 5b58 ccbd 1531 11bd beab 49bd
00000030: bf8f 1dbd e54d 95bd f5d3 7dbd 77f5 c8bc
00000040: 8b7f 47bd 7f5e 473d ed99 47bc 94c3 aabd
00000050: 5c60 3bbc a3e5 97bd 30eb 223c 1cce 70bd
00000060: 2d71 c23d b3aa d83c 588e 973c 72aa a43d
00000070: 801f ae3d 7580 2e3d 8129 82bc 2b58 e23c
00000080: 32c8 bc3d d383 e0bc 695c a13d d28d aa3d
00000090: 34c4 9e3d 93a6 61bd c4e5 dd3b ad5a 693d
000000a0: 2c5e c23d f8fc c7bd 57c1 af3d 8fe7 023b
000000b0: b3d1 8dba 0d3c 7a3d f29c 8abd cd03 f53c
000000c0: 588f 97bd e86c 52bd 61a6 9c3c 2a7f 343d
000000d0: e202 03bd 0400 ba3d 0951 a1bd 5ce5 2e3d
000000e0: 6ec0 34bd 734c 83bc 7156 45bd 328e bebd
000000f0: b5d3 81bd 4679 c13d b1b1 8bbd b296 9dbb
00000100: 1ff2 8bb9 8fd4 b23c 6ed2 9d3d 10f5 8abd
00000110: b748 cd3c cedd 003d de98 5d3d 9f07 59bd
00000120: 5b45 bc3d 8f23 153d 4700 8cbc 4b2d 983d
00000130: 096f 57bd b38f 953c 2139 2a3c f5cc 5cbd
00000140: d0d4 b33d db6e 0f3c 66ae 463d 8011 a53d
00000150: a250 273b d5b8 693d 9141 623d 6129 afbd
00000160: 4540 9dbd d2cf a8bd abb7 24bd c15e d13c
00000170: 86e5 c93c 83f3 a03d 47ae a0bc 9601 3ebb
00000180: cd2c 5b3d 4bb9 903d 3877 bfbc f822 bb3d
00000190: e5d1 b43d 6827 c33d 86f2 873d d4fb b43c
000001a0: 2193 c5bd 8ffe bcbc 796f 8abd e096 42bd
000001b0: 76db 033d c56a 1dbd 3561 cd3d e6f0 64bd
000001c0: ca62 d3bc 6d77 12bc 685a fbba 06b0 debc
000001d0: 1b3b b8bd ca38 5bbd abae 13bd 857d 253d
000001e0: 9480 873d 168b 47bd 9543 403d 0524 a2bc
000001f0: f558 a13b f208 583d 30c4 353d 06b6 a83d
00000200: 434d 39bc edef 053d da4b 433c 28e4 c9bd
00000210: 65a6 953c ea53 d3bd fc63 913d 0c67 8e3b
00000220: 3887 1d3d c2e8 67bd 66a2 80bd 4ea8 a7bc
00000230: 96a7 94bd 838b bd3a 38eb 42bc 4154 493d
00000240: e4df 4a3d 4949 07bd 6152 c6bd f467 b73d
00000250: 5c55 b73d 030c ed3c d4d7 693c 4434 9d3c
00000260: 5fe2 dd3c cd25 5c3d e044 333b 7bb3 7cbd
00000270: daf9 893c d1ec bc3d 9926 acbd 1b3a c43d
00000280: 1f00 113c 1022 9fbd b22e 183d e4f2 a13d
00000290: f364 1bbd f590 d63c 572f cebc 1ead eabc
000002a0: 0618 423d 9168 213d 7023 bebc aaa6 993c
000002b0: 3486 723d 7129 92bb a008 b2bd 5568 b83d
000002c0: cf70 6b3d df57 68bc 1a3f ebbc b638 293c
000002d0: 1145 12bd 2eec 64bd fdc8 64bd c6ef 7c3d
000002e0: 4aaa d3bc 1d49 bbbc 5207 5dbd cf60 98bd
000002f0: a4a4 633d f254 8d3d b70a a13d b128 bcbd
00000300: 8b14 7cbd e638 bb39 609c a43c 44d2 0f3d
00000310: 33fb 2f3d bad2 e03c eacc 5ebc f254 2bbc
00000320: aa54 bcbd d8a6 a53d 5d5c 7d3d 7b42 67bc
00000330: e32e 6dbd 2bd7 9bbd 765a c13c 2979 933d
00000340: a3d3 10bc 21a3 9fbd 2302 853d 2ba0 873d
00000350: 2451 acbb acb5 cb3b dabb e03c 9b12 a0bd
00000360: 0a5c 9c3d 5967 a9bc c4ad 703d f192 bcbd
00000370: 5b61 2dbb 7149 af3d e255 83bd 27ee c3bd
00000380: 4090 ff3c 8833 933d 5899 f7bb 5a69 88bb
00000390: 1fbc febb d858 80bc 93f0 4a3d 063d d2bc
000003a0: 4b53 023d 0589 57bd 804a 983d 3800 5f3b
000003b0: 2183 c53d a037 a93d ce77 403b 22f2 b53d
000003c0: dc05 80bc 9765 24bd 022e 6c3d e33d f43c
000003d0: 1496 f5bc d818 fa3c a004 7abc 0113 543d
000003e0: 49d9 553c 856f a4bc 84b0 033d a884 57bd
000003f0: 440c 893c aa47 413d 005b 4e3c 154e 9d3c
-0.09354085 -0.048816983 0.027392348 -0.07847352 -0.02631967 0.04577284 -0.0873878 0.008427164
0.02696459 -0.0997779 -0.0354472 -0.04923605 -0.038467165 -0.07290248 -0.061969716 -0.02453111
-0.04870562 0.048674103 -0.012182695 -0.08338085 -0.011436548 -0.074168466 0.009943768 -0.05879031
0.09494243 0.026448583 0.018500492 0.08040322 0.08502102 0.042602975 -0.015888931 0.027629932
0.09217872 -0.027406609 0.07878954 0.08327831 0.077522665 -0.0550905 0.006771775 0.05697124
0.09490618 -0.09765047 0.085817985 0.0019974445 -0.0010819942 0.061092425 -0.06768216 0.029909039
-0.074003875 -0.051373392 0.019122304 0.044066586 -0.03198517 0.09082034 -0.07876784 0.042699203
-0.044128828 -0.016027665 -0.04817814 -0.09304465 -0.06339208 0.09446959 -0.06821001 -0.004809224
-0.0002669254 0.021829871 0.07706152 -0.06785023 0.025059087 0.03146153 0.054100864 -0.052985784
0.09192916 0.036410864 -0.017089976 0.07430514 -0.052596126 0.018256998 0.010389597 -0.0539064
0.08780825 0.008754457 0.048506163 0.080599785 0.0025530239 0.057061035 0.05523831 -0.08552814
-0.07678274 -0.082427636 -0.040214222 0.025557877 0.024645578 0.07858946 -0.019614352 -0.0028992645
0.053509522 0.07066592 -0.023372278 0.09137529 0.08829097 0.095290005 0.066380545 0.022092737
-0.09647203 -0.023070602 -0.06759543 -0.047507167 0.032191716 -0.0384319 0.100283064 -0.0558938
-0.025803942 -0.008939606 -0.0019176723 -0.027183544 -0.089956485 -0.053520955 -0.03605525 0.040402908
0.06616321 -0.048716627 0.04693945 -0.019792566 0.0049239346 0.052742906 0.044376552 0.08237843
-0.011309925 0.032699514 0.01191994 -0.098579705 0.01826782 -0.1031874 0.07099149 0.0043457802
0.038459033 -0.05661846 -0.06280975 -0.020465996 -0.07258527 0.0014461133 -0.011896901 0.049152616
0.049529925 -0.033028875 -0.09683681 0.08955374 0.08951828 0.028936392 0.014272649 0.019189961
0.027085481 0.053746987 0.0027354285 -0.061694603 0.016842771 0.09224857 -0.084057994 0.09581395
0.0088501265 -0.07770169 0.037153907 0.07907656 -0.03793807 0.026192168 -0.025169058 -0.028647002
0.04738619 0.039406363 -0.023210257 0.01875623 0.059210017 -0.0044605066 -0.08693051 0.09004275
0.05748063 -0.014181106 -0.028716613 0.010328462 -0.035710398 -0.0558893 -0.05585574 0.061752103
-0.025838036 -0.022862012 -0.05396206 -0.0744034 0.055576935 0.06900968 0.07863372 -0.09187449
-0.06154303 0.00035709812 0.020094097 0.035112634 0.04296417 0.027444232 -0.01359866 -0.010457264
-0.09195836 0.080884635 0.061855663 -0.014114971 -0.057906043 -0.076093994 0.023602705 0.07200844
-0.008839521 -0.07794786 0.06494548 0.066223465 -0.005258696 0.0062167253 0.027433325 -0.07816049
0.076347426 -0.020679163 0.058759466 -0.09207714 -0.0026455733 0.0855893 -0.06412865 -0.09566908
0.031196713 0.07187563 -0.007556122 -0.0041629495 -0.0077738906 -0.015667364 0.049545836 -0.025663864
0.031817716 -0.052620906 0.07436085 0.003402723 0.096441515 0.08262563 0.0029368284 0.08884074
-0.015627794 -0.040135946 0.057661064 0.029814666 -0.02997879 0.030529425 -0.015259892 0.051775936
0.013052293 -0.020072708 0.03215076 -0.052616745 0.016729482 0.047187485 0.012594938 0.019202271

layers.3.weight f4 [256]
00000000: 10b3 803f 8320 7f3f 62b5 7f3f a6d4 7f3f
00000010: 3c70 7e3f ae70 803f 2537 803f b238 7f3f
00000020: b1af 803f b22d 7f3f 02a8 7f3f 3e7c 7f3f
00000030: ddce 803f e8bc 803f c82d 7f3f 3c8b 7f3f
00000040: 23c6 7e3f 0a05 803f 3b75 803f c169 7d3f
00000050: 1cda 7f3f 78fb 7d3f 84cd 7f3f 2e51 7f3f
00000060: 6817 803f 6695 803f 1be2 7f3f b4c7 7e3f
00000070: 0f69 7f3f 0949 803f 8d8a 7f3f 1b12 803f
00000080: 0427 803f 5713 813f 6225 803f 60d3 7f3f
00000090: 9337 803f ffba 7e3f 6ce0 7f3f 69cd 7f3f
000000a0: feb5 7f3f 1dcb 7f3f 3f65 7e3f b340 803f
000000b0: 4e39 7f3f 987f 803f 4a7a 803f a961 7d3f
000000c0: d441 7f3f fd48 7f3f 9ea9 7d3f da33 803f
000000d0: 7390 7e3f c2e0 7f3f d774 7f3f 46b7 7e3f
000000e0: 4160 803f 8391 803f 7858 803f ab66 7e3f
000000f0: c717 7f3f c891 803f 08c6 803f f6f3 803f
00000100: 511d 803f e7e9 7f3f 0850 7e3f c389 803f
00000110: 7be1 7e3f 9424 803f 8aa9 803f 9727 803f
00000120: 1e10 7e3f 237b 7f3f e1aa 7d3f 26dc 7f3f
00000130: 9a5e 803f 7df1 7d3f e801 7f3f 52bd 7f3f
00000140: 2c2e 803f ac3b 803f 832d 7f3f a01d 813f
00000150: e1c0 803f cd33 7f3f 615e 803f 1c73 803f
00000160: 9e1c 803f 5874 7f3f 148b 803f 9571 7e3f
00000170: 21a1 7e3f cc02 813f 103c 7f3f b57e 803f
00000180: c0f2 7d3f 0d7b 803f bb7a 813f cfe6 7f3f
00000190: 913f 7f3f a652 813f ac75 803f 896b 7e3f
000001a0: f224 7f3f cb79 7f3f 8550 803f c115 803f
000001b0: 8a99 803f c514 7f3f 567c 803f 6031 7e3f
000001c0: c76f 803f d83b 7f3f bfeb 7f3f 6041 803f
000001d0: f389 7e3f 6276 803f c914 803f bb4d 7f3f
000001e0: b817 803f ad96 803f c41e 803f 7d01 7f3f
000001f0: b8db 7f3f 4f2d 803f 5e1e 803f f21a 803f
00000200: 86c0 803f 2214 7f3f 51b9 7f3f 8dfb 803f
00000210: 1341 803f ef19 813f 83fd 7f3f d99c 7d3f
00000220: c2e8 7e3f b4ac 7e3f 112c 813f 040d 7f3f
00000230: b2ee 7e3f c126 803f b4d3 7f3f 6db3 7f3f
00000240: 2ec3 7d3f 9305 7f3f 89ce 7e3f 62e3 7f3f
00000250: a76d 7f3f 225d 803f ff53 7f3f ba5a 803f
00000260: c490 7f3f 9125 803f aea5 7f3f cffc 7e3f
00000270: 0c8d 7f3f 39c4 7f3f c3ea 7e3f 51c3 7e3f
00000280: 2a44 803f 024a 803f ad30 803f 7714 7e3f
00000290: 02d5 803f bd67 7e3f e302 7f3f fbc5 803f
000002a0: 132f 803f d457 7f3f df86 7e3f 5755 7e3f
000002b0: 3d8d 7e3f 1664 7f3f 5b37 803f a318 803f
000002c0: ffcd 7f3f e44a 7f3f f51f 803f 2501 803f
000002d0: 7cef 7d3f 95c1 7e3f 333b 803f 896f 7e3f
000002e0: 5ab4 803f f519 803f 6029 7e3f 006b 7f3f
000002f0: 708d 7e3f 12cb 7e3f a1bd 803f 6d5c 7f3f
00000300: c0e4 7f3f 4a40 7f3f be06 7f3f 7f3f 7e3f
00000310: 639a 803f 29ee 7e3f 8f4c 803f 817c 803f
00000320: c1a7 7e3f 410b 803f ef66 7f3f 5ff8 7f3f
00000330: 484e 7e3f f52a 803f f04f 7e3f c494 803f
00000340: 6a23 813f f2c6 7e3f a91b 803f 50aa 7e3f
00000350: 0971 7e3f 311f 803f 6942 803f 4587 7e3f
00000360: c76b 7f3f f46c 7e3f 2054 7f3f 93b0 7e3f
00000370: 9b93 803f 5806 803f 7211 803f 46e2 7f3f
00000380: d1d0 7e3f 8151 803f 6c92 7e3f 9cf0 7e3f
00000390: 4e3c 803f 7371 803f 330b 803f c9e6 7f3f
000003a0: fd65 803f 1655 803f 0a75 7f3f 86d3 803f
000003b0: c7b3 7e3f cc15 803f 7428 813f 000e 803f
000003c0: ccbc 7e3f d5ca 7f3f d0cf 803f e76e 803f
000003d0: 3dff 803f 28c7 803f a72d 7e3f ceb1 7f3f
000003e0: d689 7e3f c38d 803f ecad 803f 2b60 803f
000003f0: f25f 7e3f d421 7e3f 0784 7d3f a451 7f3f
1.0054646 0.99658984 0.99886143 0.9993385 0.99390006 1.0034387 1.0016829 0.99695885
1.0053617 0.996791 0.99865735 0.99798954 1.006313 1.005765 0.9967923 0.9982183
0.9952108 1.0001538 1.0035776 0.9898949 0.99942183 0.99211836 0.99922967 0.99733245
1.0007143 1.0045593 0.99954385 0.9952347 0.9976968 1.0022289 0.99820787 1.0005525
1.0011907 1.0084027 1.0011408 0.9993191 1.001696 0.99504083 0.99951816 0.99922806
0.99887073 0.999193 0.9937324 1.0019745 0.99696815 1.0038939 1.003732 0.9897714
0.9970982 0.99720746 0.9908694 1.0015824 0.9943916 0.9995233 0.9978766 0.99498403
1.0029374 1.0044407 1.0026999 0.9937541 0.99645656 1.0044489 1.0060434 1.0074451
1.0008947 0.9996628 0.9934087 1.0042042 0.99562806 1.0011163 1.0051739 1.0012082
0.9924334 0.99797267 0.99088866 0.99945295 1.002887 0.99196607 0.99612284 0.99898255
1.001409 1.001821 0.9967882 1.0087166 1.0058862 0.99688417 1.0028802 1.0035129
1.0008733 0.997869 1.0042443 0.9939206 0.99464613 1.0078979 0.99701023 1.0038668
0.9919853 1.0037552 1.0115579 0.9996156 0.9970637 1.0103347 1.0035911 0.99382836
0.9966575 0.99795216 1.0024573 1.0006639 1.0046856 0.99641067 1.0037944 0.9929409
1.0034112 0.9970069 0.99969095 1.0019951 0.99429244 1.0036128 1.0006343 0.9972798
1.0007238 1.0045983 1.0009389 0.99611646 0.9994464 1.0013827 1.0009267 1.0008223
1.0058753 0.99640095 0.99892145 1.0076767 1.0019859 1.0086039 0.99996203 0.99067456
0.9957391 0.99482274 1.0091573 0.99629235 0.9958297 1.0011827 0.9993241 0.99883157
0.99125946 0.9961788 0.995339 0.99956334 0.9977669 1.0028422 0.9973754 1.0027688
0.9983027 1.0011464 0.9986218 0.99604505 0.99824595 0.99908787 0.9957697 0.9951678
1.0020802 1.0022585 1.0014855 0.99249977 1.0065005 0.9937704 0.9961378 1.0060419
1.0014366 0.9974339 0.99424547 0.9934897 0.9943426 0.99762094 1.0016893 1.0007519
0.999237 0.9972365 1.0009753 1.0000349 0.9919355 0.9951413 1.0018066 0.9938894
1.0055039 1.0007921 0.99281883 0.99772644 0.99434566 0.9952861 1.005787 0.99750406
0.9995842 0.9970747 0.9961966 0.9931564 1.0047115 0.99582154 1.0023364 1.0037996
0.9947472 1.0003434 0.9976644 0.9998836 0.993382 1.001311 0.99340725 1.00454
1.0088933 0.99522316 1.0008441 0.99478626 0.9939123 1.0009519 1.0020267 0.99425155
0.9977383 0.99385 0.9973774 0.9948818 1.0045046 1.0001936 1.0005324 0.9995464
0.9953738 1.0024873 0.9944217 0.9958589 1.0018404 1.0034622 1.0003418 0.99961525
1.0031124 1.0025966 0.9978796 1.0064552 0.9949307 1.0006652 1.009047 1.0004272
0.9950683 0.9991887 1.0063419 1.0033845 1.0077893 1.0060778 0.9928841 0.99880683
0.9942907 1.0043262 1.0053077 1.0029348 0.9936515 0.9927037 0.9902958 0.9973395

layers.3.bias f4 [256]
00000000: 3982 0f3b 4bae 87bb afe9 4ebb 1e34 11bb
00000010: b401 ea3a 2151 4539 3565 143c 4b54 2b3b
00000020: c2c6 25ba 2ce7 143c 55df 74bb 840f 8fba
00000030: c691 a139 3abb b73b 6ffe 87bb 1f90 17ba
00000040: d48b a4b8 c043 bcba 3e3a 73ba aa10 3839
00000050: f41c c2ba 2cb2 b4bb c537 cdbb 6253 65ba
00000060: 3d7b d7b9 18af ae3b 2cc7 eb39 ee72 753b
00000070: 8a06 313c b96c 0bbb 2b7a 58ba 2996 0cbc
00000080: a7b3 8dba 6f6d 6e3b 3d7c 95bb f009 3f3b
00000090: 467f ca3b 42d0 623a b337 c5b9 ac4a 5a39
000000a0: a3ee 7dbb 95fd 95bb 0d49 843a 7f6c 6a3b
000000b0: 0415 dbbb fde1 913a c9d9 0abc 81d1 093c
000000c0: c654 fdba a10b 83bb 8eae 4bbb c041 07ba
000000d0: 92c7 fe3a b3f4 dabb 4c3f c23a 1a8b 573a
000000e0: d5cf a2bb 9fa6 073b 71dc b4bb d8cf 0dbc
000000f0: cda0 a33b bd7e 33bc e9d6 1dbb 184f bcba
00000100: f861 613a d4d8 9f3b a2a5 42ba 89d3 693b
00000110: eff7 e3b9 9537 703a a959 933b 52e9 baba
00000120: 8a13 9a3b c9e0 da3b ec52 1bbb 78e7 9eba
00000130: 6663 95bb 73d0 9fbb bace c83b b10a e8bb
00000140: 0914 973b 70dc 953b f93e f83b 5a2d 493b
00000150: 4dd9 fdba 75f4 2f3c 29c9 fd3b 7f9d 88b9
00000160: 21e6 26ba 42ec 57bb fc3b d33b fb1e ca3b
00000170: 843d 4f3b 4faa 8fbb 0887 373b 2765 b4ba
00000180: fed3 bebb 202f 85b9 9ffb 00bb f951 a5bb
00000190: b603 083b d643 70bb 7117 fc3b 530e 993a
000001a0: 54bc dcb9 2251 9dbb 3c16 6a3b 0ecd 9dbb
000001b0: 196d 02b8 a243 fcbb ae8b f23a daea c8ba
000001c0: 4818 d4b8 a77e f73a 2826 b03b 90ce 6cb8
000001d0: 261f 92bb d754 e4bb 186c 7f3a 48b5 ea3b
000001e0: 41a1 4abc 4151 033c f897 aab9 7eef 97ba
000001f0: 8eeb f0bb a90a 90bb de2d 8a3a ce3e 0d3b
00000200: 8ffa e83a 9ee0 5cbb 1087 b2bb 32ad 373b
00000210: 976d 223c 77cd 203b 1851 90ba f033 0abc
00000220: bc86 103a f316 e7ba 4832 e43b a95d b638
00000230: 9ba8 40bb 7291 a33b bf86 9cbb 3c85 e8ba
00000240: b484 0fbc 7f22 de39 b318 b3bb 13e8 81bb
00000250: 81fc edba dac9 563b e498 663b 0762 933a
00000260: 6653 edb9 20d7 653b 0888 9abb 8ff3 fc3a
00000270: 8b3c 1f3b cbed e9bb 4ce6 13bc f460 173b
00000280: 348d 76ba 785c 013b d9f7 143b 3503 273b
00000290: 7c8e fd3b b4de 3b3b 886d 22bc 8806 523a
000002a0: 939d c53b db99 c8ba db0b 8abb 835c 603a
000002b0: 6538 b3ba 306a 86bb 787a 69bb 946e c5bb
000002c0: 9cbf c23a 4765 05bc a072 c63b 592d d9b9
000002d0: 7348 58bb 7ecd a1ba 3468 053b 5481 6dbb
000002e0: 0a4f 843b 2a2b 80b8 207b a33a dcfd 833b
000002f0: 2541 ba3b dc74 883b 22cb ba38 0479 803b
00000300: 34d7 333b 5ca0 fb3a dfda e2bb 2432 19bb
00000310: e6cf 4e3b d4f0 e7bb fc70 9f3a 2c3c 3fba
00000320: 1c42 063c f60f 943b dbb0 873b f2b9 ba3b
00000330: 742a cd3b 9bcc c33b b172 78bb 07a3 473b
00000340: 8e7f 3dba acbb d63b 14e0 c33a 0dcb 44bb
00000350: 5cde 803b daae 363c a02d d73b 2805 7bba
00000360: 7694 293a ffa0 d0bb 3108 deba bbb5 c8ba
00000370: 4f02 00bc fbd4 1fba 9f84 61bb 1a20 26bb
00000380: 114f 1e3b decc d6ba 6463 aeba 8ea3 1a3a
00000390: 022c 3cbb 7733 57ba 8fc7 46bb 6e6e 353b
000003a0: d5bb f13b 4821 033b 2be9 183b 6561 38bc
000003b0: eeb8 c139 08f0 a43a fa37 37ba dd18 3a3b
000003c0: 009f 79bb 151e 87bb 06fe 0d3c 51c3 88bb
000003d0: f8d3 a53b 2a30 203b 654c f13b 0781 233b
000003e0: 238f fcbb 9d52 bebb d334 8e3a 2336 46bb
000003f0: 19a8 823b 690e 963b 8693 6fba 0214 37b9
0.0021897687 -0.0041406504 -0.0031572392 -0.0022156308 0.0017853291 0.00018817607 0.009057333 0.0026142772
-0.0006323868 0.009088319 -0.0037364562 -0.0010914658 0.00030816923 0.005607036 -0.004150204 -0.00057816686
-7.8461744e-05 -0.0014363453 -0.0009278393 0.00017553815 -0.0014809654 -0.005514404 -0.0062627518 -0.0008748082
-0.00041099815 0.0053309314 0.00044971087 0.0037452537 0.010804782 -0.002127452 -0.00082579505 -0.008580723
-0.0010810987 0.0036381145 -0.0045619295 0.002915021 0.006179723 0.00086522487 -0.00037616267 0.00020817918
-0.0038746975 -0.0045773485 0.0010092572 0.0035770235 -0.006685855 0.0011129972 -0.008474776 0.008411766
-0.0019327633 -0.003999189 -0.0031079384 -0.0005159639 0.0019438139 -0.0066820025 0.0014819889 0.0008222327
-0.004968623 0.002069868 -0.0055194427 -0.008655511 0.004993534 -0.01095551 -0.0024084395 -0.0014366833
0.00085976673 0.004878143 -0.0007425194 0.0035679063 -0.0004348154 0.0009163556 0.0044967723 -0.0014260209
0.0047020363 0.0066796285 -0.0023700548 -0.0012123426 -0.0045589684 -0.004877144 0.0061281594 -0.0070813526
0.0046105427 0.0045733973 0.0075758663 0.0030697198 -0.0019367129 0.010739435 0.0077449274 -0.00026057285
-0.00063666893 -0.0032947217 0.0064463597 0.006168244 0.003162236 -0.004384316 0.002800407 -0.0013763056
-0.0058236113 -0.00025402848 -0.0019681228 -0.0050451723 0.0020754165 -0.0036661527 0.007693224 0.0011677243
-0.00042101985 -0.0048009316 0.003571882 -0.004815704 -3.109602e-05 -0.007698492 0.0018504763 -0.001532878
-0.000101134705 0.001888235 0.0053756423 -5.645916e-05 -0.0044592796 -0.0069681215 0.0009743585 0.0071627237
-0.0123675475 0.008014978 -0.00032538152 -0.001159176 -0.007352299 -0.004395802 0.0010542234 0.0021552327
0.0017774868 -0.0033703218 -0.0054482296 0.0028026816 0.009913824 0.002453653 -0.0011010496 -0.008435234
0.0005513241 -0.0017630741 0.006964002 8.695882e-05 -0.0029397372 0.0049917037 -0.004776805 -0.0017739902
-0.008759666 0.0004236884 -0.005465591 -0.003964433 -0.0018156917 0.0032774122 0.0035186345 0.0011244424
-0.000452663 0.0035070851 -0.004715923 0.001929866 0.002429756 -0.007138943 -0.009027075 0.002309856
-0.0009405196 0.0019738954 0.0022730737 0.002548409 0.0077379327 0.0028666677 -0.00991381 0.00080118375
0.006030747 -0.0015304642 -0.004212839 0.0008558707 -0.0013673423 -0.004102014 -0.0035625976 -0.006025145
0.001485813 -0.008141822 0.006056145 -0.00041423252 -0.0033002167 -0.0012344567 0.00203563 -0.0036240416
0.0040377425 -6.1115556e-05 0.0012472607 0.004028065 0.0056840354 0.0041643213 8.9070076e-05 0.003920676
0.0027441503 0.0019197571 -0.006923064 -0.0023375833 0.0031557023 -0.0070782695 0.0012164409 -0.0007295038
0.008194473 0.0045185043 0.004140956 0.005698436 0.0062611643 0.0059753186 -0.0037910158 0.0030462162
-0.0007228785 0.006553134 0.00149441 -0.0030028254 0.0039327573 0.011150086 0.006566718 -0.00095756585
0.0006468961 -0.0063668485 -0.0016939697 -0.0015312949 -0.00781305 -0.0006097105 -0.0034411324 -0.0025348724
0.0024156014 -0.001638796 -0.0013304767 0.00058990053 -0.0028712754 -0.0008209268 -0.0030331349 0.002768423
0.0073771277 0.002000885 0.0023332338 -0.011253689 0.00036949612 0.0012583742 -0.0006989237 0.0028396167
-0.0038089156 -0.004123459 0.008666521 -0.004173674 0.005060669 0.002444277 0.0073638433 0.0024948732
-0.007707493 -0.005808188 0.0010849483 -0.003024467 0.003987324 0.0045793545 -0.0009139109 -0.00017459693
