scripts/model_params/sbrw_10_critic.pth (torch, 384642 bytes, 17 tensors)

state_input.weight f4 [128, 65]
-0.008270972 0.02067327 0.009600126 0.012313455 0.030155636 -0.0039048253 -0.009192808 -0.0053724656
0.0031878569 0.007022558 0.0019773112 0.00012013275 0.011438433 0.0022977977 -0.0077065984 -0.013143358
-0.019866126 -0.017487695 5.830593e-06 0.014753293 0.005129993 -0.010478498 0.012517689 0.013238835
-0.015094669 -0.0025158494 0.008229067 0.009437265 -0.00592752 0.006747385 0.0011541867 0.025252873
-0.0071107903 -0.0033429835 -0.004963851 0.006425976 0.00039411007 0.0027653042 -0.022965154 0.015191489
0.0076599214 -0.00025564514 -0.014139803 -0.0056967437 0.00637437 0.007417681 0.01286454 -0.004046004
0.0009967338 0.008895429 0.0044987444 -0.009032069 -0.007640498 0.0067969677 0.006710685 0.0074310377
0.021353437 -0.017271426 -0.013982468 0.01149827 0.01950174 0.01336713 -0.008276228 0.006088717
0.009808756 0.00024237472 0.009691607 0.01543427 -0.0010006548 -0.0014867928 -0.013870587 0.020103654
0.004807059 0.0043070237 -0.0066826497 0.017697385 -0.0023258673 -0.002872032 0.013500829 -0.008562969
-0.015142979 0.023794519 -0.0038147217 -0.011262531 -0.004068526 -0.007249041 -0.0046445937 -0.014890259
0.0048473347 0.007874893 -0.0010967322 0.00023239279 -0.0070506143 -0.008136383 0.004913678 -0.003602973
-0.010902694 0.005831513 -0.005148242 0.0067026387 -0.02141848 0.006690072 -0.0043792166 0.007924042
0.008821029 0.017115157 0.012472187 -0.007630255 0.01455852 -0.012453996 -0.0039725555 -0.00820738
-0.009315131 -0.007755246 0.00732384 0.015227741 0.013597451 -0.0017526814 0.004257789 -0.0040765665
0.0023466814 -0.0010553016 -0.000470422 0.010477591 0.011746955 0.020663666 0.008974818 0.010310983
0.019485313 -0.0005727526 -0.0076691136 -0.004540724 0.0058381194 0.0071289963 -0.00022167224 0.014029524
-0.00019095794 0.0046622073 -0.014016591 -0.007943254 -0.0017170554 0.015471132 -0.033240926 -0.0049808915
-0.010023753 -0.0113484645 0.009775121 -0.0029476986 0.0060361526 0.0015204267 0.00053889456 -0.010780263
-0.019315649 -0.005121628 0.00050802634 0.024820289 -0.008935145 0.018971218 0.011323245 0.001735412
-0.00941923 -0.013488201 0.014566686 -0.01152281 -0.013374602 -0.005959767 0.002129272 0.011539511
-0.012757753 0.00024833457 0.002666444 0.0024531705 0.0031257754 -0.010439243 -0.011852627 -0.009904435
-0.006777506 0.0059138862 -0.0067926547 0.011166096 -0.016059697 0.008319223 -0.0006172918 0.029287193
-0.0019812488 -0.003497394 -0.018094497 0.0007384136 -0.015928736 0.007238158 0.024293413 0.011242968
0.008224744 -0.0009975281 -0.010012602 0.013747659 0.0085476665 0.00049324305 0.0069086575 -0.0010197817
-0.020282116 0.007745165 0.004919199 0.003041608 0.0072054975 -0.001674838 0.0077476487 0.0103792
-0.00068292103 -0.012695532 0.013578834 -0.0048171943 -0.012563967 0.0028670186 -0.0095784925 0.006578785
-0.0031790384 -0.018759996 0.0113618905 0.0006164272 -0.0063093463 0.0108269295 0.016290367 0.008232678
-0.013254282 -0.015252954 0.008065407 -0.004112553 0.0012769658 -0.008761153 0.011710138 -0.013597593
0.004316366 0.006463704 0.0016261158 0.0012469973 0.004447783 0.018155374 -0.019070474 -0.0048402515
-7.137936e-05 -0.0050931172 -0.0138268145 0.003198846 0.0070597655 0.0033552535 -0.008506391 0.009153446
-0.014503686 -0.0082816975 0.0044397083 0.010500757 0.005707866 -0.004234142 -0.014410634 -0.021555759
00000000: f982 07bc fd5a a93c d949 1d3c 60be 493c
00000010: f408 f73c 19e8 7fbb 6e9d 16bc 820b b0bb
00000020: 5deb 503b 7c1d e63b c795 013b c7ef fb38
00000030: 4468 3b3c a696 163b a287 fcbb 3d57 57bc
00000040: 49be a2bc 5b42 8fbc 6aa4 c336 ccb7 713c
00000050: 8019 a83b 02ae 2bbc fe16 4d3c b3e7 583c
00000060: a14f 77bc f3e0 24bb 35d3 063c c29e 1a3c
00000070: a43b c2bb 2b19 dd3b 1448 973a 1ddf ce3c
00000080: a201 e9bb f515 5bbb cda7 a2bb fe90 d23b
00000090: 8fa0 ce39 1b3a 353b 6b21 bcbc b9e5 783c
000000a0: 1400 fb3b 1c08 86b9 a2aa 67bc c0ab babb
000000b0: 17e0 d03b 0510 f33b cbc5 523c 5794 84bb
000000c0: d6a4 823a 22be 113c 346a 933b 3efb 13bc
000000d0: 255d fabb 19b9 de3b 4ee5 db3b 1080 f33b
000000e0: 67ed ae3c ce7c 8dbc b916 65bc 3d63 3c3c
000000f0: 1dc2 9f3c cf01 5b3c 0499 07bc dc83 c73b
00000100: e8b4 203c f825 7e39 8cc9 1e3c 05e0 7c3c
00000110: 6728 83ba 7de0 c2ba 7541 63bc 6bb0 a43c
00000120: 8984 9d3b ef21 8d3b 21fa dabb 1bfa 903c
00000130: 946d 18bb b438 3cbb 9532 5d3c b24b 0cbc
00000140: 421a 78bc b9ec c23c 6900 7abb 7b86 38bc
00000150: 4551 85bb 5d89 edbb ad31 98bb 46f6 73bc
00000160: 64d6 9e3b b205 013c 3ac0 8fba 77ae 7339
00000170: d708 e7bb 774e 05bc eb02 a13b db1f 6cbb
00000180: 37a1 32bc 4716 bf3b 96b2 a8bb cfa1 db3b
00000190: cf75 afbc 6438 db3b 887f 8fbb d7d3 013c
000001a0: 1486 103c 1635 8c3c 2558 4c3c 3807 fabb
000001b0: dc86 6e3c d80b 4cbc 362c 82bb 3f78 06bc
000001c0: 7e9e 18bc b81f febb d3fc ef3b c67d 793c
000001d0: d8c7 5e3c 3bba e5ba ec84 8b3b b894 85bb
000001e0: c8ca 193b 0c52 8aba f9a2 f6b9 34aa 2b3c
000001f0: 4d76 403c d946 a93c 1d0b 133c 66ef 283c
00000200: aa9f 9f3c c724 16ba 304d fbbb 5bca 94bb
00000210: b24d bf3b 5b9a e93b b070 68b9 17dc 653c
00000220: e23b 48b9 6ec5 983b d8a5 65bc 6c24 02bc
00000230: d20e e1ba a17a 7d3c a327 08bd bf36 a3bb
00000240: ab3a 24bc e9ee 39bc d427 203c 2d2e 41bb
00000250: ebca c53b 0e49 c73a 9a44 0d3a b39f 30bc
00000260: da3b 9ebc 54d3 a7bb 122d 053a eb53 cb3c
00000270: b764 12bc 8769 9b3c 2285 393c c476 e33a
00000280: 1d53 1abc 9efd 5cbc 1ca9 6e3c 2bca 3cbc
00000290: 2621 5bbc 264a c3bb 428b 0b3b 3810 3d3c
000002a0: e505 51bc e732 8239 82bf 2e3b 5fc5 203b
000002b0: cfd9 4c3b 5c09 2bbc 8531 42bc 3646 22bc
000002c0: d715 debb 46c9 c13b eb94 debb 00f2 363c
000002d0: a08f 83bc 5a4d 083c c0d1 21ba b2eb ef3c
000002e0: d7d7 01bb 8934 65bb e93a 94bc 1992 413a
000002f0: fb7c 82bc 122e ed3b fb02 c73c 6d34 383c
00000300: 14c1 063c 7dbf 82ba e60b 24bc dc3d 613c
00000310: 830b 0c3c fb4c 013a 0562 e23b 32aa 85ba
00000320: ae26 a6bc 27cb fd3b 3b31 a13b b755 473b
00000330: 181c ec3b 3d86 dbba fddf fd3b 850d 2a3c
00000340: 0e06 33ba ec00 50bc c279 5e3c 8ed9 9dbb
00000350: 19d9 4dbc 97e4 3b3b 1cef 1cbc d992 d73b
00000360: 6a57 50bb 90ae 99bc 3927 3a3c bb97 213a
00000370: a2be cebb 6f63 313c 6073 853c 5be2 063c
00000380: 7d28 59bc 87e7 79bc c524 043c 98c2 86bb
00000390: dd5f a73a f08a 0fbc e1db 3f3c 70c8 5ebc
000003a0: 4d70 8d3b 7bcd d33b 6423 d53a 4972 a33a
000003b0: b5be 913b 94ba 943c af39 9cbc f99a 9ebb
000003c0: 81b1 95b8 2ae4 a6bb dd89 62bc bba3 513b
000003d0: 9b55 e73b d0e3 5b3b 645e 0bbc 56f8 153c
000003e0: dea0 6dbc f5af 07bc f97a 913b 5e0b 2c3c
000003f0: 0d09 bb3b 8fbe 8abb 941a 6cbc b495 b0bc

state_input.bias f4 [128]
-0.023774123 0.006998253 0.036204364 0.07542554 -0.043441046 -0.08944434 0.0914846 0.06991191
-0.06009512 0.051105987 0.082841836 -0.06860875 -0.085697606 -0.04701221 -0.08621182 -0.094280414
0.0019166351 0.009744561 -0.053796567 -0.034246363 -0.05352075 0.09328767 0.08792362 0.0357005
-0.019238865 0.015265524 0.096508704 -0.025486875 0.0787882 0.08425295 0.087405436 -0.06469506
0.08546622 0.093038 0.08555215 -0.0107252 -0.021593988 0.07617392 -0.09224476 0.00319736
-0.07646739 -0.059800256 0.074461296 0.011733592 0.055324387 -0.00088765624 0.0156271 -0.033528756
0.047029234 0.083271794 -0.06378193 0.051200893 0.026919007 0.042979635 -0.04382322 -0.020130634
-0.06265932 0.012351251 -0.047360517 0.025725007 -0.024922717 0.015942847 -0.08115442 0.043763567
0.09766599 -0.06754442 0.01485467 0.03238186 0.064669505 -0.08198649 0.004445076 0.020288682
-0.00931983 -0.011182464 0.020880437 -0.095369615 -0.02951181 0.059586 -0.08742883 -0.08691014
-0.042830825 -0.014280677 -0.09579798 -0.099338345 -0.044544887 0.054859173 0.08002394 -0.046537437
0.05748191 0.06850131 0.06463718 1.051426e-05 0.09341817 0.08556421 -0.07388556 -0.016607178
0.07631512 0.092347756 -0.008938062 0.024636699 0.05494808 -0.089807086 -0.015698541 -0.017038763
-0.09322371 -0.07781794 0.06847731 0.08116656 0.0066744923 -0.032795023 -0.066184334 -0.08656061
0.012122178 0.0709367 -0.07560785 -0.023730958 0.07781436 0.046452273 0.083628714 -0.09818029
-0.028520191 -0.051369738 0.09032831 0.09620503 0.09020688 -0.034641933 0.049111415 -0.027863098
00000000: f3c1 c2bc 9a51 e53b 074b 143d b578 9a3d
00000010: 3def 31bd 982e b7bd 475c bb3d fa2d 8f3d
00000020: 4d26 76bd 8354 513d fba8 a93d bf82 8cbd
00000030: 3a82 afbd e08f 40bd d38f b0bd 1716 c1bd
00000040: 9a37 fb3a a7a7 1f3c ca59 5cbd ea45 0cbd
00000050: 9338 5bbd 9b0d bf3d 4d11 b43d b03a 123d
00000060: d39a 9dbc 401c 7a3c 5ba6 c53d dac9 d0bc
00000070: b55b a13d d08c ac3d 9f01 b33d d87e 84bd
00000080: ea08 af3d b58a be3d f735 af3d c0b8 2fbc
00000090: e0e5 b0bc 1201 9c3d d2ea bcbd cd8a 513b
000000a0: ef9a 9cbd 1df1 74bd 2a7f 983d 403e 403c
000000b0: d39b 623d 9ab1 68ba 6704 803c 7355 09bd
000000c0: baa1 403d 678a aa3d 1aa0 82bd 07b8 513d
000000d0: 4085 dc3c 6a0b 303d fa7f 33bd 00e9 a4bc
000000e0: 8853 80bd e75c 4a3c 1afd 41bd 40bd d23c
000000f0: ba2a ccbc 939a 823c 4a34 a6bd 6d41 333d
00000100: 1b05 c83d bb54 8abd 0061 733c d7a2 043d
00000110: 7271 843d 88e8 a7bd 00a8 913b 7334 a63c
00000120: 33b2 18bc a736 37bc 730d ab3c 2551 c3bd
00000130: c0c2 f1bc 7310 743d e30d b3bd f2fd b1bd
00000140: 606f 2fbd 80f9 69bc bb31 c4bd e771 cbbd
00000150: b374 36bd 03b4 603d 97e3 a33d 0a9e 3ebd
00000160: 2772 6b3d 6a4a 8c3d 7f60 843d 6766 3037
00000170: 0752 bf3d 4a3c af3d 5051 97bd c70b 88bc
00000180: 1a4b 9c3d d220 bd3d f370 12bc e7d2 c93c
00000190: 3d11 613d c7ec b7bd 3a9a 80bc e094 8bbc
000001a0: 13ec bebd 035f 9fbd d53d 8c3d a73a a63d
000001b0: b3b5 da3b 1354 06bd a78b 87bd b046 b1bd
000001c0: 1a9c 463c 4347 913d 4ad8 9abd 6d67 c2bc
000001d0: 235d 9f3d bd44 3e3d 8845 ab3d bf12 c9bd
000001e0: 2da3 e9bc 1369 52bd 0dfe b83d 2507 c53d
000001f0: 62be b83d b3e4 0dbd 0d29 493d 2741 e4bc

action_input.weight f4 [128, 18]
-0.014027039 0.009696381 -0.0013372041 0.021691041 -0.0024912597 -0.017174546 -0.00812684 0.008484709
0.0019858212 0.0014799293 -0.022529034 -0.0009949022 0.003962024 -0.012535765 0.005362399 0.0058977026
5.5450768e-05 0.00028295972 0.013561292 0.023763942 0.012546501 -0.0012474054 -0.0019151293 0.0073194047
-0.0045513655 0.0036726405 0.0061995075 -0.009527507 0.0018732682 0.009476721 0.013105496 -0.0023077189
0.007163536 -0.019308308 -0.004011307 -0.02059213 -0.0026608321 0.02333917 -0.0011053391 0.012551287
0.011483121 -0.00017560089 0.018528778 0.002210043 0.0075432914 0.0003497846 0.0015059063 -0.00828011
8.744365e-07 -0.0027886175 0.009187322 0.010322307 -0.001109824 0.008731313 0.0014254225 0.0009565351
-0.017134558 0.0028275484 -0.009498902 -0.0011852899 -0.0029622226 -0.0030312513 -0.020011174 0.010681371
0.0029190362 -0.004923851 -0.016498115 0.019505592 0.0055191955 0.004876238 0.0022043022 -0.009973551
-0.008447885 0.0013541337 -0.01520976 0.014695919 -0.005847349 -0.00416249 0.017137595 0.0050627324
0.00033453695 0.018573394 -0.0013442844 -0.010219537 0.004341388 0.00055268937 -0.013303265 0.011946722
0.0033691209 -0.007981778 0.0020145536 -0.02144305 0.01021911 0.007956694 -0.0026730958 0.0067980615
-0.015022181 0.011056551 -0.0058553834 -0.015362885 -0.003976156 0.00094271806 0.0020416505 0.019142628
0.005158037 0.0009982404 -0.009990638 -0.0061995415 -0.005832654 -0.0047643613 0.0067280615 -0.0022134073
0.012863282 0.004592194 -0.007992287 0.005514465 0.009742714 -0.0025805098 -0.009997535 5.997628e-05
0.0056812493 -0.008804947 -0.004146279 -0.001564884 -0.005189604 0.0056825196 -0.0061661443 0.01247349
0.0041741873 -0.016534323 -0.0024573223 0.009606066 -0.0052153454 0.0031634122 -0.0065590367 0.009566314
-0.012146005 -0.0027822352 0.009373788 -0.015076358 0.010369359 -0.007378512 0.016282571 0.010210591
-0.008002363 0.0071429615 -0.005544467 -0.013440831 -0.01934138 -0.02461246 -0.0029049565 -0.011945035
-0.001172173 0.0045789992 -0.00090660877 -0.009625177 -0.0022740194 -0.01187247 -0.011442033 0.010897859
-0.0045731226 -0.005355297 0.0028058349 0.011498933 -0.00938378 0.00796225 0.003577101 0.0009860361
0.0010861174 -0.018542795 -0.0074379276 -0.009796843 -0.0068413173 -0.00019216776 0.008058094 0.010633049
0.014431301 0.0051625413 -0.0010442302 -0.00244417 0.0016680285 -0.0021389872 -3.2077864e-05 0.004872705
0.009443569 -0.007859312 0.0034318778 -0.0014574674 0.016965032 0.006459021 -0.0025276598 -0.011793972
0.0037030205 -0.010910294 -0.004773439 0.0047948337 -0.012011141 0.027467089 0.013685733 -0.0026680788
-0.013260786 0.013011809 -0.012365418 -0.004297831 0.0076337163 -0.0048696687 0.031817492 -0.0016258205
-0.0031486286 0.009057032 0.007869429 0.016735386 0.0073640626 0.011960743 -0.007724526 -0.016335985
0.0175123 -0.00074971205 0.013286003 -0.015269557 -0.0066940784 -0.015898304 0.0006739259 0.0029305692
0.019649662 -0.009922212 0.0023337004 -0.0021249503 -9.0777816e-05 0.01840654 -0.0089211 0.0029826707
0.012572103 -0.008002515 -0.020436475 -0.0069506774 0.009426149 0.0018279075 -0.0022563662 0.0011127434
-0.013057416 0.002890872 -0.016197523 -0.01259138 0.0066537727 0.0119334655 -0.0006769507 -0.0045370264
0.0059129065 0.02346665 -0.0058930763 0.013976307 -0.004454703 0.0065388847 0.011058041 -0.009955257
00000000: aad1 65bc 92dd 1e3c 2045 afba 69b1 b13c
00000010: 6744 23bb a2b1 8cbc 7026 05bc 7303 0b3c
00000020: 8d24 023b 30fa c13a cf8e b8bc 6167 82ba
00000030: ded3 813b cf62 4dbc 10b7 af3b 8441 c13b
00000040: cf93 6838 365a 9439 2e30 5e3c 99ac c23c
00000050: d78f 4d3c fb7f a3ba 1305 fbba 9ed7 ef3b
00000060: 9f23 95bb afb0 703b 3d25 cb3b 4319 1cbc
00000070: 7388 f53a 4044 1b3c 6fb8 563c 193d 17bb
00000080: 18bc ea3b 752c 9ebc 4871 83bb d4b0 a8bc
00000090: 5b61 2ebb c931 bf3c 07e1 90ba eaa3 4d3c
000000a0: b323 3c3c 8121 38b9 aac9 973c 5ed6 103b
000000b0: b72d f73b 4b63 b739 d561 c53a 4ca9 07bc
000000c0: d2ba 6a35 3dc1 36bb 6c86 163c e51e 293c
000000d0: 8477 91ba c80d 0f3c 3ed5 ba3a fcbf 7a3a
000000e0: c65d 8cbc 644e 393b 48a1 1bbc bb5b 9bba
000000f0: d921 42bb f5a7 46bb 79ee a3bc eb00 2f3c
00000100: 4d4d 3f3b 4258 a1bb 0e27 87bc 31ca 9f3c
00000110: 5eda b43b d9c8 9f3b 0e76 103b 1b68 23bc
00000120: ff68 0abc 307d b13a 5b32 79bc 27c7 703c
00000130: 1e9b bfbb 7f65 88bb 2464 8c3c 47e5 a53b
00000140: ca64 af39 3b27 983c b332 b0ba d86f 27bc
00000150: 3442 8e3b 5be2 103a f0f5 59bc 2fbc 433c
00000160: 78cc 5c3b 01c6 02bc 9a06 043b 56a9 afbc
00000170: 0e6e 273c cb5c 023c 1b2f 2fbb 46c2 de3b
00000180: 981f 76bc 8926 353c 84de bfbb 9cb4 7bbc
00000190: 6a4a 82bb bd20 773a 36cd 053b 00d1 9c3c
000001a0: c004 a93b 64d7 823a c6af 23bc 8625 cbbb
000001b0: d91f bfbb 5c1e 9cbb 1277 dc3b d00e 11bb
000001c0: 84c0 523c 1e7a 963b 15f2 02bc afb2 b43b
000001d0: e89f 1f3c c51d 29bb b3cc 23bc 0a8f 7b38
000001e0: c629 ba3b a042 10bc 82dd 87bb cb1c cdba
000001f0: 8e0d aabb 6e34 ba3b 5e0d cabb 9c5d 4c3c
00000200: 9fc7 883b fd72 87bc 070b 21bb c362 1d3c
00000210: 7de5 aabb 4051 4f3b 30ed d6bb 07bc 1c3c
00000220: 0a00 47bc 2956 36bb 8494 193c d402 77bc
00000230: 3ee4 293c 72c7 f1bb 0763 853c 534a 273c
00000240: 581c 03bc 810f ea3b 5cae b5bb ee36 5cbc
00000250: d071 9ebc 12a0 c9bc 1561 3ebb 1cb5 43bc
00000260: 99a3 99ba 6e0b 963b 7ca9 6dba ebb2 1dbc
00000270: b707 15bb c084 42bc 5d77 3bbc ef8c 323c
00000280: 22da 95bb 7d7b afbb 19e2 373b 0566 3c3c
00000290: 6dbe 19bc 1974 023c cc6d 6a3b e23d 813a
000002a0: 0d5c 8e3a 0fe7 97bc dcb9 f3bb f082 20bc
000002b0: 212d e0bb a480 49b9 1906 043c 3d36 2e3c
000002c0: 4371 6c3c 892a a93b 8dde 88ba 5e2e 20bb
000002d0: c0a1 da3a 402e 0cbb 588b 06b8 36ab 9f3b
000002e0: 33b9 1a3c 58c4 00bc 5be9 603b 7e08 bfba
000002f0: 40fa 8a3c 32a6 d33b 18a7 25bb 813b 41bc
00000300: 60ae 723b 17c1 32bc 826a 9cbb fb1d 9d3b
00000310: 60ca 44bc a902 e13c 203a 603c efda 2ebb
00000320: c543 59bc 7c2f 553c 5298 4abc d2d4 8cbb
00000330: 4124 fa3b be91 9fbb 0f53 023d 7c19 d5ba
00000340: 3959 4ebb f263 143c c7ee 003c a618 893c
00000350: 3c4e f13b fef6 433c 051e fdbb 0bd3 85bc
00000360: f475 8f3c 5388 44ba 89ad 593c 2a2d 7abc
00000370: 005a dbbb 293d 82bc 67aa 303a cb0e 403b
00000380: 54f8 a03c c690 22bc fff0 183b c042 0bbb
00000390: f85f beb8 50c9 963c ce29 12bc e978 433b
000003a0: 39fb 4d3c fb1c 03bc 656a a7bc 82c2 e3bb
000003b0: 2270 1a3c 6696 ef3a 8bdf 13bb 79d9 913a
000003c0: c6ee 55bc c974 3d3b abb0 84bc 134c 4ebc
000003d0: e407 da3b 9584 433c 6475 31ba 56ab 94bb
000003e0: 0ec1 c13b 223d c03c b51a c1bb e1fc 643c
000003f0: c2f8 91bb 2444 d63b c92c 353c 601b 23bc

action_input.bias f4 [128]
0.041447975 -0.033392966 -0.025534976 -0.051451158 0.049236026 -0.063417315 -0.09382955 -0.007824159
-0.036047556 -0.003241098 0.06967405 -0.07089865 0.0025978328 0.041700494 -0.020480562 0.0068115355
0.019598221 -0.047409058 0.02420776 -0.042181503 -0.061578035 -0.03782183 -0.021197988 -0.092735186
-0.07196044 0.09964933 -0.02125007 0.025808895 -0.048706748 -0.01216321 0.03242184 0.0057206512
-0.023143578 -0.02191999 -0.0022172332 -0.06193855 -0.032676842 -0.071980886 0.058833312 -0.032038797
0.08919545 -0.001342392 0.024052 0.066054106 -0.030664349 0.057864737 0.024940241 -0.0777538
-0.058243778 -0.048385512 0.030563379 -0.047308244 0.09429894 0.07180619 0.0018238545 0.05808852
-0.03433944 0.03431032 -0.057863653 0.043188788 0.026785005 -0.07085355 0.08187804 -0.0021628737
0.012222744 -0.05543976 -0.028822064 0.0026498318 -0.05736822 0.033866297 -0.06524112 -0.08441939
-0.091351904 0.015132773 -0.06800667 -0.010856581 0.026076628 0.04995829 0.094586246 0.022624671
0.044204857 0.013564241 -0.0020887495 0.04093914 0.057436265 -0.04464772 0.018096924 -0.011207688
-0.021871483 0.013410377 0.0323568 0.05818522 0.070111156 0.035854828 -0.078774326 0.043383934
0.070934 -0.0866776 0.03433391 0.05589023 -0.07619244 0.061243534 -0.08357244 -0.04079137
0.041461565 -0.08790451 0.0742506 0.07674662 -0.096151926 0.021444296 -0.026599241 0.034945022
-0.07880241 -0.086636476 -0.08542985 0.073655285 -0.001377833 0.0030658126 0.075855784 -0.09943223
-0.028935982 0.005675185 0.051148474 0.06365583 -0.059651162 0.05132679 0.09714218 0.08653791
00000000: 5ac5 293d 10c7 08bd ba2e d1bc 73be 52bd
00000010: b7ab 493d f0e0 81bd b529 c0bd e730 00bc
00000020: 9aa6 13bd 9a68 54bb 45b1 8e3d 5033 91bd
00000030: 6740 2a3b 23ce 2a3d dac6 a7bc 4d33 df3b
00000040: 738c a03c 0030 42bd 5a4f c63c 83c6 2cbd
00000050: 4039 7cbd 10eb 1abd 67a7 adbc f2eb bdbd
00000060: ff5f 93bd f314 cc3d a014 aebc 2d6d d33c
00000070: ba80 47bd 3348 47bc c3cc 043d 4d74 bb3b
00000080: 9a97 bdbc 8d91 b3bc 004f 11bb 47b3 7dbd
00000090: 27d8 05bd b76a 93bd 33fb 703d 1d3b 03bd
000000a0: 1bac b63d 33f3 afba b308 c53c 6047 873d
000000b0: cd33 fbbc 9303 6d3d 7a4f cc3c 623d 9fbd
000000c0: 0791 6ebd e32f 46bd 0d60 fa3c 4ac6 41bd
000000d0: cd1f c13d 200f 933d 670e ef3a 3aee 6d3d
000000e0: 83a7 0cbd fa88 0c3d 7002 6dbd bae6 303d
000000f0: 3a6c db3c ab1b 91bd adaf a73d 00bf 0dbb
00000100: e741 483c cd14 63bd 401c ecbc cda8 2d3b
00000110: f0fa 6abd 63b7 0a3d 239d 85bd 13e4 acbd
00000120: b516 bbbd 73ef 773c 1547 8bbd cddf 31bc
00000130: a79e d53c 10a1 4c3d 6fb6 c13d 6057 b93c
00000140: 2710 353d 8d3c 5e3c 67e3 08bb cdaf 273d
00000150: 4a42 6b3d 87e0 36bd 0040 943c 73a0 37bc
00000160: d32b b3bc 33b7 5b3c 9088 043d a053 6e3d
00000170: 7096 8f3d 83dc 123d 6f54 a1bd 5ab3 313d
00000180: d845 913d 0784 b1bd b7a1 0c3d 27ed 643d
00000190: c80a 9cbd 80da 7a3d 0728 abbd da14 27bd
000001a0: 9ad3 293d 4807 b4bd b310 983d 552d 9d3d
000001b0: 4deb c4bd f3ab af3c a7e6 d9bc 8322 0f3d
000001c0: 2863 a1bd 776e b1bd d8f5 aebd 95d8 963d
000001d0: 6798 b4ba cdeb 483b 475a 9b3d 20a3 cbbd
000001e0: 270b edbc e7f6 b93b 1081 513d fd5d 823d
000001f0: c754 74bd 0a3c 523d 7bf2 c63d ca3a b13d

layers.0.weight f4 [256, 256]
0.004921283 -0.023070717 0.006813676 -0.0015799699 -0.00996818 -0.0107155945 0.002879836 0.008341424
-0.003587802 -0.007857922 0.00046549382 -0.011710143 0.015382398 0.0011656196 -0.0051203175 0.008332265
0.0005189686 -0.0016769104 -0.01633128 -0.017792804 -0.009532443 0.0039165276 -0.006923016 -0.020858483
0.0024227905 -0.0037195596 -0.00673604 -0.0036265417 -0.0022035292 0.0043246318 -0.0014683075 0.024788354
-0.017644899 0.024571352 -0.0039872974 0.0030387086 0.0022738532 -0.0058437544 -0.007757057 -0.020250125
-0.00019160684 0.00017355531 0.012270668 -0.0025344843 0.003373892 0.006559734 0.0020987457 -0.0068312488
0.0065609883 -0.005500185 -0.0046775495 0.006184713 0.017357431 0.0009838094 0.008921853 0.008143121
-0.0032137604 -0.0023774125 0.00048548062 0.014047812 -0.0028536597 0.013715484 0.013779294 0.0029800774
-0.00020203614 0.0075148228 -0.0120925745 0.010836045 0.0023331502 -0.0049077068 -0.00077854184 0.023901483
-0.00152884 -0.013106237 -0.010804644 0.007032323 -0.0039684386 0.0028525132 0.0132509805 0.001108451
0.0012816738 0.01716057 0.0063064164 0.011228525 -0.006812806 0.0010094636 -0.0039490564 0.009438372
-0.013855434 0.009186038 -0.0034620338 0.00987882 -0.0019446926 -0.0023631623 -0.010272492 0.013340844
-0.0060883705 0.0050306353 -0.0075957906 0.0042654066 -0.0067026997 0.00024259798 0.0019022439 0.015555065
0.0026756728 0.00069997937 -9.156088e-05 -0.006804352 0.005399294 -0.004532384 0.0025564872 0.001980669
-0.010484483 -0.010742519 0.005498305 0.009462456 0.0078024324 0.013881587 -0.008437384 0.0075504268
-0.011990245 -0.006680531 -0.0011064988 -0.0016593997 0.0044874377 -0.017405078 -0.0027440232 0.011200978
0.02411646 -0.018616678 0.0048634014 -0.015723368 -0.010528706 -0.031777125 -0.0084106065 -0.0069646803
-0.00047973136 -0.021531655 -0.011317779 0.003246052 -0.0018339519 0.001832851 -0.0014613399 0.0024114044
0.014152761 0.00714514 -0.010971808 -0.00049757224 0.0085097095 -0.017339263 -0.0011312867 0.006604653
-0.00517213 -0.0027408595 0.012849965 0.0021930682 -0.015446088 -0.010046782 -0.007389768 0.005949859
0.015848244 -0.018161172 0.010963693 -0.004551137 0.0036040165 -0.01536633 -0.0057361126 -0.0028411343
-0.0030311549 -0.0074518537 0.010897281 -0.006250156 -0.004334232 0.0013636802 0.0069717555 0.0018814233
0.00957816 -0.006285914 0.0023576848 0.005883571 -0.0008517665 -0.0033805787 -0.0011274939 -0.0017914695
-0.022239959 0.007246638 -0.0039378195 0.015813628 0.0027545313 -0.00244743 0.003132795 -0.0012911638
-0.0104709845 -0.010025285 -0.012355394 0.0103405835 -0.00966974 0.0075130295 0.0020621368 -0.004585598
-0.0033446013 0.007055726 0.0011875139 0.0015202247 0.0043794406 0.0066847866 0.028241608 0.007669334
0.0012212087 -0.0025231754 0.018833738 0.013472706 0.005971603 -4.698395e-05 -0.009492856 -0.00968178
0.004754798 0.00989959 -0.016076652 0.013363869 -0.006679978 0.008422506 -0.009424963 0.012112788
0.0045215287 0.0006509317 -0.0014195571 0.00961987 -0.009300615 0.010889896 0.006200802 0.003724592
-0.006085205 -0.019221341 0.0027094206 0.00046777647 -0.0011560774 0.010159924 0.019128675 -0.0045322636
0.0013002888 -0.013698976 0.016148359 0.012355392 -0.0009058602 -0.012878227 -0.002549258 0.010903223
-0.009018112 0.0030101135 0.0017489014 0.014495531 0.014966459 -0.019590618 -0.008539159 0.012661826
00000000: b742 a13b cdfe bcbc 4245 df3b fe16 cfba
00000010: 9451 23bc 7690 2fbc a1bb 3c3b 78aa 083c
00000020: 5421 6bbb 84be 00bc 860d f439 e6db 3fbc
00000030: 7406 7c3c b4c7 983a 56c8 a7bb 0d84 083c
00000040: 650b 083a c7cb dbba 2dc9 85bc 37c2 91bc
00000050: f72d 1cbc 3756 803b 78da e2bb 69df aabc
00000060: aec7 1e3b dbc3 73bb 00ba dcbb 46ab 6dbb
00000070: 1669 10bb a4b5 8d3b 3974 c0ba f210 cb3c
00000080: 098c 90bc dc49 c93c e0a7 82bb 1225 473b
00000090: ed04 153b f77c bfbb e92e febb 97e3 a5bc
000000a0: 12ea 48b9 66fc 3539 e90a 493c 9719 26bb
000000b0: 841c 5d3b 0af3 d63b 1c8b 093b abd8 dfbb
000000c0: 8ffd d63b e53a b4bb 2146 99bb 22a9 ca3b
000000d0: 2c31 8e3c 2af3 803a f72c 123c ba6a 053c
000000e0: f49d 52bb 5dce 1bbb 1b88 fe39 cb28 663c
000000f0: 7704 3bbb e9b6 603c 8cc2 613c 674d 433b
00000100: aad9 53b9 e73e f63b ef1f 46bc ab89 313c
00000110: c4e7 183b d4d0 a0bb 0f17 4cba 0bcd c33c
00000120: 5c63 c8ba 8bbb 56bc f605 31bc 676f e63b
00000130: ad09 82bb 3bf1 3a3b a41a 593c 7249 913a
00000140: d6fd a73a 5394 8c3c 0ea6 ce3b d9f7 373c
00000150: f53d dfbb fa4f 843a 1667 81bb 67a3 1a3c
00000160: e701 63bc 0981 163c 4ae3 62bb c6da 213c
00000170: 0ee5 feba 49df 1abb f44d 28bc 8e93 5a3c
00000180: f480 c7bb 07d8 a43b 1ce6 f8bb d3c4 8b3b
00000190: 52a2 dbbb e661 7e39 b754 f93a acda 7e3c
000001a0: 575a 2f3b d27e 373a 6004 c0b8 0bf7 debb
000001b0: 90ec b03b 6584 94bb bd8a 273b 1dce 013b
000001c0: 1cc7 2bbc 6401 30bc 202b b43b 6b08 1b3c
000001d0: 8cab ff3b 996f 633c f43c 0abc 9269 f73b
000001e0: bc72 44bc 5be8 dabb f007 91ba 3780 d9ba
000001f0: 5b0b 933b 1895 8ebc 12d5 33bb 4f84 373c
00000200: e28f c53c 0182 98bc 2b5d 9f3b 4bce 80bc
00000210: 9880 2cbc bb28 02bd a4cc 09bc f937 e4bb
00000220: 7484 fbb9 2763 b0bc 356e 39bc b7bb 543b
00000230: 3761 f0ba 463c f03a 6e8a bfba a708 1e3b
00000240: fbe0 673c c721 ea3b 19c3 33bc 826f 02ba
00000250: 4f6c 0b3c 120b 8ebc af47 94ba d86b d83b
00000260: f97a a9bb fe9f 33bb a988 523c 94b9 0f3b
00000270: 9711 7dbc 429b 24bc de25 f2bb 09f7 c23b
00000280: 2dd4 813c bdc6 94bc 10a1 333c b421 95bb
00000290: 5d31 6c3b 0fc3 7bbc 00f6 bbbb 5332 3abb
000002a0: 57a6 46bb ae2e f4bb 828a 323c 1cce ccbb
000002b0: 2c06 8ebb 84bd b23a 5373 e43b 179a f63a
000002c0: b7ed 1c3c 12fa cdbb 6383 1a3b f9ca c03b
000002d0: 1549 5fba b38c 5dbb 6bc8 93ba becf eaba
000002e0: 9330 b6bc 3575 ed3b d308 81bb 958b 813c
000002f0: 5e85 343b 1065 20bb 944f 4d3b 453c a9ba
00000300: 7e8e 2bbc 1841 24bc 476e 4abc 8d6b 293c
00000310: d46d 1ebc dc2f f63b ea24 073b c942 96bb
00000320: 1931 5bbb b833 e73b 5ba6 9b3a 4742 c73a
00000330: 6981 8f3b 0e0c db3b f25a e73c 094f fb3b
00000340: f710 a03a dc5b 25bb 3649 9a3c a0bc 5c3c
00000350: 70ad c33b a210 45b8 ed87 1bbc 54a0 1ebc
00000360: 23ce 9b3b e431 223c 2fb3 83bc 21f4 5a3c
00000370: b8e3 dabb 8dfe 093c 296b 1abc b774 463c
00000380: 5529 943b 49a3 2a3a 6f10 baba a99c 1d3c
00000390: 9b61 18bc 896b 323c 1930 cb3b 4918 743b
000003a0: 6666 c7bb 1376 9dbc 8990 313b e53f f539
000003b0: 8587 97ba cf75 263c bdb3 9c3c 6283 94bb
000003c0: 746e aa3a ab71 60bc 9049 843c 456e 4a3c
000003d0: 4077 6dba 33ff 52bc 7411 27bb 6fa3 323c
000003e0: b4c0 13bc 5345 453b 653b e53a aa7e 6d3c
000003f0: e135 753c 817c a0bc d4e7 0bbc 8c73 4f3c

layers.0.bias f4 [256]
-0.08733934 0.06921814 -0.030404747 0.06172383 -0.020283569 0.05509689 -0.08674284 0.033169713
0.035820853 0.09745868 0.0644182 -0.046993878 -0.019166065 -0.06538428 0.089944266 -0.0019591094
0.050934494 0.025122106 -0.008774662 0.05161021 -0.08344459 0.03850274 -0.09332426 -0.08808779
0.051310457 0.09894269 0.063176386 -0.041271042 0.09126355 0.09789421 0.027318096 -0.09089442
0.047373235 0.053099778 0.036859453 0.022397304 0.088222936 0.021777749 -0.051429596 0.002591777
-0.07997411 0.09142727 -0.033181548 0.032083917 0.03525294 0.000666821 -0.08001838 0.008517051
-0.09288513 0.020865584 0.042638984 0.05343015 0.057421505 -0.08657842 -0.07909357 0.0253747
0.08108193 0.018778874 -0.0172014 -0.020577336 -0.094294004 -0.05657939 0.025790393 -0.09660373
0.029232109 0.09442069 0.06647968 -0.008523703 0.099183716 -0.060491312 -0.0799508 -0.015892316
-0.035619594 0.058894742 -0.058920216 0.039565112 -0.030763924 -0.019392693 -0.08542862 -0.08957268
0.036907684 0.09566996 0.024328578 0.017125918 0.057261135 -0.018749345 0.058114626 -0.05634718
0.04493567 -0.06030008 -0.09202814 0.070831515 0.013936782 0.07208047 -0.062453497 -0.05703932
-0.043401886 0.0037423016 0.014873016 -0.07500688 0.078812234 0.007832813 -0.06309903 0.07843598
-0.0048341635 0.012707675 0.038808323 -0.040351953 0.022907365 -0.0742533 -0.035319995 0.062593356
-0.035060514 -0.089305595 0.07264688 -0.08268938 -0.019512702 -0.077199236 -0.03845259 -0.044911504
-0.022721922 0.09120724 0.008564127 -0.06310809 0.0071540596 0.040541437 0.08726033 -0.074628964
0.076539315 0.045258712 -0.019490385 0.02709403 0.04394598 -0.04488046 0.06807039 -0.011855937
-0.011552977 0.0071403743 0.092916705 -0.009918356 0.09578387 -0.04064559 0.005109048 -0.06559602
0.085707 -0.061405063 -0.021630943 -0.026676191 0.09586548 0.04428512 0.042605188 -0.020537293
-0.06804224 0.041947212 -0.055924714 -0.017425334 0.014414668 0.026560402 -0.055227198 -0.09293802
0.030246938 -0.083469056 0.058236398 0.07950177 0.02672726 -0.020496344 -0.04018549 -0.041086137
0.09066727 -0.009070075 0.028225614 0.029385222 -0.05457604 -0.09543302 0.096241 0.058661498
-0.01544112 0.02049774 0.084979646 -0.016526032 0.018397344 -0.020008564 0.02746377 0.06071178
0.0104935765 -0.033998933 0.059958864 -0.014709735 0.008597004 0.08241915 -0.035306897 -0.030521154
0.009497928 0.03247645 -0.0102330325 0.048025023 0.080849566 0.06232381 -0.04969622 -0.08187161
-0.007458377 -0.0707366 0.021643972 0.084033325 -0.0032827854 -0.07936875 0.07764719 -0.030040039
-0.03658971 0.07398993 -0.056659497 -0.04271257 0.0067550302 -0.02649355 0.038621094 -0.010654807
0.038726877 0.007207501 -0.02560537 0.037324525 -0.067310214 -0.0049073696 -0.06264132 -0.023390472
-0.08211415 -0.06773007 0.047920633 -0.02195753 -0.09438916 0.082780674 0.08826945 -0.00023077727
0.014302611 0.042956617 0.052855372 -0.052075185 0.011506999 -0.039468933 -0.07412831 -0.075735055
0.042493667 0.08496386 -0.014172447 -0.031697668 0.020582069 -0.009877348 -0.012258053 0.07987978
0.011537003 0.055912424 -0.034736384 -0.0021239042 -0.019301271 0.032523572 -0.09010059 -0.040899027
00000000: f8de b2bd 3dc2 8d3d 6013 f9bc 20d2 7c3d
00000010: ba29 a6bc 47ad 613d 3ba6 b1bd f7dc 073d
00000020: e3b8 123d 6b98 c73d b0ed 833d a77c 40bd
00000030: 2702 9dbc 32e8 85bd b334 b83d 6764 00bb
00000040: b0a0 503d e0cc cd3c 9ac3 0fbc 3a65 533d
00000050: ffe4 aabd 0db5 1d3d ca20 bfbd 5f67 b4bd
00000060: ea2a 523d 77a2 ca3d 9f62 813d d30b 29bd
00000070: 62e8 ba3d c27c c83d 33ca df3c db26 babd
00000080: 700a 423d 277f 593d f0f9 163d 8d7a b73c
00000090: 3aae b43d 4067 b23c d7a7 52bd cdda 293b
000000a0: 77c9 a3bd 383e bb3d 60e9 07bd 6d6a 033d
000000b0: 6365 103d 9acd 2e3a ade0 a3bd 1a8b 0b3c
000000c0: 8f3a bebd 4dee aa3c 37a6 2e3d 93d9 5a3d
000000d0: d032 6b3d 0750 b1bd cffb a1bd 9ade cf3c
000000e0: 480e a63d 27d6 993c f3e9 8cbc cd91 a8bc
000000f0: 371d c1bd cabf 67bd 6046 d33c 2dd8 c5bd
00000100: 2d78 ef3c a25f c13d 8026 883d 00a7 0bbc
00000110: d520 cb3d bdc5 77bd 3fbd a3bd 9a30 82bc
00000120: dae5 11bd 9d3b 713d 5356 71bd 070f 223d
00000130: a004 fcbc 6ddd 9ebc 33f5 aebd e271 b7bd
00000140: 832c 173d 9dee c33d ba4c c73c a74b 8c3c
00000150: a78a 6a3d 3a98 99bc 9a09 6e3d 4dcc 66bd
00000160: 770e 383d 37fd 76bd 4079 bcbd 1d10 913d
00000170: 1a57 643c ed9e 933d 3dcf 7fbd 10a2 69bd
00000180: 2dc6 31bd 6741 753b f3ad 733c 359d 99bd
00000190: 4f68 a13d 3355 003c 103a 81bd 0ba3 a03d
000001a0: e767 9ebb da33 503c 7af5 1e3d 1748 25bd
000001b0: 3aa8 bb3c 1d12 98bd b3ab 10bd f230 803d
000001c0: 9d9b 0fbd dae5 b6bd e3c7 943d 0d59 a9bd
000001d0: 1ad9 9fbc a21a 9ebd 7780 1dbd 20f5 37bd
000001e0: 5323 babc ddca ba3d 8d50 0c3c d03e 81bd
000001f0: 9a6c ea3b c70e 263d 8bb5 b23d 12d7 98bd
00000200: a5c0 9c3d 3361 393d 4daa 9fbc 4df4 dd3c
00000210: b300 343d 93d4 37bd 7d68 8b3d 673f 42bc
00000220: b348 3dbc cdf9 e93b 1d4b be3d 9a80 22bc
00000230: 552a c43d fd7b 26bd cd69 a73b 3557 86bd
00000240: 2787 af3d e083 7bbd 6033 b1bc 0788 dabc
00000250: 1f55 c43d 5064 353d c782 2e3d d33d a8bc
00000260: bb59 8bbd d7d0 2b3d 5011 65bd 93bf 8ebc
00000270: 802b 6c3c 3395 d93c ea35 62bd 4a56 bebd
00000280: 6dc8 f73c d3f1 aabd 4a89 6e3d d3d1 a23d
00000290: 20f3 da3c f3e7 a7bc 8a99 24bd f049 28bd
000002a0: c3af b93d a79a 14bc 6739 e73c 47b9 f03c
000002b0: 208b 5fbd 6372 c3bd 001a c53d 0a47 703d
000002c0: c0fc 7cbc e0ea a73c cf09 ae3d 9a61 87bc
000002d0: 07b6 963c 00e9 a3bc b3fb e03c eaac 783d
000002e0: 40ed 2b3c 7742 0bbd 6d97 753d 1a01 71bc
000002f0: 73da 0c3c 5fcb a83d f79d 10bd 8007 fabc
00000300: 339d 1b3c 0706 053d 73a8 27bc e3b5 443d
00000310: 7594 a53d 4047 7f3d 438e 4bbd 4dac a7bd
00000320: 6765 f4bb 5ade 90bd b34e b13c aa19 ac3d
00000330: 0024 57bb 158c a2bd 7d05 9f3d 8716 f6bc
00000340: 17df 15bd 0888 973d ca13 68bd 60f3 2ebd
00000350: 4d59 dd3b 0009 d9bc 2731 1e3d 8091 2ebc
00000360: 13a0 1e3d e72c ec3b 5ac2 d1bc 9ae1 183d
00000370: f0d9 89bd 00ce a0bb 184a 80bd 609d bfbc
00000380: 772b a8bd 10b6 8abd 6d48 443d 47e0 b3bc
00000390: 1b4f c1bd ea88 a93d 9dc6 b43d cdfc 71b9
000003a0: 8055 6a3c 47f3 2f3d e07e 583d ca4c 55bd
000003b0: da87 3c3c 2daa 21bd 95d0 97bd fb1a 9bbd
000003c0: d70d 2e3d 8801 ae3d 8d33 68bc 6ad5 01bd
000003d0: ba9b a83c 9ad4 21bc 00d6 48bc 0398 a33d
000003e0: b305 3d3c 6d04 653d bd47 0ebd 3331 0bbb
000003f0: b31d 9ebc 7037 053d a886 b8bd bd85 27bd

layers.3.weight f4 [256]
1.0 1.0 1.0 1.0 1.0 1.0 1.0 1.0
1.0 1.0 1.0 1.0 1.0 1.0 1.0 1.0
1.0 1.0 1.0 1.0 1.0 1.0 1.0 1.0
1.0 1.0 1.0 1.0 1.0 1.0 1.0 1.0
1.0 1.0 1.0 1.0 1.0 1.0 1.0 1.0
1.0 1.0 1.0 1.0 1.0 1.0 1.0 1.0
1.0 1.0 1.0 1.0 1.0 1.0 1.0 1.0
1.0 1.0 1.0 1.0 1.0 1.0 1.0 1.0
1.0 1.0 1.0 1.0 1.0 1.0 1.0 1.0
1.0 1.0 1.0 1.0 1.0 1.0 1.0 1.0
1.0 1.0 1.0 1.0 1.0 1.0 1.0 1.0
1.0 1.0 1.0 1.0 1.0 1.0 1.0 1.0
1.0 1.0 1.0 1.0 1.0 1.0 1.0 1.0
1.0 1.0 1.0 1.0 1.0 1.0 1.0 1.0
1.0 1.0 1.0 1.0 1.0 1.0 1.0 1.0
1.0 1.0 1.0 1.0 1.0 1.0 1.0 1.0
1.0 1.0 1.0 1.0 1.0 1.0 1.0 1.0
1.0 1.0 1.0 1.0 1.0 1.0 1.0 1.0
1.0 1.0 1.0 1.0 1.0 1.0 1.0 1.0
1.0 1.0 1.0 1.0 1.0 1.0 1.0 1.0
1.0 1.0 1.0 1.0 1.0 1.0 1.0 1.0
1.0 1.0 1.0 1.0 1.0 1.0 1.0 1.0
1.0 1.0 1.0 1.0 1.0 1.0 1.0 1.0
1.0 1.0 1.0 1.0 1.0 1.0 1.0 1.0
1.0 1.0 1.0 1.0 1.0 1.0 1.0 1.0
1.0 1.0 1.0 1.0 1.0 1.0 1.0 1.0
1.0 1.0 1.0 1.0 1.0 1.0 1.0 1.0
1.0 1.0 1.0 1.0 1.0 1.0 1.0 1.0
1.0 1.0 1.0 1.0 1.0 1.0 1.0 1.0
1.0 1.0 1.0 1.0 1.0 1.0 1.0 1.0
1.0 1.0 1.0 1.0 1.0 1.0 1.0 1.0
1.0 1.0 1.0 1.0 1.0 1.0 1.0 1.0
00000000: 0000 803f 0000 803f 0000 803f 0000 803f
00000010: 0000 803f 0000 803f 0000 803f 0000 803f
00000020: 0000 803f 0000 803f 0000 803f 0000 803f
00000030: 0000 803f 0000 803f 0000 803f 0000 803f
00000040: 0000 803f 0000 803f 0000 803f 0000 803f
00000050: 0000 803f 0000 803f 0000 803f 0000 803f
00000060: 0000 803f 0000 803f 0000 803f 0000 803f
00000070: 0000 803f 0000 803f 0000 803f 0000 803f
00000080: 0000 803f 0000 803f 0000 803f 0000 803f
00000090: 0000 803f 0000 803f 0000 803f 0000 803f
000000a0: 0000 803f 0000 803f 0000 803f 0000 803f
000000b0: 0000 803f 0000 803f 0000 803f 0000 803f
000000c0: 0000 803f 0000 803f 0000 803f 0000 803f
000000d0: 0000 803f 0000 803f 0000 803f 0000 803f
000000e0: 0000 803f 0000 803f 0000 803f 0000 803f
000000f0: 0000 803f 0000 803f 0000 803f 0000 803f
00000100: 0000 803f 0000 803f 0000 803f 0000 803f
00000110: 0000 803f 0000 803f 0000 803f 0000 803f
00000120: 0000 803f 0000 803f 0000 803f 0000 803f
00000130: 0000 803f 0000 803f 0000 803f 0000 803f
00000140: 0000 803f 0000 803f 0000 803f 0000 803f
00000150: 0000 803f 0000 803f 0000 803f 0000 803f
00000160: 0000 803f 0000 803f 0000 803f 0000 803f
00000170: 0000 803f 0000 803f 0000 803f 0000 803f
00000180: 0000 803f 0000 803f 0000 803f 0000 803f
00000190: 0000 803f 0000 803f 0000 803f 0000 803f
000001a0: 0000 803f 0000 803f 0000 803f 0000 803f
000001b0: 0000 803f 0000 803f 0000 803f 0000 803f
000001c0: 0000 803f 0000 803f 0000 803f 0000 803f
000001d0: 0000 803f 0000 803f 0000 803f 0000 803f
000001e0: 0000 803f 0000 803f 0000 803f 0000 803f
000001f0: 0000 803f 0000 803f 0000 803f 0000 803f
00000200: 0000 803f 0000 803f 0000 803f 0000 803f
00000210: 0000 803f 0000 803f 0000 803f 0000 803f
00000220: 0000 803f 0000 803f 0000 803f 0000 803f
00000230: 0000 803f 0000 803f 0000 803f 0000 803f
00000240: 0000 803f 0000 803f 0000 803f 0000 803f
00000250: 0000 803f 0000 803f 0000 803f 0000 803f
00000260: 0000 803f 0000 803f 0000 803f 0000 803f
00000270: 0000 803f 0000 803f 0000 803f 0000 803f
00000280: 0000 803f 0000 803f 0000 803f 0000 803f
00000290: 0000 803f 0000 803f 0000 803f 0000 803f
000002a0: 0000 803f 0000 803f 0000 803f 0000 803f
000002b0: 0000 803f 0000 803f 0000 803f 0000 803f
000002c0: 0000 803f 0000 803f 0000 803f 0000 803f
000002d0: 0000 803f 0000 803f 0000 803f 0000 803f
000002e0: 0000 803f 0000 803f 0000 803f 0000 803f
000002f0: 0000 803f 0000 803f 0000 803f 0000 803f
00000300: 0000 803f 0000 803f 0000 803f 0000 803f
00000310: 0000 803f 0000 803f 0000 803f 0000 803f
00000320: 0000 803f 0000 803f 0000 803f 0000 803f
00000330: 0000 803f 0000 803f 0000 803f 0000 803f
00000340: 0000 803f 0000 803f 0000 803f 0000 803f
00000350: 0000 803f 0000 803f 0000 803f 0000 803f
00000360: 0000 803f 0000 803f 0000 803f 0000 803f
00000370: 0000 803f 0000 803f 0000 803f 0000 803f
00000380: 0000 803f 0000 803f 0000 803f 0000 803f
00000390: 0000 803f 0000 803f 0000 803f 0000 803f
000003a0: 0000 803f 0000 803f 0000 803f 0000 803f
000003b0: 0000 803f 0000 803f 0000 803f 0000 803f
000003c0: 0000 803f 0000 803f 0000 803f 0000 803f
000003d0: 0000 803f 0000 803f 0000 803f 0000 803f
000003e0: 0000 803f 0000 803f 0000 803f 0000 803f
000003f0: 0000 803f 0000 803f 0000 803f 0000 803f

layers.3.bias f4 [256]
0.0 0.0 0.0 0.0 0.0 0.0 0.0 0.0
0.0 0.0 0.0 0.0 0.0 0.0 0.0 0.0
0.0 0.0 0.0 0.0 0.0 0.0 0.0 0.0
0.0 0.0 0.0 0.0 0.0 0.0 0.0 0.0
0.0 0.0 0.0 0.0 0.0 0.0 0.0 0.0
0.0 0.0 0.0 0.0 0.0 0.0 0.0 0.0
0.0 0.0 0.0 0.0 0.0 0.0 0.0 0.0
0.0 0.0 0.0 0.0 0.0 0.0 0.0 0.0
0.0 0.0 0.0 0.0 0.0 0.0 0.0 0.0
0.0 0.0 0.0 0.0 0.0 0.0 0.0 0.0
0.0 0.0 0.0 0.0 0.0 0.0 0.0 0.0
0.0 0.0 0.0 0.0 0.0 0.0 0.0 0.0
0.0 0.0 0.0 0.0 0.0 0.0 0.0 0.0
0.0 0.0 0.0 0.0 0.0 0.0 0.0 0.0
0.0 0.0 0.0 0.0 0.0 0.0 0.0 0.0
0.0 0.0 0.0 0.0 0.0 0.0 0.0 0.0
0.0 0.0 0.0 0.0 0.0 0.0 0.0 0.0
0.0 0.0 0.0 0.0 0.0 0.0 0.0 0.0
0.0 0.0 0.0 0.0 0.0 0.0 0.0 0.0
0.0 0.0 0.0 0.0 0.0 0.0 0.0 0.0
0.0 0.0 0.0 0.0 0.0 0.0 0.0 0.0
0.0 0.0 0.0 0.0 0.0 0.0 0.0 0.0
0.0 0.0 0.0 0.0 0.0 0.0 0.0 0.0
0.0 0.0 0.0 0.0 0.0 0.0 0.0 0.0
0.0 0.0 0.0 0.0 0.0 0.0 0.0 0.0
0.0 0.0 0.0 0.0 0.0 0.0 0.0 0.0
0.0 0.0 0.0 0.0 0.0 0.0 0.0 0.0
0.0 0.0 0.0 0.0 0.0 0.0 0.0 0.0
0.0 0.0 0.0 0.0 0.0 0.0 0.0 0.0
0.0 0.0 0.0 0.0 0.0 0.0 0.0 0.0
0.0 0.0 0.0 0.0 0.0 0.0 0.0 0.0
0.0 0.0 0.0 0.0 0.0 0.0 0.0 0.0
00000000: 0000 0000 0000 0000 0000 0000 0000 0000
00000010: 0000 0000 0000 0000 0000 0000 0000 0000
00000020: 0000 0000 0000 0000 0000 0000 0000 0000
00000030: 0000 0000 0000 0000 0000 0000 0000 0000
00000040: 0000 0000 0000 0000 0000 0000 0000 0000
00000050: 0000 0000 0000 0000 0000 0000 0000 0000
00000060: 0000 0000 0000 0000 0000 0000 0000 0000
00000070: 0000 0000 0000 0000 0000 0000 0000 0000
00000080: 0000 0000 0000 0000 0000 0000 0000 0000
00000090: 0000 0000 0000 0000 0000 0000 0000 0000
000000a0: 0000 0000 0000 0000 0000 0000 0000 0000
000000b0: 0000 0000 0000 0000 0000 0000 0000 0000
000000c0: 0000 0000 0000 0000 0000 0000 0000 0000
000000d0: 0000 0000 0000 0000 0000 0000 0000 0000
000000e0: 0000 0000 0000 0000 0000 0000 0000 0000
000000f0: 0000 0000 0000 0000 0000 0000 0000 0000
00000100: 0000 0000 0000 0000 0000 0000 0000 0000
00000110: 0000 0000 0000 0000 0000 0000 0000 0000
00000120: 0000 0000 0000 0000 0000 0000 0000 0000
00000130: 0000 0000 0000 0000 0000 0000 0000 0000
00000140: 0000 0000 0000 0000 0000 0000 0000 0000
00000150: 0000 0000 0000 0000 0000 0000 0000 0000
00000160: 0000 0000 0000 0000 0000 0000 0000 0000
00000170: 0000 0000 0000 0000 0000 0000 0000 0000
00000180: 0000 0000 0000 0000 0000 0000 0000 0000
00000190: 0000 0000 0000 0000 0000 0000 0000 0000
000001a0: 0000 0000 0000 0000 0000 0000 0000 0000
000001b0: 0000 0000 0000 0000 0000 0000 0000 0000
000001c0: 0000 0000 0000 0000 0000 0000 0000 0000
000001d0: 0000 0000 0000 0000 0000 0000 0000 0000
000001e0: 0000 0000 0000 0000 0000 0000 0000 0000
000001f0: 0000 0000 0000 0000 0000 0000 0000 0000
00000200: 0000 0000 0000 0000 0000 0000 0000 0000
00000210: 0000 0000 0000 0000 0000 0000 0000 0000
00000220: 0000 0000 0000 0000 0000 0000 0000 0000
00000230: 0000 0000 0000 0000 0000 0000 0000 0000
00000240: 0000 0000 0000 0000 0000 0000 0000 0000
00000250: 0000 0000 0000 0000 0000 0000 0000 0000
00000260: 0000 0000 0000 0000 0000 0000 0000 0000
00000270: 0000 0000 0000 0000 0000 0000 0000 0000
00000280: 0000 0000 0000 0000 0000 0000 0000 0000
00000290: 0000 0000 0000 0000 0000 0000 0000 0000
000002a0: 0000 0000 0000 0000 0000 0000 0000 0000
000002b0: 0000 0000 0000 0000 0000 0000 0000 0000
000002c0: 0000 0000 0000 0000 0000 0000 0000 0000
000002d0: 0000 0000 0000 0000 0000 0000 0000 0000
000002e0: 0000 0000 0000 0000 0000 0000 0000 0000
000002f0: 0000 0000 0000 0000 0000 0000 0000 0000
00000300: 0000 0000 0000 0000 0000 0000 0000 0000
00000310: 0000 0000 0000 0000 0000 0000 0000 0000
00000320: 0000 0000 0000 0000 0000 0000 0000 0000
00000330: 0000 0000 0000 0000 0000 0000 0000 0000
00000340: 0000 0000 0000 0000 0000 0000 0000 0000
00000350: 0000 0000 0000 0000 0000 0000 0000 0000
00000360: 0000 0000 0000 0000 0000 0000 0000 0000
00000370: 0000 0000 0000 0000 0000 0000 0000 0000
00000380: 0000 0000 0000 0000 0000 0000 0000 0000
00000390: 0000 0000 0000 0000 0000 0000 0000 0000
000003a0: 0000 0000 0000 0000 0000 0000 0000 0000
000003b0: 0000 0000 0000 0000 0000 0000 0000 0000
000003c0: 0000 0000 0000 0000 0000 0000 0000 0000
000003d0: 0000 0000 0000 0000 0000 0000 0000 0000
000003e0: 0000 0000 0000 0000 0000 0000 0000 0000
000003f0: 0000 0000 0000 0000 0000 0000 0000 0000

layers.3.running_mean f4 [256]
0.0 0.0 0.0 0.0 0.0 0.0 0.0 0.0
0.0 0.0 0.0 0.0 0.0 0.0 0.0 0.0
0.0 0.0 0.0 0.0 0.0 0.0 0.0 0.0
0.0 0.0 0.0 0.0 0.0 0.0 0.0 0.0
0.0 0.0 0.0 0.0 0.0 0.0 0.0 0.0
0.0 0.0 0.0 0.0 0.0 0.0 0.0 0.0
0.0 0.0 0.0 0.0 0.0 0.0 0.0 0.0
0.0 0.0 0.0 0.0 0.0 0.0 0.0 0.0
0.0 0.0 0.0 0.0 0.0 0.0 0.0 0.0
0.0 0.0 0.0 0.0 0.0 0.0 0.0 0.0
0.0 0.0 0.0 0.0 0.0 0.0 0.0 0.0
0.0 0.0 0.0 0.0 0.0 0.0 0.0 0.0
0.0 0.0 0.0 0.0 0.0 0.0 0.0 0.0
0.0 0.0 0.0 0.0 0.0 0.0 0.0 0.0
0.0 0.0 0.0 0.0 0.0 0.0 0.0 0.0
0.0 0.0 0.0 0.0 0.0 0.0 0.0 0.0
0.0 0.0 0.0 0.0 0.0 0.0 0.0 0.0
0.0 0.0 0.0 0.0 0.0 0.0 0.0 0.0
0.0 0.0 0.0 0.0 0.0 0.0 0.0 0.0
0.0 0.0 0.0 0.0 0.0 0.0 0.0 0.0
0.0 0.0 0.0 0.0 0.0 0.0 0.0 0.0
0.0 0.0 0.0 0.0 0.0 0.0 0.0 0.0
0.0 0.0 0.0 0.0 0.0 0.0 0.0 0.0
0.0 0.0 0.0 0.0 0.0 0.0 0.0 0.0
0.0 0.0 0.0 0.0 0.0 0.0 0.0 0.0
0.0 0.0 0.0 0.0 0.0 0.0 0.0 0.0
0.0 0.0 0.0 0.0 0.0 0.0 0.0 0.0
0.0 0.0 0.0 0.0 0.0 0.0 0.0 0.0
0.0 0.0 0.0 0.0 0.0 0.0 0.0 0.0
0.0 0.0 0.0 0.0 0.0 0.0 0.0 0.0
0.0 0.0 0.0 0.0 0.0 0.0 0.0 0.0
0.0 0.0 0.0 0.0 0.0 0.0 0.0 0.0
00000000: 0000 0000 0000 0000 0000 0000 0000 0000
00000010: 0000 0000 0000 0000 0000 0000 0000 0000
00000020: 0000 0000 0000 0000 0000 0000 0000 0000
00000030: 0000 0000 0000 0000 0000 0000 0000 0000
00000040: 0000 0000 0000 0000 0000 0000 0000 0000
00000050: 0000 0000 0000 0000 0000 0000 0000 0000
00000060: 0000 0000 0000 0000 0000 0000 0000 0000
00000070: 0000 0000 0000 0000 0000 0000 0000 0000
00000080: 0000 0000 0000 0000 0000 0000 0000 0000
00000090: 0000 0000 0000 0000 0000 0000 0000 0000
000000a0: 0000 0000 0000 0000 0000 0000 0000 0000
000000b0: 0000 0000 0000 0000 0000 0000 0000 0000
000000c0: 0000 0000 0000 0000 0000 0000 0000 0000
000000d0: 0000 0000 0000 0000 0000 0000 0000 0000
000000e0: 0000 0000 0000 0000 0000 0000 0000 0000
000000f0: 0000 0000 0000 0000 0000 0000 0000 0000
00000100: 0000 0000 0000 0000 0000 0000 0000 0000
00000110: 0000 0000 0000 0000 0000 0000 0000 0000
00000120: 0000 0000 0000 0000 0000 0000 0000 0000
00000130: 0000 0000 0000 0000 0000 0000 0000 0000
00000140: 0000 0000 0000 0000 0000 0000 0000 0000
00000150: 0000 0000 0000 0000 0000 0000 0000 0000
00000160: 0000 0000 0000 0000 0000 0000 0000 0000
00000170: 0000 0000 0000 0000 0000 0000 0000 0000
00000180: 0000 0000 0000 0000 0000 0000 0000 0000
00000190: 0000 0000 0000 0000 0000 0000 0000 0000
000001a0: 0000 0000 0000 0000 0000 0000 0000 0000
000001b0: 0000 0000 0000 0000 0000 0000 0000 0000
000001c0: 0000 0000 0000 0000 0000 0000 0000 0000
000001d0: 0000 0000 0000 0000 0000 0000 0000 0000
000001e0: 0000 0000 0000 0000 0000 0000 0000 0000
000001f0: 0000 0000 0000 0000 0000 0000 0000 0000
00000200: 0000 0000 0000 0000 0000 0000 0000 0000
00000210: 0000 0000 0000 0000 0000 0000 0000 0000
00000220: 0000 0000 0000 0000 0000 0000 0000 0000
00000230: 0000 0000 0000 0000 0000 0000 0000 0000
00000240: 0000 0000 0000 0000 0000 0000 0000 0000
00000250: 0000 0000 0000 0000 0000 0000 0000 0000
00000260: 0000 0000 0000 0000 0000 0000 0000 0000
00000270: 0000 0000 0000 0000 0000 0000 0000 0000
00000280: 0000 0000 0000 0000 0000 0000 0000 0000
00000290: 0000 0000 0000 0000 0000 0000 0000 0000
000002a0: 0000 0000 0000 0000 0000 0000 0000 0000
000002b0: 0000 0000 0000 0000 0000 0000 0000 0000
000002c0: 0000 0000 0000 0000 0000 0000 0000 0000
000002d0: 0000 0000 0000 0000 0000 0000 0000 0000
000002e0: 0000 0000 0000 0000 0000 0000 0000 0000
000002f0: 0000 0000 0000 0000 0000 0000 0000 0000
00000300: 0000 0000 0000 0000 0000 0000 0000 0000
00000310: 0000 0000 0000 0000 0000 0000 0000 0000
00000320: 0000 0000 0000 0000 0000 0000 0000 0000
00000330: 0000 0000 0000 0000 0000 0000 0000 0000
00000340: 0000 0000 0000 0000 0000 0000 0000 0000
00000350: 0000 0000 0000 0000 0000 0000 0000 0000
00000360: 0000 0000 0000 0000 0000 0000 0000 0000
00000370: 0000 0000 0000 0000 0000 0000 0000 0000
00000380: 0000 0000 0000 0000 0000 0000 0000 0000
00000390: 0000 0000 0000 0000 0000 0000 0000 0000
000003a0: 0000 0000 0000 0000 0000 0000 0000 0000
000003b0: 0000 0000 0000 0000 0000 0000 0000 0000
000003c0: 0000 0000 0000 0000 0000 0000 0000 0000
000003d0: 0000 0000 0000 0000 0000 0000 0000 0000
000003e0: 0000 0000 0000 0000 0000 0000 0000 0000
000003f0: 0000 0000 0000 0000 0000 0000 0000 0000

layers.3.running_var f4 [256]
1.0 1.0 1.0 1.0 1.0 1.0 1.0 1.0
1.0 1.0 1.0 1.0 1.0 1.0 1.0 1.0
1.0 1.0 1.0 1.0 1.0 1.0 1.0 1.0
1.0 1.0 1.0 1.0 1.0 1.0 1.0 1.0
1.0 1.0 1.0 1.0 1.0 1.0 1.0 1.0
1.0 1.0 1.0 1.0 1.0 1.0 1.0 1.0
1.0 1.0 1.0 1.0 1.0 1.0 1.0 1.0
1.0 1.0 1.0 1.0 1.0 1.0 1.0 1.0
1.0 1.0 1.0 1.0 1.0 1.0 1.0 1.0
1.0 1.0 1.0 1.0 1.0 1.0 1.0 1.0
1.0 1.0 1.0 1.0 1.0 1.0 1.0 1.0
1.0 1.0 1.0 1.0 1.0 1.0 1.0 1.0
1.0 1.0 1.0 1.0 1.0 1.0 1.0 1.0
1.0 1.0 1.0 1.0 1.0 1.0 1.0 1.0
1.0 1.0 1.0 1.0 1.0 1.0 1.0 1.0
1.0 1.0 1.0 1.0 1.0 1.0 1.0 1.0
1.0 1.0 1.0 1.0 1.0 1.0 1.0 1.0
1.0 1.0 1.0 1.0 1.0 1.0 1.0 1.0
1.0 1.0 1.0 1.0 1.0 1.0 1.0 1.0
1.0 1.0 1.0 1.0 1.0 1.0 1.0 1.0
1.0 1.0 1.0 1.0 1.0 1.0 1.0 1.0
1.0 1.0 1.0 1.0 1.0 1.0 1.0 1.0
1.0 1.0 1.0 1.0 1.0 1.0 1.0 1.0
1.0 1.0 1.0 1.0 1.0 1.0 1.0 1.0
1.0 1.0 1.0 1.0 1.0 1.0 1.0 1.0
1.0 1.0 1.0 1.0 1.0 1.0 1.0 1.0
1.0 1.0 1.0 1.0 1.0 1.0 1.0 1.0
1.0 1.0 1.0 1.0 1.0 1.0 1.0 1.0
1.0 1.0 1.0 1.0 1.0 1.0 1.0 1.0
1.0 1.0 1.0 1.0 1.0 1.0 1.0 1.0
1.0 1.0 1.0 1.0 1.0 1.0 1.0 1.0
1.0 1.0 1.0 1.0 1.0 1.0 1.0 1.0
00000000: 0000 803f 0000 803f 0000 803f 0000 803f
00000010: 0000 803f 0000 803f 0000 803f 0000 803f
00000020: 0000 803f 0000 803f 0000 803f 0000 803f
00000030: 0000 803f 0000 803f 0000 803f 0000 803f
00000040: 0000 803f 0000 803f 0000 803f 0000 803f
00000050: 0000 803f 0000 803f 0000 803f 0000 803f
00000060: 0000 803f 0000 803f 0000 803f 0000 803f
00000070: 0000 803f 0000 803f 0000 803f 0000 803f
00000080: 0000 803f 0000 803f 0000 803f 0000 803f
00000090: 0000 803f 0000 803f 0000 803f 0000 803f
000000a0: 0000 803f 0000 803f 0000 803f 0000 803f
000000b0: 0000 803f 0000 803f 0000 803f 0000 803f
000000c0: 0000 803f 0000 803f 0000 803f 0000 803f
000000d0: 0000 803f 0000 803f 0000 803f 0000 803f
000000e0: 0000 803f 0000 803f 0000 803f 0000 803f
000000f0: 0000 803f 0000 803f 0000 803f 0000 803f
00000100: 0000 803f 0000 803f 0000 803f 0000 803f
00000110: 0000 803f 0000 803f 0000 803f 0000 803f
00000120: 0000 803f 0000 803f 0000 803f 0000 803f
00000130: 0000 803f 0000 803f 0000 803f 0000 803f
00000140: 0000 803f 0000 803f 0000 803f 0000 803f
00000150: 0000 803f 0000 803f 0000 803f 0000 803f
00000160: 0000 803f 0000 803f 0000 803f 0000 803f
00000170: 0000 803f 0000 803f 0000 803f 0000 803f
00000180: 0000 803f 0000 803f 0000 803f 0000 803f
00000190: 0000 803f 0000 803f 0000 803f 0000 803f
000001a0: 0000 803f 0000 803f 0000 803f 0000 803f
000001b0: 0000 803f 0000 803f 0000 803f 0000 803f
000001c0: 0000 803f 0000 803f 0000 803f 0000 803f
000001d0: 0000 803f 0000 803f 0000 803f 0000 803f
000001e0: 0000 803f 0000 803f 0000 803f 0000 803f
000001f0: 0000 803f 0000 803f 0000 803f 0000 803f
00000200: 0000 803f 0000 803f 0000 803f 0000 803f
00000210: 0000 803f 0000 803f 0000 803f 0000 803f
00000220: 0000 803f 0000 803f 0000 803f 0000 803f
00000230: 0000 803f 0000 803f 0000 803f 0000 803f
00000240: 0000 803f 0000 803f 0000 803f 0000 803f
00000250: 0000 803f 0000 803f 0000 803f 0000 803f
00000260: 0000 803f 0000 803f 0000 803f 0000 803f
00000270: 0000 803f 0000 803f 0000 803f 0000 803f
00000280: 0000 803f 0000 803f 0000 803f 0000 803f
00000290: 0000 803f 0000 803f 0000 803f 0000 803f
000002a0: 0000 803f 0000 803f 0000 803f 0000 803f
000002b0: 0000 803f 0000 803f 0000 803f 0000 803f
000002c0: 0000 803f 0000 803f 0000 803f 0000 803f
000002d0: 0000 803f 0000 803f 0000 803f 0000 803f
000002e0: 0000 803f 0000 803f 0000 803f 0000 803f
000002f0: 0000 803f 0000 803f 0000 803f 0000 803f
00000300: 0000 803f 0000 803f 0000 803f 0000 803f
00000310: 0000 803f 0000 803f 0000 803f 0000 803f
00000320: 0000 803f 0000 803f 0000 803f 0000 803f
00000330: 0000 803f 0000 803f 0000 803f 0000 803f
00000340: 0000 803f 0000 803f 0000 803f 0000 803f
00000350: 0000 803f 0000 803f 0000 803f 0000 803f
00000360: 0000 803f 0000 803f 0000 803f 0000 803f
00000370: 0000 803f 0000 803f 0000 803f 0000 803f
00000380: 0000 803f 0000 803f 0000 803f 0000 803f
00000390: 0000 803f 0000 803f 0000 803f 0000 803f
000003a0: 0000 803f 0000 803f 0000 803f 0000 803f
000003b0: 0000 803f 0000 803f 0000 803f 0000 803f
000003c0: 0000 803f 0000 803f 0000 803f 0000 803f
000003d0: 0000 803f 0000 803f 0000 803f 0000 803f
000003e0: 0000 803f 0000 803f 0000 803f 0000 803f
000003f0: 0000 803f 0000 803f 0000 803f 0000 803f
