scripts/model_params/test10_20_actor.pth (torch, 154153 bytes, 20 tensors)

layers.0.weight f4 [128, 65]
00000000: 2d31 023b 9e4e 96ba 4070 3f37 e571 e03a
00000010: 424b 883a f3eb 9239 bcf1 ed3b afcb 04bb
00000020: dbd0 8b39 a7d2 60b9 a02a adba 873e 00bb
00000030: f86d de39 7496 6738 9649 e5ba 30fa 0c39
00000040: 124c af3a 3586 81bb 63d6 9db9 296e 2139
00000050: 901d 92ba 2de1 3639 5cbb a23b db7e da3a
00000060: 29a2 463b d4b2 8d3c 9ddc 06bb 80c8 8fba
00000070: 9eb7 b8b8 5180 7a38 3b66 05bc 663f c739
00000080: a2e6 e2ba f0d0 65b8 696f 3f3b e771 ee3a
00000090: 7113 9839 916c 5b3a c39e bdba 80cc a439
000000a0: 8c02 073b 5883 6d3b 4481 c63a e0b4 bbb9
000000b0: 989d 86b9 026d b23a b1eb 9c3a c6d5 06bb
000000c0: b845 fcba 0274 b43a 60b1 c8b6 a6df 6b3a
000000d0: 2653 ba3a a885 00bb 5986 06bb 1148 dc3a
000000e0: 645e efba ec34 cfb8 9ced efbb aaf6 00ba
000000f0: da76 6b3b 65a7 9d3a 5e26 01bb 9d78 f33a
00000100: 11ae 01b9 14fa 1e38 0a27 04bb 77e7 7739
00000110: 37f1 bdba f9e5 c9ba 7560 b0b9 3f62 b1b9
00000120: e9a0 f6ba 46d4 aa39 0d8f e3ba 22e8 89b9
00000130: ca83 a43a 62df 1e3b 4c62 e1ba f04c 7036
00000140: 49b5 a039 d89a ecb9 093d 91b9 e36f 94ba
00000150: bd9b f13a f1d2 053b a404 ea39 3f83 333a
00000160: 3a94 f0ba 9d02 073b b113 0939 7cb9 9e38
00000170: 192d 14b9 5918 fd3b 64b4 b1ba 6b58 f03b
00000180: 9f9a 68b8 172b c63a 1077 043b e6e5 d73a
00000190: f690 a639 14e1 d53a f8c6 cdb8 42c5 023b
000001a0: fcc0 aeba 5284 243a 9575 aeba 009a b73a
000001b0: 7c02 9bba 6cf6 4339 d805 f939 93fb 1bba
000001c0: 6030 7f35 0e72 f2ba f2df c9b9 f6ea c63a
000001d0: a09b d039 64db 063b 36ed b238 7f34 ad3a
000001e0: 3a74 acba bcd6 ba3a d991 bfbb cc6b 063b
000001f0: 42b3 04bb b847 1eb8 52fb fab8 d1a3 c236
00000200: 1e93 b83a c8b5 b0b9 1947 f13a e8d8 ec3a
00000210: c8fa 06bb e9ef a9ba 5866 03bb 0e04 633b
00000220: fe4e c7ba 0b73 cd3a 1c44 b9b9 9ed4 f83a
00000230: 6b65 4d39 f0bd df37 7a65 bfbb 3310 c239
00000240: 84a9 b4ba adda bb3a 61e4 063b a661 8fb9
00000250: 5cf9 e2b8 3333 e0ba 1fb0 5d3b 1a20 97b9
00000260: fcf3 60b9 6cee 3d39 2d65 ff3a 61af 063b
00000270: 629f d33a bb68 0b36 9800 073b 37e0 5fb9
00000280: e6e7 a7b9 1caa 08b9 bcca 8aba b694 2a3c
00000290: b68d df3a 40d4 ddba 16cf 4aba ab35 4f3a
000002a0: 4482 60bb 538a 0a3a 68c2 23bc 7a3e 4dbb
000002b0: b80f 3cbb 75ef ebb9 35fa 75bc 76b5 19bc
000002c0: 0042 9339 8ebe 06bb 5860 863b 4be6 cbbb
000002d0: e4df 3aba 3ac6 c8ba 1b44 c6b7 2bf9 583a
000002e0: 4cd3 3438 4c08 8439 7448 be39 d8fd 06bb
000002f0: 308f e838 1603 023c 4c88 cc3a 30be c03a
00000300: d816 6bba 790f 82ba 3276 d8ba 1a03 cdbb
00000310: 332e 8b3c 1c28 8f3b c6f9 02bb 1e54 a43a
00000320: 4f04 58ba 5351 053b d1bf 013b b46d ab3a
00000330: 79bb 26ba 44d0 85ba 9fdf 983b b08d da3a
00000340: bb01 8dba b249 97b9 0c8a 3cb9 103c a1b8
00000350: afe1 7539 4d9e daba 18b2 843a 879c 063b
00000360: a46c 7a3a c68d 123a 6a07 a139 638c fbba
00000370: 80e5 8939 38d1 ff3a 764b d4ba ea79 bcb9
00000380: b5dd b139 b03a 6b37 9d8a 2f3a 8214 e33a
00000390: fa5e d63a a1b8 dcba a4a9 c938 b7f2 dfbb
000003a0: dc3a ab3a bf11 f6ba 0399 adba 865e f0ba
000003b0: 249a e1ba bc2b 92bb d22e b9b8 45f9 8639
000003c0: 7cdc 44ba 689c 6f39 5a55 01ba b066 f7ba
000003d0: 16f1 a239 9afd 66ba 95df a1ba aa8a 21ba
000003e0: 2948 0b39 8011 473a 9a97 feba d03e 53bb
000003f0: a2ee 16bc db95 053b 82e1 7d39 c1ae 96bb
0.0019865737 -0.0011467522 1.1410622e-05 0.0017123787 0.0010398405 0.00028023086 0.007261483 -0.0020263006
0.00026667755 -0.00021440779 -0.0013211556 -0.001956852 0.00042425073 5.5214812e-05 -0.0017493244 0.00013444643
0.0013374111 -0.0039527663 -0.00030105104 0.00015395194 -0.0011147726 0.00017440757 0.0049661826 0.0016669886
0.0030309057 0.017297186 -0.0020578273 -0.0010969788 -8.808005e-05 5.972415e-05 -0.008142049 0.00038003473
-0.0017311166 -5.4792443e-05 0.0029210693 0.0018191905 0.00029006184 0.00083703647 -0.001446687 0.00031432882
0.0020600883 0.0036241617 0.0015144725 -0.00035802182 -0.00025675888 0.0013612809 0.0011972097 -0.0020574196
-0.0019246852 0.0013767483 -5.9811136e-06 0.0008997865 0.0014215454 -0.0019610915 -0.0020526855 0.0016806145
-0.0018262384 -9.880387e-05 -0.0073220264 -0.00049195683 0.0035928995 0.0012028037 -0.0019706707 0.0018575374
-0.00012367243 3.790304e-05 -0.002016487 0.00023641983 -0.0014491443 -0.001540362 -0.00033641202 -0.0003383327
-0.0018816266 0.00032583083 -0.0017361358 -0.0002630363 0.0012551483 0.0024242033 -0.0017195432 3.580757e-06
0.00030652646 -0.00045128795 -0.0002770203 -0.0011324849 0.0018433254 0.002041992 0.00044635416 0.00068478653
-0.0018354722 0.0020600923 0.00013072674 7.568576e-05 -0.0001413118 0.0077238497 -0.0013557789 0.007334759
-5.5457112e-05 0.0015119043 0.0020212568 0.0016471713 0.00031769992 0.0016317689 -9.8122226e-05 0.0019954
-0.001333266 0.0006275821 -0.0013310189 0.0014007688 -0.0011826302 0.00018688448 0.00047497335 -0.0005950268
9.50653e-07 -0.0018497126 -0.0003850456 0.0015176225 0.000397888 0.0020577544 8.5318854e-05 0.0013214498
-0.0013157197 0.001425467 -0.005846244 0.002051103 -0.0020248448 -3.773693e-05 -0.00011967741 5.8007213e-06
0.001408193 -0.00033704774 0.001840803 0.0018070014 -0.0020596255 -0.0012965176 -0.0020050015 0.0034639868
-0.0015206037 0.0015674544 -0.00035336695 0.0018984263 0.00019588105 2.6672118e-05 -0.0058409544 0.00037014633
-0.001378343 0.0014332138 0.0020582902 -0.0002734784 -0.000108229666 -0.0017105102 0.00338269 -0.00028824882
-0.00021453196 0.00018113264 0.0019485109 0.0020551311 0.0016145522 2.0773575e-06 0.002059972 -0.00021350464
-0.000320255 -0.00013033341 -0.0010588984 0.010411432 0.0017055783 -0.0016924217 -0.00077365467 0.00079044205
-0.0034257332 0.0005284894 -0.0099950805 -0.0031317757 -0.0028695893 -0.00045001102 -0.015013267 -0.009381643
0.000280872 -0.0020560357 0.0041008405 -0.0062225214 -0.0007128699 -0.0015317865 -2.3635153e-05 0.0008276875
4.311213e-05 0.00025183184 0.00036293606 -0.002059808 0.00011089293 0.007935306 0.0015604584 0.0014705118
-0.00089679426 -0.0009922824 -0.0016514717 -0.0062564733 0.016989803 0.004368795 -0.0019985302 0.0012537276
-0.0008240388 0.0020342662 0.001979817 0.0013078959 -0.0006360333 -0.0010209163 0.0046653296 0.0016674306
-0.0010757962 -0.00028855872 -0.00017980504 -7.688266e-05 0.00023449094 -0.0016679257 0.0010123877 0.0020540075
0.0009552932 0.0005590584 0.00030713837 -0.0019191619 0.00026301667 0.0019517308 -0.0016196806 -0.00035948987
0.00033925255 1.4020756e-05 0.0006696375 0.0017324837 0.001635521 -0.0016839692 9.616025e-05 -0.006834354
0.0013063806 -0.0018773599 -0.0013244454 -0.0018338717 -0.0017212075 -0.00446078 -8.8302084e-05 0.00025744192
-0.00075096614 0.00022851082 -0.0004933678 -0.0018875208 0.0003107867 -0.0008811593 -0.0012349958 -0.0006162325
0.00013282955 0.0007593855 -0.0019423843 -0.0032233484 -0.009212168 0.002038351 0.00024211968 -0.004598469

layers.0.bias f4 [128]
00000000: b006 0d3d 530a 21bd 1037 e4bb 279f 183d
00000010: f9c2 1d3d 4a75 83bc fcf4 7ebc c492 92bc
00000020: e170 30bc 01ac a8bd 1c48 88bc 02af 063d
00000030: a297 a5bd 90d5 4c3a 1484 f93a e721 7bbd
00000040: b5ae 3a3d 01cb e8bc 2099 7dbd 25d1 fa3a
00000050: 5df5 a93d 52c3 74bc 00e5 e63c 575c 80bd
00000060: ec4c 5739 13a3 9cbd c5f8 5ebd 5555 9f3b
00000070: 97f7 6f3d e5f0 bf3c 1c53 563b d4bb 913d
00000080: 5b92 1b3d 5882 153c eb42 84bd 0d27 3ebd
00000090: 53a9 4fbd 9673 28ba a110 80bd 56c4 09bc
000000a0: cd15 813d 639c 563d 0210 ec3c 4723 06bb
000000b0: 861b c83c 27bb 30bd dafa 67bd bbd2 bd3c
000000c0: 08f2 4d3a bbdf e53c 6272 4cbd d540 04bb
000000d0: aed4 95bd 37d1 ad39 a1fc 42bd 33bd 8aba
000000e0: d8d4 d03c 0999 953b 092e 94bc a180 8dbd
000000f0: 12ca 413d eaed 81bb ef6b 3b3d 9f84 3c38
00000100: 0da9 4fbd ce6a a7bd fa24 0fbd 09d3 9f3d
00000110: 5cd9 43bd ab6e 963d 89d7 debc 8641 36bd
00000120: 5f7f 8d3a ac01 d5bc 45f1 5c3d 943e 1138
00000130: 9295 8f3d c8bb 7abd 0763 8fbc e69b 9b3d
00000140: 2199 f03c 7cc7 24bc 722b ef3c 7559 cbbc
00000150: 326d e9bc 16a1 6abd 21c4 a23d 057f 92bd
00000160: 7fef 023d 9c1f 773b 0ba1 39bd 95aa c13a
00000170: 229c 883d dcca 833d 7606 163a 9222 29bd
00000180: dbf1 a6bd 536a aa3a 7974 8bbc 30ef 30bd
00000190: 5cda 733a b07f 2f3c 15d7 7538 1a3f de3c
000001a0: 55f1 2bbd 33eb af3c 0866 1ebd 3a52 5b3a
000001b0: 491d a13d 32a5 703d 62f2 84bd 978d 28bd
000001c0: d42c 83bd 16c9 2abb 28d4 60bd 0176 bc3c
000001d0: 84ac 973d e1f7 00ba 6cd9 c4b8 30c7 5839
000001e0: d90a a03d 96e1 8cbd d66c 7a3c a315 05bb
000001f0: f520 00bd 3938 9abc 281b f6bc a8a5 0f3d
0.034430206 -0.039316487 -0.006964572 0.037261155 0.03851602 -0.016047139 -0.0155613385 -0.017892249
-0.0107691 -0.08235932 -0.016635947 0.032881744 -0.08085562 0.0007813806 0.0019036555 -0.06131163
0.04557677 -0.028417112 -0.06191361 0.0019135816 0.082987525 -0.014939146 0.028185368 -0.062676124
0.00020532653 -0.076482914 -0.054436464 0.0048624673 0.05858573 0.023430297 0.0032703346 0.071159035
0.037981372 0.009125315 -0.06458076 -0.04642396 -0.05069859 -0.0006425915 -0.06253172 -0.008408627
0.06302986 0.052395236 0.028816227 -0.0020467804 0.024427187 -0.043147232 -0.056635715 0.023171773
0.0007856195 0.028060785 -0.04991377 -0.0020180244 -0.07315956 0.0003315301 -0.047604207 -0.001058495
0.025492117 0.0045653624 -0.018088358 -0.069093 0.04731185 -0.003965129 0.04575723 4.4946206e-05
-0.05069833 -0.08174668 -0.034947373 0.07803924 -0.047814712 0.07345327 -0.027202385 -0.04449608
0.0010795406 -0.026001774 0.05394103 3.4628974e-05 0.0701095 -0.06121424 -0.017503275 0.07598095
0.029369893 -0.010057326 0.029195521 -0.02482293 -0.028494451 -0.05728253 0.07947565 -0.07153133
0.031966683 0.003770805 -0.0453196 0.0014775569 0.06670405 0.06435177 0.00057230087 -0.041292734
-0.08151599 0.0013001658 -0.017023312 -0.043196857 0.00093022524 0.010711595 5.8612863e-05 0.027129699
-0.0419782 0.021474456 -0.038671523 0.000836644 0.07866914 0.058751293 -0.06491543 -0.041150656
-0.06405035 -0.0026059798 -0.054889828 0.023005487 0.074059516 -0.00049197493 -9.386506e-05 0.00020673568
0.07814569 -0.068789646 0.015284738 -0.0020307086 -0.03128143 -0.018825637 -0.030042246 0.03507009

layers.2.weight f4 [128]
00000000: 4fe9 7b3f 4fe9 7b3f 4fe9 7b3f 4fe9 7b3f
00000010: 4fe9 7b3f 4fe9 7b3f 4fe9 7b3f 4fe9 7b3f
00000020: 4fe9 7b3f 4fe9 7b3f 4fe9 7b3f 4fe9 7b3f
00000030: 4fe9 7b3f 4fe9 7b3f 4fe9 7b3f 4fe9 7b3f
00000040: 4fe9 7b3f 4fe9 7b3f 4fe9 7b3f 4fe9 7b3f
00000050: 4fe9 7b3f 4fe9 7b3f 4fe9 7b3f 4fe9 7b3f
00000060: 4fe9 7b3f 4fe9 7b3f 4fe9 7b3f 4fe9 7b3f
00000070: 4fe9 7b3f 4fe9 7b3f 4fe9 7b3f 4fe9 7b3f
00000080: 4fe9 7b3f 4fe9 7b3f 4fe9 7b3f 4fe9 7b3f
00000090: 4fe9 7b3f 4fe9 7b3f 4fe9 7b3f 4fe9 7b3f
000000a0: 4fe9 7b3f 4fe9 7b3f 4fe9 7b3f 4fe9 7b3f
000000b0: 4fe9 7b3f 4fe9 7b3f 4fe9 7b3f 4fe9 7b3f
000000c0: 4fe9 7b3f 4fe9 7b3f 4fe9 7b3f 4fe9 7b3f
000000d0: 4fe9 7b3f 4fe9 7b3f 4fe9 7b3f 4fe9 7b3f
000000e0: 4fe9 7b3f 4fe9 7b3f 4fe9 7b3f 4fe9 7b3f
000000f0: 4fe9 7b3f 4fe9 7b3f 4fe9 7b3f 4fe9 7b3f
00000100: 4fe9 7b3f 4fe9 7b3f 4fe9 7b3f 4fe9 7b3f
00000110: 4fe9 7b3f 4fe9 7b3f 4fe9 7b3f 4fe9 7b3f
00000120: 4fe9 7b3f 4fe9 7b3f 4fe9 7b3f 4fe9 7b3f
00000130: 4fe9 7b3f 4fe9 7b3f 4fe9 7b3f 4fe9 7b3f
00000140: 4fe9 7b3f 4fe9 7b3f 4fe9 7b3f 4fe9 7b3f
00000150: 4fe9 7b3f 4fe9 7b3f 4fe9 7b3f 4fe9 7b3f
00000160: 4fe9 7b3f 4fe9 7b3f 4fe9 7b3f 4fe9 7b3f
00000170: 4fe9 7b3f 4fe9 7b3f 4fe9 7b3f 4fe9 7b3f
00000180: 4fe9 7b3f 4fe9 7b3f 4fe9 7b3f 4fe9 7b3f
00000190: 4fe9 7b3f 4fe9 7b3f 4fe9 7b3f 4fe9 7b3f
000001a0: 4fe9 7b3f 4fe9 7b3f 4fe9 7b3f 4fe9 7b3f
000001b0: 4fe9 7b3f 4fe9 7b3f 4fe9 7b3f 4fe9 7b3f
000001c0: 4fe9 7b3f 4fe9 7b3f 4fe9 7b3f 4fe9 7b3f
000001d0: 4fe9 7b3f 4fe9 7b3f 4fe9 7b3f 4fe9 7b3f
000001e0: 4fe9 7b3f 4fe9 7b3f 4fe9 7b3f 4fe9 7b3f
000001f0: 4fe9 7b3f 4fe9 7b3f 4fe9 7b3f 4fe9 7b3f
0.98402876 0.98402876 0.98402876 0.98402876 0.98402876 0.98402876 0.98402876 0.98402876
0.98402876 0.98402876 0.98402876 0.98402876 0.98402876 0.98402876 0.98402876 0.98402876
0.98402876 0.98402876 0.98402876 0.98402876 0.98402876 0.98402876 0.98402876 0.98402876
0.98402876 0.98402876 0.98402876 0.98402876 0.98402876 0.98402876 0.98402876 0.98402876
0.98402876 0.98402876 0.98402876 0.98402876 0.98402876 0.98402876 0.98402876 0.98402876
0.98402876 0.98402876 0.98402876 0.98402876 0.98402876 0.98402876 0.98402876 0.98402876
0.98402876 0.98402876 0.98402876 0.98402876 0.98402876 0.98402876 0.98402876 0.98402876
0.98402876 0.98402876 0.98402876 0.98402876 0.98402876 0.98402876 0.98402876 0.98402876
0.98402876 0.98402876 0.98402876 0.98402876 0.98402876 0.98402876 0.98402876 0.98402876
0.98402876 0.98402876 0.98402876 0.98402876 0.98402876 0.98402876 0.98402876 0.98402876
0.98402876 0.98402876 0.98402876 0.98402876 0.98402876 0.98402876 0.98402876 0.98402876
0.98402876 0.98402876 0.98402876 0.98402876 0.98402876 0.98402876 0.98402876 0.98402876
0.98402876 0.98402876 0.98402876 0.98402876 0.98402876 0.98402876 0.98402876 0.98402876
0.98402876 0.98402876 0.98402876 0.98402876 0.98402876 0.98402876 0.98402876 0.98402876
0.98402876 0.98402876 0.98402876 0.98402876 0.98402876 0.98402876 0.98402876 0.98402876
0.98402876 0.98402876 0.98402876 0.98402876 0.98402876 0.98402876 0.98402876 0.98402876

layers.2.bias f4 [128]
00000000: e239 2538 1003 c739 ce75 67b9 be70 bfb9
00000010: fc86 a7b9 18f0 3d3a a433 8bb9 1fb8 cc38
00000020: 16cc 2bb9 e86b 6038 7837 5339 dded f039
00000030: 7698 3339 3664 32b8 02d8 90b9 6b2c e139
00000040: a093 ccb6 80f7 77b8 e41c b439 4896 db36
00000050: f97f 0039 abf8 023a 43f3 feb8 f024 0d37
00000060: 153d 2139 8058 5035 40ea 1dba ed17 be39
00000070: e866 38b9 b206 8cb8 1898 0eba d07d 32b7
00000080: 8570 6e39 eec1 89b9 277b f3b9 7a47 23b9
00000090: d2b7 49b9 6b02 8239 5475 3f39 8a7d ac38
000000a0: 00a6 c4b5 2074 b6b9 4835 41b9 ca78 9639
000000b0: ee25 e8b8 2ced 38b9 33f5 deb8 45d8 16b9
000000c0: 9672 53b9 db94 72b9 15f3 96b8 e0b5 8536
000000d0: ff3e 133a 400c bdb7 d18b abb9 d805 0238
000000e0: aea4 4239 0d21 0db9 c09e b3b9 d293 ac39
000000f0: fc21 9ab9 9cd6 4639 ee17 1eb9 0a96 e2b8
00000100: 1344 4639 b32f c6b8 4e3d c539 0448 1939
00000110: 3006 0fba e99f 36b9 3cb0 9039 38fb cf39
00000120: 096b a1b8 b507 2439 98a7 c739 489c 0cba
00000130: 2856 5f39 67c0 b1b9 d442 abb9 d986 c239
00000140: ee78 95b8 b269 02b9 ae74 513a 45c6 0739
00000150: bcfd 67b8 284d e7b7 da9f bc38 adbe 87b8
00000160: 6f14 51ba fa06 1439 3994 90b9 f1c2 7cb8
00000170: d13a 013a b6ef 4139 918a 89b9 d658 6439
00000180: 72aa 61b9 8883 9238 2c83 c939 7039 2238
00000190: 2ca5 f438 2b14 06ba 505d 0b3a 96ab 00b9
000001a0: 627d a6b9 a256 50b9 c04e 2638 2ce0 90b9
000001b0: 00de cb38 daef 90b9 e41b 57b9 7062 82b8
000001c0: 2009 e9b9 c40f 2cb9 7e18 7bb9 fd7d 0339
000001d0: 3ef6 2439 09ea a9b9 e8be 63b8 d872 93b7
000001e0: 6c4d beb8 b4a5 00ba 4afb 0b38 74b8 8f38
000001f0: a1de cdb9 d4ba cc39 8434 143a bc23 a739
3.9392973e-05 0.0003795852 -0.00022073762 -0.00036514358 -0.00031953293 0.00072455546 -0.0002655062 9.761773e-05
-0.00016383859 5.3506257e-05 0.00020143192 0.0004595359 0.00017127566 -4.2531836e-05 -0.0002762676 0.00042948438
-6.0968596e-06 -5.911989e-05 0.000343538 6.5442036e-06 0.00012254705 0.0004996161 -0.00012156975 8.412855e-06
0.00015376911 7.761482e-07 -0.00060239807 0.0003625745 -0.00017585943 -6.676967e-05 -0.0005439534 -1.063892e-05
0.00022739366 -0.00026275165 -0.00046440327 -0.00015571518 -0.00019237332 0.00024797334 0.00018258888 8.2249826e-05
-1.465145e-06 -0.00034800265 -0.00018425763 0.00028700224 -0.00011069687 -0.00017635961 -0.00010631457 -0.00014385681
-0.00020165215 -0.00023134371 -7.197835e-05 3.984882e-06 0.0005616992 -2.253626e-05 -0.00032719833 3.0999858e-05
0.0001856263 -0.0001345912 -0.00034259818 0.0003291653 -0.0002939849 0.000189627 -0.00015076969 -0.00010804467
0.00018908111 -9.4502604e-05 0.00037620444 0.00014618045 -0.0005455939 -0.00017416444 0.00027597125 0.0003966929
-7.697015e-05 0.0001564313 0.00038081105 -0.0005363864 0.00021299033 -0.00033903422 -0.00032665452 0.00037103033
-7.1273986e-05 -0.0001243714 0.0007990104 0.00012948464 -5.5311e-05 -2.7573275e-05 8.994313e-05 -6.472818e-05
-0.0007975762 0.00014116979 -0.00027576255 -6.0263035e-05 0.0004929724 0.00018495214 -0.00026233916 0.00021776868
-0.00021521168 6.986322e-05 0.00038435438 3.8677303e-05 0.00011665592 -0.00051146996 0.0005316334 -0.00012270952
-0.00031755405 -0.00019868699 3.9650826e-05 -0.0002763284 9.721145e-05 -0.00027644524 -0.00020514388 -6.2172185e-05
-0.00044448022 -0.00016409071 -0.0002394635 0.00012540068 0.00015731991 -0.00032408562 -5.4298813e-05 -1.7577244e-05
-9.074327e-05 -0.0004907504 3.3374214e-05 6.8531284e-05 -0.00039266518 0.0003904911 0.00056535774 0.00031879346

layers.2.running_mean f4 [128]
00000000: 8700 073d 2f46 f2bb 8e3c 04bb 9084 103d
00000010: b1bb 143d f305 69bb 4ab5 63bb b32a 7dbb
00000020: 9aea 2ebb 696c 6cbc 6975 6fbb 0dcb 013d
00000030: f066 68bc 4314 0aba 15aa d438 7d1b 34bc
00000040: 7b6d 2c3d 9a9b b7bb 18b8 35bc 9ef7 e938
00000050: 8cd0 943d 8ae4 5cbb 5ff2 e33c b4c2 37bc
00000060: 570e 4a38 e5b4 5cbc 8db1 21bc 931c 073c
00000070: 9102 583d 8bd2 c33c 8a4a df3b 380a 813d
00000080: f6ef 123d e6bd 433c f2db 3cbc f636 0cbc
00000090: 32ad 17bc f25f 403b bc5f 37bc de8d 14bb
000000a0: 6be2 663d a647 433d 8333 e83c 0147 513a
000000b0: 0c91 ca3c 476c 03bc ce95 27bc 9012 c23c
000000c0: 5454 343a 3b1b e33c 9d92 15bc 5e6f 963a
000000d0: f6d0 53bc 28c2 ae38 4f61 0fbc d449 223b
000000e0: e1c3 d13c 0ac8 023c d64d 7fbb 81ef 48bc
000000f0: c03e 323d e226 c3ba 6608 2d3d 9732 6238
00000100: 03ad 17bc fbc8 6abc 28c9 dabb 1f8b 8c3d
00000110: d3f1 0fbc 52e0 843d 320d b1bb ee0a 07bc
00000120: 937a d9b9 0c91 aabb 2a75 483d e199 ee39
00000130: cb91 7e3d bcd8 33bc f2ec 78bb 3a1a 893d
00000140: 13ef eb3c 1100 27bb 27c2 ea3c a231 a4bb
00000150: 6d06 b8bb 5551 29bc d2f1 8e3d c075 4fbc
00000160: 4c6d fd3c aa31 ee3b 8f40 09bc c3a8 413a
00000170: 8b2d 733d ca4e 6b3d 2de8 273a a4e3 fcbb
00000180: 0e2b 6abc fd5d a5b9 44b0 73bb 618e 03bc
00000190: 0475 3a3a e6d8 593c 0085 7838 e9d2 dc3c
000001a0: f348 00bc ac92 b63c 07cf eebb ec8a 933b
000001b0: b098 8d3d 7590 583d 49c1 3dbc 5120 fcbb
000001c0: 7a70 3bbc a696 a2ba 80e8 22bc 5af2 c03c
000001d0: d2e3 853d 50e9 4a3b fa53 cb39 5dce 7c3b
000001e0: acb8 8c3d b11f 48bc b76c 8c3c df3f 433a
000001f0: df0c c7bb b3aa 83bb 4a5f c0bb 5a27 093d
0.032959487 -0.0073936204 -0.0020177695 0.03528267 0.03631181 -0.0035556525 -0.0034745508 -0.0038630187
-0.0026690126 -0.014430144 -0.0036538488 0.031687785 -0.014184698 -0.00052673015 0.00010140628 -0.010992882
0.042096596 -0.005603266 -0.011091255 0.00011156428 0.0726634 -0.0033705556 0.027825532 -0.011215854
4.8173908e-05 -0.013470863 -0.009868992 0.008246559 0.052736823 0.023904106 0.0068143057 0.06300777
0.035873376 0.011947131 -0.011527048 -0.008558026 -0.009257602 0.0029354063 -0.011192258 -0.0022667567
0.056368273 0.04767575 0.028344875 0.00079832977 0.024727367 -0.008021421 -0.010228587 0.023690492
0.0006879021 0.027722945 -0.009129194 0.0011477282 -0.012928238 8.333131e-05 -0.0087512275 0.0024763243
0.025606098 0.007982263 -0.0038956306 -0.012264133 0.043516874 -0.0014888907 0.042244337 5.3929714e-05
-0.009257558 -0.014330144 -0.0066768117 0.06862473 -0.008785683 0.06488098 -0.0054031843 -0.008242352
-0.0004148079 -0.005205279 0.04893986 0.00045509546 0.062150758 -0.0109769665 -0.0037983027 0.066944554
0.028800523 -0.0025482217 0.028657032 -0.0050107995 -0.0056160004 -0.0103343325 0.06979717 -0.012662351
0.030935906 0.007269104 -0.008377208 0.0007387513 0.059369605 0.057448186 0.00064051413 -0.0077175666
-0.014292492 -0.0003154128 -0.003718392 -0.008029551 0.00071127736 0.0132963415 5.9251674e-05 0.026956039
-0.007829892 0.022286735 -0.007287863 0.0045026448 0.069138885 0.05287214 -0.011581727 -0.007694282
-0.011440391 -0.0012404516 -0.009943128 0.023553062 0.06537594 0.003096182 0.00038781745 0.003857515
0.06871161 -0.012214587 0.017141683 0.0007448177 -0.0060745324 -0.0040181517 -0.0058707343 0.033484794

layers.2.running_var f4 [128]
00000000: cabf 3d3e cabf 3d3e cabf 3d3e cabf 3d3e
00000010: cabf 3d3e cabf 3d3e cabf 3d3e cabf 3d3e
00000020: cabf 3d3e cabf 3d3e cabf 3d3e cabf 3d3e
00000030: cabf 3d3e cabf 3d3e cabf 3d3e cabf 3d3e
00000040: cabf 3d3e cabf 3d3e cabf 3d3e cabf 3d3e
00000050: cabf 3d3e cabf 3d3e cabf 3d3e cabf 3d3e
00000060: cabf 3d3e cabf 3d3e cabf 3d3e cabf 3d3e
00000070: cabf 3d3e cabf 3d3e cabf 3d3e cabf 3d3e
00000080: cabf 3d3e cabf 3d3e cabf 3d3e cabf 3d3e
00000090: cabf 3d3e cabf 3d3e cabf 3d3e cabf 3d3e
000000a0: cabf 3d3e cabf 3d3e cabf 3d3e cabf 3d3e
000000b0: cabf 3d3e cabf 3d3e cabf 3d3e cabf 3d3e
000000c0: cabf 3d3e cabf 3d3e cabf 3d3e cabf 3d3e
000000d0: cabf 3d3e cabf 3d3e cabf 3d3e cabf 3d3e
000000e0: cabf 3d3e cabf 3d3e cabf 3d3e cabf 3d3e
000000f0: cabf 3d3e cabf 3d3e cabf 3d3e cabf 3d3e
00000100: cabf 3d3e cabf 3d3e cabf 3d3e cabf 3d3e
00000110: cabf 3d3e cabf 3d3e cabf 3d3e cabf 3d3e
00000120: cabf 3d3e cabf 3d3e cabf 3d3e cabf 3d3e
00000130: cabf 3d3e cabf 3d3e cabf 3d3e cabf 3d3e
00000140: cabf 3d3e cabf 3d3e cabf 3d3e cabf 3d3e
00000150: cabf 3d3e cabf 3d3e cabf 3d3e cabf 3d3e
00000160: cabf 3d3e cabf 3d3e cabf 3d3e cabf 3d3e
00000170: cabf 3d3e cabf 3d3e cabf 3d3e cabf 3d3e
00000180: cabf 3d3e cabf 3d3e cabf 3d3e cabf 3d3e
00000190: cabf 3d3e cabf 3d3e cabf 3d3e cabf 3d3e
000001a0: cabf 3d3e cabf 3d3e cabf 3d3e cabf 3d3e
000001b0: cabf 3d3e cabf 3d3e cabf 3d3e cabf 3d3e
000001c0: cabf 3d3e cabf 3d3e cabf 3d3e cabf 3d3e
000001d0: cabf 3d3e cabf 3d3e cabf 3d3e cabf 3d3e
000001e0: cabf 3d3e cabf 3d3e cabf 3d3e cabf 3d3e
000001f0: cabf 3d3e cabf 3d3e cabf 3d3e cabf 3d3e
0.18530193 0.18530193 0.18530193 0.18530193 0.18530193 0.18530193 0.18530193 0.18530193
0.18530193 0.18530193 0.18530193 0.18530193 0.18530193 0.18530193 0.18530193 0.18530193
0.18530193 0.18530193 0.18530193 0.18530193 0.18530193 0.18530193 0.18530193 0.18530193
0.18530193 0.18530193 0.18530193 0.18530193 0.18530193 0.18530193 0.18530193 0.18530193
0.18530193 0.18530193 0.18530193 0.18530193 0.18530193 0.18530193 0.18530193 0.18530193
0.18530193 0.18530193 0.18530193 0.18530193 0.18530193 0.18530193 0.18530193 0.18530193
0.18530193 0.18530193 0.18530193 0.18530193 0.18530193 0.18530193 0.18530193 0.18530193
0.18530193 0.18530193 0.18530193 0.18530193 0.18530193 0.18530193 0.18530193 0.18530193
0.18530193 0.18530193 0.18530193 0.18530193 0.18530193 0.18530193 0.18530193 0.18530193
0.18530193 0.18530193 0.18530193 0.18530193 0.18530193 0.18530193 0.18530193 0.18530193
0.18530193 0.18530193 0.18530193 0.18530193 0.18530193 0.18530193 0.18530193 0.18530193
0.18530193 0.18530193 0.18530193 0.18530193 0.18530193 0.18530193 0.18530193 0.18530193
0.18530193 0.18530193 0.18530193 0.18530193 0.18530193 0.18530193 0.18530193 0.18530193
0.18530193 0.18530193 0.18530193 0.18530193 0.18530193 0.18530193 0.18530193 0.18530193
0.18530193 0.18530193 0.18530193 0.18530193 0.18530193 0.18530193 0.18530193 0.18530193
0.18530193 0.18530193 0.18530193 0.18530193 0.18530193 0.18530193 0.18530193 0.18530193

layers.3.weight f4 [128, 128]
00000000: f9b3 27ba 5c0f e938 f0a5 3d3a 5ba0 afb9
00000010: 673e 7b39 a8a5 00bb 2660 4d39 0a6f dc3a
00000020: 264a 24bc 10ed a9b8 ea2e ebba 84b9 b0b9
00000030: bd22 8d39 9e27 f439 ec6a f9ba c4b7 87b6
00000040: 31b1 063b 5eee b83a d675 42ba 9ef0 a539
00000050: 2ca5 c739 7bd2 9839 a648 40b9 a290 a1ba
00000060: f868 21b9 96eb 9338 b66e a0ba 02f8 1a3a
00000070: 25e2 07b8 c4b9 c1ba 307d a839 e517 f4ba
00000080: 1384 773a e2ae adb9 4713 f23a bef1 913a
00000090: c5c3 06bc b378 73b9 f460 fab9 8e3f c7ba
000000a0: 7e65 b339 729e 9eb9 b31b 01bb fa59 043b
000000b0: 4029 0db9 bf62 053b 3374 36bc 97d2 053b
000000c0: 263f f7ba 2ae0 b0ba d7b7 14ba 80bb e93a
000000d0: 4009 88ba c90c 1e3c 186c 9b3a c3a5 a53b
000000e0: 00fb afba a4e5 063b f9b5 3239 4b17 d13a
000000f0: 205e 003b 60db e23a 74f7 4cb9 0646 c4b9
00000100: cc34 d2b9 e4f7 083a 744e 7a3a 34c4 8e3a
00000110: a23c 39ba e090 9fb9 8afc 3e39 28e9 4c3c
00000120: 1c2c 6b38 2b48 a339 2031 87b7 56cb 863a
00000130: a9ce 943a e6f7 91ba 2cc4 f33a 8fd1 03bb
00000140: ffba 9aba 6aaf fcba f49b 9039 e988 86bb
00000150: 82ff bdb7 421f c0ba 7dc9 06bb 56b8 8239
00000160: 3656 603a 6717 a2ba f655 93ba 86f5 063b
00000170: 602a f038 b9bf 053b 3797 04bb 9e47 caba
00000180: 11c7 8839 0f68 fc3a 6245 0aba 1389 43bb
00000190: de82 84ba e10b 07bb 59d5 bb3a fc6e 873a
000001a0: a394 9db9 a402 1cba 4e52 f03a 0046 063b
000001b0: 1208 06bb 6195 323c cbcd b2ba eada f038
000001c0: a623 fcb7 fc6d 053b 81ed 25b9 5264 d139
000001d0: 1071 90b9 fec1 a9ba d603 a73a d8e6 153a
000001e0: e605 5e3b 6089 73b5 2650 f1b9 76bc 8f39
000001f0: 8a5d b8b8 1805 92b9 406b a338 3887 96b9
00000200: 343b 333a f1ab bfba 2a7d c839 c04a c7ba
00000210: ef75 60b9 4781 663a 9847 06bb f43c 183a
00000220: 0449 93b8 4731 053b bab8 2c39 48de 063b
00000230: 40a9 aeba 0774 8db7 944d 9d3a 3b50 7fb9
00000240: 0411 f439 9fc4 e1ba 0e38 fdb9 d459 b2bb
00000250: 19e6 3a39 f236 8a39 b810 56b9 a0c0 fbb6
00000260: 2cc1 38ba 83ba 06bb 1414 d839 0031 38b8
00000270: 80c8 0438 789a 7939 478a fa39 f4db fb3b
00000280: a419 1c38 41e8 bcbb f29b d53a 1997 3e39
00000290: 030f a83b 8dbe b139 af5f 53b9 d5a9 02bb
000002a0: ace1 e03a 4745 413a 74f2 caba aeed c93a
000002b0: 6033 06bb e6a3 a6ba 54c8 ac3b 4026 abba
000002c0: 602f 043b b802 07bb 5c93 2939 62f1 afb9
000002d0: fcd2 c639 906d c23a 9239 8a3a 1af4 e4b9
000002e0: cc0d 5ab8 ba2d 103a 6cf8 5e38 0a7e ddba
000002f0: 59bd fe3a a1b5 f0ba c0e6 b1b9 3973 f33a
00000300: ce34 4eb9 2c1b 74b9 05c8 04bb 2433 5939
00000310: 4c7e 883b f8df 8e38 b944 4ab6 e44a 9d39
00000320: e451 deb8 b2d6 b6b9 9643 ec3a 7bbb 053b
00000330: 40c2 8638 b22b e1ba 01c4 fd3a 9252 ca36
00000340: 78cc c2ba a2cd d1ba c09a 063b 962f eaba
00000350: 4d6c 59bc 0f38 00bb 89db 3bba cd57 76ba
00000360: 3b3c 733b 31d7 7c3a f0fa beba 2288 003b
00000370: 5788 03bb 2860 77b9 120c 4bba 608c b038
00000380: 13ac adba c5c9 43ba 1df9 393b 0001 33b6
00000390: d835 c53a 22d7 013a 1ad8 ebba f8a5 eb38
000003a0: c8cb 03bb aa46 bf36 b2f0 9a3a 7e3f 8fb9
000003b0: b547 053b e8bf 58ba dcd3 e13b a8ad 3ebb
000003c0: 1043 4ebb a1d2 213a 7ac2 863a 3235 3aba
000003d0: 08a3 afb9 8930 94bb c86a 99ba f3a1 b0b9
000003e0: 6686 243b 57ff 65bb f5d7 5638 1224 e33a
000003f0: c629 fd3a be5b 023b df89 fdba 830a 15ba
-0.00063973624 0.00011113167 0.00072345044 -0.00033498075 0.00023960472 -0.0019629989 0.00019586142 0.001681776
-0.010027444 -8.102704e-05 -0.0017943059 -0.00033707556 0.00026919498 0.00046568824 -0.0019029058 -4.0447067e-06
0.0020552392 0.0014109125 -0.00074180716 0.00031650526 0.000380793 0.0002914852 -0.0001833761 -0.0012326429
-0.0001539326 7.0533875e-05 -0.0012240026 0.000591159 -3.239712e-05 -0.0014780094 0.0003213673 -0.0018622844
0.0009441983 -0.0003312743 0.001846888 0.0011134667 -0.008225386 -0.0002321925 -0.00047755952 -0.0015201436
0.00034217158 -0.0003025416 -0.0019700348 0.0020195232 -0.00013462175 0.0020353047 -0.0111361025 0.002041971
-0.0018863424 -0.001349454 -0.0005673146 0.0017832369 -0.0010378733 0.009646603 0.0011857776 0.0050551607
-0.0013426244 0.0020583654 0.00017043193 0.0015952376 0.0019587353 0.001730781 -0.0001954714 -0.00037436205
-0.00040093658 0.0005224927 0.00095484336 0.0010892213 -0.0007066225 -0.00030434784 0.0001821389 0.012506761
5.6069446e-05 0.00031143552 -1.611613e-05 0.0010283988 0.0011353093 -0.0011136502 0.0018597892 -0.002011392
-0.0011804997 -0.0019278352 0.00027582014 -0.0041056764 -2.2649536e-05 -0.0014657753 -0.0020566874 0.00024932873
0.00085577683 -0.0012366594 -0.0011240828 0.002059312 0.00011451985 0.0020408465 -0.0020231733 -0.001543272
0.00026088257 0.0019257086 -0.0005274621 -0.0029836341 -0.0010109802 -0.0020606446 0.001433055 0.0010332759
-0.00030056117 -0.0005951321 0.0018335076 0.00204885 -0.0020451588 0.0108998725 -0.0013641653 0.00011484868
-3.0057341e-05 0.0020359745 -0.00015824103 0.0003993833 -0.00027550058 -0.0012951491 0.0012742232 0.00057182973
0.0033878027 -9.072446e-07 -0.00046026817 0.000274155 -8.791227e-05 -0.00027851085 7.7924225e-05 -0.00028710975
0.000683713 -0.0014623386 0.00038240227 -0.0015204772 -0.00021406238 0.00087930675 -0.002048945 0.00058074226
-7.0231064e-05 0.002032356 0.00016472014 0.0020579267 -0.0013325587 -1.686254e-05 0.001200127 -0.00024348583
0.00046551984 -0.0017224735 -0.00048297684 -0.0054428373 0.0001782406 0.0002636235 -0.00020414859 -7.5028074e-06
-0.0007047828 -0.0020557947 0.0004121369 -4.3914653e-05 3.1657983e-05 0.00023804035 0.0004778674 0.0076861326
3.7217178e-05 -0.0057649915 0.0016297086 0.000181761 0.0051287427 0.00033902042 -0.00020158173 -0.0019937654
0.0017157099 0.0007372689 -0.0015483634 0.0015405917 -0.00204774 -0.001271364 0.0052729044 -0.0013057664
0.002016984 -0.0020600986 0.00016171992 -0.00033558445 0.00037922699 0.0014833678 0.0010545722 -0.0004366942
-5.19881e-05 0.0005499978 5.3160285e-05 -0.0016898524 0.0019435092 -0.0018364677 -0.00033931993 0.0018573768
-0.00019665362 -0.00023279776 -0.0020260822 0.00020713784 0.0041654464 6.812805e-05 -3.0140347e-06 0.0003000117
-0.00010601038 -0.00034873706 0.0018025513 0.0020405937 6.4258e-05 -0.001717916 0.0019360782 6.0296816e-06
-0.0014861962 -0.0016006718 0.0020539016 -0.0017866965 -0.01327045 -0.0019564664 -0.0007166197 -0.00093972386
0.0037114758 0.0009645103 -0.0014570635 0.0019612391 -0.0020070279 -0.00023591577 -0.0007745634 8.418481e-05
-0.0013250135 -0.00074687257 0.0028377243 -2.667366e-06 0.0015045954 0.0004953017 -0.001799348 0.00011236587
-0.0020110477 5.70047e-06 0.0011821 -0.0002732239 0.002033693 -0.00082683424 0.0068917107 -0.0029095206
-0.0031473078 0.0006173049 0.0010281347 -0.00071032636 -0.0003350007 -0.0045223874 -0.0011704797 -0.00033689998
0.0025104522 -0.0035094821 5.12227e-05 0.0017329475 0.0019314818 0.0019891108 -0.0019343457 -0.00056854653

layers.3.bias f4 [128]
00000000: ccba 1a3a 5c31 303d cbab ad3b bd34 293d
00000010: 3c49 7d3a 9900 6abd 3bb6 203d 19e8 623c
00000020: f8e3 493b 7a3f 95bd 73df 30bd 7649 6e3d
00000030: 0e48 33bc 2b02 373d 1528 b13b 7d99 8dbc
00000040: 399d 1abd 4368 673d bc57 1cbd 4d10 0f3d
00000050: ee97 a9bc d634 24bd 8720 00bb 41fd 0f3d
00000060: 25a7 9fbd 6229 4539 360c 15bc 5850 11bb
00000070: 3197 0f3d d92a 1f3d 3191 983d df72 9abd
00000080: 061f 953d 09c9 07bd f384 83bc 131e 0bbd
00000090: 7554 2a3b 8000 04bd e853 893d be53 d83c
000000a0: 144c 23bc b41e 773a 7fe2 f8bc b23c 96bd
000000b0: 58a9 ab3d 2af4 3bbb bf17 5f3d 2542 1c3b
000000c0: 6571 42bb 4da8 623d 2f64 9cbd 3d46 a73d
000000d0: 8b6c cd3a 7acb 5c3d 992b fcba 86c3 aabd
000000e0: c155 9e3d e40c 9abd 94a5 96bb cc6b a63d
000000f0: f60f df3c c702 533d 18d4 593d 7254 dc3a
00000100: 9895 a0bd 3d9f ff3b f7fb c33a 28c1 8abd
00000110: e149 783d 18c4 28ba 897a 193d 0bda 823c
00000120: eb99 7cbd d644 d9bc cc43 44bd 5c85 963d
00000130: a68d 88bd dd50 4e3d aedc 82bd 7bd2 b5ba
00000140: e7c2 b2bb 1988 edb9 6f6e 273d a030 a13d
00000150: 01e3 cdbc 53fc 35bc 1f09 a3bc 8911 4cba
00000160: a61e e1bb d93b a5bb e477 02bb 92ba 5ebb
00000170: a739 223d b7c4 d73b 628c 1a3d 070b 453d
00000180: af43 a4bc ac9a 793d a0d0 d73c bb0e 8c3d
00000190: b846 653d 7975 963d 126c a3bd 831b cb3c
000001a0: cabf 57bd 71c3 7d3c f7fe 72bd e1a1 413d
000001b0: d74f 1bbd 1c5a 34bc 20fb 613d 751a 8fbc
000001c0: 3733 41bc f745 3bbc 9434 9d3b 3500 153d
000001d0: 2f8e 6cbd 4533 6939 c4f6 67bd 21f0 b0bc
000001e0: d029 9a3d 602f d3ba 77ed aa3c 60a6 a13d
000001f0: c0f0 253c a75a 3ebd 0262 473c dbdb f9ba
0.00059024687 0.043015823 0.0053000203 0.04131006 0.0009662097 -0.057129476 0.03923629 0.013849282
0.0030806046 -0.07287498 -0.043181848 0.058175527 -0.010942472 0.044679802 0.0054063895 -0.017285103
-0.037747595 0.056495916 -0.038169608 0.034927655 -0.020702329 -0.04008945 -0.0019550638 0.03515363
-0.07795552 0.000188028 -0.00909715 -0.0022173133 0.035056297 0.038859222 0.07449568 -0.07541441
0.07281308 -0.033150706 -0.016054606 -0.033964228 0.0025990282 -0.03222704 0.06705457 0.026407119
-0.009966869 0.00094268774 -0.03038144 -0.073357955 0.08381909 -0.0028679469 0.054466005 0.0023843136
-0.002966964 0.055336285 -0.07636296 0.08167694 0.0015672607 0.053904988 -0.0019239067 -0.083380744
0.077312 -0.0752199 -0.004597375 0.08126029 0.02722929 0.05151632 0.053180784 0.0016809835
-0.07841033 0.007800965 0.0014952411 -0.06775123 0.06061733 -0.00064379117 0.037470374 0.015973112
-0.061670225 -0.026522081 -0.04791622 0.07349655 -0.06667642 0.050370086 -0.063897476 -0.0013871932
-0.005455363 -0.00045305563 0.040876802 0.078706026 -0.025132658 -0.011107522 -0.01990181 -0.00077845954
-0.0068701087 -0.005042535 -0.0019907886 -0.0033985716 0.039605763 0.0065847295 0.037731536 0.04810622
-0.020051805 0.060938522 0.026344597 0.06838747 0.055975646 0.07346625 -0.07979597 0.024793392
-0.05267314 0.015488491 -0.059325185 0.04727352 -0.037917938 -0.011007812 0.055171132 -0.01746867
-0.011791996 -0.011430255 0.0047975276 0.03637715 -0.057752784 0.00022239711 -0.05663182 -0.021598877
0.07527506 -0.0016112141 0.020865185 0.07893062 0.0101282 -0.04647317 0.012169363 -0.0019062714

layers.6.weight f4 [128]
00000000: 4fe9 7b3f 4ee9 7b3f 51e9 7b3f 4ee9 7b3f
00000010: 4fe9 7b3f 4ee9 7b3f 51e9 7b3f 4ce9 7b3f
00000020: 4ee9 7b3f 4fe9 7b3f 4ee9 7b3f 4fe9 7b3f
00000030: 4ee9 7b3f 50e9 7b3f 50e9 7b3f 4fe9 7b3f
00000040: 4ee9 7b3f 4be9 7b3f 4fe9 7b3f 4ee9 7b3f
00000050: 4ee9 7b3f 4de9 7b3f 4ee9 7b3f 4ce9 7b3f
00000060: 4ee9 7b3f 4fe9 7b3f 4ee9 7b3f 50e9 7b3f
00000070: 4de9 7b3f 4fe9 7b3f 4fe9 7b3f 51e9 7b3f
00000080: 4ee9 7b3f 51e9 7b3f 4ee9 7b3f 4ee9 7b3f
00000090: 4fe9 7b3f 4ee9 7b3f 51e9 7b3f 4ee9 7b3f
000000a0: 51e9 7b3f 51e9 7b3f 50e9 7b3f 4ee9 7b3f
000000b0: 4fe9 7b3f 4fe9 7b3f 4de9 7b3f 4fe9 7b3f
000000c0: 4be9 7b3f 50e9 7b3f 50e9 7b3f 4ce9 7b3f
000000d0: 4fe9 7b3f 51e9 7b3f 4ce9 7b3f 4fe9 7b3f
000000e0: 50e9 7b3f 4ce9 7b3f 4ee9 7b3f 4ee9 7b3f
000000f0: 4ee9 7b3f 4fe9 7b3f 51e9 7b3f 4de9 7b3f
00000100: 53e9 7b3f 4de9 7b3f 50e9 7b3f 50e9 7b3f
00000110: 4be9 7b3f 4fe9 7b3f 4ce9 7b3f 4ee9 7b3f
00000120: 4de9 7b3f 4fe9 7b3f 50e9 7b3f 4fe9 7b3f
00000130: 4ee9 7b3f 50e9 7b3f 4ee9 7b3f 4ee9 7b3f
00000140: 4de9 7b3f 4fe9 7b3f 50e9 7b3f 4de9 7b3f
00000150: 50e9 7b3f 4de9 7b3f 4de9 7b3f 4fe9 7b3f
00000160: 50e9 7b3f 4ee9 7b3f 50e9 7b3f 4fe9 7b3f
00000170: 4ee9 7b3f 4de9 7b3f 4de9 7b3f 4ee9 7b3f
00000180: 4fe9 7b3f 4ee9 7b3f 4fe9 7b3f 4ce9 7b3f
00000190: 4ee9 7b3f 4fe9 7b3f 4ae9 7b3f 53e9 7b3f
000001a0: 50e9 7b3f 4fe9 7b3f 50e9 7b3f 51e9 7b3f
000001b0: 4de9 7b3f 4fe9 7b3f 50e9 7b3f 51e9 7b3f
000001c0: 4ee9 7b3f 52e9 7b3f 50e9 7b3f 53e9 7b3f
000001d0: 4de9 7b3f 4fe9 7b3f 4de9 7b3f 4fe9 7b3f
000001e0: 4fe9 7b3f 4ee9 7b3f 50e9 7b3f 4ee9 7b3f
000001f0: 4fe9 7b3f 4fe9 7b3f 4ee9 7b3f 4ce9 7b3f
0.98402876 0.9840287 0.9840289 0.9840287 0.98402876 0.9840287 0.9840289 0.9840286
0.9840287 0.98402876 0.9840287 0.98402876 0.9840287 0.9840288 0.9840288 0.98402876
0.9840287 0.9840285 0.98402876 0.9840287 0.9840287 0.98402864 0.9840287 0.9840286
0.9840287 0.98402876 0.9840287 0.9840288 0.98402864 0.98402876 0.98402876 0.9840289
0.9840287 0.9840289 0.9840287 0.9840287 0.98402876 0.9840287 0.9840289 0.9840287
0.9840289 0.9840289 0.9840288 0.9840287 0.98402876 0.98402876 0.98402864 0.98402876
0.9840285 0.9840288 0.9840288 0.9840286 0.98402876 0.9840289 0.9840286 0.98402876
0.9840288 0.9840286 0.9840287 0.9840287 0.9840287 0.98402876 0.9840289 0.98402864
0.984029 0.98402864 0.9840288 0.9840288 0.9840285 0.98402876 0.9840286 0.9840287
0.98402864 0.98402876 0.9840288 0.98402876 0.9840287 0.9840288 0.9840287 0.9840287
0.98402864 0.98402876 0.9840288 0.98402864 0.9840288 0.98402864 0.98402864 0.98402876
0.9840288 0.9840287 0.9840288 0.98402876 0.9840287 0.98402864 0.98402864 0.9840287
0.98402876 0.9840287 0.98402876 0.9840286 0.9840287 0.98402876 0.98402846 0.984029
0.9840288 0.98402876 0.9840288 0.9840289 0.98402864 0.98402876 0.9840288 0.9840289
0.9840287 0.98402894 0.9840288 0.984029 0.98402864 0.98402876 0.98402864 0.98402876
0.98402876 0.9840287 0.9840288 0.9840287 0.98402876 0.98402876 0.9840287 0.9840286

layers.6.bias f4 [128]
00000000: d017 4738 929e 0737 4d65 13b8 8690 17b8
00000010: 9137 82b8 c682 04b9 378f b938 fdc3 3639
00000020: 37ea d038 7086 c438 0297 b5b7 1be5 beb8
00000030: f4a5 3c38 ce44 4bb8 c25f 80b8 c706 3e39
00000040: 5ccf cf38 c111 ba38 2f24 2db8 1f09 4138
00000050: 1bfb 3339 da36 f538 703b 5538 3cdf 87b8
00000060: 10d2 3e39 5b99 fb37 eaa5 c537 1e8a f638
00000070: 8066 9236 f21d f1b8 e86f 9537 12a6 e1b7
00000080: e490 ae38 5326 8fb8 bb02 2db8 283b 92b6
00000090: 7cc9 e0b6 3f85 48b8 385a 0cb9 8b19 80b6
000000a0: 2da2 edb7 fabd a138 103e f9b8 7aa9 77b8
000000b0: bb19 9e37 0de7 9938 cab9 cfb7 9fb5 f738
000000c0: cf26 32b8 84be 5f38 9c6b 58b8 b51e 8537
000000d0: a1bd 1fb9 4089 96b6 12dc 8a38 279d 16b9
000000e0: 9c34 51b8 bf94 8337 e043 d5b4 f541 de38
000000f0: 7179 3cb8 f60b 5cb9 695d 1bb9 065e 72b8
00000100: 7780 c238 f030 a8b8 afca 89b8 d842 5438
00000110: 82f5 8738 5396 e2b8 60fc 2438 c08b efb8
00000120: 1e04 d3b6 fc0a a8b7 1c45 cf38 e25e acb8
00000130: 41f9 e5b7 786f 55b8 6b41 a2b8 1894 bcb8
00000140: 264a 6b38 f2ec dab7 6f10 3238 17f2 a2b8
00000150: 94ea 96b8 eae6 9d38 8215 0738 618e 18b8
00000160: 6ed5 7238 846d 8e39 88eb 66b6 9c03 4338
00000170: bd89 02b9 b81b bbb8 559d d738 841c a438
00000180: 3df0 a6b7 16bc 7438 a9a3 0139 1441 0e38
00000190: 7414 8e38 7e72 5eb8 ed79 5ab8 1adf 1eb8
000001a0: 7f13 96b8 020e eb38 33d8 f6b8 5f52 9c38
000001b0: 71f3 4339 989d cc37 61f4 d338 728a a137
000001c0: 1bf8 5b38 6f72 83b8 06c8 d2b6 2b67 0d38
000001d0: 10a8 f1b5 55bc 42b7 7c11 08b9 d4f7 9eb8
000001e0: 121d 11b9 e50d be37 ede5 a438 7d13 6f39
000001f0: 8cee 60b8 5e4a e538 9986 9c38 044c 97b8
4.7467474e-05 8.083547e-06 -3.5141875e-05 -3.6135803e-05 -6.209233e-05 -0.00012637218 8.848163e-05 0.00017429884
9.961839e-05 9.371049e-05 -2.16472e-05 -9.10258e-05 4.497725e-05 -4.846305e-05 -6.121352e-05 0.00018122337
9.909153e-05 8.872478e-05 -4.1280113e-05 4.602328e-05 0.00017164314 0.00011692727 5.0838513e-05 -6.478882e-05
0.00018198066 2.9992943e-05 2.356149e-05 0.000117559204 4.3630716e-06 -0.00011497353 1.7814295e-05 -2.6899423e-05
8.3239545e-05 -6.82591e-05 -4.1248957e-05 -4.3580258e-06 -6.699176e-06 -4.780781e-05 -0.0001338505 -3.817671e-06
-2.832812e-05 7.712464e-05 -0.00011884805 -5.9047226e-05 1.884705e-05 7.338645e-05 -2.4762838e-05 0.000118117074
-4.247465e-05 5.3344775e-05 -5.1598632e-05 1.5869135e-05 -0.00015234064 -4.4863264e-06 6.621344e-05 -0.00014363659
-4.987848e-05 1.5685682e-05 -3.9723727e-07 0.000105980704 -4.4935794e-05 -0.00020985291 -0.0001481675 -5.7784862e-05
9.274569e-05 -8.0199796e-05 -6.570422e-05 5.0606992e-05 6.483031e-05 -0.0001080452 3.933569e-05 -0.000114224385
-6.2887693e-06 -2.0032276e-05 9.883402e-05 -8.2192724e-05 -2.7414995e-05 -5.088697e-05 -7.736947e-05 -8.992123e-05
5.6097422e-05 -2.6097961e-05 4.2453812e-05 -7.769855e-05 -7.196251e-05 7.5293545e-05 3.220654e-05 -3.6372225e-05
5.7896068e-05 0.00027165946 -3.4409768e-06 4.6494984e-05 -0.00012449078 -8.922018e-05 0.00010281304 7.825441e-05
-1.9900612e-05 5.8349302e-05 0.00012363367 3.3916047e-05 6.774897e-05 -5.3035554e-05 -5.2088802e-05 -3.7877915e-05
-7.156189e-05 0.000112082824 -0.00011770464 7.4540025e-05 0.00018687338 2.439208e-05 0.00010106783 1.9257164e-05
5.2444735e-05 -6.267882e-05 -6.2817735e-06 3.3713102e-05 -1.8004812e-06 -1.1607151e-05 -0.00012976484 -7.580189e-05
-0.00013839107 2.2656235e-05 7.8629564e-05 0.00022800076 -5.3627926e-05 0.00010933423 7.4637304e-05 -7.2144e-05

layers.6.running_mean f4 [128]
00000000: b3dd 3d3b b701 173d 91d9 0c3c ea48 1f3d
00000010: 500c 18bb d131 30bd 208a 1b3d 3aeb 893c
00000020: 8a3d e03a 4ef8 80bd 7d71 2bbd 2da5 4a3d
00000030: fb72 4ebc cce5 273d 01a5 443b 837b 9dbc
00000040: 1221 1bbd c28c 543d ad66 16bd aab9 103d
00000050: d530 afbc 10e3 21bd 9249 1ebb 9c6a 0a3d
00000060: 32d8 90bd 07de 163a 70b8 44bc 32db ea39
00000070: 9499 043d e362 163d a80e 883d 983e 8abd
00000080: 8404 7e3d 80b0 09bd be07 94bc eecf 06bd
00000090: aad0 173a 71c1 05bd 07df 863d eec0 e63c
000000a0: 8444 42bc afab e03a 7d7c eabc dbd6 90bd
000000b0: 6e6a 963d c119 ddba 1f72 5b3d 28cb bb3b
000000c0: 5013 8dbb 7528 513d ec5d 91bd d0d7 953d
000000d0: 3dbe 3b3b d37a 473d 657d 9fbb 8c39 93bd
000000e0: 776f 943d 9aa1 8cbd 2e79 84bb 6560 933d
000000f0: ea6e d03c 4112 473d 4f8d 463d 66d8 b63b
00000100: 26d4 85bd d247 2d3c c936 233b f948 80bd
00000110: 9288 5b3d fa54 823b 8081 093d 70ef 943c
00000120: 1f45 63bd 3975 d1bc 70ab 2abd ff10 813d
00000130: abc9 61bd d6c6 393d d77c 6dbd 7edd d5b8
00000140: 46bd 0fbc d2ae 9fba 9659 203d 9508 813d
00000150: 78a5 d3bc 62e2 60bc 89d5 aabc e62c 043a
00000160: 129d 28bc fd10 7dbb b6a6 abbb 758b 29bb
00000170: 0ecc 1d3d 62b7 213c fed0 0e3d ffc2 3f3d
00000180: d23c b3bc eb00 633d 111f ce3c d2cb 6c3d
00000190: c6ec 533d 16f6 843d 7aa8 82bd ae49 ce3c
000001a0: 95e3 38bd 50c6 803c 53d2 4cbd 7461 333d
000001b0: 0616 14bd ec62 5dbc cd0f 503d 1e4a 9abc
000001c0: b307 76bc a1f6 5ebc 1e44 ee3b 3c06 113d
000001d0: e291 62bd a010 98ba 4676 50bd 316a aebc
000001e0: 1493 823d 3157 3e3a a6a3 bc3c 6e39 8c3d
000001f0: d85c 543c c5d5 2fbd 20b3 683c 6fd3 b7bb
0.0028971254 0.03686687 0.008596794 0.038887896 -0.0023200698 -0.04301626 0.037973523 0.016835798
0.0017108184 -0.0629736 -0.041856278 0.04947393 -0.012600656 0.040990636 0.0030005577 -0.019223934
-0.037873335 0.05189205 -0.036719013 0.035333313 -0.02138559 -0.039523184 -0.0024152738 0.033793077
-0.07072486 0.00057551306 -0.012006864 0.0004479527 0.032373026 0.0367154 0.066434205 -0.0675022
0.062016025 -0.03361559 -0.018070098 -0.03291314 0.0005791286 -0.032655183 0.06585508 0.028168168
-0.011857156 0.001714101 -0.028623814 -0.070722304 0.073445186 -0.0016868637 0.05357563 0.005731005
-0.0043052807 0.051063973 -0.07097992 0.073165536 0.0028647326 0.04870112 -0.004867243 -0.071887106
0.07247823 -0.068667606 -0.004042766 0.0719612 0.025443513 0.048601393 0.048474606 0.005579996
-0.06534605 0.010576205 0.002490448 -0.062639184 0.05359704 0.003977415 0.033570766 0.018180579
-0.05548584 -0.025568591 -0.0416674 0.0630207 -0.055123966 0.04535564 -0.057980385 -0.000101978876
-0.008773154 -0.0012182838 0.039147936 0.06300465 -0.025835738 -0.013725849 -0.020853775 0.0005042091
-0.010291355 -0.0038614862 -0.0052383794 -0.0025870476 0.03852468 0.009870382 0.03486728 0.046816822
-0.021879587 0.055420797 0.025161298 0.057811566 0.051739477 0.0649225 -0.063797906 0.025181618
-0.045138914 0.015719563 -0.05000527 0.04379411 -0.036153816 -0.013512354 0.05079632 -0.01883417
-0.015016484 -0.013608606 0.007271304 0.035406336 -0.055314906 -0.0011601634 -0.050894044 -0.02129087
0.06375709 0.00072609173 0.023027252 0.06846891 0.012961589 -0.042928476 0.014202863 -0.0056099216

layers.6.running_var f4 [128]
00000000: 5dc1 3d3e 02b6 3e3e c6cb 3d3e c390 3e3e
00000010: 93c1 3d3e 7960 3f3e 3970 3e3e 12e2 3d3e
00000020: 81c0 3d3e 2f13 403e 548a 3e3e 4a4a 3f3e
00000030: 2edc 3d3e dfb1 3e3e 15c1 3d3e 2df1 3d3e
00000040: e55d 3e3e 071b 3f3e 4670 3e3e 624e 3e3e
00000050: fb00 3e3e 3d79 3e3e c9c0 3d3e a75f 3e3e
00000060: 9321 403e debf 3d3e 6fd5 3d3e 22c0 3d3e
00000070: cc64 3e3e ce7c 3e3e aff9 3f3e 0e24 403e
00000080: 351d 403e a943 3e3e 38ed 3d3e 5b4c 3e3e
00000090: 2dc0 3d3e b63d 3e3e 8c5f 3f3e f11a 3e3e
000000a0: d9d6 3d3e f9c0 3d3e 9f41 3e3e 0096 3f3e
000000b0: f1a5 403e 51c0 3d3e f4dd 3e3e f3c5 3d3e
000000c0: 54c2 3d3e 8e1b 3f3e 49f8 3f3e b06f 403e
000000d0: e3c1 3d3e 520e 3f3e 93c4 3d3e bca4 403e
000000e0: 9403 403e 3c0c 403e 53c2 3d3e 237c 403e
000000f0: 0b2d 3e3e e8dd 3e3e 8805 3f3e aec4 3d3e
00000100: b763 403e 50d2 3d3e 2ac1 3d3e d5a1 3f3e
00000110: 9a5e 3f3e cbc2 3d3e f574 3e3e 9fe9 3d3e
00000120: 6d68 3f3e d925 3e3e 55e4 3e3e 8523 403e
00000130: b9cd 3f3e 1dec 3e3e 0f67 3f3e 1dc0 3d3e
00000140: c3cb 3d3e 21c0 3d3e 167f 3e3e 2b6a 403e
00000150: 0517 3e3e 8bda 3d3e ecfe 3d3e 2bc0 3d3e
00000160: 46cd 3d3e 21c2 3d3e 97c4 3d3e 86c0 3d3e
00000170: f179 3e3e cace 3d3e 4174 3e3e efb9 3e3e
00000180: 3afa 3d3e 605f 3f3e 6628 3e3e 44d3 3f3e
00000190: fd17 3f3e e808 403e e1b8 403e 431b 3e3e
000001a0: d815 3f3e f2ed 3d3e 946e 3f3e 2ebf 3e3e
000001b0: 626f 3e3e 28da 3d3e 09fc 3e3e 5ef3 3d3e
000001c0: 6edb 3d3e 83db 3d3e f3c9 3d3e c866 3e3e
000001d0: 8b1b 3f3e 1cc0 3d3e 3920 3f3e 830b 3e3e
000001e0: ca50 403e 8ac0 3d3e 32fe 3d3e d56f 403e
000001f0: 6ed8 3d3e 58b8 3e3e 95df 3d3e c8c4 3d3e
0.18530793 0.18624118 0.18534765 0.1860991 0.18530874 0.18689145 0.18597497 0.1854327
0.18530466 0.18757318 0.18607455 0.18680683 0.18541023 0.1862254 0.18530686 0.18549033
0.18590505 0.18662654 0.18597516 0.18584588 0.18555062 0.18600936 0.18530573 0.18591176
0.18762808 0.18530223 0.1853845 0.18530324 0.18593138 0.18602297 0.1874759 0.18763754
0.18761142 0.18580498 0.18547523 0.18583815 0.1853034 0.18578228 0.18688792 0.18564965
0.18538989 0.18530644 0.1857972 0.18709564 0.18813302 0.18530394 0.18639356 0.18532543
0.18531162 0.18662855 0.18747057 0.18792605 0.18530993 0.18657807 0.18532018 0.18812841
0.18751365 0.18754667 0.1853116 0.18797354 0.1857187 0.18639338 0.18654454 0.18532059
0.18788038 0.18537259 0.18530717 0.18714078 0.18688431 0.18531339 0.18599303 0.1854615
0.18692179 0.18569125 0.1864179 0.1876355 0.1873082 0.18644758 0.18691657 0.18530317
0.1853476 0.18530323 0.18603167 0.187905 0.18563469 0.18540399 0.18554276 0.18530338
0.18535337 0.18531086 0.18532024 0.18530473 0.18601204 0.18535915 0.18599035 0.18625616
0.18552485 0.18688726 0.18570098 0.18732935 0.18661495 0.18753397 0.18820526 0.18565087
0.18660676 0.185478 0.18694526 0.18627617 0.18597177 0.18540251 0.18650831 0.18549868
0.18540737 0.18540768 0.18534069 0.18593895 0.1866285 0.18530315 0.18664636 0.18559079
0.18780819 0.18530479 0.18553999 0.1879266 0.18539593 0.18625009 0.18542321 0.18532097
