scripts/model_params/test10_50_critic.pth (torch, 392370 bytes, 17 tensors)

state_input.weight f4 [128, 65]
0	0xb4e89e4c	-4.3328544e-07
1	0xb4ca5774	-3.7689063e-07
2	0x3342f040	4.538765e-08
3	0xb7bbadb4	-2.2373024e-05
4	0x372443ee	9.790978e-06
5	0x37092059	8.173368e-06
6	0xb6afc61e	-5.2384703e-06
7	0xb6bed31e	-5.6870185e-06
8	0xb63bd7a0	-2.7990682e-06
9	0xb5870ae4	-1.0061453e-06
10	0xb7837cca	-1.5674526e-05
11	0x357f5bb9	9.5128377e-07
12	0xb7996c18	-1.8289356e-05
13	0x32ca64f0	2.3561796e-08
14	0x3645a4a7	2.9451128e-06
15	0xb6085318	-2.0313946e-06
16	0xb4f76e40	-4.6087553e-07
17	0xb59f6aec	-1.1877542e-06
18	0x3645a6fc	2.9452485e-06
19	0xb5ff3793	-1.9015155e-06
20	0xb6fac26a	-7.4732134e-06
21	0x35ed5b3e	1.7684431e-06
22	0x35d129fe	1.5583935e-06
23	0xb4e8293c	-4.324337e-07
24	0xb61ffd0c	-2.384014e-06
25	0xb81e90a6	-3.780485e-05
26	0x366ffafc	3.5759867e-06
27	0xb670eedc	-3.5901821e-06
28	0x368b7c2e	4.1569792e-06
29	0x37865ea4	1.6018115e-05
30	0xb54b1184	-7.564888e-07
31	0xb599586c	-1.1425122e-06
32	0xb5495bbc	-7.5011826e-07
33	0xb588a187	-1.01798e-06
34	0x36213906	2.4024062e-06
35	0x37113d27	8.656912e-06
36	0x374152a3	1.1522937e-05
37	0x370da480	8.442556e-06
38	0x3531543a	6.6060204e-07
39	0x36af3cac	5.2224696e-06
40	0xb36e3740	-5.5463943e-08
41	0x36413aeb	2.8793536e-06
42	0xb6c453ed	-5.8510254e-06
43	0xb50f3146	-5.3343354e-07
44	0x370bc688	8.33127e-06
45	0x35576694	8.024301e-07
46	0x347b5e74	2.3410558e-07
47	0x353b28e1	6.9722415e-07
48	0x36fdc672	7.5630896e-06
49	0x357a42d2	9.3229494e-07
50	0xb42404a8	-1.5275384e-07
51	0x3614de27	2.2183028e-06
52	0x35589434	8.0681934e-07
53	0x35161d14	5.592167e-07
54	0xb72e5c0e	-1.0392641e-05
55	0xb633dd6f	-2.680197e-06
56	0xb7aa3135	-2.0288493e-05
57	0xb7c18758	-2.3070417e-05
58	0x3604f816	1.9813938e-06
59	0xb38f1f10	-6.6646066e-08
60	0x3638c6eb	2.7533922e-06
61	0x3587ba7b	1.0112557e-06
62	0xb554a02c	-7.9209235e-07
63	0x363c8afe	2.8095087e-06
64	0xb7284104	-1.0028718e-05
65	0xb398242f	-7.084633e-08
66	0xb755b07b	-1.2736879e-05
67	0xb5c9af51	-1.5026691e-06
68	0xb6cb2a36	-6.0547854e-06
69	0xb5861cce	-9.992161e-07
70	0x364b8bf4	3.033082e-06
71	0x35c3f30e	1.459937e-06
72	0x33acb7ac	8.042784e-08
73	0x382072d9	3.8253933e-05
74	0xb2df6e08	-2.6010653e-08
75	0xb74bf6ba	-1.2157188e-05
76	0x36677fc0	3.4496043e-06
77	0x3758ef39	1.2930302e-05
78	0x344c18ff	1.9008074e-07
79	0xb054b47e	-7.7381646e-10
80	0x36bb6827	5.585159e-06
81	0x359c6b5d	1.1654153e-06
82	0x34ec67f4	4.403406e-07
83	0x375a263e	1.30027165e-05
84	0x33ae0a60	8.1043936e-08
85	0x371139a6	8.656096e-06
86	0x3748342c	1.1933076e-05
87	0x367535f0	3.653924e-06
88	0xb5e17753	-1.6798534e-06
89	0x35e72845	1.7222561e-06
90	0x362c8986	2.5710046e-06
91	0xb738764c	-1.0994798e-05
92	0x3741c61f	1.1549825e-05
93	0x37084a05	8.123466e-06
94	0xb5ce7144	-1.5381161e-06
95	0xb68f2034	-4.265481e-06
96	0x34f03b58	4.4746662e-07
97	0xb7033778	-7.821123e-06
98	0xb59059a8	-1.075493e-06
99	0x3503fa68	4.916569e-07
100	0xb740f3d5	-1.1500863e-05
101	0x37b8bf1b	2.20235e-05
102	0xb6a34de7	-4.8668476e-06
103	0xb74d4523	-1.2235049e-05
104	0x35ed4d00	1.7680286e-06
105	0xb4cbdca8	-3.7972245e-07
106	0x368c14c3	4.174742e-06
107	0x37113275	8.654421e-06
108	0xb4c18d92	-3.6052057e-07
109	0xb4d7c73d	-4.0191836e-07
110	0xb68aebf9	-4.1401913e-06
111	0x3492dec0	2.735669e-07
112	0x3759f3e8	1.2990997e-05
113	0xb78a1a2b	-1.6463067e-05
114	0xb6895230	-4.092486e-06
115	0x348ddaf0	2.6422595e-07
116	0xb6b4b167	-5.3850704e-06
117	0x35e5e687	1.7128922e-06
118	0x3579d52e	9.3069946e-07
119	0xb6b64824	-5.432421e-06
120	0xb710a2f8	-8.621013e-06
121	0xb710d9ad	-8.63375e-06
122	0xb6cbcc3c	-6.0736475e-06
123	0x36b58c7f	5.4105763e-06
124	0xb78fe80c	-1.7154984e-05
125	0x361abccc	2.3057682e-06
126	0x36be7690	5.6762437e-06
127	0x373f6886	1.1408823e-05
128	0xb5698dbf	-8.700553e-07
129	0x34a594c6	3.0841892e-07
130	0x363caf54	2.8116237e-06
131	0xb72d93b5	-1.0345994e-05
132	0xb5590c2b	-8.0856506e-07
133	0x36cbf710	6.0786333e-06
134	0xb6dcf010	-6.584458e-06
135	0xb7406b71	-1.1469107e-05
136	0x36d81e01	6.4407946e-06
137	0xb575f6a6	-9.1628533e-07
138	0x37c49ba6	2.34375e-05
139	0x361c6146	2.3302432e-06
140	0x34702292	2.2364318e-07
141	0x35e1eae8	1.6832173e-06
142	0x3704e7ba	7.921766e-06
143	0x333897f2	4.2979032e-08
144	0xb4f957ce	-4.644375e-07
145	0xb56377c2	-8.473836e-07
146	0xb51f5581	-5.935654e-07
147	0x369e3582	4.714996e-06
148	0xb69ee315	-4.7352028e-06
149	0xb60b5ea2	-2.0767698e-06
150	0x3695b37e	4.4614417e-06
151	0xb3159a58	-3.483214e-08
152	0x3683e58c	3.930827e-06
153	0x36155670	2.2253043e-06
154	0xb743ca57	-1.1670017e-05
155	0xb4fad63e	-4.672201e-07
156	0x34b7cafa	3.423409e-07
157	0xb2375910	-1.0672252e-08
158	0xb7cfd91a	-2.4777419e-05
159	0xb5c078ba	-1.4340251e-06
160	0x34ef2a66	4.4548068e-07
161	0x375ac3d4	1.3039407e-05
162	0xb6be474f	-5.6707427e-06
163	0xb53b9356	-6.987733e-07
164	0xb4e9c148	-4.3540263e-07
165	0xb74cc057	-1.220413e-05
166	0x361854cc	2.2699123e-06
167	0x343092b6	1.644465e-07
168	0xb7707ea2	-1.4334599e-05
169	0xb665dc3c	-3.4251852e-06
170	0x36310323	2.637688e-06
171	0x35bd652a	1.411104e-06
172	0xb606cbea	-2.008625e-06
173	0xb52b4638	-6.3804646e-07
174	0x377ba1f7	1.4998476e-05
175	0xb5e8811b	-1.7322922e-06
176	0x33b2eb64	8.331588e-08
177	0x36270e58	2.4893288e-06
178	0xb7211d5e	-9.603185e-06
179	0xb450ea1d	-1.945668e-07
180	0xb580d862	-9.599719e-07
181	0xb6dcbd7a	-6.578569e-06
182	0xb5691275	-8.682612e-07
183	0xb5de1701	-1.6546984e-06
184	0xb61a9252	-2.3032958e-06
185	0xb6249215	-2.4522935e-06
186	0x329f0158	1.8510647e-08
187	0xb79dd385	-1.8814355e-05
188	0x37aef6b4	2.0857296e-05
189	0xb620b5cc	-2.3947678e-06
190	0xb63c7694	-2.8083205e-06
191	0xb58716e6	-1.0064948e-06
192	0x35f6e27e	1.8394346e-06
193	0x373933fe	1.1038965e-05
194	0x371bf879	9.296572e-06
195	0x36272ef5	2.4912272e-06
196	0x34b6c40c	3.4042785e-07
197	0x36274e03	2.4930348e-06
198	0xb1b283cd	-5.195466e-09
199	0xb4b25ace	-3.3221153e-07
200	0xb71ba7a3	-9.277751e-06
201	0xb523b4eb	-6.09855e-07
202	0x36193100	2.2827298e-06
203	0xb60162ae	-1.9279937e-06
204	0x37a8c03e	2.011668e-05
205	0x360bf88c	2.0857287e-06
206	0xb3ea1c40	-1.0901613e-07
207	0xb7f41a43	-2.9099296e-05
208	0xb588700f	-1.0165403e-06
209	0x36a6e736	4.974102e-06
210	0xb68571ed	-3.9769716e-06
211	0x368c023d	4.1725857e-06
212	0x3702a2c3	7.7865e-06
213	0x363917ee	2.7581077e-06
214	0x36c441a4	5.8488968e-06
215	0x36ef1e3a	7.126274e-06
216	0xb6892a43	-4.087838e-06
217	0xb780f4fa	-1.5372865e-05
218	0xb71113cd	-8.647284e-06
219	0xb6cfe35c	-6.195549e-06
220	0x37051129	7.931413e-06
221	0xb5be5e02	-1.4183463e-06
222	0xb7920481	-1.7406654e-05
223	0xb7063fb5	-8.001855e-06
224	0x3774b79f	1.4586286e-05
225	0xb6872ca5	-4.028511e-06
226	0xb6cc97a7	-6.0973284e-06
227	0x361c17ad	2.3259593e-06
228	0xb6b72738	-5.4583907e-06
229	0x37110529	8.643875e-06
230	0xb6cc445d	-6.0876323e-06
231	0xb639472b	-2.7608573e-06
232	0x36a64681	4.9553933e-06
233	0x373ef7b8	1.1382559e-05
234	0xb701d073	-7.7375325e-06
235	0x3589d4d0	1.0269232e-06
236	0xb506e542	-5.0252504e-07
237	0xb666b987	-3.4380662e-06
238	0x35d11d40	1.5580226e-06
239	0xb47c1ea8	-2.3480482e-07
240	0xb6a2f551	-4.856535e-06
241	0xb684d802	-3.959053e-06
242	0x36cec7d4	6.1625415e-06
243	0xb5144624	-5.5236364e-07
244	0xb7ccb630	-2.4403533e-05
245	0xb71f31df	-9.48875e-06
246	0x37264297	9.909875e-06
247	0xb74c3b74	-1.217319e-05
248	0x370e2854	8.473249e-06
249	0x3600320a	1.9102613e-06
250	0xb70b8123	-8.315113e-06
251	0xb5af2627	-1.304962e-06
252	0xb4c230ba	-3.617077e-07
253	0x378d7140	1.6861246e-05
254	0x36c838b0	5.9670638e-06
255	0xb66bb155	-3.512095e-06

state_input.bias f4 [128]
0	0xbcde20c9	-0.027115243
1	0xbdc845f8	-0.097789705
2	0x3bb11bca	0.005404924
3	0x3d381eaf	0.044951137
4	0xbd8b33e6	-0.06797008
5	0xbd8c7100	-0.068574905
6	0x3dbe372d	0.09287868
7	0x3d8dc023	0.06921413
8	0xbdf2a30e	-0.118475065
9	0x3d7042a9	0.058657322
10	0xbd1108d6	-0.035408817
11	0x3da0a190	0.078433156
12	0x3d0d55c0	0.034505606
13	0xbda47cd3	-0.08031621
14	0xbca55496	-0.020181935
15	0xbc53f785	-0.012937431
16	0xbd3c2160	-0.045930266
17	0x3d85c2bb	0.065312825
18	0x3d7288d2	0.059212513
19	0x3dd1e349	0.10248429
20	0xbd3eb566	-0.046559714
21	0x3bb4c0d1	0.0055161496
22	0xbd67dc80	-0.05660677
23	0x3d8c32c6	0.06845622
24	0x3cbe1980	0.023205519
25	0xbd658bb1	-0.056041423
26	0x3d3094f6	0.04311081
27	0xbd366553	-0.044530224
28	0x3dcad0f6	0.099031374
29	0xbda6de79	-0.08147902
30	0xbd8f33df	-0.069923155
31	0x3d02b9e5	0.031915564
32	0x3d9bb1bf	0.07602262
33	0xbdab2343	-0.08356335
34	0x3c26004a	0.010131905
35	0xbceabd5b	-0.028654745
36	0x3dd5c548	0.10438019
37	0x3d1b8909	0.037972484
38	0x3d44d865	0.048057932
39	0x3d9bc8ef	0.076066844
40	0xbbce9770	-0.006304674
41	0x3d620488	0.055180103
42	0x3ce40d32	0.027838323
43	0xbd204daa	-0.039136566
44	0x3cb92c0f	0.022604017
45	0x3d17ad25	0.037030358
46	0x3b49784f	0.0030741876
47	0xbda0e29b	-0.078557216
48	0x3dd7c20c	0.105350584
49	0x3d87e787	0.06635957
50	0xbdbc6480	-0.09198856
51	0xbb9bb28a	-0.004751508
52	0x3dd7adff	0.10531234
53	0x3d40673f	0.046973463
54	0xbdb89a5b	-0.09013816
55	0x3d9a8da4	0.07546547
56	0xbda784ba	-0.081796125
57	0xbcd42541	-0.02589667
58	0x3d08414c	0.033265397
59	0x3d03c3d0	0.032169163
60	0xbd36f2c9	-0.04466513
61	0xbd65dd52	-0.05611927
62	0xbdc4f876	-0.09617703
63	0x3d7efeb2	0.062254615
64	0x3db545f0	0.0885123
65	0x3ca41cb7	0.020033224
66	0xbd52d50d	-0.051472712
67	0xbcecc19f	-0.02890092
68	0x3d99cd2c	0.075098366
69	0xbdb9ca0d	-0.09071741
70	0x3db1f57c	0.086894006
71	0x3da7cee4	0.08193758
72	0x3c1d5fcb	0.009605358
73	0xbda13bfa	-0.07872768
74	0xbcbd328d	-0.023095394
75	0x3cdaf1d1	0.026726635
76	0xbc6d29aa	-0.0144752655
77	0x3c133cb6	0.008986643
78	0x3d90ff12	0.07079901
79	0x3d84a474	0.064766794
80	0xbd2da25c	-0.042391166
81	0x3d84fa30	0.06493032
82	0xbccff0b6	-0.025383335
83	0xbd5cbb70	-0.05388969
84	0xbd0c30ea	-0.034226336
85	0xbbb36814	-0.0054750536
86	0x3d68e481	0.056858543
87	0xbd6705fa	-0.056402184
88	0x3c60b76a	0.013715604
89	0xbda0dee8	-0.07855016
90	0xbda39538	-0.079874456
91	0xbccd7bee	-0.025083508
92	0x3d45fa7c	0.048334584
93	0x3c6f6b8c	0.0146130435
94	0xbd3963f9	-0.045261357
95	0xbcee5b67	-0.029096318
96	0xbc39f2f9	-0.011349433
97	0x3d45558e	0.048177294
98	0xbd4431d2	-0.047899075
99	0x3cf85c5d	0.03031748
100	0x3d9d6aa3	0.07686355
101	0xbd64fba9	-0.055904064
102	0xbd1ccb6c	-0.038279936
103	0xbd991d08	-0.074762404
104	0xbb411111	-0.0029459635
105	0x3ccc7e09	0.024962442
106	0xbdb67b61	-0.089102514
107	0xbd163cb9	-0.036679003
108	0xbb22c998	-0.0024839398
109	0xbc012b44	-0.0078838505
110	0xbd49b4a0	-0.049244523
111	0x3d25e5c5	0.04050233
112	0xbdc8279a	-0.097731784
113	0xbd280b47	-0.04102638
114	0xbdc75f24	-0.097349435
115	0x3d9cc649	0.076550074
116	0xbd2c60c9	-0.04208449
117	0xbc2ee4f8	-0.010674708
118	0xbd6daf79	-0.058028672
119	0x3d4e762d	0.05040567
120	0x3ccb515d	0.02481907
121	0xbd27bea7	-0.040953305
122	0xbd09295f	-0.03348672
123	0xbddb9aab	-0.1072286
124	0xbd72d046	-0.059280656
125	0x3d9da7bc	0.076980084
126	0xbca4e3f0	-0.02012822
127	0x3d8ae7fe	0.0678253

action_input.weight f4 [128, 33]
0	0xbc499e3b	-0.0123057915
1	0x3cb0f6bc	0.021602027
2	0x3c84bfd6	0.016204756
3	0xbb0ca47b	-0.0021460343
4	0x3c647c47	0.013945646
5	0x39f770b4	0.00047195482
6	0x3c9d51f6	0.019204121
7	0x3bb55ae8	0.0055345185
8	0xbcaa7598	-0.020808026
9	0x3c823133	0.0158926
10	0xbc62ffc0	-0.013854921
11	0x3b90da48	0.0044205524
12	0xbc297ee7	-0.010345197
13	0xbc220c81	-0.0098906765
14	0xbbf18650	-0.0073707476
15	0x3cafb662	0.021449272
16	0xbc5ef57d	-0.013608334
17	0x3c6bafa5	0.014385139
18	0xbc15a5c1	-0.009133757
19	0x3a08ace6	0.0005213752
20	0x3b25be8e	0.0025290581
21	0xb815bd70	-3.5700796e-05
22	0x3c6ed1da	0.0145764
23	0x3c17d75e	0.009267656
24	0x3c26494b	0.01014931
25	0x3c2a99ab	0.010412614
26	0x3b4e9ace	0.0031525376
27	0x3b000771	0.0019535685
28	0x3c69bab4	0.014265705
29	0x3cbbb835	0.022914985
30	0x3bdacd8b	0.0066773347
31	0xbbbdf229	-0.00579669
32	0xbc24b5f5	-0.010053148
33	0x3cf78ff3	0.030220008
34	0xbbf1f042	-0.0073833773
35	0x3cb06281	0.021531345
36	0x3ce5148d	0.027963901
37	0xbb062ac8	-0.0020472277
38	0x3cb514fe	0.022104736
39	0xbc2ef008	-0.010677345
40	0xbca7f3fa	-0.02050208
41	0xbbfd5ffb	-0.007732389
42	0xbb72b3f5	-0.0037033532
43	0x3cefd588	0.029276624
44	0xbc751ed0	-0.01496096
45	0xbd565e6d	-0.052336145
46	0x3c65abec	0.01401804
47	0x3b8a1f8e	0.0042151874
48	0xbd3e8dcd	-0.04652195
49	0x3b890042	0.004180939
50	0xbcc9be97	-0.024627013
51	0xbc197ce1	-0.009368152
52	0xbc87d3dc	-0.016580515
53	0x3bca1f69	0.006168295
54	0xbaf3a296	-0.0018587883
55	0x3c0108a4	0.007875595
56	0x3b4ae054	0.0030956464
57	0xbb8cb2f5	-0.0042937943
58	0xbbfcb0dc	-0.007711513
59	0x3c663da2	0.01405278
60	0x3c9a0af9	0.01880406
61	0x3c90980f	0.017650632
62	0x3c437184	0.01192892
63	0x3bbd0d50	0.0057694092
64	0x3cb16a2d	0.021657074
65	0x3c8aabb6	0.016927581
66	0xbca71f16	-0.020400565
67	0xbbf862bd	-0.00758013
68	0x3c27c7ff	0.010240554
69	0xbc0ad580	-0.008473754
70	0xbc531f72	-0.012885915
71	0xbd2231b1	-0.03959817
72	0xbc58dca6	-0.0132362
73	0xbd17df04	-0.03707792
74	0xbc981b46	-0.018567692
75	0xbbf00756	-0.0073250933
76	0x3ce3ac88	0.02779223
77	0xbcca029a	-0.024659444
78	0xbd20e97d	-0.03928517
79	0x3cad7594	0.02117423
80	0xbc476be0	-0.0121717155
81	0xbcf070ed	-0.029350722
82	0xbc25610c	-0.010093939
83	0x3a071367	0.00051527325
84	0xbce00e66	-0.027350616
85	0xbd2141f7	-0.03936955
86	0xbb339960	-0.002740465
87	0xbc8b02ed	-0.016969169
88	0x3d251d96	0.04031142
89	0xbd0be201	-0.03415108
90	0x3ba8f7de	0.005156501
91	0xbc293873	-0.0103284
92	0x3be90c60	0.007112071
93	0xbb6d6f52	-0.0036229682
94	0xbbc8d866	-0.0061293123
95	0x3c9957c3	0.018718606
96	0xbbf38e69	-0.007432748
97	0x3bc07b72	0.005874091
98	0x3c1ca8eb	0.009561758
99	0x3cd12bc1	0.025533559
100	0x3c13af80	0.00901401
101	0x3b072098	0.0020618793
102	0x3c554564	0.013017032
103	0x3cafceda	0.02146094
104	0x3cb14b25	0.021642277
105	0x3babdcba	0.0052448185
106	0x3cbc414e	0.022980358
107	0x3d167fcd	0.036742974
108	0x3c00a775	0.007852425
109	0xbc924510	-0.017855197
110	0xbc5a4823	-0.013322863
111	0x3d099da6	0.03359761
112	0xbcc119d6	-0.02357189
113	0x3caa0691	0.020755084
114	0xba2d5416	-0.0006611956
115	0x3bfb7c3d	0.0076747225
116	0x3c1e5d17	0.009665749
117	0x3ce41458	0.027841732
118	0x3cb3e32e	0.021958914
119	0xbb743970	-0.003726568
120	0xbcb64fb0	-0.022254795
121	0xbcfdd877	-0.030987008
122	0x3ceef003	0.02916718
123	0x3ce86dbf	0.028372644
124	0x3c8b051b	0.016970208
125	0xbc954c69	-0.018224912
126	0x3cd0be29	0.0254813
127	0x3bff651f	0.007794037
128	0xbc914723	-0.017734116
129	0x3ccd7e39	0.025084602
130	0x3bb01905	0.0053740763
131	0xbc4e184e	-0.012579037
132	0xbc306d97	-0.010768316
133	0xbc9bbbca	-0.019010443
134	0x3c964cde	0.0183472
135	0x3c0e4e2d	0.008685631
136	0xbc0d0945	-0.008608167
137	0xbcb88e41	-0.02252877
138	0x3a8b7526	0.0010639771
139	0xbb36faab	-0.0027920406
140	0xbc7ec776	-0.015550485
141	0xb8cdb56c	-9.808954e-05
142	0x3cdd9fe2	0.027053777
143	0x3bbebbcc	0.005820727
144	0xbd0bd6ef	-0.034140524
145	0x3cfe49b5	0.031041006
146	0xbc241da8	-0.010016836
147	0xbc3836e5	-0.011243557
148	0xbd0228ca	-0.03177718
149	0xbce84317	-0.028352303
150	0xba899d84	-0.0010499214
151	0xbcf37c22	-0.029722277
152	0xbcaf5ca4	-0.02140648
153	0x3b8b646e	0.0042539155
154	0x3d0e8b25	0.034800667
155	0xbbf640d9	-0.0075150547
156	0xbbe8236c	-0.0070843007
157	0xbcc037f7	-0.023464186
158	0x3c888c8b	0.016668579
159	0x3bd209ff	0.006409883
160	0xbbe3d492	-0.0069528306
161	0xbb1fe34b	-0.0024396952
162	0xbc7edbc6	-0.015555328
163	0xbc3d69e6	-0.011560893
164	0x3ce3fd5b	0.02783077
165	0x3c402b58	0.011729084
166	0x3cb0d5a5	0.021586249
167	0x3a338800	0.00068485737
168	0x3adfb765	0.0017068206
169	0x3cd97abe	0.026547786
170	0x3cac7476	0.021051627
171	0x3bc0aaf2	0.0058797533
172	0x3ce49d1b	0.027906945
173	0x3cfd43e4	0.030916162
174	0x3c31a4a0	0.010842472
175	0xbc37cdda	-0.011218512
176	0x3c420c13	0.011843699
177	0x3be05e49	0.006847177
178	0x3b89c618	0.004204523
179	0x3c879285	0.016549358
180	0x3c43428c	0.0119177215
181	0x3c564e87	0.013080246
182	0xb9f35566	-0.000464122
183	0x3d15c4d4	0.036564663
184	0x3cd29d06	0.02570964
185	0x3d057a7f	0.032587525
186	0xbb0f2aae	-0.0021845507
187	0xbd2cf810	-0.04222876
188	0x3cca43b3	0.024690485
189	0xbbb7f284	-0.005613627
190	0x3ceaf8e8	0.02868314
191	0x3a6ac3d7	0.0008955574
192	0xba44f673	-0.00075135304
193	0x3bccadc3	0.0062463
194	0xbc2d0cd2	-0.010562139
195	0x3d13d0b7	0.036087718
196	0xbb9c8368	-0.004776407
197	0xbbdbd98a	-0.0067092823
198	0x3d1f8cd2	0.038952656
199	0x3d59d772	0.05318398
200	0x3c4bcd0e	0.012439026
201	0x3ccbf04d	0.024894858
202	0x3c92464c	0.017855786
203	0x3d1230af	0.03569096
204	0x3becaa77	0.0072224694
205	0xbc5a6f42	-0.01333219
206	0xbcce32b8	-0.025170669
207	0x3b5ab5c4	0.00333725
208	0x3c062b7e	0.00818908
209	0xbc772cde	-0.015086381
210	0xbd213029	-0.03935257
211	0x3be6e532	0.007046365
212	0x3ccaaea2	0.024741475
213	0xbb8447ac	-0.0040368643
214	0x3ca42b51	0.020040186
215	0xba8812ad	-0.0010381542
216	0x3bd2ca55	0.0064328113
217	0x3c4216d4	0.011846263
218	0x3d110edf	0.035414573
219	0x3c564d45	0.013079946
220	0xbb5b1cfb	-0.0033434022
221	0xbc71ccd9	-0.014758312
222	0x3d0024d2	0.031285115
223	0xb8888c88	-6.511161e-05
224	0xbca0dd27	-0.019636704
225	0x3ae904de	0.001777794
226	0xbc9e39a4	-0.019314595
227	0x3c07374d	0.008252931
228	0x3be7bd69	0.00707214
229	0x3bfa47b0	0.0076379403
230	0xbab73391	-0.001397716
231	0x3c96db6d	0.018415177
232	0x3c9cc6fb	0.01913785
233	0xbc2a177c	-0.010381576
234	0x3cc104e0	0.023561895
235	0x3cb935dd	0.022608692
236	0x3d256014	0.04037483
237	0x3c6a4187	0.0142978495
238	0x3cd88ff3	0.026435828
239	0x3ca00ecc	0.019538306
240	0x3ccd2b81	0.025045158
241	0xbbdc9043	-0.0067310645
242	0x3c35f749	0.011106321
243	0xbc08f7f6	-0.0083599
244	0xbb1c342d	-0.002383481
245	0x3c058d14	0.008151311
246	0x3cc16b07	0.023610605
247	0x3d4ab02f	0.049484428
248	0x3c1b4a3f	0.009478151
249	0x3cc729b5	0.02431188
250	0x3ceb3178	0.028710112
251	0x3ce9d6a1	0.028544726
252	0x3c83fc98	0.016111657
253	0xbd47dec6	-0.048796438
254	0x3d138b4f	0.036021527
255	0x3c2f9ce7	0.010718561

action_input.bias f4 [128]
0	0x3d3382ce	0.043825917
1	0xbd8c3dfd	-0.06847761
2	0x3d2cf3f5	0.042224843
3	0xbd3250a2	-0.04353393
4	0xbdb243b0	-0.087043166
5	0xbd66beab	-0.05633418
6	0xbcad86d8	-0.021182463
7	0xbd410d86	-0.047132038
8	0xbd8760a2	-0.06610228
9	0x3da120b6	0.07867567
10	0x3dbb647a	0.09150024
11	0x3d840027	0.064453416
12	0x3c07a940	0.008280098
13	0xbd3d942c	-0.046283886
14	0x3d8734dd	0.0660188
15	0x3d7b6f18	0.061385244
16	0x3c87a937	0.01656018
17	0xbc704d62	-0.014666887
18	0x3c28ef16	0.010310909
19	0x3d861a29	0.065479584
20	0x3c80472e	0.015658941
21	0x3da89dbf	0.08233213
22	0xbc8a7d6b	-0.016905507
23	0xbda0d0f0	-0.07852352
24	0xbd855843	-0.06510975
25	0x3d8dd75e	0.06925844
26	0xbd394051	-0.045227353
27	0xbdc4888a	-0.09596355
28	0xbd4c1454	-0.049824074
29	0xbd40f085	-0.047104377
30	0x3cc6fe33	0.024291134
31	0xbda4a67d	-0.080395676
32	0xbc9bb37c	-0.019006483
33	0x3dc402ee	0.09570871
34	0xba3e42f0	-0.0007257899
35	0x3d6d11ef	0.05787843
36	0x3c43889d	0.011934427
37	0x3da429ec	0.080158085
38	0xbd596da1	-0.053083066
39	0xbb8bd0d0	-0.0042668357
40	0xbd13533d	-0.035968054
41	0x3d76aeac	0.060225174
42	0x3dac277c	0.084059685
43	0xbc0fd624	-0.008779082
44	0xbda29fca	-0.079406336
45	0xbc6a4f52	-0.014301138
46	0xbd2dac75	-0.042400796
47	0xbce84eff	-0.02835798
48	0x3dc52798	0.096266925
49	0xbd07e492	-0.033176966
50	0xbd43ab3c	-0.047770724
51	0x3caccf6b	0.021094998
52	0x3d811a02	0.06303789
53	0x3da4a1a8	0.08038646
54	0x3d2e5fb1	0.042571727
55	0xbdb7a558	-0.08967084
56	0x3db7be57	0.08971851
57	0x3da1ea05	0.07905964
58	0x3c819c7d	0.01582169
59	0x3c90a418	0.017656371
60	0xbd1337be	-0.03594183
61	0xbcea857e	-0.028628107
62	0x393ba213	0.00017894087
63	0x3d977107	0.07394605
64	0xbccdeefb	-0.025138369
65	0x3d8a9de2	0.06768395
66	0xbd7b8c4e	-0.0614131
67	0x3dbdd95d	0.092699744
68	0x3d62ace2	0.055340655
69	0xbbad6f6d	-0.005292824
70	0xba9955d2	-0.001169855
71	0x3cc007c9	0.023441212
72	0x3dcbbf1c	0.099485606
73	0xbd76a728	-0.060218006
74	0xbdaba99d	-0.083819605
75	0xbd55b9e6	-0.05217924
76	0xbcb8ceef	-0.022559611
77	0x3c4464bf	0.01198691
78	0x3d5ae521	0.05344117
79	0xbd09690a	-0.03354744
80	0x3d604471	0.05475277
81	0xbd1ce0a5	-0.038300175
82	0x3d66533d	0.056231726
83	0xbd95e402	-0.0731888
84	0x3d4a9e36	0.049467288
85	0x3d132a71	0.035929147
86	0xbdb09d0b	-0.086237036
87	0x3d90da1e	0.070728526
88	0xbd905501	-0.07047463
89	0xbb88b1ea	-0.0041715996
90	0xbdaca7f0	-0.08430469
91	0x3db31942	0.08745052
92	0x3d07f072	0.03318829
93	0xbdc701fa	-0.09717174
94	0x3d5f87ac	0.054572746
95	0x3d6737a0	0.056449533
96	0x3dc1082e	0.09425388
97	0xbd88dee8	-0.06683141
98	0x3d84d1a2	0.06485297
99	0x3d538e03	0.051649105
100	0xbc076002	-0.008262636
101	0x3d874666	0.06605224
102	0xbd6d4ff1	-0.057937566
103	0x3dc58b02	0.09645654
104	0xbc35cdc0	-0.011096418
105	0xbd498195	-0.049195845
106	0x3daad4f5	0.083413996
107	0x3b1e936d	0.002419676
108	0xbda3f4b9	-0.080056615
109	0xbd012a1f	-0.03153431
110	0xbd9259b8	-0.07146019
111	0xbc5ab4c4	-0.013348762
112	0xbd9bb17a	-0.0760221
113	0x3d97d1e3	0.074130796
114	0xbdddce30	-0.10830343
115	0xbc896585	-0.016772041
116	0xbd2388d1	-0.0399254
117	0x3d4391a0	0.0477463
118	0x3d923ae1	0.071401365
119	0xbc9aecad	-0.018911684
120	0x3bfbbe9a	0.0076826336
121	0xbc8ff21f	-0.017571507
122	0xbd9ecab8	-0.07753509
123	0x3d8c572f	0.068525665
124	0x3ccadff6	0.024764996
125	0x3d961a36	0.07329218
126	0x3d289879	0.041161034
127	0xbd063ebd	-0.032774676

layers.0.weight f4 [256, 256]
0	0x3cb677ca	0.022273917
1	0xbbef1f28	-0.0072974153
2	0xbc81dcd9	-0.015852379
3	0xba21e983	-0.00061764586
4	0x3c907877	0.017635567
5	0xbc69aad6	-0.014261922
6	0x3c00f580	0.007871032
7	0xbcb7af88	-0.022422567
8	0xbc416362	-0.01180348
9	0xbc80876d	-0.015689576
10	0xbba3221f	-0.004978433
11	0xba0f6eac	-0.00054715085
12	0xbd13a1e1	-0.03604305
13	0x3cab97c8	0.020946398
14	0x3c804e86	0.015662443
15	0xbaa28b89	-0.0012401204
16	0xbc3938d8	-0.0113050565
17	0x3c1700b9	0.009216481
18	0xbd41f32c	-0.047351047
19	0xbcadb35c	-0.02120369
20	0x3cfa3643	0.030543452
21	0x3bee4d91	0.00727243
22	0x3bb6338e	0.005560345
23	0xbbe0bcc2	-0.006858439
24	0xbbc81695	-0.0061062076
25	0x3b58a7ea	0.003305907
26	0xbb10e3c2	-0.002210841
27	0x3c626113	0.01381709
28	0xbbbfa93a	-0.005849031
29	0x3d1c6dd7	0.03819069
30	0xbc95b234	-0.01827345
31	0xbc85f42c	-0.016351782
32	0xbcb1d0a3	-0.021705931
33	0x3ba5d382	0.005060614
34	0xbc04970e	-0.008092655
35	0x3b82f4ed	0.0039964826
36	0xbb3ab722	-0.0028490503
37	0xbc06d642	-0.008229794
38	0xbc2040f4	-0.009781111
39	0xbb2f7232	-0.0026770947
40	0x3d3f2dd6	0.046674572
41	0xbd2dc874	-0.042427495
42	0xbd17d33c	-0.037066683
43	0x3bc0d06e	0.0058842218
44	0x39c8b92e	0.00038284942
45	0x3cb36b5c	0.021901779
46	0xbc96195c	-0.01832264
47	0x3be501f3	0.0069887578
48	0xbc92eabf	-0.017934201
49	0x3bc05d6e	0.0058705127
50	0xbc029e87	-0.007972366
51	0x3c6436fe	0.013929127
52	0xbc0a9e37	-0.008460573
53	0x3c75b485	0.0149966525
54	0x3c452b6a	0.0120342765
55	0xbba4086c	-0.005005887
56	0xbc5e9607	-0.013585574
57	0xbb8b025e	-0.0042422256
58	0xbd2e349e	-0.04253065
59	0x3a028c48	0.000498001
60	0xbc28ebe0	-0.010310143
61	0xbb4249db	-0.0029646072
62	0x3bf22e59	0.007390779
63	0xbc2fcb48	-0.010729618
64	0xbcaf3725	-0.0213886
65	0xbb90da88	-0.004420582
66	0x3c8a0f86	0.016853105
67	0x3cdf5936	0.027264219
68	0xbc9a5ad3	-0.018842136
69	0x3bbb4704	0.005715253
70	0x3c63feec	0.013915759
71	0xbcfec065	-0.0310976
72	0x3aeb036f	0.00179301
73	0x3c8a2b35	0.016866306
74	0x3cd51082	0.026008848
75	0xbd08805d	-0.03332554
76	0x3c5abb5d	0.013350335
77	0xbc16ddb3	-0.009208131
78	0x3a0236c4	0.0004967267
79	0xbc173c9f	-0.009230762
80	0x3cb12c13	0.021627462
81	0xbbbdd096	-0.0057926876
82	0xbbe3eeb0	-0.006955944
83	0x3ccd6608	0.025073066
84	0x3ca5bd2c	0.020231806
85	0xbd188320	-0.037234426
86	0xbb5fd25e	-0.0034152488
87	0xbc1c5931	-0.009542749
88	0xbbf4997c	-0.007464586
89	0x3b702dde	0.0036648433
90	0x39bc3910	0.0003590067
91	0x3c3e217b	0.011604662
92	0xbc7239a9	-0.014784255
93	0xbc111ba5	-0.008856689
94	0x3ce047be	0.02737796
95	0x3d35314d	0.04423647
96	0x3c1bea3d	0.009516296
97	0xbcde2325	-0.027116368
98	0x3b279329	0.0025569892
99	0xbc716f20	-0.014735967
100	0x3b3ade48	0.0028513838
101	0x3d585bec	0.05282204
102	0x3c647716	0.013944408
103	0x3bacde0e	0.0052754944
104	0x3b2a9374	0.002602783
105	0xbce78e6c	-0.028266154
106	0x3ac75ba6	0.0015209808
107	0x3c53fe9b	0.012939121
108	0xbcc6ba17	-0.024258656
109	0x3cf9c6c5	0.030490289
110	0x38e9230a	0.00011116832
111	0xbcc70c08	-0.02429773
112	0x3c4b9069	0.012424567
113	0x3c0dcebb	0.008655245
114	0x3ca743e3	0.020418113
115	0x3ccd2323	0.025041169
116	0x3bb48987	0.0055095586
117	0x3c51e3d3	0.012810665
118	0x3c8bc5b6	0.01706205
119	0xbbcabb3e	-0.006186872
120	0x3ccb5420	0.024820387
121	0x3c401fd2	0.011726337
122	0xbc81ae9f	-0.015830336
123	0x3cd164dd	0.02556079
124	0x3c9a5185	0.0188377
125	0xbb982af7	-0.0046437937
126	0x3c8b874c	0.017032288
127	0xbcceda22	-0.025250498
128	0x3bebc8dc	0.007195575
129	0x3d0b688a	0.034035243
130	0x3c0178fb	0.007902379
131	0x3c47ef4c	0.012203049
132	0x3af9133c	0.0019002925
133	0xbc293598	-0.010327719
134	0x3c877045	0.016533026
135	0xbc116084	-0.008873109
136	0x3ca7ae3a	0.02046882
137	0xbc050d8e	-0.0081209075
138	0xbb4cd352	-0.0031253886
139	0xbcfd7e4e	-0.030944016
140	0xbaec7124	-0.001803909
141	0x3cd466d0	0.025927931
142	0xba2b42d2	-0.00065330893
143	0x3c08758d	0.008328808
144	0x3ce71983	0.028210407
145	0xbb66c7fd	-0.0035214417
146	0x3c17c4f1	0.009263263
147	0x3ae0e629	0.0017158437
148	0xbc490116	-0.012268325
149	0x38843bd8	6.305397e-05
150	0xbc84663d	-0.016162032
151	0x3c6261b9	0.013817244
152	0x3c2a2cea	0.010386685
153	0xbc867abe	-0.01641595
154	0xbc1bd0bc	-0.009510215
155	0xbc1b3b17	-0.009474537
156	0xbc102d33	-0.008799839
157	0xbbbfb1c8	-0.0058500506
158	0x3c162060	0.009162992
159	0x3c857f2f	0.016295997
160	0x3bc3e286	0.0059779314
161	0xbcead0ef	-0.02866408
162	0xbd17b012	-0.037033148
163	0x3c254f3c	0.010089692
164	0xbb8ff22e	-0.0043928837
165	0xbcfeb109	-0.031090276
166	0xbc9da951	-0.019245775
167	0x3c95a79c	0.018268399
168	0x3cdcefa0	0.02696973
169	0xbd0af5ef	-0.033925947
170	0x3c45f515	0.012082358
171	0xb9a1463c	-0.00030760642
172	0xbbdba9fb	-0.006703613
173	0x3b9a5e4d	0.0047109486
174	0x3c8f033a	0.017457593
175	0xbc7a52f4	-0.015278567
176	0x3bd458e4	0.006480323
177	0xbbd3d7d9	-0.00646494
178	0xbcb72d83	-0.022360569
179	0x3ae56383	0.001750097
180	0x3c2da84b	0.010599206
181	0xbc0e40ea	-0.008682469
182	0xbbfe4f05	-0.0077608847
183	0xbcc8696a	-0.024464328
184	0xbcb4b4ac	-0.022058807
185	0xba16d29e	-0.00057534303
186	0xbcdcbb94	-0.026944913
187	0x3b15bba2	0.0022847434
188	0xbc2b4cda	-0.010455335
189	0xbbc7ff7b	-0.0061034537
190	0x3c1aaf29	0.0094411755
191	0x3c7d818b	0.01547278
192	0x3cbfeee3	0.02342934
193	0xbc0c901b	-0.008579279
194	0x3ca14193	0.019684589
195	0xbc7ce44d	-0.0154352905
196	0xbb8ea033	-0.0043525933
197	0xbc51cefb	-0.012805696
198	0xbc34c0e3	-0.011032316
199	0x3c314efc	0.010822054
200	0xbc8d275c	-0.017230682
201	0x3c1dab74	0.009623397
202	0xbbf97804	-0.007613184
203	0xbc0a3ecc	-0.0084378235
204	0xbc311136	-0.010807326
205	0xbb030832	-0.0019993898
206	0xbb42d89d	-0.0029731162
207	0x3b2ff1af	0.0026846936
208	0xbb8c0ace	-0.004273749
209	0xbb20ee2a	-0.002455602
210	0xbd3ec63e	-0.046575777
211	0x3cb1349c	0.021631531
212	0xbb068fb6	-0.0020532436
213	0x3c2c0aa0	0.01050058
214	0xbb8b478c	-0.0042504724
215	0xbcb1ad38	-0.021689042
216	0x3cb35c97	0.021894736
217	0x3c29ae1e	0.010356454
218	0xbc92c931	-0.017918201
219	0xbbd09150	-0.006364979
220	0xbc7f4fe6	-0.015583014
221	0x3d06738a	0.03282503
222	0x3c164587	0.00917185
223	0xbb515010	-0.003193859
224	0xbc45dd0b	-0.0120766265
225	0x3baaf3ec	0.005217066
226	0xbca1d7d6	-0.019756239
227	0x3c04af43	0.008098426
228	0xbbd5b7b2	-0.0065221423
229	0xbce7a57c	-0.028277151
230	0x3baccb64	0.0052732695
231	0x3c0f8f15	0.008762141
232	0x3c6ba8ad	0.014383477
233	0xbb0c9a9c	-0.002145446
234	0xbcf262f2	-0.029588196
235	0x3ca7e1ab	0.020493349
236	0x3c36a546	0.011147803
237	0x3b7ced16	0.0038593463
238	0x3c756c88	0.014979489
239	0x3c3213f5	0.010869016
240	0x3c71a3dc	0.01474854
241	0x3c9e29fe	0.019307133
242	0x3c43575c	0.011922684
243	0xbd02c672	-0.031927533
244	0x3c154c93	0.009112495
245	0xbc50f072	-0.012752639
246	0xbc09ef48	-0.0084188655
247	0xbb2898f2	-0.0025725928
248	0x3b3b4c32	0.0028579351
249	0x3bcdc546	0.0062796203
250	0xbbfbf9d1	-0.0076896925
251	0xbc9478b8	-0.01812397
252	0x3ca494a2	0.020090405
253	0xbc1fcde7	-0.009753681
254	0xbce647d6	-0.028110426
255	0x3c3a432e	0.011368556

layers.0.bias f4 [256]
0	0xbd8ab9f3	-0.06773748
1	0xbd1eebac	-0.038798973
2	0xbcf93da0	-0.030424893
3	0xbd0c83d0	-0.034305394
4	0xbc35d80b	-0.011098872
5	0x3d830ab9	0.063985296
6	0xbd8c6db0	-0.06856859
7	0x3cc651aa	0.024208862
8	0xba84072d	-0.0010072939
9	0x3d2fc648	0.042913705
10	0x3d614dcc	0.055005834
11	0x3b11b957	0.0022235715
12	0xbd8d4c52	-0.068993226
13	0x3d715d06	0.058926605
14	0xbdd244db	-0.102670394
15	0x3d3a65b7	0.04550716
16	0x3d549dc1	0.05190826
17	0x3d83af67	0.0642994
18	0xbdbefb80	-0.093253136
19	0x3ce76a2c	0.028248869
20	0x3dd80713	0.10548224
21	0xbdabc7f8	-0.083877504
22	0x3deb6bec	0.11495194
23	0x3dc9b034	0.09848061
24	0x3cb01eae	0.021499004
25	0x3a913278	0.0011077663
26	0xbd061489	-0.032734428
27	0xb98f6146	-0.0002734756
28	0xbde54a93	-0.111958645
29	0x3c973681	0.018458607
30	0x3db1b7ef	0.08677661
31	0x3ad953b3	0.001658073
32	0xbd361ed1	-0.044462983
33	0x3d8aea92	0.06783022
34	0x3dcb625b	0.09930869
35	0x3d299a3d	0.04140686
36	0xbc937f82	-0.018005136
37	0x3cda3ffc	0.026641838
38	0xbde1bcb9	-0.11022324
39	0xbdc24d4c	-0.094873995
40	0x3b2a669b	0.00260011
41	0xbd734862	-0.0593952
42	0x3bb54293	0.005531618
43	0xbd4f5312	-0.05061633
44	0x3d9a6044	0.075378925
45	0x3de186c2	0.11012031
46	0x3b59474a	0.0033154064
47	0xbcf58e05	-0.029974947
48	0xbd22f122	-0.039780743
49	0x3d5be823	0.05368818
50	0x3dc44b58	0.09584683
51	0x3d1cba12	0.038263388
52	0x3d4f2db0	0.05058068
53	0x3d303e62	0.043028243
54	0xbd8d5afc	-0.069021195
55	0xbd6dab5c	-0.05802475
56	0x3d0becb1	0.034161273
57	0x3d32e253	0.04367287
58	0xbda25d55	-0.07927958
59	0x3958c816	0.00020673903
60	0x3d5ec08b	0.054382842
61	0xbd2f3584	-0.042775646
62	0xbd1bd0fb	-0.038041096
63	0x3d66b70b	0.056326907
64	0x3d06e5b8	0.03293392
65	0x3d0262fc	0.03183268
66	0x3dc3c9f9	0.095600076
67	0x3d7de9ea	0.061990656
68	0x3d8415ab	0.06449445
69	0x3ddd9a3a	0.10820432
70	0x3b956c2d	0.0045600147
71	0xbb10ff4d	-0.0022124827
72	0x3d237c26	0.03991332
73	0xbced51e7	-0.028969718
74	0x3d2ffb81	0.042964462
75	0xbd3c3b55	-0.04595502
76	0xbd53817a	-0.05163715
77	0x3d6ae1d7	0.057344284
78	0xbd66d187	-0.056352165
79	0x3d360289	0.04443601
80	0x3d6c4651	0.057684246
81	0xbdeaed4b	-0.11471041
82	0x3d7ef63e	0.062246554
83	0x3d60adec	0.054853365
84	0xbcacd142	-0.021095876
85	0x3d738900	0.059456825
86	0x3dac3642	0.08408786
87	0xbd970512	-0.07374014
88	0x3de254ea	0.11051352
89	0xbd38035d	-0.044925082
90	0xbcfc738a	-0.030816812
91	0xbdb9d03d	-0.090729214
92	0xbd4b691e	-0.049660794
93	0xbd282681	-0.041052345
94	0x3d9f9538	0.07792133
95	0x3d99ab19	0.075033374
96	0x3d69f627	0.057119515
97	0xbd940dc7	-0.0722919
98	0xbd833bd5	-0.064078964
99	0x3da01ec3	0.07818367
100	0xbdab2dc9	-0.08358342
101	0xbd281ba1	-0.041041974
102	0xbd96cb6e	-0.0736302
103	0x3d30a7c9	0.043128762
104	0xbdc52f98	-0.096282184
105	0xbcccdfbb	-0.025009027
106	0x3d243fd4	0.040099934
107	0xbd56e1af	-0.052461322
108	0xbcddcf40	-0.027076364
109	0xbc877010	-0.016532928
110	0x3da9e9ff	0.08296584
111	0xbd9cb0e5	-0.076509275
112	0xbd963de1	-0.07336021
113	0xbd20cfc4	-0.03926064
114	0xbdab66e1	-0.08369232
115	0x3cfb1d56	0.030653637
116	0x3cb00769	0.021487908
117	0xbdc0e5d5	-0.09418837
118	0xbd27d065	-0.040970225
119	0x3dbab809	0.09117133
120	0xbc648456	-0.013947567
121	0xbd96bac8	-0.073598444
122	0x3b5064ea	0.003179843
123	0xba9e60c1	-0.0012083278
124	0x3d86dc37	0.065849714
125	0x3cd0a41f	0.025468884
126	0x3d878dcb	0.06618842
127	0xbcc48f41	-0.02399409
128	0xb98452cc	-0.0002523869
129	0xbd8fd418	-0.070228755
130	0xbd724969	-0.05915204
131	0x3d9dddb7	0.077083044
132	0x3c62be49	0.013839313
133	0xbcf6d967	-0.030132962
134	0xbd0f3ef9	-0.034972165
135	0xbdcd3843	-0.10020497
136	0xbd9d1a82	-0.076710716
137	0xbde5fce2	-0.11229874
138	0xbdc06504	-0.09394267
139	0xbced8f7f	-0.028999088
140	0xbd8ed69d	-0.06974528
141	0x3dd5c1f2	0.10437383
142	0xbd899209	-0.06717307
143	0xbdac62b1	-0.084172614
144	0xbd0e55dd	-0.034749854
145	0xbbef7640	-0.0073077977
146	0x3cd98924	0.026554652
147	0xbd8a7b28	-0.067617714
148	0x3d565bb8	0.052333564
149	0x3cb0d8bd	0.021587724
150	0xbd84d5cf	-0.06486093
151	0x3c9452b4	0.018105842
152	0x3d3d2875	0.04618116
153	0x3d76c602	0.06024743
154	0x3da16148	0.07879883
155	0xbcbc7cca	-0.023008723
156	0xbd433b64	-0.04766406
157	0x3dc79679	0.09745497
158	0xbccc9aa3	-0.02497608
159	0x39ed4d3a	0.000452617
160	0xbc855d0d	-0.016279722
161	0xbdc07eca	-0.09399183
162	0xbc908da6	-0.017645668
163	0x3de162fa	0.110052064
164	0x3d8b2ec2	0.06796028
165	0xbbd3a329	-0.006458659
166	0x3bba4e5e	0.0056856116
167	0xbd84b627	-0.06480055
168	0xbdbe05cb	-0.09278449
169	0xbd3e3c99	-0.04644451
170	0x3d6b71e1	0.05748165
171	0xbd487510	-0.048939764
172	0x3db1ef13	0.08688178
173	0xbdb900f2	-0.090333834
174	0xbd4286b4	-0.047491744
175	0xbbee1eb6	-0.0072668446
176	0x3d9f1242	0.07767154
177	0x3c9f39a6	0.019436669
178	0x3dbc9bdd	0.09209416
179	0xbdb3eff7	-0.08786004
180	0x3bd1c0f7	0.006401177
181	0xbdac29a0	-0.08406377
182	0xbd789a50	-0.06069404
183	0xbd495820	-0.04915631
184	0xbd8ea89d	-0.06965754
185	0x3df1168b	0.11771878
186	0xbdbc9905	-0.09208874
187	0x3dc47c08	0.095939696
188	0x3dcaca38	0.099018514
189	0xbd0d7553	-0.034535717
190	0xbd9cd2a3	-0.07657363
191	0xbd91569e	-0.07096599
192	0xbde643fb	-0.11243435
193	0xbc37bc22	-0.011214288
194	0x3c09bc9a	0.0084067825
195	0x3e04c110	0.12964272
196	0x3e003c0a	0.12522903
197	0xbd63373c	-0.055472597
198	0xbbf31b44	-0.007419022
199	0x3da3fda1	0.0800736
200	0x3d1320e0	0.035920024
201	0x3d30c724	0.043158665
202	0xbb932709	-0.0044907373
203	0xbcec3ed8	-0.02883856
204	0x3d79a7fd	0.06095122
205	0x3cea61cd	0.028611088
206	0xbd9e24f5	-0.07721893
207	0x3d28b22b	0.04118554
208	0x3da26bdd	0.079307295
209	0x3dfd9a62	0.12382962
210	0x3cede906	0.029041778
211	0x3c861fc6	0.016372573
212	0xbcc9e8b5	-0.024647096
213	0xbd7209bb	-0.05909131
214	0x3dcbcc11	0.09951032
215	0x395e2bd4	0.00021187897
216	0xbdd3c173	-0.10339632
217	0x3cadae9e	0.021201428
218	0xbdc76cd9	-0.09737558
219	0x3c283190	0.010265723
220	0x3d6cbd34	0.057797626
221	0x3d83f8e5	0.06443957
222	0x3d566ff4	0.05235286
223	0xbd9581f8	-0.0730018
224	0xbcebf894	-0.028805055
225	0xbdae1e32	-0.08501853
226	0xbdcc1069	-0.099640675
227	0xbd5811e7	-0.052751448
228	0xbb0164c0	-0.001974389
229	0xbd6e49c6	-0.058175825
230	0xbb7a8e7a	-0.0038231895
231	0xbd1659db	-0.036706787
232	0x3b0a6b3b	0.0021121043
233	0xbc8a5046	-0.01688398
234	0x3b63650a	0.0034697675
235	0xbd80cf88	-0.062895834
236	0xbcdd2804	-0.02699662
237	0x3de5fb1e	0.112295374
238	0x3de3dd45	0.11126188
239	0xbd64f0fe	-0.05589389
240	0x3d3620d4	0.0444649
241	0x3c7e993a	0.015539462
242	0x3cf4ded4	0.029891409
243	0xbc5cfe72	-0.013488399
244	0xbd04fcf8	-0.032467812
245	0x3cf1e870	0.02952978
246	0xbd0a80bd	-0.03381418
247	0x3da86d63	0.08223989
248	0xbda2f219	-0.07956333
249	0x3c07ffac	0.008300703
250	0xbc9fccd9	-0.019506859
251	0x3d17a10d	0.037018824
252	0x3cb58841	0.022159697
253	0xbd481757	-0.048850384
254	0x3d20dad8	0.039271206
255	0x3c2b2719	0.010446333

layers.3.weight f4 [256]
0	0x3f7dc61c	0.99130416
1	0x3f7ae091	0.9799891
2	0x3f7e6544	0.9937327
3	0x3f81a897	1.0129575
4	0x3f7578c5	0.95887405
5	0x3f7e043a	0.992252
6	0x3f801c65	1.0008665
7	0x3f80171f	1.0007056
8	0x3f7c6d67	0.98604435
9	0x3f7fde1e	0.999483
10	0x3f7d6313	0.989793
11	0x3f7b733d	0.98222715
12	0x3f820149	1.0156642
13	0x3f803df1	1.0018903
14	0x3f814bbf	1.0101241
15	0x3f83a59d	1.0284916
16	0x3f81ad47	1.0131005
17	0x3f8410fb	1.0317682
18	0x3f8111c9	1.0083553
19	0x3f7a7d9a	0.978479
20	0x3f7dd933	0.99159545
21	0x3f82794b	1.0193266
22	0x3f7bc6c8	0.9835019
23	0x3f7c0ba9	0.9845529
24	0x3f818924	1.0119977
25	0x3f8221a2	1.0166514
26	0x3f80f297	1.0074033
27	0x3f7a8854	0.9786427
28	0x3f802fe9	1.0014621
29	0x3f7e2e64	0.99289536
30	0x3f7bd168	0.98366404
31	0x3f73f741	0.95299155
32	0x3f7f5997	0.9974608
33	0x3f7f1d14	0.99653745
34	0x3f7c1110	0.98463535
35	0x3f7efbfb	0.9960324
36	0x3f812790	1.0090199
37	0x3f83faf9	1.0310966
38	0x3f81f9c6	1.015435
39	0x3f7910b1	0.97291094
40	0x3f846d6e	1.0345895
41	0x3f7e4374	0.99321675
42	0x3f7b9341	0.98271567
43	0x3f7cd20d	0.9875801
44	0x3f783b4b	0.96965474
45	0x3f783db0	0.9696913
46	0x3f7dcb21	0.99138075
47	0x3f7a45a5	0.9776252
48	0x3f8345eb	1.0255712
49	0x3f7d0a2d	0.9884365
50	0x3f7d624b	0.9897811
51	0x3f7e5040	0.993412
52	0x3f7a8207	0.97854656
53	0x3f7e1e4e	0.9926499
54	0x3f7ec165	0.99513847
55	0x3f823b4d	1.0174347
56	0x3f7bbb44	0.9833262
57	0x3f80da45	1.006661
58	0x3f80d01b	1.0063509
59	0x3f807b8a	1.0037701
60	0x3f798b61	0.974783
61	0x3f80e551	1.0069982
62	0x3f7b26ad	0.9810589
63	0x3f8256ad	1.0182701
64	0x3f79f5f1	0.976409
65	0x3f803b72	1.0018141
66	0x3f813713	1.0094932
67	0x3f7ff53b	0.99983567
68	0x3f803921	1.0017434
69	0x3f7b3406	0.98126256
70	0x3f7de79d	0.9918154
71	0x3f794dda	0.9738442
72	0x3f811835	1.0085512
73	0x3f81218b	1.0088362
74	0x3f7e7c52	0.9940845
75	0x3f80373e	1.0016859
76	0x3f7f32d5	0.9968694
77	0x3f7f2e91	0.9968043
78	0x3f80a293	1.0049614
79	0x3f819846	1.0124595
80	0x3f827566	1.0192077
81	0x3f81103c	1.0083079
82	0x3f818bef	1.0120829
83	0x3f78fad3	0.9725773
84	0x3f7f5b2d	0.997485
85	0x3f7b0b7d	0.98064405
86	0x3f7fde92	0.9994899
87	0x3f7edab5	0.9955247
88	0x3f7f62f7	0.99760383
89	0x3f7529d1	0.9576693
90	0x3f7fdbc5	0.99944717
91	0x3f7f3684	0.9969256
92	0x3f82c576	1.021651
93	0x3f781a2e	0.9691495
94	0x3f7c51dd	0.98562413
95	0x3f800abc	1.0003276
96	0x3f7eb02a	0.99487555
97	0x3f7961cf	0.9741487
98	0x3f7f4a7f	0.99723047
99	0x3f810b27	1.0081528
100	0x3f8282d6	1.0196178
101	0x3f821bed	1.0164772
102	0x3f7e36f7	0.9930262
103	0x3f80dc7e	1.0067289
104	0x3f7bc868	0.9835267
105	0x3f7f2ad2	0.99674714
106	0x3f811021	1.0083047
107	0x3f81b700	1.0133972
108	0x3f7d65d8	0.98983526
109	0x3f805c46	1.002816
110	0x3f7f6e87	0.99778026
111	0x3f7ea012	0.99463
112	0x3f84a91b	1.0364107
113	0x3f81097e	1.0081022
114	0x3f80cec0	1.0063095
115	0x3f7fbcdf	0.9989757
116	0x3f7ce94e	0.98793495
117	0x3f7b6c68	0.9821229
118	0x3f7d8b46	0.9904064
119	0x3f7a397f	0.9774398
120	0x3f7f835d	0.9980982
121	0x3f81c2b9	1.013755
122	0x3f80ed4e	1.007242
123	0x3f825c91	1.0184499
124	0x3f7d2be6	0.9889511
125	0x3f7bab95	0.9830869
126	0x3f819ddd	1.0126301
127	0x3f7d51c0	0.98952866
128	0x3f806d86	1.0033424
129	0x3f7e09b3	0.9923355
130	0x3f802dc3	1.0013965
131	0x3f79f05c	0.97632384
132	0x3f7ece32	0.9953338
133	0x3f7db94d	0.9911087
134	0x3f8046d1	1.0021611
135	0x3f7d2087	0.9887776
136	0x3f8099d9	1.004695
137	0x3f7cc0b0	0.9873152
138	0x3f811601	1.008484
139	0x3f785bee	0.97015274
140	0x3f78137f	0.9690475
141	0x3f7b2473	0.9810249
142	0x3f77c0ef	0.9677877
143	0x3f80f06f	1.0073375
144	0x3f7f1dca	0.9965483
145	0x3f800de5	1.000424
146	0x3f7bb17c	0.98317695
147	0x3f807c03	1.0037845
148	0x3f800430	1.0001278
149	0x3f80eb62	1.0071833
150	0x3f7a768e	0.9783715
151	0x3f849965	1.0359312
152	0x3f81c225	1.0137373
153	0x3f80d702	1.0065615
154	0x3f80a361	1.0049859
155	0x3f803af6	1.0017993
156	0x3f80f012	1.0073264
157	0x3f7fa959	0.9986778
158	0x3f8127ff	1.0090331
159	0x3f80d65b	1.0065416
160	0x3f819ead	1.0126549
161	0x3f83a2f3	1.0284103
162	0x3f806e07	1.0033578
163	0x3f7ec850	0.995244
164	0x3f7c7025	0.9860862
165	0x3f788371	0.97075564
166	0x3f7d17e4	0.9886458
167	0x3f77e100	0.968277
168	0x3f8098c2	1.0046618
169	0x3f808d97	1.004321
170	0x3f7e4af5	0.99333125
171	0x3f84ae01	1.0365602
172	0x3f7a2e61	0.9772702
173	0x3f8032a0	1.001545
174	0x3f793db1	0.9735976
175	0x3f809dbb	1.0048136
176	0x3f7924e7	0.97321934
177	0x3f7eb2d7	0.9949164
178	0x3f7cac51	0.98700434
179	0x3f7b6565	0.9820159
180	0x3f8044ba	1.0020974
181	0x3f7a6a03	0.9781801
182	0x3f7ef970	0.9959936
183	0x3f8075d2	1.0035956
184	0x3f7c7279	0.9861217
185	0x3f80f653	1.0075172
186	0x3f7e660f	0.9937448
187	0x3f7ea4a2	0.9946996
188	0x3f7d5109	0.98951775
189	0x3f795851	0.97400385
190	0x3f82aff5	1.0209948
191	0x3f7c346f	0.9851751
192	0x3f7bffa9	0.9843698
193	0x3f8258cd	1.018335
194	0x3f7d5976	0.9896463
195	0x3f7fc72a	0.99913275
196	0x3f801e7e	1.0009305
197	0x3f7cb663	0.987158
198	0x3f80d1fa	1.006408
199	0x3f7dbd45	0.9911693
200	0x3f7ffb87	0.99993175
201	0x3f7c04ae	0.9844464
202	0x3f7e0a9d	0.99234945
203	0x3f842593	1.0323967
204	0x3f7c10bf	0.9846305
205	0x3f77619a	0.96633303
206	0x3f80023c	1.0000682
207	0x3f800bed	1.000364
208	0x3f800d85	1.0004126
209	0x3f7cdede	0.9877757
210	0x3f7c1a4a	0.98477614
211	0x3f82b85b	1.0212511
212	0x3f8060ed	1.0029579
213	0x3f7a7c67	0.9784607
214	0x3f81d680	1.0143585
215	0x3f7e74a6	0.9939674
216	0x3f7eda09	0.99551445
217	0x3f8156be	1.0104597
218	0x3f80b98f	1.0056628
219	0x3f816b04	1.0110784
220	0x3f80eda7	1.0072526
221	0x3f83f32d	1.0308586
222	0x3f78355b	0.96956414
223	0x3f7a8413	0.9785778
224	0x3f7f7687	0.99790233
225	0x3f765371	0.9622107
226	0x3f7a79a1	0.9784184
227	0x3f811f5d	1.0087696
228	0x3f7cb533	0.9871399
229	0x3f779059	0.9670463
230	0x3f76f0af	0.96461004
231	0x3f806a16	1.0032375
232	0x3f799fc0	0.97509384
233	0x3f7b1cf1	0.98091036
234	0x3f80f66f	1.0075206
235	0x3f829e4d	1.020456
236	0x3f814eee	1.0102212
237	0x3f79d2cf	0.97587293
238	0x3f805b3e	1.0027845
239	0x3f828335	1.0196291
240	0x3f83775e	1.0270803
241	0x3f824ca6	1.0179641
242	0x3f7ef982	0.9959947
243	0x3f8005d6	1.0001781
244	0x3f7fbc42	0.99896634
245	0x3f740ece	0.9533509
246	0x3f7cb9b8	0.98720884
247	0x3f77e922	0.9684011
248	0x3f807315	1.003512
249	0x3f7dc904	0.9913485
250	0x3f79e686	0.97617376
251	0x3f7de947	0.9918408
252	0x3f80515f	1.0024832
253	0x3f8061fc	1.0029902
254	0x3f7d4889	0.98938805
255	0x3f75f901	0.96083075

layers.3.bias f4 [256]
0	0x3c2c8413	0.010529536
1	0xbbc59f78	-0.006030973
2	0x3c589703	0.013219598
3	0xbc7f9ece	-0.015601827
4	0xbc8a5dde	-0.016890462
5	0x3cf48252	0.029847298
6	0xbc319504	-0.010838751
7	0xba4bea4b	-0.0007778748
8	0x3cbcbff7	0.023040755
9	0x3cb63c58	0.022245571
10	0xbce168b8	-0.027515754
11	0x3d052ed2	0.032515354
12	0x3c4448b5	0.011980225
13	0xbccca698	-0.024981782
14	0x3bf190f8	0.007372018
15	0xbd0f2ed4	-0.03495677
16	0x3c62711c	0.013820913
17	0xbc8de1cd	-0.017319584
18	0xbb137fa8	-0.002250651
19	0xbaeaca1e	-0.0017913019
20	0x3bf98596	0.0076148016
21	0xbb911be7	-0.004428375
22	0x3cbfd82a	0.023418505
23	0x3c286bea	0.010279635
24	0x3ac5608f	0.0015058684
25	0x3d0b8d07	0.03407004
26	0x3cf29f5e	0.029617008
27	0x3c8b95db	0.01703923
28	0xba9db1d2	-0.0012031144
29	0xb90514d0	-0.00012691622
30	0x3b7b63b0	0.003835898
31	0x3ce89f6e	0.028396334
32	0x3c2de5fe	0.010613916
33	0xb9a17700	-0.00030796975
34	0x3c8a8412	0.01690868
35	0xbc9d5857	-0.019207163
36	0x3c7945df	0.0152144125
37	0x3acbc0b8	0.0015545106
38	0xbd0a3813	-0.033744883
39	0xbc614f65	-0.013751839
40	0x3ade9a94	0.0016983324
41	0xbc239986	-0.009985333
42	0xbc50bb13	-0.0127399145
43	0xbcadee6b	-0.02123185
44	0x3c217c1a	0.009856248
45	0x3c98bdba	0.018645156
46	0xbb77929c	-0.0037776595
47	0x39901b30	0.00027486077
48	0xbc9035b6	-0.017603736
49	0xbc5ba47d	-0.013405916
50	0x3b9dc72c	0.004815003
51	0xbc35c1b0	-0.011093542
52	0x3c98bf85	0.018646011
53	0x3cec4da0	0.028845608
54	0x3b346157	0.002752384
55	0x3a7eeec2	0.0009724909
56	0x3b226bf4	0.0024783583
57	0x3be66628	0.007031221
58	0xbb9a2313	-0.004703888
59	0xbc5ae036	-0.01335912
60	0xbc811e9f	-0.015761672
61	0xbb3e7323	-0.0029060326
62	0xbc486f5c	-0.012233581
63	0xbc705cd1	-0.014670567
64	0xbc7ff4eb	-0.015622358
65	0xbcd8d2d2	-0.026467714
66	0x3acdc020	0.0015697517
67	0xbbfa0b9a	-0.0076307775
68	0xbc98c04b	-0.01864638
69	0xbbfb04b4	-0.0076604728
70	0x3c877730	0.016536325
71	0xbc34cb5d	-0.011034814
72	0x3bad78e1	0.005293951
73	0xba2b8252	-0.00065425516
74	0x3ae9ca5a	0.0017836795
75	0x3b703cac	0.0036657257
76	0x3a44b8dc	0.0007504353
77	0xbcdcdf5c	-0.026961975
78	0xbc489549	-0.012242624
79	0xbbcaee63	-0.0061929687
80	0xbc468891	-0.012117521
81	0x3c8c5a7c	0.01713299
82	0xbc08d8df	-0.008352487
83	0x3c427f51	0.011871175
84	0xbb10176e	-0.0021986621
85	0xbcb586da	-0.022159029
86	0xbd2d35a6	-0.04228749
87	0x38bba84c	8.9482026e-05
88	0x3c1767a9	0.009241023
89	0x3c9dd7ad	0.019267881
90	0x3a82f95a	0.0009992525
91	0x3cd54d87	0.026037944
92	0x3bed5fd4	0.0072440896
93	0xbc549ae7	-0.012976385
94	0x3b4ed00c	0.003155711
95	0x3c8eb4eb	0.017420253
96	0x3b2221cd	0.0024739385
97	0xba83399c	-0.0010011676
98	0xbc465dac	-0.012107294
99	0x3b38b242	0.0028182422
100	0x3c1732e7	0.009228445
101	0xbc6f7ee3	-0.0146176545
102	0x3c8db7d3	0.017299568
103	0x3b13ea10	0.0022569932
104	0xbd422527	-0.047398712
105	0xbb83e2ba	-0.0040248306
106	0xbb274d2f	-0.0025528183
107	0x3bb33f87	0.0054702195
108	0x3b72493e	0.0036969925
109	0x3c36c4f2	0.011155354
110	0x3c08bc0c	0.008345615
111	0x3c173379	0.009228581
112	0x3d0f44f1	0.034977857
113	0xbd0653b9	-0.032794688
114	0x3a9fe7bc	0.00121998
115	0x3bf0b83c	0.007346181
116	0xb82c1098	-4.102345e-05
117	0xbaa9d37a	-0.0012956702
118	0x3c2ab648	0.010419436
119	0xbc4c8e71	-0.012485133
120	0x3c98f690	0.018672258
121	0xbc926248	-0.01786913
122	0x3cc39488	0.023874536
123	0x3d00bb86	0.031428836
124	0xba477ed8	-0.0007610149
125	0xbca4f82b	-0.020137867
126	0xbcc8b008	-0.024498
127	0x3ca6c70c	0.020358585
128	0x3c920382	0.017823938
129	0xbb9e5227	-0.0048315707
130	0xbb9fc0e5	-0.0048752897
131	0x3cb11050	0.021614224
132	0x3cdac4eb	0.026705226
133	0x3cba8988	0.022770658
134	0x3cdf9a2c	0.027295195
135	0x3c92d1fc	0.017922394
136	0x3b7f240c	0.0038931398
137	0x3c8fe79b	0.017566493
138	0x3b31f4a0	0.0027153865
139	0xbc5f4340	-0.0136268735
140	0x3c1af5e8	0.009458043
141	0x3c6ccb0e	0.014452709
142	0xbbcbb4e6	-0.006216633
143	0xbc1670ca	-0.009182164
144	0x3bc57c41	0.006026775
145	0xbb64d303	-0.0034915812
146	0x3b85abdf	0.0040793265
147	0x3b933472	0.004492336
148	0x3c506055	0.01271828
149	0xbc5fa32b	-0.013649742
150	0xbd238d0e	-0.039929442
151	0x3d0796ec	0.033102915
152	0x3cad5e9c	0.021163277
153	0x3c01f826	0.007932698
154	0x3cdf6403	0.027269369
155	0x3bedbea0	0.0072553903
156	0x3cece0f1	0.028915854
157	0xbabed7c7	-0.0014560156
158	0xbc85ade3	-0.016318267
159	0xbc972d75	-0.018454293
160	0x3d1e4f5b	0.038649898
161	0x3bd43ea2	0.006477193
162	0xbc92fdc4	-0.01794327
163	0x3c3fceed	0.01170705
164	0x3c0d33fb	0.00861835
165	0xbc41a1f9	-0.011818402
166	0x3c65426e	0.013992889
167	0xbc3de646	-0.011590546
168	0xbcf4102b	-0.029792866
169	0x3d11aaab	0.035563152
170	0xbccf0e1b	-0.02527528
171	0xba259da0	-0.00063177384
172	0xbcf2b9b1	-0.02962956
173	0xbc4b06d7	-0.012391767
174	0xbc8e1ac6	-0.017346751
175	0xbd053d33	-0.032529067
176	0xbce6014b	-0.028076788
177	0xbc398aa2	-0.011324557
178	0xbc9bd536	-0.019022565
179	0xbbc7b3f0	-0.0060944483
180	0xbcc0171b	-0.023448518
181	0x3c6bd5e3	0.014394256
182	0x3c30c8a5	0.010790025
183	0xba7e5c05	-0.0009703043
184	0xbcfdd3da	-0.030984808
185	0x3c9c7ce4	0.019102521
186	0x3c9d1e69	0.01917954
187	0x3bf1fd19	0.007384908
188	0xbbaa28e2	-0.005192862
189	0xbcea62c2	-0.028611545
190	0xbc948b1d	-0.01813274
191	0xbb8cc9fe	-0.0042965403
192	0xbc974312	-0.018464599
193	0x3cc50be1	0.024053516
194	0xbcb9eb05	-0.022695074
195	0xbbff8d6c	-0.007798841
196	0xbc23af85	-0.009990578
197	0xbc405e74	-0.011741269
198	0x3c7e4260	0.015518755
199	0x3c4e3ba6	0.0125874635
200	0x3cb3a9c5	0.021931538
201	0xbc833ca1	-0.016020121
202	0xbc35ec76	-0.01110374
203	0xbcd19960	-0.02558583
204	0xbbe88b38	-0.0070966743
205	0x3b624646	0.003452675
206	0xbc618761	-0.013765187
207	0x3c883300	0.016625881
208	0x3c2e0db6	0.010623386
209	0xbcbd52fc	-0.02311086
210	0xba5585b6	-0.00081452297
211	0xbc3ce082	-0.011528136
212	0xbacd590c	-0.0015666797
213	0x3c2f71b9	0.010708266
214	0x3c056931	0.008142755
215	0x3b8f77bf	0.0043782885
216	0xbc9d2387	-0.01918198
217	0xbc52b899	-0.012861394
218	0x3ca71f6e	0.020400729
219	0xbc678d20	-0.014132768
220	0xbbd3d843	-0.0064649894
221	0x3c71f394	0.014767546
222	0xbd5d1544	-0.05397536
223	0xbccbe7de	-0.024890836
224	0xbc24c40c	-0.010056507
225	0xbc6c2707	-0.014413602
226	0xbc97d9e7	-0.018536521
227	0xbc95183f	-0.018200038
228	0x3cb23972	0.021755908
229	0xbc8bcd13	-0.01706556
230	0x3c97fa27	0.0185519
231	0xbb8e5843	-0.0043440177
232	0x3bef647b	0.0073056794
233	0xbc383f64	-0.011245582
234	0x3c1aa2af	0.009438201
235	0xbc736032	-0.014854478
236	0xba8a4bb4	-0.0010551126
237	0xbc122bfa	-0.008921618
238	0x3b246cb9	0.0025089218
239	0x3bb72eb2	0.0055902833
240	0x3d112ce8	0.035443217
241	0xbbe59ff3	-0.007007593
242	0x3be25db2	0.006908142
243	0x36636400	3.3883844e-06
244	0xbd1a678f	-0.037696417
245	0xbd075bda	-0.03304658
246	0xbc378ee5	-0.011203502
247	0xbc9da7f2	-0.019245122
248	0xbcac8ef9	-0.021064268
249	0xbc2313e8	-0.0099534765
250	0x3ba31d22	0.004977838
251	0x3b8c6b4c	0.0042852517
252	0xbc2249b1	-0.009905265
253	0x3c82969f	0.015940962
254	0x3c986ce5	0.018606612
255	0xbccd1b71	-0.0250375
