scripts/model_params/twitter_70_critic.pth (torch, 390858 bytes, 17 tensors)

state_input.weight f4 [128, 65]
00000000: bfbe f233 7ec6 4731 44de 4031 e0d5 49b3
00000010: 2118 10b3 f4bd ccb3 c71b d8b3 c478 5433
00000020: 671e 39b3 f30a af34 263b d230 139c 0a33
00000030: da9d 8db2 7d62 2f33 4056 d0af c70a 0f34
00000040: f0f5 ae33 d9c2 bfb2 812d 9334 fba6 4633
00000050: ddfd 3cb0 c21c aab3 49e6 62b0 d909 6531
00000060: 2a4e e4b2 72a8 30b3 547a 0433 7c69 1333
00000070: 1e01 9b33 1b6d 82b4 7fb5 be32 beb1 78b2
00000080: 7117 b2b2 6e3d 3d32 e982 e933 dcc7 aeb3
00000090: 78d2 dc32 80ee 2eb3 af41 9633 3866 97b3
000000a0: 283d 8832 e5b5 5f34 0495 c0b2 60e4 5ab0
000000b0: a389 a233 642d a4b2 5cb3 2533 76ff b032
000000c0: 9842 2334 839e 20b2 c7f0 8db3 08ff c1b2
000000d0: 3c48 8234 a866 8933 9966 1534 5e5b c2b3
000000e0: 9307 6d34 1770 a7b2 54e0 3330 5c37 abb3
000000f0: 4eef 7133 e02c 16b4 240f 3b32 0c31 b233
00000100: 85e1 0f33 7426 0e32 bdcf 0c34 e6b2 cdb1
00000110: 666c ffb3 c26b d233 1df3 de32 1492 61b2
00000120: e27a 3a32 36f6 b534 8ceb d433 4aab 81b3
00000130: 6cba 1a34 ad20 89b2 4e2b cfb3 3ea1 8133
00000140: 88d3 da33 d03f 44b3 e6e2 6fb3 7209 de33
00000150: 4752 b1b3 be42 1134 5fb5 8db2 1a6d 2332
00000160: fe7d 45b2 e43b 5033 85a1 b6b2 04c0 2e30
00000170: 223e ed31 368f ae33 9ed2 a6b1 7fa3 8e33
00000180: 35c1 17b4 d638 c433 3eef 62b3 5246 c732
00000190: 54d3 b330 ec62 7b33 8075 53af 6562 61b3
000001a0: 0785 f032 2aa0 5634 5ee5 1a32 d450 2634
000001b0: fc04 a632 b8da d4af dd50 2434 d539 6133
000001c0: e36c 1333 9f9f 68b3 7e85 5533 70ec 6434
000001d0: 3629 a1b2 cc6a 8cb2 64ec 7f32 837f 81b2
000001e0: 54b1 e2b2 7c64 1234 a804 de33 d009 ec31
000001f0: 3422 da33 d233 6034 d80d 3331 acc5 a630
00000200: 59ce 9f32 a78c d6b1 53c4 0633 ec97 8f32
00000210: 75b2 4eb4 ba31 94b3 f932 deb2 3869 13b1
00000220: 6004 9a32 1efb e6b0 9606 2133 2804 ed32
00000230: 3e1e c933 7b81 2eb4 4363 2e33 5291 5f33
00000240: 5df3 0e33 bf62 5e33 19e3 2933 da5f 1c30
00000250: e8f1 81b2 6c63 16b3 6531 7e32 0005 27b3
00000260: 755d 0b33 5636 6ab1 4102 ddb3 81e5 8db3
00000270: 8884 5a33 5031 05b0 0061 1e2e e4b6 c6b2
00000280: 1fa0 a8b3 8f27 4bb4 7e52 96b3 97b7 6c34
00000290: 02e7 9533 54c8 e4af 3d3a 2532 f7a3 d533
000002a0: 531f 7b34 48bc 1832 c2e5 f3b3 5763 ab33
000002b0: 7835 5c32 620c 3cb4 f2aa 79b2 d079 38b2
000002c0: 006c e8ab 065e 7932 a90a acb3 7976 1234
000002d0: 60b0 c9b2 2a9c d8b3 520a d133 d6cd d1b2
000002e0: 4ffe 7cb1 96cd 5533 dce3 da2f 8603 d3b1
000002f0: 40d5 c032 96a4 0ab3 59f2 5433 c3b4 dbb3
00000300: 23ad 6133 6f0f 93b1 bb77 3033 80a8 49b3
00000310: c472 5031 93f2 1a34 f610 bab3 aac0 2f33
00000320: 2321 c932 09bd 35b3 ab4e 62b3 46c8 2fb3
00000330: 5657 5cb3 a0f6 ed32 7bc1 2db1 21b0 61b3
00000340: e089 3a32 4af5 c932 c6ab fd32 6df7 0333
00000350: 4484 77b3 62c5 dc33 9872 d6b3 7324 7bb2
00000360: 7a30 23b4 2d3a 0f30 c4e6 69b2 c703 90b2
00000370: 840b 4332 1898 2eb0 c87b 8630 2edd 5034
00000380: 9c50 1cb0 16ec fdb3 8805 8fb2 d416 fab3
00000390: 89a3 8eb3 1bae c932 a6da 39b3 5957 89b3
000003a0: d026 3d34 2175 6133 cf3c 6eb4 7034 1db3
000003b0: 8eb2 9b33 44f9 d533 2012 00b4 d89e 8d31
000003c0: ad46 c433 5d22 80b4 0db3 5733 ea84 c8b0
000003d0: 0b34 f032 1b61 5d31 b620 ee32 e161 bbb3
000003e0: f08e 8d32 b681 00b3 3ca5 78b4 3276 3830
000003f0: 76da e4b3 f060 b730 dc13 b332 0ac2 a3b3
1.13037e-07 2.907114e-09 2.806602e-09 -4.6993478e-08 -3.3549558e-08 -9.5340425e-08 -1.00633365e-07 4.9469932e-08
-4.310132e-08 3.2604257e-07 1.5296322e-09 3.2272577e-08 -1.6486343e-08 4.0834937e-08 -3.7896264e-10 1.3321834e-07
8.147242e-08 -2.2323933e-08 2.7413992e-07 4.6252335e-08 -6.8754763e-10 -7.921473e-08 -8.2545576e-10 3.3329484e-09
-2.6578238e-08 -4.1131393e-08 3.08449e-08 3.4322042e-08 7.217953e-08 -2.4293772e-07 2.2201446e-08 -1.4475914e-08
-2.0732587e-08 1.1015215e-08 1.08737204e-07 -8.1388606e-08 2.5707081e-08 -4.0729446e-08 6.996867e-08 -7.050079e-08
1.5860294e-08 2.0834666e-07 -2.2419506e-08 -7.963248e-10 7.568749e-08 -1.9112754e-08 3.8580183e-08 2.0605267e-08
1.5204785e-07 -9.349267e-09 -6.609621e-08 -2.2584132e-08 2.4266944e-07 6.398233e-08 1.3914031e-07 -9.0504486e-08
2.20751e-07 -1.9492331e-08 6.543861e-10 -7.972878e-08 5.632983e-08 -1.3986164e-07 1.0888275e-08 8.2976925e-08
3.349989e-08 8.274231e-09 1.3114091e-07 -5.9866236e-09 -1.18940804e-07 9.798488e-08 2.5954757e-08 -1.3129938e-08
1.0854565e-08 3.389302e-07 9.914865e-08 -6.038188e-08 1.4410188e-07 -1.5963758e-08 -9.647066e-08 6.0363604e-08
1.01898934e-07 -4.5692843e-08 -5.5852887e-08 1.0339399e-07 -8.257171e-08 1.3528458e-07 -1.6497038e-08 9.5126556e-09
-1.14955565e-08 4.8483244e-08 -2.126104e-08 6.35737e-10 6.9046715e-09 8.128556e-08 -4.8551803e-09 6.64213e-08
-1.4133259e-07 9.1372996e-08 -5.2837315e-08 2.3198627e-08 1.3084027e-09 5.853046e-08 -1.9232083e-10 -5.2476384e-08
2.8000171e-08 1.998857e-07 9.016132e-09 1.548936e-07 1.932721e-08 -3.8717984e-10 1.5303108e-07 5.2439493e-08
3.4325137e-08 -5.4161884e-08 4.9714338e-08 2.132017e-07 -1.8761607e-08 -1.634671e-08 1.48967025e-08 -1.5075562e-08
-2.6390502e-08 1.3633866e-07 1.03385275e-07 6.8696195e-09 1.01576376e-07 2.0880478e-07 2.6055798e-09 1.2134271e-09
1.8603872e-08 -6.24421e-09 3.1377862e-08 1.6716477e-08 -1.9250167e-07 -6.900832e-08 -2.5867381e-08 -2.1451125e-09
1.7929949e-08 -1.6806074e-09 3.7491724e-08 2.7592321e-08 9.365293e-08 -1.6252118e-07 4.060281e-08 5.20534e-08
3.328329e-08 5.1778212e-08 3.9554923e-08 5.688868e-10 -1.5127583e-08 -3.501502e-08 1.4795977e-08 -3.8887265e-08
3.2448458e-08 -3.4082368e-09 -1.02915244e-07 -6.607571e-08 5.0877617e-08 -4.8455195e-10 3.6011194e-11 -2.3133403e-08
-7.8522355e-08 -1.892024e-07 -6.9999246e-08 2.2046002e-07 6.980373e-08 -4.16153e-10 9.617506e-09 9.9484105e-08
2.3387592e-07 8.890375e-09 -1.1357362e-07 7.980878e-08 1.2817843e-08 -1.7513369e-07 -1.4532576e-08 -1.0737907e-08
-1.6514567e-12 1.4515086e-08 -8.011313e-08 1.364041e-07 -2.3479686e-08 -1.008669e-07 9.734198e-08 -2.4424406e-08
-3.6815384e-09 4.9779906e-08 3.9815873e-10 -6.141309e-09 2.2448717e-08 -3.228032e-08 4.958051e-08 -1.02308626e-07
5.254436e-08 -4.2800177e-09 4.1087088e-08 -4.695221e-08 3.033322e-09 1.4430616e-07 -8.664385e-08 4.092059e-08
2.3414549e-08 -4.2314273e-08 -5.2691274e-08 -4.092751e-08 -5.1302173e-08 2.7702583e-08 -2.5284794e-09 -5.2547083e-08
1.0857974e-08 2.3511024e-08 2.953119e-08 3.0725847e-08 -5.7629464e-08 1.0280452e-07 -9.985996e-08 -1.46184105e-08
-1.5198194e-07 5.210577e-10 -1.3614855e-08 -1.6765524e-08 1.1353112e-08 -6.351697e-10 9.784964e-10 1.9451974e-07
-5.686702e-10 -1.1824174e-07 -1.6649906e-08 -1.16456846e-07 -6.642137e-08 2.3478654e-08 -4.327253e-08 -6.395448e-08
1.7616117e-07 5.2493423e-08 -2.21876e-07 -3.6602103e-08 7.250229e-08 9.9639266e-08 -1.1927523e-07 4.1216985e-09
9.139817e-08 -2.386686e-07 5.0221434e-08 -1.4589692e-09 2.7963344e-08 3.221493e-09 2.7721722e-08 -8.72567e-08
1.647956e-08 -2.9920294e-08 -2.3156912e-07 6.7106776e-10 -1.0656815e-07 1.3342554e-09 2.0847374e-08 -7.6255745e-08

state_input.bias f4 [128]
00000000: 6246 0535 33bb 6fb3 d3fa 5a37 aa6d 06b5
00000010: 776b 37b5 c6fc 6a34 d7ac e034 c45c aab5
00000020: c52e b133 2b88 4136 0350 c9b5 da84 3fb7
00000030: 5808 45b9 bd18 0cb5 5f07 113a cf3a 09b5
00000040: 743a 49b6 0c9a d6b4 9f91 0eba b8f0 9236
00000050: d61d 92b3 9269 52b6 18b8 2434 1938 09ba
00000060: 5213 50b4 cf11 e633 b394 0d35 ac09 8eb9
00000070: fc47 01b8 b357 b335 a23a 0037 1086 eab4
00000080: d366 0aba f591 d3b3 94f5 0a33 81f8 b535
00000090: e6f9 ebb3 6ab9 acb9 39ee db33 ac74 e9b2
000000a0: fd18 f436 ab5a 8b34 c9c4 0ab3 d8f4 1db5
000000b0: 713d f9b2 1b96 9ab9 8624 a935 19f3 473a
000000c0: 6cab 023a 5f17 8738 5ea0 76ba becc 9233
000000d0: ca93 92b3 c107 9835 ed90 dcb6 cea0 89b3
000000e0: 1c05 9bb3 7a4f ff39 68f1 cf34 ce51 26b5
000000f0: 842f 0735 86a3 86b3 6654 9135 6e90 f939
00000100: 98ae c238 6ca6 7b33 eef2 8c35 3bcd 8139
00000110: 65f5 14ba 1053 0aba ddf6 3039 904b 1b34
00000120: ff98 9f37 b680 1734 3e60 4cb6 d0e8 5d3a
00000130: e6a0 c8b4 32c7 82b3 186e c9b3 0ec2 b539
00000140: 5304 53b5 d68f 09b4 d9f3 33b5 68de a534
00000150: 0338 033a f102 a434 1e19 3db4 b7d8 d933
00000160: 10f7 47b6 302c 33b8 bf0c 2a37 f6e6 3f36
00000170: e211 2834 cc9b 6a34 da88 5834 d9c6 3438
00000180: 4c22 c035 6eeb 4c35 20f6 2e34 8538 44b5
00000190: 0c43 5937 65bb 1ab7 2d03 8e33 7c11 1135
000001a0: 2f85 29b9 efde 50b4 3cfb b4b5 10da 8bb6
000001b0: 0427 cab4 077a ac36 7cfd ebb4 0e71 52b4
000001c0: a712 b034 4a8c c634 12c3 c6b2 5223 5ab7
000001d0: 6852 9a35 f53d 5db9 4059 74b4 fa6a 9135
000001e0: 42de a935 c8f9 fdb3 1892 2eb6 0fe4 a3b9
000001f0: dec6 a0b4 586d 82b4 6a9f 2733 87bc 7eb4
4.964878e-07 -5.581678e-08 1.3052212e-05 -5.007847e-07 -6.8329194e-07 2.1884907e-07 4.184901e-07 -1.2692985e-06
8.250712e-08 2.8838501e-06 -1.4998953e-06 -1.1415419e-05 -0.00018790492 -5.2190063e-07 0.00055324094 -5.1122055e-07
-2.9985358e-06 -3.997269e-07 -0.00054385694 4.3791624e-06 -6.804082e-08 -3.1353889e-06 1.5340663e-07 -0.00052344945
-1.9378538e-07 1.0713449e-07 5.274298e-07 -0.00027091557 -3.0823037e-05 1.3362063e-06 7.643046e-06 -4.368344e-07
-0.0005279604 -9.8520026e-08 3.235398e-08 1.3557875e-06 -1.09884965e-07 -0.0003294454 1.02413146e-07 -2.7177826e-08
7.2746757e-06 2.5956737e-07 -3.2309604e-08 -5.884335e-07 -2.9015355e-08 -0.00029485006 1.2602111e-06 0.0007627472
0.00049846503 6.441655e-05 -0.0009408052 6.835897e-08 -6.8255375e-08 1.1327139e-06 -6.5733825e-06 -6.40881e-08
-7.218679e-08 0.00048696605 3.87324e-07 -6.195886e-07 5.0360563e-07 -6.269606e-08 1.0827905e-06 0.0004760059
9.2831615e-05 5.859185e-08 1.0501515e-06 0.00024757706 -0.00056823186 -0.00052766595 0.00016876632 1.446299e-07
1.9025521e-05 1.4109796e-07 -3.045439e-06 0.0008465173 -3.7369972e-07 -6.08983e-08 -9.379818e-08 0.00034667592
-7.860992e-07 -1.2811446e-07 -6.703754e-07 3.0895467e-07 0.00050056 3.054952e-07 -1.7611134e-07 1.014427e-07
-2.979712e-06 -4.271808e-05 1.0135757e-05 2.8595655e-06 1.5652725e-07 2.1849627e-07 2.0166354e-07 4.3100536e-05
1.4315096e-06 7.633852e-07 1.6294553e-07 -7.3097937e-07 1.29498185e-05 -9.2227465e-06 6.612968e-08 5.404215e-07
-0.0001616671 -1.9452612e-07 -1.3484164e-06 -4.1679086e-06 -3.765382e-07 5.1402053e-06 -4.3956595e-07 -1.9598903e-07
3.2796126e-07 3.6982448e-07 -2.3138941e-08 -1.3002036e-05 1.1497877e-06 -0.00021099283 -2.275674e-07 1.0834476e-06
1.2656167e-06 -1.18266655e-07 -2.6013058e-06 -0.000312597 -2.9947017e-07 -2.4293945e-07 3.9027704e-08 -2.3724179e-07

action_input.weight f4 [128, 30]
00000000: 5f3b 5d3a 059a a73c bae6 f7bc 420d c73c
00000010: 0440 a8ba f375 9dbb abd4 603a 18e6 8a3c
00000020: 126c 473c a153 18ba b1ca 473c c7cb 93ba
00000030: 0508 70bb be1f 993c 9ad4 0dbc 55be cdbc
00000040: 30c4 c6bc 5591 2abc b238 c43c de34 fbbc
00000050: da49 fcbc e42d 3ebb 64e2 1cbd 9dad 8c3c
00000060: cceb e6bb d4ae babc d12f 1dbc af06 69bb
00000070: 0d3c 033d 1e8f 613c 5534 d4bc 0c93 453c
00000080: 52b8 2fbc c3cc b0bb be00 49bd 9309 933c
00000090: 43f8 4cbc 74a2 27bd 8921 41bc 3b8d e9bc
000000a0: b7ea 173d c6a6 ce3a 68a2 41bc e483 933c
000000b0: 44c0 b8bc 8f27 4c3c 076c 5fbd 9ef9 d0bc
000000c0: 3df9 60bc 63bf 71bc 8726 f7bc a5ab 22bd
000000d0: 8055 eabc 6836 e53c 02d5 6dbb d111 263b
000000e0: 9743 b13c 13bc ddbb 029f 1f3d da12 8d3c
000000f0: d2d2 7dbc f863 553d 2942 abbc 5b4a 01bb
00000100: 18f1 d0bc f937 a83b f0dc e73b 91d3 303c
00000110: bf44 21bb f421 443c 8346 98bb 158d 643b
00000120: 40d8 9e3c 57a2 4c3c a69c e7bc 5353 973b
00000130: 4159 003c dd0d e93b 51c2 073b d4b1 8dbc
00000140: 87e7 7ebc d8f6 2ebc 6d7a a83c 486a b43c
00000150: 96f7 a8bb 0d69 553c c546 3abc 5a91 ccb9
00000160: 335d db3c d5d5 58bb ec76 b2bb 4e6d 923c
00000170: 9e49 7439 9ba8 73bc 632d 0a3c a4ba 173a
00000180: 487c 7cbc ffbe e3bc aea3 833a 0e98 3abc
00000190: a19a 0ebb dd11 61bc 1ac2 99bc 7b91 00ba
000001a0: eca9 83bc 3dc7 8e3b 5049 41bc 3cab 2bba
000001b0: d20f 86bc 63e7 25bc 1303 8dbc 9c06 99bc
000001c0: c448 fdbc 0f56 813c 06fd 18bc 3282 20bc
000001d0: df48 063c 5809 b83b 044c 9d3c a0ed 9d3b
000001e0: 8c9a fd3c c724 58bc bace b43c 5b7e 063c
000001f0: 610a bd3c 1758 f7bc ba3a ad3c 3629 1c3d
00000200: 8e4e 1dbb 8e1f b43c cbca 0abd 4a85 28bc
00000210: 823f f73c 2164 a3bc f88d 0e3a 2e7b d43b
00000220: a481 673d e4fd 8e3c 19b8 a939 f5e0 acbb
00000230: e915 573b 7d3d c03b f2e6 9a3d 89b9 e6bc
00000240: fa6b 783c 0a35 f23b 65ac 6bbb c221 923b
00000250: 0e3a ffbc 59bc 423c b95e cf3c 1b09 04bd
00000260: 48db 203d f660 24bb 41dd ec3c af03 d5bc
00000270: cc6d 853a 3e16 093d d2cb 76bb 3755 2e3c
00000280: 5fd2 48bd 35ec c0bc c1a7 fd3c e259 d5bc
00000290: 8eac c63c 836b c33b 5560 4b3d d02f d53c
000002a0: 98c7 fc3c 0a02 b93c 0325 163d e666 bf3c
000002b0: 1e49 5a3d f2f2 88bc 90d3 41b7 bfe0 c53c
000002c0: b9e5 29bc 86de c5bb f553 e6bc 3519 103c
000002d0: e06c d33c 975f 4ebd 27fd 8ebb 0603 d3bb
000002e0: 4195 213d ce98 d6bc 3524 5d3c 51e8 af3c
000002f0: 709d 923b 89a6 5e3c 8320 24bd 9997 97bc
00000300: 382d 013c fef2 f6bc 819d c23c 0e3e 52bc
00000310: e6d4 7e3d 0b17 18bb 4459 9d3a a3db 8f3c
00000320: 31c5 103d 59fc 493a 45f9 9c3d 42aa 81bd
00000330: a032 79bc 009d 7d3c cbf9 12bd 6bec 473c
00000340: 97bf 43bd bd56 a23c 33e0 56bc b7cd 30bc
00000350: 9888 fbbb ded5 623b 32c0 433c 8840 12bb
00000360: f5e1 97bb 743f a5bb 8c96 40ba 73f7 1a3c
00000370: f7ca 4fbc 7d0b b7bc cef4 82bb 7b83 8bbc
00000380: f035 98bb b8ca c6bc 7834 843c eff0 9abb
00000390: e167 ca3b 273c 0abc 1ff9 423c 1e05 a1bc
000003a0: 9cb1 8e3c c661 bebb e297 ed3b 0091 a23c
000003b0: a894 98bb 469a a0bc 3a81 71bc 0fe3 983c
000003c0: db77 803c c908 5cbd a16c 1b3c eefa 8fba
000003d0: 5e0d f13c f49c fabc 064b bcbc 935f 843c
000003e0: 2b91 8fbb 5968 793c 201b 13bd 33c5 383b
000003f0: ff37 d33b 70fa 20bd b6da d83c aa54 2b3c
0.0008439328 0.020459184 -0.030261386 0.024298314 -0.0012836461 -0.0048053204 0.0008576612 0.01695542
0.012171762 -0.00058108015 0.0121943215 -0.001127594 -0.0036625874 0.018691894 -0.008656645 -0.025115171
-0.024263471 -0.010410626 0.023952816 -0.030664857 -0.030796934 -0.0029019052 -0.03830184 0.017172629
-0.007047152 -0.022788443 -0.00959392 -0.0035556962 0.03203969 0.013767032 -0.02590386 0.0120589845
-0.010725098 -0.0053955032 -0.049072973 0.017948901 -0.012510362 -0.04092641 -0.011787781 -0.028509727
0.037089076 0.0015766255 -0.011818506 0.018007226 -0.022552617 0.012460603 -0.054546382 -0.025509652
-0.013731298 -0.014755103 -0.030169738 -0.039714474 -0.028605223 0.027980044 -0.0036290293 0.002534021
0.021638675 -0.006766805 0.03897 0.017220903 -0.015492158 0.05209729 -0.020905571 -0.0019728157
-0.025505587 0.0051336256 0.0070758983 0.010792629 -0.0024607626 0.011970986 -0.0046470775 0.003487413
0.019390225 0.012489877 -0.028272938 0.0046180873 0.00783378 0.0071122483 0.0020715187 -0.01729671
-0.01555813 -0.010678969 0.02056619 0.022023335 -0.0051564677 0.013025534 -0.011369412 -0.00039018207
0.02677784 -0.0033086438 -0.0054463055 0.017874386 0.00023297078 -0.014871742 0.008433673 0.00057880045
-0.01541049 -0.027801035 0.0010043287 -0.011388792 -0.0021759646 -0.013737169 -0.018769313 -0.0004904491
-0.016072236 0.004357247 -0.011797264 -0.0006548648 -0.016364966 -0.010125968 -0.01721338 -0.01867991
-0.030918486 0.015788106 -0.009337669 -0.009796666 0.008196085 0.0056163482 0.019201286 0.004819587
0.030957483 -0.013192362 0.022071231 0.008208836 0.023076238 -0.030193372 0.021146167 0.03812524
-0.002400312 0.021987703 -0.033884805 -0.010285685 0.03018165 -0.019945206 0.0005438025 0.0064844107
0.05652012 0.017455049 0.00032371355 -0.0052758404 0.0032819456 0.005866705 0.075635806 -0.028164642
0.015162462 0.0073915767 -0.003596091 0.0044595907 -0.031155612 0.011885726 0.025313722 -0.032235246
0.039271623 -0.0025082207 0.028914096 -0.026002733 0.0010179817 0.033468477 -0.0037658107 0.010640434
-0.04902875 -0.023550132 0.03096378 -0.026043836 0.024252202 0.005963744 0.049652416 0.026023775
0.030856892 0.02258398 0.03665639 0.023364495 0.053292386 -0.016717408 -1.1552955e-05 0.024155019
-0.010369712 -0.0060384898 -0.028116206 0.008795072 0.025808752 -0.05038413 -0.004363674 -0.0064395694
0.03944898 -0.02619591 0.013497402 0.021473082 0.0044743344 0.01358951 -0.040070068 -0.018504905
0.007884316 -0.030145165 0.023756744 -0.012832178 0.062214755 -0.0023207094 0.0012004753 0.017560786
0.035344306 0.0007705144 0.07664732 -0.06331302 -0.015209824 0.015479326 -0.035882752 0.0122023625
-0.047790136 0.01981675 -0.013114977 -0.010791234 -0.0076761954 0.0034612338 0.011947678 -0.0022316296
-0.0046350905 -0.0050429646 -0.0007346652 0.009458411 -0.012682668 -0.022344345 -0.003996468 -0.017030468
-0.0046451017 -0.024266586 0.0161383 -0.0047284286 0.006176934 -0.008437193 0.011900215 -0.01965576
0.017418675 -0.0058099953 0.007250772 0.019844532 -0.004656393 -0.019604813 -0.014740283 0.018662957
0.015682152 -0.053719316 0.009486348 -0.0010984817 0.02942532 -0.03059242 -0.022984993 0.016158855
-0.004381319 0.015222632 -0.03591454 0.0028193712 0.0064458842 -0.039301336 0.026471477 0.010457197

action_input.bias f4 [128]
00000000: 90c2 bcbd 2f7e 443d c05e c23b bcbc 82bc
00000010: 01a7 99bc 76bc 293d 7272 dcbb cc6d c2bd
00000020: b8dd 53bb 99a8 b13d 05dc 54bd 064e 9ebc
00000030: e91c a93c 9e3d 7abd 7a1c d33d 5111 943d
00000040: 8370 babd 92c0 8a3d 26f1 0b3d 0a57 adb9
00000050: 316d cebc c2df 1ebd b059 9e3d ae4e 87bd
00000060: 0e0c 463c ad72 a8bd d47e 42bc 33d1 a13c
00000070: 987b babc fe9b 523d 938d 933d c3f3 183d
00000080: c818 e33c 0c1a 57bd 8096 29bd 59f5 173d
00000090: dcd1 383c a01e 03bd 0f34 54bd 9b0f 563d
000000a0: e202 853d 9c66 5e3d 3479 4b3d 95ad 853d
000000b0: c54e b4bd aed5 b43c 963f 583c 171d 9bbd
000000c0: 2e3c 9cbd 2626 193d 7e81 4abd 755b d83c
000000d0: d470 853d 6c2f 52bc 6364 e53c ea9f 213d
000000e0: 739e 2fbd 881c 733d cbc7 78bd 0fb4 9cbd
000000f0: d574 fc3c 2582 25bd c272 1fbd 46d7 56bd
00000100: 7d34 013d ec6b a3bc c8d2 c3bb c71f b2bd
00000110: 1258 be3d cbac e33b fe9a 91bd 8142 913d
00000120: 6708 923d c816 943d b55e c4bd 28a4 81bd
00000130: bb87 43bb 9442 c5bb b797 cebd b050 87bd
00000140: 79d4 033d 338f 783c 18be 903c f336 9abd
00000150: d237 e23c dcf3 e7bc 5c43 51bd 45ec 7fbd
00000160: 6716 b83d 5560 153d 7430 edbc 8e15 223d
00000170: ec99 6dbd b80e a53d 67b7 01bd 893b ceba
00000180: fa2a 223d 7bdc ed3b 7adc f53c 531f e5bc
00000190: 19b0 7bbd 9ed2 933d 4405 9d3d 6b9d 603c
000001a0: c04a 0a3c cc7a 5abd a7fc 3fbd 86ab 99bd
000001b0: b833 0b3d 5108 a63d 8254 b2bd de69 0bbd
000001c0: 085c f93c c531 b73d 4307 e1bd b9a4 5bbd
000001d0: 9cd4 1d3d 92d3 5a3d 3622 6fbd 8703 ce3d
000001e0: ed96 d2bd b393 bc3d 6a6e 9dbd 9630 843d
000001f0: df3e 0f3d b5dc 6ebd 30e5 0e3d db17 8d3d
-0.09216797 0.0479719 0.0059317052 -0.015959136 -0.018756391 0.041439496 -0.00672751 -0.09493598
-0.00323282 0.086747356 -0.05196764 -0.019324314 0.020643668 -0.06109392 0.10308166 0.07229865
-0.09103491 0.06775011 0.034165524 -0.0003306198 -0.02519855 -0.03878761 0.0773195 -0.06606804
0.012087835 -0.08224998 -0.0118710585 0.019753074 -0.022764012 0.051418297 0.072047375 0.037341844
0.027721778 -0.052515075 -0.041403294 0.037099216 0.011280503 -0.03201163 -0.05180746 0.052260976
0.064946905 0.054297075 0.049676135 0.06527249 -0.088040866 0.022074547 0.013198754 -0.07573908
-0.07628666 0.037389897 -0.0494399 0.026410798 0.06515661 -0.012828689 0.02800197 0.039459147
-0.04287572 0.05935338 -0.060737412 -0.07651531 0.030817429 -0.04040732 -0.0389278 -0.052451394
0.031544197 -0.019948922 -0.005976055 -0.08697467 0.09294142 0.0069480888 -0.071096405 0.07092763
0.07130509 0.07230908 -0.095883764 -0.063301384 -0.002983554 -0.0060198996 -0.10087531 -0.06607187
0.03218505 0.01517086 0.017668769 -0.07530012 0.027614508 -0.028314523 -0.05108963 -0.062481184
0.08988648 0.036468823 -0.028953768 0.039571337 -0.05800812 0.08059448 -0.031669047 -0.0015734296
0.039591767 0.0072589493 0.030012358 -0.027969038 -0.061447237 0.072179064 0.0766702 0.013709406
0.008440673 -0.053339764 -0.046871807 -0.075034186 0.03398487 0.08107055 -0.08707525 -0.03403651
0.030439392 0.0894504 -0.10987713 -0.05362389 0.03853284 0.053424425 -0.058382235 0.100592665
-0.10282693 0.09207859 -0.076870754 0.064545795 0.034972068 -0.05831595 0.03488654 0.06889316

layers.0.weight f4 [256, 256]
00000000: 4571 bfbb 681a 6a3c 2434 a4ba c1ba 0ab9
00000010: 6841 61bc ca66 463c 7a02 a53a 3c4c 733c
00000020: 0510 b73b e7ac f53c 697a a0bc 7cf1 93bc
00000030: e8cd dd3b 4d28 863c 3800 05bc 87e9 b4bc
00000040: 0650 13bc ef01 ef3b fc1a 74ba 06f7 f9bc
00000050: 9cb9 92bb 96b6 d03c eb29 c0bc 1f9e 3c3b
00000060: c006 54ba 992d 303b e61c 8a3b 8ae3 bebc
00000070: 209a a9bc b526 773b 208a 3abc 571d d23a
00000080: dd6c 4fbc dd94 bdb9 15cf 18bc f363 65ba
00000090: edf9 e83c cb80 14bb e1e7 a83c 43ba a6bc
000000a0: c496 00bc cfb7 d3bc a2a9 0a3c 6ab4 06bc
000000b0: bcf6 d13b c7ca 74ba 0725 173c 142c 233c
000000c0: 22e7 daba 0836 38bc 52ee db3a 2a5c 2fbd
000000d0: 5b92 d7bc 4dc2 973b bb77 5abc c603 4f3b
000000e0: af30 bb3b 2b06 0bbd bf8a 6dbc 54c0 063c
000000f0: 62e8 333c 53a1 20bc 287f f8bb e97e 883c
00000100: 45af cfbc 53f3 b2bc b238 e53a 2953 fe3b
00000110: f873 bebc 9c7c 4cba 6439 73bb 9d8a bdbb
00000120: dd7d 82bc d7ba c73a 402f b737 3e79 9a3c
00000130: 30c6 80bc b4c1 6d3c 9a32 853b 82bb 11bd
00000140: 9a66 733b 1fe5 1c3c 6f2c 1f3d ae8b 3a3b
00000150: aebc dabb 2a7c 4fb8 4953 8c3b 7b5c b2bb
00000160: 4968 36bc d227 d63a 2b1f c4bc b1c5 253c
00000170: 297a f0ba f802 1b3c 1edc 0a3c 6d8f 853a
00000180: eb91 d7bb 0493 a83b 2685 103b e225 afba
00000190: 8b29 103c 0fbd 50bb a40c 803c 8f5a 463c
000001a0: fa9a e3bb 507f 1abc 0727 3bbc 77f4 4c3c
000001b0: 11b1 cebc 0252 2ebc 2a91 d03c 8548 113c
000001c0: fe82 84bb 70f3 a0bc d441 32bb c1cc ab3c
000001d0: ef03 7d3c e24e 2d3c 7e6e 05bb 647e be3c
000001e0: 3b93 cd3a c856 99bc bbb9 97bc c567 533b
000001f0: ee23 313c 6b2a f7ba d966 da3b 936c 51bc
00000200: 6828 153a e317 b83b d020 b9ba 63dc aa3b
00000210: 1ba4 163b 54ef b3bc 9c4a 323d eced b23c
00000220: 8b3e 133d 084b 32bc 344b d73c c96c cb3c
00000230: 132a b5bb 3f7b 033c 5312 e4bb 831b 12bb
00000240: 36e9 74bc dcd4 253c c9e9 45bd 8a94 37bb
00000250: 2dd4 ac3c c526 65bc 59e4 45bc 91d6 b63c
00000260: a468 5d3c 649d a0bb 94cc a73c 3841 4fbc
00000270: e3f7 e5bb 322b 0c3c 9097 85bb c9c1 f4ba
00000280: 63bc 3abb d24c a1bc dd12 f23b 77a7 d03c
00000290: 316e 393c d224 143c ddc0 8f3c 0928 b83b
000002a0: cb5e cfbc c239 31bc c7c7 8abc 59f1 01bd
000002b0: 271a d33a 1a6e 313b 5aad c93c 46a4 483c
000002c0: 3c65 f73c 2ce7 763b c8d3 663c 0e3d d43c
000002d0: 869f 4dbb 0a0b a03c 5097 c53b 537e e8bc
000002e0: 1192 2d3c af4d c1bc 552c c53c cb82 403c
000002f0: cb59 943b 8be9 93bb e54e 563c b9ca ac3c
00000300: 647b 96bb 12c2 b4bc 5f75 88bc 0a2e 27bb
00000310: ac1a 813c 2a81 0c3b ef8f 8f3c 22f8 17ba
00000320: c9fc 493c aed9 303c 1df0 a53c 95bf 1f3c
00000330: acdf a1bb c7d9 3abc b144 4e3c 3429 bbbc
00000340: 0842 c6bc 4206 cf3b 609c 08bd 46a3 373c
00000350: 2238 c13b e31e d13c 139e 1a3c bd01 9e3b
00000360: 4f57 63bc 48c4 e3bc 8318 413c 2fe7 17bc
00000370: 05ba 1b3c c35b 723c 4f32 2bbc a489 153d
00000380: f7bc 8ebc e4df 44ba fa71 9abc a049 d33c
00000390: 3fd0 0d3c 12f5 35bc d7d1 f1bc e7e0 c63b
000003a0: cb91 26bc 0eba 8b3c 9add fbbb 471a bd3c
000003b0: 1c46 533c acc3 d0bc cc42 973c bc3b 1c3b
000003c0: 3903 b7bb d841 4bbc 88fe 78bc 9c76 fcbb
000003d0: fe4f 2bbd adf5 893b db5b df3b 71a0 d43b
000003e0: 1c5b 283d d5f6 59bb 578d dabb f2b3 85bc
000003f0: adb0 da3c b0bb 043d 28a4 b2bc 46c3 e5ba
-0.00584236 0.014288522 -0.0012527746 -0.00013230277 -0.013748504 0.012109468 0.0012589239 0.014849719
0.0055866265 0.029989673 -0.01958962 -0.018059485 0.0067689307 0.016376639 -0.008117728 -0.02208401
-0.008991247 0.0072939317 -0.00093118823 -0.030513298 -0.004477693 0.025477689 -0.023457488 0.002878077
-0.0008088164 0.0026882647 0.0042148707 -0.023301858 -0.020703375 0.003771228 -0.011385471 0.0016030472
-0.012660232 -0.000361598 -0.009326716 -0.00087505503 0.028439486 -0.0022659774 0.020618381 -0.020352488
-0.007848445 -0.025844483 0.008463295 -0.008221725 0.006407587 -0.00093380775 0.009225137 0.0099592395
-0.0016700963 -0.011243351 0.0016779399 -0.042812504 -0.026314905 0.0046313168 -0.01333421 0.0031587943
0.0057125906 -0.03394143 -0.014498412 0.008224566 0.010980697 -0.009804088 -0.0075835176 0.016662078
-0.02535213 -0.021844542 0.001748821 0.0077613783 -0.023248658 -0.00078005507 -0.0037113065 -0.0057843463
-0.015929157 0.0015238178 2.1837302e-05 0.01885664 -0.015719503 0.014511514 0.00406487 -0.035579212
0.0037140013 0.009576111 0.038860735 0.0028464603 -0.0066753244 -4.9468283e-05 0.0042823893 -0.0054431534
-0.011133262 0.0016338772 -0.023940643 0.010117934 -0.0018346953 0.009461157 0.008475332 0.0010189839
-0.006578674 0.0051444788 0.002205202 -0.001336273 0.008798967 -0.003185097 0.015631028 0.012106552
-0.006945965 -0.009429768 -0.011422879 0.012509457 -0.025230916 -0.010639669 0.025459845 0.008867388
-0.004043936 -0.01964733 -0.002719988 0.020971658 0.015442832 0.010577889 -0.0020360048 0.023253627
0.0015684137 -0.018718138 -0.01852118 0.0032257896 0.010811789 -0.0018857246 0.0066650924 -0.012782234
0.000568992 0.005618082 -0.0014124159 0.0052142604 0.0022985998 -0.021964706 0.043528184 0.021841966
0.035948317 -0.010882147 0.026280977 0.024832146 -0.0055286973 0.00802499 -0.006960192 -0.002229423
-0.01494818 0.01012155 -0.048318658 -0.002801212 0.021097267 -0.013986294 -0.012078368 0.02231911
0.013513718 -0.004901575 0.020483293 -0.012649827 -0.007018076 0.00855522 -0.0040769055 -0.0018673475
-0.0028493635 -0.019689951 0.0073875026 0.025470478 0.011317776 0.009041982 0.017548019 0.005620007
-0.025313755 -0.010816993 -0.016940964 -0.031724308 0.0016105816 0.0027073682 0.024618793 0.012246197
0.03019964 0.003767441 0.0140885785 0.02590802 -0.00313756 0.019536514 0.0060300007 -0.028380549
0.010593907 -0.023596613 0.02406899 0.0117499335 0.0045273057 -0.0045139245 0.013080333 0.02109276
-0.004592346 -0.022065196 -0.01665753 -0.002550962 0.015759788 0.0021439292 0.017524688 -0.00057971675
0.012328335 0.010794086 0.020256096 0.009750267 -0.004939994 -0.011404461 0.0125896195 -0.022846796
-0.024201408 0.0063178847 -0.033352256 0.011208361 0.005896584 0.025527423 0.009437102 0.0048219846
-0.013875796 -0.027803555 0.011785629 -0.009271427 0.0095048 0.0147923855 -0.010449006 0.036508217
-0.01742409 -0.0007510169 -0.018853176 0.025791943 0.008655607 -0.011105793 -0.029519005 0.006069291
-0.010166596 0.017056491 -0.007686329 0.02308382 0.012895133 -0.025483929 0.018464468 0.0023839315
-0.005585101 -0.012405835 -0.015197404 -0.007704569 -0.041824333 0.004210195 0.00681637 0.0064888527
0.041102514 -0.0033258696 -0.006669681 -0.016321156 0.026695574 0.032405555 -0.021806791 -0.001752951

layers.0.bias f4 [256]
00000000: 3c61 c1bd e765 ccbd 3021 92bb d37a 67bd
00000010: 5238 b13d dbee bb3d 3f18 34bc dc42 5e3d
00000020: 8fc5 473d 9b75 993d 6a6f 69bd 7bde a73d
00000030: be7b 40bd 32b2 8fbb 32ff b53d 0fba 163d
00000040: 1f4e 013d 9484 adbd 5177 763d 1d82 863d
00000050: dd9f 193d c7a4 a0bd 9583 43bd 563e 81bd
00000060: db68 483d 615f 84bd 5337 adbd 024e 133d
00000070: d52c 85bd 8ca7 3fbd 2d83 babd 40e7 0bbd
00000080: b2e8 8ebc 1132 5d3c 5bc5 e73d 92b4 ba3c
00000090: ff92 9e3d fb98 2cbd 9524 7ebc 462f 1ebb
000000a0: 480c f33c 37ca 673d 1411 973d 92f4 dbbd
000000b0: 0f41 84bd 5421 64bd 7bf2 99bd 22bb a8bd
000000c0: e6a5 433d 01bf 9fbd 2687 613d 75fc 68bd
000000d0: 9454 153c b1c6 6b3a 4c6a 5ebd d59e 1dbc
000000e0: 2581 7ebd 5c55 333d dd8a fb3c 14ab 0e3d
000000f0: 1477 c03d 6ddd 81bc eed1 4e3c b412 4f3c
00000100: c67f 083e de0d 6e3d 1fc5 b4bd 9a59 8fbd
00000110: f348 98bd 6597 b8bd 862c 6b3d e47b 1fbb
00000120: f6fe 88bd 0e86 e9bd 289f 263d 9673 57bd
00000130: a6dd 28bd 9adb 93bc ac20 14bd c98f b2bd
00000140: 90a1 c53d 5c31 bbbd a8a6 983d 69ef 753d
00000150: e92e 003d 4294 ad3c 130e d83c 561c 1e3c
00000160: e007 613d 373a 04bd 19be 993c 0b0e 8c3d
00000170: 28fe 4e3d ca8b aebc 2e35 f73c dd37 c6bd
00000180: db58 823d 1a80 91bd 30ce ddbd 335f d3bc
00000190: e306 273d 5ebb 993b 1fce cd3d e9e6 953d
000001a0: 4ed8 20bd 3700 f2bd 9487 963d 0e07 afbd
000001b0: bd95 cabd 66b9 d4bb e529 313d 8cff 923b
000001c0: f091 8a3c 8005 a43d 40c4 313d 8702 98bd
000001d0: dce9 423d 8143 113c b1bc 293d c580 b6bc
000001e0: 0a24 69bd 4606 8b3b 4f19 293d 1d18 b73a
000001f0: 0219 183b 5c00 9cbd 07b0 95bd 7edc 5ebd
00000200: 40f6 adbd dab0 d7bb 5b1e b73c 22cc 75bd
00000210: 89c4 43bd 6a23 a2bd ff00 39bd 9a7b 03bd
00000220: 34a6 44bd 142e bb3d 5038 a73b 4bd7 583b
00000230: 4d68 8ebd 4461 45bd ba65 5dbd 10e0 7abc
00000240: 92fa 8f3d fe11 b2bd 0314 88bc b3cd eabc
00000250: ce27 2e3d 00b1 ecbc 7307 a73d ecfb d23d
00000260: 5b0e 15bc 90f6 2cbd 71da 5bbc 9659 b0bd
00000270: cb75 9ebd fb60 eb3c 89be 0dbd 04de a13d
00000280: 422e 4dbd 4bbf 613d 99dc 493c 9249 d439
00000290: 9a02 5fbd 8bcf 58bd 9e7e bf3d ef18 a5bd
000002a0: 5aba bbbd fffb 8c3d 7355 863d 6e5a b53d
000002b0: 0bd0 893d bd2f ac3d 7d6f bfbc 430c c03d
000002c0: 97fd 87bd 8bb3 a4bd e99a fd3c 6ef1 6339
000002d0: e04d 953d 4250 0e3c 6d0e 4f3b a77b 873d
000002e0: c712 093d 305b 41bc d0c0 be3c 1822 6d3d
000002f0: b141 c23c e3a0 a33d 7883 cd3d c883 18bd
00000300: cf74 e33c 0a13 bf3d 6e85 8fbd bc7d b03d
00000310: 4300 babd 3192 553d 3dda 653d 426c 853d
00000320: 6c79 0bbc c8d0 a6bd e6fa c2bd 0633 aabd
00000330: 9481 86bd 31a3 1ebd 07a8 b9bd 06cd b43d
00000340: 080b 803d a122 823d 19f4 9f3d 4137 ac3c
00000350: 307f 6a3d c943 f0bc eaed 84bd 4d64 603d
00000360: 130c d23c a74f 4cbd fc28 90bd 5c39 2abb
00000370: 2079 32bd 0363 5a3d 0309 d2bd ffed 913d
00000380: ad39 90bd 8607 0ebd 4a5b 253d 8b53 303d
00000390: 8773 bfbd ae5b 1a3d 3c0c 99bd c57b 753d
000003a0: 8d7a 50bd 5182 49bd 2949 05bd 1e0a 4c3d
000003b0: 7036 d03d d92e ef3c 72fd a53d 8d5f b6bc
000003c0: b912 ce3d 675f 4d3d 0f03 0cbd 990c b53d
000003d0: f85d 893d e729 91bd c60d b9bd 5341 53bc
000003e0: 1e83 90bd 0622 9b3c 2dfb edba d33e 173c
000003f0: 0453 603d 4aa7 cbbd 27d3 bebd a209 513c
-0.09442374 -0.09980374 -0.0044595227 -0.05651362 0.0865332 0.091764174 -0.010992109 0.05426298
0.04877239 0.074931346 -0.05699102 0.08196732 -0.04699301 -0.004385256 0.08886565 0.036798533
0.031568643 -0.08472553 0.060172383 0.06567786 0.037505973 -0.07843929 -0.04773291 -0.06310718
0.048928123 -0.064635046 -0.08457818 0.035963066 -0.06502692 -0.046790645 -0.09107051 -0.034156084
-0.017444942 0.013500706 0.113169394 0.02279118 0.07742881 -0.04213808 -0.0155116515 -0.0024137064
0.029668942 0.05658933 0.07376304 -0.107400075 -0.064577214 -0.055695847 -0.075169526 -0.08238818
0.047765635 -0.07800103 0.05506053 -0.056881387 0.009114403 0.0008994146 -0.05430059 -0.009620388
-0.06213488 0.043782577 0.030705864 0.03483112 0.09397712 -0.015852654 0.012623293 0.0126387365
0.13329992 0.058118694 -0.0882666 -0.06999512 -0.07435789 -0.09013251 0.057415508 -0.002433532
-0.06689255 -0.11402522 0.040679127 -0.052600466 -0.041227005 -0.01804905 -0.03616397 -0.08718831
0.09649956 -0.09140274 0.07453662 0.060042772 0.031294737 0.021188859 0.026373899 0.0096503105
0.05493915 -0.03228208 0.018767403 0.06838616 0.05053535 -0.021306891 0.030176725 -0.09678624
0.06364604 -0.071045116 -0.10830343 -0.02580223 0.040778052 0.0046915254 0.1004908 0.07319433
-0.039268784 -0.11816447 0.07350078 -0.085462674 -0.098918416 -0.006491828 0.043252844 0.00448603
0.016915292 0.080088615 0.04340005 -0.07422357 0.047586307 0.008866192 0.041439716 -0.022278199
-0.056919135 0.004242691 0.0412839 0.0013968978 0.0023208265 -0.07617256 -0.07308965 -0.054409496
-0.08494234 -0.0065823616 0.022353342 -0.06000913 -0.047794852 -0.07916911 -0.045166966 -0.032100298
-0.048010066 0.09139648 0.0051031485 0.003308731 -0.069534875 -0.048188463 -0.054052092 -0.01531221
0.07030214 -0.08694838 -0.016611105 -0.028662538 0.04251843 -0.028892994 0.08155718 0.103019565
-0.009097661 -0.042227328 -0.01341878 -0.08610837 -0.07737311 0.028732767 -0.034605537 0.07903674
-0.050092943 0.05511407 0.012320661 0.00040490605 -0.05444584 -0.052932303 0.09350322 -0.08061396
-0.09166403 0.06884002 0.06559267 0.08855139 0.06729134 0.08407543 -0.023368591 0.09377339
-0.06640165 -0.080420576 0.030957656 0.00021738347 0.07290244 0.008686127 0.0031594292 0.06615382
0.033465173 -0.011801526 0.0232853 0.057893842 0.023712965 0.07989671 0.10034841 -0.03723505
0.02776566 0.09329803 -0.070078716 0.08617732 -0.09082081 0.052141372 0.05611633 0.06514789
-0.008512836 -0.081452906 -0.09520511 -0.08310513 -0.06567684 -0.03872985 -0.09065252 0.088281676
0.06252104 0.06354261 0.0781023 0.02102244 0.0572502 -0.029329197 -0.06490691 0.054783154
0.025640523 -0.04988065 -0.07039067 -0.002597413 -0.043572545 0.05331708 -0.10255625 0.07125472
-0.07042251 -0.034675144 0.040370263 0.043048423 -0.09348207 0.03768509 -0.07473037 0.05993249
-0.050898124 -0.049196545 -0.032540474 0.049814336 0.10166633 0.029197143 0.081049815 -0.022262359
0.10062165 0.05013981 -0.034182604 0.088402934 0.06707376 -0.0708807 -0.0903583 -0.0128939925
-0.070562586 0.018937122 -0.0018156521 0.009231287 0.05476667 -0.09944017 -0.09317618 0.012758644

layers.3.weight f4 [256]
00000000: f7cf 803f f83c 7c3f 8e5d 7f3f b3c5 7e3f
00000010: 39ad 803f b93d 7a3f a784 7a3f ae7b 7d3f
00000020: 9f7c 813f 4a5c 793f f819 7d3f 1bef 7d3f
00000030: 0aa8 813f fcd1 833f 39a0 803f c8e5 813f
00000040: 63d7 7a3f 8e14 763f 2297 803f 04aa 813f
00000050: f8dc 7f3f c01d 803f fab2 803f a494 7f3f
00000060: d561 793f 2927 7e3f f902 7d3f f06f 7b3f
00000070: 337d 7c3f fe9f 7f3f 0398 783f 1c92 7e3f
00000080: cd9f 7d3f 804c 823f 5722 803f 369d 7c3f
00000090: 2025 7e3f b6fe 803f f243 7f3f 5f82 7f3f
000000a0: ce54 7e3f a5e2 7c3f ffad 7e3f b9fd 7b3f
000000b0: 0fba 7a3f 47e9 7e3f 2f06 783f b6db 813f
000000c0: c880 803f 2877 793f bde4 7d3f f146 7c3f
000000d0: 0060 813f d8ed 7d3f 4844 803f cbf3 7a3f
000000e0: dbd1 7f3f 5bce 7c3f 1f38 7f3f 1414 813f
000000f0: ac82 7e3f 9360 7d3f 474e 7c3f 6f30 7d3f
00000100: 82e3 803f 020b 7e3f 60b5 753f 7d39 7b3f
00000110: 358e 7f3f 3d43 813f 3e9c 803f b95a 803f
00000120: 3331 823f 357a 7c3f 5877 7b3f fc2b 813f
00000130: b2f4 813f 3536 803f 63bf 7e3f b201 7f3f
00000140: c2a4 803f 5831 7d3f ab23 7e3f 0e1c 7f3f
00000150: 2019 7f3f 0c18 743f 5477 803f 3d5f 803f
00000160: e7db 7d3f bee2 803f 3d8b 803f a4e5 7c3f
00000170: 6f68 7f3f 5001 783f a935 7e3f d50c 803f
00000180: e839 7e3f 068c 7c3f d17b 803f e9fb 7f3f
00000190: be8e 7e3f a3ef 7a3f aa68 783f 36d6 7f3f
000001a0: 4209 813f 0e07 7c3f 2d56 7e3f 5f59 803f
000001b0: 6d28 7c3f ddbd 7c3f 1eb6 7e3f a736 823f
000001c0: b125 813f dddd 7d3f 7358 813f 9257 803f
000001d0: 8c55 7e3f 7932 813f 827d 7e3f a4e1 7b3f
000001e0: a48e 7f3f 720d 7f3f ef0a 7b3f 82b2 803f
000001f0: 96d2 7e3f b628 813f b3ce 7f3f c256 7e3f
00000200: 54ae 7b3f 4de4 7e3f 6a5a 813f 6734 7e3f
00000210: 4485 7d3f 158e 7d3f bdf4 7c3f cab5 7b3f
00000220: 9cbc 7e3f 475f 7e3f f806 813f 7b6e 763f
00000230: 71e6 803f 8573 833f d304 7a3f 674f 7a3f
00000240: 4a90 7f3f e6b3 7c3f c99e 793f 1f7f 783f
00000250: 51ab 7a3f 4a3a 7f3f d78b 7f3f 5802 793f
00000260: bf19 813f 724b 813f d5c3 813f 08b7 7a3f
00000270: 1738 7d3f 8958 7b3f bd7b 823f 2b4e 793f
00000280: 20a3 7e3f 3d2f 7b3f 2311 793f b21b 803f
00000290: 24d3 7e3f 3649 7d3f 1702 7e3f 5bf2 803f
000002a0: 5466 7d3f 8065 7b3f 1e21 7b3f 507b 803f
000002b0: 4257 7f3f 5201 7e3f a92b 7d3f 1ea3 7d3f
000002c0: 315c 7e3f e566 783f 0cc1 7b3f 14fc 7e3f
000002d0: ff07 7e3f 5cb0 7a3f eee6 7e3f 3c57 803f
000002e0: 0d55 7e3f 3bf2 813f 73b9 7f3f 4c37 813f
000002f0: c18f 7d3f 77a6 7b3f 5a10 7e3f 5952 7c3f
00000300: d5ab 7d3f 0bd6 7b3f 9b27 7e3f 1649 7e3f
00000310: 0ed1 7f3f 0ac4 7f3f 1196 7c3f 0476 803f
00000320: 2b53 7c3f 27a3 7c3f 86ff 7b3f ac76 7f3f
00000330: 5e88 7b3f ef77 7c3f 1e23 7c3f 468e 7c3f
00000340: cea3 7a3f ab15 813f f265 7d3f a37e 7c3f
00000350: 36da 803f 1af4 783f 163e 803f 564f 793f
00000360: eb2c 803f 4d99 803f ee87 7c3f 68fa 7a3f
00000370: d384 7d3f ce80 7b3f 15e1 7c3f 5c9b 803f
00000380: 5268 7e3f de18 803f fb3f 7f3f 0ab4 803f
00000390: 53b5 803f 9b4c 7e3f b486 7f3f df87 7e3f
000003a0: c949 7c3f 1719 803f de12 783f 5889 7c3f
000003b0: 6d39 803f 46cd 773f 3751 7a3f fe51 7c3f
000003c0: d4d6 7a3f b85f 7d3f 1295 783f 36ca 7b3f
000003d0: 1292 7c3f f1d8 793f c1ba 7e3f b723 7f3f
000003e0: d783 7e3f 4142 803f 2b7b 7c3f 503b 7f3f
000003f0: 8e04 813f 90f2 7e3f 3582 7f3f 4f98 773f
1.0063466 0.9853053 0.9975213 0.99520415 1.0052863 0.9775043 0.9785866 0.99016845
1.0116156 0.97406447 0.9886775 0.9919297 1.0129406 1.0298457 1.0048896 1.0148249
0.97984904 0.96125114 1.0046122 1.013001 0.99946547 1.0009079 1.0054619 0.9983618
0.97414905 0.99278504 0.9883266 0.9821768 0.9862854 0.99853504 0.9710695 0.99441695
0.9907196 1.0179596 1.001048 0.98677385 0.992754 1.0077732 0.9971305 0.99808306
0.9934815 0.9878333 0.99484247 0.98434025 0.9794015 0.995747 0.96884435 1.0145175
1.0039301 0.97447443 0.9917715 0.9854575 1.0107422 0.99191046 1.0020838 0.9802825
0.9992959 0.98752373 0.9969501 1.0084252 0.9941814 0.98975486 0.9855694 0.9890203
1.006943 0.99235547 0.9597988 0.98134595 0.99826366 1.0098644 1.0047681 1.0027686
1.0171264 0.98623973 0.9822898 1.0091548 1.01528 1.0016543 0.9951078 0.9961196
1.005028 0.9890342 0.99273175 0.99652183 0.9964771 0.9534919 1.0036416 1.0029064
0.9916367 1.0069196 1.0042492 0.98787904 0.9976873 0.96877 0.9930063 1.0003916
0.9930711 0.9865116 1.0037786 0.9999376 0.9943656 0.98021907 0.97034705 0.99936235
1.008095 0.98448265 0.99350244 1.0027274 0.98499185 0.9872721 0.9949664 1.0172929
1.0089628 0.9916666 1.0105118 1.0026724 0.99349284 1.0093528 0.9941026 0.98391175
0.9982703 0.9962989 0.9806356 1.0054476 0.9954008 1.0090549 0.9992477 0.9935113
0.9831288 0.9956711 1.0105717 0.9929871 0.9903147 0.99044925 0.9881094 0.98324263
0.99506545 0.9936413 1.0080252 0.9626233 1.0070325 1.0269629 0.9766361 0.9777741
0.9982954 0.98712003 0.9750791 0.9706897 0.9791766 0.9969832 0.99822754 0.972692
1.0085982 1.0101149 1.0137888 0.97935534 0.9891371 0.9818197 1.0194012 0.973849
0.9946766 0.98118955 0.97291774 1.0008452 0.99540925 0.98939836 0.9922194 1.0073961
0.98984265 0.9820175 0.9809741 1.0037632 0.9974252 0.99220765 0.98894745 0.9907702
0.9935942 0.97032005 0.9834144 0.9960339 0.9923095 0.97925353 0.9957112 1.0026622
0.9934853 1.0152048 0.9989235 1.0095 0.99047476 0.9830088 0.992437 0.9856315
0.9909032 0.9837348 0.99279183 0.9933027 0.9992837 0.99908507 0.98666483 1.0036016
0.98564404 0.9868645 0.9843677 0.99790454 0.98254955 0.98620504 0.98491085 0.9865459
0.97906196 1.0084738 0.9898368 0.9863073 1.0066593 0.9724747 1.0018947 0.9738668
1.0013708 1.0046784 0.9864491 0.9803834 0.990308 0.98243415 0.9878095 1.0047412
0.9937793 1.0007589 0.99707 1.0054944 1.0055336 0.9933564 0.99814916 0.9942607
0.9855009 1.0007657 0.9690379 0.9864707 1.0017525 0.967976 0.97780174 0.9856261
0.9798405 0.9897418 0.97102463 0.98355424 0.98660386 0.9759665 0.99503714 0.9966387
0.9941992 1.0020219 0.9862544 0.9969988 1.0079515 0.9958887 0.99808055 0.9671678

layers.3.bias f4 [256]
00000000: 3007 553b 771e 0abc 2db2 bf3b 3209 9abb
00000010: ae48 b53b f680 56bb 169a a13b b864 e638
00000020: 097f b03b c15c 7b3c 5ec7 d73c 6e40 1e3c
00000030: 19ee 1d3c f41e f8ba 5504 63bb 48a6 5dbb
00000040: 75d4 903c 7a63 f63b 92e4 803b 3564 36bc
00000050: 7284 91bc 0a85 f6ba f140 d0bc 0495 703a
00000060: 1b98 813c ae09 a2ba f9b7 a73b f031 c3ba
00000070: 45ab 523b 72ca af3c a818 f1bb 822a d2bb
00000080: cd42 b03c 5c1f dcbb 24a9 333b 6513 e6bb
00000090: ff3d a0bb e395 92bb 01f5 7d39 a491 083c
000000a0: 9065 99bb a592 0e3c 7e97 f3bc f250 ea3b
000000b0: 74ad c4ba 82c8 f1ba 36ec 1639 98bc d63c
000000c0: 65a8 2b3c 2d82 0fbc 0421 f1bc 3846 a5ba
000000d0: 9918 0bbc 152e 17bc 6ae3 e03c 2c86 393c
000000e0: 6c11 503c da38 4b3b 7858 47bb edfe 323c
000000f0: 1c4d 2c3c 97d2 27bc b169 63bc be86 e9bb
00000100: acc6 26b9 8aca 02bc 4718 df3b b0a5 7abc
00000110: 9567 cf3c e856 aabc d945 d93b f875 05bc
00000120: f124 c7bc 0bcb 733b 25d2 56bc 1ec4 393b
00000130: 7f14 59ba 9842 c0bc 19ac 8bbb 2b8b 10bc
00000140: a987 f0bb 2098 973c fec9 bf3a 1a43 56bb
00000150: e08d 0c38 b87a cbbc 24b1 bdbb 735d b4bc
00000160: a800 2cbc 0d74 81bc 8fef e3bb 2b31 3b3c
00000170: 88e6 233a a380 80ba 1a6a 1fbc 5a34 aa3b
00000180: 81ea 593c 7000 f43c 19a3 2fbb fc8c 5f3b
00000190: c799 3a3c 4ca5 0bbc 928c 1fbc 5eec 2c3c
000001a0: 018b ee3b beef 0c3b 3ddc bdbb 867c b0ba
000001b0: bd34 72ba 7046 113b ebea 4ebc a138 533c
000001c0: 2072 d03b ca49 8eba 9ecc 31bb c2cf aebb
000001d0: cb9a 563c 0469 853c 9a35 a93b 0ded e7bb
000001e0: 4ae5 6c3b db7d a139 79cf 8bbc 2257 adbc
000001f0: 125a ee3b 9415 7b3a 37b1 e1bc b8ba 03bc
00000200: e17c 82bc 5961 89bc 4e48 8cba fb40 e93b
00000210: a58f 86bb d5d8 7a3b 25f8 b23b 93a6 e0bb
00000220: 4e23 d9bb 1fd7 baba c7f7 7c39 20d9 173b
00000230: 2e3e 0c39 a309 f5bb 94fa 07bc 4b38 933c
00000240: d156 0bbc 5623 99b9 abc8 123b fe71 f93b
00000250: e126 1fbc 5856 23bb 4852 0f3c c57a 17bb
00000260: 59a4 1a3c a7f5 3f3b 8795 2aba b724 ff3a
00000270: c43f 57bb cc07 6bbc 28a1 84bc db46 c23b
00000280: 6a42 14bb 49c7 08ba 7a77 a3bb 1c37 95bc
00000290: fb5f a03b 7819 a63c f43c 50bc a2c0 9b3b
000002a0: 4eb0 0b3c edbb dd3a 20de d83b 6666 883c
000002b0: b3f8 e2bb 32ed c83b 5f44 af3a e8f7 f2bb
000002c0: c916 253c ce7f 973c e104 e0ba 754b ce3c
000002d0: dfcd 52bc 3545 44bc d2fd 913c 60fc b43c
000002e0: 7a7f 61bc 6ebe bebb eb3e 21bc 55cb 5abc
000002f0: 8ee5 11ba 7ee7 9f3c 7528 28bc c6e3 9c3c
00000300: 65e0 cb3b a250 8b3c 030b 2b3c b081 68bb
00000310: 1599 253c fb83 533c ba2f 973b 6695 2e3a
00000320: 2fd2 26bb ae57 803c 6ded 07bc a5f4 cdbb
00000330: ab61 2f3b 5bd1 95bc b234 5eba b73a b63c
00000340: 27c5 5e3a 70bf c2bb 0b02 d93c f9c4 d6ba
00000350: 3747 9bbb c800 dfbb 7d4e 88bb c28d 183c
00000360: c34f 18bc 15bb 01bc 645c 4c3c 0595 b0b8
00000370: 40f5 05bc 0d35 463c 6ca8 02bc b015 94bb
00000380: 7015 95bb 6c73 b93c c7b5 f9bb f1ad 00bc
00000390: 3d9e 64bc 67ed c43b 416b f43b 7c3d 9eb9
000003a0: 35d4 c0bb b1bc 9bbc 0d26 d4bb 8717 20bc
000003b0: 6f7e e93c 6da7 2b3c effc 91bc 98ad 923a
000003c0: 3885 2abc fae8 95bc 074b 03bc 9807 0e3c
000003d0: 1de5 24bb d2d2 0dbc 921e 1b3c 82b2 73bc
000003e0: 21ee 3abc d224 343c 60db 873c 04db 12bc
000003f0: 993b 6b3a fbe8 9ebc 0d12 053c 77db 33bc
0.0032505505 -0.008430115 0.0058500976 -0.004700803 0.0055323457 -0.0032730675 0.0049316986 0.00010986015
0.0053862375 0.0153419385 0.026340183 0.009658916 0.009639286 -0.0018930123 -0.0034640033 -0.0033821035
0.017679432 0.0075191827 0.0039334977 -0.01113229 -0.01776335 -0.0018807959 -0.025421591 0.00091774785
0.0158196 -0.0012362504 0.005118367 -0.0014892202 0.0032145542 0.021458838 -0.0073576756 -0.0064137587
0.021516228 -0.0067176055 0.0027414048 -0.007021355 -0.004890203 -0.0044734343 0.00024219231 0.008335505
-0.0046812966 0.008701955 -0.029735323 0.0071507627 -0.0015005306 -0.0018446597 0.0001439311 0.026212975
0.01047716 -0.008759064 -0.029434688 -0.0012609428 -0.008489751 -0.009227295 0.02745219 0.011323493
0.012699466 0.0031009228 -0.0030417722 0.010925037 0.010516431 -0.01024308 -0.013880179 -0.007126658
-0.00015905005 -0.007982859 0.006808314 -0.015298292 0.025317946 -0.020793393 0.006630641 -0.008145802
-0.024309607 0.003719988 -0.013111626 0.0028345655 -0.0008280947 -0.023469254 -0.004262459 -0.008822243
-0.0073403907 0.018505156 0.0014632342 -0.0032693804 3.3510732e-05 -0.02483879 -0.005788939 -0.022017216
-0.010498203 -0.015802408 -0.006956048 0.011425297 0.00062523084 -0.0009803962 -0.009729886 0.005194229
0.013300539 0.029785365 -0.0026800095 0.0034111133 0.011389202 -0.008523297 -0.009738104 0.010554401
0.007279754 0.0021505202 -0.0057940767 -0.0013464845 -0.0009239426 0.0022167228 -0.012629251 0.012891919
0.006361261 -0.0010855731 -0.0027130018 -0.0053348253 0.013098429 0.016285427 0.0051638605 -0.007077819
0.003614741 0.00030802083 -0.017066704 -0.021159712 0.007273921 0.00095781055 -0.027550323 -0.008040123
-0.015928688 -0.016770052 -0.0010702701 0.007118342 -0.004106479 0.0038276215 0.00546171 -0.0068557947
-0.006626523 -0.0014254785 0.00024124897 0.0023170188 0.00013374604 -0.0074779554 -0.008299489 0.017971179
-0.008504585 -0.0002920876 0.002239744 0.007612466 -0.009713859 -0.002492329 0.008747645 -0.0023113948
0.009438598 0.0029290707 -0.00065072667 0.0019465898 -0.0032844404 -0.014345121 -0.016190127 0.005928857
-0.0022622594 -0.0005217684 -0.004988608 -0.018214755 0.0048942543 0.020275816 -0.012709845 0.004753188
0.008525921 0.0016916968 0.0066182762 0.01665039 -0.00692662 0.0061317915 0.0013371817 -0.0074148066
0.010076233 0.01849356 -0.0017091298 0.025182465 -0.012866466 -0.011979391 0.017821226 0.022092998
-0.013763303 -0.005821041 -0.009841661 -0.013354142 -0.00055655173 0.019519564 -0.010263552 0.01915158
0.0062218183 0.017006222 0.010439637 -0.003547769 0.010107298 0.012909885 0.0046138437 0.00066598353
-0.002545487 0.015666809 -0.008296353 -0.0062852674 0.0026761096 -0.018288305 -0.000847648 0.022244794
0.0008498006 -0.0059432313 0.026490232 -0.0016385607 -0.004738714 -0.006805513 -0.004159747 0.009311141
-0.00929636 -0.007918139 0.0124731995 -8.420091e-05 -0.008176148 0.012097609 -0.007974725 -0.004519187
-0.0045496747 0.022638045 -0.0076205465 -0.007853971 -0.013953743 0.006009746 0.0074590747 -0.00030181918
-0.005884672 -0.019010874 -0.0064742626 -0.009771234 0.028502671 0.010476929 -0.017820803 0.0011190651
-0.010407738 -0.018299568 -0.008013493 0.008668803 -0.0025160976 -0.0086562205 0.009467738 -0.014874103
-0.011409313 0.010995107 0.016584098 -0.00896335 0.00089734193 -0.019398203 0.008121979 -0.010977617
