scripts/model_params/twitter_5_critic.pth (torch, 390834 bytes, 17 tensors)

state_input.weight f4 [128, 65]
000000 e6 32 8b bc 94 68 f8 39 80 a3 a7 bb 08 5f 0d 3c
       -0.016992044 0.00047380163 -0.0051159263 0.008628614
000010 1b 29 af 3b af e1 35 3c 97 70 21 bc 1c e8 28 3c
       0.0053454763 0.01110117 -0.009853504 0.010309245
000020 f9 88 d4 bb 32 26 d7 3c fc 1c 50 ba a6 cc ae bb
       -0.006486055 0.02626333 -0.00079388893 -0.0053344546
000030 86 a7 82 3b 74 06 0e bc 85 0f 57 3b 32 8c 66 3c
       0.0039872555 -0.008668531 0.0032815647 0.014071511
000040 44 87 07 bc 5d 9a 80 3b 93 a2 d4 3c 72 00 bf bb
       -0.008271996 0.0039246515 0.025956428 -0.0058289105
000050 f8 1a 6a 39 f8 56 46 3c bd 8c 23 39 5b fe 08 3a
       0.00022326026 0.012105696 0.0001559732 0.000522589
000060 00 2b c5 3b 6e 8e 97 bb 0c 10 77 bb 2d 60 4a bc
       0.006017089 -0.0046251332 -0.0037698774 -0.012352032
000070 13 f9 09 bc 3a e7 9c bc 12 c2 39 3b bf 22 09 3b
       -0.0084212 -0.019153226 0.0028344435 0.0020925251
000080 a2 45 37 bb 17 5c f6 bb 9d 21 ae bc 0c 9b 04 3c
       -0.0027965088 -0.007518302 -0.021256262 0.008093607
000090 2a 63 8e 3b fd 30 fc 3b 18 6d 18 3c 30 3e 33 3c
       0.0043453174 0.0076962695 0.009303354 0.01094012
0000a0 76 47 15 bb 2c ff d1 3c 97 3a 3a bb 61 eb 24 3b
       -0.002277819 0.02563437 -0.002841627 0.002516471
0000b0 f6 44 09 bc 6e 9a 4b 3c b0 e5 93 3b c0 0f ab bc
       -0.008378258 0.012426956 0.004513465 -0.020881534
0000c0 ec dd 5c 3c 14 fc cc bb e2 8f de bb 22 80 80 3b
       0.013480645 -0.006255636 -0.0067920545 0.0039215246
0000d0 09 5a 9d 3c b2 c1 17 3c 47 f0 89 bc b6 46 1b bc
       0.019207971 0.009262489 -0.016838206 -0.009477308
0000e0 cc 48 99 3c 30 85 8c bb 13 91 e4 b8 ea f7 03 3c
       0.01871147 -0.004288338 -0.000108989094 0.008054713
0000f0 fc 91 d8 3b e6 24 a5 bc 6e 35 d6 3a 8d 23 c8 bc
       0.0066091996 -0.020159196 0.0016342828 -0.024431014
000100 12 36 91 3b 8c 8c 12 3c eb f0 58 3c d3 78 5a 3b
       0.0044314945 0.008944642 0.013241033 0.0033336177
000110 d0 62 68 bc 04 4f 22 3c dd 7c d0 3b 42 04 aa 3b
       -0.014183715 0.009906534 0.006362541 0.005188496
000120 f4 18 2e bc d7 e2 d7 3c 86 3b 1d 3c a2 42 da bb
       -0.0106260665 0.026353283 0.009596711 -0.0066607753
000130 92 c2 64 3c 92 22 0c 3b 4f b3 22 bc 77 8f e5 3b
       0.013962405 0.002138291 -0.009930446 0.0070056277
000140 60 5e 1e 3c e5 41 fd 3b 97 9c ff 3b 8a a1 a6 3c
       0.009666055 0.0077288025 0.0078006494 0.0203407
000150 2e 55 05 3c 4a 23 8a bc ba db 0d 3b 65 fc 10 bc
       0.008137984 -0.01686253 0.002164586 -0.008849238
000160 a5 bd 1b 3b c5 3d 31 bc 9c 22 f0 bb 93 27 49 ba
       0.002376416 -0.01081795 -0.0073283445 -0.00076734385
000170 79 56 88 ba 57 51 34 bc fe ab b2 ba 17 49 e0 3b
       -0.0010401747 -0.011005721 -0.001363158 0.0068446505
000180 4b 44 65 bc 85 21 8c bc f2 b5 0c 3c d3 40 80 bb
       -0.013993333 -0.017105827 0.008588301 -0.0039139776
000190 a2 7a 26 3b 9d b7 51 3c 59 45 87 3b b9 59 b8 3b
       0.0025402685 0.0128001245 0.00412814 0.00562593
0001a0 c6 7e 70 3c 86 cf 97 3c 83 38 1e bb c9 e8 5d 3c
       0.014678663 0.018531572 -0.002414257 0.01354427
0001b0 cf ca 2e bc 6d 5b a7 ba a6 93 62 3c 07 42 b8 bb
       -0.0106684705 -0.0012768336 0.013829147 -0.0056231054
0001c0 d2 5f d2 3b 0c 33 ff 3b ed 71 b5 bb 39 39 a1 3c
       0.006420114 0.0077880677 -0.0055372627 0.019680606
0001d0 e5 67 a2 bb c7 48 0d 3b 0f dc 09 bb 74 75 4c bb
       -0.004956233 0.0021558271 -0.0021035706 -0.0031197937
0001e0 07 23 69 3b 85 b1 59 3c a1 a1 a6 3c 1c a4 2c 3c
       0.0035573856 0.013286953 0.020340743 0.010537174
0001f0 65 8d 55 3c 0c 18 ec 3c e5 f5 ac 3a bc 68 26 3b
       0.013034199 0.02882006 0.0013195841 0.0025392016
000200 c4 9a 34 3b 83 57 ff 3a 35 06 75 bb d4 49 61 bb
       0.0027558068 0.0019481037 -0.0037387733 -0.003437628
000210 d2 8f a2 bc d5 50 18 bc 19 10 4b 3c 65 7f cb bb
       -0.01984397 -0.009296616 0.012393975 -0.006210255
000220 a7 86 f3 bc 75 8d 34 ba 82 30 c2 bb db 94 8e bc
       -0.029727293 -0.0006887534 -0.0059261927 -0.017404964
000230 09 06 6b 3c b6 51 80 3c e0 15 99 3b a1 19 d7 3b
       0.014344701 0.015663963 0.004671797 0.0065643345
000240 f4 16 70 3c e4 65 bb bb 0d ab 94 3b 02 28 ad 39
       0.01465391 -0.0057189334 0.0045369924 0.0003302694
000250 57 4e 8b bb f4 ec c2 3b 44 37 8b 3b 90 77 d3 bb
       -0.004251282 0.005948657 0.0042485315 -0.006453462
000260 41 d9 ae bb 12 9a 0f ba ab b4 1f bc 4d 9e 47 3c
       -0.0053359573 -0.00054779754 -0.009747664 0.012183738
000270 2d 4f b6 bb d9 d5 a8 38 c7 0b cb bb 53 e0 cf bb
       -0.0055636377 8.0506965e-05 -0.0061964723 -0.00634388
000280 05 69 53 bc 63 19 86 3c 89 3f 47 3c 8f a7 a0 3c
       -0.012903457 0.016369527 0.012161144 0.019611148
000290 01 ff 8c bc 46 81 40 ba 95 5d c1 3a 6e 0b 44 bc
       -0.01721144 -0.0007343482 0.0014752621 -0.011965616
0002a0 ee 49 9f 3c 33 8f be 3a 32 7b 7b 3c aa fe 03 bc
       0.019444432 0.0014538526 0.015349196 -0.008056322
0002b0 d4 36 1a bb 44 3f 81 3c 64 e9 4c bb b8 fb a9 bc
       -0.0023531215 0.015777238 -0.0031267041 -0.020749912
0002c0 4d 00 44 ba 52 dc 17 bb 57 32 34 3c 85 25 af bc
       -0.00074768515 -0.0023172093 0.01099833 -0.021380195
0002d0 80 fd 3e bb 14 93 36 3c 32 7b 22 3c ab 7b ef bb
       -0.0029142797 0.011143465 0.009917067 -0.0073084435
0002e0 9f c2 9b 3a d9 0f 0d bc 57 42 47 ba 9d 52 cc bb
       0.0011883563 -0.008609735 -0.0007601133 -0.006235434
0002f0 eb 44 74 bc 57 7b 2a bc 65 e5 28 3c 69 ac 43 3c
       -0.014909009 -0.010405383 0.010308598 0.011942961
000300 a4 0d ba bb 29 3f 22 3b d2 f1 97 3b e7 93 d5 bb
       -0.0056778956 0.0024756885 0.0046369815 -0.0065178755
000310 0c 42 fe 39 81 b8 64 3c 22 a2 1a bc 52 78 b1 bb
       0.00048495864 0.013960005 -0.00943807 -0.0054159546
000320 af cc 3d 3b a1 68 50 bc 1c 7c e8 bb d9 f9 d3 bb
       0.0028961112 -0.012720258 -0.007094873 -0.006468993
000330 e0 e7 bb 3b 94 c9 9f 3b 93 35 2a ba 24 8f b8 3b
       0.0057344288 0.004876325 -0.00064929685 0.005632298
000340 67 6e d6 3a 3b ac ef 3b e6 65 ee 3b 7e 1b c4 bb
       0.0016359807 0.0073142326 0.007275331 -0.0059847226
000350 27 2a 6e bc 4b 04 20 3c a2 71 36 3c c7 b1 17 3b
       -0.014536417 0.0097666485 0.011135491 0.0023146735
000360 a6 e9 62 bc 8d f6 80 b9 2e 21 aa 3b b0 c5 11 3b
       -0.013849651 -0.00024597757 0.0051919436 0.0022243075
000370 6a a1 cf 3a 37 0a 25 3b 0b de a8 3a 53 82 84 bc
       0.0015840952 0.002518309 0.0012883557 -0.016175425
000380 37 ef 7b 39 90 53 57 bc 73 99 0e 3b f0 68 41 3c
       0.0002402634 -0.013142481 0.0021758943 0.011804804
000390 35 8a df bb 77 d1 3e 3b 6c bb fc 3b 9f 49 0b 3c
       -0.0068218955 0.002911655 0.007712772 0.008501439
0003a0 fb 8b 87 bc e9 34 ba bb a7 9d c2 3c 95 74 0e 3c
       -0.01654624 -0.005682577 0.023756815 0.0086947875
0003b0 c5 41 02 bc 52 06 44 bc 84 f8 93 bc 81 7f f3 3b
       -0.007950251 -0.0119643975 -0.018062837 0.007430971
0003c0 13 70 1b 3c 04 c2 c1 3c 35 cc bc bb 01 74 a2 3a
       0.00948717 0.023652084 -0.005761648 0.0012394191
0003d0 f3 db 2a 3c fd 78 04 3a 42 e0 d0 3b 4b f4 34 3c
       0.010428417 0.0005053429 0.00637439 0.011044572
0003e0 17 ad 8b 3b db c6 6d 3b 64 21 c2 3c b2 eb 6c b9
       0.0042625773 0.0036281857 0.023697563 -0.00022594517
0003f0 4a 7c 8b 3c 9b 73 c4 39 3f d6 a1 3b 12 be 8c 3c
       0.01702704 0.00037470166 0.00493887 0.017180476

state_input.bias f4 [128]
000000 33 38 19 3d a7 88 8d 3c e5 7f 97 bd d3 31 09 3d
       0.03740711 0.017277075 -0.07397441 0.03349478
000010 f7 59 27 bd 43 32 15 3d 57 de 2b 3d 03 a6 40 3d
       -0.04085728 0.036424886 0.041960087 0.04703332
000020 b3 46 05 bc 6a 8f 6a 3d ca ba 5f bd f2 59 99 3d
       -0.008134532 0.057265677 -0.054621495 0.07487859
000030 3b da b2 bd ba d5 03 3d 5a 4d c1 3d b7 75 19 bd
       -0.087330304 0.032186247 0.09438582 -0.037465777
000040 b3 26 6c bd f3 a9 df bc 3f 06 c1 bd 40 3a 87 bd
       -0.057654094 -0.027302718 -0.094250195 -0.06602907
000050 80 4d 6d bc 40 a8 6f bd f7 74 32 bd e8 68 c0 bd
       -0.0144838095 -0.058510065 -0.043568578 -0.09395009
000060 13 d0 83 3c f3 75 8b bc 73 f5 07 bd a8 19 b7 bd
       0.016090428 -0.017024016 -0.033193063 -0.089404404
000070 d5 45 a5 bd 10 28 47 bd 4d e8 a0 3d b3 fa 52 3d
       -0.0806996 -0.04862219 0.07856808 0.051508617
000080 00 8c c0 bd b3 0a 1d bc 00 c7 ed 3b 20 ad 45 bd
       -0.09401703 -0.00958507 0.0072563887 -0.048260808
000090 1d 00 32 3d c2 a0 b9 bd 4d 77 20 3c 8d 69 a9 bc
       0.04345714 -0.09063865 0.0097940685 -0.020680213
0000a0 6d d1 a0 3d 73 c2 b4 bc 4d cf ae 3b ba 03 37 3d
       0.07852445 -0.022065377 0.005334771 0.04468129
0000b0 67 51 6c 3b db 2b b8 bd 1d 6c 40 bd af dc c6 3d
       0.0036059262 -0.0899274 -0.046978105 0.09710061
0000c0 f5 a2 bf 3d 80 80 a9 3d 35 e0 ca bd b3 b4 ac bc
       0.093572535 0.082764626 -0.09906045 -0.021082258
0000d0 c7 b3 ac 3c 6a e9 3d bd 3f 52 9c 3d c0 44 0b 3c
       0.021081818 -0.04636518 0.07632875 0.008500278
0000e0 cd ba f0 bc c8 45 bf 3d 5a 49 e2 3c cd bb 82 3d
       -0.029385949 0.093394816 0.027622867 0.063834764
0000f0 d3 70 52 bd c0 76 0b 3c 63 1d 3d bd a7 eb be 3d
       -0.05137713 0.008512199 -0.046170603 0.09322291
000100 d2 39 ac 3d c0 22 32 bc f5 50 83 bd 7b ff b5 3d
       0.08409466 -0.010872543 -0.06411926 0.0888662
000110 6b bd c1 bd bd 89 c0 bd 5b b7 b1 3d 07 75 af bc
       -0.09459957 -0.094012715 0.086775504 -0.021418108
000120 63 4c a3 3d c0 52 af bc db b6 9f bd cd d0 c8 3d
       0.07973554 -0.021401763 -0.07798549 0.098054506
000130 cd b6 e3 bc 9a 4d e5 bb 1a f6 10 3d 6b 51 ba 3d
       -0.027797127 -0.006997776 0.03539095 0.090975605
000140 4d 86 20 bd a7 7e 8a 3c fd e8 37 3d 2d f8 53 bd
       -0.03919058 0.016906096 0.04489993 -0.05175035
000150 cd b3 bf 3d 73 f0 bb bc d3 9e 14 bd 8d 1e 1e 3c
       0.09360466 -0.022941804 -0.03628428 0.009650839
000160 d0 1c 75 bd 42 f3 a6 bd 37 5f 8d bd a3 44 6a 3d
       -0.05984193 -0.081518665 -0.069029264 0.057194363
000170 1a ed 5e 3c 0a 31 15 3d a0 bf d1 3c 0f 00 a7 3d
       0.013606334 0.03642372 0.02560407 0.08154308
000180 40 4c 5f 3d 43 90 9e bd 4d da 95 3c ba 18 1e bd
       0.054516077 -0.077423595 0.01829257 -0.0385978
000190 cf 48 91 bd 8b ec 9a 3d f3 33 27 3c 17 11 2a 3d
       -0.07093965 0.07564648 0.010205257 0.041520204
0001a0 6b 46 b1 bd a7 7b 84 3c 3a 6f 46 3d c0 05 a0 bd
       -0.08656009 0.016172243 0.048445918 -0.07813597
0001b0 67 6e 2c bd ad 47 a0 3d a7 1a 59 bd a7 02 f9 3c
       -0.042097475 0.07826171 -0.053003933 0.030396773
0001c0 2d d7 e6 3c ed b4 34 bd cd 4a 3c bb 70 62 91 3d
       0.028178776 -0.044117857 -0.0028731108 0.070988536
0001d0 90 33 3e bd 1f 22 b4 bd 9a e7 99 bc 50 0d 80 3d
       -0.046435893 -0.087955706 -0.018787194 0.06252539
0001e0 4a 6b 7f 3d 2d 3e ef bc 20 b4 78 bd 57 ee b8 bd
       0.06235818 -0.029204452 -0.060718656 -0.09029835
0001f0 c7 4f e8 bc e7 fa 9c bc f3 25 50 3c 8d 19 9b bc
       -0.028358353 -0.019162608 0.01270436 -0.018933082

action_input.weight f4 [128, 30]
000000 e9 68 2b 38 00 63 b0 3a 40 e2 b7 bc 34 e6 0d 3c
       4.0867282e-05 0.0013457239 -0.022446752 0.008660842
000010 87 b7 63 3b 9e 45 85 bc fc e4 f1 3a f7 de af 3c
       0.0034746842 -0.016268548 0.0018455083 0.021468623
000020 53 0d c1 bb 70 e2 37 3b 5d 7b 8f bb 5e c8 e6 bb
       -0.005891481 0.0028058551 -0.0043787197 -0.0070429286
000030 93 7d f9 bb ed 58 41 3b 87 c6 68 3a 84 60 a8 bc
       -0.0076138466 0.0029502467 0.00088796805 -0.020553835
000040 aa 86 8b ba 0a 5c 08 3c 0f cc 63 3c 0f 11 b7 bc
       -0.0010644991 0.008322725 0.013903632 -0.022347001
000050 23 8c 13 bc ed 61 3a 3b 6e 72 60 bc 4f 03 90 bb
       -0.009005579 0.0028439716 -0.013699157 -0.0043949257
000060 fe c8 3d bc 9c 95 5e bc 60 e0 31 bc f9 70 0b bb
       -0.011583565 -0.013585474 -0.010856718 -0.0021277054
000070 5a f2 91 3c 94 1e 23 3c bc 44 64 bc 89 4d e5 bb
       0.017815758 0.009956021 -0.013932403 -0.0069977683
000080 6f 94 19 3a 8e 13 a4 bb 6b 86 de bc 95 e4 1a 3c
       0.0005858605 -0.005007214 -0.027163705 0.009453912
000090 b9 17 73 bc 8b 6c ae bb 42 d1 e9 bb cb d1 b6 bb
       -0.014837199 -0.005322998 -0.007135541 -0.0055792085
0000a0 52 0e 20 3c 67 5b ad bb c4 4f e7 3b c2 bb 05 bc
       0.009769039 -0.005290437 0.0070590694 -0.008162441
0000b0 57 52 3b bc 70 df 6f 3c 89 87 ba bb 64 7b a7 bc
       -0.011433206 0.014640674 -0.0056924266 -0.02044458
0000c0 1d 71 6a bc 0d 6f 0a bc 77 80 b5 bb de c9 f5 bc
       -0.014309195 -0.008449328 -0.005538996 -0.030003484
0000d0 61 41 a7 3c 82 eb ec 3b ee 79 bd ba 39 5c 19 3c
       0.020416917 0.007230223 -0.0014455894 0.0093603665
0000e0 e4 4c 59 3c ac 78 53 bc 58 25 a1 3c fb a9 79 3c
       0.013262961 -0.012907188 0.019671127 0.01523828
0000f0 09 7d 16 bb 0a b9 be 3c 58 1e 54 bc 87 cc 68 38
       -0.002296271 0.023281593 -0.012946688 5.550359e-05
000100 d7 03 c4 bc 1c 55 b2 39 14 23 81 3b 6e 48 93 3b
       -0.023927612 0.00034014217 0.003940949 0.0044947183
000110 2a 47 41 bb 1f 83 0f 3c 3b 01 23 bc 44 bc 94 ba
       -0.002949188 0.008759289 -0.009949024 -0.0011347611
000120 64 41 98 3a 52 d1 8f 3c 68 29 1b bc ef 1f 7a ba
       0.0011616168 0.017555866 -0.009470321 -0.00095415016
000130 e7 f6 03 3c a2 a9 ee bb d5 3d 57 bc 7d 65 dc bb
       0.008054472 -0.0072834054 -0.0131373005 -0.0067259655
000140 95 93 d1 bb dd eb 8d bc 72 bc 4a 3b 20 00 3c 3c
       -0.006395767 -0.017324382 0.0030935076 0.011474639
000150 d0 dc 45 bc 92 5f 47 3c 90 7f 9a bc 52 07 27 bc
       -0.012076572 0.012168782 -0.018859655 -0.010194616
000160 5e f1 24 3c 9e e5 0f bc 15 11 db 3b 12 6f 74 3c
       0.010067312 -0.008782772 0.006685386 0.014919059
000170 14 fb 64 3c 6f 53 7e bc 0c d2 e2 3c e4 cd 2c 3b
       0.013975877 -0.015522822 0.027688049 0.0026367838
000180 f7 80 25 bc 06 40 e0 bb 95 07 19 3b 6e 9c c5 3a
       -0.010101548 -0.0068435697 0.0023350467 0.0015076527
000190 f7 db 8f bb 5e 3b 7f bc a6 fd b4 bb 47 c4 ff bb
       -0.0043902355 -0.015578119 -0.0055234013 -0.0078053805
0001a0 ef a9 8b bb e1 86 7e 3c ae 1c dc 3b c2 2a c9 3b
       -0.004262201 0.015535087 0.006717286 0.0061391303
0001b0 39 a4 94 bc ce 01 9d bb 33 1c 30 bb 2e 5d 6b bc
       -0.018144714 -0.004791475 -0.0026872277 -0.0143654775
0001c0 18 10 fd bb f7 f5 20 3c 8b 9c 53 bc 90 6b db bb
       -0.007722866 0.009824268 -0.012915741 -0.006696172
0001d0 68 6d 0f bb 67 85 28 bb 72 ef 0f ba 00 84 ee bb
       -0.002188528 -0.002571428 -0.0005490697 -0.007278919
0001e0 0a ae 60 3c a9 1b 85 3c 61 62 53 3c 09 b5 0e 3c
       0.013713369 0.016248541 0.012901873 0.008710154
0001f0 02 3c 17 3b e7 72 c8 bb 40 b8 95 3c 01 0b 17 3b
       0.002307654 -0.006117213 0.018276334 0.002304733
000200 c1 cf 27 bb c5 6d 4a 3c 6e 86 bc 3b a9 66 19 bb
       -0.0025606009 0.012355273 0.00575333 -0.0023407137
000210 42 e4 8a 3c 47 40 0d 3c d0 96 e5 bb c7 be 9e 3b
       0.016954545 0.008621282 -0.0070065036 0.00484452
000220 18 5e ab 3b 64 c8 a4 3b 5d 93 8f bb 20 e2 da bb
       0.0052297227 0.0050287712 -0.0043815807 -0.006679788
000230 52 2d 9f bc 4c 30 6c bb 0d 25 86 3c 62 b0 8f 3a
       -0.01943079 -0.003603953 0.016375089 0.00109626
000240 33 78 32 3c 6c 24 ef ba 67 0b 46 b8 2b fd cd 3b
       0.010892916 -0.0018245107 -4.7217498e-05 0.0062862835
000250 b0 66 a3 bb 06 52 33 3c 69 9c ee 3b 8e ff 1d bc
       -0.0049866065 0.010944849 0.007281829 -0.0096434485
000260 fb 2a a4 3c ea ec c6 bb 4b d6 01 3b c9 fe be bb
       0.020040026 -0.006070723 0.0019811566 -0.0058287126
000270 06 43 b8 ba e7 70 db bb db fa b9 bb 2f 65 4f bc
       -0.001405806 -0.0066968086 -0.0056756563 -0.012658401
000280 e6 c4 8a bc bd 5d a8 bc db 67 34 3c c4 46 8b ba
       -0.016939592 -0.02055251 0.011011089 -0.0010625948
000290 64 5a 46 3b d7 71 3f bb c5 0f 40 bb 4e e7 7a 3c
       0.003026628 -0.002921214 -0.0029306274 0.015313936
0002a0 8a 3c b3 3c ab 83 f9 3b da eb 99 3b ad 34 18 3b
       0.021879453 0.007614573 0.004697305 0.0023224757
0002b0 4b 6d 2f 3b c1 0e ab 3a 9c 75 57 bc 49 06 46 3c
       0.0026768025 0.0013050662 -0.013150599 0.012086459
0002c0 b9 ad ce bb 7a cf 99 bb c7 63 b6 bb 4b 82 c6 3b
       -0.0063073304 -0.0046939226 -0.0055660936 0.0060580126
0002d0 62 20 6d 3b 2f f0 c0 3b b6 18 04 bb b7 0c 9c 39
       0.0036182632 0.005888007 -0.002015633 0.00029764112
0002e0 fd 06 1c 3c 37 35 7c bb 87 46 90 3c 54 fb dc b9
       0.0095231505 -0.0038483867 0.017611755 -0.00042148924
0002f0 b5 ae da b9 58 b6 64 3a 8b 7b e8 3a a0 44 f3 bb
       -0.00041710367 0.0008724681 0.0017737014 -0.007423952
000300 f2 68 b9 3b e2 50 d3 3b 29 7a 04 3c 8d fa 1e 3c
       0.0056582624 0.006448851 0.008085766 0.009703291
000310 cb 4b 0f 3c 6e a6 47 ba 5d fd 03 3c b3 0e 53 3c
       0.008746098 -0.00076160475 0.008056012 0.012881923
000320 21 b9 fa ba 61 69 47 bc ea 8c b9 3c 06 0f 46 bc
       -0.0019128659 -0.01217112 0.0226502 -0.012088543
000330 14 ed 83 bc 62 1c 13 3c 89 cb cd bc 72 60 47 3c
       -0.016104259 0.008978935 -0.025121467 0.01216899
000340 71 a1 16 bc 9e 0a b9 3c 2c cb 88 bc 0a cd eb 3a
       -0.009193764 0.02258807 -0.016698442 0.0017990184
000350 12 46 7d bb 26 1b d9 3a 2e ec a6 3b 46 b9 b5 bb
       -0.0038646501 0.0016563877 0.005094073 -0.005545768
000360 b0 31 60 bb ba 14 18 bc 41 a6 c2 bb 72 b7 9b 3b
       -0.0034209304 -0.009282285 -0.005940229 0.004752093
000370 a5 c1 bd 3b 84 09 8d bc 42 40 13 bc 2e 2e 5a bc
       0.0057909065 -0.017216451 -0.008987488 -0.013316674
000380 f0 77 f8 bb 41 f0 7a bc 57 87 d6 3b 92 fa 86 bb
       -0.007582657 -0.01531607 0.0065468955 -0.004119226
000390 64 16 ab 3b 39 f1 0a bc 9e 73 5f 3c 61 aa b1 bc
       0.005221175 -0.0084803635 0.013638405 -0.021687688
0003a0 d8 19 17 3c 5b cb 83 3b 37 a6 52 3b 4e 57 48 3c
       0.00922247 0.0040220446 0.0032142529 0.012227846
0003b0 8d 83 c6 3b 12 63 d1 bb 30 de b7 b9 ea 40 c3 3c
       0.0060581625 -0.006389984 -0.00035070023 0.023834664
0003c0 d1 40 80 3b 5b ad 42 bc c4 47 b2 3b cf dc 26 3c
       0.0039139767 -0.0118821515 0.005440684 0.010184481
0003d0 42 b6 0f 3c c1 36 dc b9 fb 3b 52 bc d4 ee 33 bc
       0.008771481 -0.00042002465 -0.012831683 -0.010982234
0003e0 99 b6 04 bc cb 2d bb 3b f7 96 70 3b 4b 9c 34 3c
       -0.008100175 0.005712246 0.0036711076 0.011023591
0003f0 35 4b b9 3b b2 ee 77 bb ef 1b 89 3c b9 e0 31 3c
       0.0056547173 -0.0037831482 0.016736953 0.010856801

action_input.bias f4 [128]
000000 b5 4c ba bd 70 7f 8a 3d 00 6f 51 bb cd 48 51 ba
       -0.09096662 0.06762588 -0.003195703 -0.00079835654
000010 b3 17 d8 bc ad c3 8b 3c c0 04 80 bc d8 7e ca bd
       -0.026378488 0.017061079 -0.015627265 -0.09887475
000020 33 41 de 3a b8 57 c0 3d 85 50 a0 bd da 99 55 bc
       0.0016956687 0.09391731 -0.07827858 -0.013037169
000030 0a 4e 00 3d e5 3a a0 bd e2 be ca 3d 43 0e a6 3d
       0.031324424 -0.07823733 0.09899689 0.08108189
000040 cd 3b 9b bd 8a c6 8e 3d 3a a4 23 3d 2d a3 9e 3c
       -0.075797655 0.06971462 0.03995154 0.019364918
000050 27 d8 3f bc 1a f5 c8 bc da 38 a9 3d af 4f 87 bd
       -0.01170925 -0.024530936 0.08262797 -0.06606995
000060 9a 49 cb 39 f0 bb 93 bd 20 29 cc bc 80 4c 22 3d
       0.00038774015 -0.072135806 -0.024921954 0.039623737
000070 67 e6 81 bc 5a 42 27 3d 78 4d 8c 3d 0d c6 c7 3c
       -0.015856935 0.040834762 0.068507135 0.02438643
000080 ed ef ee 3c 13 0a 34 bd 98 e5 90 bd 6a d3 00 3d
       0.02916714 -0.04395492 -0.070750415 0.03145162
000090 9a c5 d9 3b b3 d9 2a bd 95 d5 9a bd a3 24 3c 3d
       0.0066458704 -0.04171152 -0.07560269 0.045933377
0000a0 40 e0 72 3d 0d d8 48 3d 30 14 86 3d 8a 8c 98 3d
       0.059295893 0.049034167 0.06546819 0.07448681
0000b0 e5 6d b1 bd 33 48 5f 3c 07 16 af 3c 68 be 95 bd
       -0.08663539 0.0136280535 0.021372808 -0.07311708
0000c0 37 b4 ab bd fd 53 16 3d ba 9d 15 bd 1a b6 e8 3c
       -0.08383983 0.03670119 -0.036527373 0.028407145
0000d0 ea d0 3e 3d 33 44 1f bc 4d e7 40 3d 73 7c b7 3c
       0.046585955 -0.00972085 0.047095586 0.02239821
0000e0 b3 09 ff bc d8 4c b3 3d 75 6e 88 bd cd 29 6d bd
       -0.031132555 0.08754891 -0.06661693 -0.057901192
0000f0 53 eb b3 3c 53 2a b1 bc 53 82 2c bd 10 1b 1a bd
       0.021962797 -0.021626627 -0.042116474 -0.037623465
000100 5d c5 60 3d f3 6d 0c bc b3 8c 4e 3c 87 e7 99 bd
       0.05487572 -0.008571136 0.0126067875 -0.075148635
000110 c5 c4 b3 3d 93 f6 a5 3c aa 82 92 bd 02 6d a2 3d
       0.08777765 0.020259177 -0.071538284 0.07930948
000120 27 df 91 3d c7 ba 91 3d fb 19 af bd 4a 80 1d bd
       0.07122641 0.07115703 -0.08549877 -0.038452424
000130 67 a6 42 3a 9a 91 70 ba db 69 c2 bd 00 67 8d bd
       0.00074253086 -0.000917697 -0.094928466 -0.06904411
000140 77 03 4a 3d b3 56 73 3c 5a e6 b6 3c 90 2b 6f bd
       0.04931971 0.014852214 0.022326637 -0.058391154
000150 03 fa 3b 3d f3 b5 33 bd 9a 97 81 bd 97 90 6c bd
       0.045892727 -0.043874692 -0.06327744 -0.05775508
000160 c3 50 9e 3d 7a 5e 12 3d 6d 66 21 bd d7 8f 01 3d
       0.07730248 0.03573463 -0.03940432 0.031631317
000170 7a 79 14 bd 23 11 b0 3d 33 00 9f bc 1a 77 68 bc
       -0.03624866 0.085970186 -0.019409275 -0.014188552
000180 fd 41 4e 3d 60 5c 88 3c 0a 87 0c 3d da 06 d9 bc
       0.0503559 0.01664561 0.03430847 -0.026492525
000190 2a 91 4c bd 8d 47 a6 3d 3d 2e bf 3d 7a 19 88 3c
       -0.049943127 0.08119116 0.09334991 0.01661371
0001a0 ed 6f be 3c c0 7f 3c bd 07 90 05 bd b3 71 ad bd
       0.02324673 -0.04602027 -0.03260806 -0.08468952
0001b0 03 b5 2a 3d 05 b6 b5 3d 08 12 8d bd 43 b7 53 bd
       0.041676532 0.08872608 -0.06888205 -0.051688444
0001c0 d3 a4 ee 3c c8 b5 bb 3d 05 67 c2 bd 10 ab 2f bd
       0.029131329 0.091655314 -0.09492306 -0.042887747
0001d0 83 81 37 3d b5 52 8b 3d 20 5f 86 bd e7 2d c0 3d
       0.044801246 0.068028845 -0.065611124 0.09383755
0001e0 d5 d4 bf bd 83 be bb 3d 1d 70 81 bd 3d d1 6b 3d
       -0.09366766 0.091671966 -0.06320212 0.057572592
0001f0 5a 8b 39 3d 4a 54 4e bd 2d 1a 20 3d e0 1e bf 3d
       0.04529891 -0.050373353 0.039087463 0.09332061

layers.0.weight f4 [256, 256]
000000 11 ff 8b 3b 1d f1 b6 3b d0 47 e1 3b b9 b7 ab bb
       0.0042723496 0.005582942 0.006875016 -0.0052404073
000010 8e 48 91 bc cc df e2 3a 13 5f 1a 3c 58 cf 7a 3c
       -0.017734792 0.0017309128 0.0094220815 0.015308224
000020 61 04 0c 3c a4 98 64 3c bb 2b 7b bc 81 ce 74 bc
       0.008545966 0.013952408 -0.01533025 -0.0149418125
000030 50 9b de 3b d5 d2 b2 3c 34 01 b9 ba fb 00 2e bc
       0.006793417 0.021829048 -0.0014114738 -0.010620351
000040 d6 7f 02 3a af 5e 5c 3b a3 af 9d bb ec b5 99 ba
       0.00049781555 0.0033625772 -0.0048121973 -0.001172719
000050 81 88 ca b8 87 a1 62 3c 3e bd f3 bb c6 1b 5d bb
       -9.6575364e-05 0.013832456 -0.007438331 -0.0033738478
000060 0d 27 1c bb ca 9c d4 3b 7f dc 0d bc 60 e3 82 bc
       -0.0023826987 0.0064884173 -0.008658527 -0.015977561
000070 bd de 3b ba 41 44 26 3b 8b 72 b9 bb a6 62 39 3c
       -0.00071666745 0.0025370272 -0.0056594065 0.0113150235
000080 96 51 ae bb a6 cd c6 3b 74 1c 9c 3b dc 41 32 3c
       -0.0053197844 0.0060669957 0.004764134 0.01087996
000090 96 a0 28 3c 02 12 bc 3a 15 46 d6 3c b9 63 44 bc
       0.010292193 0.0014348628 0.026156465 -0.011986666
0000a0 ec 07 52 ba db d5 34 bc 41 49 5a 3b 79 95 1d bc
       -0.0008012045 -0.011037315 0.0033307823 -0.009618157
0000b0 22 a3 48 3c a7 ac 71 3c 7d 45 07 ba 1e 77 ec 3a
       0.012245925 0.014750636 -0.0005160196 0.0018040871
0000c0 38 c5 44 bc b9 24 91 ba bd b4 36 bb 39 68 28 bd
       -0.012009911 -0.0011073566 -0.0027878725 -0.04111502
0000d0 ca 7e d9 bc af c3 a7 ba 2a 47 30 bc b2 64 81 3b
       -0.026549716 -0.0012799407 -0.010759154 0.0039487714
0000e0 0b de 87 3c 74 bb f3 bb e1 7c 96 bb c4 97 16 bc
       0.01658537 -0.0074381176 -0.0045925234 -0.009191457
0000f0 71 7f 13 3c e7 bc 45 3b 52 a0 4c bb cb 2f e7 3b
       0.009002552 0.003017241 -0.0031223488 0.007055258
000100 6d c9 03 bc 4c af 21 bc dc 47 98 3b 29 6d 2b 3c
       -0.008043629 -0.009868454 0.004647238 0.0104630375
000110 d4 d0 d7 bb e4 d3 e5 3b 89 f0 27 bc 74 6d 47 bc
       -0.0065861735 0.0070137847 -0.010250219 -0.012172092
000120 20 17 9b bc 4b 6a 0b bc 3d 2c a6 3b c9 df f1 3b
       -0.018931925 -0.008509229 0.0050711916 0.0073814136
000130 7b 48 c4 bb 2e 7d d2 ba fe 29 3e 3b f4 ee 05 bc
       -0.0059900857 -0.0016059035 0.0029016729 -0.008174647
000140 bc fe 4a 3c af 6e 8e 3c 20 fb 41 3c 70 07 aa b9
       0.012389835 0.017386762 0.011839658 -0.00032430468
000150 e6 d4 e2 bb a0 a7 2a bc 87 98 28 3c f4 6a 93 3b
       -0.006922352 -0.0104159415 0.010290272 0.004498834
000160 26 bf 02 bb 19 8f b0 3b 7e 6d 5d bc cf 9b 87 bc
       -0.001995036 0.0053881523 -0.0135148745 -0.016553788
000170 dc ca 0e 3c 46 bb 94 3c db 08 66 3c a4 1e 39 ba
       0.008715358 0.018155705 0.014040197 -0.0007061756
000180 b7 d6 53 bc 20 b8 09 3b 86 ef a6 3c c0 8f 0b 3c
       -0.01292961 0.0021014288 0.020377886 0.008518159
000190 e5 b8 9c 3b 7c e1 a8 bb c3 58 09 3b 2f d7 93 3b
       0.0047827833 -0.005153833 0.0020957447 0.004511736
0001a0 52 14 1b bc 2d 29 17 3c d0 c7 11 bc ac f5 e4 3b
       -0.009465294 0.009226126 -0.008897737 0.006987294
0001b0 c1 b6 e7 bb 78 33 67 bb 33 a0 a0 3c 2d 82 88 3c
       -0.0070713465 -0.003527848 0.019607639 0.016663635
0001c0 f8 34 03 bc eb 1d 17 bc b3 c9 d7 bb 61 f9 50 3c
       -0.008008234 -0.009223442 -0.0065853237 0.012754769
0001d0 5e cf 18 3c 4f a8 90 3b 52 95 e3 ba 44 b3 84 3c
       0.009326784 0.004414595 -0.0017363227 0.016198762
0001e0 7c 8b 34 3c 89 4a 09 bb d5 28 3e bc 44 31 09 3b
       0.011019584 -0.0020948967 -0.011606415 0.0020933906
0001f0 73 db 6f 3a eb c9 c0 3b b9 74 0e 3c a6 ba f8 bb
       0.0009149827 0.0058834455 0.008694821 -0.0075906096
000200 66 c9 0b bc 62 45 22 3c 0e 65 a6 b7 50 1d d9 3b
       -0.008531904 0.009904237 -1.98358e-05 0.006625809
000210 17 f3 46 bc 75 7b 8d bc af 38 33 3c 6f 18 08 3c
       -0.012142918 -0.017270783 0.010938807 0.008306607
000220 65 b7 10 bc 32 bd 8d 3a ab d8 b4 3c 25 65 92 3b
       -0.008832787 0.0010813831 0.022075972 0.004467624
000230 b9 2a 58 3c 46 00 68 bb 07 41 26 3c d4 10 4a 3c
       0.01319378 -0.0035400554 0.01014734 0.012333114
000240 01 d2 a3 bb 3d 9f 4f 3b a7 51 60 bc 10 66 34 3c
       -0.0049993997 0.0031680607 -0.013691342 0.011010662
000250 21 24 b3 3b 2d 91 0a bc fc 9c 45 bb 92 30 23 3c
       0.0054669534 -0.008457464 -0.0030153384 0.0099603105
000260 d5 b1 34 3b 76 71 86 bb ee 4c ac 3b 2d 99 3e bb
       0.0027571816 -0.004102881 0.005258194 -0.0029083
000270 9b 34 d0 3a 50 97 72 3c 2c f6 89 3a 63 96 21 3a
       0.0015884818 0.0148065835 0.0010525635 0.0006164072
000280 58 65 6c 3b b2 e7 96 ba e5 de 66 bb a6 61 8c 3b
       0.0036071148 -0.0011513142 -0.003522807 0.0042841015
000290 9e ec 88 bb 32 90 8d 3c 7b 94 eb ba ed 87 34 3c
       -0.0041785976 0.017280672 -0.0017973328 0.011018735
0002a0 73 3b 21 bb 40 ba 45 3c 32 48 ca 3b 69 19 8b 3b
       -0.0024602085 0.012068331 0.006173157 0.0042449725
0002b0 43 b4 12 bc 8d 64 92 bb 65 56 5e ba e9 91 09 3c
       -0.008954111 -0.004467553 -0.0008481502 0.008396604
0002c0 06 d7 96 3b c2 f6 3b 3a a7 93 c1 b9 42 89 40 3c
       0.0046032695 0.00071702537 -0.00036921838 0.011751475
0002d0 01 e4 9e bb 37 c6 c5 ba bc 6e f3 3b 9a 00 8f ba
       -0.0048489575 -0.001508898 0.007428972 -0.0010910213
0002e0 c7 e7 76 3b 43 55 77 bc fb 88 02 bb 44 e8 9c 3b
       0.003767477 -0.015096012 -0.0019918073 0.0047884304
0002f0 61 12 36 bb 86 59 bc 3b 93 88 d9 ba d3 e4 cc 3b
       -0.002778195 0.0057479767 -0.0016596488 0.006252864
000300 cb ca d7 3b 78 77 b8 bc 9e 25 d9 39 a2 0a 6d bc
       0.006585454 -0.022517905 0.00041417492 -0.014467867
000310 12 98 6f 3c 0b 17 10 bb ae 0b b7 3b 07 2a 45 3c
       0.014623659 -0.002198639 0.005586109 0.012033946
000320 5b 62 79 3c 26 38 f9 3b d2 e3 a0 bb af 8e e3 3b
       0.015221204 0.0076055704 -0.004909971 0.0069444994
000330 86 22 d9 bb 56 35 91 bb 12 da de bb e7 66 8f bc
       -0.00662643 -0.004431407 -0.0068008984 -0.017505122
000340 37 de df 3a 67 56 a8 bb 3b da 5e bc 4f 16 cb bb
       0.0017079775 -0.005137253 -0.013601835 -0.0061977278
000350 4e 63 a5 3b f8 77 36 3c b9 d9 f6 bb a6 16 86 bc
       0.0050472384 0.011137001 -0.007533279 -0.016368221
000360 cb 98 b0 3b 56 c1 95 bc c9 2a 2f 3a ed 6a b2 3b
       0.005389308 -0.018280666 0.00066820957 0.0054448755
000370 4e 5d 1b 3b 2f 24 a7 3b d5 eb dd 3b 5c 76 a6 3c
       0.0023706737 0.005100749 0.006772498 0.02032011
000380 53 ba ee bb 79 fa 41 3b ea 84 a9 bb 8b 3f 72 3c
       -0.007285395 0.0029598756 -0.0051733153 0.014785658
000390 98 db 36 3c 67 23 54 3c c2 e2 0d bc 8e 7d f1 bb
       0.011160754 0.012947894 -0.00866002 -0.0073697036
0003a0 07 a8 f7 ba fb 3d a9 3b 08 62 9d bb 0e 84 a9 3b
       -0.001889468 0.0051648594 -0.004802946 0.005173213
0003b0 4f e4 33 3b d3 5b ed bb 08 2f 86 3b 5c f1 e1 bb
       0.0027449315 -0.0072436123 0.004094962 -0.0068952274
0003c0 0a 1a 52 3c 5b 8f 3d 3c 99 be 56 bc 29 22 12 bb
       0.012823591 0.011569823 -0.013106965 -0.0022298193
0003d0 30 46 8a bc 86 06 2d 3c 79 39 03 3b ae c4 a2 3b
       -0.016879171 0.010560637 0.002002327 0.0049672937
0003e0 04 01 bd 3c 96 39 12 bb a4 cf 63 bb 0a be cf 3a
       0.023071773 -0.0022312156 -0.0034761215 0.0015849483
0003f0 f4 02 71 bb bb 3f 35 3c d5 dd fe bb bd 24 88 3b
       -0.0036775442 0.011062558 -0.0077779093 0.00415477

layers.0.bias f4 [256]
000000 db e0 a5 bd 9d e2 ca bd b3 70 28 3c 9d 11 40 bd
       -0.080995284 -0.09906504 0.010280776 -0.046891797
000010 df 7b ac 3d d8 42 a5 3d 9a cf ef bb 33 1e 79 3d
       0.08422064 0.0806939 -0.007318449 0.060819816
000020 b7 e3 0a 3d cb ef b6 3d 20 60 89 bd 92 96 bb 3d
       0.033908572 0.08932456 -0.067077875 0.091595784
000030 70 a0 6d bd 80 f1 fa bb 60 19 b4 3d 90 8a 2b 3d
       -0.058014333 -0.0076581836 0.087939024 0.04188019
000040 3d ea 2c 3d 80 26 9b bd 7f 1c 9a 3d fb c1 a2 3d
       0.042215575 -0.07575703 0.075249664 0.07947155
000050 ba b0 18 3d 48 ab 90 bd ba b3 75 bd b3 f5 8c bd
       0.037277915 -0.07063919 -0.059985854 -0.06882801
000060 fd 87 1c 3d 87 97 88 bd 13 c6 9a bd b7 86 34 3d
       0.038215626 -0.066695265 -0.07557311 0.044073787
000070 83 b3 61 bd aa d9 46 bd 0d 2a b4 bd 13 c0 56 bd
       -0.055102836 -0.048547424 -0.08797083 -0.05242927
000080 0a c4 00 bd 67 4e a0 39 bb 9b c8 3d 1a d0 57 3c
       -0.031436957 0.00030575992 0.09795328 0.013172174
000090 a3 72 99 3d 97 d2 6b bd c7 5a b2 bc 8d f6 2d bc
       0.07492568 -0.05757388 -0.021771802 -0.010617864
0000a0 c0 c7 f5 3c 80 e0 7c 3d 1f 09 a9 3d 2b 02 cc bd
       0.030002475 0.061737537 0.08253693 -0.09961351
0000b0 30 d5 a1 bd ab 31 93 bd eb 49 84 bd 7d a2 af bd
       -0.079019904 -0.07187208 -0.06459411 -0.08575914
0000c0 d0 8e 2b 3d 1a 9c 97 bd cf b0 80 3d f7 88 56 bd
       0.041884243 -0.07402821 0.062837236 -0.052376714
0000d0 4d 36 1b 3c 8d 1c 7b 3c 7d fe 2b bd 1a 60 42 bc
       0.0094733955 0.015326631 -0.041990746 -0.011863733
0000e0 3d 35 b5 bd 57 24 24 3d 87 54 e2 3c a0 a5 54 3d
       -0.08848045 0.04007372 0.027628196 0.051915765
0000f0 03 5f c7 3d 33 2b 05 3a 53 57 b9 3c 00 09 a7 3b
       0.09734919 0.00050799845 0.022624647 0.0050975084
000100 da 77 c8 3d 6a e3 7d 3d f0 10 ae bd 28 5e af bd
       0.09788485 0.061984457 -0.08499324 -0.08562881
000110 60 69 a8 bd 43 c7 8e bd 37 f3 71 3d 00 00 0e bb
       -0.08223224 -0.069716 0.05906984 -0.002166748
000120 17 0c 6d bd e0 b9 aa bd fa 3c 31 3d 7a 04 77 bd
       -0.057872858 -0.08336234 0.043271042 -0.060307004
000130 53 3a e9 bc a7 7f 7b bc 93 61 21 bd f8 eb 9f bd
       -0.028470194 -0.015350259 -0.039399695 -0.07808679
000140 c5 10 be 3d 0a e0 c8 bd 75 d0 87 3d 2d da 42 3d
       0.09280542 -0.09808357 0.06631557 0.04757135
000150 9a 2a e3 3c c7 ef 0f 3d 30 c7 22 3d 67 b1 64 3c
       0.027730275 0.03514078 0.03974074 0.013958312
000160 87 6b 2c 3d 23 e6 0d bd 8d ff 6e 3c 47 0f 58 3d
       0.042094734 -0.034643304 0.014587295 0.052748945
000170 4d 9d 5c 3d cd e4 fe bb 5a 35 c8 3c 97 ce c5 bd
       0.05386095 -0.00777874 0.024439503 -0.096585445
000180 3b 24 b1 3d 2a cb 9c bd a5 f9 c3 bd 87 a1 93 bc
       0.086494885 -0.07655938 -0.095691 -0.018021358
000190 13 a5 42 3d 9a 95 3c bc 07 ac b6 3d b0 88 70 3d
       0.04752071 -0.011510277 0.0891953 0.058724105
0001a0 ba 24 df bc 7a c4 c6 bd cf 46 93 3d 8f 04 a0 bd
       -0.027239192 -0.09705444 0.0719124 -0.078133695
0001b0 bd 91 aa bd 20 bd 8c 3c 00 87 2d 3d cd 78 1d ba
       -0.083285786 0.017180026 0.042365074 -0.00060070754
0001c0 9a 4d 05 ba eb 91 ac 3d 9d 64 32 3d dd 56 aa bd
       -0.0005085111 0.08426269 0.043552984 -0.08317349
0001d0 ba 27 60 3d 33 83 71 3c 93 77 e6 3c a7 2e c5 bc
       0.054725386 0.014740753 0.02813319 -0.024070097
0001e0 e7 d5 70 bd 33 b3 5b 3a 7d da 14 3d cd 85 e6 bb
       -0.058797743 0.000838089 0.03634118 -0.0070349933
0001f0 b3 2f b0 3b 0f 93 af bd b3 64 63 bd 02 b2 92 bd
       0.00537678 -0.08572971 -0.055515956 -0.071628585
000200 32 01 8e bd cd e2 c7 3a e0 4c b6 3c 2d 42 59 bd
       -0.06933822 0.0015250087 0.022253454 -0.053041626
000210 8d 03 48 bd 40 b1 88 bd 8d 1c 3e bd 33 f1 a2 bb
       -0.04883151 -0.06674433 -0.046413947 -0.004972601
000220 dd 09 1a bd c8 1c bc 3d 40 9d 39 3c 40 dd 4c 3c
       -0.037607063 0.09185177 0.011328995 0.012503922
000230 7f 49 93 bd 37 50 16 bd 08 b2 91 bd 8d 14 5c bc
       -0.07191753 -0.036697593 -0.07114035 -0.013432634
000240 12 2c 96 3d 27 f7 ab bd 67 92 da bc 77 39 3c bd
       0.073326245 -0.0839675 -0.026681138 -0.04595324
000250 ca e3 5b 3d c7 84 d4 bc ed 5e 9a 3d 80 c8 ac 3d
       0.053684033 -0.02594222 0.07537637 0.0843668
000260 33 7f 59 3c cd c2 89 bc 8d 83 38 bc 33 78 bc bd
       0.013274956 -0.016816521 -0.011261833 -0.09202614
000270 90 05 94 bd 73 ba 2a 3c 50 17 0e bd 3b b2 b0 3d
       -0.072276235 0.0104204295 -0.0346902 0.08627745
000280 c0 56 4e bd a0 5d 6e 3d 0d 8a 74 3c 67 4c ba ba
       -0.0503757 0.058194757 0.014925492 -0.0014213444
000290 a3 a7 12 bd 07 d7 0d bd a2 2d c7 3d c5 d3 a5 bd
       -0.035804402 -0.034628894 0.09725501 -0.080970325
0002a0 58 ee bf bd c0 54 98 3d 3d 3a 99 3d 42 f9 b4 3d
       -0.09371632 0.0743804 0.07481811 0.08836605
0002b0 50 30 89 3d 57 b7 c1 3d 07 ec 90 bc 27 00 aa 3d
       0.06698668 0.094587974 -0.017690672 0.0830081
0002c0 82 32 8a bd 0f d6 a3 bd a7 76 ee 3c 33 3e 1b bc
       -0.06747915 -0.07999813 0.029109312 -0.009475279
0002d0 37 d3 c6 3d 9a dd fb ba 80 d5 1c 3c b2 55 a3 3d
       0.09708255 -0.0019215823 0.009572387 0.079753295
0002e0 00 2d fd 3b b3 c4 61 bc b3 60 9d 3c 17 95 47 3d
       0.0077263117 -0.013779807 0.019211149 0.048726168
0002f0 67 c6 ab 3a f2 4a ac 3d 7b 14 b7 3d 6d d6 33 bd
       0.0013105393 0.08412732 0.08939453 -0.043905664
000300 cd 20 0a 3d cd 46 a8 3d c3 3c 98 bd ad 34 bd 3d
       0.033722688 0.08216629 -0.074334644 0.09238563
000310 2f ec af bd 13 16 59 3d f3 be 56 3d f0 7a 9b 3d
       -0.0858997 0.052999567 0.052428197 0.07591808
000320 67 eb 49 3b 9d 9d 8d bd 7a 16 b0 bd e5 fc 88 bd
       0.0030810477 -0.06914828 -0.08598037 -0.06688861
000330 d5 61 a4 bd 93 a1 b5 bc 4d dd b8 bd 10 a4 8d 3d
       -0.080264725 -0.022171771 -0.09026585 0.06916058
000340 a0 d0 9e 3d f8 8e 86 3d 3f 29 9e 3d 80 00 cc 3b
       0.07754636 0.06570238 0.07722711 0.0062256455
000350 48 b1 94 3d a3 17 2f bd 43 34 88 bd 43 e2 48 3d
       0.07260376 -0.04274715 -0.06650593 0.049043905
000360 43 0d 23 3d ba 2e 5b bd eb d2 81 bd 80 dd 34 bc
       0.03980757 -0.05351136 -0.063390575 -0.011039138
000370 60 ef 72 bd 45 57 87 3d dd a0 c1 bd 77 aa 70 3d
       -0.059310317 0.06608442 -0.0945451 0.058756318
000380 b7 b2 49 bd e0 47 45 bd dd f9 3c 3d 30 f2 15 3d
       -0.0492427 -0.04816425 0.046136726 0.03660792
000390 7b 11 a1 bd 20 f2 f5 3c f2 63 90 bd 58 66 93 3d
       -0.07864662 0.03002268 -0.07050313 0.07197255
0003a0 13 5f 91 bd c3 62 2b bd 2d 57 03 bd 33 ad 35 3d
       -0.07098212 -0.041842233 -0.03206556 0.04435463
0003b0 af 9e b8 3d 60 9a ca 3c eb cf 94 3d 2d ea 9b bc
       0.090146415 0.024731815 0.0726622 -0.019032562
0003c0 85 88 ad 3d 67 15 40 3d 3a cb 34 bd c5 14 b3 3d
       0.08473305 0.04689541 -0.044139124 0.08744196
0003d0 7d cc 9c 3d 17 22 8d bd a2 25 bc bd 7a 2b 97 bc
       0.076561905 -0.06891268 -0.091868654 -0.018453348
0003e0 2d 6c 8e bd e7 57 99 3b 4d dd 8e 3b 9a bc 2c bb
       -0.06954227 0.004679668 0.004359877 -0.0026357532
0003f0 3d 5e 86 3d 07 a7 c4 bd ab 0c ae bd 0d cf b7 3c
       0.06560943 -0.096021704 -0.0849851 0.022437597

layers.3.weight f4 [256]
000000 00 00 80 3f 00 00 80 3f 00 00 80 3f 00 00 80 3f
       1.0 1.0 1.0 1.0
000010 00 00 80 3f 00 00 80 3f 00 00 80 3f 00 00 80 3f
       1.0 1.0 1.0 1.0
000020 00 00 80 3f 00 00 80 3f 00 00 80 3f 00 00 80 3f
       1.0 1.0 1.0 1.0
000030 00 00 80 3f 00 00 80 3f 00 00 80 3f 00 00 80 3f
       1.0 1.0 1.0 1.0
000040 00 00 80 3f 00 00 80 3f 00 00 80 3f 00 00 80 3f
       1.0 1.0 1.0 1.0
000050 00 00 80 3f 00 00 80 3f 00 00 80 3f 00 00 80 3f
       1.0 1.0 1.0 1.0
000060 00 00 80 3f 00 00 80 3f 00 00 80 3f 00 00 80 3f
       1.0 1.0 1.0 1.0
000070 00 00 80 3f 00 00 80 3f 00 00 80 3f 00 00 80 3f
       1.0 1.0 1.0 1.0
000080 00 00 80 3f 00 00 80 3f 00 00 80 3f 00 00 80 3f
       1.0 1.0 1.0 1.0
000090 00 00 80 3f 00 00 80 3f 00 00 80 3f 00 00 80 3f
       1.0 1.0 1.0 1.0
0000a0 00 00 80 3f 00 00 80 3f 00 00 80 3f 00 00 80 3f
       1.0 1.0 1.0 1.0
0000b0 00 00 80 3f 00 00 80 3f 00 00 80 3f 00 00 80 3f
       1.0 1.0 1.0 1.0
0000c0 00 00 80 3f 00 00 80 3f 00 00 80 3f 00 00 80 3f
       1.0 1.0 1.0 1.0
0000d0 00 00 80 3f 00 00 80 3f 00 00 80 3f 00 00 80 3f
       1.0 1.0 1.0 1.0
0000e0 00 00 80 3f 00 00 80 3f 00 00 80 3f 00 00 80 3f
       1.0 1.0 1.0 1.0
0000f0 00 00 80 3f 00 00 80 3f 00 00 80 3f 00 00 80 3f
       1.0 1.0 1.0 1.0
000100 00 00 80 3f 00 00 80 3f 00 00 80 3f 00 00 80 3f
       1.0 1.0 1.0 1.0
000110 00 00 80 3f 00 00 80 3f 00 00 80 3f 00 00 80 3f
       1.0 1.0 1.0 1.0
000120 00 00 80 3f 00 00 80 3f 00 00 80 3f 00 00 80 3f
       1.0 1.0 1.0 1.0
000130 00 00 80 3f 00 00 80 3f 00 00 80 3f 00 00 80 3f
       1.0 1.0 1.0 1.0
000140 00 00 80 3f 00 00 80 3f 00 00 80 3f 00 00 80 3f
       1.0 1.0 1.0 1.0
000150 00 00 80 3f 00 00 80 3f 00 00 80 3f 00 00 80 3f
       1.0 1.0 1.0 1.0
000160 00 00 80 3f 00 00 80 3f 00 00 80 3f 00 00 80 3f
       1.0 1.0 1.0 1.0
000170 00 00 80 3f 00 00 80 3f 00 00 80 3f 00 00 80 3f
       1.0 1.0 1.0 1.0
000180 00 00 80 3f 00 00 80 3f 00 00 80 3f 00 00 80 3f
       1.0 1.0 1.0 1.0
000190 00 00 80 3f 00 00 80 3f 00 00 80 3f 00 00 80 3f
       1.0 1.0 1.0 1.0
0001a0 00 00 80 3f 00 00 80 3f 00 00 80 3f 00 00 80 3f
       1.0 1.0 1.0 1.0
0001b0 00 00 80 3f 00 00 80 3f 00 00 80 3f 00 00 80 3f
       1.0 1.0 1.0 1.0
0001c0 00 00 80 3f 00 00 80 3f 00 00 80 3f 00 00 80 3f
       1.0 1.0 1.0 1.0
0001d0 00 00 80 3f 00 00 80 3f 00 00 80 3f 00 00 80 3f
       1.0 1.0 1.0 1.0
0001e0 00 00 80 3f 00 00 80 3f 00 00 80 3f 00 00 80 3f
       1.0 1.0 1.0 1.0
0001f0 00 00 80 3f 00 00 80 3f 00 00 80 3f 00 00 80 3f
       1.0 1.0 1.0 1.0
000200 00 00 80 3f 00 00 80 3f 00 00 80 3f 00 00 80 3f
       1.0 1.0 1.0 1.0
000210 00 00 80 3f 00 00 80 3f 00 00 80 3f 00 00 80 3f
       1.0 1.0 1.0 1.0
000220 00 00 80 3f 00 00 80 3f 00 00 80 3f 00 00 80 3f
       1.0 1.0 1.0 1.0
000230 00 00 80 3f 00 00 80 3f 00 00 80 3f 00 00 80 3f
       1.0 1.0 1.0 1.0
000240 00 00 80 3f 00 00 80 3f 00 00 80 3f 00 00 80 3f
       1.0 1.0 1.0 1.0
000250 00 00 80 3f 00 00 80 3f 00 00 80 3f 00 00 80 3f
       1.0 1.0 1.0 1.0
000260 00 00 80 3f 00 00 80 3f 00 00 80 3f 00 00 80 3f
       1.0 1.0 1.0 1.0
000270 00 00 80 3f 00 00 80 3f 00 00 80 3f 00 00 80 3f
       1.0 1.0 1.0 1.0
000280 00 00 80 3f 00 00 80 3f 00 00 80 3f 00 00 80 3f
       1.0 1.0 1.0 1.0
000290 00 00 80 3f 00 00 80 3f 00 00 80 3f 00 00 80 3f
       1.0 1.0 1.0 1.0
0002a0 00 00 80 3f 00 00 80 3f 00 00 80 3f 00 00 80 3f
       1.0 1.0 1.0 1.0
0002b0 00 00 80 3f 00 00 80 3f 00 00 80 3f 00 00 80 3f
       1.0 1.0 1.0 1.0
0002c0 00 00 80 3f 00 00 80 3f 00 00 80 3f 00 00 80 3f
       1.0 1.0 1.0 1.0
0002d0 00 00 80 3f 00 00 80 3f 00 00 80 3f 00 00 80 3f
       1.0 1.0 1.0 1.0
0002e0 00 00 80 3f 00 00 80 3f 00 00 80 3f 00 00 80 3f
       1.0 1.0 1.0 1.0
0002f0 00 00 80 3f 00 00 80 3f 00 00 80 3f 00 00 80 3f
       1.0 1.0 1.0 1.0
000300 00 00 80 3f 00 00 80 3f 00 00 80 3f 00 00 80 3f
       1.0 1.0 1.0 1.0
000310 00 00 80 3f 00 00 80 3f 00 00 80 3f 00 00 80 3f
       1.0 1.0 1.0 1.0
000320 00 00 80 3f 00 00 80 3f 00 00 80 3f 00 00 80 3f
       1.0 1.0 1.0 1.0
000330 00 00 80 3f 00 00 80 3f 00 00 80 3f 00 00 80 3f
       1.0 1.0 1.0 1.0
000340 00 00 80 3f 00 00 80 3f 00 00 80 3f 00 00 80 3f
       1.0 1.0 1.0 1.0
000350 00 00 80 3f 00 00 80 3f 00 00 80 3f 00 00 80 3f
       1.0 1.0 1.0 1.0
000360 00 00 80 3f 00 00 80 3f 00 00 80 3f 00 00 80 3f
       1.0 1.0 1.0 1.0
000370 00 00 80 3f 00 00 80 3f 00 00 80 3f 00 00 80 3f
       1.0 1.0 1.0 1.0
000380 00 00 80 3f 00 00 80 3f 00 00 80 3f 00 00 80 3f
       1.0 1.0 1.0 1.0
000390 00 00 80 3f 00 00 80 3f 00 00 80 3f 00 00 80 3f
       1.0 1.0 1.0 1.0
0003a0 00 00 80 3f 00 00 80 3f 00 00 80 3f 00 00 80 3f
       1.0 1.0 1.0 1.0
0003b0 00 00 80 3f 00 00 80 3f 00 00 80 3f 00 00 80 3f
       1.0 1.0 1.0 1.0
0003c0 00 00 80 3f 00 00 80 3f 00 00 80 3f 00 00 80 3f
       1.0 1.0 1.0 1.0
0003d0 00 00 80 3f 00 00 80 3f 00 00 80 3f 00 00 80 3f
       1.0 1.0 1.0 1.0
0003e0 00 00 80 3f 00 00 80 3f 00 00 80 3f 00 00 80 3f
       1.0 1.0 1.0 1.0
0003f0 00 00 80 3f 00 00 80 3f 00 00 80 3f 00 00 80 3f
       1.0 1.0 1.0 1.0

layers.3.bias f4 [256]
000000 00 00 00 00 00 00 00 00 00 00 00 00 00 00 00 00
       0.0 0.0 0.0 0.0
000010 00 00 00 00 00 00 00 00 00 00 00 00 00 00 00 00
       0.0 0.0 0.0 0.0
000020 00 00 00 00 00 00 00 00 00 00 00 00 00 00 00 00
       0.0 0.0 0.0 0.0
000030 00 00 00 00 00 00 00 00 00 00 00 00 00 00 00 00
       0.0 0.0 0.0 0.0
000040 00 00 00 00 00 00 00 00 00 00 00 00 00 00 00 00
       0.0 0.0 0.0 0.0
000050 00 00 00 00 00 00 00 00 00 00 00 00 00 00 00 00
       0.0 0.0 0.0 0.0
000060 00 00 00 00 00 00 00 00 00 00 00 00 00 00 00 00
       0.0 0.0 0.0 0.0
000070 00 00 00 00 00 00 00 00 00 00 00 00 00 00 00 00
       0.0 0.0 0.0 0.0
000080 00 00 00 00 00 00 00 00 00 00 00 00 00 00 00 00
       0.0 0.0 0.0 0.0
000090 00 00 00 00 00 00 00 00 00 00 00 00 00 00 00 00
       0.0 0.0 0.0 0.0
0000a0 00 00 00 00 00 00 00 00 00 00 00 00 00 00 00 00
       0.0 0.0 0.0 0.0
0000b0 00 00 00 00 00 00 00 00 00 00 00 00 00 00 00 00
       0.0 0.0 0.0 0.0
0000c0 00 00 00 00 00 00 00 00 00 00 00 00 00 00 00 00
       0.0 0.0 0.0 0.0
0000d0 00 00 00 00 00 00 00 00 00 00 00 00 00 00 00 00
       0.0 0.0 0.0 0.0
0000e0 00 00 00 00 00 00 00 00 00 00 00 00 00 00 00 00
       0.0 0.0 0.0 0.0
0000f0 00 00 00 00 00 00 00 00 00 00 00 00 00 00 00 00
       0.0 0.0 0.0 0.0
000100 00 00 00 00 00 00 00 00 00 00 00 00 00 00 00 00
       0.0 0.0 0.0 0.0
000110 00 00 00 00 00 00 00 00 00 00 00 00 00 00 00 00
       0.0 0.0 0.0 0.0
000120 00 00 00 00 00 00 00 00 00 00 00 00 00 00 00 00
       0.0 0.0 0.0 0.0
000130 00 00 00 00 00 00 00 00 00 00 00 00 00 00 00 00
       0.0 0.0 0.0 0.0
000140 00 00 00 00 00 00 00 00 00 00 00 00 00 00 00 00
       0.0 0.0 0.0 0.0
000150 00 00 00 00 00 00 00 00 00 00 00 00 00 00 00 00
       0.0 0.0 0.0 0.0
000160 00 00 00 00 00 00 00 00 00 00 00 00 00 00 00 00
       0.0 0.0 0.0 0.0
000170 00 00 00 00 00 00 00 00 00 00 00 00 00 00 00 00
       0.0 0.0 0.0 0.0
000180 00 00 00 00 00 00 00 00 00 00 00 00 00 00 00 00
       0.0 0.0 0.0 0.0
000190 00 00 00 00 00 00 00 00 00 00 00 00 00 00 00 00
       0.0 0.0 0.0 0.0
0001a0 00 00 00 00 00 00 00 00 00 00 00 00 00 00 00 00
       0.0 0.0 0.0 0.0
0001b0 00 00 00 00 00 00 00 00 00 00 00 00 00 00 00 00
       0.0 0.0 0.0 0.0
0001c0 00 00 00 00 00 00 00 00 00 00 00 00 00 00 00 00
       0.0 0.0 0.0 0.0
0001d0 00 00 00 00 00 00 00 00 00 00 00 00 00 00 00 00
       0.0 0.0 0.0 0.0
0001e0 00 00 00 00 00 00 00 00 00 00 00 00 00 00 00 00
       0.0 0.0 0.0 0.0
0001f0 00 00 00 00 00 00 00 00 00 00 00 00 00 00 00 00
       0.0 0.0 0.0 0.0
000200 00 00 00 00 00 00 00 00 00 00 00 00 00 00 00 00
       0.0 0.0 0.0 0.0
000210 00 00 00 00 00 00 00 00 00 00 00 00 00 00 00 00
       0.0 0.0 0.0 0.0
000220 00 00 00 00 00 00 00 00 00 00 00 00 00 00 00 00
       0.0 0.0 0.0 0.0
000230 00 00 00 00 00 00 00 00 00 00 00 00 00 00 00 00
       0.0 0.0 0.0 0.0
000240 00 00 00 00 00 00 00 00 00 00 00 00 00 00 00 00
       0.0 0.0 0.0 0.0
000250 00 00 00 00 00 00 00 00 00 00 00 00 00 00 00 00
       0.0 0.0 0.0 0.0
000260 00 00 00 00 00 00 00 00 00 00 00 00 00 00 00 00
       0.0 0.0 0.0 0.0
000270 00 00 00 00 00 00 00 00 00 00 00 00 00 00 00 00
       0.0 0.0 0.0 0.0
000280 00 00 00 00 00 00 00 00 00 00 00 00 00 00 00 00
       0.0 0.0 0.0 0.0
000290 00 00 00 00 00 00 00 00 00 00 00 00 00 00 00 00
       0.0 0.0 0.0 0.0
0002a0 00 00 00 00 00 00 00 00 00 00 00 00 00 00 00 00
       0.0 0.0 0.0 0.0
0002b0 00 00 00 00 00 00 00 00 00 00 00 00 00 00 00 00
       0.0 0.0 0.0 0.0
0002c0 00 00 00 00 00 00 00 00 00 00 00 00 00 00 00 00
       0.0 0.0 0.0 0.0
0002d0 00 00 00 00 00 00 00 00 00 00 00 00 00 00 00 00
       0.0 0.0 0.0 0.0
0002e0 00 00 00 00 00 00 00 00 00 00 00 00 00 00 00 00
       0.0 0.0 0.0 0.0
0002f0 00 00 00 00 00 00 00 00 00 00 00 00 00 00 00 00
       0.0 0.0 0.0 0.0
000300 00 00 00 00 00 00 00 00 00 00 00 00 00 00 00 00
       0.0 0.0 0.0 0.0
000310 00 00 00 00 00 00 00 00 00 00 00 00 00 00 00 00
       0.0 0.0 0.0 0.0
000320 00 00 00 00 00 00 00 00 00 00 00 00 00 00 00 00
       0.0 0.0 0.0 0.0
000330 00 00 00 00 00 00 00 00 00 00 00 00 00 00 00 00
       0.0 0.0 0.0 0.0
000340 00 00 00 00 00 00 00 00 00 00 00 00 00 00 00 00
       0.0 0.0 0.0 0.0
000350 00 00 00 00 00 00 00 00 00 00 00 00 00 00 00 00
       0.0 0.0 0.0 0.0
000360 00 00 00 00 00 00 00 00 00 00 00 00 00 00 00 00
       0.0 0.0 0.0 0.0
000370 00 00 00 00 00 00 00 00 00 00 00 00 00 00 00 00
       0.0 0.0 0.0 0.0
000380 00 00 00 00 00 00 00 00 00 00 00 00 00 00 00 00
       0.0 0.0 0.0 0.0
000390 00 00 00 00 00 00 00 00 00 00 00 00 00 00 00 00
       0.0 0.0 0.0 0.0
0003a0 00 00 00 00 00 00 00 00 00 00 00 00 00 00 00 00
       0.0 0.0 0.0 0.0
0003b0 00 00 00 00 00 00 00 00 00 00 00 00 00 00 00 00
       0.0 0.0 0.0 0.0
0003c0 00 00 00 00 00 00 00 00 00 00 00 00 00 00 00 00
       0.0 0.0 0.0 0.0
0003d0 00 00 00 00 00 00 00 00 00 00 00 00 00 00 00 00
       0.0 0.0 0.0 0.0
0003e0 00 00 00 00 00 00 00 00 00 00 00 00 00 00 00 00
       0.0 0.0 0.0 0.0
0003f0 00 00 00 00 00 00 00 00 00 00 00 00 00 00 00 00
       0.0 0.0 0.0 0.0
